src/ga_quadruped/sim2sim/policy/go2_policy.onnx (onnx, 758549 bytes, 8 tensors)

actor.0.weight f4 [512, 45]
000000 2a 66 44 bd 02 95 b6 bd 20 05 46 3d 47 cd 95 bd
       -0.047948994 -0.0891514 0.04834473 -0.07314544
000010 64 31 0d be d4 94 11 bd fb 50 b7 be ef d0 e9 bd
       -0.13788372 -0.035542324 -0.3580397 -0.11416804
000020 09 0d e9 3b c0 d7 fa bc 33 12 86 3e e1 bd 4e be
       0.0071121496 -0.030620456 0.2618576 -0.2018962
000030 95 4d bf bd 3f e6 8f 3e 93 c0 97 3c ae bc 47 be
       -0.093409695 0.2810535 0.018524444 -0.1950557
000040 d6 2f 25 3e f5 13 6f be 51 06 ff 3e ca 4f d7 3d
       0.16131529 -0.23347457 0.49809507 0.105132654
000050 b5 f0 2e 3e ee 13 85 3e 08 a2 b2 bd 6d f8 92 3d
       0.1708401 0.25991768 -0.08722311 0.0717629
000060 80 b9 5a 3d f9 24 37 bd dc 4a b1 3e b8 f4 69 be
       0.053399563 -0.044712994 0.34627426 -0.22847259
000070 51 2f cd bc 16 ad 39 bc 4f ea 74 3d 81 e3 f4 3d
       -0.025046976 -0.011332771 0.059793767 0.119574554
000080 e7 0c 4c be c7 07 f8 bd 5d 94 e6 bd 94 07 09 3e
       -0.19926797 -0.121108584 -0.11258767 0.13381797
000090 65 f6 07 bc 9b 25 5e bd 09 6b bb ba c8 8f 85 3d
       -0.008298491 -0.054235082 -0.0014298867 0.06521565
0000a0 6b b3 e2 bd 1b 45 8e 3d bf 47 ca ba a1 9e 26 be
       -0.110693775 0.069467746 -0.0015432759 -0.1627145
0000b0 7c 77 13 bb 63 74 0b 3d f8 7a e2 bd d7 3b 0d 3f
       -0.0022501638 0.034046542 -0.11058611 0.55169433
0000c0 29 8e fe 3d eb 20 a7 3e 39 cd a4 3d bc 1c 54 3e
       0.12429459 0.32642302 0.080469556 0.20714086
0000d0 e9 57 aa 3e f0 a6 11 be 98 e9 3c 3e bc 82 84 3d
       0.33270195 -0.14223838 0.18448484 0.06470248
0000e0 5c 80 fa 3d 7f 6c 8b be ae 61 84 be 68 b9 99 bc
       0.12231514 -0.27231213 -0.25855774 -0.018765166
0000f0 25 1b 93 3e 66 fd 9d bd 2d 3a 11 be 42 be 8a be
       0.28731647 -0.077143475 -0.14182349 -0.2709828
000100 34 94 4c be 82 d3 59 3d 43 f3 8f 3d 0b 12 98 bc
       -0.1997841 0.053180225 0.0702882 -0.018563291
000110 ba c0 14 3e 56 84 32 be 4b 7f 47 3c c8 28 8a 3d
       0.14526644 -0.17433295 0.012176345 0.0674606
000120 74 04 52 3e 45 e8 88 be eb 37 ff 3d 5c ec 04 3c
       0.20509511 -0.26739708 0.124618374 0.008112993
000130 2d 07 86 bd 1b 3e 18 be 6d a9 07 3d e5 87 28 3d
       -0.065443374 -0.14867441 0.03312056 0.041145224
000140 c4 7d 9c bb bb 33 97 bc 52 ae 28 3d 24 fa 82 bc
       -0.0047757346 -0.018457284 0.04118187 -0.015988417
000150 52 f9 bf bd de e0 e3 bd 03 c1 95 bb 0d 52 87 3c
       -0.09373726 -0.111268744 -0.004570128 0.016518617
000160 69 03 1a 3d 1d cc 2a 3d 23 d5 0b bd e1 ab 38 be
       0.03760091 0.041698564 -0.03413881 -0.18034317
000170 04 47 38 be e4 ff 05 be 6e 77 24 3e 3f bb b2 3d
       -0.1799584 -0.13085896 0.16061184 0.087271206
000180 32 d3 c2 3e 30 d0 2e bf 9b 42 a5 bd ae 41 c0 bc
       0.38051754 -0.6828642 -0.080693446 -0.023468819
000190 22 88 0c be b0 ad a2 3d 13 51 de 3d d9 e2 27 3d
       -0.13723806 0.079432845 0.108553074 0.040987823
0001a0 f4 0b 18 3f d1 90 02 3e 85 0d 0d bc da 2c 6c 3e
       0.5939324 0.12750556 -0.00860918 0.23063985
0001b0 90 6b d7 bd e7 3c d4 3d 0e 65 e5 3d e5 2d 84 be
       -0.10518563 0.10363179 0.11200915 -0.25816265
0001c0 af 37 84 3d 6d 55 0c be 99 c3 72 3d 5f 9a c1 bc
       0.06455933 -0.13704462 0.059268568 -0.02363318
0001d0 d7 d7 86 3d 6a d8 b7 3d 4d 37 02 bd 75 83 72 be
       0.06584137 0.089768246 -0.03179102 -0.2368296
0001e0 57 6e 10 3d 5a da f6 3b 31 df 23 be 3c 60 7c 3c
       0.03526148 0.0075333538 -0.1600311 0.015403803
0001f0 fc 8e 88 3d 65 d9 f5 3c 24 34 e8 bd ea 69 de 3d
       0.06667897 0.030010888 -0.1133807 0.10860045
000200 d4 15 b4 3d 02 98 6a bd 15 ca 2a 3d 69 ed 51 3c
       0.08793226 -0.057273872 0.041696627 0.012812951
000210 1d 5b f4 bb 4f c3 b0 3d b1 0c 06 3d 41 4e 99 3c
       -0.0074571506 0.08631002 0.032726947 0.018714072
000220 2d 1c 66 be 3e 28 6a 3e be 1a b3 3d 0c 64 73 3e
       -0.22471686 0.22866914 0.08745335 0.23768634
000230 01 24 61 3d ee b2 9a 3d cd 0a 88 be 15 80 57 3d
       0.054965977 0.075536594 -0.2657074 0.052612383
000240 e8 3b cd 3e 52 cd 9b be 77 bb 2c bd cc 2a d2 3d
       0.40084767 -0.30430084 -0.042170968 0.10262069
000250 7e f1 78 be a3 7f 22 3e a7 df 9f bd fa d3 59 be
       -0.24310872 0.15869002 -0.0780633 -0.21272269
000260 eb 0d 0e 3f 09 34 a3 3e 29 d0 05 3e c3 64 7e 3e
       0.5548999 0.31875637 0.13067688 0.24843125
000270 5b 77 29 bd 97 84 0d be 27 8c c0 3d 71 27 3c be
       -0.041373592 -0.1382011 0.09401732 -0.1837442
000280 ff b7 1f be 0f 37 88 bd 10 c8 ee 3d 3f 3e d2 be
       -0.15597533 -0.066511266 0.11659253 -0.41063115
000290 e4 df 26 3e 42 46 c3 3e 04 a1 01 be d2 4b 01 be
       0.16296345 0.3813954 -0.12659079 -0.1262658
0002a0 63 9b 95 3d 70 a0 69 3d 79 3f ea bd 40 ed b1 3b
       0.07305028 0.05703777 -0.11437888 0.0054298937
0002b0 ac a7 5d 3d d9 16 89 3d 19 57 20 bd 72 7c ab 3d
       0.054114982 0.06693811 -0.039145563 0.083733454
0002c0 b1 d2 a7 bd f4 60 20 3c 24 f5 28 3d d7 2e 42 bd
       -0.08194483 0.00978874 0.04124941 -0.04740795
0002d0 17 26 b1 3c d3 db b4 be fb ff 82 3e c2 db 90 3d
       0.021624608 -0.35323963 0.25585923 0.070731655
0002e0 08 ed 8b 3e 0e e2 05 be 91 63 11 3f 5a 19 39 3e
       0.27329278 -0.13074514 0.5679255 0.18076077
0002f0 9d e5 b6 3d f5 3e 89 3e 14 64 90 be 1e e6 5d 3e
       0.08930514 0.26805845 -0.28201354 0.21669814
000300 62 cd b4 be b7 c7 67 3e 82 38 a2 3d 08 c6 a2 3e
       -0.35312945 0.22634779 0.07920934 0.3179171
000310 ac 4c c9 3d 09 a6 cc bc 6d 6a 31 3d 2b ce 8b 3e
       0.09829077 -0.024981515 0.043314386 0.2730573
000320 8d f3 81 bd 7e fb f3 3d b7 55 10 be cb 6e e3 3d
       -0.06345282 0.11913203 -0.14095198 0.111051165
000330 d2 c0 9e bd 57 b3 df 3d 8e c1 22 3e 58 92 f8 3d
       -0.07751621 0.10922878 0.15894148 0.12137288
000340 41 21 61 3d ec b8 fc 3d 06 7c 7f 3d da ba 10 3e
       0.054963354 0.123399585 0.062374137 0.14133778
000350 8e 34 59 3d 60 09 c3 bc 02 8b f6 3c 2f 7a a2 ba
       0.053028636 -0.023808181 0.030095581 -0.0012396033
000360 61 d2 22 bd a4 ae a3 3c fc e7 b7 3a ba b0 bb bd
       -0.039751414 0.019980736 0.0014030929 -0.09164567
000370 0e b4 65 3d 87 16 43 bd 29 7a 89 bd 46 a4 5b bd
       0.056079917 -0.047628906 -0.06712753 -0.05362346
000380 58 6b 12 3d 21 5b 6c 3b 93 19 ca 3d fc 36 12 be
       0.035746902 0.003606506 0.09868159 -0.14278787
000390 42 dc 3b be 8a d9 8f bb 11 13 23 bc f4 4d 89 3e
       -0.1834574 -0.0043899463 -0.009953276 0.26817286
0003a0 47 6d 51 3e a6 ce 26 be ec 3d 0a 3f f0 04 fa bd
       0.20451842 -0.16289768 0.54000735 -0.12207973
0003b0 32 11 18 be 1e fe 40 be a7 18 6d 3e c7 7d b7 be
       -0.1485031 -0.18846938 0.23153935 -0.35838148
0003c0 6d 45 14 be 9a c7 a3 3b e3 67 d2 3e f3 e5 45 be
       -0.14479609 0.0049981596 0.41094884 -0.19326
0003d0 e8 19 1c be ae c1 0a bd 0f c5 6c bc ce 24 01 be
       -0.15244257 -0.033876114 -0.014451279 -0.12611696
0003e0 66 ac 23 be 33 e3 bb bd 52 6d 53 bd 0d 79 ef 3d
       -0.15983734 -0.09174194 -0.051617928 0.116930105
0003f0 bd 1e 50 bd 51 2d 8a 3e 65 31 48 bc 20 07 41 be
       -0.050810564 0.269877 -0.012218808 -0.18850374

actor.0.bias f4 [512]
000000 77 62 a3 3d 7a 0b dd bd d3 1b 42 3d 44 40 ff 3d
       0.07977765 -0.107932046 0.047389816 0.124634296
000010 6c f9 80 bc a8 cd 45 bb 87 d6 a5 bd 14 4c 8b bc
       -0.015743934 -0.0030182395 -0.080975585 -0.01700405
000020 48 bd 81 3c d5 8b a2 3d 76 c6 73 bd 0c fc 14 bc
       0.015837327 0.07936827 -0.05951544 -0.009093296
000030 0a 79 88 bd 5d 33 e7 bd df 4b 8b bc a5 2b 9d 3d
       -0.06663711 -0.11289094 -0.017003952 0.0767434
000040 c5 62 15 be db 7c 15 bb e7 58 e5 bd 4b 89 aa 3d
       -0.14588459 -0.0022810015 -0.111985974 0.08326968
000050 d2 a3 61 bd 94 9f 2b bc 15 47 ad bd 5c 4f f7 bc
       -0.05508787 -0.010475058 -0.084608234 -0.030189209
000060 71 95 9d bc 39 a7 0b be a9 f7 78 3d 32 68 ba 3d
       -0.019236298 -0.13638009 0.060783062 0.09101905
000070 44 35 06 be 92 9d 94 3d 5b 7d d4 3d fa 51 a6 bd
       -0.13106257 0.07256617 0.10375472 -0.081211045
000080 5f aa c5 3c 94 a1 96 3c 6a 97 11 3d 26 d6 b3 3c
       0.02412909 0.018387593 0.03554479 0.0219527
000090 69 df 0e be c0 d1 61 bd 62 8a 0a be 39 bf 15 be
       -0.13952412 -0.055131674 -0.13529351 -0.14623727
0000a0 d1 ea 66 bd 9f ee 94 bd 59 bf c2 3b a3 7f d7 bd
       -0.056376282 -0.07272076 0.0059432206 -0.10522392
0000b0 77 b2 a9 3d e0 08 ea 3d f0 f0 f5 3d 69 54 b2 bd
       0.082859926 0.11427474 0.12008846 -0.08707506
0000c0 52 90 d0 3d 47 19 c2 3d cf 8f 80 3c ad 38 f8 3d
       0.10183777 0.094774775 0.015693573 0.12120185
0000d0 1e 08 0c 3e 5c d2 43 bd 48 2a 90 3d c6 a7 c9 3d
       0.13674971 -0.047808036 0.070393145 0.09846453
0000e0 04 de 73 bd 4b 13 47 3d 97 f3 b9 bd d2 8b a4 3d
       -0.059537902 0.048602384 -0.09079664 0.08034481
0000f0 5d c6 2b 3d ec 20 4d bd 22 58 f8 bd 27 75 80 bd
       0.04193722 -0.050080225 -0.12126185 -0.06272345
000100 f2 9f 4b 3d f7 53 7e bd 61 11 c1 bd cb 7f 9d bd
       0.049713083 -0.062091794 -0.09427143 -0.0769039
000110 73 26 b6 bd 7a aa 99 3d bb 26 fb bd 9f 57 62 3c
       -0.08894052 0.07503219 -0.122632466 0.013814836
000120 28 90 da bc 75 23 80 3d 14 87 00 3c d2 dc 91 3d
       -0.026680067 0.06256763 0.007844705 0.07122196
000130 79 d9 41 3d b5 58 85 bd ce ed 0e be 09 da a4 bc
       0.04732654 -0.0651106 -0.13957903 -0.020123499
000140 0f f1 a8 3c 13 a3 16 3c b5 61 94 3c 73 fc 8d bd
       0.020622758 0.009194153 0.018112997 -0.069329165
000150 cf 29 f3 3d 7d 3a 40 bd 08 47 bc 3d 88 a4 77 bd
       0.11873209 -0.04693078 0.09193236 -0.060459644
000160 b5 68 b3 3c 4c 58 4f bc c0 1b 96 bd 0b f0 9b bd
       0.021900514 -0.012655329 -0.07329512 -0.07614144
000170 c4 f6 ac bd 9d b3 9c bd d1 64 a5 bd b2 b2 8d bd
       -0.08445504 -0.07651446 -0.0807587 -0.06918849
000180 de 2c 9f 3c ed 36 cf bc 18 1e 2e bd 0b ee bc bc
       0.019430574 -0.025294745 -0.04250917 -0.023062726
000190 c5 93 57 bd dc 4c b8 bd 7d 1c c4 3d b2 0c a5 bb
       -0.05263116 -0.08999035 0.09575746 -0.005036914
0001a0 d6 99 f4 3d f7 95 b0 3d 8e f9 a7 3c ea 3a ef 3d
       0.119434044 0.086223535 0.02050474 0.11681159
0001b0 17 f0 65 bd 24 0a 6d bd ad 7e f5 bd 3e fe 04 bc
       -0.05613717 -0.057871 -0.11987052 -0.008117257
0001c0 f1 72 7a bd 1c ac 36 be 22 9c ae bd 42 8f be bd
       -0.061144773 -0.17839092 -0.08525874 -0.09304668
0001d0 50 21 01 bd ec 7c 96 bd 62 21 71 bd 9e 4f f4 bd
       -0.03152591 -0.07348046 -0.058869727 -0.11929248
0001e0 c6 b1 91 bc 48 aa f9 bd 83 f6 67 3d d9 f3 46 3d
       -0.017784964 -0.12190682 0.056631576 0.048572395
0001f0 8f 93 ba bc 58 70 aa 3d ab b0 9d bd 2b 6a 04 be
       -0.02277544 0.08322209 -0.07699712 -0.12931125
000200 c8 d4 5b 3d 3e 94 14 bc 11 6a 7a bd b8 60 5f bc
       0.05366972 -0.009068547 -0.06113631 -0.013633899
000210 a1 ab 8c 3d 34 34 e1 bd be f0 de bb 8f c1 ba 3c
       0.06868673 -0.10996285 -0.006803601 0.022797374
000220 fc d0 a3 3d 84 4c bb 3d dd 4d aa bd bb 34 16 3d
       0.07998845 0.091454536 -0.083156325 0.03667138
000230 3a 5b bc 3d fe 69 b7 3d de 51 32 3d d5 f0 72 bd
       0.091970876 0.08955763 0.043535106 -0.059311707
000240 cb 71 61 bd 24 56 62 bd f5 fd 8d bd ff 73 67 3d
       -0.055040162 -0.05525793 -0.06933204 0.056507107
000250 ac aa f8 39 48 80 c8 bd 30 38 92 bd db 36 09 be
       0.00047429407 -0.09790093 -0.07139623 -0.13399832
000260 e9 5f b4 3c 29 6f ff ba be 2c fd bd 20 7f 64 3a
       0.02201839 -0.0019488084 -0.123620495 0.0008716453
000270 4c fe 65 3d 54 8b 73 3d 28 a3 0b be 5a 45 15 3d
       0.05615072 0.059459046 -0.13636458 0.036443092
000280 f5 71 3c 3c b2 70 04 3e 71 59 f2 bd 1d a6 8a 3c
       0.011501779 0.12933615 -0.11833466 0.016924912
000290 2d aa 13 bd 7f d4 0f be df 2b c7 bd cd 8f d5 bd
       -0.036050964 -0.14045905 -0.097251646 -0.104278184
0002a0 d7 f3 a7 bd bb a3 19 3c 97 a7 f4 bd 69 70 89 bb
       -0.08200806 0.009377415 -0.11946028 -0.0041943085
0002b0 ce 7f c2 bd 17 76 1c bd 0b 11 8a bd 11 c0 88 3d
       -0.09497033 -0.038198557 -0.06741532 0.06677259
0002c0 59 d8 d5 bd 69 c8 bd bd 45 6a 1d be ab c2 6d bd
       -0.10441656 -0.09266741 -0.1537257 -0.058046978
0002d0 60 47 3b 3b 09 87 d4 3c 55 d7 ec 3b 4b fc f2 3c
       0.0028576478 0.025943296 0.007227818 0.029661318
0002e0 8c 54 90 3c 7d 1d b6 3d d5 17 ac 3d ef 31 98 bd
       0.01761844 0.08892343 0.08402983 -0.07431399
0002f0 c1 c6 54 bd 32 c2 93 bd a2 79 c7 bd ab e6 83 bd
       -0.05194736 -0.07214774 -0.097399965 -0.06440481
000300 45 90 24 bd 82 bc 09 3e 91 3f 6d 3d 37 6f c1 bd
       -0.04017665 0.13450816 0.05792195 -0.09445041
000310 30 bd ed bd ac 2e 6b 3d 78 75 f6 3c a8 1a 9a 3d
       -0.1160835 0.057417557 0.03008531 0.075246155
000320 02 e4 34 3d e9 36 ac 3d 5d 34 87 bd 11 e0 fc 3d
       0.044162758 0.08408911 -0.066017844 0.12347425
000330 6c 21 15 be 4d 7b 5f bc 2f 6f 12 3d 17 7e 79 bd
       -0.1456353 -0.013640237 0.035750564 -0.060911264
000340 aa f8 18 bb c0 cc d2 3c 33 03 af bd c9 47 b0 3d
       -0.0023341575 0.025732398 -0.08545532 0.08607442
000350 1e 65 02 3d 2f 63 35 be 19 3b 9a 3d 2c 1c e5 3d
       0.031834714 -0.17713617 0.07530803 0.11187014
000360 3e 7f c8 bd 21 94 c4 bd ee 29 99 3c 84 6b e7 bd
       -0.097898945 -0.09598566 0.018696751 -0.11299804
000370 ed 5e 0a bd 4e 9e 54 bd a5 f4 df 3d bd 62 b0 3c
       -0.033781935 -0.051908784 0.10935334 0.021531457
000380 8d f1 29 be d4 eb 11 be 2e b0 b8 bc c9 56 80 bd
       -0.1659605 -0.14250118 -0.022544947 -0.06266553
000390 d5 37 95 bd db 99 59 bd f5 92 b0 3d 36 ae d5 3c
       -0.0728604 -0.053125244 0.0862178 0.026084047
0003a0 5c d3 21 ba 5b 80 1e 3d c8 34 fe bd fe ee 84 bc
       -0.00061731576 0.038696628 -0.12412411 -0.016227242
0003b0 e3 e0 d8 3d 00 5b fc b9 81 d9 a2 bd b5 bb 78 3d
       0.10589769 -0.00048132986 -0.07951642 0.060725886
0003c0 93 a1 33 3d df 81 77 3c cb 45 78 bd 89 70 6c 3d
       0.04385526 0.015106647 -0.060613435 0.05772451
0003d0 e4 66 c9 bd a2 0a e8 bc ed 87 8a 3d 38 41 aa 3c
       -0.09834078 -0.028325383 0.06764207 0.020783052
0003e0 2c 02 f8 3c fd 99 95 bd 98 32 3b bd 8b 44 53 be
       0.030274473 -0.073047616 -0.045702547 -0.20631616
0003f0 bc 60 f0 bd df d9 ad 3c fa 46 94 bd 3f 04 7a bd
       -0.117372006 0.021222053 -0.072401 -0.061039206

actor.2.weight f4 [256, 512]
000000 c0 10 46 bd 7e 89 95 3d 5b d6 ff bd 3e 1e 20 3c
       -0.048355818 0.07301615 -0.12492057 0.009772835
000010 69 4c 58 bd 57 d5 48 bc d0 f1 71 bb b5 8a d1 bb
       -0.052807245 -0.012257895 -0.0036917813 -0.006394709
000020 70 c3 46 be 1c 18 59 bd c1 7d 8d bc b2 4c 91 3c
       -0.19410491 -0.053001508 -0.017271878 0.017736766
000030 5b 55 e2 bc 6d 6b 90 3d 43 8b 2c bd 8c 14 ea 3c
       -0.027628591 0.0705174 -0.042124998 0.02857425
000040 cc 6a 21 bd aa 45 45 bd 97 39 d0 3c 14 d1 39 3e
       -0.03940849 -0.04816214 0.025418086 0.18146163
000050 dd b8 02 bc 7c 69 79 bb ad 3b 99 bc d7 aa d5 3d
       -0.007978645 -0.0038057258 -0.018705213 0.10432976
000060 53 27 e1 bd e0 6b 3b be 59 e2 fc 3d fc 10 9c 3d
       -0.109938286 -0.1830287 0.1234786 0.07620427
000070 54 36 33 bb 6f 1b 9c 3d 95 8b a7 3c 83 ae 53 3e
       -0.0027345615 0.0762242 0.0204523 0.2067204
000080 31 91 0d be 93 a9 52 bd cc 56 3e be e5 15 81 bd
       -0.13824917 -0.05143125 -0.18587798 -0.06303004
000090 2e 3e 50 bd 6f ee cc bd 6e 22 18 bd 73 e3 1f 3d
       -0.05084055 -0.10006415 -0.03714221 0.03903527
0000a0 0d 2e ad bd e8 aa b0 bd 09 ac a4 3d 27 43 95 bb
       -0.08456049 -0.08626348 0.080406256 -0.0045551243
0000b0 83 38 ec bb d1 4a e4 3c 0f a2 49 3d fd f6 8d bd
       -0.007208885 0.027867706 0.049226817 -0.06931875
0000c0 b3 d6 5e 3d c1 ce 10 3d 4e 7a 84 3c bf 0f b4 3d
       0.054403972 0.035353426 0.0161716 0.08792066
0000d0 60 0d 87 3d d5 de 17 bd ad 00 15 bd 26 5e 3e bd
       0.06594348 -0.037077744 -0.036377598 -0.046476506
0000e0 96 66 69 3d 27 aa 09 be c9 cb 22 3d 60 f7 24 bd
       0.0569826 -0.13443814 0.039745126 -0.040274978
0000f0 13 03 34 3e be b2 2e 3b 28 34 7c bd c5 bc 93 3d
       0.17579298 0.0026656832 -0.061573178 0.07213739
000100 2e 19 03 3e 5a 6a f2 3c 2b ca 1e bc 1b 9f 72 ba
       0.12802574 0.029591728 -0.009691755 -0.0009255276
000110 79 02 0a bd bb 9b 19 3d c3 de 29 bd dc df 7d be
       -0.033693764 0.03750203 -0.041472208 -0.24792427
000120 92 6c 85 3d 3c 35 1f bd 48 c9 41 3c 21 c9 bd 3b
       0.06514849 -0.038869128 0.011827774 0.0057917987
000130 8d 61 86 3a c8 71 97 3d fe 64 2f 3d e8 95 92 bd
       0.0010252461 0.07394749 0.042820923 -0.071574986
000140 93 5b 05 3d c1 80 bd 3c 3f ca 7c bd 8b 2f 06 3e
       0.032558035 0.023132684 -0.061716314 0.13104074
000150 4c cf ce bd a4 2b 22 3e af af af 3c a1 9c dd bc
       -0.100981325 0.1583696 0.021446077 -0.027052226
000160 7c 4d 04 be 1f b0 6b be 2c d2 9f 3d 3e a2 1f 3d
       -0.12920183 -0.23016404 0.07803759 0.038973086
000170 ce 52 13 bd 3b ae bd bd 4d 2e 4d 3d e2 e3 0f 3e
       -0.03596764 -0.092617474 0.050092984 0.14051774
000180 f9 c1 5b 3d c8 4e f2 39 42 b6 10 3e ed f4 9a bd
       0.053651784 0.00046216534 0.14132026 -0.07566247
000190 3b 4f 22 3e 7f 79 c1 bc 25 44 2c be 7b c5 b2 bd
       0.15850537 -0.023617504 -0.1682287 -0.08729073
0001a0 b9 dc ff bd f9 e5 da ba a7 d7 91 3c d2 70 c1 bd
       -0.124932714 -0.0016700617 0.017803026 -0.09445347
0001b0 d3 24 1c bc bf e2 2b bd 7a dc 67 3d cc 21 2e bc
       -0.009530264 -0.04196429 0.056606747 -0.010628175
0001c0 4e 73 9e 3c 08 93 13 bd a1 0d 1f bd c0 26 fc 3d
       0.019342091 -0.03602889 -0.038831357 0.123120785
0001d0 50 1a 8d 3d a7 9c b5 bb 0b 90 ee bd e7 ce 47 bd
       0.06889784 -0.005542356 -0.11648568 -0.0487813
0001e0 f0 e5 de 3a 8a c6 00 be 91 59 4a be 81 47 50 bd
       0.0017005783 -0.12575737 -0.1976073 -0.05084944
0001f0 c2 ea 0e be 18 3a 73 bd b2 85 85 3c 2f 1b 8b ba
       -0.1395674 -0.059381574 0.016299102 -0.001061296
000200 e2 a4 62 bd bf 9d 02 be fa 99 8f bd 0d e7 14 bd
       -0.055333026 -0.12755488 -0.070117906 -0.03635316
000210 21 41 01 be 68 eb 1e 3d 7a 01 be 3d df 23 dc 3d
       -0.12622501 0.03879872 0.092776254 0.10749029
000220 29 b6 a8 bd e2 b3 42 be a0 27 26 bc 9c 2d 75 bd
       -0.08237869 -0.19013932 -0.010141283 -0.05985795
000230 63 ae 1e 3d 4d 39 38 3c 7a e8 72 3e 85 55 a1 bc
       0.038740527 0.01124413 0.23721495 -0.0196941
000240 f2 6b d2 bb 86 ba 83 3d 13 0f 4e bb 0f b9 2a be
       -0.0064215595 0.06432061 -0.003144209 -0.16672157
000250 f3 ac f6 ba a2 53 23 3e 74 dc 04 be ce 52 13 bc
       -0.0018819853 0.15949872 -0.12974721 -0.00899191
000260 0f 79 28 3e 53 7d d0 bd 8d 83 03 bd 0c 51 3b 3a
       0.1645243 -0.10180154 -0.03210788 0.0007145561
000270 80 fc ab 3d bc 5f 8d bc 55 96 d3 bc ca ac d6 3c
       0.0839777 -0.017257564 -0.02582852 0.02620544
000280 20 cb 09 bd 66 7c 17 bc 20 c2 8f 3b 38 f0 dc bc
       -0.03364098 -0.0092459675 0.004387155 -0.026970014
000290 25 26 7c bd 15 e7 8c bc a9 e9 1c bd 29 24 44 bc
       -0.061559815 -0.017200032 -0.038308773 -0.011971512
0002a0 d5 41 3b bd 52 7f 47 3d c1 96 55 be 20 f0 44 bd
       -0.04571708 0.048705406 -0.2085829 -0.048080564
0002b0 99 9d c0 3d c3 a4 38 3d e9 10 19 3c a9 4f 1c bd
       0.09405059 0.045079004 0.009342411 -0.038161907
0002c0 17 ef 20 bd b9 6b b4 bd 00 7d 13 bd 3a 06 0d 3d
       -0.039290514 -0.08809609 -0.03600788 0.034429766
0002d0 3e 24 08 3d 57 83 02 3d ce db 17 bd e0 6e 08 be
       0.03323769 0.031863537 -0.037074856 -0.13323545
0002e0 3f ea 40 bc 8a ab c0 3d 94 b5 86 bd 4e 1c 7a bb
       -0.011774599 0.094077185 -0.06577602 -0.0038163844
0002f0 05 85 c4 3c 1a 3e 89 bd c1 4e d8 3c ee b0 a6 bc
       0.02398921 -0.06701298 0.02640474 -0.020348039
000300 33 a2 95 bc 76 6b 90 3d 6c b8 11 3c 8e 90 20 be
       -0.01826582 0.070517465 0.008894067 -0.15680143
000310 4f bd 63 bb 32 7a 69 bd 16 ea 34 3d 67 cf e4 bd
       -0.0034750288 -0.0570013 0.044168554 -0.11172371
000320 f4 7b 70 3c 69 a0 78 3d 18 13 a2 3d 1d b9 cf bd
       0.01467799 0.060699854 0.07913798 -0.101427294
000330 1d 95 ee bc e5 e6 a3 bd 2a 6d 8f bd 0c 2c 5a be
       -0.029123837 -0.08003024 -0.07003243 -0.21305865
000340 90 9f 31 3d 1d a8 ab 3d 73 99 07 3d dd a0 4f bd
       0.04336506 0.083816744 0.033105325 -0.05069052
000350 14 62 80 bd f6 aa 04 3d 37 bc 77 bc 04 8f ce bc
       -0.06268707 0.032389604 -0.0151205575 -0.02521468
000360 15 25 ad 3d f6 8f 9a bc bf 14 8a 3d 2e 81 e0 bd
       0.084543385 -0.018867474 0.06742238 -0.10962139
000370 86 8d dc 3c 88 ae 46 3d 4a 7b 51 bc c2 fc 1d bd
       0.026922952 0.04850629 -0.012785742 -0.038571127
000380 30 1f 52 bd 64 ae 9e 3c ed d9 c3 3c 07 d7 85 bd
       -0.051299274 0.019370265 0.023907626 -0.06535154
000390 ef 2f 7d bd 6c 3a 83 3c 46 79 50 bd c0 4f 65 bd
       -0.06181329 0.016019069 -0.050896905 -0.05598426
0003a0 de b4 ca 3d e7 f9 fc 3b c9 ee b1 3c a6 7b b8 3c
       0.09897779 0.0077202204 0.021720307 0.022519898
0003b0 f8 b1 18 3d a2 c1 3a bd 0c ca 60 3d 94 9a a8 bd
       0.0372791 -0.04559482 0.054880187 -0.082326084
0003c0 c0 fe 53 3c 39 cf a8 3d 59 31 71 3d 47 49 89 bd
       0.012939155 0.082426496 0.058884952 -0.0670343
0003d0 84 fe 70 bd 46 c0 30 3d 2a cf 0c bd 85 5c d6 bc
       -0.058836475 0.043152116 -0.034377255 -0.026167164
0003e0 5a 62 a6 3c 0e 88 9e 3c c7 48 0f be ca 19 0a 3c
       0.02031057 0.019351985 -0.13992606 0.008429
0003f0 55 55 31 be ce 29 47 bd c8 4b 69 ba 71 42 b0 3c
       -0.17317708 -0.048623852 -0.0008899537 0.021516057

actor.2.bias f4 [256]
000000 cf e3 cf bc eb f0 a7 3c 69 2e 0a bd 44 2d f4 3c
       -0.025377182 0.02050062 -0.033735666 0.02980674
000010 ca 76 e7 3b 37 29 eb bd 22 c1 9b bd 98 8c b2 bd
       0.0070637213 -0.114824705 -0.076051965 -0.087182224
000020 71 45 ea bd 82 a8 17 be 3c 47 02 3d 83 46 a2 bd
       -0.11439026 -0.14810374 0.031806216 -0.07923605
000030 7e 0e 55 3d ed fb 3a be 1c 03 e8 bd e1 c3 8a 3d
       0.052015774 -0.18260165 -0.11328718 0.06775642
000040 a4 1d 21 bd 58 65 91 bd 94 4d 7e bd 76 d7 2e 3c
       -0.039334908 -0.07099408 -0.062085703 0.010671487
000050 f8 fe c4 bb 90 37 07 3c ba 7b 57 bd 06 ae 2c bd
       -0.00601184 0.008252993 -0.05260823 -0.04215815
000060 d5 0d 6a bc 60 b4 f0 3b 6e f2 53 3c aa 2f 8d bd
       -0.014285524 0.007345721 0.012936218 -0.06893857
000070 47 e8 92 bd 4e 1d cb bd 0d 94 55 3b 83 24 35 3d
       -0.0717321 -0.09917699 0.0032589466 0.044224273
000080 49 b9 2a bd e6 df 85 bd eb 9e 7f bd a1 af 8b bd
       -0.041680608 -0.06536846 -0.062407415 -0.06820608
000090 57 f2 99 bd 7d 3c 1a bd 46 33 b4 3a af 8b 81 bb
       -0.07516926 -0.037655342 0.0013748191 -0.003953419
0000a0 c1 48 9a bd 70 f2 2c bc a5 e1 35 bd 3d 5e 1f bb
       -0.07533408 -0.0105558485 -0.044404645 -0.0024317645
0000b0 9a 8d 28 3c ea a9 ed 3c ee 67 20 bd 6b e1 a7 3d
       0.010287667 0.029011685 -0.039161615 0.08197292
0000c0 04 ac 83 bd aa e5 c5 bd 97 f2 9c bd 2b d7 32 3c
       -0.06429294 -0.096629456 -0.07663458 0.010915558
0000d0 8a 1e a3 bd 53 fe b2 3c 88 1a 97 3c 3b 50 6b bc
       -0.07964809 0.021849787 0.018445268 -0.01436239
0000e0 cc 94 28 bd a9 24 6c 3d 3a 2c 97 bd 57 8d a0 bd
       -0.04115753 0.05765215 -0.073814824 -0.078394584
0000f0 e6 b3 ba bd 4b bc c5 bb 49 61 c7 bd be 17 9e bb
       -0.09116344 -0.006034409 -0.097353525 -0.0048246076
000100 6e 86 62 bc 25 7f e9 bc 34 e9 be 3c 4c 8b 63 3c
       -0.013825996 -0.02850301 0.02330456 0.013888191
000110 20 2f 7a 3c 4d 40 d1 bc c6 6b cd ba 73 3c a0 bb
       0.015270025 -0.025543356 -0.0015672378 -0.0048900186
000120 32 38 e0 3c 62 6a a4 bc 04 43 3f bd d0 14 66 bd
       0.027370546 -0.020070259 -0.04669477 -0.056172192
000130 d5 1b 07 bd ef b4 b5 bd 1e e3 63 3c ea c4 87 3c
       -0.032985527 -0.08872401 0.013909129 0.016573388
000140 37 3b 5a bd c2 05 3d bc bf 2c f1 bc b3 81 71 3a
       -0.053279128 -0.011537017 -0.029440282 0.0009212747
000150 53 36 3c be b5 b7 f2 3c a8 89 cb bd 9d d3 a3 bd
       -0.18380098 0.029628614 -0.09938365 -0.079993464
000160 29 77 ad bd 8e 38 bc bd dd 2d a0 bc f3 fa ec bc
       -0.084699936 -0.091904745 -0.01955312 -0.028928256
000170 27 71 98 3c 22 01 b9 bd 87 9d 4b bd 46 a2 0f be
       0.018608643 -0.09033419 -0.049710777 -0.14026746
000180 60 c2 e7 bc df fc b5 bb 05 28 bb bc 2e 2e a8 bd
       -0.028290927 -0.005553826 -0.022846231 -0.08211933
000190 4a 6e 5b 3c 53 a1 96 bd b3 78 d3 bd b7 88 33 bd
       0.013392994 -0.07354989 -0.10325756 -0.043831553
0001a0 e9 82 8d bd 43 12 8a bd 26 6f fd b9 5c f3 25 bd
       -0.06909735 -0.067417644 -0.00048338732 -0.04051529
0001b0 29 2b 39 3c 7c f4 86 bd 4c da 9d bd 1c fd 67 bd
       0.011301794 -0.065896004 -0.077076524 -0.05663787
0001c0 f9 62 a4 bc 20 ef 13 3c 7c 7f f3 3c 01 ef 4f bd
       -0.020066725 0.00902918 0.029723875 -0.05076504
0001d0 98 3a 86 bd fa ff ae ba 89 fb 90 bc 78 15 97 bb
       -0.065541446 -0.0013351433 -0.017698066 -0.0046107136
0001e0 f8 14 cb bb 8c 09 bc bc 31 a9 de 3c b1 47 cf 3b
       -0.006197568 -0.022953771 0.027180286 0.006325685
0001f0 97 b3 7d bd bc db c9 bc dd 79 d0 bd 63 43 ea bc
       -0.06193885 -0.02464091 -0.101794936 -0.028596586
000200 fd 43 28 bd 1d a0 1f 3d 8a 4a 1d bd 94 f2 81 bd
       -0.041080464 0.038971055 -0.038401164 -0.06345096
000210 fd 72 e4 bd 28 de 96 bd 2c fa be bd c1 69 1e 3c
       -0.11154745 -0.07366592 -0.0932506 0.009668768
000220 a6 17 2e 3c 25 db b1 bc a8 f7 7a bd 57 3a 31 3c
       0.010625755 -0.021710942 -0.06127134 0.010817132
000230 75 51 e7 39 f9 c3 f1 bd 1e 31 07 be 5f ac 70 3b
       0.00044120444 -0.11804957 -0.1320233 0.0036723835
000240 2f e5 16 bc d9 89 16 bc 16 3e 8e bb 45 2b e1 3b
       -0.009209915 -0.009188139 -0.0043408973 0.006871613
000250 7c 25 1b 3c a2 bd 39 bd 5a b9 ba 39 43 f4 0d bd
       0.009469386 -0.045346864 0.00035614782 -0.034656774
000260 6d 88 19 be 28 19 26 bd bd 25 bc bc 94 19 a9 bc
       -0.14993449 -0.040551335 -0.022967214 -0.02064208
000270 8d 06 d6 bd c2 06 a1 bd 59 4e 90 bc e3 1f 68 3d
       -0.10450468 -0.07862617 -0.017615484 0.056671035
000280 96 b7 18 be c3 5f d8 3c 54 d7 8a bd 6f 5f a7 3d
       -0.14913782 0.02641285 -0.06779352 0.081724994
000290 1f 8f 43 bd 5f 24 26 bd 87 a3 aa bc 9f a6 2e bc
       -0.047743913 -0.04056203 -0.020829929 -0.010659843
0002a0 d1 09 1a be 90 65 22 3d 70 ee 01 bd 13 42 ca bb
       -0.15042807 0.03964764 -0.031721532 -0.0061724274
0002b0 d9 69 41 bd a2 fb c0 bc 58 da f3 3c 6c 16 9c bd
       -0.047220085 -0.023557488 0.0297672 -0.07621464
0002c0 de 0f 4b bd 00 3b f8 bd f6 0a da bc 16 0d 9d 3d
       -0.04957568 -0.12120628 -0.026616555 0.076685116
0002d0 9e 32 39 bd ef a5 e6 3c 2a 6c 8a bc 7d e1 0e 3d
       -0.045214288 0.028155295 -0.01689728 0.03488301
0002e0 5a 89 23 bb c6 4b f2 3c b8 f1 52 bc 10 14 82 3d
       -0.0024953694 0.029577147 -0.012875013 0.06351483
0002f0 0b 99 b0 bc 5c 11 97 bd 1b e4 22 3d 83 f6 05 3c
       -0.021557352 -0.07376358 0.03976832 0.008176449
000300 2e 86 37 bd 87 02 8b bd 1f 71 2c bd 5f 35 66 bd
       -0.044805698 -0.067875914 -0.04210007 -0.056203242
000310 fe 36 cd 3a 8a 92 83 bd 87 bd 12 bd 39 c8 c3 bc
       0.0015656648 -0.064244345 -0.03582528 -0.023899185
000320 47 c6 f0 bd d9 96 e7 bd 5d 07 8b 3d 9f 1e 74 bd
       -0.117565684 -0.11308069 0.06788514 -0.059599515
000330 b9 6d 84 bd fc 65 0e 3c a6 5e 49 bd 0b e9 b1 bd
       -0.064662404 0.008691307 -0.04916253 -0.086870275
000340 bb 89 b8 bd 09 90 08 be c7 76 4c bd bf 2c 91 bd
       -0.09010645 -0.13336195 -0.049917962 -0.07088613
000350 21 f3 45 be ee 06 a6 bd 4c 80 83 bd b2 10 ee bd
       -0.19331028 -0.081067905 -0.06420955 -0.11624278
000360 b7 9b c3 bd d4 65 d5 bd 81 fd 68 bd cc b3 3e bd
       -0.095511846 -0.10419813 -0.056882385 -0.046558186
000370 aa 4d 4f bc f9 72 25 3c 7a e9 f9 bd da 21 1c 3c
       -0.012652794 0.010098212 -0.12202735 0.009529555
000380 8b 0f b3 bd ec 50 8b bd 6b 39 41 39 b8 d6 2c bd
       -0.08743199 -0.06802544 0.00018427304 -0.04219696
000390 53 c8 16 bd a1 09 3f bd 76 bb 05 be 21 e7 84 bc
       -0.036812138 -0.046640042 -0.13059792 -0.016223492
0003a0 d3 4f 0b bb aa b9 4d 3d 66 94 16 bd 70 e4 03 be
       -0.0021257296 0.05022589 -0.036762618 -0.1288011
0003b0 59 2d e8 bd c6 c1 89 3d 72 19 4b bc a6 ce ac bd
       -0.113367744 0.067264125 -0.012396203 -0.084378526
0003c0 a0 57 1e bd 70 63 20 be 5e 6b 84 bd ce e5 22 bd
       -0.038657784 -0.15662932 -0.06465791 -0.03976994
0003d0 b4 fb 2d bd 9c ba 1f bd 13 0d ab bc 39 96 c8 bd
       -0.04247637 -0.038996324 -0.020880258 -0.09794278
0003e0 d5 d7 b8 3b b2 7b 4a bd 54 67 41 bd 08 53 0b bd
       0.0056409636 -0.04943437 -0.047217682 -0.03401473
0003f0 ff 60 15 bd 41 95 74 3c 46 55 70 bd 94 cc d6 bd
       -0.036469456 0.014928163 -0.058675073 -0.10488239

actor.4.weight f4 [128, 256]
000000 b1 5c 66 bc e4 28 73 3d 91 20 42 3c ca 5b 3d bb
       -0.014060185 0.05936517 0.011848585 -0.0028893822
000010 b9 1d f9 3d d4 67 97 bd 09 48 89 bc 98 3a 7c 3d
       0.12163872 -0.073928505 -0.016757982 0.061579317
000020 df b3 30 bd 9e fe b3 3d 22 2f 8d 3a a0 cc b0 3d
       -0.04314029 0.08788799 0.0010771493 0.08632779
000030 af 3c a7 bc 98 72 2e 3d 11 b5 3e bc 75 fa fa bb
       -0.020414678 0.042589754 -0.011639849 -0.0076592513
000040 b8 60 f5 bc 9a f9 ec 3d 3e a4 e9 3c c0 8c 88 3d
       -0.029953346 0.11571045 0.0285207 0.06667471
000050 49 ad d6 3c 1e 73 5e bd 6d fd 8b bc e5 1e 6e 3c
       0.026205676 -0.054309003 -0.017088616 0.014533733
000060 e7 52 0d bd 30 45 55 3d d0 db 7f bd f3 50 e8 3d
       -0.03450289 0.052067935 -0.06246549 0.11343565
000070 74 ba 9e 3d 12 d2 4a 3c 63 34 1d bc 4b 05 8c bd
       0.07750407 0.012379186 -0.0095950095 -0.06836947
000080 47 45 97 3c 0e 20 56 3d cd ee d8 bc 69 4b 97 3d
       0.018465651 0.052276663 -0.026481057 0.0738743
000090 82 08 95 bb 6a 6a f9 3d cd 5a 71 3c 18 42 dc bd
       -0.0045481334 0.121785 0.014731121 -0.10754794
0000a0 82 2e 6e 3d e4 2d dd bc 79 ae ca bd 16 27 22 3d
       0.058149822 -0.026999421 -0.09896559 0.039588057
0000b0 85 60 88 bb 0a 53 c0 bc c9 78 82 3c 7d ef cb 3d
       -0.0041618966 -0.023477096 0.015926735 0.09957788
0000c0 8d 4e 6b 3d a4 e4 1e 3c 8b 7e e1 3c 9d 7d b0 3d
       0.05744796 0.009698067 0.02752616 0.08617709
0000d0 29 53 e5 3d cc d0 f5 3c ec a4 49 3d ab 5c 01 3e
       0.11197502 0.030006789 0.049229547 0.12633006
0000e0 e0 81 89 bc cd 9c 35 3c 17 74 6d 3d 64 42 8e bc
       -0.016785562 0.0110847475 0.05797204 -0.017365642
0000f0 71 f7 75 3d ce ed 98 bb dc 31 54 3c 1d 0a 33 bc
       0.06005043 -0.0046670204 0.0129513405 -0.010927704
000100 68 5b 34 3d 17 8c 10 3d 4c b8 2b 3d 4a 9e 9f 3c
       0.044032484 0.03528985 0.041923806 0.019484658
000110 6b 8e af 3d 0c f3 aa bc c2 2b 6c bb c7 be c3 bb
       0.08572086 -0.020867847 -0.0036036824 -0.00597367
000120 5c f4 19 bc 30 16 c8 3d c7 ca e7 3c c5 2e c6 3c
       -0.009396639 0.09769857 0.028294934 0.024192223
000130 f7 e5 4c bc 78 69 f2 3c 3a f0 45 bc 31 b2 7d 3c
       -0.012506 0.029591307 -0.0120812 0.015484379
000140 b0 72 99 3d b1 8b 11 3d ef 05 a6 bd f6 e8 76 3c
       0.07492578 0.03553361 -0.081066005 0.015070191
000150 dc 5a d9 39 08 3e 72 bd 0b b2 ad 3b 53 7b 59 3c
       0.0004145716 -0.05914119 0.0053007654 0.013274032
000160 00 b3 bf 3d 6f 0c 85 3d d2 bf ae 3d c9 bd a4 3d
       0.093603134 0.06496512 0.085326806 0.08044011
000170 5b 5f 12 3d 4e 60 4c bc 35 da a9 bc 15 01 2f 3c
       0.03573547 -0.012474133 -0.020733932 0.01068141
000180 e8 14 03 bd 8a db 0a be c5 c4 81 3d 53 81 62 bc
       -0.03200236 -0.1356031 0.06336359 -0.013824779
000190 1e 1b 9d 3d b2 2b 32 bd 08 c1 e0 3d fc de 9f 3c
       0.07671188 -0.043498702 0.10974318 0.019515507
0001a0 0a c2 9f bd 37 65 83 3c d8 5e 60 3d 41 59 a4 3c
       -0.07800682 0.016039474 0.05477795 0.02006209
0001b0 1f f3 25 3d d5 6f c8 bc 53 33 80 3d 9e dc 01 3e
       0.04051506 -0.024467388 0.06259789 0.12681815
0001c0 05 25 72 3c c9 9f 84 bd c7 ed b2 3d 54 75 28 3e
       0.014779334 -0.06475789 0.08736759 0.16451007
0001d0 a9 70 43 bd dc 8e 80 3d 64 52 ab 3d d3 d5 be 3a
       -0.047714863 0.06277248 0.08365324 0.0014559574
0001e0 2a e8 a6 3d 3d 76 13 3d c7 8a 20 bd f9 8f c5 3d
       0.081497505 0.036001433 -0.03919485 0.09646601
0001f0 e7 92 58 3d b3 03 9f 3d c6 fa 1e 3e e9 28 f0 bc
       0.052874472 0.077643774 0.1552535 -0.029316382
000200 32 a4 4f bd 40 40 77 3d fb 85 a3 bc 11 99 3b bd
       -0.0506937 0.060364008 -0.019961348 -0.045800272
000210 39 27 fd 3d 72 c8 db 3d 8b 77 19 bd f0 77 1d 3e
       0.12360997 0.10731591 -0.03746752 0.15377784
000220 3c ce 2b 3d 22 b8 da bc b8 77 5d 3d 9f 11 00 3d
       0.041944727 -0.02669913 0.05406925 0.031266805
000230 28 ee 56 3d f2 a5 92 3d 98 ee 80 3d 04 fd 77 bb
       0.052473217 0.07160558 0.06295508 -0.0037840018
000240 67 b5 b4 3d 0c 22 9c 3d 16 fe 4e bc 36 4e 5d 3d
       0.08823662 0.076236814 -0.012633821 0.054029666
000250 1e be 52 3d ab 85 6d bd 72 b5 91 bc b2 50 55 3d
       0.05145084 -0.057988804 -0.017786715 0.05207891
000260 d5 74 80 3d 42 bc e9 bc 88 fb ea 3d ca 5f 76 bc
       0.06272284 -0.028532151 0.11473757 -0.015037486
000270 3a f7 b9 3d 22 f2 39 3c bc d0 07 3d cf 0a c6 3d
       0.09080358 0.011349233 0.03315805 0.0967003
000280 78 9f 85 3d 35 e5 e4 bb a5 b4 ac bd aa da 98 bd
       0.06524557 -0.0069853314 -0.08432893 -0.07463582
000290 cc 57 d7 3c 58 af 94 3c 14 fb 46 bd 87 bf 61 3b
       0.026286982 0.018150017 -0.04857929 0.0034446435
0002a0 d3 97 21 3c 0d 2d 34 3d dc 62 3f bc 0c 28 ed bd
       0.009862858 0.043988276 -0.011681285 -0.11579904
0002b0 fb eb 5b bd ed b8 b6 bd 3f d1 76 bc 05 fc be 3c
       -0.053691845 -0.089219905 -0.015064537 0.023313532
0002c0 49 e0 0f 3e 2f dd 26 3d 0f 89 9e bd 58 54 22 3d
       0.14050402 0.04073828 -0.077409856 0.039631218
0002d0 f6 3f 09 3e 85 f0 c0 bc bf 67 75 bd 8e bb ab bc
       0.13403305 -0.023552189 -0.059913393 -0.020963456
0002e0 16 15 66 3c cf 92 6f 3c 7a 6c 90 3d 67 e2 7d bd
       0.014043113 0.014622404 0.0705194 -0.061983492
0002f0 c3 0e ce bc dd da 3c 3a b2 dc 09 be da bb a2 3d
       -0.025153523 0.0007204244 -0.13463095 0.07945986
000300 31 b1 d2 3b c5 9b b3 bc ea 31 86 bd a1 88 87 bc
       0.0064298143 -0.021924863 -0.06552489 -0.016544642
000310 e8 b9 40 3c e2 7b 03 3d 72 f5 77 3d 54 0f db 3b
       0.0117630735 0.032100566 0.06053681 0.006685177
000320 a9 56 f0 3c cc bc 58 bd 7b d3 d8 3a c2 ff c5 3d
       0.029338198 -0.052914426 0.0016542518 0.096679226
000330 9b 85 36 bd 08 48 db bd 1d 3f 81 3d b8 cd 63 3d
       -0.04456101 -0.10707098 0.06310866 0.05561611
000340 c3 67 34 3d 7b e8 d0 3c 95 38 07 3d ed 69 b2 3d
       0.044044267 0.02550148 0.033012945 0.0871161
000350 c6 e2 e9 3d eb f1 cb bd 9b 87 15 be c2 b8 86 bd
       0.11420207 -0.099582516 -0.1460251 -0.065782085
000360 30 a8 49 bd f4 fd f4 3d b5 39 14 3e fc 6d 98 bd
       -0.04923266 0.119625 0.14475138 -0.07442853
000370 75 8c ea bb e6 0c 9f bc 20 d6 f8 3c 19 55 8a 3d
       -0.007157857 -0.01941533 0.03037554 0.06754512
000380 9e cf c0 3c ab 7e 28 bd bf ff 0b bd 53 2e 92 bd
       0.0235365 -0.041136425 -0.034179445 -0.07137742
000390 c8 0d 8f 3d 3e a6 07 3c e5 03 f2 3d 81 40 8d bc
       0.069850504 0.008279381 0.11817149 -0.017242672
0003a0 39 0a cb bc 94 86 41 bb 69 63 5b 3b bc c1 a2 3d
       -0.024785148 -0.0029529678 0.0033476 0.07947108
0003b0 bf ae 4a bd 04 0b 4c bc bb 46 8f 3d fb 2c d8 3c
       -0.049483057 -0.012453798 0.06995913 0.026388636
0003c0 e6 1c b3 3d ea 71 a9 3d 76 61 c7 bd 63 3d c1 bb
       0.08745746 0.082736805 -0.09735386 -0.0058972104
0003d0 b8 92 cb 3d ed f6 41 bd 8f d6 87 3d e8 c5 9c bd
       0.09940094 -0.047354627 0.06632721 -0.07654935
0003e0 03 d4 a9 3c 5f 48 2d 3d 9c 9f c0 bc 17 b8 a7 bd
       0.020730978 0.042305347 -0.023513608 -0.08189409
0003f0 33 de 13 bd 0f 1c 30 3a b1 f6 01 3e 7c ae d6 bc
       -0.036100578 0.0006718048 0.12691762 -0.026206248

actor.4.bias f4 [128]
000000 d0 79 32 bb e1 8f d8 b9 dc 9d 8c bd e1 e9 28 bd
       -0.002723325 -0.0004130593 -0.06866047 -0.04123867
000010 a7 cf a2 bd fa 2a f9 bb d2 fe 72 be 07 c8 46 bb
       -0.07949763 -0.007604 -0.23730019 -0.0030331628
000020 9f fe 8b bd da 7b c5 bd f8 d8 db bc fc e7 ef bc
       -0.068356745 -0.096427634 -0.026836857 -0.029285423
000030 fa 91 0a be 8d 7e 9a be 63 8a f9 bc af f6 c8 3b
       -0.13532248 -0.30174676 -0.030461496 0.0061329226
000040 2f fd 46 bd 31 e6 b2 bc 6b 77 bc bd 4d 8c 29 bd
       -0.0485813 -0.02183828 -0.09202465 -0.041393567
000050 87 8a cc bd 68 f6 7b bd 7d eb 1a bd 9a d9 bb bc
       -0.099873595 -0.06151429 -0.037822235 -0.022930909
000060 11 56 10 bd ec 87 03 bd 66 79 a9 bc 28 ed 15 3e
       -0.03523833 -0.032112047 -0.02068777 0.14641249
000070 03 9c a8 bd 8d 2c af bc 1f 52 db bd be aa be bd
       -0.08232882 -0.021383548 -0.10709023 -0.0930991
000080 1c 91 6b bc 1a 2e 92 bd 32 a4 ba bd a0 6c 4c 3c
       -0.0143778585 -0.071376994 -0.09113349 0.01247707
000090 f6 f6 eb bc 74 44 48 bd e4 a9 71 bd 3c 28 b5 bc
       -0.028804284 -0.048893407 -0.05899991 -0.022113912
0000a0 1f ca 37 3d 56 70 58 3c d6 9c 71 bd 2d b9 7b bd
       0.044870492 0.013210377 -0.05898746 -0.061455894
0000b0 59 43 04 be 02 24 87 bc e2 8f 7a 3c 71 e8 a4 3c
       -0.12916316 -0.016496662 0.015293093 0.020130368
0000c0 c1 1c a9 bd 17 e8 e3 bc d3 48 36 ba fb c5 95 3c
       -0.082574375 -0.02782063 -0.00069536007 0.018282881
0000d0 ff b3 a7 bd bd ca 49 bd a5 eb ff bd 02 b1 81 bd
       -0.081886284 -0.049265612 -0.124961175 -0.0633259
0000e0 80 c5 32 bd be 8d 86 bc af d0 29 bd a0 4a 87 bd
       -0.043645382 -0.01642501 -0.04145878 -0.066060305
0000f0 46 7e c9 bd 5a 12 7a 3d 02 de 1f be 93 2a b8 bd
       -0.09838538 0.061052658 -0.15612033 -0.089924954
000100 35 7b e2 bd ea 6f 10 3c cc 2f 80 bd 8e 4a 56 bd
       -0.11058656 0.008815745 -0.062591165 -0.052317195
000110 18 ec aa bc d1 cb 14 bd 27 a5 48 be d5 bf 0b be
       -0.020864531 -0.036327187 -0.1959425 -0.13647397
000120 ea ce a4 3b c8 84 04 bd 3d 16 85 bd cb 73 14 bc
       0.005029549 -0.032353193 -0.06498382 -0.00906081
000130 4a cf 59 bd be 90 72 bd 63 89 1c bd 90 91 29 3c
       -0.053176202 -0.05922007 -0.03821696 0.010349646
000140 de b2 91 bc 42 05 97 bd 27 5c 6b bd dd 8c ee bc
       -0.017785486 -0.0737405 -0.05746093 -0.029119903
000150 ea 4f 5a bd fd be 9b bd 18 42 a4 bd c1 ad 08 bc
       -0.05329887 -0.076047875 -0.08020419 -0.008342207
000160 f0 a6 8b 3c f6 38 a3 bd df 84 da bc f7 94 84 3c
       0.017047375 -0.07969849 -0.026674686 0.016184313
000170 b1 c3 1b 3c 07 af 28 bd 0c e3 1c 3c 0a e8 79 bb
       0.009507106 -0.041182544 0.009575617 -0.003813269
000180 c6 14 1a bd 10 36 bf 3c f0 8b 8a bd 6e be 16 be
       -0.037617467 0.023341209 -0.06764972 -0.1472108
000190 b8 e4 22 3d 56 b5 00 3e 19 02 ec bc ba 23 47 bd
       0.039768904 0.12569174 -0.028809594 -0.048618056
0001a0 3b c9 1e be 38 e5 fc 3c 15 2b 48 be 78 8d 53 3c
       -0.15506451 0.030871019 -0.19547684 0.012912147
0001b0 c0 f1 91 bd e6 d4 ca 3d 6b a3 b0 3d fd bb fa 3c
       -0.07126188 0.099038884 0.086249195 0.030607218
0001c0 b7 6d 4c be e6 1a 55 3c 8e 0c 3a 3c a7 88 52 bd
       -0.19963728 0.013006901 0.011355532 -0.051399853
0001d0 ac 3a 8d bc e5 f7 26 bb 72 fe e2 bc a8 3b d9 bc
       -0.017239891 -0.0025477346 -0.02770922 -0.026517704
0001e0 69 de 84 be 32 8a cd bb b2 af c4 bd 22 16 cd bd
       -0.25950935 -0.0062725777 -0.09603824 -0.10013987
0001f0 98 0a 8b bd 07 a8 3f bd ab cd 13 bd dd 4f 88 3c
       -0.0678913 -0.046791103 -0.036084812 0.016639644

actor.6.weight f4 [12, 128]
000000 be 47 fd bc 90 5e cf bc 0c 92 2d bc 08 9f d1 3c
       -0.030917998 -0.025313646 -0.010593902 0.025588527
000010 77 70 c0 bc 49 da 1c 3c fc 71 36 3d f7 10 63 ba
       -0.023491127 0.009573528 0.044542298 -0.0008661891
000020 66 d9 94 3d d9 2a b7 3c de af 0f bd 2d de 7a bc
       0.07268028 0.022359299 -0.03507983 -0.01531176
000030 24 f3 55 3d 6b 6f 86 3d 37 ee fa 3c 9a 4e 04 3d
       0.05223383 0.0656422 0.030631168 0.032301523
000040 e4 82 89 3c bf 88 40 3c 0b 8a c8 3d 44 a0 89 bd
       0.016786046 0.011751353 0.097919546 -0.06720021
000050 0c 6f cf 3a d4 e6 88 bd 34 db 72 3d 59 7c ae bc
       0.0015825941 -0.06684652 0.05929108 -0.021299528
000060 5d f5 0b 3c a5 d6 e9 bb 2c 92 5f bb df de 92 bd
       0.008542386 -0.0071361833 -0.0034114225 -0.071714155
000070 24 c0 0f 3d 59 de 44 3d ad a3 74 3d 1e 2d 87 bc
       0.03509535 0.04806361 0.059726406 -0.016501006
000080 d5 82 87 bc 64 e7 9c 3d 9c df 54 bc 70 f5 15 3b
       -0.016541878 0.07661322 -0.012992766 0.0022881888
000090 70 2e b6 bc 0a 20 a6 bc 4e b3 b6 bb 9f 41 6b 3a
       -0.02223894 -0.02027895 -0.005575574 0.0008974317
0000a0 f5 6c 85 bb 14 6c 64 bd 01 f7 32 3d 65 1e ca 3b
       -0.0040718266 -0.055767134 0.043692593 0.006168174
0000b0 6b 6e ac 3d ff c5 7f ba 31 33 e0 bc 6b 4c 80 3b
       0.08419498 -0.0009756982 -0.02736816 0.0039153597
0000c0 5d 9a 3d 3c a0 68 eb bc 0c 3f 31 bd a1 20 96 bc
       0.011572448 -0.028736413 -0.043273017 -0.018326106
0000d0 55 0e c6 bd 2a 17 4f bc 53 ab db bc 77 d8 36 3c
       -0.09670702 -0.0126398 -0.026815092 0.011160008
0000e0 34 d4 06 bd 00 76 36 bc 79 45 33 bd c0 43 03 3d
       -0.032917216 -0.011136532 -0.043767426 0.032047033
0000f0 e9 b2 80 3d d9 23 f7 ba 8a 75 ea 3c 4b 92 1a bb
       0.062841244 -0.0018855288 0.0286205 -0.0023585733
000100 76 40 4b bb 5c 23 58 3c 6f ec 5a 3d cb 14 b1 bb
       -0.0031013764 0.013192024 0.053448137 -0.00540409
000110 d3 27 2b bd d8 a7 a2 3c 0d aa d7 3c 41 9b 58 3d
       -0.041786026 0.019855425 0.026326204 0.052882437
000120 f8 6b 50 bc ff d5 3c 3d f5 22 f1 bc db 02 ad bc
       -0.012721054 0.04610252 -0.029435614 -0.021119526
000130 2a 82 01 bd 88 f2 ce 3c db 21 71 3d 27 c8 47 bc
       -0.031618275 0.025262132 0.058870178 -0.012193716
000140 ff 33 40 bc be b2 2a bd d1 d1 e6 bc 66 fd da bb
       -0.011731147 -0.041674368 -0.02817622 -0.0066830395
000150 59 5a 27 3d ed b6 20 bc 30 1c 60 bc 37 9b c9 bc
       0.040857647 -0.009809238 -0.013678595 -0.024610145
000160 a0 11 69 bb b5 65 54 bc ac b8 1e bc 6f cb 07 3d
       -0.0035563484 -0.012963702 -0.009687584 0.033152994
000170 85 a5 fd 3b 9d 6e 0c bd 7d 88 3c bd 9e 18 4e bc
       0.0077406787 -0.034285177 -0.046028603 -0.012579111
000180 91 8b 15 3c 9a 34 7e bd 11 20 b7 ba 1d c2 8c 3d
       0.0091275135 -0.062061884 -0.0013971349 0.06872962
000190 af e7 e9 3c 90 e4 ec bc b7 23 39 bd 71 9a 6c 3c
       0.028552858 -0.02891758 -0.045200076 0.014441119
0001a0 c9 76 16 bc ff 67 51 bd a5 26 20 bc 66 00 2c bd
       -0.009183594 -0.05112457 -0.009774839 -0.041992567
0001b0 67 35 b9 bc a7 c4 d5 bc f1 1d aa 3c 4f 71 21 bb
       -0.022608472 -0.026094748 0.02076623 -0.0024634188
0001c0 e0 62 9b 3d b7 8d 29 bd 88 1a 34 3c d0 14 a7 bc
       0.07587218 -0.041394915 0.010992654 -0.020395666
0001d0 ca f7 8e 3b 21 92 b7 bc 35 94 d9 bc 06 ce 15 3c
       0.004363035 -0.022408547 -0.026559928 0.009143358
0001e0 85 3f 81 3d ef f1 d0 bc 1d 85 63 bc 83 bc bf 3d
       0.063109435 -0.025505988 -0.013886717 0.09362128
0001f0 48 78 67 bb 56 12 b9 3c 91 56 53 3c 0e c3 32 bc
       -0.0035319496 0.022591751 0.012899057 -0.0109107625
000200 46 e8 8a bd 7e 55 d1 3c 84 83 b6 bc 3c f0 7f bc
       -0.06782584 0.025553461 -0.022279508 -0.015621241
000210 d7 ff 0d 3c 69 96 e9 3c b1 04 e7 3d c8 83 87 3c
       0.008666954 0.028514104 0.11280192 0.01654233
000220 68 76 71 bc 96 0d a3 3d 03 87 19 3c ff 89 3f bd
       -0.014737703 0.07961576 0.009370568 -0.046762463
000230 ff 88 5a 3b 78 82 cc bd 82 df 27 bb 75 c1 c4 3c
       0.0033345816 -0.099858224 -0.0025615399 0.024018029
000240 bd 15 ce ba df d8 b2 3c 03 a0 b3 bc c6 a7 8a bd
       -0.0015723031 0.021831928 -0.021926885 -0.067702815
000250 bb f3 0c 3d 3a eb 4f bd 87 0c f1 3c cf b2 0a bc
       0.034412127 -0.05076144 0.029424919 -0.008465483
000260 2f 2b 15 3d 3a 64 de bc 84 92 16 3b fa 7c b5 3d
       0.036418136 -0.027147401 0.0022975514 0.08861728
000270 70 51 69 bd b2 99 9a 3c 99 74 c4 3c 6d 8a 6a bc
       -0.05696243 0.018872116 0.02398138 -0.01431523
000280 45 3e c3 3c 3d 2a 01 3d 66 bc 3b bd b6 6e 4d bc
       0.023833403 0.031534422 -0.045833968 -0.012538603
000290 e1 3c 47 3c f1 9c 12 bc 53 4d e0 bb f5 b0 3a bc
       0.012160511 -0.008948551 -0.0068451553 -0.011394729
0002a0 8c 3f 8d bc bb 0e 4f 3d 73 c2 99 bb 1a 5e 66 3c
       -0.017242216 0.050551157 -0.0046923696 0.0140605215
0002b0 38 27 1e 3d bc 20 bd bb 9e 16 de bb a7 b3 44 bc
       0.03861162 -0.0057717245 -0.0067775985 -0.012005723
0002c0 57 6c e4 3c 24 94 38 3c fb b8 05 3d c9 ba 28 ba
       0.027883692 0.011265788 0.032647114 -0.00064365246
0002d0 38 57 41 3d 2b 80 ff 3c 8a f9 30 bd 60 cf 57 3a
       0.04720232 0.031189045 -0.04320673 0.00082325004
0002e0 36 c3 a2 3c 69 35 80 3c e5 64 fb 3b f0 eb f0 bb
       0.019868474 0.015650468 0.0076719397 -0.0073523447
0002f0 9f 67 23 bd e8 b2 99 3c 98 b1 98 3b f9 d8 ba bc
       -0.039893743 0.018762067 0.0046598427 -0.022808539
000300 b1 82 6e 3c 33 88 83 bb 7d 17 0c 3d 37 7a 96 3c
       0.014557526 -0.004014039 0.034202088 0.018368823
000310 9f 5b a5 3c 51 d4 61 bb ed a1 3b bc f7 db d4 3c
       0.02018529 -0.0034458826 -0.01145218 0.025983794
000320 e7 ad 9b bc 80 de 08 bc 15 49 06 bd 71 85 82 bd
       -0.019003822 -0.008353829 -0.03278454 -0.06373108
000330 2c 0b 54 3a 17 8c f1 3b 38 2f a7 bd 03 f4 e1 3c
       0.0008088823 0.0073714363 -0.08163303 0.027582174
000340 02 46 16 3d 2a 50 cc bc d7 39 cd ba d5 79 7d bc
       0.03668786 -0.024940569 -0.0015657496 -0.015470942
000350 fe 94 a1 bd 37 bd 5b bc d2 1f a3 3c 1d 08 d5 bc
       -0.07889746 -0.013411812 0.019912634 -0.026004845
000360 a8 80 c2 ba 06 80 a3 bc e0 57 41 3c 81 b0 0f bd
       -0.0014839368 -0.019958507 0.011800736 -0.035080437
000370 e1 52 4c bb 42 eb a3 3c c1 ae 45 bd e2 e9 9a 3c
       -0.003117733 0.02000964 -0.04826236 0.018910352
000380 14 5e e0 bc 37 95 e3 bc 02 25 1c 3d 6e 34 01 3d
       -0.02738861 -0.027781112 0.03812123 0.03154414
000390 2a 16 f9 ba 3f 31 e1 3c 40 75 b0 3c 8b fa a6 3c
       -0.0019003798 0.027489303 0.021540284 0.02038314
0003a0 41 d5 d4 bd 95 e0 0a 3d 6c b7 8d bc 24 c5 07 bd
       -0.103922375 0.033905584 -0.017299376 -0.033146992
0003b0 de 37 67 3c ad 75 25 3d 0c 9f 85 bd 48 37 83 bc
       0.014112441 0.040395427 -0.065244764 -0.016017571
0003c0 98 40 54 bd e5 61 15 3d 06 8a 8e 3c b7 dd 39 3d
       -0.051819414 0.036470313 0.0173998 0.04537746
0003d0 a6 c6 87 bc fd 44 a9 bb 1a 86 8e 3b 37 83 e0 bc
       -0.016574215 -0.0051656947 0.0043494822 -0.027406318
0003e0 25 4a 2b bd ac 33 fa bc 7f ee 8e bc 92 a6 d8 3c
       -0.041818757 -0.030542217 -0.017447708 0.026446614
0003f0 b5 2f 14 bc 9d 25 78 bc 23 eb 29 bc 10 3b a5 3d
       -0.009044577 -0.015145686 -0.010371002 0.08067906

actor.6.bias f4 [12]
000000 46 bf 4f be b2 ef 4b 3e 4f 97 61 bd ca 7d cb 3d
       -0.20287809 0.19915655 -0.05507594 0.09936102
000010 bd e4 a4 bc fd 85 ea bd 4c 1f 99 3c 6e ce 90 3d
       -0.020128602 -0.114513375 0.018691681 0.07070623
000020 4e 7b 0b 3e 58 23 32 3e 17 fe bc 3d d4 91 5c 3e
       0.13621256 0.17396295 0.09228151 0.21540004
