src/ga_quadruped/policy/go1_policy_2.onnx (onnx, 758549 bytes, 8 tensors)

actor.0.weight f4 [512, 45]
00000000: 8023 af3e b48c a53e 69b5 2d3e 640d 933e
00000010: cb92 4abf 3587 8a3d 4601 25be 6f0f 8bbe
00000020: 01d5 cd3d 0430 0cbe e9ca 6dbe d432 3bbe
00000030: 828d 783e 6add e0be 43a4 f2be 3215 c9be
00000040: 7387 75be 6bb8 5a3d bc40 a3be 4000 e23e
00000050: 9cd6 79be ab9a 3c3f 4a6d f83d ca39 533e
00000060: 80c9 053f 7685 7cbe 1ece 023d 978d 49bd
00000070: 93e8 4ebe eddc 8b3d 5c40 bebd f7d9 483d
00000080: da5d 60be a28d b4bd fb80 9a3d 5d0d 8d3d
00000090: e6ea 713c 7b80 903b bb0b 94bc 9dd6 8d3d
000000a0: 5d81 a13c bad9 923d f279 76bb e670 88bd
000000b0: 6b93 693c 7381 d23e 6973 c63e 0ffe bb3e
000000c0: 3222 0b3f 8347 19bf 267e eabd 5af6 4b3e
000000d0: 5f24 123d 524b 8e3c 466c 3abe cbb2 c13e
000000e0: c34a f93e d99e 3bbd 43e7 b63d b99f 18bd
000000f0: 3556 8fbd f0ce d23e 702e 873d 1664 c53d
00000100: 97a0 14be 2d5f 2b3f 8081 863d 4e77 883e
00000110: 5b34 2cbe 652b 803e c914 813d 1b72 e93c
00000120: 5e2a 953d 79fd 8c3d 97c7 5dbe 3202 933e
00000130: 6a9d b13b 1ccf 69bd 51fa 4e3d d0b6 b63c
00000140: 4d20 073d 1913 be3c ac94 acbc a4cd 8bbc
00000150: f572 983d bcde 363d 966c fd3c 4f96 1dbd
00000160: df75 61bc 5eb3 1fbd 4ef5 723e fcc5 823e
00000170: 4a62 1b3e 3e3d a33e f701 03bf a114 e8bc
00000180: cb4d 8a3a 9fc6 c73e 80d9 343e 3d94 123d
00000190: f92e 95be fc6e 223f 40de 88be 0c53 5bbe
000001a0: badc 48bd 214d 0b3e 6915 dbbd 7897 0cbe
000001b0: 4b23 653e b59b af3d ac31 393d d593 753d
000001c0: 758f d73d 7e78 d8be 5183 0d3f ca4a 83be
000001d0: f9a7 133f 4365 7c3e 9fdf 19be 4465 ba3e
000001e0: 1dc9 7fbd 4e75 873d 02b0 103b 9394 ab3b
000001f0: 902f 433c bf7f 353d 1abe 3dbd 48b5 ee3c
00000200: ca1a b13c bf21 963b 6db9 543d 7115 26bc
00000210: 5cab 18bc 6f0f 53bd 5c34 dabb 229d 80be
00000220: 6b83 523e 4c42 0e3f 9618 e8bd b9b8 1f3f
00000230: a5ab 993d f2ad 553d 5604 953e 9f23 49be
00000240: cf4a dabe 0c4d b8be 1f26 22be 251a 0c3e
00000250: 9097 08bf 79c7 293e f9a3 843e 1a60 ecbd
00000260: 7da3 6ebe 9f91 cabd 9bd3 4bbe d7c2 533e
00000270: 2f2c d2bd e149 d0bd 8f42 9bbe 54b6 7d3d
00000280: 2246 c6bd 6668 e73e 8143 05bd 735b 82be
00000290: a1aa 8fbe 6c2c 8e3d 2698 2e3e ca65 263d
000002a0: 4f3a b3bc 2cb6 c13c 282e d1bd 5243 063d
000002b0: e4c3 f1bb 27ec 97bc 4da6 113d 14ae 433b
000002c0: 4648 d7bb e043 16bc bcab f4bc 849f 8cbb
000002d0: cc85 aa3e 8dc7 f6be e9e4 733e 3eae 80bd
000002e0: 4b80 20bf b77b f23c bf6c a03d f7b7 48be
000002f0: aa74 4abe 3bbe 063e 5118 b23e d5a7 1b3e
00000300: eba4 223e c9fd e8bd d49a cdbe baf6 c53d
00000310: 1b4a 5bbd 7be4 06be 2352 213d afdd f0be
00000320: 5d17 93bd 2500 7ebe 9d3b 30be 5558 8ebe
00000330: 4647 84be 1038 c8be 48c6 83be b64f 9e3d
00000340: ee12 1abe 98ab 90bd c076 ed3d 9611 81bd
00000350: d0a3 1d3e 69f5 d9bd f1cb 6bbd 8885 d03d
00000360: 9cc3 4f3e 3e0d 41bd c965 fe3b 017d 343e
00000370: 5c49 30bd 348d f73d e38b afbd 133c 12be
00000380: 2a76 2c3e 6a14 793e eb76 f73d b934 443f
00000390: 735d b9be 9ad1 94bd a144 823c 8403 21be
000003a0: 7a4c 26bf 616d 95bd 0a52 5d3e 95f6 73be
000003b0: 177b 243c cf63 823e 053b f6bd e6c0 ca3d
000003c0: d944 ba3d 43fc 4d3e 4379 babb 6355 8cbe
000003d0: 0e37 84be 61b4 67be c863 573e 4441 c03d
000003e0: ede2 143f a63f 3ebe 6662 3a3e 08cc 05be
000003f0: 9099 76be b993 cb3d 3216 0abe 00b3 1ebe
0.34206772 0.3233391 0.16963734 0.28721154 -0.7913024 0.0676407 -0.16113767 -0.27160212
0.10050393 -0.13690192 -0.23221935 -0.18281108 0.24272731 -0.43918926 -0.47390947 -0.39273983
-0.23977451 0.05339853 -0.31885326 0.44140816 -0.24398273 0.73673505 0.1213022 0.20627514
0.5226059 -0.24660286 0.03193485 -0.049207296 -0.20205908 0.068292476 -0.09289619 0.049035992
-0.21910802 -0.08816077 0.07544132 0.068873145 0.014765477 0.0044098473 -0.018072 0.069257
0.019715006 0.07170434 -0.0037609306 -0.06662159 0.014256339 0.41114387 0.38759926 0.3671727
0.5434905 -0.59874743 -0.11449842 0.19918194 0.035679217 0.0173699 -0.18205366 0.3783172
0.4868985 -0.045805786 0.089308284 -0.0372617 -0.069988646 0.41173506 0.06600654 0.096382305
-0.14514385 0.669421 0.06567669 0.26653522 -0.16816847 0.25033107 0.063027926 0.028496793
0.072834715 0.068842836 -0.21658169 0.28712612 0.0054203765 -0.05708228 0.05053169 0.022303969
0.03298979 0.023202466 -0.021066986 -0.01706583 0.07443801 0.04464601 0.030935567 -0.038473424
-0.013761013 -0.038989417 0.23726389 0.25541675 0.15174213 0.31882662 -0.51174873 -0.02833015
0.0010551749 0.39018723 0.17661095 0.035785902 -0.291374 0.634506 -0.26732063 -0.21418399
-0.049038626 0.13603641 -0.10697443 -0.13729656 0.22376744 0.08574621 0.045213386 0.059955437
0.10525409 -0.42279428 0.552785 -0.25642997 0.5767818 0.24648003 -0.15026711 0.36405385
-0.062447656 0.06614171 0.0022077565 0.0052362173 0.011913195 0.04431128 -0.046323873 0.029139176
0.02161922 0.0045816596 0.05193465 -0.010136948 -0.009318199 -0.05152839 -0.0066590738 -0.25119883
0.20557944 0.5556991 -0.113328144 0.6239124 0.07503442 0.05216784 0.2910487 -0.19642495
-0.426352 -0.35996282 -0.15834855 0.13681848 -0.53356266 0.16579999 0.2590635 -0.115417674
-0.23304553 -0.09891056 -0.1990494 0.20679794 -0.102623336 -0.10170341 -0.30324218 0.06194146
-0.096813455 0.45196837 -0.03253508 -0.25460395 -0.28059867 0.069420666 0.17050228 0.040624417
-0.02187839 0.023646437 -0.10213882 0.032779045 -0.0073780883 -0.018545223 0.035558987 0.0029858397
-0.006569895 -0.009171456 -0.029867046 -0.0042914767 0.33305204 -0.4819912 0.23817791 -0.06283234
-0.6269576 0.029600007 0.07833242 -0.19601427 -0.19771066 0.13158505 0.34784177 0.15200742
0.15883224 -0.11376531 -0.40157187 0.096662 -0.05353747 -0.13173096 0.039384972 -0.4704413
-0.071821906 -0.24804743 -0.1721024 -0.27801767 -0.25835627 -0.39105272 -0.25737214 0.077300474
-0.15046284 -0.07063979 0.115949154 -0.063021824 0.15394521 -0.106425114 -0.05756754 0.10181719
0.20289463 -0.04713177 0.0077635986 0.1762581 -0.04303871 0.12087479 -0.08571603 -0.14280729
0.16841951 0.24324194 0.12083229 0.7664295 -0.3620411 -0.07266541 0.015901865 -0.15723997
-0.64960444 -0.07296253 0.21613327 -0.23824532 0.0100391125 0.25466773 -0.12022976 0.09900074
0.09095163 0.20115761 -0.005690725 -0.27408895 -0.25823253 -0.22627403 0.21034157 0.093874484
0.5815876 -0.18578967 0.18201599 -0.13066113 -0.24082017 0.09940285 -0.1348503 -0.1549797

actor.0.bias f4 [512]
00000000: f947 b5bd ccbd 08be 2048 8a3e f276 873c
00000010: 5666 8f3d 668f d43d 11d2 c0bb 792c 18be
00000020: b42a 8dbd cc17 ecbd 2cc6 703c 1f92 c6bd
00000030: f4ca 253e ef33 0e3d d5de 08be 0568 3a3c
00000040: 8675 4d3d 29a1 aa3d 6b2e f8bd ef0c 613e
00000050: 172a 21be a4ab 9abd c6dd ed3d 4810 c7bc
00000060: ffa8 6e3d 2930 783c 8b7f d63d e979 3bbe
00000070: c49d cbbd 4132 a33d e7b7 e93d 0900 0abd
00000080: 37e3 15bd 8e0b f93d 144d fa3c 7a95 13be
00000090: 692f d83d 8f08 47ba 33b7 8a3c 095a 00bd
000000a0: 6ee9 a1bd af7d b33d 6a2f 023e ffca db3d
000000b0: 75bf da3d 8a9e 45bc 4e33 44be fb44 38be
000000c0: b335 1e3e 3bb6 29bd 1255 8ebd 65ce 41bd
000000d0: fe28 083a ee02 7f3c caa2 c83b 0f86 ce3d
000000e0: 7bc0 00bc 6858 78be 9e95 c63b f0e5 7dbc
000000f0: 3849 0f3d 087b e63c 4bd3 eabd 5a29 2bbd
00000100: f224 0cbe 1424 73bc 3949 26be de13 06be
00000110: 559f 19bd 1846 e93d 441c 50be e51f bd3d
00000120: b987 a33d c0f9 5bbe baa7 16be 0930 b93d
00000130: 4a6d e93d f127 10be 1f0e 81bc 0bde 953d
00000140: 36fc dcbb 7c29 56bb b86d 4d3e c1bb dfbd
00000150: 5128 33bc d802 93bd a83c 10be 87d4 bd3c
00000160: 5a1a 863d d19a 9b3c dafa 13be e0b0 533b
00000170: 3813 dabd f888 283e a0b2 2fbe 584a c33b
00000180: 0d94 eb3d 1ee3 6abd b1a7 91bd a4a2 22be
00000190: 2bc0 32bd aff1 a83b d330 e9bd 3ba2 bdbd
000001a0: 2133 16bd d638 06be 1c4f 5b3d ea71 ac3d
000001b0: 9473 cd3c 710e 57be 56b6 bf3d 3214 02be
000001c0: af77 23be 5f30 c83d 50d7 3b3d b01a 1839
000001d0: f12c 4e3d 3f26 5cbe 3d41 473d 8bee 0c3d
000001e0: 9552 30be 4216 d7bd 5af0 0abe 0db2 45be
000001f0: 770b 34be b9b7 53be e960 a3bc 988a 0ebe
00000200: 8010 c5bd 7f11 2bbe db1a cd3d ad8b ce3d
00000210: 75b2 2bbd f81e 50bd 4fc6 2dbe 5f6b fd3c
00000220: 6935 513d 3df4 9c3d d956 a63d 3db5 2f3d
00000230: a1cd aabd 2b10 0a3e 51cb 85bd 2cd9 163e
00000240: 5e33 51bd d173 233e 077b dabd 363d 113c
00000250: d6f0 24be 2213 243e 6b6e 213e 4c7a 35be
00000260: 16f8 f7bc 29af acbd 74e7 6c3d ba81 bb3d
00000270: 092d 83bd 1989 1e3e 14dc 0f3e 3ae3 42bd
00000280: 5715 793d dacf b8bd b8c2 d0bd 666f 663d
00000290: 9c72 f1bc 52e0 343e a32d 533d 48d9 be3c
000002a0: 00b7 093e 3a7c df3d 71f1 463e dbd6 79bc
000002b0: 04d4 cc3d 90b6 18bd aa75 adbc 4e83 e3bd
000002c0: 0043 72be fe5e 6bbd 93ea 103c 5cff 18be
000002d0: d2c4 6e3d c855 8ebd 31f7 b0bd 4b92 553e
000002e0: d917 28be c526 22be 8cc9 d3bd 3dbc 9ebb
000002f0: 216e 5cbd 33f9 da3d e424 08bd ef5c e8bd
00000300: 47f7 143c 4eeb bb3b a1b2 ad3d 0407 3fbe
00000310: b86c 3b3e cbd6 3b3d 9ef6 61bd 17b1 8d3c
00000320: 2100 ed3b 62d7 b03c 7038 30bd a8a9 31bd
00000330: 2af3 3b3d 8d17 a2bc 1b8a 2fbe 488c 01bc
00000340: 2390 f53c 8b91 79bd 99b4 bd3c b376 e8bd
00000350: 6e49 52be 0538 59be d171 19bd f393 01be
00000360: b657 4abd 1e00 883d 9b1c 1f3d 8c24 2a3d
00000370: f70e 23be c026 193e 0e07 4ebc c3b2 85bc
00000380: 8f32 b43c c072 25be 8ceb 68bd bdf1 f3bc
00000390: 744a 1dbe 26b9 e43c a4e8 753d 2239 cdbd
000003a0: 3352 47bc 72a9 3c3d 2e00 16be 1522 e53d
000003b0: a48b c13d 80f6 133e 56f0 03be 7c99 023d
000003c0: 9e6d b3bd f661 443d bc2c 423d d1b9 32be
000003d0: 6bb0 25be b0cd 3abe 5acc 033e badc d43d
000003e0: fa77 0c3e 7386 3abe 8311 c43c ebd4 74be
000003f0: 6554 36be 5c3f 6cbe 62bb 6abe 0fe0 653d
-0.08851618 -0.13353652 0.27008152 0.01653621 0.07001941 0.103789136 -0.005884417 -0.14860715
-0.068929106 -0.115279764 0.014695685 -0.09695839 0.16190702 0.034717496 -0.13366254 0.011377339
0.050160907 0.0833152 -0.121182285 0.2197759 -0.15738712 -0.07552269 0.116145656 -0.024299756
0.058266636 0.015148201 0.10473546 -0.18308224 -0.09942201 0.079685695 0.1141203 -0.03369144
-0.036593642 0.12160407 0.030554332 -0.1441249 0.10555918 -0.0007592523 0.01693306 -0.031335864
-0.07905851 0.087642066 0.127134 0.10732078 0.10681049 -0.012061724 -0.19160196 -0.17995064
0.15450172 -0.041433554 -0.069498196 -0.047315974 0.00051940966 0.015564663 0.0061229216 0.100841634
-0.007858391 -0.24252474 0.006060316 -0.015496716 0.034981936 0.028134838 -0.11466082 -0.041787483
-0.13685969 -0.014840145 -0.1623887 -0.13093516 -0.037505466 0.113903224 -0.20323282 0.09234599
0.079848714 -0.21481991 -0.1471242 0.09042365 0.11397798 -0.14077736 -0.015753804 0.07317742
-0.006743933 -0.0032678535 0.20061386 -0.10924483 -0.010934905 -0.07178277 -0.14085639 0.02317263
0.06547995 0.01899472 -0.14451161 0.003230147 -0.10648197 0.164585 -0.17157984 0.00595979
0.11502848 -0.057345502 -0.07112063 -0.15882355 -0.043640297 0.005155764 -0.113862656 -0.09259459
-0.036669854 -0.13107619 0.05354224 0.08420165 0.025079526 -0.21001603 0.0936095 -0.12703016
-0.15963624 0.09774851 0.045859635 0.00014505791 0.05033583 -0.21498965 0.0486462 0.03440718
-0.17219003 -0.10502292 -0.1356825 -0.19306202 -0.17582498 -0.20675553 -0.019943671 -0.13920057
-0.09622288 -0.16705893 0.10014888 0.10085235 -0.041918237 -0.050810784 -0.1697018 0.030934988
0.051076327 0.07663772 0.081220336 0.04289745 -0.08340002 0.1348273 -0.0653292 0.14731282
-0.05107438 0.15962149 -0.10667997 0.0088646915 -0.16107497 0.16022924 0.15764777 -0.17722434
-0.030269664 -0.08431847 0.05783792 0.09155603 -0.06405074 0.15481986 0.14048797 -0.04757998
0.060811367 -0.090240195 -0.1019339 0.05625858 -0.029473595 0.17663696 0.051557194 0.023296967
0.13448715 0.10912366 0.1942804 -0.015248979 0.10001376 -0.03728348 -0.02117427 -0.11109029
-0.23658371 -0.05746364 0.008844989 -0.14941162 0.05829317 -0.06949955 -0.08640898 0.20856588
-0.16415347 -0.15835102 -0.103411764 -0.004844217 -0.053815965 0.10692062 -0.033238307 -0.11345851
0.009092159 0.0057348376 0.084813364 -0.1865502 0.18303192 0.04585914 -0.055166833 0.017296357
0.0072326814 0.021587078 -0.043022573 -0.043374687 0.045886196 -0.01978662 -0.17142527 -0.007906981
0.029975956 -0.060929816 0.023157405 -0.11350765 -0.20535824 -0.21212776 -0.03746206 -0.12654094
-0.049400054 0.06640647 0.03884564 0.04153876 -0.15923677 0.14956188 -0.012574924 -0.016320592
0.021996764 -0.16157055 -0.05686526 -0.029778356 -0.15360433 0.027920317 0.060036317 -0.10020663
-0.012165594 0.046060033 -0.14648506 0.11188141 0.094504625 0.14449501 -0.1288465 0.031884655
-0.08761142 0.047944985 0.047405943 -0.17453696 -0.1618058 -0.18242526 0.12870923 0.10393663
0.13717642 -0.18215351 0.023934131 -0.23909347 -0.17805631 -0.23071045 -0.22923043 0.056121882

actor.2.weight f4 [256, 512]
00000000: 7751 50be 011c 7b3c 2b4d 0abe bbf2 e6bd
00000010: 415f e1bd 5fd7 2abd 2290 5d3d 86f9 4a3c
00000020: f9fe 62bb a558 223d fce0 873d 179f 543d
00000030: 403e 243c 760a 15bd f256 2d3d f41b 8b3e
00000040: 468d 3c3e eebe 37be 842a c93c 2dcd a63c
00000050: 95dd 213e ea16 03bd 5146 70bb a163 fbbd
00000060: 4b79 1c3d 55cb 113d 4baf 8abd 8099 913d
00000070: 816d fd3d c03b 053e e442 35be 30b2 63be
00000080: d00e d53c 0a30 96be eb0e 2ebe 62a4 5b3c
00000090: 5931 d5bd a8df 33bc f16d 1dbd 4487 5ebe
000000a0: 3fdb 993d 6c49 0a3e 26e9 353e beb0 89bc
000000b0: 8c5f 083e 5e17 013e 26a2 fbbb ec82 6c3d
000000c0: 26df 32bc 1ff5 30be 8e6f 5dbc 3d3e 993d
000000d0: f046 24bc 7808 6f3e 1cc4 8e3c 9335 81bc
000000e0: c177 893e 6398 b33d 8ed6 0f3d b2c7 dbbd
000000f0: d240 933d 5bd4 f9bc 66fb 07bc ae3b 35bd
00000100: ef9a 6bbe 19ab 32be 44ec 40bd 4d7e 453e
00000110: 0adb 1a3e 8185 76bd cf45 863d 8545 99bd
00000120: 6dec 183e b854 bc3c bd50 6abe 4a56 cfbd
00000130: 7963 d0bc 872a e53b 05bb 5cbd 7f0b 4ebd
00000140: 840d 4ebe fc9e a3bb f275 48be 47c1 c93c
00000150: 5e97 09bd 9bc6 b7bd 6536 803e d54e 673d
00000160: 1611 76bc 1b64 323e d86f 53be f960 163e
00000170: 8ee2 8dbd 5b9a 4abd 28de 573d ce3d eebd
00000180: 8a08 40be 3963 cc3c f3e2 9fbd f1f1 07be
00000190: a197 05be 003f 43bd a617 593d c5d4 223d
000001a0: 8a75 02ba 9b81 cf3d 4f1b ca3d 20ae 11bd
000001b0: b686 253c 1b2b c83d 23e0 23bd 7a82 dd3d
000001c0: 1207 acbd a1be d1bd 148b afbd 596c b93d
000001d0: aeda a7bd 4b70 d03d 5882 d83b 5137 be3c
000001e0: 0edd 95bd ee0b 7b3e 9877 dabc 0d0e cd3d
000001f0: 4862 0c3e d088 303e f294 203d 1862 443d
00000200: 1999 8bbd f7b7 103d 81f0 c4bc f8a2 b93d
00000210: a4b2 da3d 625a 8cbd 59a6 173d 34f1 57bd
00000220: eecc a13c 19ab 0dbd 709c b9bd fca7 98bc
00000230: 8475 7d3c dd5d a0bd be19 663e 6950 2d3c
00000240: 25bf 91bd 3de1 2ebe 0ef1 afbd 9363 abbd
00000250: abdf 9e3d 07e6 36bd d145 8abd f227 7bbe
00000260: d6ff df3c 6cf7 a13d b5ff b2bc 61df 7cbe
00000270: 178e e13d 5c43 f23d 49d9 06be deae 1bbe
00000280: 2474 94bd 731d 8dbd 67cc b2bd fcfb d5bd
00000290: f88b c1bd 0e3a 0fbe 1576 c9bd 1ed7 88bd
000002a0: 6b26 20be ec5b ef3d 4c73 053c 8ad4 87be
000002b0: 915b c93d 8e2a 9ebe 2c1c fbbc c67d 2cbd
000002c0: 58d8 6ebe 1ecc 18be 66c7 e8bd d577 943d
000002d0: d2db d03b 88d4 87bd fb39 22be 23ce e1ba
000002e0: bc69 a7bd 9d4f 8d3d 0c30 b03d b4f5 02bc
000002f0: 0d70 bbbb dc8c fabd 77a7 c9bd 3e93 88bd
00000300: 282c 07be 6346 a0bd a16e 4cbc 57d8 1f3e
00000310: 303a b23d ce97 2f3d b70f 833d de3b 48be
00000320: 69bc fd3d 14ed 3fbe eaba fabd 3591 5e3d
00000330: daf2 5d3c c971 753c 833b aebd a8e3 423e
00000340: 9533 493d 1964 33be 876b 0fbe aa8b 463e
00000350: 8ae4 223d 7b81 003e 9ce1 b5bd c66f 9d3c
00000360: 4eeb 213e 898a 723e 5a21 c2bd 7cb6 983d
00000370: 3da2 023e 4417 ecbd 65d2 603c 217b 3f3e
00000380: 3921 5b3e 6967 be3c 45c3 54be 879e d33d
00000390: f57f 933d 8ae8 1fbe 6f69 13bc 2582 d53c
000003a0: bfd1 b23e 71bc 1b3e 7e3c 063d 559a 34bd
000003b0: c114 4d3e a8b3 69be 27d1 c8bd 5ddf 08be
000003c0: 6ae0 e9bd 804e 1ebd b9e3 0abe 6cf6 303e
000003d0: 07f1 753e bcf9 263e c5e0 783d dc44 03be
000003e0: 6f8f 823d 6b3e d6bd bb46 e9bd 44da a0be
000003f0: bb12 b23d b05f 00bd f4e0 053d 8847 0bbe
-0.20343576 0.015326501 -0.13506 -0.11276766 -0.11004496 -0.0417093 0.054092534 0.012388593
-0.0034636839 0.03963532 0.06634709 0.051909532 0.010024607 -0.03638693 0.042319246 0.27169764
0.18413267 -0.17943928 0.024556406 0.020361507 0.15807183 -0.032004274 -0.0036663006 -0.12274862
0.03820161 0.035594303 -0.06771716 0.07109356 0.12374402 0.13011074 -0.17701298 -0.22235942
0.02600804 -0.29333526 -0.16997878 0.013405891 -0.10409803 -0.010978617 -0.038434926 -0.21731287
0.07512521 0.1350457 0.1776472 -0.01680791 0.13317698 0.1260657 -0.0076792417 0.057742044
-0.010917461 -0.17281006 -0.013515366 0.07482574 -0.010026678 0.23343074 0.017427497 -0.015772616
0.26849177 0.087693 0.035116725 -0.10731448 0.07190098 -0.030496767 -0.008299684 -0.044246368
-0.23008321 -0.17448081 -0.04710032 0.19286461 0.1512262 -0.060185913 0.06556284 -0.07483963
0.1493394 0.022989616 -0.22882362 -0.1012388 -0.025438057 0.006993595 -0.053889293 -0.050303932
-0.20122343 -0.0049933176 -0.19576243 0.024628295 -0.03359162 -0.08973428 0.250415 0.056471664
-0.015018722 0.17421 -0.20648134 0.1468543 -0.069279775 -0.04946361 0.0527021 -0.11632882
-0.18753257 0.024949657 -0.07806959 -0.13275887 -0.13046123 -0.047667503 0.05300107 0.039753694
-0.0004976621 0.10132142 0.0986849 -0.03556645 0.010102918 0.09773847 -0.040008675 0.10815902
-0.08399786 -0.10241438 -0.08571449 0.09053869 -0.08196007 0.10177668 0.006607335 0.023219736
-0.073175535 0.2451627 -0.026668355 0.100124456 0.13709366 0.1723969 0.039204545 0.047945112
-0.068163104 0.035331693 -0.024040462 0.09064287 0.10678604 -0.06853177 0.037023876 -0.052720264
0.019751038 -0.034587 -0.09063041 -0.018634789 0.015469912 -0.07830403 0.22470757 0.010578253
-0.07116536 -0.17078109 -0.085908994 -0.08368602 0.07757505 -0.044652965 -0.06751598 -0.24526957
0.027343672 0.0790852 -0.021850446 -0.24694587 0.110134296 0.11829254 -0.13168825 -0.15203425
-0.072487146 -0.068903826 -0.08730393 -0.10448453 -0.09450525 -0.1398699 -0.098369755 -0.06681655
-0.15639655 0.116874546 0.008145165 -0.26529342 0.09831918 -0.30891842 -0.030653082 -0.042112134
-0.23324716 -0.14921615 -0.11366157 0.07249419 0.006373861 -0.06632334 -0.1584243 -0.0017227571
-0.08174464 0.06899951 0.08602914 -0.0079931505 -0.0057201446 -0.12233898 -0.098463945 -0.06668709
-0.13200438 -0.07825925 -0.012477548 0.15609871 0.08702505 0.04286938 0.06399482 -0.19554088
0.12389452 -0.18742782 -0.12242682 0.0543377 0.01354667 0.014980742 -0.08507445 0.19032156
0.049121458 -0.17518653 -0.14005862 0.19389215 0.039768733 0.12549393 -0.08880922 0.019218337
0.15812418 0.2368566 -0.094790176 0.07456681 0.12757201 -0.11527875 0.013722037 0.18699314
0.21399392 0.02324267 -0.20777614 0.10332971 0.0720214 -0.1561605 -0.008997305 0.026063034
0.3492565 0.15208603 0.032772534 -0.044092495 0.20027448 -0.2282244 -0.09805518 -0.13366456
-0.11419757 -0.038649082 -0.13563432 0.17281502 0.24017726 0.16306204 0.060761232 -0.12819237
0.06375014 -0.10461124 -0.11390444 -0.31416523 0.08694979 -0.031341255 0.032685235 -0.13601506

actor.2.bias f4 [256]
00000000: 896f 21bc 182c a5bd 019b c23d 0423 7ebd
00000010: 68cc 69bd 109c eebd 523c 66bc 51d9 eebd
00000020: 3325 85be 71ad bfbd 94aa ddbd 9a97 a8bd
00000030: de2d 26be 66b7 5bbe b2e8 20be d47c 21bd
00000040: 9345 753b 9373 87bb 4c4e e5ba 7552 bfbd
00000050: 092b 45bd b141 003d 3bd1 103d 9eee 07bc
00000060: 5827 e8bd 0a01 e43c 4a19 6c3d f29e b0bd
00000070: ca48 77bc 424d dabd f8a4 21bd 7751 49bc
00000080: e13b 43be d451 74bd f26f 8b3c 1d9a 0dbd
00000090: ec7c c93c 9835 ebbd f736 01bd 350f 16be
000000a0: 1596 26bd e1c3 7abd a020 77bd c515 0abe
000000b0: a54a 32bd 5fc5 04bd 6bb4 163d fb32 a2bd
000000c0: 422f ecbd 308b a1bd a278 e1bc b167 08bd
000000d0: b33b 06bd 1686 76bd 3f14 b6bd 0ce8 b4bd
000000e0: a57a 12bd 1bbc cebe a1fd 21be 8143 c4be
000000f0: 4338 26be 4c31 e5bd f228 81bb c863 0ebe
00000100: 734c 22bc a638 9abd e979 1cbe 8a3f 3abd
00000110: 28d1 9fbc 3c20 56be 6f3a adbd 5325 bebd
00000120: e917 0abc 19f2 e6bd 363f 81bd 7994 62bd
00000130: 814c d8bd 6111 87be 2dd1 33be 2f5a 9bbd
00000140: e020 bd3c de02 ebbd 23b3 c3bd 8b4e 7e3d
00000150: 1abd 22be bd3c bb3c c944 78bc 37b4 bebd
00000160: 9ef3 13be 2cde 18be 850f 5ebd 6dfe dbbd
00000170: 6335 6cbe 9ae5 74bd 1ab9 af3a 921f 8c3b
00000180: 6d84 72be 27cd 963d e894 25be 00b9 5cbd
00000190: ee9f 36be 4f97 38bd a0ae f9bc b614 ae3d
000001a0: f9da bdbd f93f 3fbd a6b4 0cbe 4fb4 59be
000001b0: dd68 5cbe 774a 95be 903f f1bc bc3e 073d
000001c0: b1f6 c9bd 355e dabd 6e05 29be 5a7e 0dbe
000001d0: 829b 18be a027 b5bd 0f3a f0bb bc68 10be
000001e0: 9730 1cbd 9716 4fbd e737 eeba 0b18 b8bd
000001f0: e70a 7fbd fd9e 973d e73a 58be dff7 29bd
00000200: 92d2 adbd 710f b8bd 3830 223e 4346 33be
00000210: e5db 27be ca7b 663b 0655 a8bd a695 0a3e
00000220: 33fe db3d 8d96 09be 78c6 bebc 5e72 eabd
00000230: 9caf 1ebe 06ab a1bd 3e74 88bb 3fda 3ebd
00000240: 552e 5bbe 081e edbc d565 5dbd 7270 b0bd
00000250: 9454 72bd 9e51 59be 7047 5ebd 2edc 3cbc
00000260: bed0 a6bd 7fac d2bc b833 d6bd 8215 26bd
00000270: 7cb8 0dbe 8d24 d2bd 2df3 22be e345 6fbd
00000280: 2c37 a2bd d9e6 a9bc 5ebe dabd af0f a1bd
00000290: e149 1dbe 55c7 d9bc b1b5 1d3d b439 64be
000002a0: 1c9e 92bd b4d9 cf3c e04f 20be 9aed 04be
000002b0: ff27 65be 9f12 36be f0de 963d c9a7 5ebe
000002c0: 6680 0dbe d046 b6bd 5796 49be 94d3 f4bc
000002d0: 92d6 9bbc 6ed5 e1bd 02fb b3bd 33ad 0abd
000002e0: e9ea b2bd 3c53 2dbd aa86 2ebd fd7a 00be
000002f0: 9db0 fabd 696a 58be 61de 19be 9201 ca39
00000300: 67ab 50bd db5f 1e3d c056 4abe a528 b5bd
00000310: 7c07 d3bd c39a 813c 1d1b 2d3c d380 97bd
00000320: a854 2fbe 9aa8 39bc 3939 81bd e9e2 a63b
00000330: e674 01be eb4b 51bd 1d78 2dbd 3d57 eebd
00000340: bafd e0ba bd71 4bbe 79ca 593d 6f14 7cbe
00000350: 5cf7 3ebe 6aa8 9dbd 8a03 c4bd 279d 96bd
00000360: 42fb a8bd 2062 a03d d805 fdbd f7d7 f0bc
00000370: 662d fabc e2fd ffbd 2ce8 86bd 0bb0 8cbc
00000380: db6b d1bd 1672 053e da37 a7bd 9ff4 71bd
00000390: 49e8 63bd 53fa b73d 62f6 47bd ec2a 083c
000003a0: 2411 cdbc 3767 94bd 1d63 25be 40b0 143d
000003b0: 8c73 06be 5481 41bd 86b6 81bd 9382 a03c
000003c0: 709f 47bc 0a92 05be fddc a6bd ce77 b0bd
000003d0: 2595 26be c95b acbd 1036 81bd 5172 d5bc
000003e0: c67e debc d234 edbd db3c 96be 1f26 243d
000003f0: 711c debd d560 f43d df00 a3bd af5d 38be
-0.009853252 -0.08065051 0.09502221 -0.062045112 -0.057079703 -0.1165086 -0.014052467 -0.116625436
-0.26004943 -0.09359253 -0.10823551 -0.08232041 -0.16228434 -0.2145668 -0.15713766 -0.039425686
0.0037425503 -0.0041336506 -0.0017494648 -0.09341899 -0.048136745 0.03131265 0.035355788 -0.008296637
-0.11335629 0.027832527 0.057641305 -0.086240664 -0.015093038 -0.10659267 -0.039463967 -0.012287489
-0.1906581 -0.05964835 0.017021153 -0.034570802 0.0245957 -0.114848316 -0.03154656 -0.14654239
-0.040670473 -0.06122196 -0.060333848 -0.13484867 -0.043528218 -0.03241479 0.036793154 -0.0791988
-0.11532451 -0.07887876 -0.027523343 -0.033302013 -0.032771777 -0.060186468 -0.088905804 -0.08833322
-0.035761494 -0.40377888 -0.15819408 -0.3833275 -0.162324 -0.11191043 -0.0039416486 -0.13905251
-0.009905922 -0.07530336 -0.1528088 -0.04547075 -0.019508913 -0.20910734 -0.08458411 -0.09284463
-0.008428552 -0.11276645 -0.06310885 -0.055317376 -0.10561467 -0.26380447 -0.17560263 -0.075855605
0.023086965 -0.11475156 -0.09555652 0.062086623 -0.15892449 0.02285611 -0.015153118 -0.09311717
-0.14448401 -0.14928502 -0.05421402 -0.10741887 -0.2306724 -0.059789278 0.0013406605 0.0042762244
-0.23683329 0.073633485 -0.16170084 -0.053887367 -0.17834446 -0.045066174 -0.030478776 0.08500044
-0.09270281 -0.04669187 -0.13740787 -0.21260189 -0.21524377 -0.29158375 -0.029449254 0.033018813
-0.09861506 -0.106625 -0.16505978 -0.1381773 -0.14903072 -0.088454485 -0.00733114 -0.14102453
-0.038132276 -0.050558653 -0.0018174619 -0.08988961 -0.062266257 0.074033715 -0.2111622 -0.041496154
-0.08487429 -0.0898732 0.15838706 -0.17507271 -0.16392477 0.0035169 -0.08219342 0.13533649
0.10741844 -0.13436337 -0.023287997 -0.11447595 -0.15496677 -0.07893948 -0.004164248 -0.046594854
-0.21404393 -0.028944984 -0.054052193 -0.08615197 -0.05916269 -0.2122254 -0.054267347 -0.011527104
-0.08145283 -0.025717018 -0.10459083 -0.040547855 -0.13839906 -0.10260878 -0.15913077 -0.05841626
-0.079206795 -0.02073996 -0.10680841 -0.078643195 -0.15360214 -0.026584307 0.038503353 -0.22287637
-0.07159063 0.025372364 -0.1565547 -0.12981263 -0.22378539 -0.17780541 0.07366741 -0.21743692
-0.13818511 -0.08900225 -0.19686256 -0.029886045 -0.019023214 -0.110270366 -0.0878811 -0.033856582
-0.08736212 -0.042315707 -0.042608894 -0.12546916 -0.122407176 -0.21134342 -0.15026237 0.00038529612
-0.050944712 0.038665634 -0.19759655 -0.08845643 -0.10304162 0.015820866 0.010565546 -0.07397618
-0.17122138 -0.011331702 -0.063097425 0.005092968 -0.1264225 -0.05109779 -0.042350877 -0.11637733
-0.001716546 -0.19867606 0.05317161 -0.2461717 -0.18649048 -0.07698138 -0.095709875 -0.07354193
-0.082510486 0.07831216 -0.1235463 -0.029399855 -0.030539226 -0.12499596 -0.06587252 -0.017173788
-0.1022565 0.13031802 -0.0816495 -0.05907118 -0.055641446 0.089832924 -0.048818953 0.008311015
-0.025032587 -0.07246249 -0.1615109 0.036300898 -0.13130015 -0.047242478 -0.06333642 0.019593513
-0.012184009 -0.1304399 -0.08147619 -0.08616601 -0.16267832 -0.08415944 -0.0630914 -0.026055487
-0.02716006 -0.1158234 -0.29343304 0.040075418 -0.108452685 0.11932532 -0.079591505 -0.18004487

actor.4.weight f4 [128, 256]
00000000: e599 64bd 9666 d1bd 1e20 da3c c289 84be
00000010: 0f58 8a3c 36f2 bbbc 86b0 98bd 3054 303c
00000020: 449f 073d fefe 8bbd 8d09 473e d3ef a1bd
00000030: 8196 f53b 812b d83d 735b 373e 691f 4abe
00000040: 5e4a 203d f9a5 103d e203 a1be 7f90 d23d
00000050: 31e6 acbd 96b7 32bd 2d6f 273d c8d0 533e
00000060: 2500 a53c df51 263e ef3a e3bb a0d3 753e
00000070: 1b93 2ebe c9ce 22be 64e8 2cbe 38c6 06bd
00000080: 57ca 963d d7f0 a4bd b456 083e d7c7 603d
00000090: ac0d 063e d73c 3e3d 9f24 cc3c d223 68bc
000000a0: d8f1 1abd 6fd1 74bb 01d0 513d afa3 e83b
000000b0: 9f8a 35bd bbe8 2ebe 5d77 60bd c019 6bbe
000000c0: f0bf 0a3d 292f 993d b718 52bd d612 17be
000000d0: 5d3b febd a36d 483e 3191 d23c 82b3 743d
000000e0: 11d9 6ebd 7eec 873d bf8f 283e 3192 323e
000000f0: 909d ce3d c466 c4bd 06a8 243d 0a92 393e
00000100: 2ffd 24be 3a1a c7bd bdbe aabd 8b06 39bd
00000110: 482c 20be d820 213e 6c37 1b3e fa25 f0ba
00000120: 6a37 3e3e 59b3 20be 054c 083e 9d87 743d
00000130: 6e08 7e3d a14a d33d 776e 573c dd6c 013d
00000140: 2b89 eabd 2f02 5e3d aac7 953c 681f a1bc
00000150: e69e 4bbc 35b8 df3d dd3b 05bd eeeb dd3d
00000160: a2ff 79be 7aac 763c 010e 733e edce 91bb
00000170: 17f1 eb3d fa39 ef3d e844 123e 806a 68bd
00000180: 12ba 823d 933b acbd 70e6 00bc 681b 00be
00000190: 29d5 bf3b f2ef 033d e5d1 e83c 68af bfbd
000001a0: 26d4 bc3d 0c55 083d e97a 2c3e dd69 7c3e
000001b0: 298c 453d a19e c83d 2311 bbbd d603 debd
000001c0: 21a2 41be 9705 b73c cb62 533d ec9a c03c
000001d0: 8929 6b3d 9b04 9c3c 19e9 05bd f53d 563e
000001e0: dbd4 f03d f737 26bc 0b8d 2abd 4e47 4a3d
000001f0: 947d 84bb 87dc dbbd 1648 833e f53e 47bd
00000200: f838 273e ff89 2fbe 0b22 dcbd 41d0 323d
00000210: 6ca9 b73d 5372 af3d 9c20 833d ad11 debe
00000220: f7b6 0ebd 21e0 683e 0ba2 70bd 556c e737
00000230: e248 b9bd 2b8c 5fbd 572d 05be d9df c43d
00000240: 143e 483d 9765 5bbe 02e2 a73c a2b3 8a3d
00000250: 54c0 85bd 4000 443e 89f4 cebd 92e4 373e
00000260: 055e 063d c0fb b7bc 6736 b5bd f6e1 1fbd
00000270: a11f 86be 8998 f33d 28e9 a83c 529a db3d
00000280: 817d c6bc f473 da3d 018f 2bbe 2116 a2bd
00000290: 369d 98bd 3897 ef3d 63f2 673d 9f2d ea3d
000002a0: 0c1f bfbd 0e10 3cbe 4b06 28bd 0653 b33d
000002b0: 890a 973d 0f32 ca3d 68fc e8bc 9e02 093e
000002c0: afad 963d 71ca 98bc 5961 4dbd c853 6dbe
000002d0: 95e7 993d c3b5 513d ea15 5cbe b97e 363e
000002e0: b22c 803c 2051 48bd 0d8b 303e afe4 c2bd
000002f0: bfd6 11be cdc0 3c3d a1fb 023e b0c5 dabd
00000300: a135 f3bd ce0e 13bd d845 c1bd 6a10 e9bb
00000310: b72d c1bc 852a 20be 7ced 753d b2cd 4bbe
00000320: 82d2 073d 6fc1 223c d32d 24be 5329 b33c
00000330: 3edb 6ebd 267f ae3d 6084 87bc 9461 ab3c
00000340: 7b2f dcbb af88 d53d f000 4bbd 992c 7b3d
00000350: c7d6 9f3b 3ccd 8c3c c954 033e 9fb3 a4bc
00000360: 6805 713d fc3d 4fbc 91e4 20be 7776 043d
00000370: a3c2 08bc 4d80 c93d 6f43 de3d 7259 babd
00000380: cd3b 48bb e2cc 02be ac62 9cbc d9e6 d9bb
00000390: fc20 54be b48c 233d 8a69 fa3d dd79 cdbd
000003a0: ac53 103e 757e 303e 945a 5b3e 3a5a 183d
000003b0: f089 fbbd 56a4 2b3d e709 d93d e263 87bc
000003c0: 62fd 2e3b 0850 923e 6286 423d fb5f a03d
000003d0: 5a71 1c3e b630 723d e635 bf3d f486 e83c
000003e0: 6d43 3abb 1d6e 8cbd 4fc2 e23d 567d 32bd
000003f0: 50ca c2bd e12c e1bd f97e 023e 862c 48bd
-0.055810828 -0.10224645 0.026626643 -0.2588635 0.016887693 -0.022942644 -0.07455544 0.010762259
0.033110872 -0.06835745 0.19437237 -0.07907071 0.007494748 0.10555173 0.17905979 -0.19738545
0.039133422 0.035314534 -0.31448275 0.10281467 -0.08442343 -0.043632112 0.04087751 0.20685112
0.02014167 0.16242169 -0.0069345157 0.2400651 -0.17048304 -0.15899195 -0.16885525 -0.03290388
0.07362812 -0.08053749 0.13314325 0.054878082 0.13091153 0.04644474 0.024919806 -0.0141686965
-0.037828296 -0.0037356277 0.05122376 0.0070995907 -0.044321653 -0.17080967 -0.054801334 -0.22959042
0.033874452 0.07479698 -0.0512931 -0.14753279 -0.124136664 0.19573073 0.025703998 0.059741504
-0.05831248 0.06636904 0.16461085 0.1743858 0.100886464 -0.095899135 0.040199302 0.18122116
-0.16112207 -0.09721799 -0.08337162 -0.045172255 -0.15641892 0.15735185 0.1515786 -0.0018321865
0.18575826 -0.15693416 0.13310249 0.059699643 0.062019758 0.10316969 0.013148895 0.03159796
-0.11451944 0.0542013 0.018283684 -0.019668296 -0.012428021 0.109238066 -0.032527793 0.10836016
-0.24413922 0.01505577 0.23735811 -0.0044497163 0.115205936 0.1168098 0.14284098 -0.05674219
0.06383146 -0.084098004 -0.007867441 -0.12510455 0.005854268 0.03221125 0.028420398 -0.09359628
0.092201516 0.033284232 0.16843762 0.24649759 0.04822937 0.09795881 -0.09134128 -0.108405754
-0.18909504 0.022341533 0.05160789 0.023511373 0.057412658 0.019045165 -0.032693002 0.20922072
0.11759349 -0.010145179 -0.041638415 0.049384408 -0.0040432904 -0.10735422 0.25640935 -0.048644025
0.16330326 -0.17142485 -0.10748681 0.043655638 0.089678615 0.085667275 0.06402704 -0.4337286
-0.034842458 0.22741748 -0.058748286 2.7587792e-05 -0.090471044 -0.054577034 -0.13005577 0.09613008
0.048887327 -0.21425472 0.020493511 0.067725435 -0.06530824 0.1914072 -0.10105235 0.17958286
0.032804508 -0.022458911 -0.08848267 -0.039033853 -0.26196006 0.11894328 0.02061899 0.10722794
-0.024229767 0.106666476 -0.1675377 -0.07914377 -0.074518606 0.116987646 0.056627642 0.11434483
-0.093320936 -0.183655 -0.041021626 0.0875607 0.07375056 0.09872829 -0.02844067 0.13379905
0.07357346 -0.01865122 -0.050141666 -0.23176491 0.07514874 0.051198732 -0.21492735 0.17821778
0.015646312 -0.04890549 0.17240544 -0.09516274 -0.14242075 0.046082307 0.12791301 -0.10682237
-0.11875463 -0.03590279 -0.0943715 -0.0071125524 -0.023581369 -0.1564122 0.060040936 -0.19902685
0.03315974 0.0099338135 -0.16033106 0.02187029 -0.058314554 0.085203454 -0.016542614 0.020920552
-0.0067195273 0.10426461 -0.04956144 0.06132183 0.0048778984 0.017187707 0.12825312 -0.020105181
0.058843046 -0.012649056 -0.15712191 0.03233954 -0.008347186 0.098389246 0.10852706 -0.090990916
-0.0030553222 -0.12773469 -0.01909002 -0.0066498336 -0.20715708 0.039929107 0.12227161 -0.10033009
0.14094418 0.1723574 0.21421272 0.03719542 -0.12282169 0.04190477 0.10597592 -0.01652712
0.002670132 0.28576684 0.04749144 0.07830807 0.15277615 0.059128486 0.09336452 0.028384663
-0.0028421537 -0.0685694 0.11072218 -0.04357656 -0.09511244 -0.10994888 0.12743749 -0.048870586

actor.4.bias f4 [128]
00000000: c679 fabd 59b7 0ebe a12c 9dbd fc69 eebd
00000010: 604d bcbd 027f a2bc de0f f9bd 9455 15be
00000020: df22 f53d 9961 14bd 61df 9dbd a42f 9fbc
00000030: 6b0b d0bd 6eef 77bc cc10 913c 9a6d 863d
00000040: 95e0 793d 69cf 86bd 986b 3a3d 4ffe bcbd
00000050: e0d4 88bd 6ebd 2cbe 8996 dbbd 7a37 2cbe
00000060: 3285 fe3c f91f 1abd 07b9 0ebe 50c6 cdbc
00000070: ec83 f43b dd51 a3bd c49d cabe fc78 8b3d
00000080: b9fa 173d 32c2 343d d90e d7bd 7672 c6be
00000090: 5519 4a3b 6bcb 8fbd 79e4 f8bc e9b4 e2bd
000000a0: 633e 9abd c6fa 4cbe 7154 63be fec6 99bd
000000b0: cb89 92be f82d a4be 2887 123d b3d6 123c
000000c0: 1351 98bd a1e2 4ebd b9ca bebe 7338 78bd
000000d0: f50e 83bd 5689 60be edcf 23bc a7e1 e2bd
000000e0: 4506 ebbb 8212 fcbc 21b2 b2bd 1da4 f4bd
000000f0: 1fde 4abc 5669 84bd 74f1 55be 657f 25bd
00000100: 3e18 abbe cd63 81bc eb00 07be f6d1 55be
00000110: 86c4 3ebe 6b82 8ebc ce57 9fbd da8b a4bd
00000120: f292 59be 56a0 b4bd 5e96 08bc 074b c9bd
00000130: aec7 c4bc e1b5 6bbd 939e 90bd a665 f4bd
00000140: 33b5 17be a32b c6bc 3cb4 e8bd 72b4 023c
00000150: b95a 00be 0c26 22bc fb03 0abe db95 2dbe
00000160: eb8d 79bd 5e18 53bd 55b0 fc3c 41a4 093c
00000170: ddb9 27be 72a0 62bd e285 a8bd 33e7 6ebd
00000180: 1492 4ebd 7d53 a9bd f241 cabe d044 3d3c
00000190: 69de 29bd cc92 a0bd eba6 c9bb 5205 89bd
000001a0: 1d2f b9bd 273d 80be ee13 053d 63e4 edbc
000001b0: 9cbb babd 56a9 b0bc e457 c03b 5d31 743c
000001c0: 684f 63be efe6 42bd 4f02 aa3c a1fc acbc
000001d0: f2b3 81bd 8e3d 41be 2a4b e9bd 6e38 bbbd
000001e0: b4ec 3bbd 1207 18be 6fa4 80be 4daf d8bd
000001f0: 89a6 e4bd a5f1 febd 9753 5cbd d562 22bd
-0.12230258 -0.13937129 -0.07674528 -0.11641309 -0.091944456 -0.019835953 -0.121612296 -0.14583427
0.11969542 -0.03622589 -0.07708622 -0.019431897 -0.10158428 -0.015132768 0.017708205 0.065638736
0.061005194 -0.06582529 0.045512766 -0.09228193 -0.06681228 -0.16869137 -0.10722072 -0.16818038
0.031069372 -0.037628148 -0.1393777 -0.025118977 0.0074620154 -0.079745986 -0.3957349 0.06810185
0.037104342 0.04413051 -0.10500879 -0.38759202 0.0030837853 -0.07021221 -0.030382382 -0.11069662
-0.075314306 -0.20017537 -0.2220018 -0.07508658 -0.28620753 -0.3206632 0.035773426 0.008962321
-0.07437339 -0.0505091 -0.3726404 -0.06060071 -0.06399337 -0.2192739 -0.009998304 -0.11078196
-0.0071723782 -0.030770544 -0.08725382 -0.119453646 -0.012382059 -0.06465404 -0.20892888 -0.040404696
-0.33416933 -0.015794659 -0.13183944 -0.20880875 -0.18629655 -0.017396173 -0.07780419 -0.08034487
-0.21247461 -0.08819644 -0.008336632 -0.098287635 -0.024020996 -0.0575465 -0.07061496 -0.119334504
-0.14815216 -0.02419073 -0.11362502 0.007977592 -0.12534608 -0.009896766 -0.13478081 -0.16951697
-0.06092636 -0.05153691 0.0308458 0.008400978 -0.16379495 -0.055328794 -0.08228661 -0.058325958
-0.05043228 -0.08267877 -0.39503437 0.011552051 -0.041471872 -0.07840499 -0.0061539314 -0.06690468
-0.09042189 -0.25046656 0.03248971 -0.029039567 -0.09117815 -0.02156512 0.0058698524 0.014904347
-0.2219826 -0.047583517 0.020753054 -0.021116557 -0.0633315 -0.18871137 -0.113912895 -0.091416225
-0.045880035 -0.14846447 -0.25125453 -0.10580311 -0.111645766 -0.12448434 -0.053790655 -0.039645035

actor.6.weight f4 [12, 128]
00000000: 4745 ec3c d4df 88bb 4e37 62bb 025c a13a
00000010: feb4 fa3c cb1b 243d 158d 22bd e87c 10bd
00000020: 9c3a 82bd 244c 36bd 74eb f7bc b57d fc3c
00000030: d32f 1b3c 9a61 51bc 47a6 d6bb ee60 273d
00000040: 9168 0abd f95b 63bb 0afb 17bd 1851 78bc
00000050: f300 63bd ccf0 28bd cec3 053d 9cf6 973c
00000060: b28d 9dbc 6a73 c53b cef4 09bc 2983 7c3d
00000070: 3573 4b3c e299 a8bc 696f 07bd 792f 6a3b
00000080: fdbf ed3c 2fd9 e83c 432f 313c be67 d43d
00000090: d89b b9bd 9d8d 503d 5c97 7cbc 5d5c f7bc
000000a0: c923 afbb 27cd 83bc 061b c73d eb73 1e3e
000000b0: 7dcf 6abc 4bcf 5bbd f77f 223c d91e 563d
000000c0: 36df 1ebc 6160 38bd 74bb ca3d 5c29 fbbb
000000d0: e4fe f33c d930 993d 04c5 e73c 645a ccbc
000000e0: 49c9 e93c 0c08 623d af42 9a3c 34b2 2c3c
000000f0: d3dd 8f3d e926 46bd bd6a 2a3d 5ab1 b9bb
00000100: 28a0 3c3d e893 34bd 40ec 2a3c 2a91 0cbd
00000110: 7f9e 643c 034e b9bc 227b 6e3d 1449 8e3d
00000120: 5032 cf3d 48a6 f7bc 9288 3cbc 3643 903c
00000130: 60b1 87ba 4ea1 36bc e4b7 21bd d449 0bbc
00000140: 1928 383c c291 343d a98b 19bd 3a17 1ebc
00000150: b9ee 9abc 8e2d 06bc c1f5 64bc 5dd5 833c
00000160: 5ffa 5c3d eb9f 8bbc c67e 1abd fa7c 9ebc
00000170: 5e43 343d e8f4 a6bb 0240 b3bc 8b9c 11bd
00000180: dc4d 433c 68ff 2a3d fcc5 d2bc 1387 e43b
00000190: c78b 1f3d 329e 133d ccc1 9aba 14c0 3bbd
000001a0: 961e 6dbc 1421 ba3d e81f d8bb 10f2 f8bc
000001b0: 21f1 43bd 1eeb 1a3d 67f7 39bc 2a33 693c
000001c0: e24f 9abc 07e4 cdbc 57e1 a7bb 28f9 173d
000001d0: 636f db3a 5983 003a 301c 01bd bacd 1a3d
000001e0: d47f d83c c82f fc3c 4469 3c3d 26fb 13bd
000001f0: 82fa 323d 10c1 09bd d1cf 143d 0679 3bbc
00000200: 39ce 333c 97e6 ae3c 712c 003d 056b 523c
00000210: f647 043c 8fa9 743d bbc3 6fbd 8cd8 4dbd
00000220: a9ae 0bbd 3367 ed3c 6f18 a83d bfd5 db3c
00000230: bcb9 9b3c 4fbe 503b e832 25bc eaa1 d83d
00000240: 71b9 d03c 5a87 98bc a359 19bd c67f 64bc
00000250: 5a89 dd3d 4af7 4b3c 8722 3f3c 3039 78bd
00000260: b39b 28bc 2d7e 2abd a3dc 7dba 4b8a 4bbc
00000270: 15ac ad3c 6fcb bbbc 8d8d 06be b35c c8bc
00000280: 6b43 293d d637 443d 3421 80bc 2135 143d
00000290: 1a26 0bbc f984 373d 1250 7139 a1b1 303c
000002a0: 710d 87bc 530f 533d 8b42 c1bd 5c45 2fbd
000002b0: d1cd 98bc 7e47 44bc 2d36 823d d0e0 023c
000002c0: 6e1e 5cbd e738 30bd 8bba 8d3d 688b 2e3d
000002d0: 8cbb 963c cb09 7ebd 9e48 473c 036e eabc
000002e0: dc3c 47bc e29d 213c bf3b 6dbc dfae c23c
000002f0: 1e04 503d c39b 403d 6d24 d9bc 0865 823b
00000300: ec43 91bd 777a 143b b759 c6bc 7aa3 a8b9
00000310: 9448 c0bc a145 353b b4b2 073d 73e7 a4bc
00000320: c148 acbc 31ae fe3c a7aa 6b3c 235a 6bbb
00000330: 2909 dabc c840 28bd 31d0 14bc 693f 89ba
00000340: 814c 8f3d 40a4 9db7 c9d1 8cbc bd3a 16b9
00000350: d892 2bbb 7eeb a6bb 6d5f ae3c 5907 9bbd
00000360: 8e15 abbc 8ea9 5dbd 35c0 3b3b b100 9bbc
00000370: 4f5e 31bd 5e07 f63b 07b9 ebbb 72a2 ec3c
00000380: aebf 67bc 48fd 6cbb 97db 9a3d 3465 d03c
00000390: 5a9c 8cbd 570e 13bb 00ea 01bc ef53 14bd
000003a0: 74e0 b7bc c2c7 64bd 9f8c 963c 1e2e 443d
000003b0: b716 6c3d 76d1 493c 9385 c93b 49ce 983b
000003c0: 62c9 eabb 7605 2e3d 5d21 1bbb 90a5 4c3c
000003d0: fa72 773b 8d5b b4bd 25d3 e13b 54a5 293c
000003e0: 1e28 9e3c 2ee0 9ebd ec73 56bd 4cc7 6d3c
000003f0: 6c31 193b 3186 8a3c d54f 8cbd 2c8b dd3c
0.028841628 -0.004177073 -0.0034517827 0.0012310746 0.030603882 0.040065568 -0.039685328 -0.03527537
-0.06358835 -0.044506207 -0.03026364 0.03082166 0.009471851 -0.012779618 -0.0065505835 0.040863924
-0.03379113 -0.003469227 -0.037104644 -0.015156053 -0.055420827 -0.041245267 0.032657437 0.01855021
-0.019232605 0.0060257213 -0.008420182 0.06164852 0.012417604 -0.02058119 -0.033065233 0.0035733862
0.029022211 0.028423874 0.010814491 0.1037135 -0.09062928 0.050916303 -0.015416946 -0.03019541
-0.005344842 -0.016089035 0.09721951 0.15473907 -0.014331696 -0.053664487 0.0099182045 0.052275512
-0.009696772 -0.04501379 0.09899035 -0.0076648425 0.029784627 0.0748002 0.028292187 -0.024945445
0.028538363 0.055183455 0.018830625 0.010540534 0.070247315 -0.04837695 0.0416057 -0.005666894
0.046051174 -0.044086367 0.010432303 -0.034318127 0.013953804 -0.022620207 0.058222897 0.06947532
0.10117018 -0.030230656 -0.01150717 0.017610174 -0.0010352544 -0.0111468565 -0.039482012 -0.008501489
0.011240029 0.044084318 -0.037486706 -0.009649092 -0.01891266 -0.008189572 -0.013974608 0.01609295
0.05394971 -0.017044028 -0.037718557 -0.019346703 0.04400956 -0.005095113 -0.021881107 -0.03554968
0.011920419 0.04174748 -0.025729172 0.00697411 0.03895166 0.03603954 -0.0011807024 -0.045837477
-0.014472624 0.090883404 -0.0065956004 -0.030388862 -0.04783738 0.03782188 -0.011350489 0.01423339
-0.01883692 -0.025133146 -0.005123298 0.03710285 0.001674157 0.0004902385 -0.031521022 0.037793852
0.02642814 0.030784503 0.045998827 -0.036128186 0.043695934 -0.033631384 0.036331 -0.011442428
0.01097446 0.021350188 0.031292383 0.012842898 0.008073797 0.059732016 -0.058536272 -0.050255343
-0.034102116 0.028979873 0.08207785 0.02683532 0.019009463 0.0031851714 -0.010082938 0.10577758
0.02547905 -0.018619228 -0.037439 -0.013946479 0.10817213 0.012449095 0.011665947 -0.060601413
-0.010291028 -0.041624237 -0.00096840615 -0.012423108 0.02120022 -0.022924153 -0.13139935 -0.024458265
0.04132406 0.04790481 -0.015640832 0.03618348 -0.008492971 0.044804547 0.0002301338 0.0107845375
-0.016485902 0.051528286 -0.0943652 -0.042790756 -0.018652828 -0.011979936 0.063579895 0.00798817
-0.053739958 -0.043023016 0.06920346 0.042613417 0.018399976 -0.062021058 0.012163309 -0.02861691
-0.012160506 0.009864302 -0.014479577 0.023765026 0.050785176 0.047023546 -0.026506627 0.003979329
-0.07093033 0.0022656003 -0.024212701 -0.00032165257 -0.023472108 0.002765991 0.03312941 -0.020129895
-0.021030786 0.03108892 0.014383948 -0.003591188 -0.026615696 -0.041077405 -0.00908284 -0.0010471168
0.06997014 -1.8792343e-05 -0.017189877 -0.00014326996 -0.0026180055 -0.005093991 0.021285737 -0.07569761
-0.020884302 -0.054116778 0.00286485 -0.018921228 -0.04330283 0.0075082025 -0.007193688 0.028886054
-0.014144821 -0.003616171 0.07561415 0.025438882 -0.06865759 -0.0022438967 -0.007929325 -0.036212858
-0.022445895 -0.055854566 0.0183776 0.047895543 0.05763885 0.012318006 0.0061499565 0.004663263
-0.00716512 0.042485677 -0.002367101 0.012490645 0.003775774 -0.088065244 0.0068916255 0.010354359
0.019306239 -0.07757603 -0.052356645 0.014512848 0.0023375405 0.01690969 -0.06851164 0.027043901

actor.6.bias f4 [12]
00000000: dae7 0dbd 67a0 69bc 57b1 c4bc 2ebd aebb
00000010: 848a cbbd 3c0f f6bd 0a37 e63d d63a 323e
00000020: 7770 cc3d e380 eb3c 65bd ffbb 3270 453d
-0.03464494 -0.014259434 -0.024010343 -0.0053326106 -0.09938529 -0.120146245 0.112409666 0.17405257
0.099823885 0.028747981 -0.00780456 0.0482027
