src/ga_quadruped/policy/jump_njs_5k5.onnx (onnx, 759601 bytes, 10 tensors)

normalizer._mean f4 [1, 45]
000000 e6 ec 4a 3f 9a 33 2f 3f 17 66 d1 3e ed 7e a5 3d
       0.7926773 0.6843811 0.408982 0.0808085
000010 94 1e 97 3b 28 25 49 be 71 c9 58 bd 3d 25 72 bb
       0.0046117995 -0.1964308 -0.052926484 -0.0036948465
000020 96 bf 3f 3e 5b f8 da bd 52 e2 95 3c 71 bf 03 be
       0.18725428 -0.10691901 0.018296394 -0.12865998
000030 db d6 9b 3d c3 70 bd bc d2 0d 14 3e 5b fa 52 bc
       0.0760934 -0.023125058 0.14458397 -0.012877072
000040 86 ee d1 3b dd 80 f6 bd 68 45 57 3c 47 41 0f bc
       0.006406608 -0.120362975 0.013139106 -0.008743591
000050 14 02 f8 3d 5d 45 8e 3a f0 c7 41 bc fe 37 f6 bd
       0.12109771 0.0010854412 -0.011827454 -0.120223984
000060 45 55 4a bb 50 ac 34 3c e6 68 d2 3d 3b b8 de 3c
       -0.0030873579 0.011027411 0.10273914 0.027187457
000070 27 a0 d5 bb 8e 5b a1 3e 47 1a 00 3d 37 a4 a9 bb
       -0.006519336 0.31515163 0.03127506 -0.0051770466
000080 03 8f 7d bf 6e df 46 3d e6 b7 e5 3c a9 1a 82 bd
       -0.99046344 0.048552923 0.028041791 -0.06352741
000090 b3 09 0f 3c 7d 69 8f bc ac 0a 6f 3d 02 5a 06 be
       0.00873034 -0.017506355 0.058359787 -0.13120273
0000a0 8d 7a 8b 3d e5 c8 a3 3d ca 21 ad 3d 8f 7c a6 bd
       0.06810484 0.07997302 0.084537104 -0.081292264
0000b0 ed c2 a3 bd
       -0.079961635

actor.actor.0.weight f4 [512, 45]
000000 b4 da c2 3d 14 8b 86 3d 3c 59 ee 3e e9 4c f1 3d
       0.095143706 0.06569496 0.46552455 0.117822476
000010 fd 36 12 3d be 48 aa bd 07 68 a7 bd 16 3a 5e be
       0.035696972 -0.08314656 -0.081741385 -0.21701846
000020 09 2e 4e bd 76 33 12 bd d8 f8 36 3e 96 e3 d6 bd
       -0.05033687 -0.03569361 0.17868364 -0.10492627
000030 43 c1 ea bd 1f 3e b8 bd c1 75 0b bc 9e 9f 06 bc
       -0.11462643 -0.08996224 -0.008511961 -0.008216767
000040 6d 80 6f bd cf 99 3f 3e 7a 01 95 3c fc 0c aa 3c
       -0.058472086 0.18711017 0.01818918 0.020758145
000050 86 23 27 bd bf 67 a3 3d 00 b5 c2 3d ad 9b 12 3e
       -0.040805362 0.07978772 0.09507179 0.14317198
000060 63 df 83 3d d6 af dd 3d df 7c 0b be d8 b7 a7 3b
       0.06439092 0.10824554 -0.13621853 0.0051183514
000070 a4 04 f3 3c 3c fe be 3b 41 f7 a6 bc ec 0f b2 bc
       0.029665299 0.005828647 -0.020381572 -0.021736108
000080 5e 9e 67 bd 13 2e 5b 3d 7f ba 3e bd 3b c1 c7 bd
       -0.056547515 0.053510737 -0.046564575 -0.09753653
000090 50 72 34 3d 82 5a 12 ba da 77 97 3d 98 97 60 3d
       0.04405433 -0.0005582945 0.07395907 0.05483207
0000a0 52 70 13 3d 7f db ca 3d 35 ec 06 3e 85 4a 9c 3c
       0.03599579 0.09905147 0.13176043 0.019078502
0000b0 ed ca 1e 3e b6 6c be 3d f6 72 17 be ff 29 0b 3f
       0.15507098 0.09298079 -0.14789948 0.54360956
0000c0 db 55 80 be 45 2d 1d 3e 56 fe 34 be ce 8e ae bd
       -0.25065503 0.153493 -0.17675146 -0.085233316
0000d0 86 38 01 3e 7a a6 e4 3b fb a7 3c be 5f e2 18 be
       0.12619218 0.0069778534 -0.18423454 -0.14930104
0000e0 49 3a 6d 3d d5 17 86 bc 9e df 39 bd 05 cc 78 3e
       0.057916913 -0.016368786 -0.045379274 0.24296577
0000f0 bb a3 6c bd 0e 0e b5 bc 11 44 b2 3d 36 c2 73 3d
       -0.057773333 -0.022101428 0.08704389 0.059511386
000100 48 2a 8d 3d 37 52 0e 3d 49 09 ad bd 01 08 67 3d
       0.0689283 0.034746375 -0.08449037 0.056404117
000110 c2 30 a6 3d 9d cd 7b 3d 95 a0 de 3d 1f d8 6e bd
       0.081147686 0.061475385 0.10870472 -0.058311578
000120 31 fe fe bc b0 40 60 3d c4 15 23 3e 37 06 24 3e
       -0.031127067 0.05474919 0.15926272 0.16017996
000130 70 7a 9a bd 08 5e 57 3d 26 43 42 3d e2 a4 6f 3d
       -0.07542884 0.05257991 0.04742732 0.058506854
000140 9f 8a ba bd d7 cd 54 3d d8 5a 33 3d 87 17 ee 3d
       -0.09108471 0.051954117 0.043787807 0.11625581
000150 b2 6e bc bc 0a e0 08 3d fe bc 92 3d 74 13 f7 bc
       -0.023002002 0.033416785 0.07164954 -0.030160643
000160 0f 8b f3 3d 12 c3 70 bd ca c8 15 3e c5 32 33 3e
       0.11891758 -0.058779784 0.14627376 0.17499836
000170 88 12 cb be c8 90 10 bd 6a bc 06 3e 45 98 4b 3d
       -0.39662576 -0.035294324 0.13157812 0.049705762
000180 ce 65 87 bc 52 c1 ca bc 47 2c b8 bd 06 10 91 bc
       -0.016528036 -0.024750385 -0.0899282 -0.017707836
000190 4d db a4 bd 39 ae eb bd aa 8d 8a 3d 88 88 85 bd
       -0.08049641 -0.1150784 0.067653015 -0.06520182
0001a0 3e 17 3b bc a6 8a a2 3d a2 76 50 3d 73 7c 6c 3d
       -0.011419116 0.07936601 0.050894387 0.05773587
0001b0 94 c7 6e 3d c5 26 a3 3d 25 40 6d 3c f6 6f 67 bc
       0.0582958 0.07966379 0.014480625 -0.014125815
0001c0 ce 75 b1 3c d4 03 e8 bd 72 a5 d3 3a 78 81 c5 3d
       0.021662619 -0.11328855 0.0016147329 0.09643835
0001d0 b4 78 6e 3c 74 44 60 3e 2e 7b f7 bb fe 31 03 3e
       0.014555145 0.21901113 -0.007552526 0.1281204
0001e0 46 bd aa bc c3 2a 17 be c3 92 09 bd a9 a4 d4 3d
       -0.020842206 -0.14762406 -0.03358723 0.10382969
0001f0 89 67 dc bc de 56 db 3d ac 49 50 bd 20 28 f5 bc
       -0.026904838 0.10709928 -0.05085151 -0.02992636
000200 19 70 5d bd 89 36 69 bd f5 8d ca 3d ea 6b df bd
       -0.054061983 -0.056936774 0.098903574 -0.10909255
000210 3e 63 b8 3d 64 85 45 3d 37 e5 b6 3d 24 2b 5d 3d
       0.09003304 0.048222914 0.08930438 0.05399622
000220 7f d3 1e 3d f7 30 06 be d1 9b 47 be c2 ac fa bd
       0.038775917 -0.13104616 -0.19493033 -0.12239982
000230 7d df 27 bd 5a 28 1f bd 34 f7 13 be de ff 9e bc
       -0.04098462 -0.03885684 -0.1444977 -0.019409116
000240 02 ce b8 bd b9 11 da bd c4 fe e0 bd 61 b0 40 bc
       -0.09023668 -0.106479116 -0.10986093 -0.011760802
000250 0f 3b c5 ba 77 3b 09 3e 0c 1b 33 be d8 c2 ac bd
       -0.0015047508 0.1340159 -0.17490786 -0.08435601
000260 65 29 0e be 5d 16 2a bc ee f5 1d 3d 69 f7 23 bd
       -0.13882978 -0.010381308 0.038564615 -0.04003087
000270 78 5e 10 be 8e c6 e5 3d c2 7f 08 be 7b a8 39 3e
       -0.14098537 0.11219512 -0.13329986 0.18130676
000280 b6 ab 01 3d 2c 99 33 3e df fa 85 bc 5c b1 2e 3e
       0.031657897 0.17538899 -0.016354976 0.17059845
000290 a9 c3 05 3e 78 f4 af bb 94 ea d5 3d 45 b0 49 3d
       0.1306292 -0.005369719 0.10445133 0.04924037
0002a0 e1 ed 90 3c f3 e6 d0 3d 0e 4d 16 3e 44 fe 19 3c
       0.017691555 0.102003 0.14677832 0.009399001
0002b0 77 0b 8c 3d 2a 8d 13 be 1b dc 00 3d 56 57 c7 bc
       0.06838124 -0.14409319 0.03145991 -0.024333637
0002c0 66 e8 01 3e 40 cb 28 3d 06 bc 9a 3d 69 2b 79 3d
       0.12686309 0.04120946 0.07555394 0.060832415
0002d0 d2 9d b2 3c fe 8b 92 be 1c 9e b4 3e f1 92 81 bd
       0.02180377 -0.2862243 0.35276878 -0.06326855
0002e0 d2 b9 c4 3d 96 02 2e 3e fa cf 56 3d 0b 87 9b 3c
       0.09605755 0.16993174 0.052444436 0.018985292
0002f0 92 ff 14 be c2 14 bf 3d 2d 75 e4 bd bb d1 c4 3d
       -0.14550617 0.09330131 -0.11155162 0.096103154
000300 b5 3e bc bd f0 ff 4f bd f1 87 61 be 8d 8a c4 bd
       -0.09191648 -0.05078119 -0.22024514 -0.09596739
000310 7a 12 e3 3b 1a ec a4 3d 59 fb 6d 3c 7a 49 71 3d
       0.006929693 0.08052845 0.014525258 0.058907963
000320 76 20 00 be 2e 1b 08 bd 8d 1e 45 bd bf 6c 23 3d
       -0.12512383 -0.033229046 -0.04812484 0.03989863
000330 90 23 ed bd c0 69 64 3d 4b 96 82 bd db 04 20 3e
       -0.11579049 0.055764914 -0.06376322 0.15626852
000340 bb 57 54 3d a7 6c 92 3d 98 ff 44 3e f8 cf b7 bd
       0.05184148 0.0714963 0.19238126 -0.08975214
000350 8c 51 2e 3e 6b 32 d1 bc bc 49 75 bd f2 27 13 3e
       0.17023295 -0.025536736 -0.05988477 0.14370707
000360 13 0c 4d bd e8 0d a3 bd 96 58 49 3c 74 20 8e 3c
       -0.050060343 -0.07961637 0.012289187 0.01734946
000370 48 e1 78 bd 60 a5 ce 3d 1d fa b0 bd b1 ff 08 3d
       -0.06076172 0.100901365 -0.08641455 0.03344697
000380 b7 92 48 3d 3d 63 0b 3e 94 04 1a 3d 6e b0 74 be
       0.048968043 0.13612075 0.037602022 -0.23895428
000390 b3 9c 28 3e 48 3c 4c bd b1 10 7d bd ea 3e 92 bd
       0.16466026 -0.049862176 -0.061783496 -0.07140906
0003a0 fd 6f 31 be ad b3 43 3a 47 f7 5f bd 43 a7 ae bc
       -0.17327876 0.00074654334 -0.05467918 -0.021319991
0003b0 d5 11 48 bd b5 44 db bb c4 d1 59 bd 53 77 37 3e
       -0.04884513 -0.00669154 -0.053178564 0.17916612
0003c0 a1 a1 41 3e b5 48 fe 3d cf 70 3c bd e2 4f b5 bc
       0.18909313 0.124162115 -0.04600602 -0.022132818
0003d0 b4 d0 f3 bd 40 c4 2c 3c fa 98 6d 3d eb ea 2c 3d
       -0.11905041 0.0105448365 0.058007218 0.042216223
0003e0 3b 56 32 3e 54 a3 08 3d b7 56 18 bd 58 37 01 be
       0.17415707 0.033358887 -0.037192073 -0.12618768
0003f0 5e f8 2e 3d ef e7 1b be 06 e5 2f bc 0d 61 e9 bd
       0.04271733 -0.15225194 -0.010735756 -0.11395464

actor.actor.0.bias f4 [512]
000000 18 91 e0 3d 00 bf 9d 3b c5 52 81 bd 38 a6 d9 bd
       0.109651744 0.0048140287 -0.06314615 -0.10627407
000010 a8 33 31 bd 29 b1 06 be 8b a2 24 be 76 52 5e 3d
       -0.043262154 -0.13153519 -0.1607763 0.05427786
000020 a8 00 f6 bc 7e 07 0d be 4b 76 42 3e ad 37 ef 3d
       -0.03002961 -0.1377239 0.18990438 0.11680541
000030 8e 15 1c 3d 4d e3 1a be 73 99 30 ba ee 2c 96 bc
       0.038106494 -0.15125771 -0.0006736733 -0.018331971
000040 5f 60 b8 bd a6 97 73 be 57 fe 73 3d f0 44 3f 3d
       -0.09002756 -0.23788318 0.05956873 0.046696603
000050 84 45 aa bd 4c 38 0f be 51 8f b2 3d a9 c5 bf 3d
       -0.0831404 -0.1398632 0.08718742 0.093638726
000060 66 d9 fb 3d 22 92 8c 3d 7a 9a ee 3d c3 7e 6f 3b
       0.12297325 0.0686381 0.11650558 0.0036544062
000070 91 ce 15 be cd d5 df bd 0e 87 b5 bd 61 43 5e 3c
       -0.1462958 -0.10929451 -0.0886365 0.013565869
000080 72 2e 18 3e 6b 6f a1 3d 95 62 22 3e 7c 7f 3f be
       0.14861467 0.078825794 0.15857919 -0.18700975
000090 af d6 96 3d 4b ca be 3d 39 a0 1e be cf 98 8d bd
       0.073651664 0.09315928 -0.15490808 -0.069139116
0000a0 ff 81 45 be f3 57 05 be ba 0b 99 3d 1b 58 b9 bd
       -0.19287871 -0.13021831 0.0747294 -0.09050008
0000b0 01 4b ac 3d f9 61 2c bd 5c c1 30 3e 23 a2 40 3e
       0.08412743 -0.04208562 0.17261261 0.1881185
0000c0 b3 74 b7 3c 55 e4 22 3e ed 65 e8 bd b2 db 2a 3e
       0.022394514 0.15907414 -0.11347566 0.1668537
0000d0 ea b2 97 be 14 bc c3 bc e9 53 fe 3d 8d ed d0 bd
       -0.29628688 -0.023893394 0.12418348 -0.10201559
0000e0 27 b0 01 3e d9 a1 35 bd b3 a0 22 3d 83 c8 0a bd
       0.12664853 -0.044343803 0.039704036 -0.03388263
0000f0 9e d3 82 be 2d 7b fc 3c d3 7b 49 3d 5d ba 2c 3e
       -0.25552076 0.030820454 0.049190354 0.16867967
000100 29 f6 c4 bd 61 44 46 3e d0 59 0b 3e df 48 df 39
       -0.09617264 0.19362022 0.1360848 0.00042588168
000110 a0 d7 73 bd 76 63 c0 3d 7b c2 3d 3e b8 24 b0 bd
       -0.059531808 0.09393971 0.1853122 -0.086007535
000120 6a d2 b6 bd f4 bf 8c be 2e cd 0c be a8 ad 3c bd
       -0.08926852 -0.274902 -0.13750145 -0.04606405
000130 30 ee 5c 3e 8d 55 d0 3c 24 1f 89 be 5b fa a8 bd
       0.21575236 0.025431419 -0.2678157 -0.082508765
000140 9c 51 10 be 29 8e cb bd 47 0d aa bd 01 25 06 be
       -0.14093632 -0.09939224 -0.08303314 -0.13100053
000150 9d 20 5a be 64 d9 63 bd cd df fc 3d da c3 96 3c
       -0.21301503 -0.05562724 0.12347374 0.018403936
000160 13 1d ff bb 6b c2 13 3e d4 ac 5e be 54 67 01 3e
       -0.0077854483 0.14429633 -0.21745616 0.12637073
000170 67 7c cd bd 1d 12 af 3d 1a e3 85 bd 64 be b0 3d
       -0.100334935 0.08548377 -0.06537457 0.08630064
000180 7c 82 ba 3d ac 87 b2 3c 5f 80 04 be 8b 72 fa bd
       0.09106919 0.021793209 -0.12939595 -0.122288786
000190 db 9f 17 3e 7e 9f 38 be 37 ee 8b be 13 c8 52 be
       0.14807074 -0.18029591 -0.2733018 -0.20584135
0001a0 a7 a1 a3 be f8 19 9e bd 4c eb cc bd 63 cd 38 be
       -0.31959268 -0.07719797 -0.10005817 -0.18047099
0001b0 31 e3 e8 bd 8e 6c 62 be 14 32 1d be b0 0d 19 bd
       -0.11371458 -0.22111723 -0.15351135 -0.03736657
0001c0 51 6a 01 be 70 b1 16 bd 4b a4 2a 3e 17 97 c9 3d
       -0.12638213 -0.03679031 0.16664235 0.09843271
0001d0 68 56 68 3d ae 85 86 3d d5 9f 02 3d 5b 9d e2 bd
       0.05672303 0.06568466 0.03189071 -0.110651694
0001e0 4c 8a 57 3d 84 6c be 3d f8 0c fa 3d ac 35 37 3e
       0.052622125 0.092980415 0.12209505 0.17891568
0001f0 cd b0 7a 3e 50 da 9d be 1e ed e6 3c 00 e7 16 be
       0.24481507 -0.30830622 0.028189238 -0.14736557
000200 c2 b7 65 3d 90 4d 6e 3e 34 f9 3b be 63 b1 3b be
       0.05608345 0.23271775 -0.18356782 -0.18329386
000210 1d d0 07 3e ee e9 1a be d9 10 85 3e 3b 6c 04 3e
       0.13262983 -0.151283 0.25989416 0.12931912
000220 45 5c e5 3d 52 3a b6 bd 21 9b e2 3d 07 dc c1 bd
       0.1119924 -0.088978425 0.11064745 -0.09465795
000230 79 88 1d 3d 36 7e 8b 3d 50 a3 12 be 4c 2a 12 3e
       0.03846023 0.06811182 -0.14320111 0.14273947
000240 5e 09 a2 3e 0b d6 2e 3e 14 d1 4c 3d 92 81 d9 bd
       0.31647772 0.17073838 0.05000408 -0.10620417
000250 aa 7b 38 3e 05 f9 af 3c 7f 5c 06 be b5 ef 31 be
       0.18015924 0.021481046 -0.13121222 -0.17376597
000260 0d b2 71 bd bb 85 b5 3d fe a3 0b 3d ac b1 c0 be
       -0.059007693 0.08863398 0.034091942 -0.37635553
000270 89 eb 90 be d7 a6 fc bd f7 17 a2 be 10 81 81 3d
       -0.283047 -0.1233651 -0.3165891 0.06323445
000280 0a 7f 02 be 4b 5f 43 3e 01 e0 91 bd 53 7a 93 3d
       -0.12743774 0.1907932 -0.071228035 0.07201066
000290 1b 9f 17 be 4d 18 d0 bd db cd 7e be 14 5d 83 bd
       -0.14806788 -0.10160885 -0.24883215 -0.064142376
0002a0 d1 8a 46 3e 72 2e 1c be 7d da 18 be 1d be 21 be
       0.19388892 -0.15252092 -0.14927097 -0.15795179
0002b0 e4 e8 e5 bd 71 04 8d 3c be f3 15 be 62 17 07 bd
       -0.11226061 0.017214032 -0.14643762 -0.032981284
0002c0 40 74 3e bd 41 86 e2 3d c8 d4 fb bc 10 f9 29 3e
       -0.046497583 0.11060763 -0.03074111 0.16598916
0002d0 9c 5f 21 be e6 d7 84 bd de 23 2f 3e 85 8f 2f be
       -0.15759128 -0.06486492 0.17103526 -0.17144592
0002e0 c3 aa 44 bd a1 0f d1 be 48 9c 52 3e 75 e8 d1 bd
       -0.048014414 -0.40832236 0.20567429 -0.10249416
0002f0 87 52 30 3d 06 c2 f3 ba 95 af b8 3c 58 bd db bd
       0.043047454 -0.0018597252 0.022544662 -0.10729474
000300 b6 a4 32 3e 16 9e a7 3d 17 ef be 3d 74 0a 22 bd
       0.17445645 0.081844494 0.093229465 -0.03956075
000310 f9 2f 25 3e 8d 6e 51 3e ec 39 70 be 9f ad 7e 3d
       0.16131581 0.20452328 -0.23459595 0.062177297
000320 ec 18 0c bd a8 6c 88 bd 27 8a e6 bd 90 91 f8 3d
       -0.034203455 -0.066613495 -0.11256819 0.12137139
000330 15 e2 81 3d 75 f1 4c bc 90 a6 f0 bd 6b 30 0a be
       0.0634195 -0.01250874 -0.11750519 -0.13495032
000340 70 8a 27 3e 44 61 92 3c f1 35 1c bd 6c 1a b4 3d
       0.16361403 0.017868645 -0.03813738 0.08794102
000350 3c 71 45 be bc d5 d9 bc dc d0 fd bc b0 01 3f 3e
       -0.19281477 -0.026591174 -0.030983381 0.18652987
000360 5b 8e 23 bd 3e 14 a5 3d b2 81 06 be ea e9 2a bd
       -0.039930683 0.080605015 -0.13135412 -0.041726984
000370 5e 28 48 3e 02 27 f4 bd f1 f8 ef bd 99 3a 1d bd
       0.19546649 -0.11921503 -0.11717404 -0.03838596
000380 ce 57 33 3d 99 83 14 be c2 b0 19 3c b0 24 37 be
       0.04378491 -0.14503326 0.009380521 -0.17885089
000390 8f a8 66 be 71 97 a1 bd 8c b8 0b bd df 21 a0 3d
       -0.22525238 -0.07890213 -0.034111544 0.078189604
0003a0 93 b9 1e 3d 19 d4 9f bd 04 70 2c be a0 67 40 3e
       0.038751196 -0.07804126 -0.16839606 0.1878953
0003b0 34 c0 d5 bc 52 31 29 be c9 ad 8a 3e ab a3 5e 3e
       -0.026092626 -0.1652272 0.27085713 0.21742122
0003c0 e8 47 b3 bd 0d 13 81 3d a3 34 65 3c 41 e4 06 bd
       -0.087539494 0.06302462 0.0139896 -0.032932524
0003d0 fc 83 91 3b 88 94 0e be 7c 9e 56 3d 9b d3 29 3e
       0.0044407826 -0.13923848 0.052397236 0.16584627
0003e0 48 cc 3f be 81 67 64 3e 70 6c b0 3d 95 1a 20 be
       -0.18730271 0.22305109 0.08614433 -0.1563514
0003f0 04 6c 4f 3e df 96 81 3d 66 24 52 3c fd 9e b4 bd
       0.20256048 0.063276045 0.012826061 -0.08819387

actor.actor.2.weight f4 [256, 512]
000000 97 2b 39 bd f0 dc d4 3d db b2 d3 3c 0d a1 d8 3d
       -0.045207586 0.10393703 0.02584212 0.10577593
000010 ab f5 b8 3d bb 01 53 3d 90 43 4d 3d ef 34 44 bd
       0.090312324 0.051515322 0.05011326 -0.047902044
000020 96 66 3b 3d da d6 0d be e9 61 55 3d b1 97 77 bd
       0.04575213 -0.1385149 0.052095328 -0.0604474
000030 a4 4a ea bc fa b6 59 be 96 f2 9b bc 84 c2 94 bd
       -0.028600045 -0.21261206 -0.019036572 -0.072636634
000040 d3 bf 0b 3b 39 c9 d7 bd 3f 58 a5 bd 84 43 06 be
       0.0021324053 -0.10536427 -0.08073472 -0.13111693
000050 11 de 2c 3d 67 44 08 be 1c 18 b0 be 99 34 5a 3d
       0.042203967 -0.13307343 -0.34393394 0.053272817
000060 c0 3e 64 3c 51 76 34 be 6c 7b 9f bb ab 95 3e bd
       0.013930976 -0.17623259 -0.004867008 -0.046529453
000070 a0 0d 27 bd f9 e1 99 3c 98 e3 a4 bc d7 31 c5 bd
       -0.04078448 0.01878451 -0.020128056 -0.09628647
000080 bd 83 91 bd f4 9f 97 3d 3e a0 d1 bd b6 ff 97 bd
       -0.07105205 0.074035555 -0.10235642 -0.0742182
000090 f4 b0 a9 bb 90 63 e7 bd 4f 8b 09 bd 82 ee 64 3d
       -0.005178565 -0.11298287 -0.03358012 0.05589152
0000a0 b2 36 23 bd 1d b1 bb bd 95 f5 e7 3d 85 94 84 3d
       -0.039847083 -0.09164641 0.11326138 0.0647364
0000b0 dc 8c 52 3d 64 e7 1e bd a8 8a e9 bd f6 35 22 3d
       0.051403865 -0.03879489 -0.114034 0.039602242
0000c0 1a 25 ae 3d 0e 30 c8 bc 6b f5 cf 3c b7 e5 87 bd
       0.0850317 -0.024436977 0.02538558 -0.066356115
0000d0 94 25 0b be 90 92 88 3d 00 1c a7 bd 86 72 91 3c
       -0.13588554 0.066685796 -0.081596375 0.017754804
0000e0 59 02 bd bc f0 b3 bb 3b 2f 83 a8 3c 10 a0 a5 bd
       -0.023072409 0.0057282373 0.020570366 -0.0808717
0000f0 10 31 bf 3c a3 cb c4 3c 7f 33 8e bd 97 4a 24 3e
       0.023338825 0.024022883 -0.06943416 0.16044079
000100 10 81 f8 3c f7 2a 20 3c d4 7d 57 bc 7f 52 e9 bc
       0.03033498 0.009775869 -0.013152558 -0.02848172
000110 c9 5b 34 3d 5f 26 f4 bc 23 64 28 3e fe f1 60 3c
       0.044032846 -0.029803453 0.16444449 0.01372957
000120 60 1d 89 3d 71 e1 f6 3c a9 1c f8 bc bf d1 e1 3b
       0.06695056 0.030136796 -0.030287104 0.0068914588
000130 b7 83 7f 3d 01 4c 2a be 52 b2 9c bd 89 d7 b3 3d
       0.062381472 -0.16630556 -0.076511994 0.087813444
000140 62 ce 28 bd e4 50 b8 3d 65 c1 6e 3d c7 24 67 bd
       -0.041212447 0.08999804 0.058289904 -0.056431558
000150 8b 5b eb 3d 5b 66 85 3d 49 0a 9f bd 2c 65 8d 3d
       0.1149207 0.065136634 -0.077656336 0.06904063
000160 83 1d f0 bc 07 f1 49 bd b6 79 64 bd 50 f3 fe 3c
       -0.029310947 -0.049302127 -0.055780135 0.03112188
000170 b7 d5 a9 3d be 0e 12 3d cf 5a cb 3d 8e 97 b4 bc
       0.08292716 0.03565859 0.0992943 -0.022044923
000180 1f 6e 78 bc ac 06 83 bc 48 e5 70 3e a1 b2 95 3d
       -0.015162974 -0.015994392 0.23524964 0.073094614
000190 b7 4e 15 bc 01 5c f6 3b df 67 1a bc 4b f8 ea bd
       -0.009113005 0.007518292 -0.009424179 -0.114731394
0001a0 c6 c2 52 3c e0 de d3 3d 4a 3d 9a bc 15 e1 99 3d
       0.01286382 0.103452444 -0.018828053 0.07513634
0001b0 ae 0c c4 3d 31 6c 8a bd 4c 8f 55 3e 8c 1b 25 3d
       0.09572731 -0.06758917 0.20855445 0.040309474
0001c0 70 f3 49 bd 17 12 7a 3c 79 86 b3 3c e8 15 21 3d
       -0.049304426 0.015263102 0.021914707 0.039327532
0001d0 28 a4 49 ba 73 84 96 bd d4 9b dc bc 1c 8b 4c 3b
       -0.00076920027 -0.073494814 -0.026929773 0.0031210845
0001e0 d1 74 18 3b c3 7f cd 3c 25 29 95 bd 6b a9 32 be
       0.0023262987 0.025085336 -0.07283238 -0.1744744
0001f0 27 f2 90 3d ee 93 0b 3e 57 9e a1 bd 9d f3 87 bc
       0.07077437 0.1363065 -0.07891529 -0.016595656
000200 a0 d8 0a 3d 61 c6 63 bd 04 97 65 3c 68 f0 dd 3c
       0.033897996 -0.05560911 0.014013056 0.027092174
000210 58 47 a0 bd cd ea 24 3d 18 ec a2 bc 7a ea 1d 3e
       -0.07826108 0.040262986 -0.019887969 0.15421477
000220 e0 fd 58 3d aa a5 31 3d 7a 9c 20 bd 52 bb c1 3b
       0.05297649 0.04337088 -0.039211728 0.005912223
000230 b2 ea aa bd 31 a4 bb 3c 87 ca a1 bc f1 5f 47 3d
       -0.08345546 0.022905441 -0.019749893 0.04867548
000240 78 08 e1 bc 6b 4b 4c 3e 95 3c 8d bc e0 7d 8e bd
       -0.027469859 0.19950645 -0.017240802 -0.069576025
000250 73 0c 32 bd b5 57 24 bd 0a e8 13 ba 14 0a f1 3b
       -0.043468904 -0.040122706 -0.00056421815 0.0073559377
000260 0f 05 80 bd 1b 86 72 be 1a 9e 17 bd ae 98 91 3d
       -0.06250965 -0.2368397 -0.03701601 0.071091995
000270 98 6c 14 be 95 31 14 bd 6f 91 44 bd 5c 80 db bc
       -0.1449455 -0.036180098 -0.04799026 -0.026794605
000280 ad 19 ee 3c d1 ae 98 be 26 4d de bd d8 f7 84 bd
       0.029064978 -0.29820874 -0.10854559 -0.06492585
000290 5e ba a6 bc 72 2b ad 3d f2 fb 33 3e 98 45 8d 3d
       -0.020352539 0.08455552 0.17576578 0.068980396
0002a0 6b c4 ae bd cc 56 ea bc e9 51 82 bd 51 df 2c be
       -0.085335575 -0.028605841 -0.06363279 -0.16882063
0002b0 a5 d6 7f 3c 29 0c 1c 3d 10 51 d0 bd 1c 62 17 3e
       0.01561514 0.038097534 -0.101717114 0.1478352
0002c0 48 96 b3 bd b5 81 b5 3d 21 bc 71 bc 32 c1 a4 bd
       -0.08768898 0.0886263 -0.014754326 -0.080446616
0002d0 b7 93 1f be 57 61 96 bd 5e c5 8c be 6e 8b fb bc
       -0.15583692 -0.07342785 -0.2749433 -0.030706134
0002e0 ba 3e 17 be ce 36 28 be 6b 83 40 bd f6 8b fe bc
       -0.14770022 -0.16427156 -0.04700033 -0.031072598
0002f0 6d 40 b0 3d 3e da 62 3c 3c 84 64 bd bd 8a 84 bd
       0.08606038 0.013845978 -0.05579017 -0.06471775
000300 50 55 31 be f3 84 05 be 37 ee 68 bd a8 68 1b bd
       -0.173177 -0.13038997 -0.056867804 -0.037941605
000310 73 f8 f9 bd 1f ed 8a 3d a1 38 22 be 9d aa cb bd
       -0.12205591 0.067835085 -0.15841915 -0.09944651
000320 54 64 9d bd 56 d8 2d 3d 19 62 b5 3d d7 da 12 39
       -0.07685152 0.042442642 0.08856601 0.00014005169
000330 cd 95 01 3d 93 3b 98 3d 67 c2 d6 3d 32 37 b7 3d
       0.031637 0.07433238 0.10486298 0.089460745
000340 ba 8d d0 3c 91 5c e2 3c 31 b5 cb bd b9 04 84 3d
       0.025458205 0.02763203 -0.09946669 0.06446213
000350 39 91 13 3d 47 01 1c 3d 7e 23 a0 bd e4 1a 31 3c
       0.036027167 0.038087156 -0.078192696 0.010809634
000360 ba e5 a0 bd 27 6b 97 bc 98 9e 79 bd aa 44 bd 3c
       -0.07856317 -0.018483711 -0.060942262 0.02310403
000370 34 b7 fc bb 51 bc 45 3e 51 9d dd 3d af 1e 1b bd
       -0.007712269 0.19310118 0.10821021 -0.03787106
000380 ae dc 7b bd 1d ec fd bc 66 56 4b 3e ee 34 e1 3b
       -0.061489753 -0.030996377 0.19857177 0.006872765
000390 42 cc c7 3c aa de a1 bd ae 6a f9 bb 81 42 e7 bd
       0.02438939 -0.07903798 -0.007611594 -0.112919815
0003a0 e6 12 cc 3d b7 b8 a2 bd c2 a7 02 3e 7e ac 3e 3b
       0.09964542 -0.07945388 0.12759307 0.0029094513
0003b0 75 fd ee bc c8 01 ae 3d 58 f2 87 bd 28 81 3a be
       -0.029173592 0.084964335 -0.0663802 -0.18213332
0003c0 0f 98 d7 bd 94 78 31 3d 14 13 01 be d3 4d a3 3d
       -0.1052705 0.043327883 -0.12604934 0.07973828
0003d0 7a c5 a5 3c bc 90 af 3d a6 c8 52 be 03 e5 ab 3c
       0.020235766 0.08572528 -0.20584354 0.020983225
0003e0 59 d8 f0 3c 10 2c 1b be 43 a9 0c 3e 0f c0 66 bd
       0.029400038 -0.15153527 0.13736443 -0.056335505
0003f0 d1 8b 17 b9 37 a6 f9 bd 38 8b 80 bd 27 41 98 3d
       -0.00014452568 -0.12189906 -0.06276554 0.07434302

actor.actor.2.bias f4 [256]
000000 93 55 0c be b6 a0 10 be 1e e0 e1 bd 6f 76 23 be
       -0.13704519 -0.14123806 -0.11029075 -0.15963148
000010 30 3a e5 bd db 30 89 3c 84 81 9d bd 15 c7 71 3d
       -0.11192739 0.016746929 -0.07690719 0.05902775
000020 58 7b 33 be 93 e6 7d 3c d0 12 b0 bb b8 c0 e7 3d
       -0.1752752 0.015496868 -0.0053733364 0.11316055
000030 2d 5a 4e bd 82 64 aa bd 45 d3 0d be 00 9f 58 bd
       -0.050378967 -0.083199516 -0.13850124 -0.05288601
000040 be f4 bb 3d e3 e0 6e 3d d8 78 6d 3d 45 25 e9 3c
       0.0917754 0.058319937 0.057976574 0.028460154
000050 69 de f7 bc 4d 00 ab bd 76 f6 05 be 15 77 3c be
       -0.03025742 -0.08349667 -0.13082299 -0.18404801
000060 8d 5c 26 bd de c7 28 be 03 11 b6 bc f3 65 f7 bd
       -0.040615607 -0.16482493 -0.022224909 -0.12079992
000070 a7 9c e8 3c 80 ab 2d 3a 9b 55 21 bc 80 6a 54 bd
       0.02839501 0.0006624982 -0.00984707 -0.05185938
000080 d5 70 99 bd 23 db a8 bd 03 33 96 bd 72 d3 e7 bd
       -0.07492224 -0.08244922 -0.073339485 -0.11319627
000090 58 1d 00 be 1d c2 2d bd 4e 48 1c be 46 d5 08 be
       -0.12511194 -0.04242145 -0.15261957 -0.13362607
0000a0 66 51 21 bd 55 a9 7b bd bd aa 95 bd 49 d6 1a bd
       -0.03938427 -0.061440784 -0.07307956 -0.037802014
0000b0 7d c8 c9 bd e4 81 c8 3c b7 65 1e bd 50 4c f5 bd
       -0.09852693 0.024476 -0.03867122 -0.11977446
0000c0 d2 a5 c7 bd 55 58 46 bd 02 ec 3a 3d 5c dc 2d 3c
       -0.097484246 -0.048424084 0.04563523 0.01061162
0000d0 99 31 9f 3a d3 c6 0b be ef 86 1d 3d bc c6 f5 bc
       0.0012145519 -0.13650064 0.03845876 -0.03000199
0000e0 e3 a6 e1 3d 7e 7b 19 bd 60 85 ae 3d 81 46 c5 3d
       0.11018159 -0.037471287 0.08521533 0.09632588
0000f0 c0 51 b9 bd 13 43 d8 bc 80 22 ce bc 07 76 91 bd
       -0.09048796 -0.026399171 -0.025162935 -0.0710259
000100 ea 1f f2 bd 19 bb e9 bd 6d 6a cd bd b3 98 b0 bd
       -0.118224934 -0.11412639 -0.10030065 -0.08622875
000110 ac c5 87 bb 01 48 76 bc 80 05 c6 3c e3 d2 5a bd
       -0.0041434374 -0.0150318155 0.024172544 -0.053423773
000120 8a a2 b1 bc 2e bc cd bd 02 56 8e 3c 8d b6 d3 3d
       -0.02168395 -0.10045658 0.017374996 0.10337553
000130 2d 51 08 be a4 d7 58 bd 9b 91 07 be 10 40 29 be
       -0.13312216 -0.052940026 -0.13239138 -0.16528344
000140 ab b9 03 bc 88 e4 18 bd c1 05 9b 3c 5c 75 57 be
       -0.008039872 -0.03732732 0.018923642 -0.21040863
000150 fb 2c 21 3b 5d b9 11 3d 5d 44 1a be 8a 1e c8 bd
       0.002459346 0.035577167 -0.15065141 -0.0977145
000160 bd e8 27 be 81 03 da 3d 5b 04 8a 3d 83 52 57 bd
       -0.16397376 0.106451996 0.06739112 -0.052568924
000170 57 41 13 bc 7f 62 ce 3d 11 c5 3c be 48 de b2 bd
       -0.008987746 0.100773804 -0.1843455 -0.08733803
000180 7e 1d 7d bd de df ae bb bf 7a 3b be d3 78 69 bd
       -0.061795704 -0.0053367456 -0.18308543 -0.056999993
000190 ca b3 43 bd 53 4c 92 bd d2 f8 a0 bd 71 2f 27 be
       -0.047778882 -0.07143464 -0.07859959 -0.16326691
0001a0 f1 a1 1c be 7c c1 96 bd 73 1d 56 bc 6a 82 df bd
       -0.1529615 -0.07361123 -0.013068545 -0.109135464
0001b0 d6 87 93 bd 94 bc b0 bb b1 67 b8 bd 86 2f 77 bd
       -0.07203643 -0.005393574 -0.090041526 -0.060348056
0001c0 0a 91 c7 bd f4 f7 d8 bd 07 31 d9 3d 01 33 82 bd
       -0.09744461 -0.10594168 0.10605054 -0.063573845
0001d0 47 fd 00 be 8d 1d 65 bd 12 28 80 bd c1 39 cc bd
       -0.12596618 -0.055936385 -0.06257643 -0.09971953
0001e0 cd 05 ad bc 6b f1 08 bd 98 30 09 be 98 09 71 bc
       -0.02112093 -0.03343336 -0.13397443 -0.01471176
0001f0 40 b4 02 be 1e fa b9 bd c8 67 d7 bd 6e 2b 63 bd
       -0.12764072 -0.09080909 -0.105178416 -0.05546134
000200 00 51 a3 bc 29 6d 12 bd b6 78 b0 ba b1 12 88 bd
       -0.019936085 -0.035748634 -0.0013463709 -0.0664419
000210 77 58 02 3e 7b 27 1a bd 5b b3 83 bc 32 2b 53 3c
       0.12729059 -0.037635308 -0.016076734 0.0128887165
000220 1d dc 01 bd de 44 50 bd 64 11 ab bd 58 c5 45 3d
       -0.031704057 -0.050846927 -0.083529264 0.048283905
000230 9e 66 25 be 97 40 11 be 39 50 63 3d 3b 6e b3 bd
       -0.16152427 -0.14184795 0.05549643 -0.08761259
000240 a7 05 88 bd cd 06 67 bb 88 76 90 bd 96 4e 28 3c
       -0.06641703 -0.0035251856 -0.07053858 0.010272643
000250 48 29 cb 3c 2c e7 9a 3b 68 02 3f be 7a a6 4a bd
       0.024799958 0.004727265 -0.18653262 -0.04947517
000260 74 5f 2e bd 30 d2 6e bc d5 f6 bb bc ef 65 7d 3d
       -0.0425715 -0.01457648 -0.022944847 0.06186479
000270 02 e8 d4 3c 6c 3d de bd 30 ce 9b bc 56 32 03 3d
       0.025989536 -0.10851559 -0.019019216 0.032030426
000280 0a 19 d7 3d 3d 1d cb bd 95 10 b7 bd 12 25 af be
       0.10502823 -0.09917686 -0.0893871 -0.3420797
000290 07 3b 6e bd 52 a3 e8 bc 15 be f1 3d 7f 88 9c bd
       -0.05816176 -0.02839819 0.118038334 -0.07643222
0002a0 54 32 09 be 72 31 36 3e b2 9c 23 bd 5d 50 92 bd
       -0.13398105 0.177923 -0.03994436 -0.07144234
0002b0 d7 41 80 bc 14 94 b9 3c bf 17 04 be 0a dc c3 bd
       -0.015656395 0.022653617 -0.12899683 -0.095634535
0002c0 b9 2e 78 3d 3a 79 c4 bd 84 40 93 bc 5a 03 37 bd
       0.060591433 -0.09593435 -0.0179751 -0.04468093
0002d0 c2 f0 b8 bc 59 b3 14 be 62 fe bc bd 8e cc e7 bd
       -0.02257574 -0.1452154 -0.09228207 -0.113183126
0002e0 aa ff 3c bd e2 b2 16 be 20 09 86 bd 10 9d 45 be
       -0.046142258 -0.14716676 -0.06544709 -0.19298196
0002f0 a0 64 b6 bd dd dc d1 bd c4 cc 14 be 4a f4 2c bd
       -0.089059114 -0.102472045 -0.14531237 -0.04222516
000300 32 29 20 be 85 bc 44 be 4a 4c c6 bc 0a 4c 3b bd
       -0.15640715 -0.1921254 -0.0242063 -0.045726813
000310 74 c9 bd 3d a3 54 48 bd df 55 a4 3d 7d d8 0e be
       0.0926694 -0.04890884 0.08024191 -0.13949771
000320 0b ab 9b bd 76 ba 00 be 5d c4 94 bd 04 95 5b be
       -0.07600983 -0.12571129 -0.07264016 -0.21443564
000330 30 fb 4e bd a0 e4 ef bd f5 4e 9f 3d 67 92 52 3d
       -0.05053252 -0.11713529 0.07778732 0.05140915
000340 3b 89 0d be 90 7e bb bd bb 21 1e be d8 91 e3 3d
       -0.1382188 -0.09154999 -0.15442555 0.11111802
000350 01 b1 50 3d 59 03 e1 bc 52 dd a7 bd 83 21 13 bd
       0.050950054 -0.027467417 -0.081965104 -0.03592063
000360 44 99 b9 bc de 9d a3 3c 40 c8 d4 bc ac 51 0a be
       -0.02265609 0.019972738 -0.025974393 -0.13507718
000370 ef 28 75 bd 84 90 19 3d 60 8d bf bc c9 39 07 be
       -0.05985349 0.037491336 -0.023382843 -0.13205637
000380 7c 49 8b bd 3a d6 9a bc 43 80 b2 bd 6d c9 ce bd
       -0.068011254 -0.01890098 -0.0871587 -0.10097013
000390 76 17 0c be 5d ff 93 3c 61 d9 91 bd 34 09 16 be
       -0.13680825 0.018066103 -0.0712154 -0.14651948
0003a0 bb b0 1d bd 1c a7 7d 3c a1 2f 12 be d5 fb 23 3d
       -0.03849862 0.0154817365 -0.14275981 0.040035088
0003b0 53 c7 62 3d 7a 5b 16 be 47 8b d7 bd 82 17 6b 3d
       0.05536587 -0.14683333 -0.10524612 0.057395466
0003c0 92 cd 6f bd bb 76 ed bd 8b db 03 bd 3e a3 40 3d
       -0.058545657 -0.11594912 -0.032191794 0.04703068
0003d0 52 a1 15 ba 9a de 58 3c 8b 2b 4b be 63 f9 44 bd
       -0.00057079375 0.013236666 -0.19840829 -0.048089396
0003e0 4b 95 99 bd a7 ad ca bd 7c 78 c4 3c 6f b5 22 bc
       -0.074991785 -0.09896403 0.023983233 -0.009930952
0003f0 60 2d 08 bd d4 d1 2e be 62 81 ed bc a7 b8 1e bc
       -0.033246398 -0.1707223 -0.028992359 -0.009687579

actor.actor.4.weight f4 [128, 256]
000000 ed bf fd bc cc d4 cd bd 5d 6d 0e be 9e 8c 9b 3d
       -0.030975306 -0.100503534 -0.13908906 0.0759518
000010 66 df 88 bd a8 fc 6e bd 87 b7 05 be e9 ff 92 bc
       -0.06683235 -0.05834642 -0.13058291 -0.017944293
000020 ba 1c 13 3d c9 c6 89 3d 99 02 54 bd c3 6b 0f be
       0.035916068 0.067273684 -0.05176029 -0.14005952
000030 63 05 85 3d 3d 45 60 bc fa 85 a2 bc d7 77 96 3d
       0.06495168 -0.013688383 -0.019839276 0.073470764
000040 40 55 5b bd 81 a5 28 be a9 c7 af bc 6e b1 bd 3c
       -0.053548098 -0.16469385 -0.02145751 0.023155894
000050 f9 e4 39 be 98 7c 26 bd b4 45 45 be 8d a9 26 bd
       -0.18153752 -0.040646166 -0.19264871 -0.04068904
000060 74 79 00 be af 12 0a 3c 36 dc fa 3c 0a 52 e1 bc
       -0.1254633 0.008427306 0.030622583 -0.02750494
000070 9b 41 aa bd 6a 10 e6 bd db 12 03 be 61 9a ef bd
       -0.083132945 -0.112335995 -0.12800162 -0.11699367
000080 43 32 ce 3c 77 80 8b 3c c7 cc 36 bd db d5 c9 3c
       0.025170451 0.01702903 -0.044628885 0.024638107
000090 70 3d 74 bd 36 ea 75 bd 84 f2 9b bc 18 d5 97 bd
       -0.059628904 -0.060037814 -0.019036539 -0.07413691
0000a0 fa 2b 39 bd 4b b1 36 3e 61 63 a9 bd 75 2d 8f bd
       -0.045207955 0.1784107 -0.08270908 -0.06991092
0000b0 28 ea 19 3c 8a e3 aa bd c8 ee 0e bb a9 09 e8 3d
       0.009394206 -0.08344181 -0.0021809805 0.113299675
0000c0 3a fd da bd ed 1d 26 be a1 87 15 3e a8 7c c5 bd
       -0.106928304 -0.16222353 0.1460252 -0.09642917
0000d0 d3 28 d1 bd 07 e9 71 be cd e0 1e 3d 40 8c 2c 3d
       -0.10212865 -0.23624049 0.038788605 0.04212594
0000e0 0d d2 26 be 5b e8 56 3d 8e fc 0c 3e 40 54 03 bd
       -0.16291066 0.052467685 0.13768217 -0.03206277
0000f0 7e e9 62 3d 69 1d 30 bd f4 dd 19 bd c7 63 0a be
       0.055398457 -0.042996798 -0.037565187 -0.13514625
000100 cc 30 30 3d 3d 87 64 bb f0 23 8b bd 7d 71 f5 bd
       0.043015286 -0.0034870647 -0.06793964 -0.11984537
000110 b2 7f 18 3b e5 4d 90 3d 08 86 a7 bd 41 e4 03 bc
       0.0023269472 0.07046107 -0.08179861 -0.008050025
000120 53 63 1b be 84 42 8d 3d c9 23 51 3d db f4 84 bc
       -0.15174608 0.068974525 0.051059518 -0.016230037
000130 51 a5 27 be e4 92 00 be 64 e0 4c 3c f0 e0 25 3c
       -0.16371657 -0.12556034 0.012504671 0.01012443
000140 9c 1d 38 bd dd ab 4e bd d3 0e 40 bc 7b 04 cc 3b
       -0.044950113 -0.05045687 -0.011722284 0.00622612
000150 cb 62 b0 bd 07 6d a0 3c 56 02 61 bd ba 88 ff bd
       -0.08612593 0.019583238 -0.05493387 -0.124772504
000160 25 25 00 bd f4 eb 5b be b4 98 9f 3d 60 61 bc bd
       -0.031285424 -0.21476728 0.07792798 -0.0919826
000170 45 b2 27 be 08 11 10 3d 90 36 96 bd 36 4f 24 bd
       -0.16376598 0.035172492 -0.07334626 -0.040114604
000180 3a 35 0c 3c a4 f6 05 3e be 3d b5 bd 02 c2 15 be
       0.008557612 0.13082367 -0.08849667 -0.1462479
000190 f9 48 d7 3b ba e0 29 bd b3 c7 a7 bd 63 0a b8 3d
       0.0065699783 -0.04147408 -0.081923865 0.08986356
0001a0 d0 29 63 3c 1f 9b ba be e3 a2 40 bd 48 c3 d2 3c
       0.013864949 -0.36446473 -0.04703034 0.025727883
0001b0 1e 8f c6 3d 96 9a 03 be ac 40 22 bd 8b 83 e5 bc
       0.09695266 -0.12851939 -0.039612457 -0.028016826
0001c0 9a f5 c6 bd 2c 37 3b 3d ff 3e fe 3c a9 48 a5 3d
       -0.097148135 0.045706913 0.031035898 0.080704994
0001d0 74 2c b5 bb b1 8a 0c be 02 4a f1 bc d0 34 30 be
       -0.005528981 -0.13724782 -0.029454235 -0.17207646
0001e0 9a 9d 07 bd 6e f6 1a 3d 6a ff c5 bd 7b 51 88 be
       -0.033109285 0.03783267 -0.09667857 -0.26624665
0001f0 79 82 2e be 2d 34 11 be 5d 00 8e 3c 3c 80 7e bd
       -0.17041959 -0.1418006 0.017334158 -0.062134013
000200 e2 5d 29 3d 37 af 3e bd 37 72 1a 3d cf 78 77 bd
       0.0413493 -0.046553817 0.03770658 -0.060417946
000210 59 75 b4 3c 83 66 75 be 5c 3b 91 3d 39 2f 8b bd
       0.022028612 -0.23964886 0.070914 -0.067961164
000220 bc 82 88 bd f8 18 6b bd 2b 24 b3 bc 34 81 1c 3d
       -0.066655606 -0.05739686 -0.021867832 0.038209155
000230 20 f7 52 bc 7c 83 5c bd 47 95 32 3d 1e e9 57 bd
       -0.012876302 -0.05383633 0.043599393 -0.052712552
000240 f4 1d 8e bd 69 ad 39 bd 16 c6 bf bc 12 98 9c 3b
       -0.06939307 -0.045331392 -0.023409884 0.0047788704
000250 73 94 d2 3c e4 be 79 3d 9c 32 dd 3d e4 ae 28 be
       0.025705552 0.060973063 0.108006686 -0.16472965
000260 8c 93 92 bd ee a4 36 be c0 75 be bd 20 be 6a bb
       -0.071570486 -0.17836353 -0.09299803 -0.003581889
000270 e3 c1 18 be 28 f3 a7 3c c1 b4 93 3c a6 ab fd 3c
       -0.14917712 0.020501688 0.018030526 0.030965637
000280 1b 37 2a 3b 49 11 11 3d a5 8f fe bd f4 2c d3 bc
       0.0025972787 0.035416875 -0.12429742 -0.025778271
000290 6d fa ba 3d 23 f6 23 bb 09 c0 27 be 7a 36 62 bc
       0.09129796 -0.0025018535 -0.1638185 -0.013806934
0002a0 cf 9e 0d be 55 f5 8e bd bb 37 c3 bd 0b a0 24 bd
       -0.13830112 -0.06980387 -0.09532114 -0.04019169
0002b0 b5 fd d2 bd d3 71 14 3d d8 97 66 bb 7a 1e b4 be
       -0.10302297 0.036241364 -0.003518572 -0.35179502
0002c0 20 ab 76 3c 91 01 58 bd 58 f3 ae bc f2 3a 65 bd
       0.015055448 -0.05273587 -0.02135627 -0.055964418
0002d0 0b 2c f3 3c a9 a6 1d bd 4b fe bb bd 5e f4 89 bd
       0.029684087 -0.038489018 -0.09179362 -0.067360625
0002e0 ff b6 d8 3c 30 d8 5c 3d 8a f4 a7 bc 5a 41 ed bd
       0.026454447 0.05391711 -0.020502347 -0.115847304
0002f0 df ee 6e bc 27 82 bb bd af 41 e9 bd 90 92 cb bd
       -0.0145833185 -0.09155684 -0.11389481 -0.09940064
000300 01 91 81 bd 41 b7 fd 3c 18 25 96 be ea d0 b2 bc
       -0.063264854 0.030971171 -0.29325175 -0.021828134
000310 5a 57 ac 3c dd b3 b8 bd 3d 3e 10 be 00 3c 38 bd
       0.021037746 -0.09018681 -0.14086242 -0.044979095
000320 41 6a 3a bd be 8f 48 bb c1 5b 0c be 2d 64 41 bf
       -0.045511488 -0.0030603255 -0.13706876 -0.7554348
000330 79 29 85 bd f2 7b 2e bd 4c 6d 43 3c ad 62 24 bc
       -0.06502051 -0.042598672 0.011927914 -0.010033292
000340 f0 5d e9 3b ed 4d a9 bd a9 02 00 bd c1 84 f5 bd
       0.007121794 -0.08266816 -0.031252537 -0.119882114
000350 65 a3 74 bd b2 c8 0b bc 31 f5 e6 3d 5c c2 5f 3c
       -0.059726138 -0.008531736 0.11277235 0.013657179
000360 4a b9 21 3e 61 fc 92 3c cd bb 05 3d 66 27 71 bc
       0.15793338 0.01794261 0.032649804 -0.014718866
000370 01 8b 3c be f6 61 1b be ae 07 95 bd 79 d4 d8 bd
       -0.18412401 -0.15174088 -0.072768554 -0.10587401
000380 94 9b 94 bd 9e f2 10 3e f9 cd 49 3e 44 8e 02 bd
       -0.07256237 0.14155051 0.19707479 -0.031873956
000390 11 4b 21 bd 8a 23 e8 3d 24 df ee bd e1 d6 19 be
       -0.03937823 0.113349035 -0.116636544 -0.15023376
0003a0 5b fa 23 3e a3 77 c0 bd 0c 98 90 bd a0 43 3d be
       0.16013472 -0.09397819 -0.07060251 -0.18482828
0003b0 e0 28 3d 3d dd af 8d be 38 6c 03 bd d3 12 74 3d
       0.04618156 -0.27673236 -0.032085627 0.059588265
0003c0 72 d0 47 3d 73 39 5f 3d c5 f2 b0 3d 11 c1 5f 3d
       0.048782773 0.054498147 0.086400546 0.05462748
0003d0 ee d0 bb 3d 75 3c 00 bd 1f 8e 40 be 91 34 15 3d
       0.091707096 -0.031307656 -0.18804215 0.036427084
0003e0 2b 6f c9 3b f8 9c 3a be f0 39 eb bd b0 fc f6 3c
       0.0061472855 -0.18223941 -0.1148566 0.030149788
0003f0 af b9 a0 be dd 20 03 3c 82 4c d5 3d 5a c2 8f bc
       -0.31391665 0.008003441 0.10414983 -0.017548729

actor.actor.4.bias f4 [128]
000000 a4 7b 23 3d 4a e2 0f bd bc 82 47 bd 9e b2 b4 bd
       0.039912835 -0.035127915 -0.048708662 -0.08823131
000010 1e 42 aa bd 04 8b 82 bd bb dc ec 3c 9f 8f a5 bd
       -0.08313392 -0.063741714 0.028913846 -0.08084034
000020 38 b8 5b 3d d0 f5 d3 bc 9f 49 2b bd 0d bd a4 3b
       0.05364248 -0.025874048 -0.041818257 0.0050274194
000030 22 2e a1 3d c9 60 ed bd ce 8b 22 be 61 fc 3d bd
       0.07870127 -0.11590726 -0.15873644 -0.046383265
000040 b1 26 58 3c 23 ff 1a 3d 75 d6 bd bc fc 0b d2 bd
       0.0131928185 0.037840974 -0.02317355 -0.10256192
000050 36 38 b0 bc 62 5d 11 be 61 d5 36 3c 43 ec 2f be
       -0.021511178 -0.14195779 0.011159272 -0.1717997
000060 3d 9c 46 3c e6 29 3a 3b 6d 48 11 3d 61 7a b3 3c
       0.012122211 0.002840632 0.03546946 0.02190894
000070 c6 34 b5 3c 2c 6b ac bc 37 b0 5d 3d ec 28 0e bd
       0.02211989 -0.021047197 0.05412313 -0.034706995
000080 5b 66 32 3d 22 8a bd bd 60 36 25 be 66 fd 17 3c
       0.043554645 -0.09254862 -0.16134024 0.0092767235
000090 0f 73 63 bd 0a ad 5e 3d 45 a5 4b 3d f9 2c 1c bc
       -0.05552965 0.05436424 0.04971816 -0.009532207
0000a0 66 d7 b1 bb 55 0c 9e 3d 99 6a a2 bd 3f 60 0c be
       -0.005427289 0.07717196 -0.07930488 -0.1370859
0000b0 df 12 35 bc c3 ce 7b 3d 84 4e 52 3c 8c ec 31 bb
       -0.0110518625 0.06147648 0.012836102 -0.002714905
0000c0 38 55 8a 3d 31 04 4f 3d b2 4b 59 bd 40 52 70 bd
       0.067545354 0.050541107 -0.053050704 -0.05867219
0000d0 ce 6e 82 bd e8 73 9f bd b3 b0 a9 3b e4 66 ea bd
       -0.063687906 -0.07785779 0.005178535 -0.11445406
0000e0 85 38 81 bd bc 7d 02 bd 3f d3 fd bd 2e 46 b9 bd
       -0.06309608 -0.03185819 -0.123938076 -0.09046589
0000f0 dc 3f 05 3d 8e 05 ec bc 78 55 fa 3c 71 c5 1f 3d
       0.032531604 -0.028811242 0.030558333 0.039006654
000100 2c d6 a5 bd 8a 10 63 3d 17 83 21 3c c4 ef a6 3d
       -0.08097491 0.055435695 0.009857914 0.081512004
000110 fd f0 72 bd 85 a4 0c bd ea ac 44 3c d8 ad f2 bd
       -0.059311856 -0.034336586 0.012004117 -0.11849564
000120 e1 a9 23 bd 93 bb e0 bc 3e c2 c3 bd 13 46 13 3d
       -0.03995693 -0.027433192 -0.09558533 0.0359555
000130 ed ba 06 bd fb 7a b7 3c 3a ab 18 be 36 bc 19 3d
       -0.03289311 0.022397509 -0.14909068 0.037533008
000140 f3 93 59 bd a5 26 dc bb 7a 95 7c bd 59 0f 9e bc
       -0.05311961 -0.006718474 -0.06166599 -0.019294428
000150 a9 74 45 3c 56 7e f3 bd 3e 5e f7 3b 0a 0e fd bc
       0.01205174 -0.11889331 0.0075490763 -0.030890483
000160 25 15 38 bd 14 df bd bb e1 74 01 bd 86 7c 0b 3d
       -0.04494204 -0.0057944153 -0.031605605 0.0340543
000170 3d eb df 3b fb c2 e3 3a ce 94 d6 bd df 28 57 bd
       0.0068334625 0.0017376834 -0.10477601 -0.052529212
000180 1f df fb 3a 74 b1 c9 bd 07 29 1e 3d 05 f8 a4 bd
       0.0019216276 -0.098482996 0.038613345 -0.080551185
000190 d2 61 e3 3c 2c 1f 99 3d a1 8d 43 bc 7c 05 c2 3c
       0.027756605 0.07476649 -0.011935622 0.023684256
0001a0 9f 40 ee 3b 0a 6f f7 3c 26 b6 60 bd 6e 97 8f bd
       0.007270887 0.030204315 -0.05486121 -0.07011305
0001b0 9f 1d ee bd f3 f1 bd 3c d0 81 0e 3b f3 96 16 bd
       -0.116267435 0.02318666 0.0021744855 -0.03676505
0001c0 87 b7 a8 3c 06 28 9a bd 9f c7 3e be be a3 2d 3d
       0.020595325 -0.07527165 -0.18630837 0.042392485
0001d0 63 bb 2c bd da 31 9b bd 70 13 d1 bc 58 de a8 3d
       -0.042170893 -0.07577868 -0.025521964 0.08245534
0001e0 9f fb 7b 3d e8 db b7 bd d5 73 ac ba 00 fa 85 bd
       0.06151926 -0.08977491 -0.0013157079 -0.06541824
0001f0 2e a0 cb bc 49 6c 81 bd e8 eb 4e 3c 14 95 c4 bd
       -0.024856653 -0.06319482 0.012629487 -0.09598747

actor.actor.6.weight f4 [12, 128]
000000 aa 75 af bc 6c 6b 0c 3d c2 29 15 3c ec 03 b7 3c
       -0.021418411 0.034282133 0.009104194 0.022340737
000010 a7 a8 bc 3d 7d 8e 15 bd 12 fd 5f 3a 10 46 6f bd
       0.092118554 -0.03651284 0.00085444853 -0.058416426
000020 5b d5 d7 3d ff 43 11 3c cd 11 2b 3d 22 49 6b bd
       0.10538741 0.008866309 0.041765023 -0.05744279
000030 40 e2 b3 3c c7 e3 b9 3c d1 7c 69 ba 78 36 90 3d
       0.02195847 0.02269162 -0.0008906844 0.07041639
000040 c7 bd 4c 3d ec e9 39 bd de 3e 07 3e 44 e4 06 be
       0.049985673 -0.0453891 0.13207576 -0.13173014
000050 34 0a a1 bd 1f 24 80 3c 2e 35 bc 3c 4a c3 35 bd
       -0.07863274 0.015642224 0.022974577 -0.044375695
000060 72 01 71 3c a2 d2 77 3d 08 9c 2f be f7 1d 06 be
       0.014709817 0.06050361 -0.17149365 -0.13097368
000070 4c 80 dd bd e1 d2 c5 bc ac 60 3a bd d2 b9 c8 3b
       -0.10815486 -0.024148406 -0.04550235 0.006125667
000080 1e 63 3d 3d 19 be 01 3e 31 4a 04 bd 68 3d 90 bd
       0.046237104 0.12670173 -0.032297317 -0.07042962
000090 22 42 b9 bd c5 46 12 bd 08 28 e0 3c 8c 32 f0 3d
       -0.09045817 -0.035712022 0.027362838 0.11728391
0000a0 75 bf 99 3e 64 fe 3e bd c0 eb 9c bd 73 26 00 3e
       0.30028883 -0.046629325 -0.07662153 0.12514667
0000b0 f7 fa 83 bd cb 8c 12 3c 55 af 1e 3d 6d be 45 3d
       -0.06444352 0.0089447005 0.03874143 0.048277307
0000c0 a3 bb 86 bd a3 ce 98 3c 9d 74 82 bd 06 25 2e bc
       -0.065787576 0.01865322 -0.063698985 -0.010628944
0000d0 3d b6 ab bd 99 e0 99 3d f4 c9 d0 bd c5 ae 54 bd
       -0.083843686 0.07513542 -0.101947695 -0.051924486
0000e0 39 bd 15 3d 09 65 46 3d 92 e8 37 bc 5e e0 bf 3d
       0.03655741 0.0484362 -0.011224883 0.093689665
0000f0 98 54 19 bd d4 d5 a3 bc b9 46 81 3c ea e0 31 bd
       -0.03743419 -0.019999422 0.015780794 -0.043427385
000100 9e 96 88 3d e9 6a 2a bc 3d 68 d6 3c b9 a6 44 bd
       0.06669353 -0.010401466 0.026172752 -0.04801056
000110 4c 05 93 3c f3 58 ec 3b 94 cf fa bc a7 83 50 bb
       0.017946862 0.007212752 -0.03061656 -0.0031816752
000120 8a 2c b5 bc 86 c6 b4 3d 4b 20 fe bc 49 d8 d7 bd
       -0.022115964 0.08826928 -0.031021258 -0.105393
000130 47 a4 08 be 0e 5d e0 3c 46 0f 65 3d db fe 67 bd
       -0.13343917 0.027388122 0.05592277 -0.056639533
000140 6c bf 95 bb 06 80 ba 3d cb a4 46 bd dc 1f 46 3d
       -0.0045699384 0.0910645 -0.048497003 0.048370227
000150 cc 85 98 3c a7 7a 22 b8 77 e0 84 bd 9c 0f ed 3b
       0.018618487 -3.873804e-05 -0.06488126 0.007234527
000160 35 f4 c1 bc b0 04 e3 bb 11 af 09 bd dd 47 ca 3c
       -0.023676017 -0.006928049 -0.033614222 0.02469247
000170 4c 72 1d be 29 ff 24 bd dc 75 c5 bc c8 5c f5 bd
       -0.15375632 -0.040282402 -0.024104051 -0.11980587
000180 f4 22 be 3d d9 c0 73 bd 0a aa 3e 3e c8 a7 07 bc
       0.092840105 -0.059510086 0.18619552 -0.008279748
000190 d4 d0 a8 3b 8d 08 61 3d dd 91 90 bd b0 f0 ea 3d
       0.0051518474 0.054939795 -0.07059071 0.11471689
0001a0 ce 9a 4b bc c2 63 6e 3d d7 12 b6 3b 53 aa ab bc
       -0.012427045 0.058200605 0.005556445 -0.02095524
0001b0 e9 19 92 bd 23 70 e4 bb 5f 29 73 3d 1c 4d f2 bc
       -0.07133848 -0.0069713756 0.059365626 -0.029577784
0001c0 dd 3e b2 3d ac ae 6d bd 59 cd b6 bc b8 a6 d4 bd
       0.087033965 -0.05802791 -0.022314714 -0.103833616
0001d0 73 c3 de 3d 63 a7 65 bd a0 c1 1e 3c e7 42 99 bb
       0.10877123 -0.056067836 0.0096897185 -0.004677165
0001e0 bc 42 b7 3c f6 f4 8a bc 49 f9 29 3d 84 ae 0e 3d
       0.022370689 -0.01696251 0.041497502 0.0348344
0001f0 c8 26 83 3d 2e 89 46 3d 69 92 63 bc 1d 08 8f 3c
       0.06403881 0.04847067 -0.013889887 0.017459923
000200 89 9c 55 bc 40 21 c2 3c e7 6c fc 3b 16 da b7 bc
       -0.013037809 0.023697495 0.007703412 -0.022442859
000210 32 51 ca 3d 58 17 57 3a 19 de 9d 3c cf a4 1d 3d
       0.09878768 0.00082050776 0.019270943 0.03848725
000220 2f 46 e6 bc e4 cf d8 bc e6 8f 58 3b 89 7e ad 3d
       -0.028109638 -0.026466317 0.0033044755 0.084714
000230 05 ee b6 3d 62 06 06 3d 6e af dc bc ed 46 c3 bd
       0.089321174 0.03272093 -0.02693912 -0.095350124
000240 2c 43 68 bd ee 93 21 bd 6c 53 8e bb 6b ac 2a bd
       -0.056704685 -0.039447717 -0.0043434408 -0.041668337
000250 9f 0a d3 3c 60 c4 07 3e 38 38 97 bd ce c4 77 3d
       0.0257619 0.13258505 -0.0738377 0.060490422
000260 2d 0f a1 bb 7b 5c 8e 3c 70 a8 b1 bc f5 76 7b be
       -0.004915139 0.017378082 -0.021686763 -0.24557097
000270 99 da ea bb b8 a0 f1 bc 46 a4 a0 3c f2 99 93 bb
       -0.007167172 -0.029495582 0.019609582 -0.0045044357
000280 b0 62 8e bd 91 7c 6d 3b 78 e1 48 be c0 77 82 bd
       -0.06952417 0.0036237577 -0.1961726 -0.06370497
000290 21 d3 d8 bd 54 14 c6 bb 22 79 51 3d 97 d4 d2 3d
       -0.10587145 -0.006044904 0.051140912 0.102944545
0002a0 29 be 80 3c 54 20 a4 bc 34 42 32 bd 18 44 fe 3a
       0.015715675 -0.020034947 -0.043520167 0.0019398956
0002b0 3f 34 81 bc 20 cc 2a bd 2e 53 b6 bd 50 40 a4 bd
       -0.015771983 -0.041698575 -0.08902584 -0.08020079
0002c0 96 9a b6 3c ca 20 cb 3c ec cc 87 3c 2e 05 91 bc
       0.02229051 0.024795908 0.016577207 -0.017702665
0002d0 17 64 7b bd 0d 46 d3 bc 82 4b 16 3d 05 92 29 be
       -0.06137475 -0.025790239 0.036693104 -0.16559608
0002e0 0f 84 53 3d ce f4 38 3c 5f a6 54 3d a9 37 b4 3d
       0.051639613 0.011288835 0.051916476 0.08799679
0002f0 7f 3c ee 3c 23 fa e9 3c 96 ea 95 bc f2 ba 19 3d
       0.029081581 0.028561657 -0.018300336 0.0375318
000300 71 c5 97 bd 32 75 dc bc 4f 0b 8d bd c1 51 b5 bd
       -0.07410706 -0.026911352 -0.068869226 -0.08853484
000310 44 76 d0 bc 8b c9 8f 3a 97 3f 01 3d cc 9e aa 3b
       -0.025447018 0.0010970099 0.031554785 0.0052069183
000320 7f 7b 95 bc be 2d 0f bd a0 e5 2b 3d 49 89 fb 3c
       -0.018247364 -0.034955733 0.041967034 0.030705111
000330 16 03 c2 3d 04 34 62 3d 91 10 a7 bd 4c 73 b6 bc
       0.09473245 0.055225387 -0.08157457 -0.022271775
000340 1a 0d 1e 3d 1c 07 16 bd 62 80 a6 bd f3 80 f3 3c
       0.038586713 -0.036627874 -0.08129956 0.029724574
000350 ed 79 62 3d 60 19 4d bd 72 96 e2 ba 12 b9 03 bd
       0.05529206 -0.050073028 -0.0017287268 -0.03215892
000360 3c 03 03 bd a5 76 05 bd 93 ed 37 3d 63 5c 0f bd
       -0.031985506 -0.03258385 0.044904303 -0.035000216
000370 7c 01 26 3a c6 ba 8b 3d 28 8c 49 bd 4c 22 20 3c
       0.00063326187 0.068227336 -0.04920593 0.009773802
000380 3c c2 4f be 55 a2 c0 3d 19 7f 7e bd d6 da 92 bc
       -0.20288938 0.094059624 -0.06213293 -0.017926615
000390 53 d8 e2 3b 9e a4 f2 3d 0e 88 b7 bd 86 7b e5 bc
       0.0069227605 0.118478045 -0.08961497 -0.028013002
0003a0 c0 bf 21 3b bb 19 ac bd 3b 81 a4 3d 49 03 9d bb
       0.0024680942 -0.08403345 0.08032461 -0.0047916514
0003b0 43 f4 cf 3c 6b ae 76 3c b4 45 7b bb 6d 66 fc bb
       0.025385028 0.015056233 -0.0038341107 -0.00770264
0003c0 0f b1 bb bd 4f 27 9a bd 63 1c a7 bd 73 e6 81 bc
       -0.091646306 -0.07527029 -0.08159711 -0.015856957
0003d0 a2 60 82 3d 7c 9c ae 3d ec 5c 91 bd b6 1c fb bc
       0.063660875 0.08525941 -0.070978016 -0.030653339
0003e0 0e 1d e3 bd e5 0e 07 3e 8e 67 88 3d 58 c0 e9 bb
       -0.11089526 0.13189276 0.066603765 -0.007133525
0003f0 26 56 09 bc f2 c6 3e bd 42 ec 51 3d fe a5 83 3c
       -0.008382356 -0.046576448 0.051250704 0.016070362

actor.actor.6.bias f4 [12]
000000 b5 61 b1 3c 6f 1e 85 bd 7b 7d 23 bd b4 d8 91 3c
       0.021653036 -0.06499945 -0.03991459 0.017803527
000010 cb ac da 3c a7 4d 2e 3d e5 15 63 bc 51 ba 9d bc
       0.026693722 0.042554524 -0.0138602005 -0.019253882
000020 55 23 eb bb 6c 9b b4 bc a5 17 a2 bd 4f 33 d6 bd
       -0.0071758428 -0.022046767 -0.07914666 -0.10459005

onnx::Div_36 f4 [1, 45]
000000 cb ad d4 3e cf 71 08 3e aa 0e 9e 3e 48 fd 44 3e
       0.41538844 0.13324665 0.30870563 0.19237244
000010 c7 cc 37 3e e4 18 5d 3e 31 a4 35 3e 8b 21 4e 3e
       0.1794921 0.21591526 0.17738415 0.20129983
000020 aa a5 52 3e 51 5c 43 3e 18 d1 4c 3e 67 d5 8e 3e
       0.20571008 0.19078185 0.20001638 0.27897188
000030 a7 14 38 3e 68 14 63 3e 5a 94 9e 3e d2 18 7d 40
       0.17976628 0.22175753 0.30972558 3.95464
000040 f4 89 4b 40 22 1b 87 40 34 8f 7d 40 40 75 4c 40
       3.180295 4.222062 3.9618654 3.1946564
000050 88 86 88 40 d0 c6 77 40 e4 e8 61 40 4a 3f 8c 40
       4.2664223 3.8715096 3.5298395 4.3827257
000060 ce 32 78 40 26 c8 5d 40 65 6a 8f 40 2a 0e cf 3f
       3.8781009 3.465341 4.4817376 1.6176198
000070 cc cf 84 3f 7f 1e 2c 3f 80 91 e1 3d fb 2e cf 3d
       1.0375915 0.67234033 0.1101408 0.10116383
000080 54 5a 66 3d 2b 6e fb 3e f1 b3 fc 3e 6a 94 13 3f
       0.056238487 0.4910749 0.49356034 0.57648337
000090 37 08 ea 3e 16 b0 05 3f 5d 00 12 3f da b0 f0 3e
       0.45709392 0.5222181 0.57031804 0.47009927
0000a0 3b 78 f8 3e 80 ba 29 3f 03 df f4 3e 5c 4e 08 3f
       0.4852923 0.663002 0.47826394 0.53244567
0000b0 67 35 34 3f
       0.70393986
