src/ga_quadruped/policy/jump_command_2000.onnx (onnx, 757545 bytes, 10 tensors)

normalizer._mean f4 [1, 44]
0	0x3f604ad9	0.8761421
1	0x3f3d2f3a	0.73900187
2	0x3e0e6157	0.1390432
3	0x3d81b939	0.063341565
4	0xbe0bb045	-0.1364146
5	0xbddc5f79	-0.107603975
6	0x3cbdafb2	0.023155067
7	0x3e2a3866	0.16623077
8	0xbd3345bc	-0.043767676
9	0x3e0b9c70	0.13633895
10	0xbd8ef603	-0.06980517
11	0x3dabedcc	0.083949655
12	0xbe06d1d9	-0.13165988
13	0x3d8c7af2	0.068593875
14	0xbdc1b1b3	-0.094577216
15	0xbe3637ea	-0.17794767
16	0xbd483597	-0.048879232
17	0x3db24ebf	0.08706426
18	0x3e404483	0.18776135
19	0x3d92e10f	0.07171833
20	0x3da2176c	0.079146236
21	0xbe3e6271	-0.1859224
22	0xbb7be636	-0.0038436777
23	0xbdba2dea	-0.09090789
24	0x3e4d61cc	0.20056838
25	0xbc1ba9ed	-0.009500963
26	0xbd4c24f6	-0.049839936
27	0xbc26666d	-0.010156256
28	0xbe79bab7	-0.24387632
29	0xbbf4504c	-0.007455861
30	0xbb27e7a9	-0.0025620258
31	0xbf73cb9d	-0.95232564
32	0x3e407948	0.18796265
33	0xbc95f67a	-0.018306006
34	0xbc28216d	-0.010261876
35	0xbe08e149	-0.1336719
36	0x3e071603	0.1319199
37	0xbc32652a	-0.010888377
38	0xbd9edbe0	-0.077567816
39	0x3e75c9f2	0.24002817
40	0x3dd6b900	0.10484505
41	0x3e10d730	0.14144588
42	0xbe85dfca	-0.261473
43	0xbd6cc22a	-0.057802357

actor.actor.0.weight f4 [512, 44]
0	0xbdbaff07	-0.09130674
1	0x3d67f6dc	0.056631908
2	0x3ec2e5b3	0.38065872
3	0xbd923867	-0.07139664
4	0x3e0683cd	0.13136216
5	0xbe68e522	-0.22743657
6	0x3e2ba4aa	0.16762033
7	0x3e15f991	0.14645983
8	0xbe34178f	-0.17587112
9	0xbe45e270	-0.1932466
10	0x3ed7fedd	0.42186633
11	0xbdb75e09	-0.08953483
12	0x3d782608	0.060583144
13	0xbeb58d40	-0.35459328
14	0x3dd3fa94	0.10350528
15	0xbdf0a48e	-0.11750136
16	0x3d93448e	0.0719081
17	0xbcb40b62	-0.021978084
18	0x3e0b2ba8	0.13590872
19	0xbeaba5e9	-0.33525017
20	0xbc4d3d04	-0.012526754
21	0xbd028ebb	-0.0318744
22	0x3e806ae7	0.2508156
23	0xbe68ae57	-0.22722755
24	0x3caf49c1	0.021397473
25	0xbe7ca4ae	-0.24672195
26	0xbdf0fc7e	-0.11766909
27	0xbe92de62	-0.2868529
28	0x3cc4b622	0.024012629
29	0xbd942d1c	-0.072351664
30	0x3d0d7fd7	0.034545746
31	0xbd45817b	-0.048219185
32	0x3e899eaf	0.26878878
33	0xbe459314	-0.19294387
34	0x3de6374c	0.11241016
35	0x3d92b7d8	0.07163972
36	0xbdd05c60	-0.10173869
37	0x3cfa0b24	0.03052289
38	0xbd67ee9f	-0.05662405
39	0xbe8c54da	-0.27408487
40	0x3eb62961	0.35578445
41	0x3e14fb21	0.14548923
42	0x3b9c0736	0.004761602
43	0xbe41b319	-0.18915977
44	0xbe1e92e5	-0.15485723
45	0xbde50b06	-0.11183743
46	0x3db423ba	0.08795877
47	0xbddd5dba	-0.108088925
48	0x3c8a72d8	0.016900465
49	0xbb269cd1	-0.002542306
50	0xbd63d76c	-0.055625364
51	0xbdb161f4	-0.08661261
52	0xbdc28e57	-0.094998054
53	0xbe5b216a	-0.21399465
54	0xbe0e9e20	-0.13927507
55	0x3e2f5a09	0.1712419
56	0x3dc21e94	0.094784886
57	0x3dd6cff2	0.10488881
58	0x3e52dcda	0.2059206
59	0x3d4791de	0.048723094
60	0x3e0e4d01	0.13896562
61	0x3dd0943d	0.10184524
62	0x3e0d45e2	0.1379619
63	0x3d7ee27c	0.06222771
64	0x3e4a066b	0.19729011
65	0xbe38a8cd	-0.18033142
66	0x3e324aa0	0.1741128
67	0xbdd05c66	-0.101738736
68	0xbe4b8dc7	-0.19878303
69	0x3e004ef9	0.12530126
70	0xbe778b95	-0.2417434
71	0x3ce65d21	0.02812058
72	0xbe1ddcdb	-0.15416281
73	0x3e308086	0.17236528
74	0xbdfa62b7	-0.122258596
75	0xbd6e1804	-0.05812837
76	0x3dc0f67d	0.09422014
77	0xbd9745f2	-0.07386388
78	0x3db76627	0.08955031
79	0xbe4b135c	-0.19831604
80	0x3c7cb281	0.015423418
81	0xbe089dae	-0.133414
82	0x3c070b6c	0.008242469
83	0x3def9fc9	0.117003985
84	0x3d346587	0.044042137
85	0xbca19184	-0.019722708
86	0x3d60e76f	0.054908212
87	0xbd30a276	-0.043123685
88	0x3d7b1e4c	0.06130819
89	0xbe183957	-0.14865623
90	0xbd96f9bd	-0.073718525
91	0x3dfdabb4	0.123862654
92	0xbd8a4960	-0.067522764
93	0xbd90fccf	-0.070794694
94	0xbd2791ac	-0.040910408
95	0x3d95a7bf	0.07307386
96	0x3cfb9980	0.030712843
97	0xbdb3a31e	-0.087713465
98	0x3dd96a12	0.106159344
99	0xbd0e37ee	-0.034721307
100	0x3e26811d	0.1626019
101	0xbdbbbcaf	-0.09166848
102	0x3d139620	0.036031842
103	0x3d7cfe90	0.061766207
104	0x3e4214b1	0.18953206
105	0xbc4f710f	-0.012661233
106	0x3dfc64f2	0.12323941
107	0xbd1844f8	-0.03717515
108	0x3dfa4fcb	0.122222506
109	0xbe73b4d2	-0.23799446
110	0x3c78f045	0.0151940035
111	0xbcf0dbd3	-0.029401695
112	0x3e59ed80	0.21282005
113	0xbd6b698f	-0.057473715
114	0xbe95733a	-0.29189473
115	0xbe351d59	-0.17686976
116	0xbd37836e	-0.044803075
117	0xbeaf156b	-0.34196028
118	0x3cbb07fd	0.022830958
119	0xbd2361bd	-0.039888132
120	0xbe1955fa	-0.14974204
121	0x3e1ab0c3	0.15106492
122	0xbd104880	-0.03522539
123	0x3cfe90e6	0.031074952
124	0x3d9af814	0.075668484
125	0xbdbcb9e5	-0.09215144
126	0xbc5eacf2	-0.013591038
127	0xbccfe141	-0.025375964
128	0x3d91231a	0.07086773
129	0xba4a34c9	-0.0007713554
130	0xbdcb43ad	-0.099250175
131	0x3cdef81d	0.027217919
132	0x3d9043c9	0.07044179
133	0x3df73c6f	0.12072074
134	0xbd796d51	-0.060895268
135	0x3e259bbb	0.16172688
136	0xbe2b855b	-0.1675009
137	0xbc52f424	-0.0128755905
138	0xbe19d264	-0.15021664
139	0xbe2fb7be	-0.17159936
140	0x3e7195e5	0.23592336
141	0x3d58adb9	0.05290005
142	0x3e110db1	0.14165379
143	0xbd84ca4f	-0.064839
144	0xbd6ae51f	-0.057347413
145	0xbd0b73fa	-0.03404615
146	0xbdb40c7c	-0.08791444
147	0xbda31994	-0.07963863
148	0x3d6631af	0.056199726
149	0xbdb4afe6	-0.088226125
150	0x3e2a41f4	0.16626722
151	0xbd85a308	-0.06525236
152	0xbd238b8d	-0.039928008
153	0x3e1f4c98	0.15556562
154	0xbd185235	-0.037187774
155	0x3cc55452	0.024088059
156	0xbe1a5c03	-0.15074162
157	0x3e6752cb	0.22590177
158	0x3da70a94	0.081563145
159	0xbe256891	-0.1615317
160	0xbd47fe8e	-0.048826747
161	0xbe4ac23f	-0.19800662
162	0xbe8ef17b	-0.2791861
163	0x3d9f1467	0.07767563
164	0x3d20bd49	0.039243016
165	0xbddd3f06	-0.108030364
166	0xbea847d0	-0.3286729
167	0xbe1496fa	-0.14510718
168	0xbe46f33c	-0.19428724
169	0x3e7a201f	0.24426316
170	0xbd8fcf6e	-0.07021986
171	0xbdd2d092	-0.10293688
172	0xbe2e590a	-0.17026153
173	0x3dfd5482	0.12369634
174	0xbc51c256	-0.012802681
175	0x3e3f7351	0.18696333
176	0xbdc21446	-0.09476523
177	0xbd36ff84	-0.044677272
178	0x3e205e79	0.15661038
179	0xbe0564af	-0.13026689
180	0xbdaac8d9	-0.0833909
181	0xbe1abcbf	-0.15111063
182	0x3e4ef7e4	0.2021175
183	0x3e3aa1f9	0.1822585
184	0x3e511850	0.2041943
185	0xbe942c13	-0.28939876
186	0x3e4f774b	0.2026035
187	0x3e49598a	0.19663063
188	0xbb861c17	-0.004092704
189	0xbd30081a	-0.042976476
190	0xbdf36f34	-0.11886445
191	0xbdeb854f	-0.11500036
192	0x3d1e9389	0.03871492
193	0xbd88e89d	-0.066849925
194	0x3e298cfc	0.16557688
195	0xbe0b432f	-0.13599847
196	0xbde5f7c5	-0.11228899
197	0xbc949268	-0.018136218
198	0x3e758b48	0.23978913
199	0xbdbf1d6d	-0.093317844
200	0xbd080034	-0.03320332
201	0x3d865073	0.06558313
202	0x3dc8924c	0.09793529
203	0xbe88416a	-0.26612407
204	0x3e9112cf	0.28334662
205	0xbd947654	-0.07249132
206	0x3e20a2b4	0.15687066
207	0x3e14175f	0.1446204
208	0x3dce7d40	0.10082483
209	0x3d052da8	0.032514244
210	0x3dddd27c	0.10831162
211	0xbe76d36e	-0.24104092
212	0x3dddc241	0.108280666
213	0xbc7f3bd6	-0.015578231
214	0xbe2ca892	-0.1686118
215	0xbe19eca2	-0.15031675
216	0x3e7c3b49	0.2463199
217	0x3daedc72	0.0853814
218	0x3d42803e	0.047485583
219	0xbdefac3b	-0.11702772
220	0x3d3bd9f4	0.045862153
221	0xbc9f7a22	-0.019467417
222	0x3d4eab8f	0.05045658
223	0x3d1c2be5	0.0381278
224	0x3e1a976b	0.15096824
225	0x3c9d996f	0.019238202
226	0x3da29e3f	0.07940339
227	0x3dafc6e0	0.08582854
228	0x3cb7211b	0.022354653
229	0x3e69befd	0.22826762
230	0xbce22477	-0.027605278
231	0xbe4991a2	-0.19684461
232	0x3e633243	0.22187142
233	0x3e34e061	0.17663719
234	0xbbacb88a	-0.005271022
235	0x3e45ff4d	0.19335671
236	0xbdfb8d59	-0.12282819
237	0xbc99a417	-0.018755002
238	0xbda7e2e6	-0.08197574
239	0x3de0d179	0.10977454
240	0x3dcd3dfe	0.1002159
241	0x3dd02a14	0.10164276
242	0xbd17a052	-0.037018128
243	0xbe1801db	-0.14844458
244	0x3b9a2705	0.0047043585
245	0x3e18b2fe	0.1491203
246	0xbe46cca9	-0.19414009
247	0xbc97a86f	-0.018512933
248	0x3e5a2d24	0.21306282
249	0x3db5f311	0.08884252
250	0x3cc63b68	0.024198249
251	0x3e03a04a	0.12854114
252	0xbc0a12c2	-0.008427324
253	0x3ddf3881	0.10899449
254	0x3b988c6a	0.0046554105
255	0xbd5e68c7	-0.054299142

actor.actor.0.bias f4 [512]
0	0x3dba77ff	0.09104919
1	0x3d0e0df6	0.034681283
2	0xbe0dd8c5	-0.13852222
3	0xbdbd69ab	-0.0924867
4	0x3e0d666e	0.13808605
5	0xbe4f1c24	-0.20225579
6	0xba7124a5	-0.0009198881
7	0x3e8625da	0.26200753
8	0x3d1a899d	0.037728895
9	0x3d3d6ee1	0.04624832
10	0x3dc6f438	0.0971455
11	0xbe128038	-0.14306724
12	0x3e8534fb	0.26016983
13	0x3e46dce6	0.19420204
14	0xbe2dc51e	-0.16969725
15	0xbd899ce2	-0.06719376
16	0xbd2a7381	-0.04161406
17	0x3d9e29fe	0.07722853
18	0xbd2c07e7	-0.041999724
19	0x3e8ca2b9	0.27467898
20	0x3db8726f	0.090062015
21	0x3dc5c6d8	0.09657067
22	0x3da81425	0.08206967
23	0x3df589c5	0.11989168
24	0xbd276ce0	-0.040875316
25	0xbd3122f4	-0.043246225
26	0xbe13261b	-0.14370005
27	0xbd20c732	-0.039252467
28	0xbb2622e5	-0.0025350389
29	0x3c2405a6	0.010011112
30	0x3e16daee	0.14731953
31	0x3d7c08e8	0.06153193
32	0x3e64f7e0	0.22360182
33	0x3d610d38	0.054944247
34	0x3dd95d4f	0.106135
35	0x3db4f2fa	0.088354066
36	0xbbcd3d4c	-0.0062634107
37	0xbdc92572	-0.09821595
38	0xbda5b3bc	-0.08090922
39	0xbdf7622b	-0.12079271
40	0x3e0ba51b	0.13637201
41	0x3e8183ce	0.25295871
42	0x3d5457c7	0.051841523
43	0xbd61ae7b	-0.05509804
44	0x3df5905d	0.11990426
45	0x3e2fd860	0.17172384
46	0xbdc4a5f6	-0.09601967
47	0x3de8a767	0.113600545
48	0x3e5b0319	0.213879
49	0x3deda755	0.11604182
50	0xbc8650b6	-0.016395908
51	0x3c68035e	0.014160959
52	0x3db28952	0.08717598
53	0x3e1cd34a	0.15314975
54	0x3c2fc1a2	0.010727318
55	0x3d5eb4dd	0.054371703
56	0xbd447ea1	-0.047972325
57	0x3db39d79	0.0877027
58	0x3d1d9d1c	0.03847991
59	0xbc13fc79	-0.009032362
60	0x3d2e91db	0.042619567
61	0xbc95b927	-0.018276764
62	0x3e628f4a	0.22124973
63	0xbd57faca	-0.052729405
64	0xbcaf4b7a	-0.021398295
65	0xbd9852e2	-0.07437684
66	0x3e80371e	0.2504205
67	0xbd5a0268	-0.05322495
68	0x3d31dfe8	0.043426424
69	0x3c9ce139	0.019150363
70	0x3d0c91c2	0.034318693
71	0x3e2d8a8e	0.16947386
72	0x3dc7e6ad	0.09760795
73	0xbd6a6470	-0.05722469
74	0x3eb064f7	0.3445203
75	0x3e37f5e6	0.17964897
76	0x3e006ea3	0.12542205
77	0x3c873882	0.016506437
78	0xbddabec1	-0.10680915
79	0xbd409d01	-0.04702473
80	0x3e042496	0.12904581
81	0xbe15d8f3	-0.14633541
82	0xbc9648be	-0.018345233
83	0x3d3cc196	0.046083055
84	0x3e2b15f1	0.16707589
85	0x3dfeb5e4	0.12437037
86	0xbe191a66	-0.14951476
87	0x3ddac442	0.106819645
88	0x3d388576	0.045049153
89	0x3cb0ec32	0.021597002
90	0x3e0511a6	0.12995014
91	0x3dee1643	0.1162534
92	0x3e3c1aef	0.1836965
93	0x3e0bec45	0.13664348
94	0x3e3d883f	0.18509005
95	0x3e597a3f	0.2123804
96	0x3e3aead5	0.18253644
97	0xbc9af515	-0.018915692
98	0x3e4dc2e8	0.20093882
99	0x3ba851ef	0.0051367204
100	0x3e50a0e6	0.20373878
101	0x3da7a72c	0.081861824
102	0x3d68a6ea	0.056799807
103	0xbcfd12dc	-0.030892782
104	0x3daf3349	0.08554704
105	0xbc4f789d	-0.012663034
106	0x3e3507ab	0.17678706
107	0xbcb32585	-0.021868477
108	0x3dd6665b	0.104687415
109	0xbd1da59c	-0.038488016
110	0x3dec43ae	0.115363464
111	0xbda277d6	-0.07933013
112	0x3e911bed	0.28341618
113	0x3e392fd9	0.18084659
114	0x3e2232df	0.15839718
115	0x3d8fc9f8	0.07020944
116	0x3dc28489	0.09497935
117	0x3d5e964a	0.054342546
118	0x3dd1d0e5	0.102449216
119	0x3e5e7942	0.21725944
120	0x3cfc04db	0.030764034
121	0xbd4d45c6	-0.05011537
122	0x3e36f32f	0.17866205
123	0x3e4175fc	0.18892664
124	0x3deec0bd	0.11657856
125	0x3e06aa1f	0.13150834
126	0x3e3fa821	0.1871648
127	0x3d8b522d	0.06802783
128	0x3ea98d31	0.33115533
129	0x3d303ee1	0.043028716
130	0x3e82c2fd	0.2553939
131	0xbcedd468	-0.029031947
132	0x3dbb3d62	0.09142567
133	0xbcab4392	-0.020906243
134	0x3cc76491	0.024339946
135	0x3e42aeec	0.1901204
136	0xbd83bbd1	-0.064323075
137	0xbe7a18f8	-0.24423587
138	0x3d6fa778	0.05850932
139	0x3b82797e	0.003981768
140	0x3e27d5e1	0.16390182
141	0x3df55a95	0.11980168
142	0x3deb9add	0.11504147
143	0xbdd1a665	-0.10236815
144	0xbcc871e8	-0.024468377
145	0xbdb164ed	-0.08661828
146	0x3e461daa	0.19347253
147	0x3e52629c	0.20545429
148	0x3e467c7d	0.19383426
149	0x3e473256	0.19452795
150	0x3e25fd93	0.16210012
151	0x3e83215e	0.25611395
152	0x3baf9b45	0.0053590857
153	0x3e3ef646	0.18648633
154	0xbda25d94	-0.07928005
155	0x3dbffee6	0.0937479
156	0x3dad8234	0.084721
157	0xbd690666	-0.056890868
158	0x3d951629	0.07279617
159	0x3d60a518	0.054844946
160	0xbdb81eb7	-0.089902334
161	0x3e0b15c3	0.1358252
162	0x3e6a5b5c	0.22886413
163	0x3e66b4c5	0.22529896
164	0x3d300ffb	0.04298399
165	0xbb692445	-0.0035574597
166	0x3e5255b8	0.20540512
167	0x3e596e74	0.21233541
168	0x3cec602b	0.02885445
169	0x3e039047	0.12848006
170	0x3d41c5c6	0.047307752
171	0xbe049518	-0.129475
172	0x3ce10a44	0.027470715
173	0xbdc17c6c	-0.0944756
174	0xbdeaca99	-0.11464424
175	0xbe0eec90	-0.13957429
176	0xbdbe52e8	-0.09293157
177	0x3e44e555	0.19228108
178	0x3e102550	0.14076734
179	0xbd88896a	-0.06666835
180	0x3d84a947	0.064775996
181	0xbd29b898	-0.041435808
182	0x3e518cfe	0.2046394
183	0x3dc9f888	0.09861857
184	0x3d551dc6	0.052030347
185	0xbe1134d1	-0.14180304
186	0x3e1fa502	0.15590289
187	0xbcde9161	-0.027168931
188	0xbdbe8edc	-0.09304592
189	0x3da9b7aa	0.08286984
190	0xbe31ed50	-0.17375684
191	0x3dd89f1e	0.10577224
192	0xbe3e47d7	-0.18582092
193	0x3d62255f	0.05521142
194	0x3e2dd5fc	0.1697616
195	0xbce1dd3b	-0.027571311
196	0xbda21c55	-0.0791556
197	0x3e081711	0.13290049
198	0xbd837ec4	-0.06420663
199	0xbdea4ad0	-0.114400506
200	0x3e039668	0.12850344
201	0x3e38616b	0.18005912
202	0xbcca4bf6	-0.024694424
203	0x3db74125	0.08947972
204	0xbdf4de46	-0.11956458
205	0xbe128ea0	-0.1431222
206	0x3e635715	0.22201188
207	0x3e4b1a6c	0.19834298
208	0x3c54b7b9	0.012983256
209	0x3e3343ad	0.17506285
210	0x3cbae039	0.022811996
211	0x3e462d59	0.19353236
212	0x3e6125a1	0.2198701
213	0x3d3a60f4	0.045502618
214	0x3d525c44	0.051357523
215	0x3e3b0bcc	0.18266219
216	0x3dba901e	0.091095194
217	0xbb5c0ca9	-0.0033576882
218	0x3b1304fd	0.0022433393
219	0xbdb62d1a	-0.08895321
220	0x3ca8f28f	0.020623473
221	0x3e868e85	0.2628061
222	0x3da03741	0.07823039
223	0xbc72c391	-0.0148171345
224	0xbd70b749	-0.058768544
225	0x3cc51bd1	0.024061115
226	0x3e55c15a	0.20874539
227	0x3e204e25	0.1565481
228	0x3de28044	0.11059621
229	0xbe2adafa	-0.16685095
230	0xbd129f4a	-0.03579644
231	0xbd8b1a15	-0.06792084
232	0xbdf63240	-0.12021303
233	0xbdaa8224	-0.083256036
234	0xbe381125	-0.1797529
235	0xbdfce642	-0.12348606
236	0x3d38be52	0.04510338
237	0x3e177275	0.14789756
238	0x3e14f09e	0.14544913
239	0x3dff5dde	0.124690756
240	0xbde15626	-0.1100276
241	0xbc6295b7	-0.01382964
242	0x3d96de1d	0.073665835
243	0xbd89dc67	-0.067314915
244	0x3daaaacd	0.08333359
245	0x3d0883d8	0.03332886
246	0x3ce2a7f0	0.02766797
247	0x3e382ced	0.17985888
248	0xbd8c9f8b	-0.06866368
249	0x39a9b0c7	0.000323659
250	0x3ca13ac9	0.019681351
251	0x3d422642	0.047399767
252	0x3e2d7380	0.16938591
253	0x3d25eef9	0.040511105
254	0xbd4ccd02	-0.0500002
255	0x3d2ee8f6	0.042702638

actor.actor.2.weight f4 [256, 512]
0	0xbdab2085	-0.08355812
1	0xbdba4eee	-0.09097086
2	0xbda4970c	-0.080366224
3	0x3d8f71de	0.0700414
4	0xbd685af7	-0.056727376
5	0x3d56109f	0.052261945
6	0x3c922224	0.017838545
7	0x3de904b1	0.11377848
8	0x3d6193e9	0.0550727
9	0xbe108074	-0.14111501
10	0xbc84ba95	-0.01620225
11	0xbe04cf36	-0.1296967
12	0x3b83cc04	0.0040221233
13	0x3d6ef727	0.05834117
14	0x3d62f846	0.055412553
15	0x3d248703	0.04016782
16	0x3cc59105	0.024117002
17	0xbdbda928	-0.092607796
18	0xbc878437	-0.016542537
19	0x3cbf9483	0.023386246
20	0xbd6e6544	-0.058202043
21	0xbcb50c12	-0.022100482
22	0xbe131beb	-0.14366119
23	0xbd876b49	-0.0661226
24	0x3bbfef82	0.005857409
25	0x3c4390be	0.011936365
26	0x3dbb5f09	0.09148986
27	0x39f2031f	0.00046160162
28	0xbe02c2a0	-0.12769556
29	0xbe1cffa7	-0.15331899
30	0xbce37434	-0.02776537
31	0x3cf9eacc	0.030507468
32	0xbca6d049	-0.02036299
33	0xbd073237	-0.033006873
34	0x3c6d72e8	0.014492728
35	0x3c7c49ea	0.015398482
36	0x3e1ff1d0	0.15619588
37	0x3ae49b10	0.0017441232
38	0x3d5478a3	0.05187286
39	0x3b74ade1	0.0037335085
40	0x3bb244f2	0.005440348
41	0x3c12c6ab	0.008958499
42	0x3cdc4ea4	0.026892968
43	0x3cb52dbb	0.022116533
44	0x3c9569cf	0.01823893
45	0x3ca734c8	0.02041091
46	0x3bda9180	0.006670177
47	0xbccb42fc	-0.024812214
48	0xbda60e37	-0.0810818
49	0xbe060e2f	-0.13091348
50	0x3c87b074	0.016563632
51	0x3d45d1da	0.048295833
52	0xbdd057bb	-0.10172983
53	0xbd4fd37b	-0.050738793
54	0x3c84c247	0.01620592
55	0xbd00072a	-0.031256832
56	0x3a017e23	0.00049397553
57	0x3d4936d8	0.04912457
58	0xbd8aa54b	-0.067698084
59	0x3d619053	0.05506928
60	0x3c976732	0.018481825
61	0x3dcae790	0.09907448
62	0x3d3ff079	0.046860192
63	0xbdd4e062	-0.1039436
64	0x3df64366	0.12024574
65	0xbc9e2ef5	-0.0193095
66	0xbd1f7432	-0.03892917
67	0xbd9ed665	-0.07755736
68	0x3dd97216	0.10617463
69	0xbd5ba31c	-0.05362235
70	0x3cffed85	0.031241188
71	0x3ca25dd0	0.019820124
72	0x3b932011	0.0044899066
73	0x3daddf68	0.08489877
74	0xbde58572	-0.11207093
75	0xbd5c18c4	-0.053734556
76	0xbd87317a	-0.06601234
77	0x3d0b2ad3	0.033976387
78	0x3d142459	0.036167476
79	0xbce804ed	-0.028322661
80	0x3d82d0c5	0.06387476
81	0x3dea2f58	0.11434811
82	0xbdb6e84d	-0.089310266
83	0xbd9422a7	-0.07233172
84	0x3d289012	0.04115302
85	0xbc1a3abd	-0.009413418
86	0xbd0555f6	-0.032552682
87	0x3d2e1e99	0.04250965
88	0x3deeeff7	0.116668634
89	0xbd3c9705	-0.04604246
90	0xbc66ad66	-0.014079427
91	0x3cf2286e	0.029560294
92	0xbdfcca0e	-0.123432264
93	0x3d9ca6b2	0.07648982
94	0xbc0e90de	-0.008701531
95	0xbdee54fe	-0.11637305
96	0x3c21fdbe	0.009887157
97	0x3d71e52b	0.059056442
98	0x3e117fd9	0.14208926
99	0x3d9b7e42	0.07592441
100	0x3dae91e5	0.08523921
101	0xbb95f45e	-0.00457625
102	0x3e1fbb80	0.1559887
103	0xbb4efec4	-0.0031584958
104	0x3d96a76e	0.073561534
105	0xbd36feb5	-0.0446765
106	0x3d8be08d	0.06829939
107	0x3d6235e1	0.055227164
108	0xbdc3d7b6	-0.09562628
109	0xbdf5d583	-0.12003615
110	0xbc47fa32	-0.012205647
111	0x3bd3de60	0.006465718
112	0xbd97bd8b	-0.07409199
113	0xbc4426c7	-0.011972136
114	0xbd1b4f7a	-0.03791759
115	0xbe2a707c	-0.16644472
116	0xbd79510e	-0.060868315
117	0xbd574cdc	-0.052563533
118	0xbd351ec7	-0.044218805
119	0xbda4f2c8	-0.08054119
120	0xbd891b9b	-0.066947185
121	0x3daefa8c	0.08543882
122	0x3cc23cd3	0.023710644
123	0x3c4eca38	0.012621455
124	0xbddd558b	-0.10807332
125	0xbe049d1f	-0.12950562
126	0xbdb5aba6	-0.0887063
127	0xbdb3dce0	-0.08782363
128	0x3d42e648	0.047582895
129	0x3d2f5bc6	0.04281213
130	0xbdbf95b0	-0.093547225
131	0xba920131	-0.0011139271
132	0x3cf0b242	0.029381875
133	0xbd5a3e3c	-0.053282008
134	0xbd779048	-0.06044033
135	0xbd9130ed	-0.0708941
136	0x3d7127a1	0.058875684
137	0x3d6da7a2	0.058021195
138	0x3bb1b7ff	0.0054235454
139	0x3de89caa	0.11358006
140	0x3d860b19	0.065450855
141	0xbc96e3d9	-0.018419193
142	0xbde9165c	-0.11381218
143	0xbccc5a67	-0.024945451
144	0x3d0e38cb	0.03472213
145	0x3865158f	5.4617933e-05
146	0x3b896ca2	0.0041938582
147	0xbca02499	-0.019548701
148	0xbdf90a9b	-0.12160226
149	0x3e18dafe	0.14927289
150	0xbcc7c3e0	-0.024385393
151	0x3c878e00	0.016547203
152	0x3caeb115	0.021324674
153	0x3ca1130b	0.0196624
154	0xbd4c0001	-0.04980469
155	0x3d783c05	0.060604114
156	0x3c5a91fa	0.013340468
157	0xbdb7f56f	-0.089823596
158	0xbddc3118	-0.107515514
159	0x3ca2c670	0.019870013
160	0x3d0ef7aa	0.03490416
161	0xbc71a639	-0.014749103
162	0xbd066e07	-0.032819774
163	0x3cabbcae	0.020963993
164	0xbc925260	-0.017861545
165	0xbdab9f85	-0.08380035
166	0xbdbfe233	-0.09369316
167	0xbdfc7e6c	-0.123288006
168	0xbe2377bf	-0.15963648
169	0xbcc17d48	-0.023619309
170	0x3ca94496	0.020662587
171	0x3e073cd8	0.13206804
172	0x3d0e1d47	0.03469589
173	0xbd76944c	-0.06020002
174	0xbd92db46	-0.07170729
175	0xbce25383	-0.027627712
176	0xbc832c83	-0.016012436
177	0xba9a9811	-0.0011794587
178	0xbca8e23e	-0.020615693
179	0xb811830c	-3.469274e-05
180	0xbd49c197	-0.049256887
181	0x3c0feddb	0.0087847365
182	0x3cfb0cfd	0.030645842
183	0x3cc91202	0.02454472
184	0xbcd2f0b1	-0.025749536
185	0x3e017e36	0.12645802
186	0x3dce6b8e	0.10079108
187	0x3e014940	0.12625599
188	0x3dc92301	0.098211296
189	0x3deb30bc	0.11483905
190	0x3e1be3e0	0.15223646
191	0x3debc7e5	0.11512736
192	0x3c85f75c	0.016353302
193	0x3de40b5b	0.111349784
194	0x3da4ddc5	0.08050112
195	0xbda6707e	-0.08126925
196	0x3d55f3c1	0.052234415
197	0x3d9c6f37	0.076384
198	0x3e0e08fe	0.13870618
199	0xbdf4a762	-0.11945988
200	0xbdfb6db9	-0.12276787
201	0xbe2f65d2	-0.17128685
202	0xbb4048c8	-0.0029340256
203	0xbdd66346	-0.10468154
204	0xbd69646d	-0.05698054
205	0xbce4bda3	-0.027922457
206	0xbda40018	-0.080078304
207	0xbd1f14fa	-0.038838364
208	0x3d207137	0.03917047
209	0xbdd38c8a	-0.1032954
210	0x3c8fb211	0.017540963
211	0xbd7e3cf6	-0.062069856
212	0xbc902c86	-0.017599355
213	0x3df373fa	0.11887355
214	0xbdbcd4e4	-0.09220293
215	0xbccd0cdb	-0.025030544
216	0xbc97585d	-0.018474752
217	0xbe16ba39	-0.14719476
218	0x3cbe6759	0.02324264
219	0x3bd1d992	0.00640411
220	0x3bca85ee	0.0061805164
221	0x3ad3b2ed	0.0016151346
222	0xbd43e288	-0.04782346
223	0x3d931b38	0.07182926
224	0x3dbe4645	0.092907466
225	0x3c695312	0.014240997
226	0xbdf78bb7	-0.12087195
227	0x3d992be8	0.074790776
228	0x3cd2b5c6	0.025721442
229	0x3e2f9bbd	0.17149253
230	0x3d0aabaa	0.033855118
231	0xbda8558e	-0.08219443
232	0xbd16a4b2	-0.03677816
233	0x3cdea2fb	0.027177325
234	0xbc37a239	-0.0112081105
235	0x3de3f521	0.11130739
236	0x3d8632ad	0.065526344
237	0xbb5ae45e	-0.0033400278
238	0xbdc136bb	-0.09434267
239	0x3e02e7fa	0.12783805
240	0x3c185973	0.00929867
241	0x3d243a50	0.040094674
242	0xbde81da8	-0.113337815
243	0xbda20a49	-0.07912118
244	0xbd84ff28	-0.0649398
245	0x3d816384	0.06317809
246	0xbcb23bca	-0.021757025
247	0x3c955d71	0.018233033
248	0x3de51c64	0.11187056
249	0xbd40d11a	-0.047074415
250	0xbc847125	-0.016167233
251	0x3d0d9243	0.034563314
252	0x3d1ab859	0.037773464
253	0x3d873d43	0.066034816
254	0x3d5c877b	0.05384014
255	0x3dce67df	0.100784056

actor.actor.2.bias f4 [256]
0	0xbde4f73c	-0.11179969
1	0xbdcc0c39	-0.09963269
2	0xbc9e3aa7	-0.019315077
3	0xbd615c6c	-0.05501978
4	0x3d372fbd	0.04472326
5	0x3c252184	0.0100787915
6	0xba938a53	-0.0011256434
7	0x3cb8c45f	0.022554575
8	0xbddb6363	-0.10712316
9	0xbc4822db	-0.012215341
10	0xbd80753f	-0.06272363
11	0x3d554ba2	0.052074082
12	0xbd479cd1	-0.048733536
13	0x3c25f236	0.010128548
14	0xbd30bd40	-0.043149233
15	0x3c9fbd98	0.019499585
16	0x3b327b80	0.0027234256
17	0xbd03bb5f	-0.032161113
18	0x3cad293b	0.021137824
19	0x3d7e5e32	0.06210155
20	0xbcf63f0a	-0.030059356
21	0xbdd368a9	-0.10322697
22	0xbe172368	-0.147596
23	0xbd3012be	-0.042986624
24	0x3c72925f	0.014805405
25	0xbd6a69e8	-0.057229906
26	0x3d80e38c	0.06293401
27	0xbd77ad84	-0.06046821
28	0xbd612cf8	-0.054974526
29	0x3e10b77d	0.14132495
30	0xbd5392d7	-0.05165371
31	0xbc86e9d3	-0.016468918
32	0xbd582bb7	-0.052776065
33	0x3ca31459	0.019907163
34	0xbd002c57	-0.031292286
35	0xbabeb6c6	-0.001455032
36	0x3dbecf2d	0.093168594
37	0xbd52b081	-0.05143786
38	0xbbae0ef7	-0.0053118425
39	0x3ca3b242	0.01998246
40	0x3c5d40e1	0.013504238
41	0x3cee95a4	0.029124089
42	0xbd52929f	-0.05140936
43	0xbcc49336	-0.023995977
44	0xbd4c04d9	-0.04980931
45	0xbbd3fe06	-0.006469491
46	0xbd97ebc8	-0.074180186
47	0xbd5cdbed	-0.053920675
48	0xbd13bae2	-0.036066897
49	0x3d1cf708	0.038321525
50	0xbd209528	-0.039204746
51	0x3c298ba2	0.010348232
52	0xbd1f5447	-0.038898733
53	0x3d248790	0.040168345
54	0xbd145209	-0.036211047
55	0x3d392f31	0.04521102
56	0xbde01180	-0.10940838
57	0xbdb59abc	-0.08867404
58	0x3bc705b1	0.0060736765
59	0xbd9d2619	-0.07673282
60	0xbd52a28c	-0.051424548
61	0xbcbfdbd5	-0.023420254
62	0xbc531856	-0.01288422
63	0xbd57c34e	-0.05267649
64	0xbd2f80d5	-0.042847473
65	0x3c2dc315	0.010605593
66	0xbdf62a94	-0.1201984
67	0xbd3ae2eb	-0.045626562
68	0x3a58a2dc	0.0008264014
69	0x3c580de3	0.013186905
70	0x3df36ced	0.1188601
71	0xbde9a0d1	-0.114076264
72	0xbd06c606	-0.032903694
73	0xbae8e3bb	-0.0017768064
74	0xbddc487a	-0.10756011
75	0xbc8054cc	-0.015665434
76	0xbdc461d2	-0.0958897
77	0x3d45717e	0.048203938
78	0xbcb199fc	-0.02167987
79	0x3d169f24	0.036772862
80	0x3df268d1	0.118363984
81	0x3c3e235b	0.011605109
82	0xbd9f781e	-0.077865824
83	0x3cea5d6a	0.028608996
84	0x3bbf75bb	0.005842892
85	0xbcf843f1	-0.030305834
86	0x3a8de94f	0.0010826978
87	0x3d6ea15b	0.05825935
88	0xbc830c20	-0.015996993
89	0xbc458c1b	-0.0120573295
90	0xbca1d603	-0.019755369
91	0xbd810caf	-0.06301247
92	0x3c09e4d2	0.008416371
93	0xbd0aacf2	-0.03385634
94	0xbbf06bc1	-0.007337064
95	0xbdd97631	-0.10618246
96	0xbdd2bd1b	-0.10289975
97	0xbcbf067c	-0.023318522
98	0xbc6e5285	-0.014546041
99	0xbd59e0e9	-0.053193007
100	0xbd6485b5	-0.055791575
101	0x3e62470a	0.22097412
102	0xbd064fdc	-0.032791004
103	0x3e567957	0.20944725
104	0xbcffd1c2	-0.03122795
105	0x3c239ab1	0.009985612
106	0xbbdf5097	-0.006815027
107	0xbd07f52b	-0.033192795
108	0xbd94563c	-0.072430104
109	0x3cedd861	0.029033842
110	0xbb9112dd	-0.0044272975
111	0xbd8930a9	-0.06698734
112	0xbc836f99	-0.016044425
113	0x3c4bd9ac	0.012442034
114	0x3b92be6b	0.004478266
115	0xbce2274e	-0.027606633
116	0xbce741fa	-0.028229702
117	0x3d85f3a3	0.06540611
118	0x3aa8514a	0.0012841609
119	0xbd33a34e	-0.04385691
120	0xbc4c6b3e	-0.01247674
121	0xba150cee	-0.00056858256
122	0xbc7a80c6	-0.015289491
123	0xbd0ce355	-0.03439649
124	0xbccc22cf	-0.024918942
125	0xbd906f54	-0.07052484
126	0x3d71414e	0.05890017
127	0x3c039c81	0.008032919
128	0xbd4afc91	-0.049557272
129	0xbd42908f	-0.047501143
130	0xbe05e03b	-0.13073818
131	0xbd6e626d	-0.058199335
132	0xbd1a201f	-0.03762829
133	0xbcac961d	-0.021067673
134	0xbd412c47	-0.047161367
135	0x3d51ee4b	0.051252645
136	0xbdd9c296	-0.106328174
137	0x3e1b843b	0.1518716
138	0xbd1958b5	-0.037438113
139	0x3d28558c	0.04109721
140	0xbdb2efe6	-0.08737163
141	0xbac2b218	-0.0014854101
142	0xbc73de2c	-0.014884513
143	0xbd88d40f	-0.06681072
144	0xbcadd3a0	-0.021219075
145	0xbd779264	-0.060442343
146	0x3c344a55	0.01100405
147	0xbcd38616	-0.025820773
148	0x3c85cf12	0.01633409
149	0xbc6c3161	-0.01441607
150	0x3d680989	0.05664972
151	0xbd9c34b7	-0.07627242
152	0x3afc4278	0.0019245883
153	0x3d8b29de	0.06795095
154	0x3e515c3e	0.20445344
155	0x3bacf3aa	0.0052780705
156	0xbdc531a2	-0.09628607
157	0x3cf055cf	0.029337792
158	0xbcbac251	-0.022797735
159	0xbcc24969	-0.023716645
160	0x3d468277	0.048464265
161	0xbde44e0e	-0.111477
162	0xbd0835a3	-0.033254277
163	0xbc8dd63b	-0.017314067
164	0x3d5825ff	0.05277061
165	0x3b0ff4c0	0.002196595
166	0xbc8a6b81	-0.016896965
167	0x3dcd3391	0.10019601
168	0x3ca2edb2	0.019888733
169	0xbcf18a60	-0.029484928
170	0xbd0552ea	-0.032549776
171	0x3b97866f	0.00462418
172	0xbd1eacc7	-0.038738992
173	0xbc6318ef	-0.013860925
174	0xbd359964	-0.044335738
175	0xbcd984d5	-0.026552597
176	0xbd142dfe	-0.036176674
177	0x3d34d14f	0.044144925
178	0xbc65a8c7	-0.01401729
179	0xbd08d446	-0.033405565
180	0xbdef6ba4	-0.11690453
181	0xbd4edcbd	-0.05050348
182	0x3c0ab265	0.008465384
183	0xbb1c46bd	-0.0023845874
184	0xbdb5ee82	-0.088833824
185	0xbd49b199	-0.049241636
186	0x3cdf5046	0.027259957
187	0xbd61c701	-0.055121426
188	0xbd694e20	-0.05695927
189	0xbdc54e64	-0.096340925
190	0xbcfe2b7e	-0.031026598
191	0xbcf28e3d	-0.02960884
192	0xbd8c27a9	-0.06843502
193	0xbd815145	-0.06314329
194	0x3bb53a14	0.005530605
195	0xbdec9683	-0.11552145
196	0xbcf55c3f	-0.029951213
197	0x3d70c417	0.058780756
198	0xbcb5de57	-0.022200746
199	0xbd0c20b9	-0.034210894
200	0x3d9b9dcc	0.07598457
201	0xbaaf29e0	-0.001336392
202	0xbd27c02b	-0.04095475
203	0xbda22847	-0.079178385
204	0xbdaec233	-0.08533134
205	0xbd68b2cd	-0.056811143
206	0xbdc9265a	-0.09821768
207	0x3caa9916	0.02082495
208	0xbd42df65	-0.047576327
209	0xbd030df7	-0.03199574
210	0x3d834a35	0.06410638
211	0xbcf5d06c	-0.03000661
212	0xbd6a7e70	-0.057249486
213	0xbd210b1a	-0.039317228
214	0xbd8624c9	-0.06549985
215	0x3d41b29a	0.04728947
216	0xbd325117	-0.043534365
217	0xbda153ba	-0.07877298
218	0xbd1548f1	-0.036446515
219	0x3cdbac45	0.026815543
220	0xbd8be016	-0.068298504
221	0xbd716ae6	-0.058939837
222	0xbd69d5b2	-0.05708856
223	0xbcc8546b	-0.024454316
224	0xbda639dc	-0.081165045
225	0x3d45990e	0.048241667
226	0xbd5e1410	-0.05421835
227	0xbcfdb245	-0.030968795
228	0xbd10841d	-0.035282243
229	0x3d8fbc27	0.07018309
230	0xbd94ddaa	-0.072688416
231	0xbd632dbe	-0.055463545
232	0xbdb29ff4	-0.08721915
233	0xbd89ef2c	-0.067350715
234	0xbd386585	-0.04501869
235	0x3bfcf5ef	0.0077197473
236	0xbcd1d48d	-0.025614047
237	0xbba07012	-0.0048961723
238	0x3cc7250e	0.024309661
239	0xbd1b33db	-0.03789125
240	0x3c8970d6	0.016777437
241	0xbcb4bd0a	-0.022062797
242	0x3c5e65ee	0.013574107
243	0xbd9b98b0	-0.07597482
244	0xbd36970b	-0.04457764
245	0xbdbc8149	-0.09204347
246	0xbca60434	-0.020265676
247	0xbdc37581	-0.095438965
248	0xbd832fa3	-0.0640557
249	0xbd24307a	-0.040085293
250	0xbd290d4e	-0.041272454
251	0x3e25d764	0.16195446
252	0x3d858e1f	0.06521248
253	0x3c59a09e	0.013282923
254	0xbb12e3d6	-0.0022413633
255	0xbd04d722	-0.03243173

actor.actor.4.weight f4 [128, 256]
0	0xbe01421f	-0.1262288
1	0x3d8ec2fa	0.069707826
2	0xbd0ebc3f	-0.034847494
3	0x3d0e0eb8	0.034682006
4	0xbd01360f	-0.031545695
5	0xbe02908c	-0.12750453
6	0xbc6f8830	-0.014619872
7	0x3c90839b	0.01764088
8	0xbdc694f4	-0.09696379
9	0x3cb8ef65	0.02257509
10	0x3a871788	0.0010306695
11	0x3dda992a	0.10673745
12	0x3d949f77	0.07256978
13	0xbdcd9285	-0.10037712
14	0xbdde56ce	-0.108564004
15	0x3d987ad5	0.07445303
16	0x3d542cf3	0.05180068
17	0x3d823e24	0.06359509
18	0xbdcee95f	-0.10103106
19	0xbc7ad1a0	-0.015308768
20	0x3c3ee848	0.01165206
21	0xbc7180b3	-0.014740157
22	0x3dc2f3cd	0.095191576
23	0x3c75cf57	0.015003047
24	0xbdeadc38	-0.11467785
25	0xbc20f262	-0.009823414
26	0xba5e5484	-0.0008481222
27	0x3cfe363b	0.031031718
28	0xbcd19660	-0.0255844
29	0xbe3972f8	-0.18110263
30	0x3cc79e82	0.024367575
31	0x3e00d19a	0.12579957
32	0x3ca17cce	0.019712832
33	0x3d784cca	0.060620107
34	0xbe3efef9	-0.18651952
35	0xbd011c07	-0.03152087
36	0xbe0eadcf	-0.1393349
37	0xbd91b274	-0.07114115
38	0x3d17b1d3	0.03703482
39	0xbc946855	-0.018116156
40	0x3d1281c3	0.03576828
41	0x3d84b02f	0.06478917
42	0xbe1cd4cf	-0.15315555
43	0x3b2c3ec3	0.0026282526
44	0x3d88400a	0.066528395
45	0x3c76293c	0.0150244795
46	0xbbd1be2e	-0.006400845
47	0x3d5c0bcd	0.05372219
48	0x3cc2a8c0	0.023762107
49	0x3d12c495	0.035832006
50	0xbd3541b6	-0.04425212
51	0x3dc102a2	0.0942433
52	0x3ca4b1cb	0.02010431
53	0xbc380ce1	-0.011233539
54	0xbd4b7e80	-0.049681187
55	0x3c80ab37	0.015706642
56	0xbbc6e009	-0.0060691875
57	0xbde44bcc	-0.111472696
58	0xbd0a66fa	-0.033789612
59	0xbdf08465	-0.11744002
60	0xbc2e0f2a	-0.010623733
61	0xbd939402	-0.072059646
62	0x3d347096	0.044052683
63	0x3db8f05d	0.09030221
64	0x3d9750d5	0.07388464
65	0x3d7550fc	0.059891686
66	0xbdf02041	-0.11724902
67	0x3cfa94fd	0.030588621
68	0x3d7bee0d	0.06150632
69	0xbe4324e4	-0.19057041
70	0xbd2aa2a0	-0.041658998
71	0x3d140bb2	0.036143966
72	0xbcd8dc80	-0.02647233
73	0x3d21873b	0.039435606
74	0xbe1ae83c	-0.15127653
75	0xbe060012	-0.13085964
76	0x3ccbe069	0.02488728
77	0x3df7a943	0.12092831
78	0xbdd3d985	-0.10344223
79	0x3d73f2d2	0.059557743
80	0xbe21ec5e	-0.15812823
81	0x3d683148	0.056687623
82	0xbe01ac30	-0.1266334
83	0xbe4ebfa8	-0.20190299
84	0x3cb78725	0.02240331
85	0xbd08e9fd	-0.033426274
86	0xbe56c4e0	-0.2097354
87	0xbda744ad	-0.08167396
88	0xbd9be4a9	-0.07611973
89	0xbd6ca28a	-0.057772197
90	0x3d18ba29	0.03728691
91	0xbd4c7993	-0.04992063
92	0x3e1a0a00	0.15042877
93	0x3e0b2b33	0.13590698
94	0x3dc2cb08	0.095113814
95	0xbe046e67	-0.1293274
96	0xbd9291fd	-0.07156751
97	0xbc10e1e4	-0.008842919
98	0xbce59045	-0.028022895
99	0xbcdc67fc	-0.026905052
100	0x3dc10ea2	0.09426619
101	0xbf085dbf	-0.53268045
102	0xbdda99d8	-0.106738746
103	0xbef66174	-0.48121226
104	0x3a5679c4	0.00081815966
105	0xbbebaa5e	-0.00719194
106	0x3df75d69	0.120783634
107	0xbd3feb70	-0.04685539
108	0x3b3806f4	0.0028080316
109	0x3d5fd64d	0.054647733
110	0x3bcbfbd1	0.006225087
111	0xbd8bd923	-0.06828525
112	0x3d1cb1fa	0.03825567
113	0x3da99934	0.08281174
114	0x3e009ca4	0.12559754
115	0x3da2586d	0.07927022
116	0xbdecf38c	-0.115698904
117	0xbe975d41	-0.29563335
118	0xbb6a318a	-0.0035735094
119	0x3d54f541	0.051991705
120	0x3daca1ab	0.08429273
121	0xbd3188f9	-0.043343518
122	0xbddbea33	-0.10738029
123	0xbe406bcc	-0.18791121
124	0x3dba85c5	0.09107546
125	0xbe72ff57	-0.23730217
126	0x3bd9d0f8	0.0066472255
127	0xbd0e0b00	-0.03467846
128	0x3d779faf	0.06045502
129	0x3db5646b	0.08857044
130	0xbd6873aa	-0.05675093
131	0xbd3d44d4	-0.046208218
132	0x3c9461e2	0.01811308
133	0xbdef82b3	-0.11694851
134	0xbb83f316	-0.004026781
135	0x3d37793f	0.044793364
136	0xbdbb7c4c	-0.09154567
137	0xbf0547d7	-0.52062744
138	0xbdeb81ed	-0.11499391
139	0xbcc50cba	-0.02405392
140	0xbd0d74c2	-0.034535177
141	0x3c6206cf	0.013795569
142	0xbdbb2b85	-0.0913916
143	0xbdac9091	-0.08426011
144	0xbc5095fb	-0.012731071
145	0xbc36543b	-0.011128481
146	0x3d2124ba	0.039341666
147	0xbdb01150	-0.08597052
148	0xbd7d787c	-0.06188248
149	0x3d97347c	0.073830575
150	0xbe1ea920	-0.15494204
151	0xbd443431	-0.047901336
152	0xbd8c11fe	-0.06839369
153	0x3da556f1	0.080732234
154	0xbeddde0a	-0.43333465
155	0x3db20f8e	0.08694373
156	0xbba02285	-0.0048869275
157	0xbd95464c	-0.07288799
158	0x3c773d7f	0.015090345
159	0x3e164e55	0.14678319
160	0x3c40574a	0.011739561
161	0xbd1f9328	-0.0389587
162	0xbde5b8eb	-0.11216911
163	0xbdfa9ebf	-0.1223731
164	0xbd74fbff	-0.059810635
165	0xbccb5940	-0.024822831
166	0xbd17f7e1	-0.03710163
167	0xbe852393	-0.26003703
168	0x3d224473	0.03961606
169	0xbd8ed35b	-0.069739066
170	0xbda16e01	-0.0788231
171	0x3d2eeb1f	0.042704698
172	0xbc192507	-0.009347207
173	0xbd4c3bcd	-0.049861718
174	0xbe221383	-0.15827756
175	0xbe1398d6	-0.14413771
176	0x3cf32241	0.02967942
177	0x3d8e25aa	0.069407776
178	0xbd6b5da3	-0.057462346
179	0xbca822cd	-0.020524407
180	0xbe127931	-0.14304043
181	0xbcaf9cb2	-0.021437023
182	0xbc65213b	-0.013984974
183	0xbdb6cab6	-0.08925383
184	0xbd3c4897	-0.045967665
185	0x3d35684c	0.04428892
186	0xba8159a2	-0.0009868632
187	0x3d7512b2	0.059832282
188	0xbd0e64fe	-0.034764282
189	0xbd83b49b	-0.06430932
190	0x3d918efc	0.0710735
191	0xbe090548	-0.13380921
192	0x3d3b9446	0.0457957
193	0xbd9e0a7b	-0.07716843
194	0xbe0de42f	-0.13856576
195	0xbcb80e9d	-0.022467906
196	0x3d375592	0.04475934
197	0xbdbab6b3	-0.09116878
198	0xbda4779f	-0.080306284
199	0xbd895591	-0.067057736
200	0x3d98643f	0.074409954
201	0x3d0e12d4	0.034685925
202	0xbc21f9c6	-0.009886211
203	0x3d21668a	0.03940443
204	0xbd019a54	-0.03164132
205	0xbd16430f	-0.036685046
206	0x3d5e659e	0.05429613
207	0x3c780b4f	0.015139415
208	0xbe204acb	-0.15653531
209	0xbb652f31	-0.0034970755
210	0xb8098828	-3.279015e-05
211	0xbd7c8a43	-0.061655294
212	0xbcdfbd05	-0.027311811
213	0xbe049370	-0.12946868
214	0xbd038044	-0.032104746
215	0xbdaf66fe	-0.08564566
216	0x3dcc5f7c	0.0997915
217	0x3c1d9db8	0.009620123
218	0xbb08e495	-0.0020888199
219	0x3b4e616d	0.0031491176
220	0x3cbb1358	0.022836372
221	0xbe049a1e	-0.12949416
222	0x3c6537ef	0.013990386
223	0xbe52793c	-0.2055406
224	0xbc92696f	-0.01787254
225	0xbd4ee095	-0.050507147
226	0xbddd6da6	-0.108119294
227	0x3d6fa2eb	0.05850498
228	0x3cb1b86e	0.021694388
229	0xbdcc3f5f	-0.099730246
230	0x3d4eaf45	0.05046012
231	0xbd65f448	-0.056141168
232	0xbda01612	-0.078167096
233	0xbddb0efb	-0.10696217
234	0xbb0c26c8	-0.002138542
235	0x3cc3f956	0.023922604
236	0x3d67b5d7	0.0565699
237	0xbca4698e	-0.020069864
238	0x39a8011e	0.0003204429
239	0xbd0d3839	-0.034477446
240	0xbd900dd0	-0.070338845
241	0xbd2485d6	-0.0401667
242	0xbaac4e30	-0.001314586
243	0xbe07ad60	-0.13249731
244	0xbe202110	-0.15637612
245	0xbda36094	-0.07977405
246	0x3c0aaddf	0.008464306
247	0xbd4cbebc	-0.049986586
248	0xbd85b51a	-0.06528683
249	0x3c5458aa	0.012960592
250	0x3cb1bd62	0.02169675
251	0xbeb8093c	-0.35944545
252	0xbd0aec56	-0.033916794
253	0xbd91f532	-0.071268454
254	0x3d55f8bf	0.052239176
255	0x3d10ed2f	0.035382446

actor.actor.4.bias f4 [128]
0	0x3caa5f80	0.020797491
1	0xbb027a69	-0.0019909388
2	0xbd1fddf3	-0.039030027
3	0xbdc4e342	-0.096136585
4	0x3d54a614	0.051916197
5	0xbd0b1ad1	-0.03396112
6	0x3c7fe097	0.015617511
7	0xbe225dfa	-0.15856162
8	0x3d2a253b	0.041539412
9	0x3ce17e7d	0.027526135
10	0xbd295554	-0.04134114
11	0x3ccbd408	0.024881378
12	0xbdbe5dfc	-0.0929527
13	0xbd98feca	-0.07470472
14	0x3c926781	0.01787162
15	0xbd4b1e85	-0.049589653
16	0xbd9694f7	-0.073526315
17	0xbd93fbd2	-0.07225765
18	0xbc44c286	-0.012009269
19	0x3d41c3df	0.047305938
20	0xbda75eed	-0.081724025
21	0xbb8d90d8	-0.0043202452
22	0xbdc424b0	-0.0957731
23	0xbd57095d	-0.052499164
24	0xbd44b335	-0.048022468
25	0xbda0d6a0	-0.078534365
26	0xbdeb1f46	-0.11480574
27	0x3d7216a7	0.059103634
28	0xbd2b2d93	-0.04179151
29	0xbdda7756	-0.10667293
30	0x3d239b7f	0.039943215
31	0x3ca937a4	0.020656414
32	0xbba6f073	-0.0050945817
33	0xbd870b1b	-0.06593915
34	0xbd85cd41	-0.0653329
35	0x3c378cfe	0.011203049
36	0x3cc7fd7c	0.024412863
37	0x3d8bcbdc	0.068259925
38	0x3b8d35a2	0.004309372
39	0xbcb396d5	-0.021922508
40	0xbc6d1ca7	-0.014472163
41	0xbd6d90d3	-0.057999443
42	0x3cc9f14b	0.02465119
43	0xbd229be0	-0.039699435
44	0xb9fcd244	-0.00048221846
45	0xbd9dc384	-0.07703307
46	0x3cfc22ac	0.030778252
47	0xbc876ba6	-0.016530823
48	0xbdb8f294	-0.09030643
49	0x3afa069a	0.0019075454
50	0xbca74e30	-0.020423025
51	0x3da3520f	0.07974636
52	0x3c564301	0.013077498
53	0xbd6d224c	-0.057894036
54	0xbde8560b	-0.113445364
55	0xbc991105	-0.018684873
56	0xbd01f055	-0.03172334
57	0xbd4f2d26	-0.050580166
58	0xbd8dd5e5	-0.06925563
59	0xbd5c4bce	-0.05378323
60	0xbdfbb23d	-0.12289856
61	0xbd8cd22b	-0.06876024
62	0xbd2c5192	-0.04206998
63	0xbd8c2b26	-0.068441674
64	0xbb36a406	-0.0027868762
65	0xbd92b844	-0.07164052
66	0x3baa7fba	0.0052032145
67	0x3cef81c3	0.02923668
68	0xbd840762	-0.06446721
69	0xbe13d7bf	-0.1443777
70	0x3c7d25b9	0.015450888
71	0xbd53685e	-0.051613204
72	0x3d2dc621	0.04242528
73	0x3c76b777	0.01505839
74	0x3bfceefd	0.0077189193
75	0xbc953ae6	-0.018216562
76	0xbd5df744	-0.05419089
77	0x3c476f4d	0.012172532
78	0x3c2fdf98	0.010734461
79	0xbd5d88b6	-0.054085456
80	0x3c3fb7d2	0.011701541
81	0xbdeb621f	-0.114933245
82	0xbcb7e439	-0.022447692
83	0xbdc6a37a	-0.096991494
84	0x3aaa146a	0.0012976055
85	0xbdd7980b	-0.10527047
86	0x3ca364ed	0.019945586
87	0xbd3ea6ef	-0.04654592
88	0xbd5e49af	-0.05426949
89	0xbd352b8e	-0.04423099
90	0xbdafdcd1	-0.08587039
91	0xbd04fff7	-0.03247067
92	0xbda3e4fc	-0.0800266
93	0xbbd3c1c7	-0.006462309
94	0x3bb35207	0.005472425
95	0xbdc72be9	-0.09725172
96	0xbd99b5ba	-0.07505365
97	0x3d02296a	0.031777777
98	0x3c65bf9c	0.014022734
99	0xbcc428ed	-0.023945296
100	0xbcf52f1b	-0.029929688
101	0xbd7373ff	-0.059436794
102	0xbd39c34b	-0.04535226
103	0x3d412221	0.04715169
104	0x3b5b87b3	0.003349763
105	0xbe010ec9	-0.12603296
106	0xbe07b615	-0.13253053
107	0xbca24ed3	-0.019812977
108	0xbd7edb7a	-0.062221028
109	0xbd6a7900	-0.0572443
110	0x3d5cb3a3	0.053882252
111	0xbd790d24	-0.060803548
112	0xbcdae63c	-0.026721112
113	0xbc27a904	-0.010233168
114	0x3c65f007	0.014034278
115	0x3c49bf66	0.012313699
116	0xbc88491c	-0.016636424
117	0x3bc5f3cd	0.006041026
118	0x3cd28bcb	0.025701424
119	0xbd206ce4	-0.039166346
120	0xbdbdd56b	-0.09269222
121	0xbe2b5d74	-0.16734868
122	0xbd94261b	-0.072338305
123	0xbd0bc265	-0.034120936
124	0xbd70885e	-0.0587238
125	0xbd2b6b04	-0.041850105
126	0xbd875d68	-0.06609613
127	0xbd7c2edf	-0.061568137

actor.actor.6.weight f4 [12, 128]
0	0x3c6c16e3	0.0144097535
1	0xbdaf6e85	-0.08566002
2	0xbbfe6605	-0.0077636265
3	0x3d577253	0.052599262
4	0xbcf49953	-0.029858267
5	0x3d90de45	0.070736445
6	0xbde83765	-0.11338691
7	0xbd7adcec	-0.061245844
8	0x3e6f99d9	0.23398532
9	0xbe078bd3	-0.13236932
10	0x3d95b4e0	0.0730989
11	0x3c988c31	0.018621536
12	0xbd3f6fae	-0.046737365
13	0xbd1d98c9	-0.038475785
14	0x3da262b2	0.07928981
15	0xbc7d3548	-0.015454598
16	0xbdd6c243	-0.10486271
17	0x3dad0477	0.08448117
18	0xbcdc0d38	-0.026861772
19	0x3e1bb0d6	0.15204176
20	0xbd7b6baa	-0.061381973
21	0xbd02e6ec	-0.031958506
22	0x3be15011	0.0068759997
23	0xbc1a1b25	-0.009405886
24	0x3db0cec9	0.08633191
25	0x3ccba4a7	0.024858786
26	0xbc0f7693	-0.008756298
27	0xbd84789c	-0.06468317
28	0xbd2920f6	-0.0412912
29	0xbd1661cb	-0.036714356
30	0x3afd8ce0	0.0019344352
31	0xbdabd1ac	-0.08389601
32	0x3dadd7f1	0.08488453
33	0x3d23f589	0.040029082
34	0xbc5a06ac	-0.013307255
35	0x3db77932	0.08958663
36	0x3c904b00	0.017613888
37	0x3cb58bda	0.022161413
38	0xbca9a5b0	-0.020708889
39	0x3e200aa9	0.15629067
40	0xbd704110	-0.0586558
41	0x3dc10635	0.09425012
42	0x3d00b8b1	0.031426135
43	0x3ce76391	0.02824572
44	0x3ddd9d84	0.10821059
45	0x3d8082d1	0.06274951
46	0x3d02e245	0.03195407
47	0xbc1d4653	-0.009599286
48	0xbde73446	-0.11289267
49	0x3dd3c59b	0.103404246
50	0x3c3a1673	0.011357891
51	0xbcccff4d	-0.02502408
52	0xbd9be070	-0.076111674
53	0xbced4999	-0.028965758
54	0xbcb4f16f	-0.02208778
55	0x3d6f101c	0.058364972
56	0x3d1e594f	0.03865939
57	0x3d89c985	0.0672789
58	0xbdff6a94	-0.124715
59	0x3d8c29d0	0.068439126
60	0xbc0e7977	-0.008695952
61	0x3cb8be6a	0.022551734
62	0x3c53c32f	0.012924953
63	0x3da6a12c	0.0813621
64	0xbc84bcd8	-0.016203329
65	0xbc81a77b	-0.015826931
66	0xbd59e310	-0.05319506
67	0xbd94c6b4	-0.07264462
68	0x3d23b5b3	0.039968204
69	0x3d3b3116	0.04570111
70	0xbcab33e1	-0.020898761
71	0xbc397a9c	-0.011320736
72	0x3cfaf19e	0.03063279
73	0x3caa54fc	0.020792477
74	0xbd4d4ef2	-0.050124116
75	0xbccbcab9	-0.02487694
76	0x3d91a2f0	0.07111156
77	0x3d8eafd3	0.069671296
78	0x3d858b4c	0.065207094
79	0xbd24da14	-0.040247038
80	0x3d025bce	0.031825833
81	0xbcfe6da1	-0.031058135
82	0x3d441ba0	0.047877908
83	0xbd05d326	-0.03267207
84	0xb814f444	-3.551344e-05
85	0x3da4d572	0.08048524
86	0x3c92a084	0.017898805
87	0x3de7097a	0.112811044
88	0x3d729f65	0.05923404
89	0x3def1114	0.11673179
90	0x3d944820	0.07240319
91	0x3ca9fa74	0.020749308
92	0xbd6e4f71	-0.05818123
93	0x3c1e5ab6	0.009665182
94	0xbd071594	-0.032979563
95	0xbdc07923	-0.09398105
96	0xbca3b6c0	-0.019984603
97	0xbd147033	-0.036239814
98	0xbcf09c20	-0.029371321
99	0x3dddf063	0.10836866
100	0x3b8b60ed	0.004253498
101	0xbdcd986f	-0.1003884
102	0xbc946a38	-0.018117055
103	0xbdce5ed9	-0.100766845
104	0xbdd45531	-0.103678115
105	0xbddda023	-0.10821559
106	0xbe18f8da	-0.1493868
107	0xbda62f92	-0.08114542
108	0xbd8d1a79	-0.06889815
109	0xbc419c5d	-0.011817065
110	0x3d8bf7ed	0.068343975
111	0x3cb5cc7d	0.022192234
112	0xbd95a4a1	-0.07306791
113	0xbd7fd3f5	-0.062457997
114	0x3c59595f	0.013265937
115	0x3db7bd73	0.089716814
116	0xbc991d34	-0.018690683
117	0x3da444bd	0.08020923
118	0x3c4797c2	0.012182178
119	0x3d858874	0.06520167
120	0x3d3b4146	0.045716546
121	0x3a4c2a8f	0.0007788324
122	0xbd0a5dc5	-0.03378083
123	0xbd8e89a8	-0.069598496
124	0x3d10b2f1	0.0353269
125	0x3dcb6802	0.09931947
126	0x3dd30cb0	0.10305154
127	0x3da4d753	0.08048882
128	0x3d485859	0.04891238
129	0xbd986f91	-0.074431546
130	0xbd6b0bde	-0.057384364
131	0x3d18ad04	0.037274376
132	0x3d9cbba4	0.07652977
133	0x3d40bd9a	0.04705582
134	0xbe099350	-0.13435102
135	0xbdc3d0d6	-0.09561317
136	0x3cb1f322	0.02172238
137	0x3cc7a90b	0.024372598
138	0x3d808537	0.06275409
139	0xbdaed172	-0.08536042
140	0xbd72b07d	-0.059250344
141	0x3bf43cf2	0.0074535543
142	0xbcde4599	-0.027132796
143	0x3dafa28c	0.08575925
144	0x3cf11355	0.029428164
145	0xbe3bbb74	-0.18333226
146	0xbd80924b	-0.06277903
147	0xbd94fc8a	-0.072747305
148	0x3ce0ed80	0.027456999
149	0xbe6673b3	-0.22505073
150	0xbddde31e	-0.10834335
151	0xbdafe803	-0.085891746
152	0x3dee9065	0.11648635
153	0x3d46329f	0.04838812
154	0xbc02da91	-0.007986681
155	0x3de0fe0f	0.10985958
156	0x3cb39f13	0.021926438
157	0x3d39b387	0.045337226
158	0x3d55d705	0.05220701
159	0xbdbc380a	-0.09190376
160	0x3da6772b	0.08128198
161	0xbdf1363e	-0.11777924
162	0xbe2541a4	-0.16138321
163	0xbd999612	-0.07499327
164	0xbd5262cb	-0.051363748
165	0x3da28a73	0.07936563
166	0xbda888bb	-0.08229204
167	0xbcf2f24f	-0.029656557
168	0x3d839d29	0.0642646
169	0x3d32b2b2	0.04362745
170	0x3c64de8f	0.013969078
171	0x3c19e3af	0.009392663
172	0xbd1594ad	-0.03651874
173	0xbc874893	-0.016514098
174	0x3cd26190	0.025681287
175	0x3e112f56	0.14178213
176	0x3cd29fe2	0.025711004
177	0xbd8ca993	-0.06868281
178	0xbd1b0c16	-0.037853323
179	0xbdcd6b02	-0.10030176
180	0xbcdc9a90	-0.02692917
181	0x3d4b6796	0.049659334
182	0x3db99bf0	0.09062946
183	0x3d7607c1	0.06006599
184	0x3e2787da	0.16360417
185	0xbd679fd1	-0.056548897
186	0x3d2db5c3	0.04240967
187	0x3c115500	0.008870363
188	0x3d6a6426	0.057224415
189	0x3bf357ad	0.0074262233
190	0x3d919f9b	0.071105205
191	0x3dc61602	0.096721664
192	0xbdcd826d	-0.10034642
193	0xbe3787ea	-0.17922941
194	0xbc5108bc	-0.01275843
195	0xbd6542c7	-0.055971887
196	0xbd98dd75	-0.074641146
197	0x3d6d8dd9	0.057996605
198	0x3dd41a1c	0.103565425
199	0x3d687198	0.056748956
200	0x3c035f15	0.008018275
201	0xbd109799	-0.035300825
202	0xbc6ad349	-0.014332601
203	0xbd2e2e00	-0.042524338
204	0x3d4abcfd	0.04949664
205	0x3d56c771	0.052436296
206	0x3d72821f	0.059206124
207	0x3d5099d1	0.05092794
208	0xbd815962	-0.063158765
209	0xbe16bd13	-0.14720564
210	0x3d997fad	0.07495055
211	0xbd009ace	-0.031397633
212	0xbd71874e	-0.058966927
213	0x3db9282b	0.090408646
214	0xbce3f904	-0.0278287
215	0xbe01b445	-0.12666424
216	0x3bb4f937	0.005522873
217	0x3d8f34e3	0.06992509
218	0x3d97a7d8	0.074050605
219	0x3e1bd3d8	0.1521753
220	0xbd78141e	-0.06056606
221	0x3d98cd7b	0.07461067
222	0xbc97a67e	-0.018512007
223	0x3d38c32e	0.045108013
224	0xbdb2dac1	-0.0873313
225	0xbdefbe25	-0.11706189
226	0xbd8a6d4d	-0.06759129
227	0xbc7c5f41	-0.01540357
228	0x3db590e6	0.08865528
229	0x3d28ad21	0.041180734
230	0xba8dd6cd	-0.0010821462
231	0xbc9a1576	-0.018809061
232	0x3d6eb0c3	0.05827404
233	0x3da63405	0.08115391
234	0x3d54e523	0.051976334
235	0xbd5cd7eb	-0.053916853
236	0x3da1cfb8	0.07900947
237	0x3d8ed1bc	0.069735974
238	0xbdcc9c46	-0.09990744
239	0x3c51eee3	0.012813303
240	0xbc8dab34	-0.01729355
241	0xbdacc2b7	-0.084355764
242	0xbcb207f7	-0.021732314
243	0xbd57ed5e	-0.052716605
244	0x3d7bcc91	0.061474387
245	0xbe06c366	-0.13160476
246	0xbcdec0ec	-0.027191602
247	0xbd03dfcd	-0.032195855
248	0x3d898512	0.06714834
249	0x3df83921	0.121202715
250	0x3d903fc8	0.07043415
251	0x3da1c52e	0.07898937
252	0x3d7abb9d	0.06121408
253	0xbd01ab2a	-0.031657375
254	0xbd323176	-0.0435042
255	0xbd7e2f8b	-0.06205706

actor.actor.6.bias f4 [12]
0	0x3d632b22	0.055461057
1	0xbd63c599	-0.055608366
2	0x3d1538e3	0.036431205
3	0xbda69d38	-0.08135456
4	0x3cd29660	0.02570647
5	0xbd77679e	-0.06040155
6	0xbd4a5d3e	-0.04940533
7	0x3dd2ea39	0.10298581
8	0x3d0950df	0.03352439
9	0x3d9d53ed	0.07682023
10	0xbce262fd	-0.027635092
11	0xbd8f17a6	-0.069869325

onnx::Div_36 f4 [1, 44]
0	0x3eadc899	0.33942106
1	0x3dc5dda1	0.09661413
2	0x3e9423c8	0.2893355
3	0x3e93539e	0.28774732
4	0x3eb07d17	0.34470436
5	0x3e91ba97	0.2846267
6	0x3e95fe60	0.29295635
7	0x3eb7df66	0.35912627
8	0x3e8036e7	0.25041887
9	0x3ea1ab2d	0.3157591
10	0x3ebdd1e8	0.37074208
11	0x3e832c4a	0.25619727
12	0x3ea2838f	0.31740996
13	0x3eb4024a	0.35157996
14	0x410290c1	8.16034
15	0x41081746	8.505682
16	0x4156473c	13.392391
17	0x4103620f	8.21144
18	0x410b50bc	8.707211
19	0x4152d79f	13.177642
20	0x4105d525	8.364537
21	0x410661dd	8.398892
22	0x415eecef	13.932845
23	0x410bec2b	8.745158
24	0x41076678	8.462517
25	0x41622e29	14.13627
26	0x403ebf9f	2.9804456
27	0x3fd5960e	1.6686418
28	0x3f79da34	0.97598577
29	0x3e692848	0.22769272
30	0x3e573dea	0.21019712
31	0x3dcc37a2	0.099715486
32	0x3f57f0c3	0.8435175
33	0x3f86e1fa	1.0537713
34	0x3fb4d5ad	1.4127709
35	0x3f5f4682	0.8721696
36	0x3f878cdd	1.0589863
37	0x3fbc856c	1.4728217
38	0x3f4bdea4	0.796366
39	0x3f7b27b0	0.98107433
40	0x3fb956df	1.4479636
41	0x3f49425d	0.7861689
42	0x3f7a2e24	0.97726655
43	0x3fb6ec33	1.4290832
