src/ga_quadruped/policy/jump_tl_8k5.onnx (onnx, 759601 bytes, 10 tensors)

normalizer._mean f4 [1, 45]
0.792902 0.65074927 0.40922338 0.06296277 0.03372659 -0.24459097 -0.05687575 -0.025374498
0.24919409 -0.025650024 0.029980928 -0.17057349 0.020985626 -0.037903592 0.18838328 -0.0023906252
0.010303382 -0.12961149 -0.0048146043 -0.0041252873 0.12592348 0.010468256 -0.0033417603 -0.13016933
-0.013573513 -0.0025554872 0.14640781 0.008688397 -0.002098222 0.098107904 0.0049171965 0.0004015542
-0.9920652 -0.010487125 0.032925766 -0.1922477 0.033933792 -0.023809612 0.18763342 0.015668875
0.120753676 0.008915288 -0.007503778 -0.121247575 0.043484416
00000000: a0fb 4a3f 8197 263f ba85 d13e a0f2 803d
00000010: e524 0a3d 0e76 7abe 8cf6 68bd 2ede cfbc
00000020: bc2c 7f3e 0020 d2bc 909a f53c d1aa 2ebe
00000030: 0cea ab3c cc40 1bbd 8ce7 403e 09ac 1cbb
00000040: 84cf 283c e0b8 04be d4c3 9dbb 6b2d 87bb
00000050: 16f2 003e 0c83 2b3c 6f01 5bbb 1c4b 05be
00000060: 7163 5ebc f679 27bb eeeb 153e c759 0e3c
00000070: 5382 09bb ccec c83d 6f20 a13b b187 d239
00000080: fcf7 7dbf 31d2 2bbc 2bdd 063d 95dc 44be
00000090: 29fe 0a3d 600c c3bc fa22 403e 035c 803c
000000a0: b44d f73d 6e11 123c 41e2 f5bb a650 f8bd
000000b0: b71c 323d

actor.actor.0.weight f4 [512, 45]
0.25019905 -0.009494474 0.36529005 0.02318994 -0.03459297 0.106250584 -0.07481633 -0.03150577
-0.037798043 0.006331526 0.15963893 -0.15648335 0.1751185 0.024506504 0.053949982 -0.034552373
0.019535687 0.0637649 -0.11544873 -0.025441281 -0.103320636 0.010810331 -0.22931734 0.08663789
0.046651248 -0.013887767 0.03612615 -0.18896908 -0.21204014 0.011165483 0.1397987 -0.20372371
0.029744437 -0.08694748 -0.11538439 -0.15564084 0.0016364006 -0.034018736 0.16897844 0.014119106
0.033416033 0.06777506 -0.08061953 -0.07197594 -0.13963848 0.047918513 0.038607437 0.201219
0.12243182 -0.14596596 0.10736473 -0.078275375 -0.21559857 -0.042018935 0.02716265 0.08454873
0.17931032 -0.06999356 -0.095611416 -0.043603722 -0.07182047 -0.04013669 -0.07532793 -0.13642213
-0.15708408 -0.013950484 -0.19153747 0.19237092 0.110599995 -0.049584292 -0.04117295 -0.0062209154
-0.13544644 0.14274848 -0.12122272 -0.11884155 0.15075397 0.011119226 0.046836134 0.06899169
-0.10110518 -0.035251394 -0.01451519 -0.17261079 0.021661133 0.029921072 -0.08379487 -0.029843187
0.0002671751 -0.043251734 0.09155711 -0.06717456 -0.43070412 0.012604136 -0.089480735 -0.13192157
0.05928825 0.14211212 0.06435616 0.032803208 0.117740564 -0.13705976 0.06653773 -0.045699667
0.13121222 0.0400537 -0.03317508 -0.10092581 0.10100582 -0.0085631795 0.1326772 -0.11745706
0.18706886 -0.24332991 0.0010528927 -0.08403891 -0.10379571 0.21825776 0.14586326 -0.02102547
-0.18335982 -0.10180961 -0.037316874 -0.07531388 -0.06460902 -0.10523307 -0.035094105 -0.081772
-0.019704664 -0.04179004 0.04038216 0.06903744 0.09098202 0.11278154 0.13005903 0.17032836
-0.08049545 0.47610757 0.2034036 -0.11614068 -0.17585507 0.027005702 0.014161378 0.08813322
0.0051672854 -0.05288742 -0.16476147 0.14571261 -0.13381039 0.048511706 -0.015215077 0.007858269
-0.07466978 -0.121539086 -0.010888766 0.07900295 0.081197016 0.03474604 -0.13245684 0.055576466
-0.024602236 0.122166544 -0.14462115 -0.05538134 0.016871482 0.0015671209 0.009414159 0.0006653862
-0.08939337 -0.026038762 0.03561902 0.029384386 0.049199555 0.13792652 0.010716557 0.04780164
0.10158085 0.040198945 0.023708127 0.14823528 0.008454848 -0.12913789 0.0146431895 -0.048732046
0.042886715 -0.07796713 -0.060282424 0.043681305 -0.112573035 0.25292104 -0.012490136 0.19848292
0.19269104 -0.15363227 0.12779777 0.038723413 0.008920831 -0.0598496 0.019479167 -0.13551223
0.13056019 0.13535899 -0.115937464 0.1537538 0.091356024 0.0056845252 0.15364797 -0.13080971
-0.09260432 0.057627704 0.15010679 -0.28923073 0.06670072 0.20406775 -0.08329097 -0.06790801
0.09250804 -0.11745095 0.12109264 -0.07773327 -0.13326809 0.09158783 -0.10978432 0.10675949
0.30576336 -0.1791969 0.06944599 -0.35580212 0.030778356 0.11639081 0.054508474 -0.13748091
0.067701645 0.056627557 -0.18590795 -0.16550948 -0.13845259 -0.07204966 0.18247047 0.06622892
0.014883897 0.026693722 -0.023341224 0.0080383355 -0.021258311 -0.0006000701 -0.008609179 -0.0564826
0.101340406 -0.016621916 0.025647303 -0.045647584 0.13430122 -0.060612205 -0.008375637 -0.15930723
00000000: 171a 803e b68e 1bbc 4c07 bb3e d4f8 bd3c
00000010: 5cb1 0dbd e899 d93d 4e39 99bd 320c 01bd
00000020: 1fd2 1abd b178 cf3b 6378 233e 2c3d 20be
00000030: 4452 333e ddc1 c83c a8fa 5c3d ca86 0dbd
00000040: 4e09 a03c 2c97 823d 6270 ecbd 3c6a d0bc
00000050: c599 d3bd d11d 313c 2ad2 6abe 356f b13d
00000060: 6115 3f3d 8489 63bc 04f9 133d 1c81 41be
00000070: 0d21 59be 6eef 363c 6427 0f3e f39c 50be
00000080: 9baa f33c 8511 b2bd a74e ecbd 5060 1fbe
00000090: 7e7c d63a 3b57 0bbd af08 2d3e d353 673c
000000a0: 40df 083d a7cd 8a3d da1b a5bd 1f68 93bd
000000b0: 64fd 0ebe 3446 443d d522 1e3d 5b0c 4e3e
000000c0: 89bd fa3d 1a78 15be 0ae2 db3d d74e a0bd
000000d0: dfc5 5cbe 0c1c 2cbd 3584 de3c e227 ad3d
000000e0: 209d 373e c958 8fbd ebcf c3bd d199 32bd
000000f0: 9c16 93bd 5f66 24bd 8845 9abd 3eb2 0bbe
00000100: a6da 20be 9290 64bc 6622 44be e2fc 443e
00000110: 4082 e23d e618 4bbd f8a4 28bd d2d8 cbbb
00000120: 79b2 0abe a82c 123e 9e43 f8bd 3363 f3bd
00000130: 405f 1a3e 6a2d 363c 3fd7 3f3d 844b 8d3d
00000140: 3c10 cfbd c463 10bd 1fd1 6dbc e2c0 30be
00000150: b072 b13c 091d f53c a59c abbd b379 f4bc
00000160: a313 8c39 bb28 31bd 4b82 bb3d d192 89bd
00000170: 4085 dcbe 9481 4e3c ad41 b7bd 7316 07be
00000180: 3cd8 723d d785 113e 2acd 833d a85c 063d
00000190: f721 f13d 6559 0cbe ef44 883d 932f 3bbd
000001a0: 7f5c 063e 590f 243d 98e2 07bd 31b2 cebd
000001b0: 24dc ce3d 944c 0cbc 88dc 073e 548d f0bd
000001c0: fb8e 3f3e 7a2b 79be 3701 8a3a 981c acbd
000001d0: d892 d4bd f67e 5f3e 2e5d 153e 9b3d acbc
000001e0: adc2 3bbe 8f81 d0bd 94d9 18bd 2a3e 9abd
000001f0: bc51 84bd 7084 d7bd d6be 0fbd 1478 a7bd
00000200: ad6b a1bc 082c 2bbd c467 253d 8063 8d3d
00000210: c854 ba3d 02fa e63d 322e 053e 8f6a 2e3e
00000220: ccda a4bd 5fc4 f33e 0949 503e 2adb edbd
00000230: 5a13 34be 103b dd3c 2005 683c 317f b43d
00000240: 5552 a93b 7ba0 58bd 3bb7 28be b035 153e
00000250: 9705 09be 36b4 463d a948 79bc f8bf 003c
00000260: 78ec 98bd 7ce9 f8bd cb66 32bc 4ccc a13d
00000270: 9f4a a63d dd51 0e3d c4a2 07be 26a4 633d
00000280: a18a c9bc 7432 fa3d 9117 14be 8bd7 62bd
00000290: 1036 8a3c da67 cd3a d83d 1a3c 506d 2e3a
000002a0: df13 b7bd 3e4f d5bc 40e5 113d 86b7 f03c
000002b0: 7985 493d 9c3c 0d3e 7f94 2f3c a7cb 433d
000002c0: 9f09 d03d a6a7 243d 8c37 c23c fdca 173e
000002d0: 3486 0a3c b93c 04be fde9 6f3c 419b 47bd
000002e0: fba9 2f3d 3bad 9fbd b4ea 76bd 2beb 323d
000002f0: b18c e6bd de7e 813e 6da3 4cbc 1b3f 4b3e
00000300: cd50 453e c751 1dbe 6bdd 023e 719c 1e3d
00000310: ad28 123c db24 75bd c692 9f3c b8c3 0abe
00000320: 92b1 053e 8c9b 0a3e 9f70 edbd a371 1d3e
00000330: de18 bb3d 4145 ba3b e555 1d3e fbf2 05be
00000340: 55a7 bdbd 070b 6c3d 98b5 193e 0d16 94be
00000350: 639a 883d 23f7 503e 7594 aabd 5b13 8bbd
00000360: db74 bd3d 208a f0bd 6bff f73d 9f32 9fbd
00000370: 6e77 08be 6692 bb3d 9ad6 e0bd b8a4 da3d
00000380: 048d 9c3e 647f 37be b339 8e3d b22b b6be
00000390: e422 fc3c 4e5e ee3d 4744 5f3d ccc7 0cbe
000003a0: 29a7 8a3d 4cf2 673d a75e 3ebe 517b 29be
000003b0: 84c6 0dbe c68e 93bd 8ad9 3a3e 07a3 873d
000003c0: 97db 733c cbac da3c 1836 bfbc 39b3 033c
000003d0: e925 aebc 064e 1dba 840d 0dbc 4c5a 67bd
000003e0: 8f8b cf3d af2a 88bc 4b1a d23c f6f8 3abd
000003f0: 4286 093e 8144 78bd f839 09bc 6f21 23be

actor.actor.0.bias f4 [512]
0.24299717 0.15570375 -0.053688608 0.008256187 -0.2810131 0.06831436 0.126806 -0.34394446
-0.077353686 -0.06739169 0.19657114 -0.26696023 0.25115585 -0.07561248 -0.2419946 -0.16857338
0.020823304 -0.19320859 -0.3513474 0.0030432183 -0.17206626 -0.30260992 -0.35852322 -0.25012535
0.27088034 -0.16031869 -0.12432868 -0.20288108 -0.118197456 0.029965453 0.05329992 -0.09600514
0.12189279 -0.049750507 0.102648616 0.0062581664 0.16718706 -0.025662934 0.12024294 0.0454481
0.011029902 -0.41477412 -0.12988399 -0.14879027 -0.11469916 -0.13034494 -0.003947665 0.1283019
-0.21608178 0.23274128 -0.19220577 0.06825774 0.23616092 0.036287773 -0.05570154 0.12270016
-0.1671629 -0.1528466 0.084964395 0.11423602 0.092064925 -0.10677729 -0.11295047 -0.10614696
-0.15127532 0.035522446 -0.0261823 0.04653683 -0.14875557 -0.07918681 -0.14268968 -0.15620038
-0.10672787 -0.44354686 0.08432905 -0.050373476 0.012208168 0.04309366 -0.43306616 -0.15444466
-0.19433813 -0.17110957 -0.11703893 -0.019069372 0.25145555 0.2897512 0.15033534 -0.053359512
-0.16172345 0.055273343 0.13123684 0.103758894 -0.20900106 -0.18406789 -0.17947823 0.07170495
0.12084957 -0.10111626 -0.10681713 -0.42962605 -0.20764436 -0.19875187 -0.10250571 -0.1316442
0.1947415 0.08894912 -0.062073406 -0.16903108 0.07509973 -0.08772923 -0.17890516 -0.09647397
0.22286735 -0.039048083 -0.03467413 -0.016831517 0.024381487 -0.033027563 -0.086142845 -0.044219803
0.26123857 -0.1639465 -0.13701545 0.054066066 -0.10115169 -0.19570728 -0.116921745 -0.11652678
-0.23898208 -0.04945867 -0.017009487 -0.14639212 0.0681276 0.2367445 -0.057779554 -0.07210432
-0.066652305 -0.103645 -0.22438951 -0.16576 -0.12737717 0.0393122 -0.14155054 0.113667555
-0.12151473 -0.11120419 0.2675852 -0.29270402 -0.2268914 -0.25360042 -0.1862612 -0.34577313
-0.21736258 -0.07019042 -0.21533825 0.091513425 -0.15747137 0.0647719 0.15314446 0.17929718
-0.06368278 0.04820837 -0.17725442 0.009636552 0.17120954 -0.13007993 0.21321471 0.1436995
0.24991378 -0.08084039 -0.0030542961 -0.013618127 0.062405158 0.037308376 0.10333543 0.08221912
0.20787749 0.07531424 -0.19776012 -0.10475425 -0.047839895 -0.0046012695 0.093551554 -0.10665718
0.24735723 -0.07073835 -0.26037908 0.059813384 0.012748545 -0.16509145 0.24165006 0.10139826
-0.07947408 -0.2909961 -0.12704752 0.21743478 0.000554803 0.17766741 -0.1898211 0.17991938
-0.23500596 -0.035288453 -0.23877364 -0.1961461 -0.20582011 -0.1169343 0.06540222 -0.05277139
0.21194597 0.0273487 -0.16405925 -0.059689887 0.08674633 0.056512102 0.013841765 0.024931569
-0.10961027 -0.1992469 0.028252797 -0.20659032 0.1695206 -0.109132595 0.020538015 0.19572443
-0.10964704 -0.08931066 -0.46005496 0.13822639 -0.12635723 -0.22150701 5.8115897e-05 -0.07842603
-0.1680823 0.2052141 0.031153264 -0.11939413 0.21818307 0.046083044 -0.39353308 -0.13497044
-0.22514462 -0.4660315 0.070850946 -0.15510634 0.0568404 0.21360436 0.05205458 -0.20375578
-0.12391132 0.03959657 0.08325845 0.020426275 -0.122084655 -0.059057742 -0.15783921 0.1208182
00000000: 40d4 783e ce70 1f3e 96e8 5bbd f544 073c
00000010: f3e0 8fbe 66e8 8b3d 6fd9 013e 7d19 b0be
00000020: 9c6b 9ebd a804 8abd f249 493e 03af 88be
00000030: 8097 803e b7da 9abd 6fcd 77be 809e 2cbe
00000040: a295 aa3c 79d8 45be cee3 b3be bb70 473b
00000050: 2332 30be b0ef 9abe 5b90 b7be 6e10 80be
00000060: d4b0 8a3e 952a 24be 09a0 febd 0fc0 4fbe
00000070: 8211 f2bd 1c7a f53c 0451 5a3d 589e c4bd
00000080: eda2 f93d 30c7 4bbd 7039 d23d 4e11 cd3b
00000090: 1633 2b3e 133b d2bc ee41 f63d c927 3a3d
000000a0: c3b6 343c 465d d4be 4f00 05be 7a5c 18be
000000b0: 65e7 eabd 2579 05be 6a5b 81bb 9361 033e
000000c0: 8b44 5dbe bb53 6e3e 97d1 44be b7ca 8b3d
000000d0: 2bd4 713e 7da2 143d 4c27 64bd 394a fb3d
000000e0: c02c 2bbe d283 1cbe d001 ae3d 93f4 e93d
000000f0: 898c bc3d 0dae dabd 9352 e7bd 9463 d9bd
00000100: ebe7 1abe fc7f 113d 437c d6bc 679d 3e3d
00000110: 6153 18be b22c a2bd 3e1d 12be fef2 1fbe
00000120: 2494 dabd 9318 e3be b5b4 ac3d 6b54 4ebd
00000130: c504 483c fa82 303d d9ba ddbe be26 1ebe
00000140: 9300 47be 5937 2fbe 1bb2 efbd 5f37 9cbc
00000150: c8be 803e 455a 943e 82f1 193e 818f 5abd
00000160: d59a 25be 4d66 623d f362 063e 8b7f d43d
00000170: 6004 56be 4b7c 3cbe 24c9 37be 0bda 923d
00000180: fb7f f73d 0b16 cfbd f1c2 dabd f2f7 dbbe
00000190: b9a0 54be 9c85 4bbe 84ee d1bd bdcd 06be
000001a0: 516a 473e f52a b63d af40 7ebd 7c16 2dbe
000001b0: e3cd 993d 62ab b3bd ea32 37be 2594 c5bd
000001c0: 5737 643e e2f0 1fbd 7606 0ebd 40e2 89bc
000001d0: afbb c73c e947 07bd a96b b0bd d31f 35bd
000001e0: 10c1 853e 97e1 27be c74d 0cbe 6174 5d3d
000001f0: 9e28 cfbd 7d67 48be ab74 efbd 98a5 eebd
00000200: b8b7 74be 2d95 4abd 7b57 8bbc d1e7 15be
00000210: 7c86 8b3d 266d 723e 41aa 6cbd 6eab 93bd
00000220: 0181 88bd d443 d4bd 5dc6 65be fdbc 29be
00000230: 296f 02be d405 213d a0f2 10be 89ca e83d
00000240: b7dc f8bd 06bf e3bd ed00 893e 4ddd 95be
00000250: 3856 68be ead7 81be 42bb 3ebe 2d09 b1be
00000260: 4c94 5ebe ffbf 8fbd a181 5cbe 646b bb3d
00000270: 2d40 21be 21a7 843d e7d1 1c3e ae99 373e
00000280: 1e6c 82bd 2476 453d 2f82 35be a1e2 1d3c
00000290: 8e51 2f3e ac33 05be f554 5a3e f625 133e
000002a0: 66e9 7f3e a58f a5bd 962a 48bb 911e 5fbc
000002b0: 8d9c 7f3d abd0 183d 87a1 d33d 7f62 a83d
000002c0: d6dd 543e 5a3e 9a3d a181 4abe 6589 d6bd
000002d0: c4f3 43bd 3fc6 96bb f597 bf3d 146f dabd
000002e0: 374b 7d3e 45df 90bd 6850 85be e1fe 743d
000002f0: 46df 503c bc0d 29be 1d73 773e e4a9 cf3d
00000300: 4ec3 a2bd 71fd 94be bf18 02be 39a7 5e3e
00000310: 3370 113a 72ee 353e 7660 42be c93c 383e
00000320: 67a5 70be a08a 10bd 1481 74be 86da 48be
00000330: 82c2 52be 407b efbd 99f1 853d d026 58bd
00000340: 5d08 593e 620a e03c 26ff 27be 627d 74bd
00000350: 0fa8 b13d 3c79 673d 92c8 623c 4a3d cc3c
00000360: 597b e0bd 6107 4cbe 6972 e73c 6a8c 53be
00000370: cf96 2d3e e980 dfbd 573f a83c fc6b 483e
00000380: a18e e0bd 82e8 b6bd 538c ebbe 388b 0d3e
00000390: ca63 01be bcd2 62be 78c1 7338 d49d a0bd
000003a0: c41d 2cbe a523 523e 2135 ff3c e984 f4bd
000003b0: 626b 5f3e 93c1 3c3d 2b7d c9be b135 0abe
000003c0: 508c 66be ae9b eebe 4d1a 913d 32d4 1ebe
000003d0: 7bd1 683d 1abb 5a3e 2f37 553d 5ba5 50be
000003e0: 38c5 fdbd 0330 223d 6883 aa3d 0155 a73c
000003f0: 8507 fabd 88e6 71bd 9aa0 21be 886f f73d

actor.actor.2.weight f4 [256, 512]
0.0112477355 -0.13913983 -0.11694307 0.1253902 0.11941542 0.08516237 -0.09266216 0.046779986
0.02059774 0.10921207 0.10144829 0.03433817 0.0024636975 -0.12356524 0.015778242 0.04444725
-0.07123927 -0.06735886 -0.0968888 -0.049858753 -0.05343294 0.042133383 -0.080374956 0.0024807397
-0.040702693 0.0013792905 0.16277602 0.17212757 -0.2215242 -0.022134086 -0.07006342 0.06539331
-0.08045176 0.03629585 -0.037202526 -0.1723469 0.050879944 -0.07653414 -0.026219103 -0.07459153
0.041180704 -0.038786836 -0.11917586 -0.14141019 0.054117016 -0.12496781 -0.114938654 -0.0980511
0.015717093 0.05590201 -0.023237078 -0.03031676 -0.0013584114 -0.12818618 -0.07527517 -0.025318507
-0.013153976 -0.050771117 0.051101718 -0.3012965 -0.015962638 -0.08548219 -0.016391603 0.014558462
0.0011483965 -0.12561648 0.27604032 -0.107825845 0.06777933 -0.20952421 -0.06205973 -0.12485397
0.14736593 0.19068028 0.06577006 0.050729137 -0.04216722 -0.10827179 -0.037965667 0.15506552
0.09081265 -0.14154609 0.081428066 0.081348896 0.074609645 -0.2270055 0.13781771 0.009520028
0.21031162 -0.024916666 0.08601944 -0.026289495 0.039849028 -0.101281516 -0.20392063 -0.31392452
-0.045285743 -0.0723259 -0.11140674 -0.079373136 -0.12304706 -0.12896577 -0.15906273 -0.047767572
0.0076735686 -0.019700473 -0.061902028 -0.16999942 -0.10255361 0.03504449 0.079617865 -0.11030019
-0.08616532 -0.1549948 0.14852564 -0.065665014 -0.13512339 -0.032624565 -0.00033959252 0.06134588
-0.029968495 -0.004839552 -0.018708833 0.081097215 0.04635914 -0.033679817 -0.00017190192 -0.18207459
0.040827513 -0.04611866 0.05402848 -0.017389562 -0.077893786 -0.023537502 -0.14809357 -0.0012818126
-0.050218537 0.06841437 -0.052736405 -0.035193488 -0.17510986 0.0115777515 -0.090434216 -0.031951398
-0.07018777 -0.16574723 -0.034286067 -0.14058605 0.13810997 -0.22834189 -0.010204161 0.1355352
-0.08581719 -0.05451157 -0.046153814 0.068823226 -0.20261654 0.059901442 -0.08668837 -0.034948915
0.06331314 -0.16631754 0.022318097 0.14017838 0.036001097 0.029656518 -0.033038795 0.012928368
-0.07776194 -0.04420405 -0.023465743 -0.12147938 -0.06500545 0.0024176491 -0.073014446 -0.02727722
0.03561599 -0.049993444 -0.07755859 -0.14989364 0.051912226 -0.101007536 -0.23261331 -0.101693004
-0.16018279 0.16588327 -0.21713112 -0.16356185 0.055785276 -0.0930706 -0.0031453772 -0.036370896
-0.01244844 0.28405893 0.20245905 0.021800498 0.05230548 0.2567622 0.07268555 0.1267101
0.0997387 0.015987871 -0.02445243 0.10094827 -0.0005487405 -0.14137354 -0.12556371 -0.18080659
-0.17503159 0.02145895 0.03020516 0.06456334 0.021419901 0.047368392 0.05709047 -0.23451062
-0.20834124 0.119375385 -0.07753273 -0.06620287 0.16921203 0.15450366 0.04137314 0.17886892
-0.12985243 0.12919945 -0.21480365 0.10060636 -0.09547093 0.07449839 0.03034487 0.10802454
-0.05456513 0.001576567 -0.2160149 -0.04296874 0.15129499 0.03634915 0.15909882 0.06989126
-0.009019336 -0.035726506 -0.042734887 0.011383356 0.14232853 0.0843942 0.0813489 0.013404811
-0.18572043 -0.0058893324 -0.13472009 -0.021425558 0.0021619417 -0.07000695 -0.15141861 -0.09147838
00000000: 6c48 383c ac7a 0ebe d97f efbd 4a66 003e
00000010: 1290 f43d 9c69 ae3d a9c5 bdbd 5f9c 3f3d
00000020: 97bc a83c 94aa df3d 1fc4 cf3d 2ea6 0c3d
00000030: fc75 213b c60f fdbd 5f41 813c 520e 363d
00000040: e5e5 91bd 71f3 89bd a36d c6bd b138 4cbd
00000050: 80dc 5abd 0e94 2c3d a09b a4bd e893 223b
00000060: deb7 26bd 4fc9 b43a c2ae 263e 3642 303e
00000070: 3dd7 62be 8b52 b5bc 697d 8fbd edec 853d
00000080: e4c3 a4bd f5aa 143d ad61 18bd b57b 30be
00000090: 7d67 503d eebd 9cbd 72c9 d6bc 72c3 98bd
000000a0: 19ad 283d f2de 1ebd 7912 f4bd d5cd 10be
000000b0: cea9 5d3d 20ef ffbd f564 ebbd 04cf c8bd
000000c0: 22c1 803c 82f9 643d af5b bebc db5a f8bc
000000d0: b90c b2ba 3d43 03be de29 9abd c268 cfbc
000000e0: c683 57bc 60f5 4fbd 0950 513d 8943 9abe
000000f0: 14c4 82bc 4911 afbd af47 86bc 9e86 6e3c
00000100: cb85 963a 9ba1 00be 2855 8d3e ccd3 dcbd
00000110: e4cf 8a3d 848d 56be 5832 7ebd 70b3 ffbd
00000120: 18e7 163e b141 433e 74b2 863d 5bc9 4f3d
00000130: 89b7 2cbd 9abd ddbd e381 1bbd 7fc9 1e3e
00000140: fcfb b93d 75f1 10be c2c3 a63d 409a a63d
00000150: f1cc 983d 2174 68be 1620 0d3e e4f9 1b3c
00000160: ee5b 573e 091e ccbc f62a b03d 115d d7bc
00000170: bc38 233d af6c cfbd 92d0 50be b7ba a0be
00000180: 8b7d 39bd 9a1f 94bd 3829 e4bd 628e a2bd
00000190: 1900 fcbd 9a0f 04be 57e1 22be eea7 43bd
000001a0: 8f72 fb3b e362 a1bc fb8c 7dbd 5414 2ebe
000001b0: a107 d2bd d08a 0f3d b10e a33d 11e5 e1bd
000001c0: 7177 b0bd f5b6 1ebe 1b17 183e 617b 86bd
000001d0: c95d 0abe 56a1 05bd 560b b2b9 d145 7b3d
000001e0: 7d80 f5bc 1b95 9ebb 4443 99bc 4c16 a63d
000001f0: 15e3 3d3d d9f3 09bd 9240 34b9 c371 3abe
00000200: c03a 273d ece6 3cbd f84c 5d3d 8e74 8ebc
00000210: c786 9fbd b8d1 c0bc d7a5 17be 7e02 a8ba
00000220: f4b1 4dbd d51c 8c3d 2102 58bd 0c27 10bd
00000230: 0050 33be 9cb0 3d3c 9335 b9bd 78df 02bd
00000240: 9bbe 8fbd a4b9 29be 8c6f 0cbd caf5 0fbe
00000250: b36c 0d3e 75d2 69be 5a2f 27bc bdc9 0a3e
00000260: ecc0 afbd 8647 5fbd c80b 3dbd 31f3 8c3d
00000270: b67a 4fbe 375b 753d ac89 b1bd 9826 0fbd
00000280: 52aa 813d 254f 2abe 71d4 b63c ec8a 0f3e
00000290: e375 133d 3af2 f23c b053 07bd 81d1 533c
000002a0: a741 9fbd 4e0f 35bd 3b3b c0bc 2eca f8bd
000002b0: 9421 85bd 6c71 1e3b 9988 95bd 7a74 dfbc
000002c0: 13e2 113d edc5 4cbd 0ad7 9ebd b87d 19be
000002d0: eaa1 543d 0add cebd 2f32 6ebe 6c44 d0bd
000002e0: f506 24be 4edd 293e 9f57 5ebe c27c 27be
000002f0: 1a7f 643d cc9b bebd ac22 4ebb a6f9 14bd
00000300: 8bf4 4bbc 2c70 913e 6d51 4f3e f596 b23c
00000310: 453e 563d 5676 833e 29dc 943d 4bc0 013e
00000320: ce43 cc3d fff8 823c 7650 c8bc f7bd ce3d
00000330: 5ad9 0fba 3ac4 10be c693 00be 5d25 39be
00000340: 7b3b 33be aeca af3c d070 f73c c939 843d
00000350: ca78 af3c 5c05 423d b2d7 693d 8d23 70be
00000360: 6857 55be 157b f43d 7bc9 9ebd 5f95 87bd
00000370: eb45 2d3e 3536 1e3e e276 293d 6a29 373e
00000380: 09f8 04be dc4c 043e 7df5 5bbe b50a ce3d
00000390: 4386 c3bd 9d92 983d ce95 f83c f83b dd3d
000003a0: b07f 5fbd cfa4 ce3a 0333 5dbe fdff 2fbd
000003b0: 13ed 1a3e d9e2 143d cdea 223e 2623 8f3d
000003c0: d6c5 13bc f555 12bd c70a 2fbd 4181 3a3c
000003d0: 92be 113e ded6 ac3d 419a a63d da9f 5b3c
000003e0: 7f2d 3ebe 4dfb c0bb 10f4 09be a784 afbc
000003f0: 5daf 0d3b ce5f 8fbd 7b0d 1bbe 0459 bbbd

actor.actor.2.bias f4 [256]
-0.061431784 -0.06970351 -0.28958055 -0.1281822 -0.2102794 0.019147515 0.055965014 -0.045957286
0.050188635 -0.10119103 -0.21332759 -0.11633488 -0.017004889 0.042972803 -0.066356726 -0.065258265
-0.078205965 -0.112829275 -0.06311581 -0.09873772 -0.13018677 -0.17639033 0.0848405 0.005126464
0.03402088 -0.09104304 -0.105027944 -0.21354623 -0.019951094 -0.0076035378 0.059992835 -0.102575116
-0.081566 -0.21801488 -0.12427805 -0.10602289 -0.060376268 -0.10138578 -0.08329275 -0.12313453
-0.09315412 -0.13347194 -0.030037569 -0.21063487 -0.010336544 0.0002705727 -0.015166572 -0.060897425
0.006905036 -0.030949121 0.0051619606 -0.0638161 -0.06688515 -0.015557505 -0.05921543 -0.023202507
-0.1237828 -0.22686583 0.089656234 -0.19519626 0.17854182 -0.12347862 0.0639323 -0.24812227
0.020874081 0.12645653 -0.004016124 -0.112118386 -0.15922894 -0.062504284 -0.0643807 0.024603488
-0.02529448 -0.022718979 -0.19743146 0.051369805 -0.17551091 -0.2240162 -0.03186092 0.19509411
0.011142407 -0.21298994 -0.19953176 -0.10812904 -0.029681679 0.07098146 -0.20679651 -0.021369278
-0.14273113 -0.11240658 0.15144794 -0.0018494673 -0.10565586 0.047005087 -0.06849005 0.0133408075
0.02578164 -0.11330724 -0.0042512487 -0.19262807 -0.069134206 -0.14911687 -0.08823754 -0.06332137
-0.14563611 -0.06352534 -0.08394189 -0.14007531 -0.09091803 -0.087779835 -0.02461491 -0.03963493
0.06984106 -0.13207848 -0.12215076 -0.07514226 -0.08717284 -0.12171609 -0.03564237 -0.27616978
-0.050749198 -0.11093482 0.049736764 -0.0050285426 -0.058429725 -0.07537183 -0.086134136 -0.08437634
-0.052058775 -0.13017626 -0.0075960625 0.12314532 -0.0817842 -0.12983052 0.062517636 -0.04445521
0.13122565 -0.0374024 -0.16344991 -0.028194744 0.013702081 -0.17634517 -0.17323612 -0.0072810934
0.03821096 -0.24463631 -0.17722091 0.058222406 -0.05108204 -0.12495007 -0.056817174 -0.006220044
0.013631238 -0.08674326 -0.11485837 -0.107090935 -0.12060908 -0.032880016 -0.045709506 -0.090621635
-0.0269103 -0.13048859 -0.050955955 -0.062972285 -0.13290901 -0.06458254 0.055174313 -0.015286114
0.022207173 -0.21864316 -0.0034188207 -0.05116322 -0.0054926537 -0.21148923 -0.063090876 -0.062249642
-0.05278869 -0.073610395 0.01213962 -0.1258471 -0.0073130433 -0.1355409 -0.16324787 0.029653821
-0.07109676 0.039781712 -0.19792636 -0.1709949 -0.09807285 -0.03603441 -0.117110744 -0.20222922
0.027017951 0.04450204 -0.13949747 -0.029887177 -0.14426686 -0.021047508 0.0017033657 0.038177628
-0.07265907 0.026964298 -0.035173066 -0.050063096 -0.044930834 -0.13638818 -0.15934055 -0.16545978
-0.2036931 -0.058122728 -0.13481589 -0.041723907 -0.15109062 -0.10841901 -0.10133815 -0.11622268
-0.026676921 -0.04502876 0.037117194 -0.22715369 0.06387753 -0.09904252 -0.08505675 0.025866471
0.017609658 -0.01668773 -0.10380365 -0.1124044 -0.03705334 -0.042492352 0.063366406 -0.093826786
-0.007975859 0.02684312 0.18252504 -0.068717256 0.09415332 -0.0041796286 -0.20419146 -0.24257308
-0.19179368 -0.16284214 -0.07541434 -0.21240953 -0.20071554 -0.12921323 -0.1571093 0.039769296
-0.19955175 -0.07781993 -0.08637201 -0.093557574 -0.1748938 -0.26670304 -0.19682193 -0.10910417
00000000: e59f 7bbd b7c0 8ebd e743 94be 3242 03be
00000010: 7c53 57be 40db 9c3c 923b 653d b53d 3cbd
00000020: 9992 4d3d 3e3d cfbd 8c72 5abe fb40 eebd
00000030: d64d 8bbc 4004 303d 09e6 87bd 20a6 85bd
00000040: 732a a0bd 0913 e7bd dd42 81bd 0037 cabd
00000050: ae4f 05be ab9f 34be dbc0 ad3d e6fb a73b
00000060: 7a59 0b3d c674 babd e418 d7bd ddab 5abe
00000070: 7a70 a3bc 1927 f9bb 0cbb 753d e712 d2bd
00000080: 130c a7bd 4b3f 5fbe 7e85 febd 8722 d9bd
00000090: 1b4d 77bd 59a3 cfbd 6495 aabd f52d fcbd
000000a0: 96c7 bebd deac 08be 5911 f6bc abb0 57be
000000b0: 9c5a 29bc a7db 8d39 377d 78bc 946f 79bd
000000c0: a443 e23b 0389 fdbc aa25 a93b 04b2 82bd
000000d0: 15fb 88bd e8e4 7ebc e18b 72bd 2f13 bebc
000000e0: d681 fdbd 844f 68be b09d b73d 87e1 47be
000000f0: abd3 363e 5ce2 fcbd f0ee 823d c413 7ebe
00000100: 1f00 ab3c d27d 013e b199 83bb 539e e5bd
00000110: e90c 23be 3f02 80bd 07da 83bd 418d c93c
00000120: 5f36 cfbc 271d babc 792b 4abe 2569 523d
00000130: 22b9 33be 8164 65be 9980 02bd c0c6 473e
00000140: a48e 363c 091a 5abe 0e52 4cbe c272 ddbd
00000150: fe26 f3bc ba5e 913d 77c2 53be a00e afbc
00000160: 1c28 12be 6c35 e6bd 2b15 1b3e d369 f2ba
00000170: 1962 d8bd 6888 403d 8344 8cbd 6793 5a3c
00000180: 0534 d33c a00d e8bd 0f4e 8bbb 4b40 45be
00000190: 3c96 8dbd 18b2 18be e2b5 b4bd a2ae 81bd
000001a0: a221 15be 9319 82bd bae9 abbd e76f 0fbe
000001b0: 3b33 babd eac5 b3bd 35a5 c9bc 3d58 22bd
000001c0: d408 8f3d 953f 07be 2d2a fabd 2fe4 99bd
000001d0: ad87 b2bd 4946 f9bd bcfd 11bd 2066 8dbe
000001e0: 64de 4fbd cb31 e3bd c7b8 4b3d 79c6 a4bb
000001f0: 0254 6fbd 8c5c 9abd 1867 b0bd 81cd acbd
00000200: 953b 55bd ed4c 05be 64e8 f8bb 9d33 fc3d
00000210: 7a7e a7bd 4bf2 04be 3f09 803d ab16 36bd
00000220: 0460 063e 4233 19bd 6a5f 27be aaf8 e6bc
00000230: b17e 603c d493 34be cf64 31be 3d96 eebb
00000240: 1883 1c3d f181 7abe 6679 35be 9e7a 6e3d
00000250: 673b 51bd d3e5 ffbd 20b9 68bd 83d1 cbbb
00000260: 8e55 5f3c 73a6 b1bd dd3a ebbd 7e52 dbbd
00000270: e501 f7bd 32ad 06bd e439 3bbd d697 b9bd
00000280: fd72 dcbc cd9e 05be 31b7 50bd 9df7 80bd
00000290: 4d19 08be da43 84bd 76fe 613d 9c72 7abc
000002a0: d1eb b53c fee3 5fbe 4b0e 60bb 8690 51bd
000002b0: b8fb b3bb a290 58be ca35 81bd 7bf9 7ebd
000002c0: f438 58bd 0cc1 96bd 42e5 463c 10de 00be
000002d0: 41a2 efbb 3ccb 0abe 732a 27be 92ec f23c
000002e0: 2e9b 91bd 26f2 223d 35ad 4abe 4919 2fbe
000002f0: 6bda c8bd d198 13bd c2d7 efbd 2d15 4fbe
00000300: c054 dd3c c547 363d 6dd8 0ebe f4d5 f4bc
00000310: b1ba 13be d36b acbc 7843 df3a 2560 1c3d
00000320: 47ce 94bd 3be4 dc3c a211 10bd f60e 4dbd
00000330: 6509 38bd 58a9 0bbe 2b2a 23be 4a6e 29be
00000340: ed94 50be 1912 6ebd 2d0d 0abe b0e6 2abd
00000350: 80b7 1abe c90a debd 608a cfbd 2806 eebd
00000360: 8f89 dabc 1470 38bd 3308 183d fa9a 68be
00000370: 39d2 823d ced6 cabd 3c32 aebd ece5 d33c
00000380: 2142 903c b5b4 88bc 0297 d4bd 4734 e6bd
00000390: 3ec5 17bd 760c 2ebd 3fc6 813d 4228 c0bd
000003a0: 2dad 02bc 1ae6 db3c d8e7 3a3e a2bb 8cbd
000003b0: 75d3 c03d 44f5 88bb 9117 51be 1465 78be
000003c0: 9065 44be 17c0 26be d572 9abd e281 59be
000003d0: 6088 4dbe 7950 04be 43e1 20be 21e5 223d
000003e0: 4b57 4cbe 0e60 9fbd cfe3 b0bd 1d9b bfbd
000003f0: 5c17 33be 4d8d 88be b08b 49be 0272 dfbd

actor.actor.4.weight f4 [128, 256]
-0.13753259 0.03222226 0.05024521 0.0653213 0.0040833643 0.050333798 0.036076218 -0.12762439
-0.056073062 0.19586442 0.2135352 0.22911455 0.11391358 0.058820393 0.0008764728 0.052672837
0.018300429 -0.15490009 0.13238162 0.0061912946 0.19554015 -0.063093536 0.015084401 -0.0065062046
0.023444671 -0.061953366 -0.1708608 0.1244806 -0.17873827 -0.17058577 0.04976207 -0.13178901
-0.022167394 0.06565408 -0.060721714 0.067881465 -0.0005054046 0.0047350707 -0.120390475 -0.08350764
0.07345092 0.23326443 0.103677504 -0.040161803 -0.05197729 -0.16687064 0.018014846 -0.119332545
0.05570122 0.15300009 0.08287558 0.036792226 -0.027417757 -0.114048 -0.18246593 -0.08507451
-0.11906141 0.018087545 -0.008536014 0.025110815 0.056176312 0.027332379 -0.32701734 -0.015661055
-0.04176562 -0.060662597 -0.06633347 0.043910846 0.004870321 0.024933241 -0.22086477 -0.05402966
0.05760133 -0.05848607 0.05236579 0.024229467 -0.1083264 -0.0052284435 0.04861523 0.025710905
-0.022543607 -0.06605996 0.18931438 0.1342582 0.0785479 -0.018211693 0.087826826 0.044133518
-0.0018455595 0.020637987 0.0043868977 0.008181317 0.08423863 -0.019283975 0.050720595 0.14088021
-0.15855755 0.01784569 -0.118325904 -0.18678892 -0.10525497 0.023674222 -0.01109168 -0.12994368
-0.15492588 -0.035557292 0.054771613 -0.02494052 -0.12431131 0.03565973 0.09980763 -0.08457717
-0.15298234 0.07842833 0.09719141 0.064105034 0.04696693 -0.12549487 0.05831681 -0.05936797
-0.13061953 0.07360185 0.06362792 -0.12962037 0.045975905 0.07539463 -0.025423381 0.04313475
-0.1226144 0.0120094875 0.010315037 -0.012980501 -0.03928275 0.08346863 0.08634498 -0.032526076
0.07883816 0.024895137 0.032966875 0.026430067 -0.04104436 0.015621029 0.005763425 -0.039039273
-0.020744715 0.037386596 -0.05090847 -0.17482401 -0.1699875 -0.096472636 -0.20839266 -0.014691591
-0.067231774 0.02093644 0.19210897 0.04230648 -0.14549305 0.07603632 -0.054077096 -0.0424018
0.060975358 -0.015783919 0.0031587945 0.08932062 0.0058386405 0.029572515 -0.088579975 0.041751254
0.17275795 -0.30446258 0.029804168 0.056504652 -0.11471055 0.0036982675 0.006984325 -0.007215205
0.133463 -0.024917934 -0.22172986 0.120450325 -0.06602362 0.025504723 -0.049266174 0.053014874
-0.05764897 -0.077482216 -0.032563366 0.065584175 -0.05205994 0.03428418 -0.07354487 0.02592174
0.07021415 0.13472545 0.011649688 -0.089157306 0.020069284 -0.003127249 0.056090787 0.024863845
0.12690963 -0.032780934 -0.075625956 -0.0062121837 -0.01609054 -0.107655205 0.022062147 -0.06132024
-0.04787406 -0.061987456 -0.0151741635 0.07327083 0.21758483 0.122516125 0.16654836 0.08333395
-0.061289273 -0.111884095 0.06928796 0.0910787 -0.017782798 0.05910104 -0.0368835 0.027088894
-0.059310406 0.0045748027 -0.0001559623 -0.11364888 -0.00046876763 -0.112818964 0.15160537 -0.049626414
-0.1251768 0.057230886 0.056405663 0.025676308 -0.06618718 0.10442441 -0.010003303 -0.043218374
-0.21838884 -0.019247005 0.010469264 0.055055875 -0.08149611 0.010617091 0.006866893 -0.14512718
0.108063936 0.0960147 -0.23537937 0.046709143 0.014751085 0.0045754407 -0.087253794 0.06611406
00000000: 58d5 0cbe 7dfb 033d eccd 4d3d 2cc7 853d
00000010: becd 853b d02a 4e3d a8c4 133d f8af 02be
00000020: deac 65bd af90 483e f9a8 5a3e 019d 6a3e
00000030: 864b e93d a7ed 703d 18c3 653a 79bf 573d
00000040: c8ea 953c 219e 1ebe 0c8f 073e 58e0 ca3b
00000050: ad3b 483e 2f37 81bd 9024 773c 0032 d5bb
00000060: 0a0f c03c d0c2 7dbd 22f6 2ebe afef fe3d
00000070: 2a07 37be 09ae 2ebe 50d3 4b3d b3f3 06be
00000080: 6598 b5bc a575 863d 55b7 78bd 7005 8b3d
00000090: 217d 04ba a728 9b3b 488f f6bd 0e06 abbd
000000a0: 706d 963d dfdc 6e3e df54 d43d b480 24bd
000000b0: 24e6 54bd 23e0 2abe df93 933c 9f64 f4bd
000000c0: f626 643d 0eac 1c3e acba a93d 72b3 163d
000000d0: 349b e0bc ff91 e9bd 59d8 3abe 8b3b aebd
000000e0: 78d6 f3bd 552c 943c a3da 0bbc 32b5 cd3c
000000f0: 2219 663d 27e8 df3c d16e a7be 9d4b 80bc
00000100: 6d12 2bbd 5879 78bd d8d9 87bd dcdb 333d
00000110: 3797 9f3b cc40 cc3c 602a 62be 344e 5dbd
00000120: 5fef 6b3d 178f 6fbd 837d 563d e07c c63c
00000130: 3bda ddbd 5d53 abbb c320 473d ad9f d23c
00000140: 5fad b8bc 724a 87bd a1db 413e fb7a 093e
00000150: b9dd a03d b030 95bc 8dde b33d 59c5 343d
00000160: b3e6 f1ba ff10 a93c f7bf 8f3b ee0a 063c
00000170: 4e85 ac3d 6df9 9dbc 66c0 4f3d e742 103e
00000180: e95c 22be 2031 923c da54 f2bd 9845 3fbe
00000190: eb8f d7bd 71f0 c13c e1b9 35bc f50f 05be
000001a0: e4a4 1ebe 86a4 11bd 3358 603d 1050 ccbc
000001b0: ee96 febd f00f 123d f167 cc3d cc36 adbd
000001c0: 67a7 1cbe 089f a03d 4a0c c73d 8049 833d
000001d0: 6560 403d ba81 00be 9bdd 6e3d d42b 73bd
000001e0: 20c1 05be 91bc 963d 5b4f 823d 34bb 04be
000001f0: 3b51 3c3d 8068 9a3d b244 d0bc 10ae 303d
00000200: 421d fbbd 71c3 443c 6700 293c 2bac 54bc
00000210: f3e6 20bd 9af1 aa3d a3d5 b03d 103a 05bd
00000220: e775 a13d e3f0 cb3c 4608 073d de83 d83c
00000230: 211e 28bd 58ef 7f3c 1ddb bc3b a5e7 1fbd
00000240: d2f0 a9bc b022 193d 6685 50bd 1105 33be
00000250: 3411 2ebe 7293 c5bd e364 55be 00b5 70bc
00000260: d0b0 89bd e682 ab3c 37b8 443e 8f49 2d3d
00000270: 21fc 14be eeb8 9b3d f27f 5dbd 83ad 2dbd
00000280: 4cc1 793d 474d 81bc c703 4f3b bbed b63d
00000290: 1152 bf3b 0f42 f23c 6b69 b5bd 5d03 2b3d
000002a0: 76e7 303e 85e2 9bbe df27 f43c 6c71 673d
000002b0: 5ded eabd a25e 723b c4dc e43b 876d ecbb
000002c0: 86aa 083e b220 ccbc 270d 63be a9ae f63d
000002d0: 6437 87bd 48ef d03c 54cb 49bd 2026 593d
000002e0: 5421 6cbd ffae 9ebd 2a61 05bd ff50 863d
000002f0: ce3c 55bd 916d 0c3d b19e 96bd d459 d43c
00000300: 70cc 8f3d 78f5 093e 55de 3e3c 1b98 b6bd
00000310: 5768 a43c 88f2 4cbb 74bf 653d 43af cb3c
00000320: 99f4 013e 4d45 06bd c8e1 9abd 938f cbbb
00000330: 4fd0 83bc 557a dcbd adbb b43c ef2a 7bbd
00000340: 9717 44bd 8fe6 7dbd 0e9d 78bc 040f 963d
00000350: 8fce 5e3e bce9 fa3d a78b 2a3e fdaa aa3d
00000360: 760a 7bbd 7d23 e5bd d9e6 8d3d 7887 ba3d
00000370: 3bad 91bc ef13 723d 2713 17bd 87e9 dd3c
00000380: 78ef 72bd 3ae8 953b d089 23b9 bec0 e8bd
00000390: edc4 f5b9 a10d e7bd 703e 1b3e 1145 4bbd
000003a0: 592e 00be ef6a 6a3d a009 673d 1f57 d23c
000003b0: 258d 87bd 77dc d53d e5e4 23bc c005 31bd
000003c0: 53a1 5fbe e5ab 9dbc 4787 2b3c 4582 613d
000003d0: 6fe7 a6bd 4ff3 2d3c ac03 e13b 389c 14be
000003e0: a050 dd3d 5ba3 c43d 4a07 71be 1652 3f3d
000003f0: 89ae 713c 94ed 953b 1eb2 b2bd cf66 873d

actor.actor.4.bias f4 [128]
-0.02767043 -0.06768371 0.020871427 -0.14235345 0.03652762 -0.10473697 -0.059939414 -0.027856028
-0.20921542 -0.04721349 0.053085696 0.09121096 -0.028184868 0.01628927 -0.010033506 -0.18039559
0.051376995 -0.19064607 -0.038055945 -0.14463365 -0.13530722 -0.10910205 -0.15102361 -0.0067223846
-0.059848588 -0.024066456 0.09044451 -0.047024433 -0.041908808 0.013587543 0.04953157 0.024682363
0.048638947 -0.01505219 0.0061838333 0.015788991 -0.10077337 0.037858453 -0.072366364 0.08967832
-0.08854108 0.026376681 -0.016557988 -0.15597229 0.028863553 -0.1829854 -0.10144466 0.10914016
-0.015821105 -0.06404466 0.12788495 0.0118990075 0.042648777 0.10012919 -0.09515232 0.010390997
-0.012828277 -0.16949257 -0.013708049 0.06382237 0.018962925 0.03919695 -0.0073064324 -0.076387994
-0.15739024 -0.06990344 0.0662869 -0.0021548097 -0.05026597 0.0063325027 0.0034738139 0.11405563
0.035276342 -0.07342617 -0.061072048 -0.010640668 0.041750025 -0.033922195 -0.049844664 -0.04964717
0.030017445 -0.0938347 0.052488457 -0.10436993 -0.034554925 0.091799065 0.078298345 0.07686878
-0.061603863 -0.12408728 -0.015506567 -0.14061756 -0.001773976 -0.15552041 0.089073785 -0.046002544
-0.06382054 -0.13971268 -0.104010105 0.042699214 0.048212804 -0.040318277 -0.024729917 -0.13114971
-0.02468691 0.035237998 0.018402357 0.028081112 -0.026348934 -0.10203645 -0.15798713 0.03647625
0.04729068 -0.19546874 -0.015923077 -0.13764678 -0.21411382 -0.034679394 0.05093644 -0.009343576
-0.07723162 0.013666269 -0.029104238 -0.16711843 -0.12512624 -0.033028416 -0.027182559 -0.021025842
00000000: 19ad e2bc c29d 8abd 8efa aa3c 1ac5 11be
00000010: fc9d 153d 5680 d6bd 0883 75bd 5332 e4bc
00000020: 913c 56be ef62 41bd 6370 593d d0cc ba3d
00000030: f4e3 e6bc 1371 853c 9363 24bc 9fb9 38be
00000040: af70 523d b938 43be 8de0 1bbd d81a 14be
00000050: fa8d 0abe e570 dfbd efa5 1abe 7347 dcbb
00000060: cb23 75bd 0427 c5bc f93a b93d b19c 40bd
00000070: 92a8 2bbd 499e 5e3c 9ee1 4a3d ab32 ca3c
00000080: a239 473d 769d 76bc c1a1 ca3b ea57 813c
00000090: 4562 cebd 7711 1b3d d134 94bd 44a9 b73d
000000a0: 0755 b5bd e913 d83c 9ea4 87bc 33b7 1fbe
000000b0: 4273 ec3c 8660 3bbe 38c2 cfbd e084 df3d
000000c0: 439b 81bc d929 83bd 46f4 023e 0ef4 423c
000000d0: 7cb0 2e3d 8810 cd3d 38df c2bd 003f 2a3c
000000e0: b22d 52bc 768f 2dbe ba97 60bc 4db5 823d
000000f0: 2358 9b3c fb8c 203d cc6a efbb 4f71 9cbd
00000100: e82a 21be 8929 8fbd 6dc1 873d b537 0dbb
00000110: b1e3 4dbd e280 cf3b eda8 633b 0096 e93d
00000120: ed7d 103d 7660 96bd af26 7abd 3256 2ebc
00000130: 1302 2b3d 00f2 0abd eb29 4cbd d55a 4bbd
00000140: 25e7 f53c 682c c0bd 23fe 563d e7bf d5bd
00000150: 7789 0dbd 2601 bc3d e25a a03d 616d 9d3d
00000160: 5554 7cbd 7921 febd 420f 7ebc 0dfe 0fbe
00000170: c284 e8ba be40 1fbe 516c b63d 2a6d 3cbd
00000180: 58b4 82bd d710 0fbe 4003 d5bd 5fe5 2e3d
00000190: ca7a 453d c724 25bd 6596 cabc 1c4c 06be
000001a0: 343c cabc b855 103d 8ac0 963c 5c0a e63c
000001b0: b8d9 d7bc 7cf8 d0bd 61c7 21be 1f68 153d
000001c0: dfb3 413d f528 48be 1d71 82bc 47f3 0cbe
000001d0: a740 5bbe fb0b 0ebd baa2 503d cc15 19bc
000001e0: 9d2b 9ebd 7de8 5f3c 036c eebc 1821 2bbe
000001f0: 1821 00be ce48 07bd f5ad debc 633e acbc

actor.actor.6.weight f4 [12, 128]
-0.00956261 0.056848936 -0.07457825 0.095495686 -0.07777267 -0.021247162 0.07241468 0.14619248
0.1986358 -0.06380585 -0.060616985 -0.019431736 -0.056688156 0.023862226 0.21052967 0.0009830245
-0.045064278 -0.007819532 0.12285766 0.05923757 -0.18892191 0.026289746 0.010691927 -0.012522563
-0.080050796 -0.06516417 0.03242978 -0.18000253 -0.025444616 0.024983443 -0.19512415 -0.16819935
-0.033014152 -0.12073226 -0.06462155 -0.008589203 0.019165624 0.07141993 0.029553264 0.18480533
0.0017966673 -0.0362534 -0.034916453 -0.018546812 -0.012549037 0.0072151045 0.043194003 0.052151866
0.00060455105 -0.07429772 0.012851929 -0.05337158 0.05989149 -0.044340212 0.17578186 -0.041973513
-0.0756889 0.0032365532 0.06722577 0.09103223 0.029194076 0.0477673 -0.10088616 0.0034930205
0.080726616 0.07654061 0.0015847184 0.016955953 -0.018296454 0.062299322 -0.05331241 -0.09512865
0.043948174 -0.009736125 -0.03818043 0.1605135 0.27079716 -0.060000263 -0.016914409 0.0028628726
0.06386256 0.09011105 -0.040768042 -0.06797926 0.06355984 -0.03423128 0.035056375 -0.06608038
0.024008669 0.009116708 -0.033930264 -0.03501349 0.045875374 -0.03222716 -0.103617035 -0.04729889
-0.08605835 -0.13936299 -0.006673161 0.062188614 0.03625703 -0.017267501 0.0024125758 0.12477782
-0.015982524 -0.043875195 0.053833853 0.012316723 -0.0319028 0.019080801 0.095035605 0.053376056
0.012665321 0.08481653 0.068426006 0.0479152 0.12389006 0.0035373836 0.25935468 -0.07710024
-0.08306863 0.14604038 -0.19305755 0.05149973 -0.05568285 0.05235459 -0.04769081 0.09931441
0.00582458 0.023505684 -0.5288774 -0.21569861 0.015224691 0.028042402 -0.052967235 -0.03888599
-0.014765124 0.032879446 -0.020218538 0.14063214 0.04426497 0.10710694 -0.023408907 0.031054933
-0.07673457 0.016921747 -0.08164072 -0.36192936 -0.066041864 0.059205752 -0.10997931 -0.1314205
-0.091063805 0.043420732 0.011444986 -0.24982834 0.108696006 0.10590492 0.101573184 -0.055593498
-0.023129327 0.1836583 0.16537365 -0.050019953 -0.06639349 -0.044138525 0.015082157 0.092049606
0.009049816 0.021679213 -0.018047582 -0.027583681 -0.017853782 -0.08925941 0.09081965 0.04818737
-0.029880006 0.10164264 0.08225632 -0.15072 -0.1230052 -0.024357123 0.1292618 -0.05114538
-0.030961629 0.04074017 0.044164762 -0.0074310782 -0.10901275 0.03606907 -0.04611458 0.01611554
0.14053676 0.047797177 0.14828916 0.048228223 -0.076934926 0.23595545 -0.011119325 -0.17376132
0.09423032 -0.09852365 -0.025811138 -0.025422834 0.009909351 -0.014207509 0.07616614 -0.043907546
0.028619856 0.05938038 -0.116846666 -0.044480525 0.035142615 0.07728184 -0.19918762 -0.18432297
-0.03387366 0.027049197 -0.016017407 -0.09722851 0.020978376 -0.028377801 -0.023891611 -0.00068771327
0.04713165 0.03043142 0.015859563 0.05035743 -0.09685722 -0.018432725 0.043230575 0.14335616
-0.018856173 -0.017320912 0.008685259 0.047960337 0.041707814 -0.003733247 -0.001792949 -0.07032928
0.08337426 -0.02821656 -0.05256912 0.012590771 -0.020459348 0.04614116 -0.006985733 -0.013367853
-0.0039337045 -0.18354255 0.05202768 0.10618873 0.026490558 -0.057307046 -0.0014926618 0.2196511
00000000: 7eac 1cbc 6eda 683d 7bbc 98bd 3e93 c33d
00000010: 4747 9fbd 870e aebc 264e 943d 7bb3 153e
00000020: 2f67 4b3e a4ac 82bd 8449 78bd 4e2f 9fbc
00000030: d731 68bd b77a c33c 1795 573e d4d8 803a
00000040: 5295 38bd 7f1d 00bc cc9c fb3d 18a3 723d
00000050: bf74 41be 985d d73c 312d 2f3c 702b 4dbc
00000060: acf1 a3bd cb74 85bd 17d5 043d 9552 38be
00000070: 3a71 d0bc 14aa cc3c a0ce 47be 733c 2cbe
00000080: d939 07bd 7a42 f7bd 4e58 84bd bab9 0cbc
00000090: 3a01 9d3c 9d44 923d b019 f23c 9c3d 3d3e
000000a0: 277e eb3a 727e 14bd 8e04 0fbd 7cef 97bc
000000b0: 7a9a 4dbc af6c ec3b 32ec 303d 329d 553d
000000c0: bc7a 1e3a 6729 98bd e690 523c 289c 5abd
000000d0: c750 753d 159e 35bd 2900 343e 6bec 2bbd
000000e0: c802 9bbd 5a1c 543b aaad 893d 1b6f ba3d
000000f0: 6a28 ef3c a5a7 433d 679d cebd 29eb 643b
00000100: ff53 a53d 53c1 9c3d 53b6 cf3a 36e7 8a3c
00000110: 72e2 95bc 932d 7f3d 1d5e 5abd cfd2 c2bd
00000120: 0003 343d 4584 1fbc 1563 1cbd a75d 243e
00000130: eda5 8a3e d6c2 75bd 1690 8abc 089f 3b3b
00000140: 60ca 823d 248c b83d 64fc 26bd b638 8bbd
00000150: a92b 823d 1936 0cbd 4697 0f3d 2655 87bd
00000160: d4ad c43c 3f5e 153c 76fa 0abd 4e6a 0fbd
00000170: d1e7 3b3d a000 04bd 2b35 d4bd 7bbc 41bd
00000180: 5c3f b0bd 2cb5 0ebe 88aa dabb 7db9 7e3d
00000190: 4082 143d 9374 8dbc 4e1c 1e3b 848b ff3d
000001a0: c8ed 82bc 7ab6 33bd e380 5c3d 15cc 493c
000001b0: 83ac 02bd 574f 9c3c 07a2 c23d daa0 5a3d
000001c0: 3582 4f3c 4ab4 ad3d ef22 8c3d bb42 443d
000001d0: 12ba fd3d 73d3 673b 23ca 843e bbe6 9dbd
000001e0: e31f aabd 9c8b 153e e1b0 45be 62f1 523d
000001f0: b313 64bd c471 563d 7057 43bd 5a65 cb3d
00000200: 1edc be3b fe8e c03c 8264 07bf 19e0 5cbe
00000210: fb70 793c 2eb9 e53c 2cf4 58bd ea46 1fbd
00000220: 6be9 71bc 99ac 063d 59a1 a5bc df01 103e
00000230: 2f4f 353d e25a db3d 09c4 bfbc ea66 fe3c
00000240: 0427 9dbd 7a9f 8a3c 4033 a7bd ce4e b9be
00000250: f540 87bd bb81 723d d53c e1bd 1893 06be
00000260: a97f babd f0d9 313d c083 3b3c 00d3 7fbe
00000270: 039c de3d aee4 d83d 9a05 d03d 02b6 63bd
00000280: b779 bdbc ec10 3c3e b657 293e b9e1 4cbd
00000290: 4ff9 87bd 99ca 34bd 271b 773c 8184 bc3d
000002a0: ae45 143c 9b98 b13c 86d8 93bc 2cf7 e1bc
000002b0: 1842 92bc a3cd b6bd a7ff b93d 1f60 453d
000002c0: eac6 f4bc 042a d03d 0076 a83d 5856 1abe
000002d0: 26ea fbbd 9788 c7bc 355d 043e d17d 51bd
000002e0: 3ea3 fdbc 2adf 263d 1ce6 343d 6780 f3bb
000002f0: 1442 dfbd 29bd 133d a4e2 3cbd bd04 843c
00000300: dee8 0f3e f9c6 433d 1dd9 173e f58a 453d
00000310: 0f90 9dbd 4e9e 713e d42d 36bc 7dee 31be
00000320: d3fb c03d c4c6 c9bd e171 d3bc 8c43 d0bc
00000330: d55a 223c 9dc6 68bc fefc 9b3d 66d8 33bd
00000340: 3074 ea3c d738 733d 4e4d efbd 3631 36bd
00000350: b4f1 0f3d f145 9e3d d7f7 4bbe 29bf 3cbe
00000360: 1bbf 0abd 4796 dd3c f036 83bc be1f c7bd
00000370: d8da ab3c 9078 e8bc 57b8 c3bc a847 34ba
00000380: 1e0d 413d 504b f93c eaeb 813c 9843 4e3d
00000390: 145d c6bd 3a00 97bc 8b12 313d f5cb 123e
000003a0: 4378 9abc 96e4 8dbc 9e4c 0e3c 0f72 443d
000003b0: d0d5 2a3d 7ea9 74bb 6301 ebba cc08 90bd
000003c0: 20c0 aa3d 6a26 e7bc b852 57bd 8549 4e3c
000003d0: 5d9a a7bc 83fe 3c3d 93e8 e4bb d704 5bbc
000003e0: 4ee6 80bb 94f2 3bbe fa1a 553d 7a79 d93d
000003f0: ba02 d93c cbba 6abd 6ba5 c3ba 38ec 603e

actor.actor.6.bias f4 [12]
0.042116884 -0.006847954 0.024146192 -0.00362005 -0.0067046266 0.017926835 0.088735774 -0.054920632
0.046852145 0.003903932 -0.011203719 -0.04332907
00000000: c182 2c3d cd64 e0bb 3cce c53c 5c3e 6dbb
00000010: 7cb2 dbbb 4cdb 923c 1abb b53d 75f4 60bd
00000020: 09e8 3f3d 1cd9 7f3b ce8f 37bc d379 31bd

onnx::Div_36 f4 [1, 45]
0.4152252 0.09813212 0.30875164 0.16653733 0.25353357 0.21521585 0.17455164 0.27245823
0.21050559 0.16717124 0.31957617 0.37968418 0.18893732 0.3064956 0.3770178 4.6955295
4.043382 4.1831384 4.642033 4.003093 4.175825 4.311492 4.5386014 4.6012464
4.61604 4.708034 4.586347 1.7493421 1.0917596 0.61475354 0.10225034 0.09881393
0.053490408 0.52374077 0.6403736 0.57811415 0.5201449 0.6720103 0.5730561 0.50608027
0.7272668 0.7920698 0.53958905 0.72779894 0.77197206
00000000: 6698 d43e 7ef9 c83d b214 9e3e c388 2a3e
00000010: 27cf 813e 8b61 5c3e aabd 323e a57f 8b3e
00000020: c78e 573e f02e 2b3e 7d9f a33e f765 c23e
00000030: c978 413e feec 9c3e 7a08 c13e c741 9640
00000040: 6363 8140 45dc 8540 898b 9440 5619 8040
00000050: 5ca0 8540 bef7 8940 393c 9140 693d 9340
00000060: 9ab6 9340 37a8 9640 5bc3 9240 71ea df3f
00000070: c7be 8b3f 7d60 1d3f a068 d13d f55e ca3d
00000080: c218 5b3d e013 063f 86ef 233f 4aff 133f
00000090: 3728 053f de08 2c3f ceb3 123f 7a8e 013f
000000a0: 282e 3a3f 16c5 4a3f 8222 0a3f 0851 3a3f
000000b0: f69f 453f
