src/ga_quadruped/policy/jump_20k.onnx (onnx, 759601 bytes, 10 tensors)

normalizer._mean f4 [1, 45]
000000 5b f9 4a 3f 5b f3 25 3f b1 6e d1 3e de 7b b2 3c
       0.79286736 0.64824456 0.40904763 0.02178758
000010 00 f0 15 3d 42 41 86 be 40 e4 b3 bb ce b1 e9 b8
       0.036605835 -0.26221663 -0.005489856 -0.000111434245
000020 da 98 84 3e de c6 14 bd 4d 7f 1b 3c 35 92 47 be
       0.25897866 -0.036322467 0.0094908 -0.19489367
000030 a2 ce 72 3d 99 dd 8d bc 06 9b 4c 3e 5a 2e 0a bc
       0.05927909 -0.01731758 0.19981012 -0.008433903
000040 d6 6c 13 3c 36 65 29 be 2b 3d 6a 3b 37 cb a6 bb
       0.0089981165 -0.16542515 0.0035742025 -0.005090143
000050 24 94 06 3e 08 bf 67 3b 6c 94 44 bc 77 44 e5 bd
       0.13142449 0.0035361666 -0.011998277 -0.11194699
000060 e8 47 3a bc 42 a0 13 3c 1a c1 11 3e 77 54 11 3a
       -0.011369683 0.009010376 0.14233819 0.0005543897
000070 c0 10 24 bb 47 1b ac 3d ff 30 0b 3c 3f 79 7f bb
       -0.0025034398 0.0840364 0.008495568 -0.003898218
000080 f7 0b 7e bf 2e 77 b0 bd ce 76 48 3d f0 19 68 be
       -0.99237007 -0.08616482 0.048941426 -0.22666144
000090 e8 08 ea 3d 64 69 1c 3c 81 43 5a 3e 38 49 98 3b
       0.1142748 0.009546611 0.21314813 0.0046474
0000a0 f9 51 d4 3d d2 76 22 bc 0a 8b 0a 3d 92 38 c9 bd
       0.103671975 -0.009916024 0.033824004 -0.09825243
0000b0 be 3e 39 3d
       0.04522585

actor.actor.0.weight f4 [512, 45]
000000 5c 8c 97 be 32 11 44 3b ec c3 fc 3e f7 d9 c6 bd
       -0.29599273 0.0029917476 0.49368227 -0.09709542
000010 6f d6 ef bc 39 4b ea bd fe a6 1c 3e fa 64 58 3e
       -0.029277055 -0.11440129 0.15298077 0.2113227
000020 cf 0c 9f 3d 82 54 e6 3d a7 3d 8e 3c 5b d4 11 be
       0.07766115 0.11246587 0.017363383 -0.14241163
000030 35 7b 70 be b0 2f 58 3e 4f 1f bb bd cc 32 0c 3e
       -0.234845 0.21111941 -0.09136831 0.13691252
000040 f9 48 a3 3c 88 c8 bf bd 4b 86 32 3e 43 20 e3 bd
       0.019932257 -0.0936442 0.17434041 -0.11090138
000050 2d 84 ff bc f1 53 50 be 02 9c db bd cf 66 56 bd
       -0.031190956 -0.20344521 -0.107231155 -0.05234414
000060 4b 6e 17 bd 84 2c ac 3a 25 68 c1 bd 5d 4e aa 3e
       -0.036970418 0.0013135825 -0.09443692 0.3326291
000070 f3 ca 05 3e 65 05 82 3d 9a 50 37 3e ea 55 fe 3d
       0.130657 0.06348685 0.17901841 0.124187306
000080 b2 9a 96 3d 70 76 58 bd 71 c2 e8 3c cb 6c 23 bc
       0.073537245 -0.052847326 0.02841303 -0.009974669
000090 41 fa b0 3c 14 88 7f bc 32 57 e7 3c 44 51 bf 3d
       0.021603705 -0.015596408 0.02823982 0.09341672
0000a0 9e 79 7e bd 24 4e fe 3d 7f 54 81 3c a9 89 50 bd
       -0.062127702 0.12417248 0.015787361 -0.050912533
0000b0 b5 9b f5 3c 20 85 98 be 76 21 69 bc 85 75 eb 3d
       0.029981473 -0.29789066 -0.014229169 0.114970244
0000c0 42 c9 ea bd 31 38 a7 be 23 a8 f5 bd a4 8f 88 3d
       -0.11464168 -0.32660058 -0.1199496 0.06668022
0000d0 73 00 76 bb 73 d5 24 be b1 ec 14 bb e5 82 7a 3d
       -0.003753689 -0.1609705 -0.0022724087 0.061159987
0000e0 d1 66 54 be c3 02 83 3e ec 10 8a 3e 8c 17 cb 3e
       -0.20742346 0.25588045 0.26966035 0.39666402
0000f0 c6 2c 10 be 19 fc 87 3c b5 6c 79 3d 6b 20 ba 3d
       -0.1407958 0.016599702 0.060894687 0.090882145
000100 0b 5d 60 ba 0c 06 56 3e 01 ce 31 be 0f 4d 15 3c
       -0.00085587864 0.20900744 -0.1736374 0.0091126105
000110 8d fc bd be 9f e0 0a 3e a0 8d 30 bc 67 49 26 be
       -0.37106743 0.13562249 -0.0107759535 -0.16238938
000120 ad ef ad 3d 4c 48 a9 3d bf 2e 1d 3d bf 77 bc bd
       0.0849298 0.08265743 0.03837466 -0.09202527
000130 07 5f 03 be b5 db 2e 3d 62 a1 9b bd 0c 4a 06 3b
       -0.12829219 0.042689998 -0.07599141 0.0020490913
000140 68 f1 c2 bd 1d 43 62 3d 61 64 09 bd 29 ff 86 3e
       -0.09518701 0.055239785 -0.033542994 0.26366547
000150 ac cd 9c bd 56 62 a3 bd f5 b6 82 bd 80 7b 96 3d
       -0.07656416 -0.079777405 -0.063825525 0.073477745
000160 36 91 95 3d 4b 97 43 3e 71 c4 cd be 67 ef 72 bc
       0.073030874 0.19100682 -0.40188935 -0.014827586
000170 60 c4 fe 3e d8 f6 d0 3d 32 92 92 bd 51 be 86 3e
       0.49759197 0.10203332 -0.07156791 0.26317075
000180 19 af c6 3c 3a 25 57 bd 1b 80 a6 bd db 8c c8 bd
       0.024253415 -0.052525736 -0.08129903 -0.09792491
000190 38 73 18 bb 12 45 1e 3c 2c bb 2f be f6 4c 15 3e
       -0.0023262035 0.009660022 -0.17161244 0.1458014
0001a0 eb 1b 05 be ff 78 ab bc 8e 2d f2 bc 59 ee f2 3c
       -0.12998931 -0.020931719 -0.029562738 0.029654669
0001b0 55 5e ba bd 5e ff 36 bd 72 31 42 3e e6 50 54 3d
       -0.09100024 -0.04467713 0.18964174 0.051834963
0001c0 37 06 f5 bd 85 ed a7 3c a4 9c de bd 0a b2 89 3d
       -0.11964076 0.020499 -0.108697206 0.067234114
0001d0 4c 17 d7 3c 2d 39 19 3d 5d 28 20 be cd e6 2e 3d
       0.026256226 0.037408043 -0.15640397 0.042700578
0001e0 9d 2a 2e bd 89 c2 8a 3e 67 34 ce bc 4d f8 8a 3b
       -0.042521108 0.27101544 -0.025171472 0.0042410255
0001f0 19 c5 67 bd 9f 4d a7 3d d5 27 aa bb 83 85 07 3e
       -0.05658445 0.08169102 -0.0051927366 0.13234524
000200 32 42 ec 3d 5a e3 e5 bc f2 9c 60 3d 7e ec 35 be
       0.11536063 -0.028062511 0.054837175 -0.17765996
000210 c8 8c 7c 3c e2 94 62 bb 22 97 05 3d 41 37 a4 3d
       0.015414424 -0.0034573604 0.032614835 0.08018351
000220 c4 3d bc bd f7 0c 14 3e 34 41 24 3e 97 e3 bc bd
       -0.09191468 0.1445807 0.16040498 -0.09223097
000230 28 7d 3e 3e 67 4e 0d 3e 98 e6 a1 3e 5f d7 cb 3d
       0.18602431 0.1379944 0.31621242 0.09953188
000240 42 5f c5 bd c4 08 a7 be ab bf dc be 52 db 14 3e
       -0.096373096 -0.32623875 -0.4311498 0.14536789
000250 bd e7 4d 3e f3 1d e9 3d 50 89 01 be 2e db 25 3d
       0.20107932 0.113826655 -0.12650037 0.04049223
000260 a3 4e 33 bc 5b f6 09 be fd cb 12 3c 4e 19 25 be
       -0.010944041 -0.13472883 0.008959767 -0.16122934
000270 04 73 e1 bb 80 90 b2 bd a4 4f 24 3d 1e b4 e1 3d
       -0.006880166 -0.087189674 0.040115014 0.11020683
000280 1a 93 94 3d 30 29 38 bd e1 42 f9 bd 48 a6 d3 3e
       0.0725462 -0.044961154 -0.12170959 0.413378
000290 5f 6e c0 bb b4 85 09 3e 75 99 1c 3e 5e b4 2a bd
       -0.0058725323 0.1342991 0.15292914 -0.041675918
0002a0 0c e7 49 bc 60 11 bc 3d cb 3a c3 bd a3 9c d6 bc
       -0.012323152 0.091830015 -0.09532698 -0.026197737
0002b0 7c f6 02 3d 44 20 95 3d a4 db 1b bd db e5 b6 bb
       0.031973347 0.07281545 -0.038051262 -0.0055816
0002c0 a6 72 0e 3e a6 c2 51 bc 84 31 4a 3c ba af f8 bc
       0.13910922 -0.012802755 0.012340907 -0.03035723
0002d0 b4 97 a1 3c 8b 60 ff bd 37 f4 0d 3e 25 7e 95 3c
       0.019725658 -0.12469586 0.13862692 0.018248627
0002e0 9e 3d 94 3c 03 97 35 3e 55 09 b7 3d 9b 45 2d be
       0.018095788 0.17733388 0.08937327 -0.16921084
0002f0 b6 a2 30 be b1 38 75 bd 05 62 ac 3c da 40 5e bd
       -0.1724957 -0.05986852 0.021042833 -0.054261066
000300 d3 b1 a7 3d 16 e3 1b bc ef f2 13 3c 41 6f 92 be
       0.08188214 -0.009514591 0.009030088 -0.28600505
000310 91 3e 3c bd 7b c4 f7 bc f3 9d bf bd 5c 31 2d 3d
       -0.045958105 -0.030245056 -0.09356298 0.0422834
000320 4d 25 fe bd 6c 71 00 3d 8c de fb 3c 2c 39 56 be
       -0.12409458 0.031358168 0.030745767 -0.20920247
000330 39 37 64 3e 6f 7b 34 3d 1e 6c 23 bd a5 aa f6 bd
       0.22286691 0.044063028 -0.03989803 -0.120442666
000340 d6 0b 6b 3e b5 86 b1 3c d6 d6 a1 be 1b 33 fc bc
       0.22953734 0.021670679 -0.3160922 -0.030786088
000350 10 62 b8 3d 79 71 7d bd 90 86 7b 3d 38 c7 ae bd
       0.09003079 -0.061875794 0.061407626 -0.08534092
000360 4f f1 e4 bd fc af 9f bd 96 69 86 bc 21 65 f0 3d
       -0.111788385 -0.07797238 -0.01640777 0.11738039
000370 ed a1 dc bd 66 a9 06 be d4 31 84 3d 04 d6 ed 3c
       -0.107730724 -0.13150558 0.064548165 0.029032715
000380 74 cd 9b bc e4 78 12 be af 2d e3 3c 7d 75 dc be
       -0.019018866 -0.14303929 0.027731745 -0.43058386
000390 75 d1 39 3e 6b a8 25 be a9 b5 02 be 6c 7c 6e be
       0.18146308 -0.16177528 -0.1276461 -0.2328965
0003a0 b1 6b c2 3b ea a6 68 3e 20 ce 96 bc 49 f9 91 3d
       0.005933248 0.22719923 -0.018408835 0.071276255
0003b0 eb 9f a3 be 53 1b 98 3b b4 72 90 bd 82 d0 6b 3d
       -0.31957945 0.004641929 -0.07053128 0.057571895
0003c0 a2 c5 bb 3b 57 b0 f7 bc 54 98 63 3d ad 2d cc 3d
       0.005730347 -0.030235453 0.055565193 0.099696495
0003d0 0c c8 c5 3d 5e b0 0a be 8b ee 88 bb 77 80 46 3d
       0.096572965 -0.13543841 -0.004178827 0.048462357
0003e0 3a 64 39 bd 92 bf ad bc 59 01 f3 bc d8 55 ba bc
       -0.0452616 -0.021209512 -0.029663729 -0.022746012
0003f0 ad 86 88 3e 7b ef 1a 3e e8 d4 09 3d 4e 98 49 be
       0.2666525 0.15130417 0.03365031 -0.19687006

actor.actor.0.bias f4 [512]
000000 ba 21 28 be 76 eb bb be 27 4d d9 be 0a e7 37 be
       -0.16419116 -0.3670308 -0.42441675 -0.17959228
000010 25 e3 91 3e bf f6 c8 3d c4 e1 1c bf 14 98 cd be
       0.2849361 0.09812688 -0.6128199 -0.4015509
000020 f9 f0 d9 3d 07 fd c5 3d 39 61 8d 3c 64 1e 35 3e
       0.10641665 0.09667402 0.017258273 0.17687374
000030 82 fc 4a 3d ff c7 6f be 61 eb 3c 3e 6c ee 3a 3e
       0.049557216 -0.23416136 0.18449165 0.18255013
000040 4c b7 36 3f d5 29 03 be 4c d0 20 be c8 50 a4 be
       0.7137344 -0.12808926 -0.15704459 -0.3209288
000050 9c 62 a5 be 39 63 1b be 9d c2 a6 be 91 e2 f9 3d
       -0.32301795 -0.15174569 -0.32570353 0.12201417
000060 e6 e0 83 3d 41 e8 1a 3e 6e 12 d5 be 9c 3d 8d be
       0.0643938 0.1512766 -0.41615623 -0.27586067
000070 b6 c0 b5 3e cf f2 c1 bd d3 db 10 be 65 4a c1 3e
       0.3549859 -0.0947014 -0.14146356 0.3775207
000080 71 bb 92 3c 50 30 74 be dd 7f 55 3a 97 17 34 3e
       0.017911645 -0.23846555 0.0008144358 0.17587124
000090 46 f0 49 3e 13 94 59 be 8a 17 ee bc aa 74 7d 3e
       0.19720563 -0.21247892 -0.029063959 0.24751535
0000a0 84 03 1c 3e 20 72 56 be eb f7 10 3e df 14 60 be
       0.15235716 -0.20941973 0.14157073 -0.21882962
0000b0 7a 88 46 be f9 c1 24 be 3d 6d ef be 61 3c ec bd
       -0.19387999 -0.1608962 -0.4676303 -0.11534954
0000c0 7e e0 b4 be 62 44 ee 3e e3 d5 8f be d9 cb 04 bf
       -0.35327524 0.46536547 -0.2809287 -0.51873547
0000d0 3f 53 39 be 61 b4 c9 bd 48 aa 4f be e8 f7 a4 be
       -0.18098162 -0.09848858 -0.20279801 -0.32220387
0000e0 4d 82 9f be 5a 1d e7 bd 49 c7 04 3e 6b 09 23 be
       -0.311541 -0.11284895 0.12966646 -0.15921561
0000f0 02 66 10 3e 16 43 3e be 7d d5 24 be 99 15 16 bf
       0.14101413 -0.18580279 -0.16097064 -0.58626705
000100 c8 ef 17 be 3d 9e 40 3e 88 a1 7d bd e7 67 1d be
       -0.14837563 0.18810363 -0.061921626 -0.15371667
000110 c3 ea 73 be 48 3c 1a be ec 89 1e be 17 6e c5 3d
       -0.23820023 -0.15062058 -0.154823 0.096401386
000120 79 cb bf 3d 02 97 4a bd 2a 93 4b be 9c 7c a2 bd
       0.09364981 -0.04946042 -0.19880357 -0.079339236
000130 d2 8d 8b 3e d2 f3 4e be b5 f0 a1 3c da 8a 35 3e
       0.27256638 -0.20210198 0.019768098 0.17728749
000140 8d 33 b9 be af 0f 69 3e 13 4f 29 be 71 7e 9b bc
       -0.36172143 0.22759889 -0.1653407 -0.01898119
000150 7d b9 9c 3d 84 44 26 bf b6 30 29 be da bf 21 bf
       0.076525666 -0.64948297 -0.16522488 -0.6318337
000160 94 a6 ec 3d 73 41 80 be af f6 28 3d d6 28 1d 3b
       0.1155521 -0.25049934 0.04125088 0.002398064
000170 cf 5e cd be 52 b2 2f be 6c 21 58 be c8 4d a8 be
       -0.40111396 -0.17157868 -0.211065 -0.32871842
000180 c4 6b 62 be 8d 19 86 be a6 06 11 bf ac 55 7b be
       -0.22111422 -0.2619137 -0.5665077 -0.245444
000190 33 62 16 be c6 c4 c8 be 29 ea 50 be 44 9d e1 be
       -0.14685898 -0.39212626 -0.20401825 -0.44065297
0001a0 4e 2f 31 bf a5 81 7b be 73 e9 8c 3d 3d a7 21 3e
       -0.69212806 -0.24561174 0.068804644 0.15786453
0001b0 d5 ca 39 3e 49 cc ab 3d 1a 8b 8b be a8 b8 3a bf
       0.1814378 0.08388574 -0.27254564 -0.72938013
0001c0 ae 7a f4 bd 55 b2 61 be e9 3d 82 be c4 18 82 be
       -0.11937462 -0.22040685 -0.2543786 -0.2540952
0001d0 c0 e2 2c be ff 5f 93 be 59 17 9f be 4d ad 49 3d
       -0.16883373 -0.28784177 -0.310725 0.049237538
0001e0 c8 31 c1 be b6 fd 0b 3e f5 e0 c8 be 4c 06 90 3e
       -0.37733293 0.13671002 -0.3923413 0.28129804
0001f0 54 27 c3 be ea df d5 be e5 83 b1 be ea 04 62 be
       -0.38115942 -0.41772395 -0.3467094 -0.22072187
000200 4c 8d 4b 3e 62 61 d2 bd b6 e3 a6 bd 38 7b 49 bf
       0.19878119 -0.102724805 -0.08148901 -0.7870364
000210 9d 76 8d bd b9 db 62 be 4c 6d ca be 2d 99 06 bf
       -0.06907389 -0.2215413 -0.39536512 -0.5257748
000220 16 ba c6 be 60 c1 5a 3d e2 ab 14 bf 37 8a 58 bd
       -0.38813847 0.053407073 -0.5807477 -0.052866187
000230 b9 6d 7d bd d7 ef 0c be 1f f8 19 bf 12 37 9e be
       -0.061872218 -0.13763367 -0.6014423 -0.3090139
000240 04 17 f4 be 6e 58 9e be be c4 b2 3e 07 de 24 be
       -0.4767381 -0.30926841 0.34915727 -0.16100322
000250 31 ea 37 be e7 1b eb 3b 30 ab bc be 57 ec a5 be
       -0.1796043 0.007174957 -0.36849356 -0.32406875
000260 97 12 9a be 8d d2 b6 be 09 58 8b 3d 68 06 b1 3d
       -0.30092308 -0.35707512 0.06803901 0.086438
000270 95 cb e8 3a 8d 3f 20 bc 33 1a 06 bf 9b 2c 3a be
       0.0017760867 -0.009780777 -0.52383727 -0.18181078
000280 f3 79 fd bd f0 85 06 bf db cd d7 bd 85 1a b8 3d
       -0.123767756 -0.5254812 -0.10537311 0.08989433
000290 2a 23 54 be 8f 6b 2a be 80 5b 80 be 74 69 9c be
       -0.20716539 -0.16642593 -0.2506981 -0.30549204
0002a0 7b 97 91 be 01 89 b8 3d 1d db 1d be e5 9f b5 bd
       -0.28435883 0.090105064 -0.15415616 -0.08868388
0002b0 d1 ac 13 bf 60 19 98 be b9 aa 93 be 8d 3f 73 3e
       -0.5768557 -0.2970686 -0.2884119 0.23754711
0002c0 fa a8 20 bf d3 ec fc 3a 7a 13 57 3c 03 66 53 be
       -0.6275784 0.0019296653 0.013127202 -0.20644383
0002d0 df d3 b7 be 91 01 c5 be 30 33 13 be c5 23 66 be
       -0.35903832 -0.38477758 -0.14374995 -0.22474582
0002e0 06 88 be be 9f 7a a6 bd a0 18 cd bb d2 7a b1 3d
       -0.37213153 -0.08128857 -0.006259039 0.08666004
0002f0 7f 7e 2b be 6f a6 8b be 0e f0 99 be 81 5b 1b 3d
       -0.16747473 -0.27275416 -0.3006596 0.03792906
000300 de c7 6b 3e 98 01 76 be 31 26 3a be 8f ef 1e be
       0.23025462 -0.24024045 -0.18178631 -0.15521072
000310 c5 2b 7e bd 2a 1b 1b bf 22 b1 18 bf ee 2d 75 be
       -0.06205346 -0.60588324 -0.59645283 -0.23943302
000320 8a 03 c3 be c3 22 9f be 15 19 77 be 4a 05 fc bd
       -0.38088638 -0.3108121 -0.24130662 -0.12305696
000330 5a a7 62 be 6d d5 98 be 6c 30 8f be 17 bd ed bd
       -0.22134152 -0.2985033 -0.2796663 -0.11608332
000340 1a f5 07 3e d5 62 a3 be 8f 13 2c bf 2c 6a f7 bd
       0.13277093 -0.3191134 -0.67217344 -0.120807976
000350 5b e8 e8 3c d3 fd c4 bd 1c ca 13 be dc 76 49 be
       0.028431108 -0.09618726 -0.14432567 -0.19674248
000360 37 f5 1b be 06 79 72 3d 16 57 18 3e 49 4e cd bd
       -0.15230261 0.05919745 0.1487697 -0.10024697
000370 9a 37 2f be c6 3d 0d be 2e 22 b8 bd a6 70 ae be
       -0.17111054 -0.13793096 -0.08990894 -0.3407032
000380 91 92 15 be 62 27 43 be 9f 5d 18 bd 08 16 4f be
       -0.14606692 -0.19057992 -0.03719866 -0.20223248
000390 78 93 96 3d 03 17 5a be 41 f2 96 bd fa 0c 6f be
       0.07352346 -0.21297841 -0.07370425 -0.23344794
0003a0 c2 e9 69 be c0 2c dc bd 21 10 1c 3e 4d 81 ff bd
       -0.22843078 -0.10750723 0.15240528 -0.12475834
0003b0 d3 35 87 be 00 72 ab bd d4 f5 b9 bc 55 3e 52 3d
       -0.26408252 -0.08371353 -0.022700228 0.051328976
0003c0 03 10 3c be c1 3e 43 3c f0 2f 85 be d8 7c 6b 3e
       -0.18365483 0.011916817 -0.26013136 0.22996843
0003d0 3c 9e 11 bf 56 07 0e bd d1 06 01 be b8 3e 8c 3e
       -0.5688207 -0.034674965 -0.12600257 0.273916
0003e0 7c bd b8 bd 23 b2 4a be ee de 4d 3d 97 3c 09 be
       -0.09020516 -0.19794516 0.05026143 -0.1340202
0003f0 07 29 96 be a0 35 27 be 64 b1 5b 3e 70 e8 c8 3c
       -0.29328176 -0.1632905 0.21454388 0.024524897

actor.actor.2.weight f4 [256, 512]
000000 7a d2 31 be 11 45 00 3e 11 57 2e be a4 93 35 bd
       -0.17365447 0.12526347 -0.170254 -0.044330254
000010 17 d2 30 3e c7 9a a3 bd 7e e5 f4 3d 8d 48 ec bd
       0.17267643 -0.07988506 0.11957835 -0.115372755
000020 26 e7 94 3d ac b2 14 3d 91 47 09 bd 80 8c 26 3e
       0.072706506 0.036303207 -0.033515517 0.16264534
000030 62 1b 98 bd 04 27 f5 3d f8 0f 94 3c 31 06 15 bd
       -0.07427098 0.11970332 0.01807402 -0.036382858
000040 4a 72 02 be d0 23 20 be 64 7a 75 3e a7 4b e3 bc
       -0.1273891 -0.15638661 0.2397247 -0.027746035
000050 5a c9 8d 3e e6 91 af bd f1 32 c4 3d df ed 8b bd
       0.27692682 -0.0857275 0.09580029 -0.0683248
000060 cd 70 f1 3d 4f d1 c3 3d db 41 0c 3e cb 0a 04 be
       0.11789093 0.09561407 0.13696997 -0.12894742
000070 ba 1e ec 3c b7 2d 89 3c b3 e4 05 bd 59 28 00 3e
       0.028823245 0.016745431 -0.032688808 0.12515391
000080 78 9d 55 3d 15 04 91 3d 73 ae c5 3d 1d 8b 37 3e
       0.052152127 0.07080857 0.09652414 0.17924161
000090 7d 19 84 3c 5f 47 14 3d 59 98 a3 3d 71 07 5c bd
       0.016125435 0.036200877 0.079880424 -0.053718034
0000a0 a7 62 04 bd a7 a5 64 bd 82 18 5e bd c2 53 0c 3d
       -0.032320645 -0.05582204 -0.05422259 0.034259565
0000b0 d5 d2 4d 3e b6 7c 7a be e9 9d f9 3d e3 1b b4 3d
       0.20099957 -0.24461636 0.12188322 0.087943815
0000c0 3a 9e c8 bc 90 c4 d0 bd d4 91 36 3e 4d a8 bd bd
       -0.02448951 -0.10193741 0.17829067 -0.092606165
0000d0 01 81 a8 3c 8f a3 5a be 4e a0 e0 3c c9 ad ff bc
       0.020569326 -0.21351455 0.02742019 -0.031210797
0000e0 e4 1f a8 3c 5f 5a 18 be 3f 1c de bd 7c ab 66 3d
       0.02052302 -0.14878224 -0.10845231 0.056315884
0000f0 c4 55 85 be 23 96 cf 3c 49 a3 2a 3d 0a 15 46 3e
       -0.26041996 0.025340145 0.041659627 0.19343963
000100 28 b1 20 3d 58 7b a6 be a2 c6 4f bd 0d ae 89 3e
       0.03923145 -0.3251598 -0.05072654 0.26890603
000110 f6 55 39 3d d7 17 22 3d 4e 01 25 be 28 f9 5f 3d
       0.045247994 0.039573517 -0.16113779 0.054680973
000120 0f 30 10 be 7a db 61 3d 50 58 63 bd e8 26 8c 3d
       -0.14080833 0.05514095 -0.055504143 0.06843358
000130 80 ad 10 3e 58 3d c2 3e 7d a1 b2 3c fe 7f 48 3d
       0.14128685 0.37937427 0.02180552 0.048950188
000140 e9 b1 36 3e 3b e2 cd bd 5b 4e 39 3d a9 aa 0d 3d
       0.17841305 -0.10052916 0.04524074 0.034586582
000150 b8 6a 07 bd 7d 40 11 bd da e7 86 3d 4d 80 1a 3e
       -0.03306076 -0.03546189 0.06587191 0.15088005
000160 a6 36 b8 bc f2 73 dc bd 83 c3 ac bb d5 c2 eb bd
       -0.022486996 -0.10764302 -0.0052723303 -0.11511771
000170 45 0e c6 bd d1 05 01 be ea aa cb 3d 02 25 c8 3d
       -0.096706904 -0.12599875 0.09944709 0.09772684
000180 e8 63 46 be 5b df 45 3e e1 1d e3 3d 84 db 2c be
       -0.19374049 0.19323485 0.11089683 -0.16880614
000190 9a d6 58 3d 55 75 82 be b5 e3 3e be 93 1d 89 3d
       0.052939035 -0.25480142 -0.18641551 0.06695094
0001a0 25 ca 52 3c 0e c6 c5 3d f5 c8 98 3d 6f 03 3f bd
       0.012865578 0.096569166 0.074602045 -0.046634134
0001b0 e8 c6 01 be 11 fd 1f be 70 ed fd bd ff 98 99 3d
       -0.12673533 -0.15623881 -0.12398803 0.07499885
0001c0 94 54 9d bd d4 50 0a be 52 6e e6 3b 66 e9 25 be
       -0.076821476 -0.13507396 0.007032194 -0.16202316
0001d0 13 2e 7d be 37 54 33 be 48 b1 49 be 6a 24 de be
       -0.24724607 -0.17512594 -0.19696534 -0.43387157
0001e0 7b 7c 20 3d 70 64 5e be 8d 09 34 3e ed 15 bf 3d
       0.039181214 -0.21718001 0.17581768 0.09330354
0001f0 b8 54 34 be a8 2b 3d be 30 00 4a 3b 59 4f 01 3e
       -0.17610443 -0.18473685 0.0030822866 0.12627925
000200 a2 e4 b6 bc 2c 21 a2 bd 11 60 e1 bd e8 16 24 3d
       -0.022325817 -0.07916483 -0.11004651 0.040060908
000210 88 82 6d be 17 da 00 bd 70 e4 3c 3e 3e bb 56 bd
       -0.23194325 -0.031457987 0.18446517 -0.05242466
000220 84 25 22 be a9 b0 aa bd ce dc db 3d 92 0d ee bd
       -0.15834624 -0.083344765 0.107354745 -0.11623682
000230 b0 2f c1 bc b9 49 04 be 5d 81 97 3d 52 85 d4 bd
       -0.02358231 -0.12918748 0.07397721 -0.10376991
000240 9f 9b 0c 3e 9e 15 4b 3c 8c 20 02 3e eb 5e 33 be
       0.1373124 0.012395291 0.12707728 -0.17516677
000250 4c 38 24 be fb 4c d0 bd 5d 46 c6 bb 13 83 2d 3e
       -0.160371 -0.10170933 -0.0060508684 0.16944532
000260 f4 7a 12 be 62 81 43 be b3 f1 57 be 54 bd 10 3e
       -0.14304715 -0.19092324 -0.21088295 0.14134723
000270 98 ca 76 be e7 46 36 be 58 2d 69 3d ec 71 db bd
       -0.24100721 -0.17800485 0.05692801 -0.10715088
000280 bc c4 9d be 7c a4 43 3b cd 5d 4d 3e 15 44 58 3d
       -0.3081416 0.002985268 0.20055313 0.052799303
000290 12 4c 98 3c 99 28 f1 3d 25 01 1c be 1b 73 63 3d
       0.01859096 0.117753215 -0.15234812 0.055529695
0002a0 5a 2c 43 3e 4c 6b e4 be 00 5f 96 bd bb 9a 0e bd
       0.19059888 -0.4461311 -0.073423386 -0.03481553
0002b0 04 5b 18 3e 16 c3 00 3d 3b 3b db 3d df 71 d8 3c
       0.1487847 0.03143605 0.10704657 0.026421485
0002c0 a1 e5 fc 3d 56 63 66 3d bd d6 ed bd 00 57 d0 3d
       0.12348486 0.056247078 -0.11613224 0.10172844
0002d0 4a 43 1a 3d 6e d1 e6 bd 85 b0 8d bd ce bd 69 3e
       0.037661828 -0.11270414 -0.06918434 0.22826311
0002e0 73 8f 17 3e f1 12 0e 3e b4 c4 01 be f0 53 0b 3d
       0.14800815 0.13874413 -0.12672693 0.034015596
0002f0 99 72 ea 3d a2 d1 72 be 22 61 76 bd 6f 7d 09 be
       0.11447639 -0.23712781 -0.060151227 -0.13426755
000300 4c 58 85 bd fc 4b 7a bd 70 82 04 3c 44 ae a0 3d
       -0.06510982 -0.06110762 0.008087739 0.078457385
000310 0b 00 2a be 82 66 c2 3c bd b0 4e 3e 0e 66 4f 3d
       -0.16601579 0.02373052 0.20184608 0.050634436
000320 17 8a ac bd 53 f6 0b 3e 22 72 f9 3d 16 8a 58 3d
       -0.08424776 0.13668184 0.12179972 0.052866064
000330 fc c1 99 3c 4f 94 09 bd bc fb 35 3d 21 dc cd 3c
       0.018769257 -0.033588704 0.044429526 0.02512938
000340 f9 da ac bb b0 7e 2c bd 7c f2 23 3e 0f 8c 1c 3e
       -0.005275127 -0.042113006 0.16010469 0.15287803
000350 af 42 8c 3d e4 03 55 3e b5 87 ec bb 32 6c 33 3e
       0.068486564 0.20802265 -0.007218326 0.17521742
000360 dc e8 14 be 13 34 13 bd f0 f9 b7 bd 25 6a a6 bc
       -0.14541954 -0.035938334 -0.08983219 -0.020314286
000370 17 d2 9b bd 4f 8b 80 3c 34 e7 67 bd 6a 11 06 3e
       -0.07608431 0.015691428 -0.056616977 0.1309258
000380 7f 72 af 3d 29 31 61 be 3d 4f 22 bd 68 e8 63 be
       0.0856676 -0.2199141 -0.03962635 -0.22256625
000390 27 04 19 bd 6d a1 76 be 64 cf 69 bd 0c 7e 3b bd
       -0.037357476 -0.24085017 -0.05708255 -0.045774505
0003a0 49 26 82 bc 8e f3 c4 bc 3c 4c 4f ba e2 d1 01 3c
       -0.015887396 -0.024041917 -0.0007907783 0.007923575
0003b0 19 f7 86 bc 1b bb 04 3d 49 2f d0 bc c9 4c a4 3d
       -0.016475247 0.032405 -0.025413172 0.08022458
0003c0 2b 7c e7 3d 33 a4 3c be 4c 07 b8 3e 3e b8 ac be
       0.1130298 -0.18422012 0.35943067 -0.33734316
0003d0 88 5b 94 3e a4 31 a4 3c f8 66 fe 3d e7 66 38 be
       0.28976083 0.020043202 0.124219835 -0.18008004
0003e0 da 0d c4 bc f1 00 af bc 9b ef f3 bd 7a 8c ac bd
       -0.023932386 -0.021362754 -0.119109355 -0.08425231
0003f0 63 b4 ec 3d 5c 94 91 3d 1b d7 a5 bd 06 f4 8d 3d
       0.115578435 0.071083754 -0.08097669 0.069313094

actor.actor.2.bias f4 [256]
000000 6c 2c bc bd 37 9a 19 bd 88 45 57 3c 32 91 fa bd
       -0.0918816 -0.037500586 0.013139136 -0.12234725
000010 eb ed 87 be 19 4e 4e be 00 db 14 3d 9e 67 e3 3c
       -0.26548705 -0.2014698 0.036341667 0.02775937
000020 7d 13 0d 3d 15 c2 71 be 63 c3 be bd b5 a3 27 be
       0.034442414 -0.23609193 -0.09314611 -0.16371043
000030 62 48 86 3d 27 75 15 3e de c3 65 3d aa 95 55 be
       0.06556775 0.14595471 0.056094997 -0.20857874
000040 d7 ba 9d be b6 d7 5d be e8 4c bb be 00 6c 34 bd
       -0.3080661 -0.21664318 -0.36582112 -0.04404831
000050 28 42 e3 bd f2 e6 7f 3d 8f 39 20 be b5 48 fd bd
       -0.11096603 0.062476106 -0.15646957 -0.123673834
000060 0d 5b 99 bd 7f 58 2c bd 29 08 ac bd 29 6b 88 be
       -0.0748807 -0.042076584 -0.08399994 -0.26644257
000070 1e 7a 26 3d 79 4c 0c 3e 3e 15 95 bd 0f 3d 35 bd
       0.040643804 0.13701047 -0.07279442 -0.044247683
000080 b7 08 48 be 34 34 d2 bd 51 fe 83 be 73 d0 80 be
       -0.19534574 -0.10263863 -0.25779966 -0.25159034
000090 eb 5a ee 3d d6 64 dc bd cf 5e a9 bc df f7 2f be
       0.11638435 -0.107614204 -0.020675091 -0.17184399
0000a0 f9 02 2f be 66 bf 31 bd c8 42 14 3e 76 d6 e7 3d
       -0.17090978 -0.043395422 0.144786 0.11320202
0000b0 7f c0 81 be 6e 91 82 be e1 b1 8a be 05 4c 91 bd
       -0.25342175 -0.2550158 -0.27088836 -0.07094578
0000c0 c0 78 8e 3d e6 a4 60 be 50 17 53 bd 71 8d 10 be
       0.06956625 -0.21937904 -0.051535904 -0.14116456
0000d0 39 d0 5a 3d 5b 34 ba be 01 1d 45 be c7 4c c6 bd
       0.053421233 -0.3636807 -0.19249345 -0.09682613
0000e0 cb 78 8f be b7 df 99 3d 47 3d f2 bd be cb 36 be
       -0.28021845 0.07513373 -0.11828094 -0.17851159
0000f0 6a 0c e2 bd c9 97 23 be 40 1b 0a be 4c ca fe 3b
       -0.11037524 -0.1597587 -0.13486958 0.0077755805
000100 0b 55 36 be 5c 8b 87 be b1 08 94 bd fe 3b 4a be
       -0.17805879 -0.2647351 -0.0722822 -0.19749448
000110 b9 8f 75 be 18 22 a6 bd 71 e9 4f be 5d ac 86 be
       -0.23980607 -0.081119716 -0.20303895 -0.26303378
000120 c6 a4 59 be 2a 5a 1c be bb 71 9c be 51 2f 35 be
       -0.21254262 -0.1526877 -0.3055552 -0.17693831
000130 54 ef 57 be 93 4d a0 bd 94 dc 49 be b4 5d ce bd
       -0.2108739 -0.07827296 -0.1971305 -0.10076466
000140 f2 71 20 be d0 5f 03 bd ea a4 51 3e 5a 7f 42 be
       -0.15668467 -0.032073796 0.20473066 -0.18993893
000150 ef 64 23 bd e4 96 14 3d a4 ae b8 bc 0c e4 8c 3b
       -0.03989118 0.036276713 -0.022544213 0.0042996462
000160 b6 43 5b be c7 04 85 be af 7b 5e bd 9c f4 5a be
       -0.21412548 -0.25980207 -0.054317173 -0.21382374
000170 44 cb 78 be 39 85 d4 be 3a 7a 00 be d9 13 b2 be
       -0.2429629 -0.4150789 -0.12546626 -0.34780768
000180 b2 06 c9 bd b0 f2 8a 3c 17 d2 4a 3e 10 7e e3 bc
       -0.0981573 0.016961426 0.19806705 -0.027770072
000190 dd 80 16 3e 96 e6 4c be 58 79 bd bd 4e 83 61 be
       0.14697595 -0.20009837 -0.0925166 -0.22022745
0001a0 5c e3 21 3d 79 ed ad bd 2a b5 24 be 9a 78 bb be
       0.039523467 -0.0849256 -0.16084734 -0.3661545
0001b0 c1 ef 1a be 79 19 db bd b1 0c ba bd 78 ed d7 bd
       -0.15130521 -0.10698218 -0.09084452 -0.105433404
0001c0 cb 5c 08 be 42 df 73 be cb 55 33 be 19 76 02 be
       -0.13316648 -0.23815635 -0.17513196 -0.12740363
0001d0 cf 77 da bd 87 88 16 bd 47 8d 38 3e a5 7d 9a be
       -0.10667383 -0.036751296 0.18022643 -0.30173984
0001e0 f0 17 6e be 92 83 36 bd 41 78 17 be fc c6 57 be
       -0.23251319 -0.04455907 -0.14791967 -0.21072
0001f0 62 5c 1f be 2f cd fc bd eb 79 19 3e 1e 19 9d be
       -0.15562585 -0.12343823 0.14987914 -0.30683225
000200 3b 37 07 be cc 51 16 be fa 2a 2c be 0d c4 55 bd
       -0.13204663 -0.1467964 -0.1681327 -0.05218892
000210 54 44 4d be 57 4c 04 be c5 79 3c be bc 66 83 bd
       -0.20045596 -0.12919746 -0.18405826 -0.064160794
000220 cf 09 f1 bd d3 d2 f4 bd ce 7d f4 bd bc 32 07 be
       -0.11769449 -0.11954274 -0.11938058 -0.13202947
000230 69 16 b7 3b d6 fc 61 be 41 7f b6 3d d2 c0 b4 bd
       0.0055873883 -0.22069106 0.089109905 -0.0882584
000240 2e 96 ca bd af 08 55 be e7 9e 96 bb 51 d0 b6 3d
       -0.09891926 -0.20804094 -0.0045965794 0.08926452
000250 c7 97 06 be de 15 8a be 2f 29 c0 bd 69 b2 07 3e
       -0.13143836 -0.26969808 -0.09382855 0.13251652
000260 d2 0a c5 be b2 a4 a7 be fd 70 0b be a1 2d ce bc
       -0.38484818 -0.3274284 -0.1361732 -0.025168242
000270 e8 23 88 3d b3 94 60 be cd 52 87 bd b1 39 1f bd
       0.066474736 -0.21931724 -0.0660759 -0.03887338
000280 fc de 9c bd 35 19 62 3d 64 c8 48 bd 7a 60 8c 3d
       -0.076597184 0.05519982 -0.049019232 0.06854339
000290 9e 6a 44 bd 8b 0f 68 bb 88 fd 8d be 9a 77 03 be
       -0.04795324 -0.0035409655 -0.27732491 -0.12838593
0002a0 0e 54 df bc ce f5 3f be 04 2b b6 bd 08 c8 1e be
       -0.02726176 -0.18746111 -0.08894923 -0.15505993
0002b0 a7 4b 7f be a2 71 43 be 69 1d d5 bd 45 42 7a be
       -0.24931203 -0.19086316 -0.10406 -0.24439342
0002c0 23 0f d5 be af 31 e5 bd 4e 7c e7 bd 98 50 8c be
       -0.4161311 -0.11191117 -0.11303006 -0.27405238
0002d0 13 b2 f3 be 73 e2 a2 be 80 6c a2 be 0c 5a 1f be
       -0.47596797 -0.31813392 -0.31723404 -0.15561694
0002e0 25 2b a9 bd cd 58 22 be da f3 9d be be 15 9f bd
       -0.08260182 -0.15854187 -0.30850106 -0.07767819
0002f0 f7 f3 d2 bd dd a1 7e be 9b 20 fd bc 27 db e7 3b
       -0.10300439 -0.24866433 -0.030899337 0.0070756855
000300 bf 5f 80 be 96 ba 21 bd 64 b4 89 bd 39 3b 60 be
       -0.25073048 -0.039484583 -0.0672386 -0.21897592
000310 a3 ae f4 3c 75 2f 32 bd 6b 98 cb bd 3c 28 6a be
       0.02986843 -0.04350229 -0.09941181 -0.2286691
000320 03 b3 58 bd db 73 78 3c a8 9b 32 be 98 27 91 3c
       -0.052905094 0.015164341 -0.1744219 0.017719075
000330 39 b5 13 be 7a a3 a9 be e7 5c 11 be d5 b5 11 be
       -0.144246 -0.33132535 -0.14195596 -0.1422952
000340 2a 96 19 3d 9d e2 c2 bd a8 3f 96 bd b8 02 82 be
       0.037496723 -0.09515879 -0.0733636 -0.253927
000350 55 77 ad bd 8d 1a 08 3e 83 25 66 be d5 1b 8c be
       -0.084700264 0.13291378 -0.22475247 -0.27364984
000360 f7 77 b4 bd fc d1 08 be e3 93 40 bd 41 71 15 be
       -0.08811944 -0.13361353 -0.047016036 -0.14593984
000370 ef bb d7 bd 1a a8 1f bd 54 71 44 be 9f fe 8d be
       -0.10533892 -0.038978674 -0.19183856 -0.27733323
000380 92 ac 14 bd 19 f9 d9 3d 79 4e 31 be 1f 26 a0 be
       -0.03629739 0.10643215 -0.17315091 -0.31279084
000390 9f a9 ec bd 61 5e 27 be 40 1e db bd 08 a8 6a be
       -0.1155579 -0.16344596 -0.10699129 -0.22915661
0003a0 9e e2 1c be fb ef 85 3d 61 98 71 3b 45 0e 21 be
       -0.15320823 0.06539913 0.0036864507 -0.157281
0003b0 1a ce 30 be 01 73 1a bd cb 05 52 be e1 15 00 be
       -0.17266122 -0.037707333 -0.20510022 -0.12508346
0003c0 9a 4d 4d be 04 2f 5d be c0 f7 85 bd 3a ef ea bd
       -0.20049134 -0.21599966 -0.06541395 -0.1147141
0003d0 a0 3d 98 be 59 36 88 bd 98 8f 9b bd 54 e4 a5 be
       -0.29734516 -0.06650991 -0.07595748 -0.32400763
0003e0 4c db 46 be 5d 63 30 3e 78 72 b6 be d7 35 e8 bb
       -0.19419593 0.17225404 -0.35634208 -0.0070864963
0003f0 e3 3c 5a bd 2b 5d 15 be 8f 55 6d 3c b8 cd 47 be
       -0.053280722 -0.14586322 0.014485731 -0.19512069

actor.actor.4.weight f4 [128, 256]
000000 ff 6b 49 3e f2 7b 94 3d 27 00 7a 3d fc 89 fd bd
       0.19670103 0.07250203 0.0610353 -0.12379834
000010 fb 44 1d be 95 64 04 bc e9 13 3d bd d8 4d 2f be
       -0.15358345 -0.008080621 -0.046161566 -0.17119539
000020 12 e2 a8 3d 3b c1 01 3e 3f 17 98 be 5d 2c 05 be
       0.082462445 0.12671368 -0.29705235 -0.13005204
000030 67 47 24 3e 0a ee 67 3d 6c bb bb 3d d2 13 0d 3e
       0.16042863 0.056623496 0.09166607 0.13777092
000040 9c 47 d2 bd d5 58 70 be bb d1 19 3e 91 bf 86 3d
       -0.10267565 -0.23471387 0.15021412 0.06579507
000050 db ce 9f 3d ed aa 34 bc 0c 85 a0 bc 01 68 64 bc
       0.078031264 -0.01102708 -0.019594692 -0.013940812
000060 76 0a 57 3e 4f d1 73 be ba cf b7 3d 0f b8 b0 3d
       0.21000084 -0.23810314 0.089751676 0.086288564
000070 a7 46 7b bc bd a9 1c 3e 8f c9 63 3e e0 27 84 be
       -0.015336669 0.15299125 0.22244857 -0.25811672
000080 2a af 27 bd 60 5a 88 bd 15 17 7a 3e c6 bc 4d 3e
       -0.040938534 -0.06657863 0.24422868 0.20091543
000090 c1 fe 9e bd a8 b9 05 be 4f ed 89 bd 92 27 5b ba
       -0.07763434 -0.13059103 -0.06734716 -0.00083600834
0000a0 41 21 50 bd 6f 94 0e bd b8 97 e0 3d 61 b0 f1 bd
       -0.050812963 -0.034809526 0.10966438 -0.1180122
0000b0 e7 a4 ec 3d d2 b5 d3 3c 44 5e 25 be ea 6c 19 be
       0.1155489 0.025843535 -0.1614924 -0.14982954
0000c0 ab fa 9e 3e 0c 71 8e bc 0b a2 5b 3e 15 9f d0 bd
       0.3105062 -0.01738789 0.21448533 -0.101865925
0000d0 a1 15 31 3c b1 39 3e be 1f 56 4f 3e 15 1e 66 3d
       0.010808379 -0.18576695 0.20247696 0.056181032
0000e0 9a c1 f6 3c 7a 23 59 be 99 82 76 be 0a 90 b8 bd
       0.030121613 -0.2120494 -0.24073257 -0.09011848
0000f0 bc 75 b7 be 98 95 f2 3d bf ca 31 3d 62 6e 31 be
       -0.35832012 0.11844939 0.043406244 -0.17327264
000100 38 06 b0 bd 51 79 11 3d e7 e5 3d 3c da 94 a8 be
       -0.08594936 0.035516087 0.0115904575 -0.32926065
000110 a1 a5 fb bd 3e d5 aa bd a0 98 22 be 9e 23 39 bd
       -0.122874506 -0.08341454 -0.15878534 -0.045199983
000120 43 d9 8c 3c 42 43 fe bd 70 5a d0 3c 61 30 9f 3d
       0.017193442 -0.12415172 0.025433749 0.077728994
000130 6a c7 82 3c 5a ae d3 3d 49 5e e8 3d 05 bf 24 be
       0.015964229 0.10335989 0.113461085 -0.16088493
000140 ef e2 6b be 92 25 1e 3d b1 44 51 be 2e fb 52 be
       -0.23035787 0.03861005 -0.2043636 -0.2060363
000150 30 e8 33 3e 59 fa d0 3e 5e c4 a7 bb 9a a8 1a 3e
       0.17569041 0.40816 -0.0051198443 0.15103379
000160 66 cd 50 3d 51 a2 d6 bc e9 39 2c 3e 95 62 20 3d
       0.050977133 -0.026200445 0.16818966 0.039156515
000170 b3 3a 74 be be 48 77 be fd af 43 3e 5b 47 0e bf
       -0.23850517 -0.24148843 0.19110103 -0.5557763
000180 e8 92 b7 ba af 97 80 be 50 44 a1 bd fa 20 10 bd
       -0.0014005573 -0.25115725 -0.07874358 -0.0351877
000190 f4 b0 1d bd b7 f7 b9 3c f1 0d 8e 3e 79 61 a4 3e
       -0.038498834 0.022701127 0.2774501 0.32105616
0001a0 21 36 67 be ce d2 5f 3d d6 25 0c be 43 01 3a be
       -0.22579242 0.0546444 -0.13686308 -0.18164544
0001b0 20 90 1b 3e 39 bf 3a 3d 40 16 3a bc 2a 3d 4c be
       0.15191698 0.04559252 -0.011357844 -0.19945207
0001c0 2c 7f 16 bb b3 95 8c 3e c1 b5 50 be f8 83 cf 3d
       -0.0022963984 0.2745796 -0.20381834 0.10132593
0001d0 96 77 b2 3d 18 92 ae bd 24 af 84 bd 32 81 05 be
       0.087142155 -0.08523959 -0.06478718 -0.13037565
0001e0 fc f3 75 3e 1a 2b 74 3d 53 bb 6a 3d 2a 88 80 3e
       0.24018854 0.059611417 0.057307553 0.25103885
0001f0 8a 23 91 bd b4 ce 80 3d bf d3 39 bd a2 ce 0c 3e
       -0.07086857 0.062894255 -0.045367952 0.13750699
000200 9f 38 87 3e 1f 87 35 bc bc 84 59 3e 21 fb e7 bd
       0.26410386 -0.011079579 0.2124204 -0.11327196
000210 37 ee c0 3c 87 23 27 bd 78 6e 99 3c 77 53 d2 3c
       0.02355109 -0.040805366 0.018729433 0.025674565
000220 6b b1 25 bc 63 3e 0a 3d 8a 8c 8b bd d4 b2 4c be
       -0.0101131005 0.033750903 -0.06813915 -0.19990093
000230 3d 39 1f bd d1 a6 8b bd 58 56 1c be bc 0c 6b be
       -0.038872946 -0.06818927 -0.15267313 -0.22954077
000240 bd 46 64 3e 0c ca 72 bd 3e 84 18 3d 55 c6 12 be
       0.2229261 -0.05927472 0.03723549 -0.1433347
000250 65 3e 97 3d 22 98 9a 3e db cc 8b bc d9 31 b1 3b
       0.07384948 0.30194193 -0.017065456 0.0054075536
000260 85 8e 5c 3d 38 49 1a 3d b9 d4 df bd 1a 3e 9f bd
       0.053846855 0.037667483 -0.109292455 -0.07775517
000270 ab da f6 3d 9e 71 eb bb ad 2b 62 be f2 be 40 3d
       0.12053426 -0.007185175 -0.22086973 0.0470571
000280 f6 15 1f 3e d2 f4 35 3d fa 14 10 be 09 81 99 3d
       0.15535721 0.044422932 -0.14070502 0.07495315
000290 a6 57 f7 bd 42 0d 97 3e b7 b8 6a be 4b e8 33 3e
       -0.120772645 0.29502302 -0.22922026 0.17569081
0002a0 69 e0 16 be 6f c0 1a 3d 41 49 95 be 06 65 71 3e
       -0.14734043 0.037781175 -0.2915745 0.23573694
0002b0 40 ba 23 3e 16 5b 95 3a 08 5f a9 bd d8 7c e4 3d
       0.15989017 0.0011394944 -0.08270079 0.111566246
0002c0 d2 a1 f4 3e db a7 cc 3d 92 ea 77 3d c4 f7 45 3e
       0.4777971 0.099929534 0.060526438 0.19332796
0002d0 f3 dd 9c 3c e7 49 86 3c 6b 09 9a bd cc 11 c9 3d
       0.019148802 0.016392661 -0.075213276 0.098178476
0002e0 e9 4c 6b bd 68 40 04 3e 9e 18 26 3d 3d c8 cc 3d
       -0.057446394 0.12915194 0.04055082 0.0999913
0002f0 66 4f f1 3c 8b 42 09 bb ad 8b 00 be 38 83 4e 3e
       0.029456805 -0.0020944204 -0.12553282 0.20167243
000300 03 8e 87 bd 90 65 d1 bd d4 47 9a bc df 41 10 3e
       -0.066188835 -0.1022445 -0.018833078 0.14087628
000310 65 04 a8 bd 99 59 58 3c b9 8e 86 be ce e0 36 3d
       -0.08203963 0.0132049555 -0.26280764 0.044647984
000320 1f b3 ec be 52 ab e2 3d 28 30 24 3c 9d a2 8b bb
       -0.4623041 0.11067833 0.010021247 -0.0042613284
000330 1d 3c fe bd fe 4c 42 be fe ab ce bd 3f 3e 0c 3d
       -0.124138094 -0.18974683 -0.10091399 0.03423905
000340 7e 34 e2 3d 97 1f e6 3c 15 28 a8 3e 0c 42 c2 bd
       0.11045168 0.028091235 0.3284308 -0.09485254
000350 33 e6 13 3e bb 43 a5 bc 0e 10 53 3e c1 ee b1 bc
       0.14443283 -0.020173898 0.20611593 -0.021720292
000360 81 7c 53 bd dd bc 68 bc 19 90 8c 3c 1d bf ea 3d
       -0.051632408 -0.014205185 0.017158555 0.11462233
000370 db df 45 be d2 29 d8 3d ea 8a b2 bd fe 48 b4 3b
       -0.19323675 0.105548516 -0.08717902 0.0055018654
000380 65 ac 8a 3d 57 02 d6 bd d9 bb ae 3d 76 54 aa bd
       0.06771163 -0.10449665 0.08531923 -0.08316891
000390 23 d2 1f bd 45 de ab bc 38 28 43 bd 4c 65 e9 3c
       -0.03901876 -0.02098001 -0.047645777 0.028490685
0003a0 25 d7 ad bd 14 4f 02 be 8f 84 c2 3d 46 d8 8c 3d
       -0.08488301 -0.12725478 0.0949794 0.068771884
0003b0 f8 7b dc 3d 9b 2e ab 3d e3 43 4e 3e 18 b4 e0 bc
       0.10765833 0.08358499 0.20143084 -0.027429625
0003c0 49 d7 85 3c 93 8b cd 3d 5a e3 6e bd ad 6e af be
       0.016338008 0.10036387 -0.058322288 -0.34264126
0003d0 25 e8 50 b9 20 f3 2e 3c 52 fd 53 bd 33 60 f7 bd
       -0.00019922906 0.010678083 -0.051755257 -0.120788954
0003e0 47 9e 45 be f9 f7 de bd 68 17 98 be d5 db 14 3e
       -0.1929866 -0.10887141 -0.29705358 0.14536984
0003f0 5b db a3 bc 40 0a 10 3d e3 72 90 be bc bb 13 3e
       -0.020002058 0.035166025 -0.28212652 0.14427084

actor.actor.4.bias f4 [128]
000000 12 a1 ad bd d2 26 da bc ae 1e 26 be 39 01 98 bd
       -0.08477987 -0.02662984 -0.16222641 -0.07422108
000010 d5 35 21 be 1e a6 a2 3d 55 40 2f 3c 19 56 ba be
       -0.15743192 0.079418406 0.01069649 -0.36393812
000020 11 1f fc bd 85 b4 1a 3d c4 a8 af 3d 9a b1 3a be
       -0.12310613 0.037769813 0.08577111 -0.18231812
000030 25 e3 d8 bd f2 f4 69 3d 1e 66 5a bb 4f a5 64 be
       -0.105901994 0.057118364 -0.0033325027 -0.22328685
000040 ae e1 13 be 83 69 47 be f7 9d 0d be c3 b1 ff 3d
       -0.14441559 -0.19473843 -0.1382979 0.12485077
000050 83 9e a9 be d3 60 99 be 5f 34 50 bd 39 aa 13 be
       -0.33128747 -0.29956684 -0.050831195 -0.14420404
000060 d5 f6 9a bd 43 f2 08 be 50 87 1e bd e4 2f 2f bd
       -0.07566611 -0.13373666 -0.038703263 -0.04277028
000070 c7 02 d3 bd 5a 72 55 bd 45 d0 8d bc 55 58 eb bc
       -0.10303264 -0.052111007 -0.017311225 -0.028728643
000080 27 b7 1b bc 86 11 0a 3d f9 4a 8c bd 1d 8d fe bd
       -0.009504116 0.033708118 -0.068502374 -0.12429259
000090 f9 d4 16 be e3 89 1d bd 89 b1 36 3e 6f 3f 08 be
       -0.1472968 -0.038461577 0.17841162 -0.13305448
0000a0 5c 3f 2f bd e0 ae 29 bd 2a b7 2e be ca db 9d bd
       -0.042785034 -0.04142654 -0.17062059 -0.07707937
0000b0 98 26 26 3e fa 97 03 bd f9 f0 13 be a2 80 2f be
       0.1622566 -0.032127358 -0.14447393 -0.17138913
0000c0 87 18 3e bc da 9f f9 bd b0 bc b6 3d a7 90 e9 bc
       -0.011602527 -0.121886924 0.08922708 -0.028511358
0000d0 07 5b cc be 62 8c 04 be 4a 93 d4 bd 5f 2c 5b be
       -0.39913198 -0.12944177 -0.10379656 -0.21403645
0000e0 2a 87 fa bd 25 19 ab be bb 10 fc bd b7 6b 16 bc
       -0.12232812 -0.3341762 -0.123078786 -0.009180955
0000f0 aa 84 2d bd 54 20 ce bd 8d 6c 09 bc 14 65 3a bd
       -0.042362846 -0.1006476 -0.008387697 -0.04550655
000100 39 89 05 bc 06 ef 98 3c af d7 9f 3d 78 5c e6 ba
       -0.008150392 0.018668663 0.0780481 -0.0017575165
000110 c1 e5 c0 3d 6c ac af bc e9 d6 f4 bc a6 ca 5d be
       0.09418822 -0.021444522 -0.029887633 -0.21659335
000120 c3 c5 99 be 1b 45 cf bd cd bb bf 3c 76 6e 83 bc
       -0.30033693 -0.10120603 0.02340498 -0.016043883
000130 63 09 6b be fb d6 85 be 47 e6 5c be 42 77 dc bd
       -0.229528 -0.2614058 -0.21572219 -0.10764934
000140 b2 d6 47 be be 22 57 be f5 8a a8 bd 83 a1 a3 bd
       -0.19515494 -0.21009347 -0.08229629 -0.0798979
000150 e6 36 fb 3d 7f a6 93 bd 4e 6e 13 bd 7a 6c 0e be
       0.122663304 -0.07209491 -0.035993867 -0.13908568
000160 0b c7 46 3c 73 6e 90 bd 14 66 1b be d7 d9 0b 3d
       0.0121324165 -0.070523165 -0.15175658 0.034143295
000170 5a 90 15 be 3f ff 79 3e 98 55 27 3c cb 3d 51 bd
       -0.14605847 0.24413775 0.010213278 -0.05108432
000180 3f 05 0a 3d 98 59 a6 3c 4b 99 3c bb c1 7e 88 bd
       0.03369641 0.020306394 -0.0028777893 -0.066648014
000190 bc d6 1a be 73 d0 f1 bd 0e 13 b4 3b d8 f2 10 be
       -0.15120977 -0.11807337 0.0054954356 -0.14155138
0001a0 ac a4 59 be 60 f3 29 3d cc 97 18 be 35 51 43 bd
       -0.21254224 0.041491866 -0.14901656 -0.047684867
0001b0 58 cc 8a 3d ec bc 87 bd 34 27 22 be aa 62 a0 3d
       0.06777257 -0.06627831 -0.15835267 0.07831319
0001c0 50 34 b3 bd a0 6d 25 bd 70 a7 a8 3b f6 2f 13 3e
       -0.08750212 -0.04038775 0.005146913 0.14373764
0001d0 f2 83 a7 3d 26 b6 23 3c 62 72 3a 3d 4a ba 1c 3e
       0.081794634 0.009992158 0.04551924 0.15305439
0001e0 66 31 ff bd f3 26 94 bd c9 d1 ec bd ba f1 3e bd
       -0.12460594 -0.072339915 -0.11563451 -0.046617247
0001f0 bd 57 b2 3d b7 dd a9 3d 41 aa 1e 3d 39 84 32 bd
       0.08708141 0.08294242 0.038736586 -0.04358313

actor.actor.6.weight f4 [12, 128]
000000 40 6a 1b 3c 37 23 31 3d dc 6a 1a 3e 01 96 c7 3d
       0.009485781 0.043246474 0.15079826 0.09745408
000010 f7 23 0d 3e ac 35 03 3d 7a 7f 1e bd e1 16 d4 bd
       0.13783251 0.032033607 -0.03869579 -0.10355926
000020 38 97 43 3d c0 e6 c2 be b3 0c 04 be ac cb 16 3d
       0.047751635 -0.38066673 -0.1289547 0.03681533
000030 dd 13 eb 3d f7 9f 89 bd 94 e7 b7 3c 81 7a f9 bb
       0.11478398 -0.06719964 0.022449292 -0.0076134806
000040 4b 04 02 bd 98 94 e3 bd a0 fe a2 bd 6b b0 b9 bc
       -0.031742375 -0.111123264 -0.07958722 -0.02266713
000050 f8 0e 59 bd cc 38 8a 3c 18 34 4d bc 1f 24 cf bd
       -0.05299279 0.016872786 -0.012524627 -0.101143114
000060 c5 93 7e bc 5c 07 40 3c ac 17 de bd 31 1c 6e 3d
       -0.015538161 0.011720505 -0.10844359 0.058132354
000070 29 c0 0a be 59 0b 0e bc 19 3f ab bc cc 3d 14 be
       -0.13549866 -0.008669698 -0.02090411 -0.14476699
000080 99 71 01 3e a5 e6 3e bd 53 9e ae bd 74 78 2b bc
       0.1264099 -0.04660668 -0.08526292 -0.01046573
000090 49 aa 43 bd a2 32 6b bd 2c 22 db 3d 7d 1b 13 3e
       -0.04776982 -0.057421334 0.10699877 0.14365955
0000a0 54 85 bf 3d 6f 38 16 3d 26 25 17 bb 3f c6 43 3d
       0.09351602 0.036674913 -0.0023062914 0.047796484
0000b0 3b ad 67 3e 18 58 3e 3c 3f 1a ce 3c 7d 62 d2 3d
       0.22624676 0.011617683 0.025159 0.102726914
0000c0 2c 26 81 bd 91 bd 82 bd 30 2a ae bc 49 d5 84 bd
       -0.06306109 -0.06383813 -0.021260351 -0.064859934
0000d0 64 a0 15 3d 20 b4 d7 bd 93 96 4e 3e 2b ca 94 bd
       0.036529914 -0.10532403 0.20174627 -0.07265123
0000e0 3d 3e 88 bc dd 55 67 3c 0a a9 08 3d 9d e1 c0 bc
       -0.01663124 0.0141195925 0.033364333 -0.02354508
0000f0 6f 2a 17 bd 62 71 c5 bb 2a bd 0b 3d d9 d5 3e be
       -0.036905702 -0.006025479 0.034115948 -0.18636264
000100 2d be a5 bd 64 5d 18 3d 81 86 0a 3e 83 44 6c 3e
       -0.08092914 0.03719844 0.13527872 0.2307301
000110 27 ba 03 bc 7f 7f fa 3c df 17 e9 3b 33 a4 4d bc
       -0.008039988 0.030578373 0.0071134414 -0.012551355
000120 c4 88 0f 3d 3c 9c fb 3a 78 61 ee bc 79 2b 92 3c
       0.03504254 0.0019196342 -0.029099211 0.017842995
000130 89 4f 1b bd 93 be e3 3d 28 7f 9f 3c 56 37 00 bd
       -0.037917648 0.111203335 0.019469813 -0.031302772
000140 77 5f 0e 3d de 86 d7 3c f9 f1 fd bc a9 84 c0 bc
       0.03475901 0.026309427 -0.03099917 -0.023500757
000150 07 c0 b8 ba d1 f7 94 bd 6e 60 5d bd ed bb 90 3d
       -0.0014095315 -0.0727383 -0.05404704 0.07067094
000160 07 47 90 3d 89 8d 74 3d 6e 94 f3 3c c0 51 2e be
       0.070447974 0.05970529 0.029733863 -0.17023373
000170 32 e7 11 3d 21 3b 85 39 a3 96 ce bc 03 e0 fc 3d
       0.035620876 0.0002541179 -0.025218314 0.12347414
000180 f9 e7 6c 3d a8 a8 12 bd 0a bd 24 bd cc 3d bc 3d
       0.057838414 -0.035805374 -0.040219344 0.09191474
000190 ca 98 4d bd 8b 97 22 3d 47 47 a9 3c f2 04 59 3b
       -0.05019454 0.039695304 0.02066387 0.003311452
0001a0 bf 8f 64 bd 60 99 89 3d a6 70 ab 3c 13 1d e3 bd
       -0.05580115 0.06718707 0.020927738 -0.1108953
0001b0 4a 4f e7 3d fd 41 92 3c 86 7d e1 3b dd 9d ca bc
       0.1129442 0.017853731 0.0068814186 -0.024733478
0001c0 54 39 fe 3c 4c ac d5 bc 18 f9 04 bd c0 82 75 bd
       0.031033196 -0.026083134 -0.032464117 -0.059939146
0001d0 19 c0 84 3c 6f e8 a6 3c 82 f7 f7 3c 39 8d e9 bd
       0.01620488 0.020374505 0.030269388 -0.11403889
0001e0 32 6f bb 3c 7a 39 f4 bb 26 0a 88 bc cb ae a0 bb
       0.02288017 -0.007453141 -0.016606402 -0.0049036494
0001f0 51 53 b9 3c 7d 49 9b bb 8a 72 68 3d 92 85 08 bd
       0.022622736 -0.004738985 0.056749858 -0.033330508
000200 b9 c4 e3 3b 46 ce 66 bc f7 05 0e bd 39 0b 69 3c
       0.0069509414 -0.014087265 -0.034673657 0.014223867
000210 28 c9 eb bb 1b e0 ad bd 27 01 a8 3d c5 01 86 3c
       -0.0071956106 -0.0849001 0.08203345 0.016358266
000220 d0 06 a1 3d 52 ac 4a 3c 47 36 ad 3d cf 1d e9 bc
       0.078626275 0.012370186 0.08457618 -0.028456597
000230 28 23 36 3d bd 70 56 3c 36 c4 7d bc 54 71 f5 bd
       0.04446712 0.013088402 -0.015488675 -0.11984506
000240 42 df e9 3d 0c 4a dd bd db 27 d0 bc 0c 1b a7 bd
       0.11419536 -0.10805139 -0.02540963 -0.08159456
000250 1d a3 58 bc 82 02 95 bc ff c5 39 bd 1e 85 ab 3d
       -0.013222483 -0.018189672 -0.04535484 0.083749995
000260 84 8e a1 3d e5 ce 35 bd b7 7f 93 be 5f 8b 02 bd
       0.07888511 -0.044386763 -0.28808376 -0.031871196
000270 9e b8 1f 3d b7 a3 e3 3c 25 b9 0b bd da 6d c3 bb
       0.038994424 0.027788026 -0.034112114 -0.005964023
000280 c0 bb 86 3d a8 41 69 3d 24 6f 25 3c 91 70 c0 3c
       0.06578779 0.05694738 0.010097299 0.023491176
000290 70 35 79 bd ee f3 9a bd ad 25 f0 3b 1d de d2 3c
       -0.060841978 -0.07566057 0.00732871 0.025740677
0002a0 d2 d0 49 be fe ca 60 3d 91 58 9f bc 70 fb ac bd
       -0.19708565 0.05488109 -0.019451411 -0.084463954
0002b0 14 37 98 bc 0a 60 fb 3b 80 2e 09 bc fa ad ff ba
       -0.01858095 0.007671361 -0.008372903 -0.0019506805
0002c0 76 5d e2 bd 06 02 25 3d 9c a9 23 bd 6e 34 8f 3c
       -0.110529825 0.040285133 -0.039956674 0.017481055
0002d0 ce 00 26 be 3c 5d 32 bc 20 16 fc 3b 63 ce 04 3d
       -0.16211244 -0.010886487 0.007693067 0.03242339
0002e0 95 b4 0b 3d eb 76 9b bc de 9b 79 3c e5 46 81 bd
       0.034107763 -0.018977603 0.015234916 -0.0631235
0002f0 66 ad d1 bc 7c ad 84 be 5c 75 bb 3d 11 79 5e 3c
       -0.025595378 -0.25913608 0.09153244 0.013578669
000300 e9 6a 85 bd e6 e5 24 bb 3a 35 b5 3d 35 97 7f bd
       -0.06514532 -0.0025161444 0.08848043 -0.06240006
000310 37 a1 90 3c ea a0 19 bd f7 c1 cc bc 26 96 01 3d
       0.017654998 -0.037506975 -0.024994833 0.031637333
000320 6c 2d 7e bc 4b b5 66 bd ea 04 07 3d b8 fe 78 3d
       -0.015513759 -0.05632524 0.03296367 0.060789794
000330 05 dd ef bc 5a e4 93 bc 2d 3a 41 bd 5d c6 9e bb
       -0.029280195 -0.018053222 -0.04717462 -0.004845424
000340 4c 1c 86 3b ae 14 3c 3d fd 8c f6 bc 9e 8e 53 3d
       0.0040927287 0.04591816 -0.030096525 0.051649682
000350 84 02 e3 bb 6d a0 f5 bc a5 83 2f bd e1 0c 18 3d
       -0.00692779 -0.029983724 -0.042850155 0.037121657
000360 79 f0 0f 3c 08 28 3a bb 86 7e 3c 3d b0 c1 27 3d
       0.0087853605 -0.0028405208 0.0460191 0.0409562
000370 16 d1 d4 3c 53 ca 24 3e 7a 64 82 bc 07 fe 66 3c
       0.025978606 0.16092806 -0.015917052 0.014098651
000380 91 10 c3 3d 48 83 cf bc 21 44 32 be de e6 65 3d
       0.09524644 -0.025331154 -0.17408802 0.056128375
000390 5a d2 9b 3c d7 47 1d bd 23 73 04 3d f7 49 46 3d
       0.019021202 -0.03839859 0.032336365 0.048410382
0003a0 60 ed 99 3b b4 1b 66 3e 9c 39 84 bc 54 72 14 3d
       0.0046974868 0.22471505 -0.016140752 0.036241844
0003b0 98 02 cf bd b2 bd b9 be f4 44 00 be c7 d7 76 bd
       -0.101079166 -0.3627754 -0.12526304 -0.060264375
0003c0 6b d1 83 bd b7 f8 b6 bc 26 c7 59 3d 34 55 0f 3e
       -0.06436428 -0.022335393 0.05316844 0.13997346
0003d0 4c 65 b7 3c 0a d6 2b 3d 96 60 c9 3d 1b 36 ae 3b
       0.02238717 0.04195217 0.098328754 0.0053165085
0003e0 70 54 27 3a cb e3 02 3d 44 05 33 3e 14 95 8d 3c
       0.00063831266 0.03195552 0.17482477 0.017283
0003f0 64 6b 47 bd 50 98 51 bd b8 18 0c 3d 2d 21 16 3d
       -0.0486864 -0.051170647 0.03420326 0.036652733

actor.actor.6.bias f4 [12]
000000 76 77 f5 3b 05 3f cb bd ac d3 9b 3c b8 23 89 3c
       0.0074910475 -0.099241294 0.019021831 0.016740665
000010 b0 d5 53 3d 6c b5 eb bd ac 34 7f 3d 20 a1 99 bb
       0.05171746 -0.11509213 0.06230609 -0.004688397
000020 33 42 7f 3e 14 a8 13 3d 12 10 c4 bc ac 62 74 bd
       0.24927597 0.036048964 -0.023933444 -0.059664413

onnx::Div_36 f4 [1, 45]
000000 06 9c d4 3e d0 98 c2 3d 15 13 9e 3e 63 29 39 3e
       0.41525286 0.09501803 0.30873933 0.18082194
000010 50 3c 77 3e 00 81 7b 3e 37 67 2e 3e bc 49 81 3e
       0.24144101 0.24560928 0.17031561 0.25251567
000020 53 77 61 3e de 22 21 3e d7 68 98 3e 6b 25 be 3e
       0.22018175 0.15735957 0.29767486 0.37137923
000030 1d df 24 3e 53 97 9a 3e e8 8f b8 3e ef 4d 94 40
       0.16100736 0.30193576 0.36047292 4.6345134
000040 49 f2 82 40 91 42 94 40 71 8f 92 40 2c 45 83 40
       4.092076 4.633126 4.58001 4.102194
000050 83 2f 87 40 11 94 8a 40 71 e1 9b 40 a9 e7 99 40
       4.22455 4.3305745 4.8712697 4.809529
000060 6b 73 97 40 3d 79 a3 40 e5 cb 9e 40 dd 8a e4 3f
       4.732839 5.1085496 4.9623895 1.7854878
000070 cd 8c 91 3f 0e 19 17 3f ee f1 c7 3d a7 36 cb 3d
       1.1371094 0.59022605 0.09762941 0.099225335
000080 a6 69 5e 3d e6 99 08 3f d6 5b 1d 3f 1c a2 26 3f
       0.054299973 0.5335983 0.61468256 0.6509111
000090 76 23 03 3f 9d 7c 22 3f a9 78 16 3f c4 92 fe 3e
       0.51225984 0.63471395 0.5877786 0.49721348
0000a0 5b 4b 38 3f 1a ab 4e 3f 19 a9 00 3f b3 ec 39 3f
       0.71989983 0.8072983 0.5025802 0.726268
0000b0 12 e4 4a 3f
       0.7925426
