src/ga_quadruped/policy/low_height_r_1000.onnx (onnx, 776049 bytes, 10 tensors)

normalizer._mean f4 [1, 53]
00000000: c49f 03bb a5d4 243a 586b 273b df27 063b
00000010: bb28 06bb bb28 06bb df27 063b bb94 0f3d
00000020: b994 0fbd b994 0fbd bb94 0f3d 373e 64bb
00000030: 1147 733d 7893 b9bd 8bc5 393c 57db d6bd
00000040: 0773 003e a9ba 333c 2f30 d13d b193 b3bd
00000050: bc69 e0bc 56a4 d3bc fcc6 d13d 50cc 8cbc
00000060: 26f9 e83c 1abd b5bd 918a 7a3d c6ac 1738
00000070: b85c e23d 23ab 193d b6c7 d0bb e3a2 66bd
00000080: b15d a1bc 67ba 283d 5e99 ab3d fdd1 b4bc
00000090: f7ca 583a 047b 47bc 75cc 06bc b878 573b
000000a0: d4ed 79bf 3501 1bbd 0424 56bc ee57 a63d
000000b0: 9d67 413d 5df0 a9bd 4712 473c 62c7 143d
000000c0: 8545 823e 3381 b03d 925f 82bd fe88 fbbd
000000d0: 252f e7bd
-0.0020084241 0.000628779 0.002554616 0.0020470542 -0.0020471055 -0.0020471055 0.0020470542 0.03505395
-0.035053942 -0.035053942 0.03505395 -0.0034827122 0.059393946 -0.090613306 0.011338602 -0.104910545
0.1254388 0.010969796 0.102142684 -0.08768404 -0.027394168 -0.025835197 0.102430314 -0.017187268
0.028439116 -0.08873959 0.061167303 3.6162113e-05 0.11052841 0.037516724 -0.0063714636 -0.056307685
-0.019697996 0.041193392 0.08378862 -0.022072786 0.000826999 -0.012175325 -0.008227457 0.003287835
-0.9762852 -0.037842948 -0.01307011 0.0812224 0.047217954 -0.08297799 0.012150354 0.03632296
0.25443664 0.08618393 -0.06365885 -0.122819886 -0.11288289

actor.actor.0.weight f4 [512, 53]
00000000: 555f 17be 877c 84bd 01ab f13a f140 fabc
00000010: 5d39 2abd e107 7cbd 3b78 123d c826 46be
00000020: 60b9 9c3d e630 b33d da25 46be 3d56 fdbd
00000030: a233 593d be9a 1bbc 0433 1abe 2144 33be
00000040: b380 a33d fad4 893d 34ca a63d ed1b 963d
00000050: 2d0e 503d 4ada 343d 8548 d1bd 3896 9d3d
00000060: 5f75 2b3d 5bb4 93bd afff 27bd 4d09 77bc
00000070: 4687 dd3d ee14 b4bc ae65 2e3e 516d 3abe
00000080: 1fd1 533d ca6f a7bd dd55 fdbd 0582 6bbb
00000090: 18cf 363e 4a62 47be b0fa f83c e804 713d
000000a0: 7cb3 693d 3dd8 f63b e93c 33bd 141c e63c
000000b0: 5fb4 543d bc7a 9bbd a153 64bc 7eb1 403c
000000c0: b8bf 563d 505d 3f3c 1d9c c3bd 0ad7 cc3d
000000d0: 2232 9ebd 107d a03d c412 67bd 0078 f1bd
000000e0: 0ec9 873c ffd2 c43d 023d 8c3b 50ac 7ebd
000000f0: 0d31 673d 0e22 cd3b 8357 9ebd 941c b2bd
00000100: 5081 50be eec5 10be 5a9f 4ebd e131 38be
00000110: d8af 04bd 5949 833d 23aa 473d a257 143d
00000120: 505c d83c ac44 fa3d e492 0f3e 76bc 2abe
00000130: 17ab 2e3e 894a 14be 2c12 4fbe c5a2 a83c
00000140: 9a0a f9bc 0704 a7bb b4a0 303e 6202 003e
00000150: de1d 7a3d ca0a a1bd a5ba 51be 3855 77bd
00000160: 8a83 413d a198 4fbe 9960 b63d 9563 f43c
00000170: 9518 66bd 9dd6 2a3d 824b 4b3d 269b 33be
00000180: 9e83 97bc 3dcf fabd 8948 ecbd cf48 1c3d
00000190: 25bc 2e3d 05a5 ae3d 593a c4bb d575 1fbd
000001a0: 3a10 dc3d c2a3 84bd 9686 783d 2679 edbd
000001b0: 53a7 253e ba78 fcbd b238 93bc f3d0 dabd
000001c0: a0e4 ddbd e089 0f3d b5c4 213d 4f7e 18bd
000001d0: 3e8b 0d3e 1e51 08bd 90ff bc3d ab21 303e
000001e0: e83d 34bd 053d b2bd 00f2 2ebe fef3 3e3e
000001f0: 273c 003e 4968 313c 8a70 8fbe bfc5 8b3d
00000200: af45 0bbe 5d8d 95bd 7414 88bd 5f7c b03d
00000210: ead9 ff3d 37f3 833d c04c 28be 7dd0 0dbd
00000220: b946 d73d 5e91 70bd 1d69 67bd 25ec 4c3e
00000230: 3064 7a3b f71c 133d 98e1 b23c 7a36 0cbe
00000240: 78fb 0ebd ed33 683d 0bff 04be 9f6c 903b
00000250: c3f0 023e ec0a 3fbd d2ee febd 3b0d 553d
00000260: 4fa3 8a3d fd73 253d 4d91 913c 832e abbd
00000270: e363 82bd d7c8 1fbd c215 f9bd 91fa a8bd
00000280: a537 05be f288 153e 964f 693d efc5 02be
00000290: 5d62 64bd 472f 533c d3ae a4bd f03a 86bb
000002a0: 1dfc e2bd 2633 c23b 1e42 3f3e 1cfb 193e
000002b0: e1d0 0d3e 3458 febd 349a 97bd fd4a 2dbd
000002c0: be51 323c d473 06be 5c1c 2d3e cc27 da3d
000002d0: 6906 903c d640 2b3e 0a9b 0d3d 2894 963d
000002e0: fb74 0f3c 9ba3 e8bd 583f 8ebd bcb9 ab3d
000002f0: a88b fd3d 6095 f63d 4188 4b3d fd18 0cbe
00000300: c72f 56bd 7b94 d13d 81f0 6f3d e361 99bc
00000310: e757 4fbe ecb2 fabd 4591 adbd 8f58 c9bd
00000320: 0d3d d4bb 1800 93bd 26a1 81bd 63b2 1abc
00000330: 101b 9f3d dac5 0f3d dc70 f13d 1991 f73c
00000340: d526 373e fa23 98bd a401 17be 6c51 843d
00000350: e742 74bc 145f 0ebd b6da dfba 6c49 b2bd
00000360: b7d0 e6bc 6ee7 d63c 12e8 32bd 090e 713d
00000370: e54c 82bc b597 08b9 d662 533c 790e 8e3c
00000380: 552a 943c 0fa1 3c3e ecff 013e 249a b8bd
00000390: 5dc3 ff3d 64fc 463e 26ff c3bd cf07 8dbd
000003a0: 202b f23c 5233 593d 81c8 a83e 6e88 81bd
000003b0: 2360 d83d 5476 98bd 5960 c9bd e488 2bbd
000003c0: 344c cd3d b903 3c3d 2fc8 9c3d 33f0 9c3d
000003d0: e8a6 dabd 9bb2 523d d571 c7bc d4d3 193d
000003e0: e0f4 013e 432b 8e3d 7d7a 333d 28bc 3c3e
000003f0: c07e 8abd 087f 9dbc f46e 0fbe 9649 d53d
-0.1478246 -0.06469064 0.0018437804 -0.030548545 -0.041558612 -0.06153095 0.035759192 -0.19350731
0.07652545 0.08749561 -0.19350377 -0.12369964 0.053027757 -0.009497343 -0.15058523 -0.17506458
0.07983532 0.06730075 0.08144036 0.07329545 0.05079477 0.04415349 -0.1021891 0.076946676
0.04185998 -0.072121345 -0.041015323 -0.015077901 0.10816817 -0.021982636 0.17030975 -0.18205763
0.051713105 -0.08175619 -0.12369893 -0.0035935652 0.17852437 -0.19471088 0.030392975 0.05884257
0.057055935 0.007533102 -0.04375926 0.02808956 0.051929828 -0.07591769 -0.013935954 0.011761067
0.05242893 0.011679962 -0.095512606 0.10001953 -0.07724406 0.07836354 -0.05641438 -0.11790466
0.016575363 0.09610557 0.0042797336 -0.06217605 0.056443263 0.006260163 -0.07731535 -0.08696857
-0.20361829 -0.14138004 -0.05044494 -0.17987777 -0.03239426 0.06410474 0.04874624 0.036216386
0.026411206 0.12220129 0.14020878 -0.16673455 0.17057453 -0.14481558 -0.20221776 0.020585427
-0.030400563 -0.0050969156 0.17248803 0.12500909 0.06106364 -0.07863386 -0.20481355 -0.060384005
0.047244586 -0.20273067 0.08905143 0.02983264 -0.056175787 0.041708577 0.049632557 -0.17539653
-0.018495377 -0.12246559 -0.115372725 0.038155373 0.042659897 0.08527569 -0.005988401 -0.038930733
0.107452825 -0.06476547 0.060675226 -0.11595373 0.1617711 -0.12327714 -0.01797137 -0.10684385
-0.108346224 0.035043597 0.039494235 -0.037229832 0.13822648 -0.033280484 0.09228432 0.17200343
-0.04400435 -0.08703045 -0.17084503 0.18647763 0.12522946 0.010828086 -0.28015548 0.068248264
-0.13600801 -0.073023535 -0.06644526 0.08617472 0.12492736 0.06442874 -0.16435528 -0.034622658
0.10511536 -0.058732383 -0.05649673 0.20011957 0.003820669 0.035916295 0.021836087 -0.13692656
-0.034907788 0.056690145 -0.12987916 0.00440748 0.12787156 -0.046641275 -0.12447895 0.05201457
0.0676943 0.04039382 0.01776948 -0.08358481 -0.06366708 -0.039009895 -0.12162353 -0.08250917
-0.13009508 0.14603022 0.056960665 -0.12770818 -0.05575787 0.01288969 -0.080411576 -0.0040963814
-0.11083243 0.0059265075 0.18677565 0.15037197 0.13849212 -0.12419167 -0.07402459 -0.042307843
0.010883747 -0.13130122 0.1690535 0.10652122 0.017581182 0.16723952 0.034571685 0.07352477
0.008755918 -0.1135933 -0.069456756 0.083850354 0.12380153 0.1204021 0.04969049 -0.13681407
-0.052291658 0.102333985 0.05857897 -0.018723434 -0.20248376 -0.12241158 -0.084749736 -0.09831344
-0.0064770044 -0.07177752 -0.06329565 -0.009441945 0.07768834 0.035100795 0.11789104 0.030220555
0.17885907 -0.07428737 -0.1474672 0.064608425 -0.014908529 -0.034758642 -0.0017078731 -0.0870541
-0.028175695 0.026233401 -0.04367835 0.058851276 -0.015905807 -0.00013026486 0.012901982 0.017340885
0.018086592 0.18420814 0.12695283 -0.09013775 0.124884345 0.19432217 -0.0957015 -0.06886255
0.02956158 0.05302746 0.32965472 -0.0632485 0.105652116 -0.07444444 -0.0983283 -0.041878596
0.100243 0.045901988 0.076553695 0.07663002 -0.10676366 0.051439863 -0.024346272 0.03755553
0.12691069 0.06941845 0.043817986 0.18431151 -0.06762457 -0.019225612 -0.14007169 0.10414426

actor.actor.0.bias f4 [512]
00000000: 4d8b a8bc 0e68 e0bd 3c03 edbd fa62 0a3e
00000010: 3115 b7bd 331b ba3b dee0 a9bd 0bfb f13d
00000020: 2ea6 84bd 7070 943d 9453 0a3e e8cf fe3b
00000030: e0e8 b53d 2bc3 c53d 0a29 b7bd 1fa3 183e
00000040: 285c bfbd ca11 7bbd 4276 4f3d 6809 833d
00000050: 6473 aaba 6925 78bd 1d52 c6bd 79dd cabd
00000060: 5a86 a43d cc27 053e 1197 14be 3428 093e
00000070: 7973 97bb 91f5 a33c 1370 ab3c 8c45 70bd
00000080: 4e54 f8ba 5580 273c de72 bbbc d313 893d
00000090: 56bf a2bd 9c3a e2bd 0314 65bd a5a2 4cbd
000000a0: 7b77 88bd e981 e73d b612 203e 3f1a 313e
000000b0: c124 4e3d 62b1 083e 0fba a1bd c05f 1abe
000000c0: 9209 be3b b191 27be fda1 93bd 613a 683d
000000d0: 336d a0bb f1de a4bd a25d 4e3c 05c2 003e
000000e0: 87e2 d7bd 1aca 35bb 3207 a6bd ecd0 6ebd
000000f0: 94b5 453d 9991 11bd 89b5 273e a8cd fc3d
00000100: 5ae2 3e3d 71ef bb3d 4af9 a43c cc7f bcbd
00000110: cc48 b3bd 7f5d 943d d5d6 873d 2908 cbbc
00000120: 30f2 9ebd 5603 dcbd 93b1 403d 00fb 6d3d
00000130: 0e8d e9bd aaac fc3d 58c5 a7bd 47fd a1bd
00000140: 8623 08be 8073 3d3d 38cd 04bc 7edb 2dbe
00000150: 0100 2b3e ebba 8cbc 0e07 42bd 8ca4 f73c
00000160: 8f36 233c c206 bdbd 2882 de3c 598d dfbd
00000170: 1c49 15be 7adb e43d 4aa6 90bd 7e07 a2bd
00000180: 04d4 593d 4935 db3d 1e14 cbbd 0643 023e
00000190: 8f7c 82bd dc1c 0bbd 9197 8b3d 6fd8 993d
000001a0: 4b40 c53d 5b8b ea3d dba5 28bd 5fb2 bf3d
000001b0: 1815 14bd e95f 363e b569 ac3d de5f 0e3e
000001c0: 354f 9abd 3896 e33a 4a60 943d e553 acbd
000001d0: 6e41 a33d 78a0 d73d 80e2 17bb b842 24bd
000001e0: 2bab 1cbd 164a c5bd 3658 05be 22dc 8dbc
000001f0: 6882 a7bd 982a 77bd 0b2e 08be 8e2f e13c
00000200: 052a d83c dda5 a83c 8bd2 7e3d 9a15 13be
00000210: 21ea 913d fedd 213e e2e6 ff3d f2d0 5639
00000220: 41ae 1bbe fb02 4b3d 7e88 d9bd 3a4f 24be
00000230: 3e95 433d 54c2 aabd cb4f 253e ed33 17bd
00000240: 0db8 7ebd 77b3 a6bc c229 e63d 3f89 bebd
00000250: e8ba f63d f445 123d 9661 4fbd cd98 db3c
00000260: 8d02 a43d 495a d0bd 1428 a73d 1daa 85bd
00000270: b7c0 d33d 12c7 91bc 3353 ca3c 218e a0bd
00000280: 9043 debc f35d 133e 16d2 f13d ea0d 01be
00000290: 8743 e03d 1433 303e 5aa5 c63c b714 dfbd
000002a0: 1707 1e3c b0ae ca3d cb90 8cbd cf39 2a3e
000002b0: e2b5 8abd 7b61 6abb 7247 1d3d 752f d03d
000002c0: f48f 193e 4538 1b3e 672f b0bd 726c 19bd
000002d0: 7e01 0ebe 46cf 9a3d 1351 b43d 9c68 d13c
000002e0: b6d6 b53d 926b fdba 2e1b 573d b91a 843d
000002f0: 5c71 d53d 9a24 a73d 7155 55bd f719 c43d
00000300: 029d e2bd 8537 e8bd c644 e3ba 5ec3 66bd
00000310: aba1 cabd fd1d 5dbd 2e86 ba3d f063 733d
00000320: 1a47 f23d e60d 7abd 0d8b 493d e608 8e3c
00000330: fe98 2bbe d081 71bc 24a9 1e3c c177 d63d
00000340: 3d0e 04bd c8ff d63b f6b8 93bd 1ab9 353d
00000350: c278 fabd feab 083d b1dc 383d d167 6c3d
00000360: dd9e f03d c42b cbbc 1eba a33d cc93 93bd
00000370: 0c6a 273e 1efc 1b3e 6a65 ff3d 48ae e73d
00000380: c382 f13d 7f8f f13b 0336 c13d dd72 d93b
00000390: 32bc 093e d2ec 36bd 6a95 cb3b e7d2 b63c
000003a0: 25a5 3dbb 26da f7bc 97f5 273e f2c4 f13b
000003b0: 0869 59bd 565d 293e 0b30 f7bd 34c7 263d
000003c0: 7329 93bd 3403 7bbc 6f0b 8b3c 4bc4 58bd
000003d0: 6aa8 e0bd 70b8 d3bd 8869 013e 515c 14bd
000003e0: 7e04 d43d ea78 323e 44f6 08bc 666a 603d
000003f0: 9e34 ad3d c9da 1ebd ed92 4bbd 6ad3 ae3d
-0.020574236 -0.10957347 -0.115728825 0.13514319 -0.08939589 0.005679512 -0.08294843 0.11815461
-0.06477009 0.07248008 0.13508445 0.007776249 0.08882308 0.09656366 -0.089433745 0.14905976
-0.09343749 -0.06129626 0.05064989 0.063982785 -0.001300436 -0.060582552 -0.096836306 -0.09905524
0.08033438 0.13003463 -0.14510752 0.13394243 -0.0046219197 0.020014556 0.020927465 -0.058660075
-0.0018946023 0.010223468 -0.022881921 0.06693234 -0.07946651 -0.11046335 -0.055927288 -0.049959797
-0.06663414 0.11304075 0.15632138 0.17295168 0.05032802 0.13348916 -0.07896816 -0.15075588
0.0057994807 -0.1636417 -0.07208631 0.0566963 -0.00489583 -0.08050335 0.012595566 0.12574013
-0.105412535 -0.002773887 -0.08106841 -0.058304712 0.04826887 -0.035539243 0.16377844 0.12343913
0.046602584 0.09176529 0.020138402 -0.09204063 -0.08754119 0.072443955 0.06632773 -0.024784165
-0.07761037 -0.10742824 0.047044348 0.0581007 -0.11403857 0.123376206 -0.08191937 -0.07909637
-0.13294801 0.046252728 -0.008105569 -0.16978261 0.1669922 -0.017178973 -0.04737001 0.03022983
0.009961738 -0.092298046 0.027161673 -0.10915632 -0.1457867 0.11174674 -0.07062967 -0.07911585
0.05318071 0.10703523 -0.099159464 0.1272088 -0.06371414 -0.03396307 0.068160184 0.075119846
0.096314035 0.11452361 -0.041173797 0.093601935 -0.03615293 0.17810024 0.084185995 0.13903758
-0.07534639 0.0017363494 0.07244928 -0.08414439 0.07971464 0.10528654 -0.0023175776 -0.04010269
-0.038249176 -0.096332714 -0.13021931 -0.017316882 -0.0817917 -0.060343355 -0.13298814 0.027488496
0.026387224 0.020586902 0.06221251 -0.14363709 0.07124735 0.1580734 0.12495209 0.00020486469
-0.15203191 0.04956339 -0.10621737 -0.16045848 0.04774975 -0.083378464 0.1614372 -0.036914755
-0.062187243 -0.020349247 0.112384334 -0.09303521 0.12047368 0.035711244 -0.050630175 0.02680626
0.08008299 -0.101734705 0.08161941 -0.06526587 0.10339492 -0.01779512 0.024697876 -0.07839609
-0.027131826 0.14391308 0.11807649 -0.12602964 0.1095038 0.17206985 0.024248768 -0.10892623
0.009645245 0.098966 -0.068635546 0.16623615 -0.06772973 -0.003576367 0.038398214 0.10165302
0.1499632 0.15158184 -0.08602791 -0.037456937 -0.13867757 0.075590655 0.08804526 0.025562577
0.088788435 -0.0019334427 0.052516155 0.064504094 0.10422012 0.08161278 -0.052083436 0.09575265
-0.11065103 -0.113387145 -0.0017339222 -0.05633866 -0.09894117 -0.053983677 0.09107624 0.05942148
0.11829968 -0.06104841 0.049204875 0.017338227 -0.1675758 -0.014740422 0.009683881 0.1047206
-0.03224014 0.006561253 -0.07213013 0.04436598 -0.12230064 0.03336715 0.045132343 0.057716195
0.11749051 -0.024801143 0.079944834 -0.072059244 0.16349047 0.15232894 0.12470515 0.113125384
0.11792519 0.0073718424 0.0943413 0.006636007 0.13450697 -0.044659443 0.00621288 0.022317363
-0.0028937545 -0.030255388 0.16402279 0.007378214 -0.05307868 0.16539511 -0.1206971 0.04071732
-0.0718564 -0.015320588 0.016973225 -0.052921575 -0.109696224 -0.10337913 0.12637913 -0.036220852
0.10352419 0.17428938 -0.008359496 0.05478897 0.084573016 -0.03878287 -0.049700666 0.08536418

actor.actor.2.weight f4 [256, 512]
00000000: bb01 d5bc 9528 543c 021e 1fbb 73f9 853c
00000010: 2761 0d3d 9587 debc 2e59 75bc cf88 8c3b
00000020: 36eb f6bc a5ba d63a 408b 8b3c 9cc8 883c
00000030: 2bea 803d b771 fe3c 7e62 983b a729 d43c
00000040: 3d2a 02be c0c6 5abd f229 11bd 999f 77bd
00000050: a2a6 f83c bd5a 80bd beb7 e5bd bb2d c03b
00000060: 4016 533c d2c4 1e3d dbc6 1dbe 2cb6 a2bc
00000070: c051 713d d258 a0bd e281 ed3c 9128 b9bc
00000080: 165b 39bd ab66 e6bc 1c9a 6fbd 7c63 c8bc
00000090: e1d7 fbbc 2700 67bd 2fc0 17bd 18fc c2bd
000000a0: 3f73 823c 2f04 cebc 172f 33bb 2478 6f3c
000000b0: de8c dbbc 1d1c 52bc 74a6 b4bb aab8 efbd
000000c0: 7503 343c 3316 01be 6879 edbd e1f1 f13c
000000d0: 074b a53d 6514 ce3b 913d 63bd caab 03bd
000000e0: 78bf d13c 6341 1dbd 61f5 5ebc 082b 44bc
000000f0: 2996 24bd 802a 5abd c16b eb3c a37d f83d
00000100: 48a5 173d 6297 f83c 8fbb 9cbd e90f 0e3d
00000110: c0b1 773a 1d7f e83c 8fcd 873c 890a fbbc
00000120: 8f75 06bd 1fae e53c 79d6 453c 9689 d8bd
00000130: 27a2 98bc ebf2 9d3c fb72 1c3d 6335 cb3c
00000140: 9c87 88bb 792d 133d 4d68 b5bc b498 5cbd
00000150: 383a f8bb 7e1d 96bd 650e 28bd 9142 9a3c
00000160: eeee 343d e504 a1bd acb2 a1bd eeef c23d
00000170: be54 533c 5b99 363d 3077 af3d 9e06 70bd
00000180: 7b15 77bd c954 a13d 3d02 93bc d46f 04bc
00000190: 8fcb c5bc 3f93 313d f50a f3bb 3d30 02bd
000001a0: 84f1 d53c 7df8 16bd 7fb1 193d eddc 50bd
000001b0: 159b 553d 1e99 043c 472f ed3c dbd9 5e3d
000001c0: cb17 0c3d 64b2 39bd 9137 c1bc f88a d1bd
000001d0: 0ee7 9bbb 6cdb 053d d07b febd e29c b6ba
000001e0: 940d 8a3c 3593 ddbc 87de fc3b 0952 12bd
000001f0: cc0c 9d3c b2be 0fbd 2dc5 f43b 1f87 883c
00000200: 3387 99bd e222 713d 2989 d9bc 46d5 dfbc
00000210: a547 5dbd c134 4c3d 731a db3c 4c40 813c
00000220: b243 7dbb 9182 533c e20c 3cbc 4569 14be
00000230: 1265 aebc 82de 7dbc 5288 0bbe 8c5f dcbd
00000240: 250e a93d 4fe6 f5bc f8d4 59bb 911c 8bbd
00000250: 30d3 15bd ac4f 9c3c 94a4 7dbd 3b78 f43c
00000260: 2230 023c be2b babc b6bb 7e3d b2c4 b43c
00000270: ee7c c3bc 3c63 3cbb e6c3 9bbb a57e 49bc
00000280: fe7f bf3b 9865 1a3d ed6e edbc 151a 81bc
00000290: a4e2 0c3c 48d6 7abd 1c73 183c ae60 c5bd
000002a0: d373 073d e45b 00bd 4161 0a3d 9fa9 d8ba
000002b0: 6748 3a3b f3ae ae3c 922a 693d a762 963c
000002c0: 4d82 a43d 4f22 83bd b118 5fbc 2d83 3a3b
000002d0: 6968 89bd b167 9dbd e200 86bc 7b47 053d
000002e0: ecd7 acbd ac44 e03c a25b 45bc a4a0 c5bb
000002f0: 8607 5c3b a616 603d f07d 393d af2a 0cbd
00000300: 553f c3bc 1dbd 1d3d 2303 46bc fbc6 b5bb
00000310: 11f5 7d3c 899c 76bd b15c b9bc c666 e1ba
00000320: f5aa 16bd 2a92 7bbd ba40 d43b 15cf 683d
00000330: b7b5 92bd 049e 78bc b3ac 833c 7c91 24b8
00000340: a736 26bd e278 093d 6f7e 223d 16c9 a03c
00000350: 319e bebd 55ef e43c f448 a53d 8a42 0fbd
00000360: f97a c03b 6b5e 8dbc c0bc 323d bb41 6bbd
00000370: 6d5d ff3c 8a2a 853d 61d2 2abc 51cb 693d
00000380: d5c3 033d 5981 053d 93fd 77bd f954 583d
00000390: 7324 7dbb 9584 9bbd 3056 113d b2e9 78bd
000003a0: aa3e 1dbc 4f2e 8bbd 1247 343c dfcb 503d
000003b0: af73 f3bb 1aa5 bf3d a209 a6bb 2f62 df3c
000003c0: a7c4 05be eff9 443d a2fa 41bd f238 183d
000003d0: c792 eebc a3c0 e8bc 9bbe 943c 4eca 91bd
000003e0: 6f97 97bc c3f5 d53b 40a9 193d 4f48 243c
000003f0: b31e 02be f6fd f1bc bbc2 903c f558 8bbd
-0.026001802 0.012949129 -0.002427936 0.016354298 0.03451648 -0.02716426 -0.014974875 0.00428877
-0.030141454 0.0016382529 0.017034173 0.01669722 0.06294664 0.031060083 0.004650413 0.025898768
-0.12711425 -0.0534122 -0.035440393 -0.06045494 0.030352894 -0.06267307 -0.11216687 0.0058648265
0.012883723 0.03876192 -0.15407889 -0.019862257 0.058915854 -0.07829441 0.028992597 -0.022602351
-0.045252882 -0.028125128 -0.05849658 -0.0244615 -0.030742588 -0.05639663 -0.037048515 -0.09520739
0.015924094 -0.02514848 -0.00273413 0.014616046 -0.02680057 -0.012824086 -0.005513007 -0.11705144
0.010987152 -0.12606125 -0.11595422 0.029534282 0.08070951 0.0062890523 -0.055478636 -0.032146253
0.025603995 -0.038392436 -0.013608308 -0.01197315 -0.040182266 -0.053263187 0.028737905 0.12133338
0.03702286 0.030345622 -0.076529615 0.03468314 0.0009448789 0.028380925 0.01657751 -0.030644672
-0.032826956 0.028037129 0.01207506 -0.105731174 -0.018632008 0.019280871 0.03819559 0.02480573
-0.0041665565 0.035932038 -0.022144461 -0.053856567 -0.0075752996 -0.07329844 -0.041029353 0.01883057
0.044173174 -0.07862262 -0.07895407 0.09518419 0.012898622 0.044579845 0.08567655 -0.05860006
-0.06032322 0.078774996 -0.017945403 -0.0080833025 -0.024144916 0.043353315 -0.0074170777 -0.031784285
0.02611614 -0.03685807 0.03752279 -0.05099194 0.05214985 0.008093147 0.028953208 0.054406982
0.03420238 -0.045336142 -0.023586066 -0.10231584 -0.0047577685 0.03267996 -0.12425959 -0.0013932253
0.016852178 -0.027047733 0.007716957 -0.035722766 0.019171141 -0.03509397 0.0074697942 0.016665993
-0.0749649 0.058871157 -0.02655466 -0.027323376 -0.054023404 0.049854998 0.02674601 0.01577773
-0.0038645086 0.012909547 -0.011477681 -0.14493282 -0.021288428 -0.0154949445 -0.13626221 -0.107604116
0.08254651 -0.030017046 -0.0033238512 -0.06792558 -0.036578357 0.01908096 -0.061924532 0.029842487
0.007946046 -0.022725936 0.062190734 0.022066448 -0.023863282 -0.0028745672 -0.0047535775 -0.012298261
0.0058441153 0.037694544 -0.028983558 -0.015759507 0.008598957 -0.06123951 0.009304788 -0.09637581
0.033069443 -0.031337634 0.033784155 -0.0016530043 0.0028424503 0.021323657 0.056925364 0.018357588
0.080326654 -0.06403028 -0.013616727 0.0028459535 -0.06709368 -0.07685793 -0.016357843 0.032538872
-0.08439621 0.027376495 -0.012045773 -0.0060311127 0.003357382 0.0547091 0.04528612 -0.034220394
-0.02383391 0.03851043 -0.012085709 -0.005547402 0.015500323 -0.060207877 -0.022627207 -0.0017196767
-0.03678413 -0.06141869 0.0064774426 0.056838114 -0.071635656 -0.015174393 0.01607356 -3.923614e-05
-0.040579464 0.03356255 0.039671358 0.019627135 -0.09307516 0.027946154 0.08070555 -0.034975566
0.0058740345 -0.017256936 0.043637037 -0.057435732 0.031172479 0.06502254 -0.010426135 0.057078663
0.03216918 0.03259406 -0.06054456 0.05281541 -0.0038626462 -0.075936474 0.035482585 -0.060769744
-0.00959746 -0.06795942 0.011003273 0.050975677 -0.007429562 0.093576625 -0.0050670663 0.027268497
-0.13063298 0.048089918 -0.047358163 0.037163682 -0.029122723 -0.028412169 0.018157294 -0.07118665
-0.018504826 0.006529541 0.037514925 0.010027005 -0.12707023 -0.029540043 0.01767098 -0.068040766

actor.actor.2.bias f4 [256]
00000000: c7c3 fe3c c7fe 7ebc 25b2 debc 4f88 b4bd
00000010: 2240 4b3b 05da 773b 7147 3c3d 7464 9d3c
00000020: a08d cbbd 4ebe 133d 9d23 15bd eeb2 ad3c
00000030: a604 2bbd 361d 7f3a 633d c5bd dfd3 76bc
00000040: 91de c1bc 4a0d 20bb 92e3 3f3c 6989 01bd
00000050: 84aa 9ebc cd22 39bd 5d82 7cbd 45a2 1dbd
00000060: d876 52bd 96ba 0cbd b2ab 17bd 15d7 c6bb
00000070: 8e29 8c3c 6771 e23c 2f66 033c 33fb 7fbd
00000080: d539 4d3d f1c3 6c3c 2457 bf3c 569a 4cbd
00000090: 6fd7 6b3b 5211 8bbd 9389 043c bcc3 403d
000000a0: 6c12 e53b 8bfc 863c 4ac7 96bc d006 eabc
000000b0: e10a 20bd 7994 3b3b dddc f6bc 6f5b b1bc
000000c0: 7552 cfbd 142d 17bd cce6 323d c7e8 a5bd
000000d0: acaf 00bc 5635 84bc ba0e 3bba a2c0 8fbc
000000e0: 2b8b e7bc a3d5 0cbd 705b e0bc 9204 0a3b
000000f0: d87f 993d 833c 6bbc 848d 7b3d 3b15 113c
00000100: d009 49bd 8c7a b1bd 2ec8 e2bb 6ee4 64bd
00000110: 5abf 1ebd 4764 d0bb 6d75 9f3b a726 563c
00000120: 3fb3 9abc 26de febc 56a1 b83c 9270 023d
00000130: 0bd3 b53b 7e1d b4bd b13a 22bd 546a 5bbd
00000140: 93d0 dc3c 8d2e f93c 5a60 b4bc 58b8 3abd
00000150: ceb2 7dbd d1d1 27bd bb1e 8e3c b2fa a0bb
00000160: 3ca6 9bbd 528f 95bc e3ed 0dbd 2b41 cebd
00000170: b467 73bd eb77 f8bb ed6f 3f3c b730 f4bc
00000180: 0ba2 8abc 4a8a cfbc 5eb4 b23c 56c4 643c
00000190: 19a3 b4bd 8536 a03c 531b 343c 284d 72bd
000001a0: 270f acbb 3d05 183d 7f97 2cbd 6a20 14ba
000001b0: c7b2 0f3d efa2 5e3c 64ed b63c 2578 843b
000001c0: 532b 83bd cce4 10bd f4ac 083d c8c6 1ebd
000001d0: 4c62 32bd 295c e4bb 2eb3 e8bb 0c91 443c
000001e0: 3a1d aebc ae8a 733c cd33 173d 1529 23bd
000001f0: 6f5c a03b c8fb 1b3d 654c f8bc a26a 90bc
00000200: 8a6d 02bd 1f82 a4bd 5424 f73c 8066 b03b
00000210: 29b3 28bd de62 52bd 6167 9abd eb30 a9bc
00000220: c1a5 36bc 38f7 143b 7879 443d 1a71 02bd
00000230: c0be e53c 594e 6ebb 2f21 723c 8f5d 2a39
00000240: 3fa5 f6bc db64 3fbc 54c7 cc3c c828 543d
00000250: 920e 8bbc 6242 60bd 7607 08bd 575b 64bd
00000260: f39b 12bd 71e2 37bd d54e 86bd ea60 1dbc
00000270: dbce 6fbc cc96 07bd c55c 0d3b 8edb 453d
00000280: 5f67 3f3d 554b f9bc 94fc e8bc 0222 63bc
00000290: 647c 483d f031 2e3d b3b8 d13c 1289 c1bc
000002a0: daa3 0a3d 8b8d 4dbc 5c0d 7fbd 4a86 85bc
000002b0: 3102 52bc f22b faba dc6e 2dbd b7d2 50bd
000002c0: fd4f 45bd a800 32bd 0008 d0bd 75ca bbbd
000002d0: 847a 67bd ae4a 9abd 8824 403c a170 a03b
000002e0: 1c5e 76bd 9348 4abd 6967 ef3c 8cc6 2ebd
000002f0: 44e7 e43c 794a 7b3c f94f a6bb e22e 02bd
00000300: eab8 8bbc 7ada 423d 9b5a 35bd 35e6 2e3d
00000310: 5dce 8c3c bcc9 0f3d 4546 2dbc 87a4 bdbb
00000320: baad 813a 4f9b 62bd ccc1 02bd 8b5d c2bb
00000330: 851e 2f3d 686f 6a3c f6a0 903b 6ee5 ee3c
00000340: 2c5d 90bd 505e a6bc befa a33c 0352 103c
00000350: 0631 29bd adab 58bd 0776 a73c af5d 143d
00000360: 6ac9 193d 4be1 72bd 93bc d83a 29cf 98bc
00000370: 654f e03b 32ad 4bbd fd1b 313d d00b 6f3c
00000380: c7ec 07bd e4cf 07bd 973f 33bd c233 78bd
00000390: 4767 98bc febd 08bd 3705 38bd 0cc1 4dbd
000003a0: c6fb 6d3c 79e1 b4bd bf1a d0bc 2b7e fbbc
000003b0: 234a bab8 151b 3abc 4092 a13b 4e43 17bc
000003c0: cfc5 8ebd 8d79 92bd 9d93 adbd 64c9 94ba
000003d0: 4bd9 78bd 69d8 9f3d c39c f7bc 623d aaba
000003e0: 4dbe 3f3d 3aca 21bd b7de 4abd d662 48bc
000003f0: cd6f 13bd 0a9e d6bb abfd d03c 66ae e6bd
0.031099213 -0.015563673 -0.027184555 -0.08815061 0.0031013568 0.0037819159 0.04596657 0.019212939
-0.09939122 0.03607016 -0.036410917 0.021203484 -0.04175248 0.0009731831 -0.09630849 -0.015065162
-0.023665698 -0.0024421983 0.011711972 -0.031625185 -0.019368418 -0.045199204 -0.06164776 -0.03848483
-0.05138287 -0.03435763 -0.037028976 -0.0060681202 0.017109659 0.027641965 0.008019968 -0.06249542
0.05010398 0.014451013 0.023356982 -0.049951874 0.0035986563 -0.06790413 0.008089441 0.047061667
0.0069907214 0.016477844 -0.018405575 -0.028567702 -0.039072875 0.0028622432 -0.030134613 -0.021650044
-0.10123149 -0.036908224 0.043677136 -0.081010394 -0.007854383 -0.016138714 -0.00071356783 -0.01754791
-0.028264603 -0.034383427 -0.02738735 0.0021059853 0.074950874 -0.014357689 0.061414257 0.008855159
-0.049081624 -0.08665952 -0.006920836 -0.05588191 -0.038756706 -0.0063596102 0.004866293 0.013070739
-0.0188843 -0.031111788 0.022537868 0.031845637 0.00554884 -0.08794688 -0.039606754 -0.0535682
0.026954925 0.030417705 -0.0220186 -0.04558596 -0.0619381 -0.04097158 0.017348638 -0.0049126977
-0.07600066 -0.018256817 -0.034650695 -0.100710236 -0.05942507 -0.0075826547 0.0116844 -0.029808385
-0.016922971 -0.025334496 0.021814521 0.013962826 -0.08820171 0.019557247 0.010992843 -0.059155613
-0.0052508297 0.03711437 -0.042136665 -0.0005650582 0.035082605 0.013588651 0.022329994 0.0040426427
-0.06404748 -0.035374448 0.033368066 -0.03876379 -0.043550774 -0.006968994 -0.007101438 0.0119974725
-0.02125417 0.014864607 0.036914635 -0.0398341 0.0048938314 0.038081914 -0.030309865 -0.017628971
-0.031842746 -0.08032631 0.03016869 0.0053833127 -0.041186485 -0.05136382 -0.07539249 -0.020653209
-0.011147917 0.0022730362 0.047967404 -0.031846143 0.028045058 -0.0036362617 0.014778419 0.00016247317
-0.030108092 -0.011681761 0.02499739 0.051796705 -0.016974721 -0.054750808 -0.03321024 -0.05575117
-0.035793256 -0.044893686 -0.06558005 -0.009605626 -0.0146367205 -0.033102795 0.0021570188 0.048305087
0.04672944 -0.030431429 -0.028440751 -0.013863089 0.048946753 0.042528093 0.025600767 -0.02362493
0.033847667 -0.0125459535 -0.0622686 -0.016299386 -0.012817905 -0.0019086583 -0.042342052 -0.050982203
-0.048171986 -0.043457657 -0.10157776 -0.09169475 -0.056513324 -0.07533775 0.01172746 0.004896239
-0.060148343 -0.04938562 0.029224114 -0.042669818 0.027942307 0.01533758 -0.0050754515 -0.031782992
-0.017055947 0.047571637 -0.04427586 0.04270001 0.017188245 0.0351045 -0.010575836 -0.0057874355
0.0009893693 -0.055323895 -0.0319231 -0.0059315613 0.042753715 0.014308788 0.0044137193 0.029162135
-0.07049021 -0.020308644 0.020017024 0.008808616 -0.041306518 -0.052898098 0.020442022 0.036222156
0.0375456 -0.059296887 0.0016535692 -0.01865347 0.006845402 -0.04972572 0.043239582 0.014590219
-0.033184793 -0.033157244 -0.043761816 -0.060596235 -0.018603934 -0.033384316 -0.04492685 -0.050232932
0.0145253595 -0.08832068 -0.025403379 -0.03069981 -8.88298e-05 -0.011358996 0.0049307644 -0.009232355
-0.06971323 -0.0715209 -0.084754206 -0.0011351523 -0.0607541 0.07804949 -0.030226117 -0.0012988264
0.046812344 -0.0394995 -0.049528804 -0.012230596 -0.035995293 -0.0065496014 0.025511583 -0.112637326

actor.actor.4.weight f4 [128, 256]
00000000: 9eed 26bd 3f53 5bbd 4f42 7db9 60a0 513d
00000010: 0e88 f5bd 2af7 73bd 200c 7d3d 66d5 96bd
00000020: 3afc 78bd b73e b73d 0fd9 b33d 404e db3c
00000030: a177 bb3b 7d97 0fbd f5f7 5bbd 3c02 b53c
00000040: bdd5 503d c7ab a83d 9fff 8e3d 7469 843d
00000050: 84a1 92bd 3feb dc3c bc16 763d 078e 553d
00000060: 32e3 1a3e d39c a83d 0c25 69ba 9b3e 96bc
00000070: c12f 443d fc16 7b3c f456 c4bd d0c3 96bc
00000080: ac5c e1ba 6936 933c 6e7a 72bd 779e 88bd
00000090: b0d0 113d 7704 fc3c f246 403e 5c9b c1bd
000000a0: 6f8a 9c3c fff8 6a3d 0b4c 2cbe a845 31bd
000000b0: fc10 203d 6a57 a6bd 2923 54bd 1297 43bd
000000c0: d76f 693d 9706 1a3d 3c08 1f3d 10f8 0bbb
000000d0: de47 153b 1592 a03b 93eb d03d 728c 28bd
000000e0: ef73 1cba cf5c 193c a6e3 acbd e90f 08bb
000000f0: fa71 913c e580 6a3d 6eba ecbb a45a b8bd
00000100: e5ac a03d 900a 14bd bc88 1bbd cd18 5d3d
00000110: 2168 313c c1ea 48bd eb96 47be 7774 443d
00000120: 54c2 283d 1408 073a 2fa0 88bc f189 f0bd
00000130: f44d 753c 1e9c 01be efc6 6cbd fae5 d73d
00000140: 92de 243d df8e 993d 43a9 793d 62fd 5f3c
00000150: 091f 48bc 9391 3e3d 6ec7 debb aad9 3abd
00000160: 45ca 79bb 9206 893d f70c 8b3d 2e68 973b
00000170: 1746 9cbd 8d52 63ba c91c f7bc 147a 12bc
00000180: dbc3 3bbd ec5c 2b3d ea0c 3cbd c307 00bd
00000190: 6f58 65bd 2929 b83d cf8e 693c bdae 74bd
000001a0: 7e0e 9abc e984 e63c 9fdc 403d e2cd 89be
000001b0: a914 8a3a f7a5 763d 595f 043c 232d bebc
000001c0: fae0 f1bc 3cea 383d 1fc5 dd3c 83f0 0cbe
000001d0: 4c51 60bd 8ddf dbbc cad1 3cbd 1d0b 39b9
000001e0: 9701 e8bd 7718 203d a0dd e93d cb63 8cbc
000001f0: 1a91 12be e900 eabc 4965 a9bd 2638 f83d
00000200: da8d 85bc aa12 703e df3c a43b 01a2 88bd
00000210: 29c0 43bb 2154 cabd 4649 45bc 7659 883b
00000220: 09bd 16be d855 e8bc 9b43 bebc 34e8 18bd
00000230: 1c63 793c 8f94 44be 5591 4d3d b2c3 5d3c
00000240: 8f59 0fbb 9ae3 7d3d 12a3 4abc 2a20 05bd
00000250: da0c 9ebd b962 65be 5a81 98bd 8bc5 dd3d
00000260: 876c af3d 2c3b cb3d eb68 e0bc bafb 86bd
00000270: 1ac3 f73b 9c66 aebd 4411 33be e5be d53c
00000280: 98d8 4fbd 48cb 1bbe c64b a73d 9280 c2bd
00000290: fe55 ab3d 687a f13c 9de9 efba 7bec e73c
000002a0: fbb1 bcbc 65c7 713d f82b a13d 09be 853b
000002b0: 9944 e0bd 6420 003d 8d63 31be 1792 0d3d
000002c0: 2e0d b33c 39a7 a23c 1cc9 9e3d 46bf 0ebe
000002d0: 869c c93d 1629 82bc 54df 263e 38f3 313e
000002e0: e342 ec3c 0e8f a6bd 321f 003e 95ca 3f3d
000002f0: 5e6f 1f3d 20b4 61bc 36cc 05bc 963d aebd
00000300: 1dfa 0dbd 5dab de3d 683f 493c 2494 e23d
00000310: 99b1 c4bd 23fb a43d e0c1 64be 8461 c7bd
00000320: 8fb5 8a3d fcf5 66bd db4c 893d dc9d 29bd
00000330: 8897 ed3d 90cf 1bbe 007b a3bb e789 4e3d
00000340: 48d9 633d 6971 c23d 930f 0f3e d4b0 74bc
00000350: 0e16 91bc cbc0 dc3d c2dd 4d3c 99eb 8bbd
00000360: 6d98 ab3d 2f2e 78bd d6e9 2f3d 8bc3 7b3c
00000370: cfc6 edba fc27 9dbd 2c1b 463c f4a2 803d
00000380: 0c8f 79bd cd23 a0bd 1f02 83bc d2fc 053b
00000390: b3d4 4a3c 8e9d 4c3d 8c4b 983c e1ae 8139
000003a0: 2721 86bd 99d3 eb3d d537 d83b 27de 34bd
000003b0: 9ab1 65bd a3bc b4bc 0e85 e63d 22a2 913d
000003c0: ad84 afbc 7efe d43d b104 d93b 34fa 79b9
000003d0: b7e6 a8bc 6ce4 af3c 10f2 cd3c 96fb 75bd
000003e0: b0c3 8abc 974d 17be 5f3a 7d3c 0111 6dbd
000003f0: 40d1 143d b2d0 1ebe 2eb8 793d ef7f 9c3d
-0.040753953 -0.053546187 -0.00024152662 0.051178336 -0.11988841 -0.059561886 0.06177914 -0.07364921
-0.060787417 0.08947509 0.08781635 0.026770711 0.005721048 -0.03505658 -0.053703267 0.022095792
0.050985087 0.08235889 0.069823496 0.06465426 -0.07159713 0.026967643 0.060080275 0.0521374
0.1512573 0.08233037 -0.0008893765 -0.0183404 0.047897104 0.015325304 -0.095868975 -0.018403918
-0.0017193756 0.01797028 -0.05919879 -0.0667085 0.03559941 0.030763848 0.18777063 -0.094534606
0.019108979 0.057366367 -0.16825883 -0.04327932 0.039078698 -0.08122142 -0.051791344 -0.047751494
0.056991424 0.03760394 0.038826212 -0.0021357574 0.0022778432 0.004900227 0.10201182 -0.041149564
-0.0005968203 0.009360506 -0.08441858 -0.0020761436 0.017754544 0.05725183 -0.0072243726 -0.09001663
0.07845477 -0.036142886 -0.037972197 0.05397873 0.010828049 -0.049052004 -0.19491164 0.047962632
0.04120095 0.0005151045 -0.016677944 -0.1174506 0.014972199 -0.1265721 -0.057806905 0.105419114
0.040251322 0.074979536 0.060952436 0.013671251 -0.012214431 0.04652555 -0.006798676 -0.045617737
-0.0038114947 0.06690706 0.06789582 0.0046205735 -0.07630556 -0.0008671664 -0.030165093 -0.0089402385
-0.04584108 0.041836664 -0.045910753 -0.031257402 -0.05599254 0.08992226 0.01425524 -0.059736956
-0.018805739 0.028139548 0.0470854 -0.2691489 0.0010534722 0.06021687 0.008079373 -0.023214882
-0.029526222 0.04514526 0.027071534 -0.13763623 -0.05476503 -0.026839996 -0.046098508 -0.00017647115
-0.11328428 0.03908583 0.11419225 -0.017137429 -0.14313164 -0.028564887 -0.08271272 0.121200845
-0.016302992 0.2344462 0.005012139 -0.06671525 -0.0029869175 -0.098793276 -0.0120413955 0.004161055
-0.14720549 -0.028361246 -0.023225596 -0.03733082 0.015221383 -0.19197296 0.050187428 0.013535427
-0.002187345 0.061984636 -0.012367981 -0.032501377 -0.07717295 -0.22400941 -0.07446547 0.10828694
0.08565622 0.099233955 -0.027393779 -0.06590982 0.0075610997 -0.08515665 -0.17487055 0.026092002
-0.05074367 -0.15214264 0.081687495 -0.09497179 0.08366011 0.029477313 -0.0018303875 0.028311005
-0.023034086 0.059028048 0.078697145 0.004081492 -0.10950584 0.03128089 -0.17323132 0.03456315
0.02185687 0.019855129 0.07753202 -0.13940153 0.098443076 -0.015888732 0.1629613 0.17377937
0.028840488 -0.08132754 0.125119 0.046824057 0.038924567 -0.013775855 -0.008166363 -0.0850784
-0.034662355 0.10872529 0.012283184 0.11063412 -0.096041866 0.08055713 -0.22339582 -0.097353965
0.06772911 -0.056386933 0.06704112 -0.041410312 0.11601168 -0.15215898 -0.004989028 0.050424483
0.055627137 0.094942875 0.13970785 -0.014934737 -0.017710712 0.1077896 0.012565078 -0.06832046
0.08378682 -0.06059092 0.042947613 0.015366445 -0.0018140915 -0.07673642 0.012091439 0.06281081
-0.060927436 -0.078193285 -0.015992222 0.0020444882 0.012379813 0.049954943 0.018590711 0.00024735092
-0.06549292 0.115149684 0.0065984526 -0.044157173 -0.056077577 -0.022062605 0.11255847 0.071110025
-0.02142557 0.10400103 0.0066228737 -0.00023839698 -0.020617826 0.021471225 0.025139838 -0.060054384
-0.016939014 -0.14775692 0.015455811 -0.057877544 0.03633237 -0.15509298 0.060966663 0.07641589

actor.actor.4.bias f4 [128]
00000000: 74d1 1dbd 5742 60bd 0631 873c 2871 50bd
00000010: 4eb6 29bc 4ff5 543d c3cb 34bd f81c 703d
00000020: bf5a df3b 62ee c1bc d20f 4e3c f171 a23c
00000030: 557c 203c 92e6 95bc 458f 8cbd f01c 1ebd
00000040: 205a 47bc d4a8 233b 5f79 5cbd 2480 1abd
00000050: 430a 8dbc c952 37bd 785d f0bc 0403 00bd
00000060: 6b8b 22bd d8fb 29bd 79cd 1abd af42 b83c
00000070: 003c 833d 0d18 97bc a167 5f3c 4ac9 893c
00000080: 142d 22bb 1c65 b93c da2d 74bd 22dc 1bbd
00000090: 83b1 9bbd a617 1e3c 76e5 19bd 6142 c8bb
000000a0: 4340 d9bd 803b 163d afd6 a4bd a51c 653c
000000b0: cc24 abbd a722 8d3c 24ae 9abd 110f 7fbd
000000c0: 016d 36bd 02b1 6ebd 4f75 863b 677e 733d
000000d0: da65 243a abd4 67ba ad5a 1b3d 9f65 aabd
000000e0: 8487 cebb d7ff 16bd 40ac 8e3d c78f bb3c
000000f0: a11e 6b3d f4ae 9fbc 4774 47bd ea0f cdbc
00000100: 39c1 ffbc 8621 cfbc 20e5 b7bc ab61 7cbd
00000110: c4f0 f5bc a8cf 8fbc 9771 d2bc e7cf a6bd
00000120: 8c67 71bd b4f3 4cbd f199 26bd 616c 683c
00000130: a09c 23bb 43b5 883c 600a e03c 9d21 133d
00000140: e089 d4bc c916 d2bb a490 89bd a12f 6cbd
00000150: 9187 babd 6e30 0fbd d49c 563d ad05 9abd
00000160: bb3c 243c f154 283b ef49 a5bd 828a c53c
00000170: deb3 703c 80bf 01bd be76 1fbd 94b1 c8bd
00000180: 2f43 4dbd a6d7 83bb 41c1 573b 9838 07bd
00000190: b21c d8bc 8458 ac3c 1b60 dfbc ed51 c2bc
000001a0: 833f 55bd 8ea2 753c 71a0 93bc c8e6 82bd
000001b0: 755e 753d f579 87bc 7cc2 7f3c 287f 05bc
000001c0: 0d52 7b3d 1684 ce38 9580 e1bb 2c1d 24bd
000001d0: 91f7 6bbd e08b 9dbd 1aed 8abd 9e28 b93c
000001e0: 7807 a93b 97f6 ab3c 6ba0 123d 2f14 a8bd
000001f0: 960f 9bbc 4fa8 1bbd f5b4 24bd 1ee7 a03d
-0.03852983 -0.054750767 0.016502868 -0.050889164 -0.010358406 0.051991757 -0.044139635 0.058621377
0.0068162377 -0.02367324 0.012577014 0.019829722 0.009795268 -0.018298421 -0.06863264 -0.038601816
-0.012167484 0.0024972456 -0.053826686 -0.03771986 -0.017216807 -0.044756684 -0.029341444 -0.031252876
-0.03968374 -0.041499943 -0.03779361 0.022492735 0.064079285 -0.018444085 0.013635547 0.016819615
-0.0024746107 0.02263122 -0.05961404 -0.038051732 -0.07602217 0.009649193 -0.037572347 -0.0061114286
-0.1060796 0.036677837 -0.0804876 0.01398388 -0.08356628 0.017228438 -0.07552746 -0.062270228
-0.044537548 -0.058274277 0.0041033397 0.05944672 0.00062712806 -0.00088436407 0.037928272 -0.08320164
-0.006302776 -0.03686508 0.06966448 0.022895707 0.057402257 -0.019492604 -0.048694875 -0.025032002
-0.031220065 -0.02528454 -0.022448123 -0.06161658 -0.030022033 -0.017555073 -0.02568893 -0.08145123
-0.05893664 -0.0500371 -0.040674154 0.014185996 -0.0024965182 0.016687995 0.027348697 0.035920728
-0.02594465 -0.0064114076 -0.06717041 -0.05766261 -0.091078885 -0.034958296 0.052395657 -0.07520614
0.010024245 0.0025685395 -0.08070742 0.024113897 0.014691321 -0.03167677 -0.0389316 -0.09799495
-0.0501129 -0.00402351 0.0032921585 -0.033012956 -0.02638087 0.021038301 -0.027267506 -0.023720706
-0.052062523 0.014992369 -0.01802084 -0.06391674 0.059904534 -0.016537646 0.0156103335 -0.008147992
0.061357547 9.8474484e-05 -0.0068817833 -0.040066883 -0.057609145 -0.07692695 -0.06783505 0.022602376
0.005158361 0.020991607 0.035797518 -0.08206975 -0.01892833 -0.03800231 -0.040211637 0.07856582

actor.actor.6.weight f4 [12, 128]
00000000: e911 883d e99e 39bc 083f b7bd 42c6 af3d
00000010: d214 b3bd 33c6 1d3d d90c 483d 6ded 2a3c
00000020: 90f1 7bbb 8d31 803d 679e e03d b1c3 15bd
00000030: 70a8 cbbd a332 863d e453 dfbc 2c29 36bd
00000040: 18c3 1dbd ebf5 d7bd 3f8a 03bc 65ec 953d
00000050: c4bd ac3d b889 62bd b4a6 64bd c23e 383d
00000060: 5f0a 5c3d f099 283d f284 c4bc e1cf c1bc
00000070: 5735 803c dee3 ea3c 1885 413c ad3f 96bc
00000080: 5962 0a3d 0ff5 e1bc 54e7 adbd a16a ebbd
00000090: bf9d 3ebd dd10 413d 8815 2d3d 3e65 b239
000000a0: 3065 533d 030c 5abd ab9b 26bd e65e a53c
000000b0: 2e7d 4b3d 984b d9bc c069 bfbc b861 76bd
000000c0: 46b3 8e3c 9dd9 263d c5bd 26bd 805a 323d
000000d0: 3f7d 30bd e410 8abc 26fc a7bc ace9 89bc
000000e0: 1ead 92bc f36f 813d 87f8 54bd a118 35bd
000000f0: c023 413d 3fd9 7cbd 2c66 763d 165e 70bc
00000100: e2b2 053c aae3 7fbd acaa f4bc 4174 e03a
00000110: 823b 843d 35b2 6c3c 6b93 ae3d 7e9c ce3d
00000120: fd0d 873d 2ecf 6fbd 0607 0bbd 9ddf edbb
00000130: aef7 6fbd 268f 9cbc e374 8b3c 9f5e 29bd
00000140: 4c78 86bb f795 7fbd 34df d73d 02e4 c83c
00000150: 41f5 4dbb d08a febc 2797 5cbd f488 09bd
00000160: 5083 76bd 8f24 ba3c e111 113d 8b6c 7cbd
00000170: e2a9 0dbd eee5 3d3d 535e 913d 6e5d 083d
00000180: e369 aebb 80ac 9ebd a5f8 19bc ddde fb3c
00000190: d54b a5bd 60a0 8cbc 31f4 f43c ec62 99bd
000001a0: ed05 4ebd 04ad 783c f921 6d3d 1030 863d
000001b0: 2eec 543d 3b8d 61bd 216c cc3d 5d0c 9bbb
000001c0: 2bdc 753d 2c7a b53c 2323 433d 590a 663d
000001d0: ffad 22bd 9527 02bd ffbf 3b3d ae57 52bd
000001e0: 6927 373d 0fea 3d3c 321c 2fbc 8180 d93d
000001f0: e9a1 11bd 9d59 82bd ae6f 613d 2066 073d
00000200: ea9a 14bd 243e 2fbd 91d6 bf3c 599f 163e
00000210: 9a8f e43d a759 9cbd fcd5 013e f7f5 d2bd
00000220: 027e 0f3d f200 753d a8fb 2e3d 707f 8dbd
00000230: 8b4e 95bb f059 b9bd 62aa 5dbd 4c03 043d
00000240: 7a68 bb3d 1442 1bbe f9f3 c93d 6d8e a43d
00000250: 472e 2a3d 379a 393d 9ece 303a 3e7c 5b3d
00000260: 6789 a73d e63f abbd 5e24 dc3d cfd2 e1bc
00000270: 5338 1fbd b4c0 20be 647d 06bb ad5b 94bd
00000280: 0da0 0ebd 102f c73d ebf1 a13d d54d b3bc
00000290: 25bf f63d 302f e63d fb47 9dbc 08a4 573d
000002a0: afd1 5abc aff3 8c3c f82b 13bd fdc9 31be
000002b0: cfcc c53d 9084 833c 5c3f bc3d 6e26 793c
000002c0: 5b98 55bc 951e 5dbd 3415 2abd a6f7 c9bd
000002d0: 0462 3a3d 9fe3 dabc e7f3 66bc 011a 253d
000002e0: 20b4 3f3d b3b8 593c e5dd c43c 91b5 d93c
000002f0: 5e9d d13c cf82 12be cee4 a3bb b9d1 273d
00000300: 8c94 be3d 25ab 2fbc fb38 e3bd d1f8 36bc
00000310: b982 5dbd 47d0 d6bc 2b52 8c3c c016 08bd
00000320: 59d8 80bd eace f23d 623f 21bd d1bf 79bd
00000330: a726 d3bd 27fe 80bb dd27 cdbd 7e3a 853d
00000340: df8d 5ebd bc2c ce3d f191 093d 4cf6 a33d
00000350: 2538 86be 4b2f be3d 117d a13c fd31 39bd
00000360: a33c eb3c 74f9 5c3d 2b35 843d c099 cfbd
00000370: 43ce a73d ec01 623d 8a44 ac3d afe3 2abd
00000380: 8337 ed3d 4aa3 b33d 521b 663d 7e2a 0f3d
00000390: f8f3 35bc 6206 d83b 21d6 debc 7d77 94bd
000003a0: 99aa 353d 2425 5c3d 0919 923d b36c 6d3d
000003b0: 3656 b0bd e545 a2bd 8622 5e3c 236e 1ebe
000003c0: 213d ac3d ca9a ddbb ebe1 05be aa45 bebd
000003d0: e540 49bd c8ba 123e 15b0 5bbd c5d6 16be
000003e0: 3a94 1c3c 105c e13d 88a5 cbbc 50ca e73d
000003f0: ba5f 7dbd fe7c d73a dd5e e3bd c569 2ebd
0.06644041 -0.011329391 -0.08947569 0.085827366 -0.087442055 0.038519096 0.048840377 0.010432583
-0.0038443543 0.06259451 0.10967713 -0.03656358 -0.09944236 0.06552627 -0.027261682 -0.04447286
-0.038516134 -0.10544952 -0.008028566 0.07320479 0.084346324 -0.05530712 -0.055823043 0.044981726
0.05372083 0.04116243 -0.023989175 -0.023658695 0.015650434 0.028673109 0.011811517 -0.01834091
0.033785198 -0.027582673 -0.08491388 -0.11494947 -0.046537157 0.047135223 0.042256862 0.00034026237
0.05161017 -0.05323411 -0.0406758 0.020186853 0.049679928 -0.026525304 -0.023365855 -0.060151786
0.017419469 0.040734876 -0.040708322 0.04354334 -0.043088194 -0.016853757 -0.020505976 -0.016835056
-0.017904814 0.06320181 -0.051994827 -0.04421294 0.047153234 -0.06173062 0.060156032 -0.014670869
0.008160325 -0.062472977 -0.029866539 0.001712449 0.06456663 0.014446785 0.085242115 0.10088442
0.06594465 -0.05854719 -0.033942245 -0.007259323 -0.058585815 -0.019111227 0.01702351 -0.041350003
-0.004103696 -0.062398877 0.105406195 0.024522785 -0.00314267 -0.03107205 -0.053855088 -0.033577874
-0.060183823 0.02272251 0.03541744 -0.061626952 -0.03458584 0.046361856 0.07098069 0.033292226
-0.0053226813 -0.077477455 -0.00939766 0.030745918 -0.080711044 -0.017166317 0.029901596 -0.07489571
-0.05029862 0.015177969 0.057893727 0.06552136 0.05198305 -0.05506633 0.099815615 -0.0047316984
0.06002442 0.022152983 0.04764093 0.056162212 -0.039716717 -0.03177603 0.0458374 -0.05135315
0.04471532 0.011591448 -0.010687875 0.10620213 -0.0355548 -0.063647486 0.055038147 0.03305638
-0.03628055 -0.04278387 0.023417743 0.14709224 0.11160202 -0.07634287 0.12679285 -0.1030082
0.03503228 0.059815355 0.042720467 -0.069090724 -0.004556482 -0.09050357 -0.054117568 0.032229707
0.09150787 -0.15161926 0.09860987 0.08034978 0.04154804 0.045313086 0.00067446555 0.053585283
0.08180504 -0.08361797 0.10749124 -0.027566342 -0.038872074 -0.1569851 -0.0020521516 -0.07244048
-0.034820605 0.09725773 0.0790747 -0.0218877 0.12048177 0.11239469 -0.019199362 0.052646667
-0.0133556565 0.017206041 -0.035930604 -0.17362209 0.09658205 0.016054422 0.09191772 0.015206916
-0.013036813 -0.053984243 -0.041524127 -0.09861688 0.04550363 -0.026719866 -0.014096237 0.040308002
0.04680264 0.013288665 0.024031589 0.026575835 0.025587734 -0.14307712 -0.005001641 0.04097149
0.09305677 -0.010721956 -0.110948525 -0.011167721 -0.054079745 -0.026222361 0.017129024 -0.03322482
-0.06291265 0.11855872 -0.039367087 -0.060973946 -0.10310107 -0.0039365473 -0.10017369 0.06505297
-0.054334518 0.10067126 0.033586446 0.08005962 -0.2621471 0.09286364 0.019712957 -0.04521369
0.028715437 0.053948835 0.064554535 -0.10136747 0.08193638 0.055177614 0.0841151 -0.041721042
0.11582854 0.08771379 0.0561784 0.034952633 -0.01110553 0.0065925578 -0.027201714 -0.07249353
0.044352148 0.053746358 0.07133681 0.05796499 -0.086101934 -0.079234876 0.013558036 -0.15471701
0.08410097 -0.006762837 -0.13074462 -0.09290631 -0.049134154 0.14329064 -0.05363472 -0.14730366
0.009556824 0.11003888 -0.024859205 0.11317885 -0.06185887 0.0016440449 -0.11102078 -0.04258134

actor.actor.6.bias f4 [12]
00000000: de2b 2cbd 0c42 663c e1ea 8a3d 352b 39bd
00000010: 0a41 ef3c e1f4 94bc f038 a33c 1942 6b3d
00000020: de3a 6ebc c4f6 2b3d eb1d 5abc 6684 2fbd
-0.042034023 0.014053833 0.06783081 -0.04520722 0.029205818 -0.018183174 0.01992461 0.057436083
-0.014540402 0.04198338 -0.013312797 -0.042850874

onnx::Div_36 f4 [1, 53]
00000000: c160 fa3e 657e 803e 4308 fc3e bf3d 383f
00000010: bf3d 383f bf3d 383f bf3d 383f dab0 363f
00000020: dab0 363f dab0 363f dab0 363f 3d00 283e
00000030: f945 6c3e 95ff 453e 89df 273e 7357 623e
00000040: 3eda 453e d007 2c3e 533b 913e 253f 523e
00000050: 31a9 323e 7044 853e e9f9 4e3e 7f37 9640
00000060: f5ee 8e40 5605 9c40 e107 9a40 0e50 9540
00000070: cd6e a340 a645 a340 eec5 9a40 f99f ab40
00000080: 7ab5 a240 4682 9840 7092 a840 02a3 0140
00000090: 1203 633f 729f 2c3f adc7 e73d ced4 343e
000000a0: 6f38 ea3d b98b f83e 44b8 213f 8cbc 2e3f
000000b0: f816 f33e 1ca9 223f 8979 333f b4cb f83e
000000c0: 577d 233f 953e 3c3f 6d90 f83e 2182 1a3f
000000d0: 1d62 423f
0.48901942 0.2509643 0.49225053 0.7196922 0.7196922 0.7196922 0.7196922 0.71363604
0.71363604 0.71363604 0.71363604 0.16406341 0.23073567 0.19335778 0.16393866 0.22103672
0.19321534 0.16799855 0.28365573 0.205319 0.17447354 0.26028776 0.2021252 4.6942744
4.4666696 4.8756514 4.813462 4.6660223 5.1072755 5.102252 4.8366613 5.363278
5.084653 4.7659025 5.2678757 2.0255742 0.8867656 0.67430794 0.11317382 0.17659304
0.11436545 0.485441 0.6317179 0.6825645 0.4747846 0.6353929 0.7010732 0.48592913
0.6386313 0.7353299 0.48547688 0.6035481 0.7593096
