src/ga_quadruped/policy/low_height_2k.onnx (onnx, 776049 bytes, 10 tensors)

normalizer._mean f4 [1, 53]
000000 b3 39 4d bb 91 d7 26 ba e0 a6 21 3a 3b e8 ed 3a
       -0.003131491 -0.00063645194 0.0006166529 0.0018150875
000010 00 ea ed ba 00 ea ed ba 3b e8 ed 3a e0 90 6a 3c
       -0.0018151402 -0.0018151402 0.0018150875 0.014316767
000020 e2 90 6a bc e2 90 6a bc e0 90 6a 3c 3d b6 22 3c
       -0.014316769 -0.014316769 0.014316767 0.009931144
000030 d0 28 40 3e 46 51 3b be 4d fe 83 3c 15 64 0b be
       0.18765569 -0.18292722 0.016112471 -0.13612397
000040 f4 88 47 3e 59 4d e9 39 07 25 e7 3c 29 51 01 be
       0.19485837 0.00044498852 0.028215898 -0.12628616
000050 cf e9 df 3c 6f ac cb bd 78 bb 4e 3d 83 0e 1d bc
       0.027333168 -0.099449985 0.050471753 -0.009585979
000060 7f 26 06 3c 5a e4 78 bd 8b b2 90 3c cd 31 2d bc
       0.008187889 -0.060764648 0.01766326 -0.010570955
000070 60 32 89 3d 84 9f 3d 3c 1a f2 d0 bb aa a3 d3 bc
       0.066990614 0.011573676 -0.006376517 -0.025834877
000080 24 6c 6c bc 06 bc 19 bb eb 60 18 3d f8 05 27 3c
       -0.01443008 -0.0023458018 0.037201803 0.010194294
000090 c5 d7 95 3a ed c5 b1 b9 62 f9 3e bd 31 d9 47 bc
       0.0011432102 -0.00033907537 -0.04662455 -0.012197779
0000a0 03 33 7d bf aa ab d8 bc 1e 50 1c 3e 80 d1 b9 bd
       -0.9890596 -0.026449043 0.15264937 -0.09073162
0000b0 bc 3e 90 3d f4 c0 c0 bd 1e d2 e8 3d 7c 92 3a 3d
       0.07043216 -0.09411803 0.11368202 0.045549855
0000c0 f5 1d ac 3d 2b 55 de 3b a6 3f 46 bc e8 2a 3b be
       0.08404151 0.006785055 -0.012100136 -0.18278086
0000d0 f4 5e e9 bd
       -0.11395064

actor.actor.0.weight f4 [512, 53]
000000 15 05 dc 3b 4b 2f c1 bd d0 0f 15 be 30 0d 37 bd
       0.006714473 -0.094328485 -0.14556813 -0.04469031
000010 ed c4 3f bd 02 25 95 bd 57 0d e2 3c c5 ac 1d 3e
       -0.046818662 -0.07282449 0.027594252 0.15397938
000020 57 86 16 3c 1b 71 c5 b9 d4 e9 c2 bd 7b 60 f3 3c
       0.009187303 -0.00037659038 -0.095172554 0.029709091
000030 e1 21 2a 3e 65 e2 b1 bc 7a 56 43 bb f7 3e f7 3c
       0.16614486 -0.021714399 -0.0029806183 0.030181391
000040 a3 c6 de bd f0 de 0e 3e 2f 8b 32 3e 25 a5 0a be
       -0.10877731 0.13952231 0.17435907 -0.1353956
000050 1d 80 4f bc cb 0d b3 3c 6e 8d ca bd 58 6d 12 bd
       -0.012664822 0.021857163 -0.09890257 -0.03574881
000060 9b d3 81 3c c3 fb 22 3d 41 3c 23 bd cc b3 99 3d
       0.015847972 0.03979088 -0.039852384 0.07504997
000070 67 19 19 3e e3 c0 08 3d 0d f0 a8 3c 77 46 12 3d
       0.14951096 0.033387076 0.020622278 0.03571173
000080 d6 41 8a 3d e6 ad 86 3d 4d 16 22 3d 15 9f 97 bd
       0.067508385 0.06576137 0.03957205 -0.07403389
000090 76 09 ab bd ab bc 9d 3c 15 85 12 bd 06 39 24 3e
       -0.08351414 0.019255003 -0.03577145 0.16037378
0000a0 e9 30 6b bd 75 04 d5 3d 52 d0 bb bd c2 16 24 be
       -0.05741969 0.10401241 -0.09170593 -0.16024306
0000b0 11 cd ec bd 5a 75 9d bc cf 4e 5c bd 41 d1 fb bd
       -0.11562551 -0.019220997 -0.053786095 -0.122957714
0000c0 b5 fe a1 bb d2 c2 c0 3d df ae a9 ba 59 2d 44 3d
       -0.0049436935 0.09412159 -0.0012945792 0.04789481
0000d0 ae c6 13 3c a0 24 e6 3b 5a e6 5c 3d cc d9 03 3d
       0.009019537 0.007023409 0.053930618 0.03219013
0000e0 7f a1 8a 3c d7 ad d1 bd 47 9d a4 bd 1e 1a 88 bd
       0.01692271 -0.102382354 -0.08037811 -0.066456065
0000f0 84 15 d4 bd e0 c5 a3 bd 52 23 d1 bc 5f 7b f1 bc
       -0.10355666 -0.07996726 -0.025529537 -0.029477773
000100 2f 27 74 be 39 4d f4 3d 8c a3 28 3d 2e 19 18 bc
       -0.23843072 0.119287916 0.041171595 -0.009283347
000110 f2 9d 8b 3c 65 25 1e 3e 5b d0 1b bd 44 49 03 3d
       0.017043088 0.15443952 -0.0380405 0.032052293
000120 b7 7b fc bd ec e4 e6 3d 26 4f 2f 3c 2b f3 27 be
       -0.12328284 0.11274132 0.010700023 -0.16401355
000130 b8 ba d8 3c 6b 75 e3 bd e4 18 13 be 03 7e 17 3d
       0.026456222 -0.1110638 -0.14364964 0.03698541
000140 a9 e2 a0 3b fc 46 14 be a5 1b 86 3c 51 25 76 3d
       0.0049098325 -0.14480203 0.016370604 0.06009418
000150 20 e5 b0 3d 1d a5 2c 3e ba 52 bf bb b2 5a 05 be
       0.08637452 0.1685986 -0.005838719 -0.13022879
000160 07 4d b8 bd 52 dd ff 3d 58 2e 9a 3d 00 c1 f8 bc
       -0.08999067 0.124933854 0.075283706 -0.030365467
000170 73 74 81 be 4b 80 40 bd 93 b9 cf bc a5 de 04 bd
       -0.25284156 -0.04699735 -0.025357043 -0.032438893
000180 b3 d6 fb bd 36 1d f6 3c fc ea 92 bd 5d d1 10 3e
       -0.1229681 0.030043226 -0.07173726 0.14142366
000190 2f 02 d8 bc 09 a3 95 3d b4 12 52 3d 04 35 a2 3b
       -0.026368229 0.07306487 0.051287368 0.0049501676
0001a0 fd 75 4e be 74 43 b6 3d eb 77 bf bd d6 ad b1 bd
       -0.20162196 0.088995844 -0.093490444 -0.08675735
0001b0 00 6e 88 bd 30 1d c5 bd aa 30 9c bc fb d7 ff bb
       -0.06661606 -0.09624708 -0.019066174 -0.0078077293
0001c0 2b f6 4c bc ab 3e f8 3d 73 6b 9c 3d 64 b9 60 3c
       -0.012509863 0.12121328 0.07637682 0.013716076
0001d0 61 1b bb bc ec 07 d9 3d 17 85 33 3d 70 70 40 bd
       -0.022840204 0.10597214 0.043828096 -0.04698223
0001e0 bc d7 53 3e c0 5c 07 be 9c 3f c2 bc 7a 57 81 3d
       0.20687765 -0.13218975 -0.023711972 0.06315513
0001f0 fb 7d 69 bd 9c f8 f7 bd ea b7 06 be ff ef 08 be
       -0.05700491 -0.12107965 -0.13156095 -0.13372801
000200 55 e4 98 bd dd 92 92 3c 31 ea b2 bd c2 4f f9 3d
       -0.07465426 0.017892295 -0.08736075 0.12173416
000210 4f 64 90 3c 67 04 16 3e a9 4f 51 be e4 bb 3e 3d
       0.017625956 0.14650117 -0.20440544 0.046565905
000220 f7 cb 6f 3d 2a 32 3d bd 3f 8a 31 bd 3d d4 35 3d
       0.058544125 -0.04619042 -0.043344732 0.04439186
000230 ae 0f 35 bd 53 00 2d 3d 96 40 30 be 15 fd 9e bd
       -0.044204406 0.042236637 -0.17212138 -0.07763115
000240 f0 de 97 3d 8c 43 f3 bd e5 17 3b 3b b5 e6 e3 bd
       0.07415569 -0.11878118 0.0028548178 -0.11127988
000250 b6 54 b7 3d 1f a8 65 bc 1d 48 88 3c 5e 12 d0 3d
       0.08951704 -0.014017134 0.016635949 0.10159753
000260 e5 6a 99 bd 7b 96 d0 3b d5 80 da bc 7e 3a 61 bd
       -0.07491092 0.006365595 -0.02667276 -0.054987423
000270 26 57 21 3d c7 01 c4 bd 49 67 83 bd ef c8 b8 3d
       0.03938975 -0.095706515 -0.064161845 0.090227
000280 e4 e6 bb 3d 36 b7 ce 3d 1e 55 8d 3d 4a d0 cc bb
       0.09174898 0.100935385 0.069010004 -0.006250416
000290 c7 7c 61 3d 7c 0c fc 3d 3a f2 05 3e d4 12 13 3d
       0.055050638 0.12307069 0.13080683 0.035906628
0002a0 54 5a be bd fb 7c 16 3e 81 30 69 3e 58 75 1e be
       -0.092945725 0.14696114 0.22772409 -0.1547445
0002b0 59 f5 6e be bb 9a c1 3d 99 78 03 be 0c 3e 2c be
       -0.2333578 0.094533406 -0.12838973 -0.16820544
0002c0 ac 10 82 bd 18 02 23 3d 78 1d c5 bd 30 ef 1c be
       -0.06350836 0.03979692 -0.09624761 -0.15325618
0002d0 71 35 5a bd 3a 1e 22 3c 57 1e 56 3d e0 3a 90 3c
       -0.053273622 0.009894902 0.052275028 0.017606199
0002e0 f9 e6 1c be 5d 6b 1e 3e 5a 27 21 3e a2 73 92 bd
       -0.15322484 0.15470643 0.15737668 -0.071509615
0002f0 f6 a1 04 be 88 75 71 3d 9d e4 bf 3d f4 d5 08 bd
       -0.12952408 0.058949977 0.093697764 -0.033407167
000300 55 d8 80 bd 91 5b 4a bd f1 b1 f0 3d 38 59 b0 bd
       -0.06291262 -0.04940373 0.1175269 -0.08610767
000310 24 5c bb bd e0 2d ba 3d 9e 14 6e 3e 79 9e 62 bd
       -0.09148434 0.09090781 0.23250052 -0.055326913
000320 e5 43 2a bc 93 98 33 3e eb 6a 53 bd f6 83 40 3d
       -0.010392164 0.17538671 -0.051615637 0.047000848
000330 7f dd bb 3d c7 dd 4c bd 3d e0 a4 bd 25 67 12 3d
       0.091731064 -0.05001619 -0.080505826 0.035742898
000340 74 66 8f bd d9 f2 c2 3d 60 34 43 3d 12 fc fe ba
       -0.07001963 0.09518976 0.04765737 -0.0019453785
000350 62 3f 19 3d 08 b0 07 3e 41 c7 ce bd bb 7a 97 bd
       0.037413962 0.13250744 -0.100965984 -0.07396456
000360 a5 c8 ba 3c 0c 58 d6 bc 6c 7d 99 bd a0 27 09 3e
       0.022800753 -0.02616503 -0.074946254 0.13394022
000370 06 77 93 3c 74 42 ad 3d 0e 90 d8 3c d1 a4 a1 bb
       0.01800109 0.084599406 0.026435878 -0.0049329777
000380 d4 e8 b1 3d e2 83 96 3b 95 cb 03 bd a9 b8 60 3e
       0.086869866 0.0045933584 -0.032176573 0.21945442
000390 62 75 0c bd 7f b5 d3 bd 85 b9 dd 3d c7 3e 45 3d
       -0.034291632 -0.10337352 0.10826401 0.048155572
0003a0 57 f3 01 3e cc 11 d6 3d e0 54 98 3d cf 7d e1 3d
       0.12690483 0.10452613 0.074380636 0.11010324
0003b0 69 12 d5 3c 48 c4 16 be 65 d7 95 3c 57 e8 04 be
       0.026009755 -0.14723313 0.018291185 -0.12979256
0003c0 e2 54 58 3d 24 f1 06 be d9 81 cd 3c 80 7a ac 3d
       0.052815326 -0.13177925 0.02508633 0.084218025
0003d0 a5 1d 69 bd 7c 50 0c bd 10 6f 06 3e fd 8a 38 3e
       -0.056913037 -0.034256443 0.13128304 0.1802177
0003e0 62 10 18 3e e4 2b 38 3e d7 19 63 bd e2 b7 21 be
       0.1485 0.17985493 -0.055444565 -0.15792802
0003f0 26 1a d9 bd 9f a6 1e 3e fe ae b6 bd a8 79 1c bd
       -0.106006905 0.15493248 -0.08920096 -0.038201958

actor.actor.0.bias f4 [512]
000000 b2 55 4a 3c 3e 2d 9b bd 6f fe fc 3c d2 39 9f bd
       0.012349533 -0.07576989 0.030883042 -0.077747
000010 b6 fc 84 bd e4 71 c8 bc 80 a4 6d bd 7d 53 b4 3d
       -0.06493513 -0.02446837 -0.058018208 0.088049866
000020 24 d9 30 bd a5 08 b8 bc 75 0a e7 bd 37 f5 5a bd
       -0.04317583 -0.02246506 -0.112812914 -0.05345651
000030 57 a9 80 bd 25 8b ea 3d fb 84 0b bd 21 ac ea 3d
       -0.06282299 0.11452321 -0.034062367 0.11458612
000040 e9 89 5a 3d 04 f2 21 be bf 99 a2 3c eb 12 8f bd
       0.053354178 -0.15814978 0.019848702 -0.0698603
000050 33 2d ef bc d6 dc 03 3c 9d 09 e1 bd 0d e1 37 3d
       -0.029196357 0.008048257 -0.10988162 0.04489236
000060 e9 82 bc 3b 11 0d c1 bd b1 a3 43 bd 05 de 88 bd
       0.0057529104 -0.0942632 -0.04776353 -0.06682972
000070 c9 59 6e 3d a3 73 7c bd 87 d5 e9 bd 8f 4f 03 bd
       0.058191095 -0.061633717 -0.1141768 -0.032058295
000080 f4 a2 90 bd 4e de 18 be cb 51 31 bd 3c 89 0a 3e
       -0.07062331 -0.14928553 -0.043290894 0.13528913
000090 3c da e7 bd 8b 29 dc 3d de 44 c5 bd dc b7 89 bc
       -0.11320922 0.10750111 -0.09632276 -0.016811304
0000a0 95 7a d2 3d e0 44 0d be ab 77 33 3e 76 08 09 be
       0.10277287 -0.13795805 0.17526118 -0.13382134
0000b0 42 27 4a bd ed e2 0f be 35 ec 14 3e 68 fc b9 bd
       -0.049353845 -0.14051409 0.14543231 -0.09081346
0000c0 56 70 8b 3d 85 65 04 3e 0f e8 a8 3d 2d bd 5c bd
       0.06808536 0.12929352 0.08247387 -0.05389135
0000d0 26 cf d2 3d 6a ad 6c 3c cb f3 e3 bd 51 91 65 3d
       0.10293417 0.014445642 -0.11130484 0.056046788
0000e0 bd ca c5 bd e6 bf 9c 3d b1 24 cd bd 6c e6 cf 3d
       -0.0965781 0.07653789 -0.10016764 0.10151371
0000f0 9e 92 0b 3b df 4b 93 bc 2f b2 21 be e9 f1 6d 3d
       0.0021297107 -0.017980514 -0.15790628 0.05809203
000100 a1 5f c2 3d 03 39 3e bd 1b 09 89 bb b5 a4 a1 bc
       0.09490896 -0.04644109 -0.0041819937 -0.019731859
000110 78 05 2e bd ca e2 9d bd bb 9d 23 bd 5e 20 e4 3d
       -0.042485684 -0.07709272 -0.039945345 0.11138986
000120 46 f1 1f bd a8 37 c9 bd 2d 4c 51 bd 72 02 dd bd
       -0.039048456 -0.09825069 -0.051098038 -0.10791482
000130 5b 8c 33 3c 16 f1 c4 bd 42 7b 9e 3d 43 a6 90 bd
       0.010958756 -0.09616296 0.07738353 -0.07062962
000140 e0 44 1b bc e1 84 7e 3b f4 bb 10 3e 22 69 c8 bd
       -0.00947687 0.0038836526 0.14134198 -0.097856775
000150 4a f6 e0 3d 2c 1a 35 bd 93 01 c1 3b 5c ef 28 be
       0.10984476 -0.044214413 0.0058900802 -0.16497558
000160 85 50 37 be e8 c9 b5 3d 61 b7 cb bd 7e f9 1e be
       -0.1790181 0.08876401 -0.09947086 -0.15524861
000170 54 e2 93 3d 1a 9b f2 3d 49 94 cc 3c f7 b4 25 bb
       0.07220903 0.118459895 0.024973052 -0.0025284865
000180 51 9e 04 3e 97 ec 6a 3d ee e6 ea 3d 59 83 bb 3d
       0.12951018 0.057354536 0.114698276 0.09155912
000190 f6 2d e6 3d 22 1a ba bb 5e 7e 85 bd cd 90 8c 3d
       0.11239235 -0.005679385 -0.06518243 0.06863556
0001a0 69 a7 85 3d 1e c4 89 3d 65 fb 07 be 61 66 1d bd
       0.065260716 0.067268595 -0.13279493 -0.038427714
0001b0 c4 10 20 bd 71 da da bc cd 24 fc 3d 50 b9 9b 3d
       -0.03907849 -0.02671549 0.12311707 0.07603705
0001c0 26 91 0c 3e f4 31 c7 bd a4 7c 24 bd 50 74 9c 3d
       0.13727245 -0.09726325 -0.04015793 0.07639372
0001d0 b6 f2 36 3d 12 62 d2 bd 05 3c 19 3d 87 51 c3 bd
       0.04466506 -0.10272612 0.037410755 -0.095370345
0001e0 db 6e 4f bd eb f5 4d 3e b3 ba d0 3d e4 8e 09 3d
       -0.05064283 0.20113342 0.1019186 0.033583537
0001f0 4f 35 c4 3d 7f 6e 1a be ac 19 01 bd a5 a9 ca 3d
       0.0958048 -0.15081213 -0.031518623 0.098956384
000200 00 b2 97 3d 69 ed 7a bd 2f cb bc bc d7 df 15 3d
       0.07406998 -0.06126157 -0.023046104 0.036590423
000210 30 09 ba bd 85 1e 29 3d 26 89 1b 3e b4 c2 a2 3d
       -0.090837836 0.04128887 0.15189037 0.07947293
000220 f3 98 cf bd c7 9b a7 bd cc 14 d8 3d ef 52 7a bc
       -0.101365946 -0.08184009 0.10550842 -0.015278562
000230 f2 a1 ca bd 86 e4 fd 3d 17 4f 13 be a3 57 fa 3c
       -0.0989417 0.12397103 -0.14385639 0.030559367
000240 0d 7b 85 3c 49 70 20 3d d4 95 b9 bd 06 8a 11 bc
       0.016294027 0.039169583 -0.090617806 -0.008883005
000250 92 43 c4 3d f2 ac a8 bd 80 9a 48 3d 1b 2e 19 bd
       0.095832005 -0.08236112 0.048975468 -0.037397485
000260 23 86 52 bd 8d d7 69 bd ca a5 00 bd 1b f0 45 bd
       -0.051397454 -0.05709033 -0.03140811 -0.048324686
000270 e7 0d 31 bd 2b ab 79 bd 35 82 c2 bd e3 46 12 3e
       -0.04322615 -0.060954254 -0.09497491 0.14284854
000280 3a 25 8b bd a0 c9 f7 3d 02 84 a3 3d 46 ed 7a 3d
       -0.0679421 0.12099004 0.07984163 0.061261438
000290 c4 1c 9f 3d 22 35 a0 3c 00 13 a1 3d 49 63 08 bd
       0.077691585 0.019556586 0.07864952 -0.03329781
0002a0 3f 6d 86 3d 2f 8e 81 bd 3f 0f e1 3d 89 54 c1 3c
       0.06563806 -0.063259475 0.10989236 0.02359988
0002b0 4d d5 ab 3d 38 2b 82 3d 21 05 0f 3d f6 c0 b5 bd
       0.08390293 0.063558996 0.034917 -0.08874695
0002c0 b1 3b f1 3d b0 96 32 be 56 f9 c9 3d 89 52 13 3e
       0.11778963 -0.17440295 0.0986201 0.14386953
0002d0 bd 6d c2 3d cb 17 7a bd 18 40 7f bc 70 d9 22 3e
       0.09493587 -0.061057847 -0.015579246 0.15903258
0002e0 cd 6b 0e be 3d ee 88 bc 7e 96 12 bd e6 4f ae 3d
       -0.1390831 -0.016715163 -0.03578805 0.08511333
0002f0 90 2c a7 bd 19 64 df bd fc c4 fa 3d a9 80 bf bc
       -0.081627965 -0.10907764 0.12244603 -0.02337678
000300 65 97 84 3d 78 92 e5 bd e5 fb 48 3d c8 4b 11 be
       0.06474189 -0.11209577 0.04906835 -0.14189065
000310 24 c4 fc 3d f5 21 ca 3d 46 72 23 3e b9 ad 42 bd
       0.12342098 0.09869758 0.1596156 -0.047528956
000320 b8 bb 0e be b7 e2 b5 bd 11 74 40 bc 99 b8 55 3d
       -0.13938797 -0.08881133 -0.011746422 0.052178
000330 fd aa 4d bd 1d 03 4c bd 92 fd 37 bd 91 80 38 bd
       -0.050211895 -0.049807657 -0.044919558 -0.045044485
000340 d5 ed e5 bd 19 f8 a4 bd e1 5e 24 3d 08 a5 cb 3d
       -0.112270035 -0.080551334 0.040129546 0.099435866
000350 93 44 11 be 3a ad 0a be d3 92 e8 3d 43 56 22 3e
       -0.14186315 -0.13542643 0.113561295 0.15853219
000360 0f df 70 bc cd 3f 69 bd c7 23 cb 3d fc d0 bb bd
       -0.014701619 -0.05694561 0.09918933 -0.0917072
000370 58 df d9 3c 44 d7 c3 bd db 00 9b 3c 9c 09 d0 bc
       0.026595756 -0.09562543 0.018921306 -0.025395207
000380 1a e2 08 ba 7d 0e 12 3d 40 9b db bd 21 a8 41 3d
       -0.000522168 0.03565835 -0.10722971 0.04727948
000390 c4 2c 03 bd 19 eb fd bd 41 a5 00 bb 16 28 a5 bd
       -0.032025114 -0.12398357 -0.001962975 -0.080642864
0003a0 7b e3 f0 bd e1 9e 9b 3d a6 f9 6f 3d 02 6e a2 3d
       -0.117621385 0.07598663 0.058587693 0.079311386
0003b0 28 9c 9c bc a8 0b 89 3d 05 8e 9d bd b9 b9 08 3d
       -0.01911743 0.066916764 -0.07693104 0.033380244
0003c0 aa 0f cf 3c 0d 92 c8 bd 26 e2 7c 3c 62 06 8a bd
       0.025276024 -0.09793482 0.015434777 -0.06739499
0003d0 d0 93 a2 3d d9 37 c6 bd eb b6 51 bd 9b dc ce 3d
       0.07938349 -0.09678621 -0.051199835 0.10100671
0003e0 35 10 ed bd 2f 6e f8 bd a9 38 1e 3e a3 d3 98 bd
       -0.11575357 -0.12130391 0.15451302 -0.074622415
0003f0 39 53 47 3d b4 d8 ae bd 80 ce bc 3d e8 08 b2 3d
       0.04866335 -0.085374266 0.09219074 0.08693105

actor.actor.2.weight f4 [256, 512]
000000 aa e3 87 bc 1b d5 be 3d 96 75 6e 3d 61 0d b2 bd
       -0.01658805 0.093179904 0.058217607 -0.08693958
000010 5d 26 20 3d 09 f8 80 bd 1b 10 9b 3c 7c 34 4f bd
       0.039099086 -0.06297309 0.018928578 -0.050587162
000020 e1 ba ad 3d f1 27 d0 3d 37 40 8e 3d a4 a1 48 bd
       0.0848291 0.10163868 0.06945842 -0.048982278
000030 8a 94 b5 bc 3f cc a6 bc d1 d8 2c bd c2 1f 3a bd
       -0.022165556 -0.020361064 -0.04219896 -0.045440443
000040 77 87 15 bc d1 9c f1 3a 47 e1 a6 bc fb f8 f8 3d
       -0.009126536 0.0018433576 -0.020371092 0.12156864
000050 db 49 25 bd ec 2f 64 bc dc 51 43 ba ce ca 16 3d
       -0.040353637 -0.013927441 -0.00074508577 0.036814503
000060 e9 00 c4 bc c3 c2 0a 3d 91 08 69 bc fe ed cd 3d
       -0.023926215 0.033877145 -0.014223234 0.10055159
000070 76 49 dd 3c 5c 97 89 3d 77 c3 54 3d 1a 6b 9d 3d
       0.027012568 0.06718323 0.051944222 0.076864436
000080 3a 24 83 3d be 56 07 3d 4b 8e 3d bd 5e 6d 79 3c
       0.06403394 0.03304171 -0.04627828 0.015223829
000090 fe 3d 4f bc f7 14 3a bd 7b 84 22 3c 65 e1 a9 bc
       -0.012649057 -0.04543015 0.009919281 -0.02073736
0000a0 be b5 c0 3c 98 90 32 3c c0 a5 9d bc 82 64 85 bd
       0.023524161 0.010898732 -0.019244075 -0.06513311
0000b0 83 2b 54 bd a0 11 09 3d 26 9b 84 bc c8 56 9c 3d
       -0.05179931 0.033464074 -0.016187262 0.0763374
0000c0 5d d5 b5 3d 8b 2a 8f bc c0 3f d9 bd 25 12 2a bc
       0.088785864 -0.01747634 -0.106078625 -0.010380303
0000d0 47 cc 6f 3d 30 ae ab bd c1 d6 ea 3d 25 8d f8 3c
       0.058544423 -0.08382833 0.11466742 0.03034074
0000e0 34 39 e5 3c d8 60 3d bb 4e 1a 87 bd 2e fc 5b 3d
       0.027981378 -0.0028896835 -0.06596814 0.053707294
0000f0 85 1a 47 3d 60 cf 93 3a 4a ab 87 3d cb 8f 6f 3d
       0.048609275 0.0011277013 0.06624468 0.05848674
000100 b6 d4 c8 3d 45 fc 91 bd 56 be 72 3c 56 06 59 bd
       0.098061964 -0.07128195 0.014815887 -0.052984558
000110 59 77 16 39 05 ef d7 bc b3 cc bc bc fc 66 04 bd
       0.00014349575 -0.02635909 -0.023046827 -0.032324776
000120 6b 3b 1d 3c 2c 7e 9f bc a3 97 ac bc e0 df 5f bd
       0.009596686 -0.019469343 -0.0210684 -0.054656863
000130 50 c1 11 3d 3c bd 4c 3c 1a fe d1 bc 13 e7 74 bd
       0.035584748 0.012496289 -0.02563386 -0.059790682
000140 8f fd 9e 3d 2a ce 28 3d d0 36 8f bc 87 cb 81 bd
       0.07763206 0.04121224 -0.017482191 -0.06337648
000150 22 e2 c0 ba b5 16 98 bb 2d ec 7a 3d 8a 1b b0 3c
       -0.001471583 -0.0046413788 0.06126039 0.021497507
000160 76 4d e0 bc 50 75 e2 3d 3a 4b af 3c 72 2d d9 bb
       -0.027380686 0.11057532 0.021398176 -0.006627732
000170 6b 3d 59 bd 63 86 b6 bd 71 b9 87 3a 6b f2 ef 3b
       -0.05303709 -0.08912351 0.0010354948 0.0073225996
000180 27 1e 0b 3d dd 61 43 3d f9 3e 1b ba 8e 34 59 bd
       0.033964302 0.04770075 -0.00059221644 -0.053028636
000190 32 d2 97 3b ec 84 fe bc 7f f3 77 bd 41 23 2b bd
       0.0046332115 -0.031069241 -0.06053495 -0.041781668
0001a0 8c e5 28 bd 3f f7 d7 bd c0 79 b7 3d 6a ee 94 bd
       -0.041234538 -0.10545205 0.08958769 -0.072720364
0001b0 65 79 6f 3d 3b 05 53 3d 06 a7 13 bd 16 f5 e0 bc
       0.05846538 0.05151866 -0.036047958 -0.027460616
0001c0 ff 42 aa ba de 12 96 3c 76 a4 7a bd 47 c0 f8 3b
       -0.0012989937 0.018319543 -0.061192 0.0075912806
0001d0 fd af d3 bc ba 71 83 bd 34 c4 38 bd 2a 01 3f bd
       -0.025840754 -0.06418176 -0.04510899 -0.04663197
0001e0 fb 79 98 3b a6 95 57 3d d3 85 e5 ba 99 a5 0c 3c
       0.004653213 0.05263295 -0.0017511196 0.008584403
0001f0 3e 6f 4a bd 8f e1 d2 bb 80 7a 97 3b 22 58 75 ba
       -0.049422495 -0.00643558 0.0046227574 -0.0009359141
000200 43 5c aa bd 24 7d 69 3d bd d9 86 bd e9 3e 55 3b
       -0.08318379 0.05700411 -0.06584499 0.0032538718
000210 95 c4 8d 3b 02 90 6d bd 38 d3 aa bc 7c 34 95 3d
       0.004326413 -0.057998665 -0.02085267 0.07285401
000220 60 86 43 bd 94 b4 cc 3c 76 3e 35 3b bd c4 81 3d
       -0.04773557 0.02498845 0.0027655638 0.06336353
000230 56 c0 bb 3b 10 8e 9e bb 9b 9d 82 3d 44 b5 3e 3d
       0.0057297153 -0.0048387125 0.06377717 0.046559587
000240 27 eb e8 3d 4e f3 26 3d 39 11 b0 3c 15 c6 15 bd
       0.11372977 0.040759377 0.021492587 -0.03656586
000250 ab e4 11 3c 91 f8 9d bc ef cc 24 3d 13 ab 51 3c
       0.008904616 -0.019283565 0.040234502 0.012797135
000260 f8 f2 b2 bd 06 c2 09 3c cc 45 b2 bc 8b 26 80 bd
       -0.08737749 0.008408075 -0.021761797 -0.062573515
000270 b1 27 dd 3c 50 23 8e 3d b2 a8 17 3c cb 24 21 bd
       0.026996465 0.06940329 0.009256529 -0.03934173
000280 81 d5 04 3c 6f 46 36 3b 3b 00 61 bc 75 7e 02 bd
       0.008107544 0.0027812978 -0.013732965 -0.03185888
000290 29 81 64 3d d8 0a 48 3a 79 bd 51 3d 10 b4 91 3a
       0.05578724 0.00076310104 0.051206086 0.0011116285
0002a0 9e ea dc 3c e6 8f 18 3d 8e d3 13 bd 12 a3 88 bc
       0.026967343 0.037246607 -0.036090426 -0.01667932
0002b0 15 07 0f bd 5b 08 09 3d 09 89 91 3d 15 b2 ae 3d
       -0.034918863 0.033455234 0.071062155 0.0853006
0002c0 6f 70 ac bd 1f 32 3f 3c 5f 25 2a b9 92 16 f5 3c
       -0.084198825 0.011669665 -0.00016226385 0.029917989
0002d0 7d 9b 8a bc 66 49 63 3c ce f6 28 bb 5c 71 8c 3d
       -0.016919846 0.01387248 -0.0025781873 0.06857559
0002e0 68 0a 2f 3c d0 44 89 3b 24 07 39 3c 2c 81 29 bd
       0.010683633 0.0041891113 0.011293206 -0.041382954
0002f0 d8 d4 34 bd 95 a5 be 3c 10 04 18 bd b6 fa 1d 3d
       -0.044148296 0.023272315 -0.03711325 0.038569175
000300 4e e5 8a 3b f6 22 41 bb 96 62 87 bd 8c 74 a1 bb
       0.004238761 -0.0029470301 -0.06610601 -0.0049272235
000310 df d7 94 bc 5e 16 3a 3c ce a6 83 ba a8 b4 ac 3d
       -0.018169342 0.011357872 -0.0010044219 0.08432895
000320 80 e6 6f bd ea 07 93 bb 3f 96 d2 3c 9d b2 ec 3c
       -0.05856943 -0.0044870274 0.025706409 0.028893763
000330 bd b5 15 3d 7f b1 01 bd 89 28 5e 3d d5 b0 04 bd
       0.036550272 -0.031663414 0.054237876 -0.032395203
000340 43 8e 0b be 3b ce 77 bd 8a 37 36 bd c3 50 da 3a
       -0.13628487 -0.06049941 -0.04448656 0.0016656149
000350 4e 0b 5e bd 49 1e f2 3c cc ca 87 bd 09 98 a5 3a
       -0.05421 0.029555457 -0.06630477 0.0012633811
000360 28 d8 79 bd 83 74 97 3d a9 ca fb 3c da 92 39 3d
       -0.06099716 0.0739527 0.030736284 0.045306064
000370 f3 d9 10 3c 61 f8 63 3d 41 d3 9f bd 8a c0 33 3c
       0.008841026 0.055656794 -0.07803965 0.010971198
000380 66 9d ec bd 9f da 64 3c e7 05 9e bc 47 69 0c bd
       -0.11553459 0.013968139 -0.019289924 -0.034280088
000390 cd 7d 68 bc a8 14 9b 3d 23 4a 6a bd 5a 97 fe 39
       -0.0141901495 0.07572299 -0.05719961 0.0004855942
0003a0 1d 22 92 3c 44 08 02 bd 9d 30 98 bc 19 18 ba 3b
       0.017838532 -0.031746164 -0.018577868 0.005679142
0003b0 b3 67 da 3c 2a c2 1d 3d e0 ce 88 3d 39 e7 10 3d
       0.026660776 0.038515247 0.06680083 0.03537676
0003c0 9d 8f ac bd 4f 93 69 bc 3b 5a 17 bd 73 96 0b 3c
       -0.084258296 -0.0142563125 -0.036951285 0.008519757
0003d0 84 0d 22 bd ae ec da 3a 03 1b 25 3c e8 21 f9 3a
       -0.03956367 0.0016702616 0.010077241 0.0019007297
0003e0 66 67 f4 bd 75 76 9e bb 76 62 d7 bc f5 31 e7 bd
       -0.11933784 -0.0048358985 -0.026292067 -0.112888254
0003f0 70 37 3c bb 7b 11 df 3c 57 5d b5 3d b4 1c c1 3d
       -0.0028719567 0.027230015 0.08855694 0.09429303

actor.actor.2.bias f4 [256]
000000 ad 74 c8 3b 24 f8 5e bd 69 b4 28 bc 03 e5 24 bd
       0.0061174245 -0.054435864 -0.010296919 -0.040257465
000010 99 6c 63 bc ca 6e dd 3c 53 b3 54 bd da f9 dd bc
       -0.013880872 0.027030367 -0.05192883 -0.027096678
000020 05 4c 56 bc d0 e7 02 bd 6d 7b d1 3b a5 a0 b1 3a
       -0.013079648 -0.031959355 0.0063928873 0.0013551904
000030 dd 1b c3 3c 85 b0 cb 3c 35 34 54 bd d2 17 e2 bc
       0.023816997 0.024864445 -0.0518076 -0.027599249
000040 8f f9 36 bc 4f 12 81 bd c0 b4 da bb 0f 24 82 bd
       -0.011167898 -0.0630232 -0.006674379 -0.06354534
000050 04 85 4d b9 9e 7f 15 bd b9 78 3f bc e4 71 1f bd
       -0.00019599876 -0.03649866 -0.011686497 -0.038926974
000060 42 f3 00 bb 63 f3 aa 3c ad a5 a9 bc bc 2d 6c 3c
       -0.0019676243 0.020868009 -0.020708883 0.014415201
000070 87 93 28 bd ad 3a ec bd ca 57 1b bc 7b 19 39 3d
       -0.041156318 -0.11534629 -0.00948138 0.045190316
000080 1b 9f c4 bc f7 57 c1 bc e7 fb 41 bb 44 70 a3 3c
       -0.024001649 -0.023601515 -0.0029599608 0.019950993
000090 20 c0 c7 bd 81 1f da bb c8 f5 be bd 6d 20 ba 3c
       -0.09753442 -0.0066565876 -0.09324223 0.02272054
0000a0 18 39 6f bb 23 b7 79 bc d9 6c 73 bd ec c0 4b bd
       -0.0036502536 -0.015241417 -0.059429977 -0.04974453
0000b0 93 dd 2c bc a7 0b 39 3d a7 08 1e 3d c9 9d f3 bc
       -0.010550874 0.04517713 0.03858247 -0.029738324
0000c0 e1 49 a3 bd 9a cd 7e bd 70 99 76 bd 41 8b 79 bd
       -0.07973076 -0.062207796 -0.060204923 -0.06092382
0000d0 c9 3d 42 bd 08 7d 56 3b c4 da fb bc bc ec 93 3c
       -0.047422204 0.0032728333 -0.030743964 0.01805722
0000e0 bf 03 7a bb 48 72 0a bd ec 00 86 bc d3 44 b4 bd
       -0.0038149206 -0.033800393 -0.016357861 -0.0880219
0000f0 c6 17 05 3d b2 2d 43 bc 12 38 46 bd b1 25 21 3d
       0.032493375 -0.01191275 -0.048393317 0.039342586
000100 fa 64 47 3b 39 27 0f 3c 11 d2 7c bd 5d a2 25 bd
       0.0030425177 0.008737379 -0.061723772 -0.040438045
000110 6f 2d a1 bd 98 06 49 bd dc 36 98 bd ac ef a2 bb
       -0.07869994 -0.049078554 -0.074323386 -0.004972419
000120 ca 83 96 bd 38 72 b2 bc d9 d1 a5 bc 3c fb 99 bd
       -0.073493555 -0.02178298 -0.020241665 -0.07518622
000130 b2 9c 78 bd a7 a7 00 be 86 a3 e8 3b 89 41 c9 bd
       -0.06069631 -0.12563954 0.0070995716 -0.09826953
000140 2a a4 52 bc 14 24 df bb 9d 2f c5 3b d1 91 c3 bd
       -0.012856523 -0.006809721 0.006017639 -0.09549297
000150 9a f6 3c bd 47 a8 41 bc 66 0f af bd 26 5a 1f bc
       -0.046133615 -0.011819906 -0.08547859 -0.009726083
000160 7c d5 a9 bc 0f 0d 5c bd 79 d5 3f bd ef 62 26 bd
       -0.02073168 -0.05372339 -0.046834443 -0.040621694
000170 00 5d 8e bc ec 5c ee bc 38 9e c0 bd 0f ba b1 bc
       -0.01737833 -0.029097043 -0.09405178 -0.021695165
000180 3f 53 86 bc 90 fa 38 bc b1 09 bf bd 0c 49 f0 bc
       -0.016397117 -0.0112902075 -0.0932802 -0.029331706
000190 35 42 93 bc 18 76 53 3b 31 b5 2e 3c 70 3a 82 bc
       -0.017975906 0.0032266434 0.010663317 -0.015897006
0001a0 8a 8f 05 bd 9d fb c0 bc 45 42 04 bd f7 68 35 bd
       -0.032607593 -0.023557479 -0.032289762 -0.044289555
0001b0 0d 7a 08 bc 7c e3 69 bd cd 30 71 bd a4 82 a7 bd
       -0.00832988 -0.05710171 -0.05888443 -0.081792146
0001c0 22 c2 6e bb 20 d6 1d bd b2 12 37 3d 84 c0 83 bd
       -0.003643163 -0.038534284 0.044695564 -0.06433204
0001d0 76 60 96 bc 8c 7e c3 bc 89 0f bf bc 3f 72 1f bd
       -0.018356543 -0.023864053 -0.023322837 -0.038927313
0001e0 f5 a6 c5 3c 96 f9 70 3a fb a5 82 ba 74 7d d5 bd
       0.024127463 0.00091924646 -0.0009967679 -0.10424319
0001f0 b9 a7 b2 bd 8a c5 63 bd 46 45 9f bc 5d 0c b9 bd
       -0.08723397 -0.05560831 -0.019442212 -0.09035561
000200 5d b6 cf bc c2 3e c0 bb 1c 2e 99 bd 43 03 56 bd
       -0.025355512 -0.0058668563 -0.07479498 -0.052249204
000210 46 58 95 3c 9a 31 95 ba 3b f0 a5 bd d0 78 00 3c
       0.018230569 -0.001138258 -0.08102461 0.007841304
000220 c7 b3 2c 3d 07 b9 f0 bc 6f 51 0f bc 9d a0 99 bd
       0.042163637 -0.029385103 -0.008747443 -0.07501338
000230 7d 24 30 bd 1d 15 81 bd a1 b8 0b 3d fd a7 34 bd
       -0.043003548 -0.06302855 0.034111623 -0.04410552
000240 fa 54 9c bd de 45 af 3c 6f e5 72 3c 6a 94 10 bd
       -0.076333955 0.02139562 0.014825209 -0.03529779
000250 04 61 da bd 2c 83 4f bc 9d 63 27 bd a0 30 d9 bc
       -0.106630355 -0.012665551 -0.040866483 -0.026512444
000260 bd dd 95 bd 7b 3c 8a bd e6 06 c7 bc 55 c2 4c bd
       -0.07317684 -0.06749817 -0.024295282 -0.049990017
000270 67 06 ee bd 32 c2 57 ba 6a 2e 19 bb f3 95 14 3d
       -0.11622315 -0.00082305365 -0.0023373612 0.036275815
000280 0d 36 4e bc 83 86 22 bc bc 2f 1f bb e6 19 8b bd
       -0.012586129 -0.009919765 -0.0024289927 -0.06792049
000290 86 03 20 bd c5 68 d9 3c 8c be 62 3a b6 02 2c bd
       -0.03906586 0.026539216 0.00086496095 -0.041994773
0002a0 0e c7 8b 3c 16 6e de bb 41 4c 71 bd e3 0a 8a bc
       0.01706269 -0.0067880256 -0.058910612 -0.016850894
0002b0 b8 3f 09 3b e0 f8 d0 bd aa 9c 09 3c 41 42 2d bd
       0.002094252 -0.10203719 0.008399168 -0.042299513
0002c0 19 73 3b bd 9e 39 62 3d b4 a2 5d bc 42 44 b2 3c
       -0.045764063 0.05523073 -0.013527561 0.021761063
0002d0 d2 75 ed bd 0e ad 83 bd b0 d5 94 bd 75 4d 39 3d
       -0.11594738 -0.06429492 -0.0726732 0.045239884
0002e0 fc 42 8c bc 1c b7 3b 3d dc 96 23 bd c3 dd 13 bd
       -0.017121784 0.045828924 -0.039938793 -0.03610016
0002f0 be a4 15 bc 80 ee f2 bb 68 8f c0 bc d7 62 a5 bd
       -0.009133516 -0.0074136853 -0.023505881 -0.08075493
000300 7e 1e f1 3b 74 11 fa bc ab eb 6b 3d 04 f7 eb bc
       0.0073583713 -0.0305259 0.057597797 -0.02880431
000310 dc 3f b0 3c ea d8 f8 3b 5d 80 94 bc 3c fd 20 bd
       0.021514826 0.0075942175 -0.018127615 -0.039304003
000320 3f 14 1a bd af 4d 2a bb 6d 02 ad 3c 02 43 3c bb
       -0.037616964 -0.0025986244 0.02111932 -0.0028726463
000330 b0 26 c4 ba 2f a5 96 3d ae bb 83 bd df 20 5e 3d
       -0.0014965143 0.07355725 -0.064322814 0.054230567
000340 19 ab 97 bd 2a d8 5c 39 7c f6 19 bd fa 4d 9f 3d
       -0.07405681 0.00021061362 -0.03758858 0.07778545
000350 51 0f 09 bd fc e2 ab bd 5e c4 14 bd 62 aa 0f bd
       -0.033461872 -0.08392903 -0.036320083 -0.0350746
000360 4b 2d 21 3d 3c 96 a3 bd 22 9c d8 bd 83 29 90 3c
       0.039349835 -0.07987639 -0.10576655 0.01759792
000370 5f 6f 84 bd e0 96 9c bb 20 5b a6 bc ad e9 cf bc
       -0.06466555 -0.004778728 -0.020307124 -0.02537998
000380 c8 38 3e 3b 96 14 8d bc 59 db 50 bc b0 77 18 bd
       0.0029025543 -0.01722173 -0.012747609 -0.037223518
000390 ef 98 59 3d ec 35 61 bc f1 64 23 3d 4e 82 7c bd
       0.053124364 -0.013745766 0.039891187 -0.061647706
0003a0 a5 e0 8f 3c 0f 68 98 ba 5c 3f 34 3b d7 04 b7 3c
       0.017563174 -0.0011627692 0.0027503585 0.022341175
0003b0 6d 61 eb 3c f9 ed 17 3d e9 d7 6b 3d 87 3b 2c bc
       0.02873298 0.037092183 0.057578955 -0.010512239
0003c0 6e 03 c9 bd 01 cd 08 bd 29 09 4c bd ff 05 35 bc
       -0.09815107 -0.033398632 -0.049813423 -0.011048793
0003d0 3c 9f 65 bc ac ae 55 bc a9 40 ae bc 83 32 4e bb
       -0.014015015 -0.013042133 -0.021271067 -0.0031463213
0003e0 17 c2 58 bc 37 64 2e 3d c0 a1 65 bd 85 48 53 bd
       -0.013229868 0.04257604 -0.05606246 -0.051582832
0003f0 40 48 1f bc 54 4c fa 3c a8 06 2f bc c8 79 40 bd
       -0.009721816 0.030553974 -0.010682739 -0.04699114

actor.actor.4.weight f4 [128, 256]
000000 6a 10 7c bd 57 0d 9f 3b 5e e9 70 bc f2 79 02 bd
       -0.06153909 0.004853885 -0.014704077 -0.031854577
000010 f5 0e a5 bb d3 44 5a 3d df 52 3a bd 03 b9 6a 3d
       -0.0050371834 0.053288292 -0.04548919 0.057305347
000020 9a b5 ed bb 2d d9 c7 3c 6f 34 8a bd 8f bb 52 3d
       -0.0072543146 0.02439555 -0.06748282 0.0514484
000030 17 eb fc bc 3f a7 16 be e4 ba 01 bc 4f db b5 bd
       -0.030873818 -0.14712237 -0.007918093 -0.088797204
000040 2e 25 03 be 9d 1c 11 3d d8 0a 88 bd 04 bf 9d 3d
       -0.12807152 0.03542768 -0.06642693 0.07702449
000050 4a d3 85 3c 47 be b9 bd a7 65 b2 b9 f7 4e 8f 3d
       0.016336102 -0.09069496 -0.00034026543 0.06997483
000060 e1 21 ed 3b 6d f5 a9 bd 03 6a 3d 3d 20 de b9 bd
       0.0072367047 -0.082987644 0.04624368 -0.0907557
000070 f3 3a 90 bd 9a 8b aa 3d 9f 32 00 bd 41 7d 8f 3c
       -0.07042494 0.08327408 -0.031298276 0.01751578
000080 f9 ef 13 3b d2 2d 84 3d 78 01 da bc cb 89 31 bc
       0.0022573455 0.06454052 -0.026612028 -0.010836075
000090 19 f0 7f bc 8a 52 b0 bc df 67 87 bc 2c 15 a3 bd
       -0.015621209 -0.021523733 -0.016529022 -0.079630226
0000a0 79 28 5f bc 0e 6f 93 bb 28 2b e2 bc 65 0a f4 bd
       -0.013620489 -0.0044993227 -0.02760847 -0.11916045
0000b0 fd 56 e0 bd 48 7e 36 3d 21 37 ae 3d b0 e9 12 bd
       -0.10954092 0.044554025 0.08506609 -0.035867393
0000c0 a5 74 cc bc dd f0 c3 bc ee 2b bc 39 5d 38 da bd
       -0.024957964 -0.023918564 0.00035890884 -0.10655282
0000d0 6c 23 a6 3c ea bc 0a 3d 57 59 a3 bd 9f 89 68 3c
       0.020280562 0.03387157 -0.079760246 0.014192968
0000e0 be e7 3c 3c 7c 71 18 bd 98 ae 07 3d 98 55 ca 3c
       0.011529861 -0.037217602 0.03312549 0.024699017
0000f0 a5 30 6a bd b0 19 58 3c 51 63 50 3b 78 10 77 bd
       -0.057175297 0.013189718 0.0031797478 -0.06031844
000100 f3 90 92 3c 12 af 95 bd 7b e2 b8 3d 87 c1 30 3e
       0.017891383 -0.07308783 0.09027573 0.17261325
000110 de cf 5c 3d 2a 13 74 bd 99 57 9e 3d 54 ea 1f bc
       0.053909175 -0.05958859 0.07731552 -0.009760458
000120 f4 20 83 3d f0 37 2f 3d 41 1c 16 3d 45 08 3a 3c
       0.0640277 0.042777956 0.03664804 0.011354511
000130 6e 36 9d 3d 3d 51 30 bc 0e f5 6b 3d 75 2c cf bc
       0.07676397 -0.010761556 0.05760675 -0.025289753
000140 65 31 a9 3d 6c 87 4c 3d 82 84 1f bd 76 c0 90 bd
       0.082613744 0.049933836 -0.03894473 -0.07067959
000150 98 e6 6a 3c 6b 7e d4 3d 2e 03 25 bc c7 9c 27 bd
       0.014337204 0.10375675 -0.010071559 -0.040921
000160 3f 44 9e 3c 7e bc ea bc 1a b5 b1 3d dc bb 32 bd
       0.019319652 -0.028654333 0.086771205 -0.043636188
000170 48 31 07 be 76 59 19 3d 01 bf 95 bb 8b db cf bc
       -0.13202393 0.037438832 -0.0045698886 -0.025373241
000180 7b 37 23 bd 3e 6f ff 3c d7 c8 0e 3d b0 68 a3 3d
       -0.039847832 0.031180974 0.034859505 0.07978952
000190 0c 50 93 3b d1 5a 55 3b 98 86 42 bd ef 5c 0d bd
       0.0044956263 0.0032555351 -0.04749164 -0.034512457
0001a0 f4 f0 01 bd bd 65 48 bd b2 71 47 bc 8a 7e 74 3c
       -0.03172393 -0.04892515 -0.012173103 0.014922747
0001b0 f4 1f be 3c 2f 33 39 3b 0a 73 6e 3d 6f 8d 9b bc
       0.023208596 0.0028259268 0.05821518 -0.01898834
0001c0 8f 9c 43 3d e3 67 b1 3d 3f a1 b6 bc 82 0c 4b 3c
       0.047756728 0.08662393 -0.022293685 0.012393119
0001d0 c0 25 50 3c 0d 65 95 bc c0 f2 4d bd 32 1c 2a bc
       0.012704313 -0.018236661 -0.050280333 -0.010382699
0001e0 26 68 4f 3c 05 de 1b 3d 1d 54 22 bd 5a a3 66 bb
       0.012659108 0.03805353 -0.039630998 -0.003519258
0001f0 a8 da 64 3d 01 6f d6 3c 13 86 33 bd 6d cf 01 bd
       0.05587259 0.026175978 -0.043829035 -0.031691957
000200 68 97 ee 3c fc 3d 83 bd 2f 0c 9e bd 4f f4 bb 3c
       0.02912493 -0.06408307 -0.077171676 0.022943644
000210 7f 08 48 bd b8 50 7b bd 9b 6a 96 3d 69 f1 c8 3d
       -0.048836228 -0.061356276 0.07344552 0.0981167
000220 dc c8 17 be bc 6a 2e 3d e0 f0 c7 bd a1 d8 aa 3d
       -0.14822716 0.04258226 -0.0976274 0.083421
000230 14 64 d6 3b e0 19 b2 3c be fc 5c bc b7 cb b3 bd
       0.006542692 0.021740854 -0.013487993 -0.0877909
000240 36 f5 91 3d b2 ef 92 bc 36 56 4f 3c 26 60 ea 3b
       0.071268484 -0.017936561 0.012654832 0.007152575
000250 35 a5 7b 3d 65 a1 8e 3d 2d d9 a4 bd 33 da 8c 3d
       0.06143685 0.06964377 -0.080492355 0.06877556
000260 f2 8b 84 bd a6 be cc bb e6 d9 70 bd 7a 3f bb 3d
       -0.06472005 -0.006248313 -0.058801554 0.091429666
000270 b6 2f 06 3c f1 0e ca 3c 6f 8a 66 3d 49 ba 92 3d
       0.008190086 0.024665328 0.056284364 0.07164437
000280 a4 d3 8e 3d b5 9b d5 3b 65 24 fc ba 25 95 33 3e
       0.06973961 0.006518806 -0.0019236921 0.17537363
000290 71 7e 88 3d 24 79 74 bd c7 23 46 bc 83 4d b8 bd
       0.06664742 -0.05968584 -0.012093491 -0.08999159
0002a0 be dc 8f 3d 0d 93 16 3c 1f 18 7a bc 5b 12 23 3d
       0.07024525 0.009190333 -0.01526454 0.039812427
0002b0 95 ee ed bb f7 4e 63 3b 5c 02 57 bc 52 b4 8a bc
       -0.007261107 0.0034684518 -0.013123121 -0.016931687
0002c0 a6 35 c5 3c ec 4c 10 3d 6c 9b 72 bd 47 db 3b bc
       0.024073433 0.03522961 -0.059230253 -0.011465854
0002d0 9c 8e 09 3d b5 bb bd 3c db 78 ce 3d ac ff de bd
       0.03358327 0.023160795 0.10081645 -0.10888609
0002e0 27 2b 5a bd 98 95 d4 bd cd e2 89 3d 4e 6e 4e bd
       -0.05326381 -0.10380095 0.06732712 -0.050398163
0002f0 1f 8b 0e bc f9 f9 be 3d 02 b5 8f 3d 77 41 71 3c
       -0.008700161 0.09325022 0.070169464 0.014725081
000300 6f 70 0c 3d 57 02 17 3e 42 ff 4b bd 56 ba b8 3d
       0.034286913 0.14746986 -0.04980398 0.09019916
000310 12 fb 54 3c 73 1f 8b bd 38 68 4e 3d 15 60 b8 bd
       0.012999313 -0.06793108 0.05039236 -0.09002701
000320 be b1 76 3d 5d bb 32 bd 87 8f 93 bd 3b fd 08 bc
       0.060228102 -0.043635715 -0.0720511 -0.008361156
000330 e5 be c7 3c 2e 03 a5 bd 22 9b 20 bd 69 dc 8b 3d
       0.024383018 -0.08057247 -0.039210446 0.06829149
000340 56 50 85 3d bb ef 96 bc 1e 9b fd bc b1 1d ef 3a
       0.065094635 -0.01842486 -0.030957755 0.0018243102
000350 cc d5 d3 bc e1 a2 61 bd 5b 48 a5 3b 09 bb 74 3d
       -0.025858782 -0.055086974 0.005044026 0.059748683
000360 f3 00 87 bd 59 86 a3 bc af bd b3 bc f6 16 3d bc
       -0.06591978 -0.019961523 -0.021941034 -0.011541119
000370 b1 c3 72 bc e2 2d 14 3d 28 58 f9 bb 9e f1 53 3c
       -0.014817164 0.03617657 -0.007609386 0.012936024
000380 c5 1b 2b bd 83 04 c1 bd f5 e4 4a bd b0 f0 82 3b
       -0.04177453 -0.09424689 -0.049534757 0.0039959773
000390 59 7a 1a bd 70 53 d5 bc d5 45 d8 bd d4 fa b1 bc
       -0.037714336 -0.026040763 -0.105601944 -0.02172605
0003a0 fb aa 20 3d c1 ca 63 3d 6b 5b 98 bd 82 ec e9 bd
       0.03922556 0.055613283 -0.074393116 -0.114220634
0003b0 6e 69 24 bd ef ea 08 be 8b 59 cd bd 07 d1 70 3d
       -0.040139608 -0.1337087 -0.100268446 0.058793094
0003c0 aa f2 66 bb a8 5d 21 bd d6 d9 02 3d c9 50 a1 3c
       -0.0035239854 -0.03939596 0.031946026 0.019691842
0003d0 40 6e c6 3d 41 3b 1e 3d 32 cb 57 bc 99 33 f9 bc
       0.09688997 0.038630728 -0.013171004 -0.030420111
0003e0 26 fb f9 bb cb 30 1f 3d 2c 11 af bd ad 84 bf 3d
       -0.007628816 0.038864892 -0.08548197 0.09351478
0003f0 96 8c 07 3d 50 c2 95 3d 23 2e 4f 3d e9 6c b8 3d
       0.033093058 0.07312453 0.05058111 0.09005148

actor.actor.4.bias f4 [128]
000000 c3 f6 f6 bc 0c 90 e3 bc 3e 86 24 3d 0f 11 b5 bd
       -0.030146962 -0.027778648 0.040167086 -0.08841144
000010 34 f6 a3 bd ec 42 07 bd 32 64 ad bd 1e f9 6a bd
       -0.08005944 -0.033022806 -0.08466376 -0.057366483
000020 f0 6f 2f bb 75 67 ad bd 13 a3 5c 3c 10 7b 58 3c
       -0.00267696 -0.084669985 0.013466614 0.013212934
000030 c6 18 f1 3c 04 e4 7e 3c 17 2f fe bc 54 55 4c bd
       0.029430758 0.015557293 -0.031028314 -0.049886063
000040 d7 35 7c bb 60 dc 2b 3d c9 83 2a 3d 00 ff 02 3d
       -0.003848424 0.041958213 0.041629586 0.03198147
000050 b3 cd 62 bd 4d 75 f3 bb b1 ae 08 bd 00 50 b3 bb
       -0.05537195 -0.007429755 -0.033369724 -0.005472183
000060 91 17 27 bc 87 98 c0 bc 81 53 4d bd 51 69 67 bc
       -0.01019849 -0.02351023 -0.050128464 -0.0141242305
000070 23 cb 82 bd 92 0e 6f 3c b4 08 97 bc d5 e9 42 3c
       -0.063864015 0.014590876 -0.018436767 0.01189657
000080 87 9f 00 bc 30 08 a5 bc e3 60 22 3d 4d 9f 37 3c
       -0.007850534 -0.020145506 0.03964318 0.011207414
000090 57 14 af 3b 07 37 b3 bd d3 9e 7c 3d 54 99 72 bd
       0.005343001 -0.0875073 0.061674904 -0.059228256
0000a0 95 6b 35 bd 06 91 12 3d 25 86 8c 3d 56 b9 62 3c
       -0.04429205 0.035782836 0.068615235 0.013838133
0000b0 18 41 a2 bc b2 85 05 bd 9a 25 c0 3c 18 38 7b bb
       -0.01980643 -0.032598205 0.02345543 -0.0038332995
0000c0 2d 4f 6a 3b cb db 42 bd 6b fd 72 ba 93 e4 44 bd
       0.003575276 -0.047572892 -0.00092693296 -0.048069548
0000d0 71 93 4b bd de 47 09 bd 43 03 1f bd 08 cc f2 3c
       -0.049701158 -0.033515804 -0.03882147 0.029638305
0000e0 c1 70 c2 3c 86 80 57 bd 30 5f ec bb be 5d c2 3b
       0.023735406 -0.052612804 -0.0072134957 0.005931585
0000f0 8d ac df bc 25 21 81 bd bb 4e 39 3d 40 56 ee bc
       -0.027303958 -0.0630515 0.0452411 -0.029093862
000100 17 62 f1 bc c6 b7 4c 3c 7e 2a ae bc 4a 24 41 bd
       -0.029465718 0.012494987 -0.021260496 -0.04715375
000110 da af 3b bd 14 04 05 be 09 14 68 3d bc a7 3b bd
       -0.045822002 -0.12989837 0.056659732 -0.04581426
000120 16 8b 74 bd c2 46 84 bc d8 7b 80 3c fe 36 7f 3d
       -0.059702955 -0.016147021 0.015684053 0.062308304
000130 0a fa ad bd e0 aa 4c 3c 4a 38 86 bc 55 25 b7 bd
       -0.08494957 0.012491912 -0.016384263 -0.089426674
000140 26 ba 11 bd 62 6d 21 bd 8a 4d bf bd 05 0d 29 bd
       -0.035577916 -0.039410956 -0.09340961 -0.041272182
000150 41 a8 73 3c 28 f9 06 3d 86 60 8f bd a4 ac a6 bd
       0.014871658 0.032952458 -0.07000832 -0.08138397
000160 9e 70 f4 3b ab a1 03 3c 14 05 ea 3b 69 b9 f1 bb
       0.007459714 0.00803415 0.0071417186 -0.007376839
000170 44 32 af 3c 34 23 35 3d d9 da cf bc 51 7a 7a bb
       0.021386273 0.044223025 -0.02537291 -0.003821988
000180 f7 c8 9d bd e8 aa 63 bc b6 ea cf bd 74 5b 06 bd
       -0.077043466 -0.013895728 -0.101521894 -0.03280206
000190 47 9e 83 bd e6 b5 ac bd 89 d4 97 bd 11 6d 01 bd
       -0.064266734 -0.08433132 -0.07413585 -0.031598154
0001a0 65 15 b6 3c df cc 6a bd 32 68 7d 3c db 1f 25 bc
       0.022226999 -0.057324287 0.015466737 -0.010078396
0001b0 94 8b 60 bd 7c b9 91 3c 9f d4 11 3d da cd 86 3c
       -0.054820612 0.017788641 0.035603162 0.01645558
0001c0 b9 52 40 bc 47 d4 6d bd 27 fe d4 bc 86 fd 8f bd
       -0.011738473 -0.05806377 -0.026000096 -0.07030778
0001d0 95 75 64 bd b1 f1 a6 3d 19 5d 9a bd fa 55 a8 3c
       -0.055776197 0.08151568 -0.07537288 0.02054881
0001e0 e6 3f e4 bd da 6a 5e bd b8 9f 8d 3d b3 cd 3f bd
       -0.11145 -0.05430112 0.069152296 -0.04682703
0001f0 ce 37 f0 bd ee 78 d1 3b 44 26 81 bc 8f b3 4c bc
       -0.11729394 0.00639259 -0.015765317 -0.012493982

actor.actor.6.weight f4 [12, 128]
000000 c7 b4 20 bd f3 93 a5 3c 3b 49 27 bd b4 4c 8a 3d
       -0.039234903 0.02021215 -0.040841322 0.06752911
000010 f9 4d 7f bd c6 13 a7 bd 05 21 c1 3d d3 22 89 3d
       -0.06233022 -0.08158068 0.09430126 0.06696095
000020 33 9f 18 3d 4d 34 e2 3c aa e2 6b 3c b7 78 b7 3d
       0.0372612 0.02761283 0.014397303 0.089585714
000030 45 13 0e bd e1 dc f2 bc ed 9c f8 bb 90 07 db 3c
       -0.034686346 -0.029646339 -0.0075870664 0.026737005
000040 92 ac 3d bd 38 b0 1b 3d 4f 59 0a 3d 7e b3 12 3b
       -0.046307154 0.038009852 0.033776578 0.0022384818
000050 a9 e9 08 ba 2c 46 50 bd f2 88 05 bd 50 49 fd bb
       -0.00052228064 -0.05084817 -0.032601304 -0.007729687
000060 ae 7b 60 3d c5 1d 10 3d fe 99 c2 bc 39 16 13 3c
       0.05480545 0.03518464 -0.02375507 0.008977466
000070 33 6c 90 3d 00 95 25 3b 35 c4 a6 bc 61 49 49 3d
       0.07051887 0.0025265813 -0.02035723 0.049142245
000080 54 57 84 bb ac 32 66 bd e7 9e 53 bd d7 3a 81 3c
       -0.0040387306 -0.05620067 -0.051665213 0.015775127
000090 f2 12 83 3d 06 0f f4 3b 12 5e 4a bd 44 9c 0a bd
       0.06400098 0.00744808 -0.04940612 -0.033840433
0000a0 1d ac 77 bb f2 cf 86 3d 7e 95 8b bd b0 0d 0e 3c
       -0.0037791796 0.06582631 -0.06815623 0.008670256
0000b0 86 ce 4b 3d bf 50 8a bd 78 00 33 bc ed 3d 9b 3c
       0.049757503 -0.06753682 -0.010925405 0.018950427
0000c0 aa 0f 03 3d bb 11 08 3e 0a e2 51 bd a6 57 18 ba
       0.03199736 0.13288014 -0.05124096 -0.00058114005
0000d0 ab 58 2b 39 30 43 84 3d 9c d8 d6 bc 7f 77 3a bc
       0.00016340862 0.064581275 -0.026226334 -0.011381029
0000e0 08 79 3c 3d ae c3 4c bc 29 1b 3f bd 8f ce 2b bd
       0.046013862 -0.012497826 -0.04665676 -0.041945037
0000f0 50 a2 5b 3c d7 19 df 3c 84 d3 31 bd 20 4e 1e 3d
       0.013405398 0.027234001 -0.043414608 0.038648725
000100 e5 4c 4d bd 65 f4 55 3d b4 c6 c0 bb 3d 7b 50 3d
       -0.05012216 0.052235026 -0.0058830623 0.05089878
000110 ea d2 ac 3c 6f 6b b1 bd d0 17 2f 3c 35 38 21 3d
       0.021096665 -0.086630695 0.01068683 0.039360244
000120 b8 77 c3 bd b9 42 20 bd c1 20 a4 bd 84 1b 3f 3b
       -0.09544319 -0.03912613 -0.0801406 0.0029160688
000130 aa 6e eb 3c 02 fb 2a bd cc b3 84 3d c7 3c c3 3c
       0.028739292 -0.041743286 0.06479606 0.023832692
000140 dd 63 57 3d 68 30 6a 3c 80 91 3f 3d 81 fe fc 3c
       0.05258547 0.0142937675 0.04676962 0.030883076
000150 45 48 14 3d 4e 30 4f 3d 4c a3 2f 3d 3b 61 8b bb
       0.036201734 0.050583176 0.04288034 -0.004253534
000160 be b1 f4 3c b1 39 3c bc ba 22 19 bc 18 56 9d 3d
       0.02986991 -0.011488364 -0.009346658 0.07682437
000170 12 5c 49 bd 72 c7 3d 3d 21 03 db bb 6f f1 23 3d
       -0.04916007 0.046332784 -0.0066837226 0.04002517
000180 27 5c 57 3d 81 f4 22 bd f0 fa 52 3d 9f 71 ac 3d
       0.052578118 -0.03978396 0.051508844 0.08420109
000190 0d a0 6a 3c 1e 34 a6 3b de 0d 10 bd 88 5c 94 bc
       0.014320386 0.005072131 -0.035169475 -0.018110529
0001a0 3a 3b 94 bd ad 99 d9 3c 67 c8 24 3d 80 59 85 3d
       -0.07237859 0.026562536 0.04023018 0.065112114
0001b0 50 b4 af 3d 19 7f 89 bd 59 e5 8e bd 37 4a ae bc
       0.08579314 -0.06713695 -0.06977338 -0.021275623
0001c0 31 26 13 bd 16 87 ae bc 2c c4 b1 3c 1e 7e 61 3d
       -0.035925094 -0.021304648 0.021699987 0.055051915
0001d0 24 0a 56 3d 60 16 d8 bc ef f9 39 3b 33 4a b5 bd
       0.052255765 -0.026377857 0.0028377732 -0.08852043
0001e0 47 0b 45 3d ae cc 59 bc 18 f6 a7 bd 5f 7f b1 bb
       0.048106458 -0.013293428 -0.082012355 -0.005416795
0001f0 a0 ff f1 bc 45 52 cb bc 7b 2b 0e bd 1e f7 5f 3d
       -0.029540837 -0.024819503 -0.034709435 0.05467903
000200 51 11 0c bc 55 c5 dc bd e0 18 d3 bc 48 a6 e6 bd
       -0.00854905 -0.107798256 -0.025768697 -0.112621844
000210 fb 14 c7 bd 09 02 81 bd 3c f3 43 bd 16 2a b1 3b
       -0.097207986 -0.06299216 -0.04783939 0.0054066284
000220 9d 89 2c bd 8d 95 a9 3c e0 82 8d bd 7c a4 37 bd
       -0.042123426 0.020701194 -0.06909728 -0.0448346
000230 5c e9 a6 bb 27 e9 51 3d ae d9 44 bd 76 10 1c be
       -0.0050937366 0.051247742 -0.048059158 -0.15240654
000240 cf 1f 2e bd 31 a8 d6 3c ee 5d 71 3d fa ff a1 3c
       -0.042510804 0.026203247 0.05892747 0.01977538
000250 56 b5 6c 3d c6 7a 35 3c 85 79 68 3d b9 83 76 bd
       0.057790123 0.011076635 0.056756515 -0.060184214
000260 3a 3f 8d bd dd 29 2a bd 04 91 82 3b 60 dc 32 bd
       -0.06896825 -0.04154383 0.0039845724 -0.043667197
000270 a8 19 29 bb 04 84 b3 bd e0 c2 20 be b2 39 b9 3d
       -0.0025802646 -0.08765414 -0.15699339 0.09044208
000280 4f ac 05 3c 0a 87 dd bd c1 fa 88 bd 30 d9 95 bd
       0.008158757 -0.10816772 -0.066884525 -0.07316816
000290 e6 8e f2 bc 43 dc 6f bd a5 c4 ec 3d 42 57 76 3c
       -0.029609155 -0.058559667 0.115609445 0.015035452
0002a0 83 4d 5e 3d 01 58 1c 3d 2c c5 39 3d 8a 4a 16 bd
       0.05427314 0.038169865 0.045354053 -0.03669218
0002b0 36 dd df bd 5a 23 8d 3c f4 d1 00 3c e4 c2 ed bc
       -0.109308645 0.017228771 0.007862557 -0.029023595
0002c0 ff 1f 93 bd 76 cc b4 3c 94 2c ae 3c 88 2a 2d bd
       -0.07183837 0.02207015 0.02126149 -0.04227689
0002d0 68 1e b3 bc f3 b2 8d 3b db 96 0c bb c0 9b e8 3c
       -0.021865085 0.004324311 -0.0021452222 0.02839458
0002e0 22 5f 90 3d d3 44 a1 3d 9a 14 7c 3c 4a b3 a3 bd
       0.07049395 0.07874455 0.015385771 -0.07993181
0002f0 92 c6 fb bd ca d6 6b 3c ac 6b c4 3b 37 2e aa 3c
       -0.12293734 0.014394471 0.005994281 0.02077399
000300 e4 35 09 bd 29 47 3f 3d 4d d1 6d 3c 6e 6c fc 3d
       -0.03349866 0.046698723 0.014515233 0.12325369
000310 ef 5f 93 bd 11 08 20 be 1e f1 ca 3d 90 ab 10 3d
       -0.07196032 -0.15628077 0.09909271 0.035319865
000320 1d 26 c4 bd 30 cc 2f bd 83 ae c0 3d 2b 2e ff 3c
       -0.09577582 -0.042919338 0.094082855 0.031149944
000330 68 a6 e7 3d 7d e3 97 3d 19 bb 2b bd e0 66 6a bc
       0.11311036 0.07416437 -0.041926477 -0.014306754
000340 c8 cc 9d bd 9c af fe 3a a5 d6 8c 3d 7c 8c cf 3d
       -0.077050745 0.0019430998 0.06876878 0.10134217
000350 de 1c 39 3d 4e f6 c7 3d 20 4d 76 bd 71 51 3f bd
       0.045193546 0.09763776 -0.060132146 -0.046708528
000360 a8 6c ab bd 10 56 d0 bd ed bb b4 bc 78 8b a0 3d
       -0.08370334 -0.10172665 -0.022062266 0.078391016
000370 80 2f f2 3d 85 b8 21 3d a6 72 ec 3c ef 27 ce 3d
       0.11825466 0.039482612 0.028863262 0.100662105
000380 3e 08 ba bd 56 d6 b0 3d d9 e3 11 be 90 3d d5 3c
       -0.09083603 0.08634631 -0.14247073 0.026030332
000390 e6 46 e1 3d 2c 16 d5 bd 0a 2e 99 bd 49 d0 27 3c
       0.10999851 -0.104046196 -0.074794844 0.01024253
0003a0 9a 45 2d bc 43 52 bf bd 6d c7 b3 bd e9 cb 08 3e
       -0.010575676 -0.09341862 -0.08778272 0.13359036
0003b0 48 56 d8 3d b4 59 4d bd 14 ce 51 3a fa d5 df bb
       0.10563332 -0.050134376 0.00080034253 -0.006830928
0003c0 5f ad c3 3d 44 72 8e bc df 28 56 3d cf 80 4f bb
       0.09554552 -0.01738847 0.05228507 -0.003166247
0003d0 b0 2a 85 bc 46 50 dd 3c 18 5b fb 3c 8d 58 8c 3d
       -0.016255707 0.027015816 0.030683085 0.06852827
0003e0 2a 07 d9 bb 12 ad 9c 3c 12 bb d2 3c c1 40 a5 bd
       -0.0066231685 0.019125495 0.025723968 -0.080689915
0003f0 c1 42 c4 3c ca 6b a8 bd f2 f7 7c bd f7 13 63 bd
       0.023957612 -0.08223684 -0.061759897 -0.05543896

actor.actor.6.bias f4 [12]
000000 72 60 57 3d d4 4d 81 bc 13 a5 47 3d 4a cb db 3c
       0.05258221 -0.015784182 0.04874141 0.026830334
000010 b3 4f 20 bd e6 f7 56 bd 25 4b 4f bb 68 68 ee 3c
       -0.039138507 -0.052482508 -0.0031630483 0.02910252
000020 83 72 6d 3d 27 ee 0f 3d a9 01 a0 bd 2c 71 59 bd
       0.057970535 0.03513923 -0.07812817 -0.053086445

onnx::Div_36 f4 [1, 53]
000000 52 3f fa 3e 07 41 80 3e 37 2c fc 3e 59 e2 37 3f
       0.48876435 0.25049612 0.49252483 0.71829754
000010 5a e2 37 3f 5a e2 37 3f 59 e2 37 3f 70 3c 37 3f
       0.7182976 0.7182976 0.71829754 0.71576595
000020 71 3c 37 3f 71 3c 37 3f 70 3c 37 3f 68 15 f6 3d
       0.715766 0.715766 0.71576595 0.12015802
000030 5c 5e 2a 3e 96 00 32 3e 9d 7c 00 3e 7c 9a 2b 3e
       0.16637558 0.17383036 0.12547536 0.1675815
000040 e9 ca 25 3e b5 8a 06 3e 0e ad 48 3e 7a 3a 2e 3e
       0.16190685 0.1313885 0.19597265 0.17014495
000050 9c 69 13 3e 9b 07 4d 3e af 6e 36 3e a3 b6 42 40
       0.14395756 0.20022433 0.1781566 3.0423973
000060 a3 13 35 40 f2 8a 55 40 e0 4c 47 40 6d 2d 39 40
       2.8293235 3.3366055 3.114067 2.8933976
000070 aa cc 52 40 5c 66 51 40 f0 b2 47 40 ba 57 54 40
       3.2937417 3.2718725 3.1202965 3.3178544
000080 d3 d4 5a 40 33 72 42 40 63 48 52 40 7d f3 a8 3f
       3.4192398 3.0382202 3.2856681 1.3199307
000090 7b 1a 10 3f f6 02 08 3f 73 48 a5 3d c0 92 f5 3d
       0.56290406 0.5312952 0.08070459 0.11990881
0000a0 36 31 a3 3d e0 90 b1 3e ed 5e ec 3e 18 97 15 3f
       0.079683706 0.34680843 0.46166173 0.58433676
0000b0 0c 76 b5 3e a8 fc e3 3e e6 7e 12 3f 67 aa b6 3e
       0.35441625 0.445287 0.5722488 0.35676882
0000c0 8c 06 e1 3e 60 02 1a 3f 5f ff be 3e d4 97 e6 3e
       0.43950307 0.60159874 0.37304208 0.4503771
0000d0 a0 60 12 3f
       0.5717869
