src/ga_quadruped/policy/low_height_r_1k.onnx (onnx, 776049 bytes, 10 tensors)

normalizer._mean f4 [1, 53]
00000000: ef20 4ebb 151a 333a de25 d03a b04d 023b
00000010: 9b4e 02bb 9b4e 02bb b04d 023b 2c05 0e3c
00000020: 2c05 0ebc 2c05 0ebc 2c05 0e3c d98b 483c
00000030: 8981 373d 121a 46be 4f8a 04bc 219c a8bd
00000040: 3441 513e 358e 2c3c b46a e13a 9526 14be
00000050: 13c1 aabc 5303 c6bc 439f 0f3e f587 05bd
00000060: 0615 143c 9cdd 15be 9af5 093d 3728 b7bb
00000070: 4528 113e ffbe d03c daad 86bc 2924 a6bd
00000080: f5d9 e3bc 5896 343c fb86 bc3d daf1 c9ba
00000090: 1bc9 a03b ae60 023c 9641 0ebd 74a8 0f3c
000000a0: 6e15 7ebf b9df 41bd c32f 603c d548 cabd
000000b0: c884 1a3d 8201 87bd 42a2 073e f09f 5e3d
000000c0: e2c6 7c3d 008b 633c e177 98bd 807c c6bd
000000d0: eaf5 45bd
-0.0031452735 0.00068321946 0.0015880426 0.001988273 -0.0019883278 -0.0019883278 0.001988273 0.008668225
-0.008668225 -0.008668225 0.008668225 0.0122403735 0.04480127 -0.19345883 -0.008089616 -0.08232904
0.2043503 0.010531952 0.0017197938 -0.14467843 -0.020844018 -0.024171507 0.14025597 -0.03260036
0.0090382155 -0.14635319 0.03368149 -0.005589511 0.14175518 0.025481699 -0.01644032 -0.08112366
-0.027813891 0.011022173 0.09205433 -0.001540716 0.004906786 0.007957621 -0.034730516 0.00876819
-0.9925145 -0.0473325 0.013683262 -0.09877173 0.037724286 -0.065920845 0.1324549 0.054351747
0.061713107 0.013888121 -0.0744474 -0.09691715 -0.048330225

actor.actor.0.weight f4 [512, 53]
00000000: 12b9 133e 04c0 d43d 6f99 53bd 2535 89bd
00000010: 635c 88bd 3858 00be 7ddd c5bd d8c3 40bd
00000020: 0f1a bb3c c961 9dbd aa4f 8b3d ab90 593d
00000030: a6a3 b93d 7211 523d 779a e8bd 92ae 32be
00000040: d85f 40bd c137 e1bd cbff 27be a45e 51b8
00000050: 5a91 01bd 1757 f9bd c77c 923d 522a 9ebd
00000060: 658b c93d 892e c63c d50b 54b9 dfbb 5cbd
00000070: 47d3 10be 5830 543d 4b99 96bd 9cba e3bd
00000080: 3cd3 543d e312 00bc b07a 34bd 5789 07be
00000090: ad55 533e 992f 8ebd c2bf 35bd de4c 8dbd
000000a0: b30d 883d 48be 7f3d 9ba0 03bd 204e cabd
000000b0: 155e 43bd e683 343d c2a2 1a3d e46d 053e
000000c0: 4dbd 9dbd fe8e 273d 5d6a f0bc c1b0 93bd
000000d0: fac4 d53b e300 853d fe46 9b3d f837 273c
000000e0: 549b 79bd 1690 09be cec4 5b3d ac7f febc
000000f0: 2605 a13b 20d8 b83c e3a0 ad3c f706 e4bd
00000100: 8f1e 2d3e 935d 45bd 3bb2 6ebc 818f fe3d
00000110: 49c3 fa3d 13df 92bd 97c2 1a3d d054 1dbe
00000120: b6fb 5ebd c8c8 843d 6117 eabd ebe9 e0bd
00000130: d53a 963d 89ad 87bd 2866 aa3d c318 b9bb
00000140: 82a5 36be 9d04 85bd cace 5dbe 46db 003e
00000150: b0ab 7c3d 7261 21be af74 8ebd 37ad 17be
00000160: 5a5f 533e 228a 4cbe 6886 e3bd d288 a9bd
00000170: 4b0b c53d 69a9 2e3d d568 b9bd c34a 943d
00000180: 36a7 3c3c 6251 be3d 23cb ddbc 8078 753d
00000190: 69b5 0cbe fc02 213e 4be6 b1bd 9d04 a4bd
000001a0: d705 e43d 7952 ddbd 2114 a0bd ae39 5fbc
000001b0: 856f bc3d f7f8 dbbd 0bff 60bd f0c2 6d3d
000001c0: 1151 9bbd a610 e2bc 1b98 c0ba 0fde 293e
000001d0: 3f54 98bc 7813 133e 1024 50bd 895c adba
000001e0: 241f c43d b209 5b3d 4c74 5fbd 6db8 efbc
000001f0: d7ef a53d 18c4 bfbd b87f abbd a1c3 e73d
00000200: 3394 c8bd 051b 33bc 36d1 7cbd b5e1 2abe
00000210: 44f0 45be a49a edbd c029 7bbd be33 0f3e
00000220: c928 cebd afe9 853c 0a22 47be 56da c1bd
00000230: 669c 6e3d a98d 4ebd 1669 59be 9407 0abe
00000240: 5695 943d 1d7a 21be 2184 6b3c c7c8 22bd
00000250: fa93 85bd 02a6 803d 85ec 1dbe 9b07 1dbe
00000260: 40c4 adbc 2845 7bbd 571d 553b 752b 463d
00000270: a096 113d ef13 2d3d a17b a23d b6f3 03be
00000280: 3ec4 f6bd cf39 69be 1a7f d83d e477 76bd
00000290: 3aa1 673d 035d 043e e2ec 373d 79be 383d
000002a0: 362c ddbc 0fa3 cfbd fa9f c8bc d13e 6abd
000002b0: 5c2d aa3d 36dd 9fbc 9225 a4bc b0ab 8fbd
000002c0: 7393 673e 9ed1 20bd ce13 0e3e fcc2 f53b
000002d0: 6ee4 2cbe 5fe5 f53c 059f 693d 594d 523e
000002e0: 7485 db3d 7aa0 e93c 9dd7 333e 5752 3bbd
000002f0: 4a77 dbbc 88e2 3fbe 5571 383e ac92 7ebd
00000300: 86d2 2f3d ba4d 8dbc 17cd 913d 84dd 183e
00000310: 1c01 f53d e0f9 fd3d 298a 76bd aad6 9fbc
00000320: a1ff 02bd ce25 f1bd d327 9ebd d1ae ee3d
00000330: a35b a1bc e205 b63d 1da8 3f3d 4576 efbd
00000340: e022 9bbb f250 c83a 0152 31bd 1f4d 993b
00000350: 3eea c13c ae5e 573c 9a75 a2bd a35f 9b3c
00000360: 646e cb3d 456f a8bc 9b98 d73d 74ed 013e
00000370: 496f dfbc b000 a33c 28c9 52bd cb22 733d
00000380: 28ac 153c 7e5f 32be 9b46 83bd 2091 163d
00000390: 7a6b ce3d de03 d43d cd31 24be f051 ccbd
000003a0: 2e5e e43b c79e 073e 4561 f43d 8870 9bbb
000003b0: 198f 12bd 7a99 bbbd a3c3 3bbd d5cd 533d
000003c0: 0e99 55bd ecc8 a73d 83c2 ba3c 44f7 fe3d
000003d0: fcf0 1fbe 4d78 a63d 18b9 8ebb 4f72 223d
000003e0: b5ef 50be c4b7 47be 6904 193e 1f8a 2a3d
000003f0: 72f2 ef3d a639 7e3d c6b9 423d eaa4 66bd
0.14426067 0.103881866 -0.051659998 -0.0669959 -0.06658246 -0.12533653 -0.09661386 -0.04706177
0.022839574 -0.07684667 0.06802304 0.05311648 0.090644166 0.05128617 -0.11357587 -0.17449406
-0.046966404 -0.10996962 -0.16406171 -4.9917624e-05 -0.03163276 -0.12174814 0.07152706 -0.07722916
0.098410405 0.024192112 -0.00020222303 -0.053890105 -0.14143096 0.051803917 -0.07353457 -0.11119577
0.05195926 -0.007817003 -0.044062316 -0.13235985 0.20638151 -0.06942672 -0.044372328 -0.06899427
0.06643238 0.062437326 -0.032135587 -0.098781824 -0.047697145 0.0440711 0.037752874 0.13030201
-0.07702122 0.040907852 -0.029347593 -0.072114475 0.0065237256 0.0649431 0.075819 0.010206215
-0.060939148 -0.1343387 0.053654484 -0.031066738 0.004913944 0.022563994 0.02119488 -0.11134141
0.16906188 -0.048184942 -0.014568861 0.12429715 0.12244279 -0.07171454 0.03778323 -0.15364385
-0.05443927 0.064836085 -0.114302404 -0.10982116 0.0733544 -0.06624896 0.08320266 -0.005648704
-0.17836574 -0.064950205 -0.21660915 0.12583646 0.06168717 -0.15759829 -0.069558494 -0.1481217
0.20641842 -0.19974568 -0.1110962 -0.082780495 0.096212946 0.04264203 -0.09053198 0.07240822
0.011514476 0.09292866 -0.027074402 0.05992937 -0.13741077 0.15723795 -0.08686503 -0.080086924
0.11133926 -0.10806746 -0.07816339 -0.013624592 0.09200958 -0.10740846 -0.054930728 0.058047235
-0.075838216 -0.02759583 -0.0014693768 0.16588615 -0.01859486 0.14362895 -0.050815642 -0.001322643
0.09576252 0.053476043 -0.05455427 -0.029262746 0.081023864 -0.09363574 -0.0837397 0.1131661
-0.09793892 -0.010931735 -0.061722957 -0.16687663 -0.19329935 -0.11601761 -0.061319113 0.13984582
-0.10066373 0.01634678 -0.19446579 -0.094654724 0.058254622 -0.050428066 -0.21231493 -0.13479453
0.07255046 -0.15769239 0.014374764 -0.039742257 -0.06522365 0.062816635 -0.15422256 -0.15334933
-0.021211743 -0.06134525 0.0032518709 0.048381288 0.035544038 0.04225534 0.079337366 -0.12885937
-0.12049149 -0.22775958 0.10571118 -0.06017293 0.056550242 0.12926106 0.044903643 0.045103524
-0.02699862 -0.10138523 -0.024490345 -0.057188813 0.08309433 -0.019514661 -0.020037446 -0.07015169
0.22614841 -0.039262407 0.13874742 0.0075000506 -0.16884014 0.0300166 0.05703642 0.20537318
0.107188135 0.028518904 0.17562719 -0.045732822 -0.02679028 -0.18738759 0.18011983 -0.062151596
0.04292538 -0.017248977 0.07119196 0.14928252 0.11963102 0.124011755 -0.060190354 -0.01951154
-0.031982068 -0.11774789 -0.077224396 0.11654437 -0.019697016 0.08887841 0.046791185 -0.1169248
-0.004734382 0.0015282913 -0.043291096 0.004678383 0.023671266 0.013145132 -0.07932587 0.018966502
0.09933165 -0.02056087 0.10527154 0.12688237 -0.027274745 0.019897789 -0.05146137 0.059359353
0.0091352835 -0.1741924 -0.06409951 0.036759496 0.10079093 0.103523 -0.16034622 -0.09976566
0.006969235 0.13244162 0.11932615 -0.0047436394 -0.035781 -0.09160133 -0.04584087 0.05170997
-0.052147917 0.0819262 0.022797829 0.12449506 -0.15619272 0.08128414 -0.004355561 0.039659794
-0.20403941 -0.19503695 0.14943089 0.04163563 0.11716165 0.062066697 0.04754045 -0.056309618

actor.actor.0.bias f4 [512]
00000000: afcc 8d3d d559 a03d 4f2d ad3d d876 5d3d
00000010: 8929 b1bd 1513 f8bd b23a a73d bde3 b83d
00000020: a725 593d 81bd ee3d 92e0 9c3d 47fa b83d
00000030: 7f52 30bd 87a2 8cbc 95e7 62bd cde3 2ebe
00000040: 582d cfbd 7136 6d3c b163 da3d 0e18 24bd
00000050: 9ac9 43bd de93 b9bd 355c 5ebd ea18 cb3d
00000060: 596f e3bc 6318 183e d16a 9fbd 0236 61bc
00000070: 78de f2bd 3d86 983b b4ec 9cbc b329 26bd
00000080: 5aec c3bd b12e 6d3d d8b4 10be ff51 d13c
00000090: aafe abbc 9bb1 973d 705e 9f3d 84f3 463d
000000a0: 313e 973d 6fc6 02be 8019 19bc 21af 83bd
000000b0: 020c 403d 95b8 ce3d 13c3 08be 22ba b1bd
000000c0: 2c38 e5bd 8245 e93c 457a 543c 1632 30bd
000000d0: 3326 f5bd d7b9 953d bb08 553c 13dc 97bd
000000e0: b373 ed3d b006 ebbd 5edf 9abc 63b5 8a3d
000000f0: 74ed 893c 0828 553d d448 89bd 74ef bdbd
00000100: 000d 8d3d 83b2 83bd e725 8fbd fa3a e5bd
00000110: 6a32 c53d 9255 17be f3f3 be3d d5db 893d
00000120: 2165 c3bd aeff ca3b 0321 ae3d 3001 88bc
00000130: f515 12bd d241 803d 85bb 1a3e f612 bbbd
00000140: 2aac dbbc 5aeb f43b 3dfe 6b3c 19b8 643d
00000150: 03e7 1abd 7b93 d4bd fc02 2fbe 820a 6f3d
00000160: d192 f3bd 4185 333d 5930 6bbd 06d5 a7bd
00000170: 4ff2 afbd 0363 e33d 0d9c d1bc 01a0 203e
00000180: ecf7 0a3e f3fe c8bc 304b af3d 9327 ff3d
00000190: 79d1 2fbd 71fc 47bd afa5 ce3c c33e f93d
000001a0: 2b7d 16bd fed4 33bd eb66 593d 0adb c33d
000001b0: 0478 cd3d 31cd b53d 70e5 89bd 7a74 dc3d
000001c0: b337 9fbd 940b eabd 1ffb ca3d 3a10 933d
000001d0: d549 48bc 2ad1 23bd 29a7 efbd 07b7 103e
000001e0: c5b5 37bd 7d33 393d 63bf c93d 5ef4 90bd
000001f0: cbf2 8abd e302 edbd bf8d dc3d af38 183e
00000200: 9134 ff3c 8032 123e 4d11 363d 6f8f 4cbd
00000210: 46ef c7bd 03d6 60bd 1c18 d3bc 5b6d 023c
00000220: 1c3e 87bb 43df 95bd 06a0 7b3d 5d53 153e
00000230: b3e3 c63d b1a9 c3bd 7d83 003e 5b4c 793d
00000240: bb3b 7abc b682 893d c2e4 013e 7912 a5bd
00000250: 9d6c cebd 9661 cabc e590 ae3d 3525 a6bd
00000260: cb58 9cbd f384 2f3c 4bf6 f9bc ee85 a53c
00000270: f8b2 c8bd 3576 9dbd 98a2 c83d 2e31 9dbd
00000280: 17de 1c3d dd41 0cbe c829 8cbd b99a 40bc
00000290: e56e b23d 8957 df3d 01e7 853c 963e c0bd
000002a0: f02f 033e 9b2e 0c3c 9568 e93d afd5 c73c
000002b0: c651 ff3d 185e 43bd 6566 ea3d f954 12bd
000002c0: 05a2 0a3e a336 4ebd 41de e93d a435 2c3d
000002d0: 15c3 99bc 827c 90bc 3e8e a2bd 1fda 213e
000002e0: 5516 0dbe dc2f 0abd 28fe 653b 2346 43bd
000002f0: 8303 40bc 3537 d93c 8849 743d f10c 643d
00000300: d753 bf3b 4d26 333d 002c ff3b 2df3 153e
00000310: 9056 0cbd 173c 1ab9 8db4 233d f0ce fd3d
00000320: fe3a af3d f135 3ebd a272 9fbd 8092 953d
00000330: a40f 993c 6945 72bd f443 f93d b1b1 12bc
00000340: 6e3f 613d f23e f23d 17e7 dabd 9800 00be
00000350: 955a 1fbd 652e 3bbd 1048 81bd 93d2 b03d
00000360: dfe9 d13a 3bcb dabd b0fb 16be 666b 19be
00000370: 5e20 b33d 6feb fa3d 33af 60bd ff05 803d
00000380: 7565 9d3d 8114 a2bd ce6e ec3d dddf ed3d
00000390: 0ebd 903d 8b02 4a3c 83f2 1fbd a379 02be
000003a0: 9cf0 f73d 73b8 2a3d 3380 043e bd6b 6fbd
000003b0: 8224 a33d 735a a1bd e41a 9dbd 1c4c 943d
000003c0: 8c14 073e b8e5 f53d b2d7 a1bd 9bef b63d
000003d0: 7cf3 a53c c0f3 30bd 4fd2 9cbd f542 903d
000003e0: ee7d 033e 631c 153d 8314 97bd de35 09bc
000003f0: afde fb3d 1deb 40be 2751 e4bd b5f4 f13c
0.06923806 0.07829634 0.084559076 0.054068416 -0.086505 -0.121130146 0.08165492 0.09027813
0.053014424 0.11657239 0.07660021 0.090321116 -0.043047424 -0.017167343 -0.055396635 -0.17079087
-0.101160705 0.014478312 0.10663546 -0.040062003 -0.047799684 -0.090614066 -0.054287154 0.09916861
-0.027763056 0.14853053 -0.077840455 -0.013745787 -0.11858839 0.0046546743 -0.019155838 -0.04056711
-0.09566565 0.057905857 -0.14131486 0.025551794 -0.020995457 0.074069224 0.077816844 0.04857208
0.07384909 -0.12771009 -0.009344459 -0.064298876 0.04688645 0.100938 -0.13355665 -0.0867808
-0.111923546 0.028475527 0.012968604 -0.043016516 -0.119701765 0.07310837 0.01300257 -0.07415023
0.115943335 -0.11475885 -0.018905338 0.06772878 0.01683686 0.05204013 -0.06703344 -0.09274188
0.06887245 -0.06430533 -0.06989651 -0.111928895 0.09628756 -0.14778736 0.09323873 0.06731383
-0.09540773 0.00619503 0.0850239 -0.016602129 -0.03566547 0.06262554 0.15110596 -0.09134476
-0.026815493 0.007474345 0.014403877 0.05583963 -0.037817966 -0.10379692 -0.17090982 0.05835963
-0.118932374 0.043828253 -0.057419155 -0.08194928 -0.085911386 0.11102869 -0.025587106 0.15686037
0.13571137 -0.024535632 0.08559263 0.1245872 -0.042924378 -0.04882473 0.025225488 0.12170174
-0.036740463 -0.043904297 0.053076666 0.09563263 0.10032657 0.08877028 -0.06733215 0.10764404
-0.07774296 -0.114279896 0.09911179 0.07180829 -0.012224634 -0.039994396 -0.11701805 0.1413232
-0.044851083 0.04521512 0.09850957 -0.07077859 -0.0678459 -0.11572816 0.107692234 0.14865373
0.031152995 0.14277077 0.044450093 -0.049941476 -0.09762435 -0.054891597 -0.025768332 0.007960643
-0.004127277 -0.073179744 0.061431907 0.14582582 0.09711399 -0.095538504 0.12550159 0.060863834
-0.01527303 0.06714384 0.1268492 -0.08060164 -0.1007931 -0.024704736 0.0852373 -0.081125654
-0.076341234 0.01071285 -0.03051295 0.020205464 -0.097997606 -0.07688562 0.09796637 -0.07675396
0.03829774 -0.13697 -0.06843907 -0.011755639 0.08712558 0.10905368 0.016345503 -0.09386937
0.12811255 0.0085560335 0.113969006 0.024393884 0.12466769 -0.047697157 0.114453115 -0.035725567
0.13538368 -0.050345074 0.11419345 0.042043343 -0.01876978 -0.017637495 -0.07937287 0.15805863
-0.1377805 -0.03373705 0.0035094116 -0.04767431 -0.011719587 0.026515583 0.059640437 0.055676404
0.005838852 0.0437377 0.0077872276 0.14643545 -0.03426224 -0.0001470897 0.03996711 0.12392986
0.08556174 -0.04643816 -0.07785536 0.07303333 0.018684216 -0.059148226 0.12171164 -0.008953498
0.054992132 0.11828412 -0.10688608 -0.12500226 -0.038904745 -0.045698542 -0.06312573 0.08633914
0.0016015134 -0.106832944 -0.14744449 -0.14982376 0.08746408 0.12251937 -0.054854583 0.06251144
0.07685367 -0.07914067 0.11544572 0.11614964 0.07067309 0.012329708 -0.039049637 -0.12741713
0.121064395 0.04167981 0.12939529 -0.058452357 0.07965948 -0.0787858 -0.076711446 0.07241079
0.13191432 0.12006706 -0.07902469 0.0893242 0.020257704 -0.043201208 -0.07657301 0.07044021
0.12841007 0.036404025 -0.07376959 -0.008374659 0.12298333 -0.18839689 -0.11148291 0.02953563

actor.actor.2.weight f4 [256, 512]
00000000: 9a5e a8bb 806e 5c3d 89aa 8bbc d53c 7d3d
00000010: 364d 873d 21e2 393d 5db8 5b3d 80c2 9538
00000020: 99a7 3abc 9bd9 cabc e944 a9bd e15d b1bc
00000030: 04b9 d5bc 6343 a13b 12e9 2ebd 8b46 8f3c
00000040: b3e8 69bd 9903 943d 6c74 0f3d 6a14 99bc
00000050: 142d ae3c b329 483c f16f 78bd adfd 39bd
00000060: 8f5b 77bd f2b7 1ebd ac4b 7b3d 2d91 5f3d
00000070: ae2d 6dbc 1eec adbd f22c 02ba 9b2c efbb
00000080: 7b69 f33c f40b a2bc 1179 d03a 8a90 d9bc
00000090: 8071 44bd 79ee afbc 51ad 5dbb 4dec 92bc
000000a0: ee4c f93a de8d 19bd e530 5abd 7d69 f43c
000000b0: 264a d8bc 9d83 90bb 309a 5d3d 49df f0bc
000000c0: e3da 8c3d 0cd8 443d 7c3a 0a3d 43f1 23bd
000000d0: a32c 14bd 1694 94bc 0e48 273d 9aa6 203b
000000e0: 3dcc 6bbd 5953 b03c 6b44 4d3d 50d2 a63b
000000f0: b445 133c 4782 5cbd ba8a 18bd 2e8d 5d3d
00000100: 026b a6bd 525f 0d3d 8633 3bbd 0a3c a7bd
00000110: ac39 48bc 08f7 de3b 777d 413c d472 8d3d
00000120: 0d81 513d 73c7 a4bd e7e8 d8bb a8ec b5ba
00000130: e55e e6bc 2cf1 2fbc aea6 02bd 2ac2 38bd
00000140: 6985 9cbb 4a0f 2cbc bf58 39bc 3f5f 693b
00000150: 24b1 8dbc 6e44 8b3c 837b aa3b f8d0 2dbd
00000160: 0ab2 adbc ed46 1b3a f78a 70bc e49c 67bd
00000170: 9adf 843d 7219 1dbd 01c9 0dbd 8603 e33c
00000180: 7f5e f8bb 1d6d 623b 731b 34bd f4bb ad3c
00000190: 4560 4dbc 12db 4abc 27c3 9b3c 1be9 85bd
000001a0: 7d0b a3bd 4716 613d 3d21 413d b402 94bd
000001b0: 8153 eebc 924f 62bc f585 ffbc 2243 4abd
000001c0: 018a bc3b 8eee 683d 4cde 183c 7b54 133c
000001d0: 3b2b fcbb 2920 473d d378 7a3d 4910 80bd
000001e0: d0c0 25bc e03e b9bd 0a32 40bd 5783 8f3d
000001f0: edc0 893c 26de 8b3d 42d2 92bd 4332 a2bb
00000200: 846b e13c 84cf 9bbd 3f98 0c3d 52ee ce3b
00000210: 7338 94bc d31a d53c b6d9 363c f4ce 37bc
00000220: 368e 57bd 0113 eb3c 43e4 eb3c b4d5 dabc
00000230: 48c3 5abd f437 d93c da66 aebc 178f 63bc
00000240: 7adc dfba 5c09 7ebd 3b1a d9bc ee0d b53d
00000250: 541f 8dbc 608a 94bd b309 27bd f36a acbd
00000260: 86ff eebc 392d 763c 29d5 bbbd 0489 80bc
00000270: fd6a 35bd e892 b13c 87bc 93bc 2b14 d6bd
00000280: 6537 f6bb 6672 a73c e420 e73a f907 c13c
00000290: c838 f0bc 3081 ee3c f247 21bc 8dfb a13b
000002a0: 3fa6 ab3b 9ed3 923b 813d 93bc 7abf 12bd
000002b0: 6e2c 303c 5274 2dbd 3a29 36ba 0fdd 553c
000002c0: 8e44 fc3a ee15 033d bbe3 843c 3a46 4bbd
000002d0: 4bce e1bb cec9 bcbd 743e 84bc e8a6 cdbc
000002e0: c1de 0abc 1598 91bc 76ab 25bd 0ad2 a33c
000002f0: 184e b53d 3649 bebd 19a2 b53c 0766 a4bb
00000300: 4c36 23bc aea9 83bc b890 c3bc 5c35 4bbd
00000310: 85e8 e13c c1a6 fa3c 9df3 243d aa20 80bd
00000320: cec9 34bd 0c47 be3d b09f b43d 7200 3fbd
00000330: ac04 813c eeae 693c d854 38bd f9dc 283d
00000340: fcd0 34bd 2766 42bc ebbb 9839 68f5 b8bd
00000350: e8dd 23bd 4c15 233d f2c4 ce3c 88c1 3aba
00000360: 9b14 003d 22c5 15bc b730 8d3c 3cae 02bd
00000370: 7fb5 05bd 3875 dabb ee73 963d 7c3e dd3c
00000380: 2b24 fc3c 2618 55bc 99a7 0d3d 909e 3f3b
00000390: fc9a 5bbd a360 b4bd d267 94bd eb96 12bd
000003a0: 4d86 97bd 0c95 5d3d 8918 d8bd 6858 c73d
000003b0: 92b1 5f3c 51cf 1f3b 3126 893c 4744 bf3c
000003c0: 2425 73bc 15ef 0e3d 89f4 fb3c dedb cabc
000003d0: a5bb 9ebc 8614 88bb ce38 db3c dfcb b73c
000003e0: 4278 833c 12db 253d 8047 bdbc 8808 eabc
000003f0: 01b4 32bb 0eba 6d3d d27f a2bc cad4 053d
-0.0051382305 0.05381632 -0.017049091 0.061825592 0.06606524 0.04538167 0.05364262 7.141102e-05
-0.011392497 -0.024761965 -0.08265097 -0.02165121 -0.026089199 0.004921363 -0.042702742 0.017489692
-0.057106685 0.07227249 0.035023138 -0.018686492 0.02126173 0.012216973 -0.06065363 -0.04540794
-0.06039005 -0.038749643 0.061351463 0.05458181 -0.014476223 -0.084923014 -0.0004965804 -0.0072990186
0.029713383 -0.01978109 0.0015905221 -0.02655818 -0.047959805 -0.021476017 -0.0033825228 -0.017934943
0.0019020119 -0.03748881 -0.053269286 0.029835457 -0.026402544 -0.004410221 0.054102123 -0.029403346
0.06877687 0.0480576 0.03374718 -0.040025007 -0.03617538 -0.01813702 0.0408402 0.0024513365
-0.057567824 0.021524118 0.050114077 0.005090989 0.0089887865 -0.05383518 -0.037241675 0.054089718
-0.08125879 0.034514733 -0.045703433 -0.081657484 -0.012220781 0.0068043508 0.011809698 0.06906667
0.051148463 -0.080458544 -0.006619561 -0.0013879733 -0.028121421 -0.010738652 -0.03189724 -0.045107044
-0.004776646 -0.010501692 -0.011312663 0.003560975 -0.017296381 0.017000403 0.005202712 -0.042435616
-0.02120306 0.00059233495 -0.014681569 -0.056546107 0.06487961 -0.038354345 -0.03461552 0.027711641
-0.007579624 0.00345499 -0.04397149 0.021207787 -0.0125351595 -0.012381332 0.019013954 -0.06538602
-0.079611756 0.054952886 0.04715084 -0.07227078 -0.029092552 -0.013812916 -0.031191805 -0.04938043
0.005753756 0.05686813 0.009330343 0.00899231 -0.007695583 0.048614655 0.061150383 -0.06253106
-0.010116771 -0.090451956 -0.04692272 0.07007473 0.016815627 0.06829481 -0.0716901 -0.0049498393
0.027517088 -0.0760794 0.03432488 0.006315031 -0.018093323 0.026013767 0.011160305 -0.011218775
-0.052625857 0.028695585 0.028795367 -0.02671323 -0.05340889 0.026515938 -0.021289278 -0.013889096
-0.0017079257 -0.062020645 -0.026501765 0.088405475 -0.017226852 -0.072529554 -0.040780734 -0.084188364
-0.029174577 0.01502543 -0.091715164 -0.015690334 -0.044291485 0.021676496 -0.018034233 -0.104530655
-0.0075139278 0.020440292 0.0017633704 0.023563372 -0.02932395 0.029114336 -0.009843813 0.0049433173
0.005238324 0.004480793 -0.017973663 -0.035827138 0.01075278 -0.04234726 -0.0006948892 0.013053193
0.0019246505 0.032003336 0.016221872 -0.04962752 -0.006891047 -0.09218179 -0.016143061 -0.025104001
-0.00847596 -0.017772714 -0.04044672 0.019997615 0.08852786 -0.09291308 0.02217202 -0.0050170454
-0.009961676 -0.01607212 -0.023872718 -0.049611434 0.027576694 0.030597093 0.04027139 -0.0625623
-0.04413777 0.09290895 0.088195205 -0.046631284 0.015749298 0.014262898 -0.04500279 0.04122636
-0.044144616 -0.011865175 0.0002913171 -0.090311825 -0.04000655 0.039815232 0.025240395 -0.00071241753
0.03126965 -0.009141238 0.017235143 -0.031904444 -0.03264379 -0.0066668056 0.073463306 0.027007334
0.030778965 -0.013006246 0.03458366 0.0029238798 -0.0536146 -0.088074945 -0.07246365 -0.035788458
-0.07398663 0.05409722 -0.10551555 0.09733659 0.013653176 0.0024385045 0.016741844 0.023347987
-0.014840398 0.034895975 0.030756252 -0.024763044 -0.019376585 -0.004152837 0.026760485 0.02243608
0.016048554 0.040492125 -0.023105383 -0.028568521 -0.0027267935 0.058038764 -0.01983634 0.032673635

actor.actor.2.bias f4 [256]
00000000: dcbb adbd 70c9 38bd 3aad a8bd 9c6f 503c
00000010: ef82 4bbb 4fec 6b3d e5ab 123b 1072 3abd
00000020: 64c4 59bd af27 08bd ff6c ff3a 7ddb 41bd
00000030: 01e8 c8bc 4321 8cbc 0fcd 0abd 8b03 2c3d
00000040: 0046 663c a5ca b2bc a268 ebbc 1e83 073c
00000050: 46d6 913b bb27 8fbd 46c4 263d f2a0 5a3c
00000060: c62a 043d 0061 6c3b 727b 84bc e998 56bd
00000070: 054f d63b 7959 0039 6893 8abd 1bd9 1a3d
00000080: 2d4b 80bd 3cea 723d 4a6d 03bd 69d5 bdbc
00000090: 09bd 043d 3a3e 363b 9e2e 83bd da90 cfbc
000000a0: 890e 363d 1d2d 98bd 3f43 b03b 9b32 fa3c
000000b0: e67b 433d fd6d 11bd ef05 9a3d 2f01 5bbc
000000c0: 76bd 5ebc 53d9 8abd cb61 6ebb 169a 9ebc
000000d0: 1de5 31bc e1fe 13bd 3609 4bbc 093c 8b3c
000000e0: bc51 9f3b 51c3 28bd a9a3 b1bc 73af 3a3d
000000f0: d701 c3bd a92f 523d 16dc 49bd 26f1 babc
00000100: 1b42 b63c fbf5 86bd a70b 3dbd ec41 91bd
00000110: 328f a73c 6da7 4bbd 1f48 b1bd 1003 11bd
00000120: c691 3abd 2b95 eebc 8d66 093d 350d 6cbc
00000130: dede 35bd 940c 1abd f2e5 673b 7aaf 86bd
00000140: 1870 61bd b222 47bd f68d 55bd 4ed2 1dbd
00000150: 5854 a6bd c22f c1bc 48e6 393d 908f d7bc
00000160: 253a 78bd 6117 c6bc d11a b8bd 4115 b6bb
00000170: 3c1d c2bc a60e 1d3d 80b7 893c 081d bd3c
00000180: b340 94bd 9b3e 4dbd dad5 72bd 1c9d 30bd
00000190: 0acf bbbd 4113 00bd cf36 823c bc7b 50bd
000001a0: 9923 ddbb 5c2e 2bbd a47d d2ba e67f b8bc
000001b0: fdd6 89bd e764 3fbc 0a38 7bbd 8089 e63c
000001c0: 3209 3abc 5381 debc 70bb cb3b 93f5 0d3c
000001d0: 5fa9 9ebc 8203 3dbd 491b 67bc db13 963c
000001e0: d8c5 16bd c209 9bbc 3cfc 8cbb 301b 42bd
000001f0: 808d 353c 9abc 4dbd 4afc fb3a ae26 70bd
00000200: 3731 a03c 3a2a e3bc 3d19 a8bd d33e eb3c
00000210: 7446 9e3c 77c0 88bc 5353 2b3d 6293 663c
00000220: 1fa2 dabc 7f72 abbb 214f 213d e2b2 2ebd
00000230: a86f 31bd 8a70 c2bb a0dd 27bd e88f 39bd
00000240: 721d afbc 4820 21bd ce58 65bd c464 a43c
00000250: 7b58 e2bc f88c 623b b1d7 56bc af95 aebd
00000260: edab 813c 67af 21bd 5412 69bd 2ad1 f6bc
00000270: f1f0 303c cfe1 36bd ebcc ba3b 73b7 1dbb
00000280: f516 90bd c8c2 95bc 4d65 b1bc 1c30 0bbd
00000290: 0f02 0bbc 507f 173d 34de a53a 78af 263c
000002a0: 0410 80bd 4bf4 a53c 6663 5abc 6406 bcbb
000002b0: 803d 663c 9ebe 7a3c c96e be3c 0bd6 3b3d
000002c0: 7d6e e4bc 7251 a53c 5a89 1a3d 5a36 15bd
000002d0: 7a52 aa3c 7182 12bd f1e8 4a3c 102d 59bc
000002e0: 9750 c7bc 4376 f5bc f84d abbd f7de 4cbd
000002f0: 2052 e23c c7f2 6ebd 69f2 a03c 2f30 04bd
00000300: 09fc bbbc 4a16 9fbd a977 0ebd 50e7 b7bc
00000310: c78d 25bb 7fad 2bbd 33b1 4bbd e276 873d
00000320: 8a5b 1abd 2573 42bd 9346 97bc a074 b1bd
00000330: c968 7cbc 8273 d73b 2b40 6dbc 8e76 f83b
00000340: f4c5 083b 4b15 9abc bb24 c4bc 9e8e bebc
00000350: 208d b8bc cbd1 1bbd cd82 013c d99c 15bd
00000360: c9bd 0c3b 6098 0d3d da9c 07bd 1fe9 c5bb
00000370: 923d 303d f091 0a3d 98d8 0dbd 0245 383d
00000380: 6cb3 3e3c 53d1 dbbc b588 933c 9908 60bc
00000390: 906a af3c f4e2 313c c154 3cbc 773f fc3b
000003a0: a59c ba3c 7971 bf3c 6f44 133c ab34 83bc
000003b0: 7e19 61bc 4f6f 3c3d d1d0 0abd f0cd 14bd
000003c0: e3ce 62bc 78b4 6bbd f490 5fbd 0d53 70bd
000003d0: 9e6f b8bc 18c7 483d 4fd2 83bd d286 8d3c
000003e0: 9d65 b3bc 26da 89bb 589f 23bc 360e 7ebd
000003f0: 3686 68bd 6702 2abc f2a0 cc3c da69 a7bc
-0.08483097 -0.04511398 -0.08236165 0.012721922 -0.0031053384 0.05759841 0.002238029 -0.045518935
-0.05316581 -0.03324097 0.001948744 -0.04732846 -0.02452469 -0.017105704 -0.033886965 0.041995566
0.014054775 -0.021825144 -0.028736416 0.008271007 0.004450592 -0.0699 0.040714525 0.013344036
0.032267354 0.0036068559 -0.016172145 -0.05239192 0.0065401816 0.00012240362 -0.06766397 0.037804704
-0.06264339 0.059305415 -0.032086648 -0.023173051 0.03240684 0.0027808086 -0.06405376 -0.025337625
0.044447456 -0.0743048 0.00537911 0.030541709 0.04772558 -0.035505284 0.07520663 -0.013366981
-0.013594976 -0.067797326 -0.0036374207 -0.019360583 -0.0108578475 -0.036131743 -0.012392333 0.0169964
0.0048620384 -0.041201893 -0.021684485 0.045577478 -0.09521835 0.051314984 -0.049282156 -0.022820067
0.022248318 -0.06589886 -0.04615369 -0.07092652 0.020454023 -0.049720217 -0.08656334 -0.03540331
-0.045549177 -0.029123863 0.033545066 -0.014407446 -0.044401996 -0.03760965 0.003538486 -0.06576438
-0.05503854 -0.048617072 -0.052137338 -0.03853064 -0.08121556 -0.023582343 0.04538563 -0.026313573
-0.060602326 -0.02418107 -0.0898949 -0.005556733 -0.02369558 0.038344048 0.016811132 0.023085132
-0.07238903 -0.050108533 -0.059285976 -0.04311858 -0.09170349 -0.031268362 0.015895275 -0.050899252
-0.0067486283 -0.04179226 -0.0016059172 -0.022521924 -0.06730459 -0.011681772 -0.06133274 0.028141737
-0.011354731 -0.027161276 0.0062174127 0.0086645065 -0.019367872 -0.046145923 -0.014105626 0.018320015
-0.036809772 -0.018925551 -0.0043025296 -0.04738921 0.0110810995 -0.050228693 0.0019224968 -0.058630638
0.019554717 -0.027730096 -0.08207939 0.02871648 0.019320704 -0.016693337 0.04182751 0.014073225
-0.026688633 -0.005232155 0.039382104 -0.042651065 -0.043319374 -0.005933826 -0.040982842 -0.045303255
-0.021376345 -0.039337426 -0.055992894 0.02006758 -0.027630081 0.0034568887 -0.013112948 -0.08524644
0.01582905 -0.039473917 -0.056902245 -0.030129034 0.010799632 -0.04464894 0.0057006977 -0.0024065643
-0.07035629 -0.018281356 -0.02165475 -0.033981428 -0.0084843775 0.03698665 0.0012654723 0.010173671
-0.06253055 0.02025809 -0.0133293625 -0.0057380665 0.014052749 0.015304236 0.023246186 0.045858424
-0.027884716 0.020180438 0.037728645 -0.036428787 0.020791281 -0.03576893 0.012384639 -0.013255373
-0.02433042 -0.029963618 -0.08364481 -0.050017323 0.02762705 -0.058337 0.01964684 -0.032272514
-0.022947328 -0.07767923 -0.034782086 -0.022449166 -0.0025261508 -0.041913506 -0.049729537 0.06614472
-0.037684955 -0.04747309 -0.01846627 -0.086648226 -0.015405842 0.006575049 -0.014480631 0.007582492
0.0020869942 -0.018808981 -0.023943296 -0.023261365 -0.022528231 -0.03804187 0.0079047205 -0.036526535
0.0021475425 0.034569144 -0.03310857 -0.006039753 0.043027468 0.033830583 -0.034630388 0.044987686
0.011639457 -0.026833212 0.018009523 -0.013673925 0.021413118 0.0108573325 -0.011494816 0.0076979953
0.022779772 0.023369538 0.008988484 -0.016016325 -0.013738988 0.04600459 -0.03389055 -0.03632921
-0.013843271 -0.057545155 -0.054581597 -0.058672953 -0.02251416 0.049017996 -0.064365976 0.017276201
-0.021899039 -0.0042069135 -0.009986721 -0.06202527 -0.05676862 -0.010376549 0.024979088 -0.020436216

actor.actor.4.weight f4 [128, 256]
00000000: 63ae 943d 3b59 4d3d 6d4d 833c b788 e73a
00000010: 4551 13bd dada 0cbd b669 e0bd 6e88 b53c
00000020: f624 6fbd 212f 8f3d 6273 c63c c8ce 18bc
00000030: fa99 84bd fb7c 003d f1c4 9f3d dce3 0e3d
00000040: afb9 6cbd 85f3 b03c f1c6 32bb adb7 2cbc
00000050: ccca af3c 0b3b 3bbd 6adb 9abd 96cf f03c
00000060: dd81 cd3b a873 12be 924b efbb 256b 313c
00000070: 99ee 15bd 8669 06be c5de 26bc 87bb 9a3b
00000080: 3b09 a4bd ee0d 8a3d 8a93 183d 7d8f 443d
00000090: abe4 a4bd ba79 9cbd fa8b f5bc 2c0d 09bd
000000a0: 8e14 54bc c3a2 5bbb 596c 5b3d 202d 993d
000000b0: afa3 793d bc96 c1bd ddb0 063b 6a1e 34bd
000000c0: 1661 083d 1d0f 25bb 8642 8abd 1006 b4bd
000000d0: 3a99 123d 8832 84bd a87d b63d 5d7e 45bd
000000e0: 0425 28bd 9596 973c b2f9 acbb ea37 ef3c
000000f0: 990a c13c 167f 223d b2c2 ebbc 2680 c5bc
00000100: 3a8d 2e3c f911 13be a87c 1d3d 4366 03bd
00000110: 43a2 1a3b 2c64 093b 9388 a6ba 8b75 813c
00000120: 8ff1 5dbd 472e 8d3a dd5d 0ebd 1196 893a
00000130: 88a0 10bd f3a9 00be bb61 e43c 0a3e a0bc
00000140: a9c2 58bd af50 b43d 7b3c 483b 7aca 18bc
00000150: a646 873c 6e39 c13c a2d2 10bc a009 49bd
00000160: 7b55 6ebd c65b 13bd ba72 883d 0d0b 67bc
00000170: c0ac 993c 5c1d f33c 1d7a 79bd 908f 713d
00000180: 86f4 1fbd d971 fabc 66c8 56bd 4288 94bc
00000190: a10a 353d 3255 873d db51 013d ef18 6c3c
000001a0: 535e 64bd eb1c 4fbc 9924 23bd 8d67 553d
000001b0: 3705 203d 8d63 21bd 6d6d 493d bb22 d53b
000001c0: 4b44 23bd e388 1bbd b336 1b3d 8456 23bc
000001d0: 7555 f13b 52b1 803d 3dd8 cdbc f563 7abd
000001e0: cbfb 38bd 72e4 b5bc 7498 26bd daac c3bd
000001f0: 864b 46bd 7115 a2bd 7210 bdbc d91f 89bd
00000200: e660 8bbd 4217 24ba e917 b43d 06a7 573d
00000210: d4d1 773d 6391 07bd c747 633d dd7f 0b3d
00000220: 89a4 d8bc 3663 243c 7a19 b0bc 13b2 c63d
00000230: 1d57 10bd 2444 37bd 5e8e d9bc 56d2 8ebd
00000240: 134e 903c f88e 94bd e9d2 12b9 9fc9 323c
00000250: d1f3 2bbe 70ec beba 3919 a6bb b444 3abd
00000260: 8e4e 8e3d d29f 9cbd 6e23 493d 38de ac3b
00000270: 3b4c 453d e37d 21bd 8cf7 f03c 5235 c03c
00000280: ab77 84bd d71c 1d3d ae24 8cbb 58c5 d9bd
00000290: 9169 b9bc fb97 ccbd 6670 ad3d c826 0c3d
000002a0: 9b33 bfbd 80d8 20bc d8cf 1e3b 6a4d aebc
000002b0: fcc7 063d ecc5 10bd 6c37 21bd 38d6 0f3d
000002c0: aa3f 873d 4f26 8cbd 86ad 93bd 086a 073c
000002d0: e549 60bd c696 dbbc 0009 e7bc ce16 4b3c
000002e0: 8aac 833d fce1 43ba 8ed4 dd3c 630a d53d
000002f0: 2236 a6bc 4477 33be 139d 98bd 2920 8dbb
00000300: 746d 03bc 6e4a 92bd f2b9 d63b 5c3c ddbc
00000310: b182 273c 06ad 42bd 9afd 74bd 7fd1 bdbd
00000320: 5c09 4d3c 8031 e3bd 8726 9eba 9cae 7dbd
00000330: 89f7 38bd b14b d6bd 7b74 92bd d0ad 2f3d
00000340: c774 393c bc65 01bc ce0d 9cbd e62d 1fba
00000350: f1f5 acbd 1cef cabc 875d 2cbd 8e4a 953c
00000360: 871c 50bd 5e9b 0abe 03f7 6ebd 160c 46bd
00000370: 113c 243c f40e cc3b e8ef 5b3d cb41 f6bb
00000380: a7fb 58bc 5dc7 c23c 4926 fd3c 483f a13c
00000390: 43ae 5c3c 7199 cbbd 97d1 113d 88ca 443d
000003a0: 9653 6bbd 5459 01bd 9486 3fbc bc20 65bd
000003b0: 080c 603d f285 623c d6da 9fbd ffcc b5bd
000003c0: 542b 62bd fa98 a33d 0dab bebb aa86 41bd
000003d0: 9134 10bd c16d a8bc d4be 593d 8c1f 0abd
000003e0: 53bc 48bd fdad 08bd 4ddf 32bc ba3f 97bd
000003f0: 32e1 8dbd 2d47 61bd 164c 9f3d cb8c 393c
0.07259824 0.050133925 0.01602813 0.0017664646 -0.035966177 -0.0343884 -0.10957663 0.022159781
-0.058384858 0.06991411 0.02422494 -0.009326644 -0.06474681 0.03136919 0.078012355 0.034885272
-0.05779427 0.021600494 -0.0027279223 -0.010541839 0.021459006 -0.045710605 -0.07561381 0.02939586
0.0062715844 -0.14301932 -0.00730271 0.010828768 -0.036604498 -0.13126191 -0.010184948 0.004722062
-0.08009573 0.06740938 0.03725008 0.047988404 -0.080514275 -0.07640405 -0.029973973 -0.033459827
-0.012944354 -0.0033513762 0.053570125 0.0747931 0.060947116 -0.094525784 0.0020552196 -0.043974318
0.033295713 -0.002518601 -0.067509696 -0.08790219 0.03579066 -0.064549506 0.08910686 -0.048216213
-0.041050926 0.01850442 -0.0052787894 0.029201467 0.023564624 0.03967198 -0.028779361 -0.024108957
0.010653788 -0.14362325 0.03844896 -0.032079946 0.002359525 0.0020964248 -0.0012705497 0.01580312
-0.054185446 0.0010771238 -0.034757484 0.0010496994 -0.035309345 -0.1256483 0.027878633 -0.019560833
-0.052920017 0.08804452 0.0030553627 -0.009325618 0.01651318 0.023586955 -0.008839281 -0.049081445
-0.05818699 -0.035976194 0.06662507 -0.014101756 0.018759131 0.029677086 -0.060907472 0.058974802
-0.039051555 -0.030571865 -0.05243721 -0.018131379 0.04419959 0.066080466 0.031572204 0.0144102415
-0.055754017 -0.012641172 -0.039829824 0.052100707 0.039067473 -0.03940158 0.049176622 0.0065043843
-0.03986005 -0.037972342 0.037893962 -0.009969357 0.0073649236 0.06283821 -0.025127525 -0.061130483
-0.045162003 -0.022203658 -0.040672734 -0.09554453 -0.04841187 -0.07914246 -0.02307913 -0.066955276
-0.06805591 -0.0006259569 0.08793623 0.05264952 0.060502842 -0.033097636 0.055488374 0.034057487
-0.026445644 0.010033419 -0.021496523 0.09701934 -0.035239328 -0.04474272 -0.026557144 -0.06973712
0.017615354 -0.072538316 -0.00014002215 0.010912328 -0.16792227 -0.0014566313 -0.0050689247 -0.045475677
0.06948577 -0.07647671 0.049106054 0.005275514 0.048168402 -0.039426696 0.029414915 0.023462925
-0.06468137 0.038357582 -0.0042768335 -0.106333435 -0.022633346 -0.099899255 0.08468704 0.034216672
-0.09336015 -0.009817243 0.0024232771 -0.021277148 0.032905564 -0.035345003 -0.039359495 0.035116404
0.0660394 -0.06843244 -0.07210831 0.008265026 -0.05475797 -0.026805293 -0.028202534 0.012395574
0.064293936 -0.0007472334 0.027078893 0.10402372 -0.020289484 -0.17525965 -0.074518345 -0.0043068123
-0.008021701 -0.071431026 0.006552928 -0.02700632 0.01022403 -0.04752829 -0.059812166 -0.09268474
0.0125144385 -0.11093426 -0.0012065925 -0.0619341 -0.045157943 -0.10463656 -0.07151123 0.04289037
0.011319346 -0.0078977905 -0.076198205 -0.0006072208 -0.08445347 -0.02477222 -0.042081382 0.018224027
-0.050808456 -0.1353583 -0.058341037 -0.04835137 0.010024087 0.0062273685 0.05369559 -0.0075151674
-0.013243592 0.023776704 0.030902045 0.019683495 0.013469282 -0.09941376 0.03560027 0.04804471
-0.05745276 -0.03157933 -0.011689801 -0.05593942 0.054698974 0.01382588 -0.078054115 -0.088769905
-0.055217102 0.07988162 -0.0058187307 -0.047247566 -0.03520638 -0.020560147 0.053160504 -0.03372149
-0.049007725 -0.033369053 -0.010917497 -0.07385202 -0.06927718 -0.05499952 0.07778184 0.011325072

actor.actor.4.bias f4 [128]
00000000: bff4 903c 0383 1abd 13ff 47bd 2c25 56bd
00000010: 94e7 74bd 0139 0cbc fc7a 943d 54ab 0abd
00000020: 7036 0bbc 8fd5 973c b183 be3c f75a aabb
00000030: c592 6e3c 3b6e a2bc 9e11 bf3b 2040 3bbc
00000040: 41dc 6abd 71b3 5e3c 7965 d1bc 27c6 fabc
00000050: c62b 14bc ab91 8b3c 61d0 4cbd 766e 0b3d
00000060: 3d2d 483c 5884 97bc 72a7 083c 4f02 b6bb
00000070: dfd9 5cbd 4b0a 443c 4edf 6bbd 0a2e 01bc
00000080: 3b53 b4bc 5d24 c0bb 5e71 7bbd 29cf 4f3d
00000090: 480d 8a3c 17f9 fabc 2495 353c f54b 63bd
000000a0: 3ff0 b0bc 060a c4ba d629 19bd a068 823c
000000b0: 4c47 6e3b 7b24 0cbd c847 a5bd b5b2 5dbd
000000c0: ccea 0abc 18d5 f6bb 12c9 0bbd 4944 32bd
000000d0: aabd 873b 5b78 6fbc 7b28 fb3c 106f 90bd
000000e0: aa01 2bbd 86f7 6cbd 15c9 75bd f75c 163c
000000f0: ab62 573c d37b 01bd 24d1 10bd 54c5 87bd
00000100: 16f6 b0bb dc61 d0bd d7a3 d9bc 054b cbbc
00000110: 4eb7 05bc f563 df3c c0d1 83bd 312b 48bd
00000120: e27e 3a3d fc36 b5bc 19f9 7bbd cc75 103d
00000130: 3d4e 41bc 458a 9cbc dfef 66bd 16a8 babc
00000140: 8469 10bc d3a2 8cbc e8cf cfbc ec5f 863c
00000150: f300 39bb 363b 99bc 780d 90bd dfa8 b5bd
00000160: 84a7 1bbd 319c 15bd 6402 cebc 8c35 c33c
00000170: 771b cfbc 2a8b fabb 33d2 6a3d bfba 8c3c
00000180: 1915 f7bc 7e44 2d3d 0ded aebd 7ead 54bd
00000190: 27c2 3a3c bb74 a9bc acc7 d93c efff 0cbb
000001a0: a97a 833c 997c 4ebd a4f2 363d 46d2 093d
000001b0: 3128 20bc bf98 343c c9cb 193d 1621 c3bc
000001c0: 7044 043d 97bc 74bd 85d5 513d aa09 e03c
000001d0: 15cd bb3b 8719 83bc 8c2f d83c dd79 62bd
000001e0: e9e8 beba 4856 a0bd f75e 3a3b af20 113d
000001f0: 5741 08bd 34cb bfbb 3a24 9a3c 81e7 4bbd
0.017694829 -0.0377226 -0.048827242 -0.052281544 -0.059791163 -0.008558513 0.0725002 -0.033854797
-0.008496866 0.01853445 0.023256155 -0.005198832 0.01456136 -0.019827953 0.0058309576 -0.011428863
-0.057338957 0.013592587 -0.025561081 -0.030612065 -0.0090436395 0.017037233 -0.050003413 0.03404089
0.012217817 -0.018495724 0.008340703 -0.0055544744 -0.053918716 0.011965345 -0.057586007 -0.007884512
-0.022012344 -0.00586371 -0.061387412 0.050734673 0.016852036 -0.030636353 0.011082921 -0.05549236
-0.021598933 -0.00149566 -0.037393413 0.01591903 0.0036358414 -0.034214478 -0.08070332 -0.054125506
-0.0084788315 -0.007532727 -0.034127302 -0.043522153 0.0041424828 -0.014616097 0.030658951 -0.070524335
-0.041749634 -0.057853244 -0.06000622 0.009177438 0.013146083 -0.03161223 -0.035355702 -0.06629434
-0.0054004295 -0.10174915 -0.026567383 -0.024816046 -0.008161379 0.027269343 -0.06436491 -0.048869316
0.04553116 -0.022120945 -0.061516855 0.03526859 -0.011798439 -0.0191089 -0.056381103 -0.022785228
-0.008814219 -0.017167484 -0.025367692 0.016403161 -0.0028229326 -0.018704992 -0.07033819 -0.088701
-0.038001552 -0.03652591 -0.025147624 0.023829244 -0.025281651 -0.007645984 0.057329368 0.017178891
-0.030161427 0.042301647 -0.085413076 -0.051923268 0.011398829 -0.020685544 0.026584469 -0.0021514853
0.0160497 -0.050411794 0.044664994 0.033647798 -0.009775207 0.011022746 0.03754786 -0.023819488
0.03229183 -0.059750166 0.05122902 0.027348358 0.005731235 -0.016003383 0.02638986 -0.055292
-0.0014565262 -0.07828957 0.002843795 0.03543156 -0.033265438 -0.005853081 0.018816102 -0.049781326

actor.actor.6.weight f4 [12, 128]
00000000: d032 1e3d fc2a a5bd e0b7 8cbd a98c 4dbd
00000010: 6354 683d 6759 1b3d e574 e83d 9a77 d43d
00000020: 5052 ac3c f1c5 c03d 4a8c 253d cd96 94bc
00000030: caa4 a0bd 5089 383d d8de 353d f58b 1cbd
00000040: 72c8 623b 0c91 8c3d 283c f83c 1ae9 02bd
00000050: 621f b2bd 2345 84bc aaef 9e3d 448e 873d
00000060: f08e c4bd 2430 ecbc b325 373d f63d ad3d
00000070: 376f 30bd 8a5a 2d3d 3de3 4cbb 08d8 94bd
00000080: 698a bdba 0cf3 ab3c 6ec4 4f3c f228 963c
00000090: 6385 ebbb 1f75 1f3d ad02 823d e664 71bd
000000a0: 6233 f13c 1502 363d e341 253c 478f 80bc
000000b0: 495d 303d 055a a83c 7e2d 8dbd f43f c3bb
000000c0: 05f8 1dbb 922c 94bc 671b 5c3c f836 b43c
000000d0: c634 4b3d 12f0 2c3a 300e a83d 36fb ba3d
000000e0: 5c77 b83c 82eb 8fbc f529 97bd 5899 0c3d
000000f0: c95c 113b b4fb 9abd ba96 07bc 58b7 42bd
00000100: 79b6 343d 32bb eabc a87e 8f3c b561 1ebd
00000110: f6b2 ebbd 1720 853d 8990 7bbd 55d8 683b
00000120: 8665 6cbb 21e4 1e3c e7ea 8ebd 1055 f13c
00000130: b47d ce3a 8608 6cbc 7a03 d2bd c0fc 5ebd
00000140: 6dc0 22bd fc0a 113d 21d4 5bbd 0725 af3d
00000150: 095c a93c 32ae d03d 03b4 c5bc 553f 46bb
00000160: 988d 1ebd dc2b 76bd 4281 613d 6c71 d83c
00000170: eff0 033d b18c 353c 2160 0d3c 6538 47bd
00000180: a78d ffbc 83ba a33c e7bf fbbc 6701 69bc
00000190: b8c8 7f3c 8f2c 0d3d 43f3 f03c 1b0f 7cbd
000001a0: a003 c5bc f487 8b3d 289f 933d 39de c4bd
000001b0: 640c 1cbd b428 d8bc 92d7 3dbd ceeb bb3d
000001c0: 0a58 b4bb 59a6 acbd 2018 1abc 4da9 abbc
000001d0: 7b04 5f3b 89a6 fb3d cc9b 7c3d 2899 e33c
000001e0: 61aa 333d bc5d b73c cd8d cfbd dc9d e0ba
000001f0: 5ec8 663d 5187 69bc 3054 11bd 77d7 2f3d
00000200: c787 823d 375b 3abd da09 ae3c 2ed2 423d
00000210: bee6 4cbc ce9a b5bc 217e 9e3c e489 a03d
00000220: b76b ffbd 5d0d bf3c 1c04 373d 5981 e33c
00000230: 305c 4abd 9cb4 70bc d4e0 5bbc 4f17 e73d
00000240: bbbe af3c 82dd 0ebd 63b8 b3bd 0d5f f73d
00000250: 3417 07be aa2d 9bbd 7b1e c43d a72c 893d
00000260: 4caa 9c3d c5ec 8e3d f5d7 bcbc 149c 05bd
00000270: 4f9f 4a3d 471c 05bd c06a 3a3b a9b6 a23d
00000280: dc9b 033c f12d 25bd bd83 193c cd02 0dbe
00000290: 491a e33d dfa2 65bd 56e3 11be 0afd 0c3d
000002a0: 4353 9cbb c6f1 b1bd 8525 fd3a 2b1a a2bd
000002b0: 2791 63bc f000 d8bd f939 843a 3ebb ba3d
000002c0: 4179 af3d 533a 88bd 2aee cb3d bab3 9b3d
000002d0: 4b9f 03ba 6555 163e 0016 c73d 0ca0 583e
000002e0: b839 36ba 6230 06bd f544 26bd 55ec df3d
000002f0: 514c cc3d 3006 a93d 3eb4 94bc fde9 d5bd
00000300: 343a a43d d709 28bd ff99 363c cd36 e8bd
00000310: 3c81 1b3e 2cee 063d 3e31 433d 511b 813d
00000320: 19e0 453c a91d c53d 6ede 983d 36a5 5abe
00000330: b28a 213c 07f7 d83d 98a4 2fbe 69b7 9f3b
00000340: 6a55 e6bc bcaa 3dbd 07d5 b5bd 22b4 29bd
00000350: 1b0e 9ebd 6938 b03d e381 1e3c 7f17 37be
00000360: e964 77bd 5c03 8d3d 6fc8 fdbc 5f97 123d
00000370: 5c5f f1bd af52 38bd dea7 ac3c 8d9b b73d
00000380: 243d 323d b8bf 0bbd 2d80 bbbd 4a71 a23d
00000390: 76e7 c13d 1e25 a6bc 82ab 253d d1e5 813d
000003a0: dec6 ec3d d187 073d b53d bf3c 30bc efbc
000003b0: 40d8 563c 9a9e 15be ebe1 abbd b805 d6bd
000003c0: 9a48 c2bc 33d1 d13d c126 1cbe bc2f be3d
000003d0: c54f e0bc 2b1b d5bd 1366 08be c9ac 943c
000003e0: 1ed2 57bb ce52 40bd 703c 08bd cebd a4bd
000003f0: 0e28 9f3d d463 3f3d c51d 40bd e4c8 b8bd
0.038622677 -0.08064839 -0.06871009 -0.050182972 0.056721102 0.037927058 0.11350421 0.10374375
0.021035343 0.09412754 0.040416993 -0.018138314 -0.07843931 0.045052826 0.044401973 -0.03821941
0.0034604338 0.06863603 0.030302122 -0.031960584 -0.08697392 -0.016146248 0.07760556 0.06618932
-0.09597576 -0.028831549 0.044713687 0.08459084 -0.043074813 0.042322673 -0.0031263374 -0.07267767
-0.0014460805 0.020989917 0.01268111 0.018330071 -0.007187532 0.038930055 0.063481666 -0.058934115
0.029443447 0.04443558 0.010086509 -0.01569332 0.043057714 0.020550737 -0.068934426 -0.0059585515
-0.002410413 -0.018087659 0.013434268 0.021998867 0.049610876 0.00065970526 0.08205831 0.09129946
0.022517852 -0.017568354 -0.073810495 0.034325927 0.0022180548 -0.0756754 -0.008275682 -0.04753813
0.044119332 -0.028653715 0.01751645 -0.0386674 -0.115087435 0.06500261 -0.061417136 0.0035529335
-0.0036071255 0.009697945 -0.06978398 0.029459506 0.0015754015 -0.014406329 -0.10254569 -0.05444026
-0.039734293 0.035410866 -0.0536691 0.08551984 0.020673769 0.10189475 -0.024133688 -0.0030250151
-0.038709253 -0.06010042 0.05505491 0.026421271 0.032212194 0.011080907 0.008628876 -0.048637766
-0.031195475 0.019986397 -0.030731155 -0.014221526 0.01561182 0.034466323 0.029412871 -0.061537843
-0.02404958 0.068130404 0.07208091 -0.09612698 -0.038097754 -0.026386596 -0.046348162 0.091758355
-0.005503659 -0.08430166 -0.009405166 -0.020954752 0.003402977 0.122876234 0.061672017 0.027782992
0.043863658 0.022383563 -0.10134468 -0.001713689 0.05634343 -0.014253453 -0.035480678 0.042930093
0.06373554 -0.045497146 0.021244932 0.047563724 -0.012506185 -0.022168543 0.019347252 0.078388005
-0.12471717 0.023321802 0.044681653 0.027771639 -0.049404323 -0.014691498 -0.013420302 0.11283743
0.021453252 -0.034879215 -0.08775403 0.120786764 -0.13192445 -0.07577069 0.09576126 0.0669797
0.07649669 0.06978754 -0.023052195 -0.03261955 0.049468335 -0.03249767 0.0028444976 0.07944996
0.008032765 -0.040327016 0.009369788 -0.137706 0.11088998 -0.05606353 -0.14246878 0.034421004
-0.0047706678 -0.08688693 0.001931355 -0.079151474 -0.0138895875 -0.10547054 0.0010088078 0.09117745
0.08568049 -0.066517495 0.099575356 0.076026395 -0.000502099 0.14681013 0.09720993 0.21154803
-0.000695135 -0.032760985 -0.040593106 0.10933749 0.09975494 0.08253133 -0.018152352 -0.1044502
0.08018914 -0.04102501 0.011145114 -0.113385774 0.15186018 0.032941982 0.047654383 0.06304038
0.012077355 0.09624798 0.074643 -0.21352085 0.009859728 0.10593992 -0.17152631 0.004874159
-0.0281169 -0.046305403 -0.08878522 -0.041431554 -0.07717534 0.086045094 0.009674522 -0.17880057
-0.06039897 0.068854064 -0.030979363 0.03578889 -0.117857665 -0.04500073 0.021076139 0.08965216
0.04351534 -0.034118384 -0.09155307 0.079317644 0.09467976 -0.02028137 0.040446766 0.06342662
0.115613684 0.03308851 0.023344854 -0.02926454 0.013113081 -0.14611283 -0.083927 -0.104503095
-0.02371626 0.1024498 -0.15249158 0.09286448 -0.027381787 -0.104055725 -0.13320188 0.018148797
-0.0032931636 -0.04695397 -0.033260763 -0.08044015 0.07771312 0.046726063 -0.04690339 -0.09022692

actor.actor.6.bias f4 [12]
00000000: 1e0e 90bd d8b0 0ebd 6929 7e3b 882b eabc
00000010: 7757 ce3c 6505 2bbd 4ddb 9b3c 45c4 d03c
00000020: 5dc7 0abd 4ee5 bfbd a478 45bd 6657 22bd
-0.07033943 -0.03483662 0.0038782007 -0.02858521 0.02518819 -0.04175319 0.01902547 0.025484214
-0.033881534 -0.09369908 -0.048210755 -0.03963413

onnx::Div_36 f4 [1, 53]
00000000: 8469 fb3e 8830 803e 24ed fc3e e9c3 373f
00000010: e9c3 373f e9c3 373f e9c3 373f 0161 373f
00000020: 0161 373f 0161 373f 0161 373f 5f05 0b3e
00000030: 64fe 433e d430 2e3e de5e 1a3e e86c 463e
00000040: 9654 2f3e 6cdb 1a3e 716e 5c3e 64b3 483e
00000050: f52d 1c3e 14dd 5e3e f181 4f3e b880 8440
00000060: b3f7 8140 86a7 9b40 86a3 8a40 c7f2 8140
00000070: f335 a340 97ca 9640 4869 8c40 b774 b140
00000080: 007a 9640 4469 8b40 a987 b140 5e9e d93f
00000090: 1e36 3d3f c3b1 1b3f 43d3 a33d 5db7 d43d
000000a0: 48b9 723d 34b7 e73e ef43 143f df39 353f
000000b0: 808b eb3e 8111 163f 4576 363f 72ec f03e
000000c0: b6b1 103f 7bfc 443f 2325 f13e ab24 133f
000000d0: 34d9 483f
0.4910394 0.25037026 0.49399674 0.7178331 0.7178331 0.7178331 0.7178331 0.7163239
0.7163239 0.7163239 0.7163239 0.13576268 0.19140011 0.17010814 0.15075251 0.19377482
0.1712211 0.15122765 0.21526505 0.19599682 0.15251906 0.21764022 0.20264412 4.1407127
4.0614867 4.8641996 4.3324614 4.060886 5.1003356 4.71223 4.3878517 5.5454974
4.7023926 4.3566 5.54781 1.7001455 0.739107 0.6081812 0.07999279 0.10386536
0.05925873 0.4525696 0.5791616 0.7079143 0.46004868 0.5862046 0.71274215 0.47055393
0.56521165 0.76947755 0.47098646 0.57477826 0.78456426
