src/ga_quadruped/policy/more_range.onnx (onnx, 776049 bytes, 10 tensors)

normalizer._mean f4 [1, 53]
-0.0017606856 -0.00057496916 -0.00078574877 0.0019006575 -0.001900711 -0.001900711 0.0019006575 0.008390218
-0.008390223 -0.008390223 0.008390218 -0.010972579 0.10997514 -0.218526 0.0026844423 -0.19742493
0.18359633 -0.025662178 -0.008602238 -0.073426634 0.0044377837 -0.03776362 0.07613842 -0.011906288
0.0035313345 -0.07907039 0.011174892 -0.0115627125 0.06876387 0.008251005 -0.0077122785 -0.030965656
-0.014227146 0.0029167973 0.03646516 0.0019065855 0.007709156 -0.0012740198 -0.056918122 -0.0008595863
-0.99410325 -0.07152862 0.04845569 -0.15381624 0.0789234 -0.2207163 0.0814401 0.030464116
-0.01052894 0.10584033 -0.042591088 -0.08480653 -0.09636398
00000000: cec6 e6ba 87b9 16ba b5fa 4dba 7c1f f93a
00000010: 4721 f9ba 4721 f9ba 7c1f f93a 2077 093c
00000020: 2577 09bc 2577 09bc 2077 093c 55c6 33bc
00000030: a53a e13d 48c5 5fbe 78ed 2f3b c329 4abe
00000040: ad00 3c3e 7d39 d2bc 67f0 0cbc b460 96bd
00000050: d46a 913b 07ae 1abd 76ee 9b3d 9712 43bc
00000060: f66d 673b a8ef a1bd e516 373c 8871 3dbc
00000070: 12d4 8c3d 392f 073c 48b7 fcbb b0ab fdbc
00000080: fa18 69bc bd27 3f3b 7e5c 153d 65e6 f93a
00000090: 169d fc3b 03fd a6ba fa22 69bd dc55 61ba
000000a0: 8d7d 7ebf 997d 92bd 7979 463d 0182 1dbe
000000b0: 97a2 a13d 7403 62be 11ca a63d e28f f93c
000000c0: 9381 2cbc d1c2 d83d fe73 2ebd 0caf adbd
000000d0: 7a5a c5bd

actor.actor.0.weight f4 [512, 53]
0.12940231 0.106205046 0.14570613 -0.0043294467 -0.036508176 0.008145096 0.016614951 0.055746913
-0.028529705 0.13638805 -0.18177901 -0.081335925 0.061816126 0.06740353 0.09336283 0.1645095
-0.09548174 -0.04119027 0.0896187 0.026134985 -0.027469527 -0.093340084 0.019870624 0.028915742
-0.08489983 -0.06854428 0.22538424 0.019797524 0.08603865 -0.13095005 0.12192201 0.058188114
-0.096590556 0.109153494 0.0580005 0.29996154 -0.19097345 -0.12130789 0.05534456 0.11804916
0.1147788 0.16649812 -0.051342905 0.09230688 0.094521284 -0.091118954 0.11023586 -0.10576668
0.14524476 -0.013668277 0.027662443 -0.015505974 -0.08415326 -0.051768668 -0.18031164 -0.012521352
-0.15700278 0.025559919 0.17826311 0.014319229 -0.087567426 -0.09636971 0.083757386 0.020241829
-0.014027541 0.10789987 -0.10989613 -0.033340678 -0.096039765 0.15349239 -0.016605044 -0.09600699
-0.07278257 0.20940232 0.19859369 -0.06457891 -0.038357805 -0.0014279197 -0.1573982 0.07191141
0.03943003 0.07639798 0.0061772964 -0.009921099 -0.07875886 -0.12202821 -0.21962129 0.094246715
0.12665063 -0.19705194 -0.026821962 0.036717024 0.03244947 0.06493521 -0.050946828 0.105177104
-0.038124703 0.04137634 0.08925937 0.14587186 -0.09884248 -0.04856253 0.083507076 0.04652322
-0.06606241 0.023329297 0.03453865 -0.12295967 0.021571552 0.073277265 -0.14662926 -0.0361185
0.1213976 0.08939186 -0.0954037 -0.08556032 0.033480637 0.113280326 0.04999667 -0.13887872
-0.04271795 -0.03956187 -0.13173759 -0.17929758 -0.17327583 0.019407917 0.03658826 -0.14469948
0.08628841 0.1088238 -0.017344238 -0.09687108 -0.0826709 -0.07877612 -0.07670772 0.08139812
0.07543099 -0.10151785 -0.19876416 -0.056334667 -0.07227657 0.21779695 0.007020994 0.052531272
-0.12854575 0.037571546 -0.008611067 -0.051123805 -0.09945216 -0.017862383 0.058313895 0.035144854
0.01824959 0.009214457 0.1311559 -0.10845736 -0.006000416 -0.033922344 -0.065852724 0.08355891
0.13535714 0.24885863 -0.036759958 -0.029846115 -0.1081932 0.022486798 -0.06278366 0.12126977
0.042979073 -0.07660322 -0.07063035 -0.12633397 0.10406632 -0.09339948 0.15054603 0.13832033
-0.19617273 -0.153014 -0.18361351 -0.026895827 -0.08610063 0.017425084 0.07951344 0.020728279
0.013377729 0.09974572 0.12752403 0.031639405 0.08899626 -0.070129916 -0.065354675 -0.07452698
0.036819316 -0.11069523 0.008040174 -0.09754837 -0.1825031 0.039976798 -0.11289735 -0.020736186
-0.0045430674 -0.048180524 -0.08483656 0.02835406 0.06707085 0.050425444 0.08310241 0.16550544
0.086247995 -0.15489142 -0.049303625 0.041672733 0.08200924 -0.009929981 0.18183643 -0.17765626
0.09581233 0.195525 -0.025917813 0.03701837 0.007387273 0.06683393 -0.07483497 -0.10004112
0.02900024 0.050026942 0.12855507 -0.1754304 0.13047801 -0.053515382 -0.12479387 -0.041061442
-0.13146318 0.06604266 0.11327697 0.16431776 -0.03595823 -0.0863716 0.020753369 -0.056677382
-0.15630212 0.067414254 -0.100386806 0.07946072 -0.037416544 -0.13857284 0.03694993 0.15511791
-0.12969953 -0.115402736 0.1429642 0.04795141 -0.1247712 0.08129489 -0.053368125 0.11060906
00000000: 0a82 043e 0882 d93d fd33 153e 08de 8dbb
00000010: 9989 15bd 0273 053c 141c 883c e056 643d
00000020: 21b7 e9bc 4fa9 0b3e 4724 3abe 7393 a6bd
00000030: e832 7d3d dd0a 8a3d 0335 bf3d 2e75 283e
00000040: ee8b c3bd 21b7 28bd 028a b73d 0919 d63c
00000050: c607 e1bc 1629 bfbd b8c7 a23c b5e0 ec3c
00000060: f6df adbd f260 8cbd 20cb 663e 6b2e a23c
00000070: 0835 b03d c517 06be 3fb2 f93d a956 6e3d
00000080: 45d1 c5bd de8b df3d ef91 6d3d 8f94 993e
00000090: 8b8e 43be 4570 f8bd fab0 623d c2c3 f13d
000000a0: 2611 eb3d 7c7e 2a3e f04c 52bd 640b bd3d
000000b0: 6094 c13d 939c babd 57c3 e13d 339c d8bd
000000c0: 0bbb 143e e9f0 5fbc 599c e23c c50c 7ebc
000000d0: 8b58 acbd 620b 54bd 9da3 38be 5b26 4dbc
000000e0: 56c5 20be 0963 d13c 9b8a 363e 339b 6a3c
000000f0: 8d56 b3bd 7c5d c5bd fe88 ab3d 31d2 a53c
00000100: c5d3 65bc 9bfa dc3d 3911 e1bd 3c90 08bd
00000110: 7fb0 c4bd 1c2d 1d3e 4d07 88bc 509f c4bd
00000120: 070f 95bd 906d 563e 255c 4b3e f341 84bd
00000130: 131d 1dbd 0929 bbba fe2c 21be 4a46 933d
00000140: 6281 213d 8b76 9c3d eb6a ca3b 1b8c 22bc
00000150: 534c a1bd ede9 f9bd 67e4 60be 6c04 c13d
00000160: b4b0 013e fcc7 49be bbb9 dbbc 9764 163d
00000170: bce9 043d c0fc 843d 9fad 50bd 1867 d73d
00000180: a628 1cbd 3d7a 293d 9ecd b63d 6f5f 153e
00000190: ed6d cabd 81e9 46bd c205 ab3d 228f 3e3d
000001a0: bb4b 87bd 151d bf3c 6678 0d3d 48d2 fbbd
000001b0: d3b6 b03c 6412 963d fb25 16be fef0 13bd
000001c0: 4e9f f83d 1413 b73d 0463 c3bd 403a afbd
000001d0: fe22 093d 84ff e73d 4fc9 4c3d 3936 0ebe
000001e0: 04f9 2ebd a10b 22bd 38e6 06be c999 37be
000001f0: 386f 31be 5afd 9e3c 92dd 153d 1a2c 14be
00000200: fab7 b03d 03df de3d 8115 8ebc 5864 c6bd
00000210: 5c4f a9bd 6055 a1bd f018 9dbd 0fb4 a63d
00000220: 907b 9a3d 97e8 cfbd d588 4bbe 2ebf 66bd
00000230: bd05 94bd 2a06 5f3e 5e10 e63b 082b 573d
00000240: 7fa1 03be 9fe4 193d 6f15 0dbc 3267 51bd
00000250: 93ad cbbd 2254 92bc 8dda 6e3d 0df4 0f3d
00000260: 2a80 953c 3cf8 163c bb4d 063e e41e debd
00000270: 239f c4bb 28f2 0abd cbdd 86bd ef20 ab3d
00000280: 109b 0a3e ccd4 7e3e 9c91 16bd d77f f4bc
00000290: 6594 ddbd 3c36 b83c b894 80bd 495c f83d
000002a0: d30a 303d 26e2 9cbd a5a6 90bd b15d 01be
000002b0: b920 d53d 3a48 bfbd bd28 1a3e d8a3 0d3e
000002c0: 81e1 48be b4af 1cbe 2e05 3cbe a354 dcbc
000002d0: 8755 b0bd 0dbf 8e3c f1d7 a23d 5ace a93c
000002e0: 432e 5b3c 7c47 cc3d a995 023e 5298 013d
000002f0: ac43 b63d 46a0 8fbd acd8 85bd 9aa1 98bd
00000300: dacf 163d 2eb4 e2bd efba 033c 71c7 c7bd
00000310: 18e2 3abe b6be 233d ba36 e7bd efde a9bc
00000320: 03de 94bb f158 45bd cabe adbd c646 e83c
00000330: 715c 893d e98a 4e3d 9931 aa3d 427a 293e
00000340: caa2 b03d db9b 1ebe 99f2 49bd 07b1 2a3d
00000350: 76f4 a73d 5cb1 22bc 5433 3a3e 86eb 35be
00000360: 4139 c43d b537 483e 9851 d4bc 93a0 173d
00000370: f010 f23b 3ae0 883d 1443 99bd 5ce2 ccbd
00000380: e991 ed3c 0de9 4c3d f1a3 033e 07a4 33be
00000390: 079c 053e f232 5bbd ee93 ffbd 0b30 28bd
000003a0: 499e 06be 6041 873d c2fd e73d ea42 283e
000003b0: f048 13bd 98e3 b0bd f802 aa3c 8b26 68bd
000003c0: aa0d 20be 7c10 8a3d 9997 cdbd 4dbc a23d
000003d0: 1742 19bd 0ae6 0dbe cf58 173d 3bd7 1e3e
000003e0: f4cf 04be 4558 ecbd 3565 123e b368 443d
000003f0: 0b88 ffbd ef7d a63d 8998 5abd 0187 e23d

actor.actor.0.bias f4 [512]
0.1299378 0.020465557 0.10062576 -0.053167738 -0.058443718 0.009966038 -0.012236027 0.15050276
-0.016461374 0.13501096 -0.036395807 -0.04112256 -0.04075089 0.0070251008 -0.20926699 0.06878372
-0.16562676 -0.1392972 -0.11872482 -0.096353635 0.0045554903 -0.017461516 0.07330344 0.0094217155
0.085956566 -0.060443867 0.023071095 0.12239581 0.11576565 0.053637214 0.00825104 0.04690617
0.04038965 -0.08128213 -0.06471761 0.06375158 -0.013654468 0.043267004 -0.07959897 -0.17450304
-0.13696858 0.06788065 0.094737716 -0.06370488 -0.06120874 -0.085580096 -0.04156264 -0.08941667
0.12974553 -0.19226763 -0.027569002 0.008701792 -0.0014208227 0.107566595 -0.07076505 0.06565563
-0.06626419 -0.115051106 -0.09888543 -0.030423664 0.12128492 0.03459907 0.015175038 0.09160724
0.10098176 0.1378854 0.05574357 -0.033282693 0.12000936 0.1097535 0.16399914 -0.12472015
0.03612731 0.08267432 -0.058239073 -0.022519253 0.026626093 0.11274355 -0.1156637 -0.027761651
-0.17578521 -0.053307958 0.0015717233 0.029777484 -0.1718766 0.16686113 -0.15208058 -0.18056071
-0.084904656 0.12181676 -0.07709743 -0.0652311 0.13173926 -0.0873138 -0.037973788 0.026842795
0.18263218 0.101086885 -0.050701838 -0.10234312 0.10170039 0.049724955 -0.010080093 -0.11922244
0.04008164 -0.116572976 -0.17766304 0.1069226 0.050886743 -0.012764365 -0.022998301 0.036488198
-0.10711898 -0.020411208 0.044775117 0.08102334 -0.19430757 0.096163966 0.021217048 0.016158886
0.10725921 -0.008625482 0.07590223 0.04110109 0.04548993 -0.095465064 -0.0743544 -0.03373948
0.12941772 0.06885966 0.024344547 0.066619664 0.012575479 0.05594423 -0.011555817 0.04459345
0.20316215 -0.07342248 0.08471218 0.011260234 -0.098355144 0.011206755 -0.08566643 -0.028435024
0.08441433 -0.015593298 0.0763825 0.08890825 0.04387909 -0.119712554 0.07260562 -0.026968885
-0.15351433 -0.1063276 -0.05882293 -0.03592807 0.116287194 -0.021499148 0.0777484 -0.12128106
0.042724304 -0.101428986 -0.14693967 -0.058299813 -0.24789226 0.07291884 0.045477316 -0.16554938
-0.052213997 -0.12576106 -0.033274878 0.13677084 0.07510798 -0.07735589 -0.00800178 0.03821113
-0.038043477 0.13869055 -0.058031645 -0.09223235 -0.054365072 0.124216005 -0.019422974 0.028466519
-0.14149873 -0.11078094 -0.064068146 -0.11879492 0.022799391 0.08651231 0.061200317 -0.19743669
-0.08527068 0.018517122 0.08682684 0.08588624 0.035659194 0.027624914 -0.11932584 0.0060626776
0.009202939 -0.037588242 -0.10472483 0.0743815 0.063007586 -0.05451923 0.14087395 0.14014818
0.11076204 0.10012776 -0.03313642 -0.08555694 -0.06953406 0.09215308 -0.13589238 -0.015447785
0.05228031 -0.130613 -0.027486281 -0.07118383 0.13472615 -0.056230355 -0.09719323 0.06857939
-0.06435735 -0.18510127 -0.083490215 0.103239164 0.11307834 0.08459003 0.0054624514 0.076936945
-0.11189064 0.07057452 -0.046010394 0.041473124 -0.10414998 0.09998918 -0.114650935 0.09568262
-0.057908278 0.04833729 -0.1401974 -0.09439002 -0.1148804 0.061206833 -0.006461241 -0.16169998
-0.09614198 0.1295003 0.032246258 0.012469946 0.11335881 -0.025894297 -0.025793688 0.10432919
00000000: 6a0e 053e 62a7 a73c e114 ce3d 6ac6 59bd
00000010: ae62 6fbd 9848 233c 9e79 48bc 651d 1a3e
00000020: 01da 86bc 5040 0a3e c513 15bd 2170 28bd
00000030: 68ea 26bd d132 e63b 164a 56be 7bde 8c3d
00000040: 109a 29be eda3 0ebe 0026 f3bd 0e55 c5bd
00000050: 3946 953b 740b 8fbc 1d20 963d 8a5d 1a3c
00000060: ff09 b03d fd93 77bd 98ff bc3c a8aa fa3d
00000070: 8b16 ed3d b2b2 5b3d 5f2f 073c af20 403d
00000080: 9e6f 253d 3f77 a6bd ab8a 84bd 3090 823d
00000090: fdb6 5fbc be38 313d c904 a3bd edb0 32be
000000a0: 7e41 0cbe 0305 8b3d d905 c23d b477 82bd
000000b0: 04b6 7abd 9e44 afbd 963d 2abd 1620 b7bd
000000c0: 03dc 043e cee1 44be 63d8 e1bc f691 0e3c
000000d0: e63a baba e04b dc3d 44ed 90bd 7576 863d
000000e0: 85b5 87bd ea9f ebbd 7284 cabd 0c3b f9bc
000000f0: 3a64 f83d c1b7 0d3d b9a0 783c 949c bb3d
00000100: 86cf ce3d d531 0d3e 5f53 643d 6f53 08bd
00000110: 78c7 f53d 71c6 e03d 64ef 273e 476d ffbd
00000120: 3bfa 133d 2751 a93d 188c 6ebd 4c7a b8bc
00000130: f71e da3c 17e6 e63d 17e1 ecbd 676c e3bc
00000140: 0a01 34be 7259 5abd 4802 ce3a e9ef f33c
00000150: 6b00 30be a5dd 2a3e 03bb 1bbe e8e4 38be
00000160: 7ee2 adbd 117b f93d 42e5 9dbd e297 85bd
00000170: a8e6 063e 94d1 b2bd 678a 1bbd 6ce5 db3c
00000180: ee03 3b3e a406 cf3d bbac 4fbd 4599 d1bd
00000190: 4b48 d03d 65ac 4b3d f926 25bc e52a f4bd
000001a0: a52c 243d d0bd eebd 4ded 35be 3cfa da3d
000001b0: 9e6e 503d a121 51bc ef66 bcbc a674 153d
000001c0: 3261 dbbd 6835 a7bc 1d66 373d 91ef a53d
000001d0: 90f8 46be 9df1 c43d 60cf ad3c a45f 843c
000001e0: b7aa db3d e551 0dbc a172 9b3d 9e59 283d
000001f0: a653 3a3d 3083 c3bd 1f47 98bd 6932 0abd
00000200: 1486 043e 4b06 8d3d 376e c73c e46f 883d
00000210: 6209 4e3c c725 653d 9c54 3dbc 9fa7 363d
00000220: bd09 503e 865e 96bd 947d ad3d d87c 383c
00000230: 6c6e c9bd 8a9c 373c e271 afbd 91f0 e8bc
00000240: 6ce1 ac3d 087b 7fbc 6e6e 9c3d 8715 b63d
00000250: 90ba 333d db2b f5bd 41b2 943d daed dcbc
00000260: dc32 1dbe 49c2 d9bd 50f0 70bd 5029 13bd
00000270: fb27 ee3d fb1e b0bc 8e3a 9f3d 3462 f8bd
00000280: aeff 2e3d 00ba cfbd 5a77 16be c9cb 6ebd
00000290: 78d7 7dbe 7956 953d 6c46 3a3d c785 29be
000002a0: 58de 55bd 82c7 00be 3d4b 08bd a80d 0c3e
000002b0: 36d2 993d c46c 9ebd e619 03bc 4683 1c3d
000002c0: 7ad3 1bbd e504 0e3e 97b2 6dbd 50e4 bcbd
000002d0: e9ad 5ebd f664 fe3d ee1c 9fbc 9e32 e93c
000002e0: 0be5 10be 1ee1 e2bd 2936 83bd c04a f3bd
000002f0: cac5 ba3c 5e2d b13d 2fad 7a3d d82c 4abe
00000300: 65a2 aebd 38b1 973c 45d2 b13d 20e5 af3d
00000310: 600f 123d a54d e23c 1b61 f4bd 6da9 c63b
00000320: edc7 163c 21f6 19bd f979 d6bd 5455 983d
00000330: 1f0a 813d 8e4f 5fbd 4341 103e 0183 0f3e
00000340: 35d7 e23d c80f cd3d 0eba 07bd 7a38 afbd
00000350: e067 8ebd c1ba bc3d 5f27 0bbe b518 7dbc
00000360: e123 563d 6abf 05be e92a e1bc d4c8 91bd
00000370: a7f5 093e cd51 66bd 3f0d c7bd 5a73 8c3d
00000380: c9cd 83bd 308b 3dbe ebfc aabd 0e6f d33d
00000390: 9e95 e73d 8a3d ad3d 5dfe b23b 1e91 9d3d
000003a0: eb26 e5bd 6089 903d 6575 3cbd b9df 293d
000003b0: 964c d5bd 21c7 cc3d 1cce eabd 40f5 c33d
000003c0: 3b31 6dbd 52fd 453d e88f 0fbe 8e4f c1bd
000003d0: 6a46 ebbd 04b4 7a3d d1b8 d3bb ae94 25be
000003e0: 16e6 c4bd ba9b 043e a714 043d bf4e 4c3c
000003f0: aa28 e83d 4720 d4bc 494d d3bc 8baa d53d

actor.actor.2.weight f4 [256, 512]
-0.07802023 -0.013903007 0.0092319455 -0.13312304 -0.09039294 0.037285335 -0.030698532 -0.10506704
0.055755574 -0.07869355 0.0125325015 0.029450797 -0.045517646 -0.067160495 0.014353772 -0.046764065
0.015434579 0.108351186 -0.037967745 -0.020947104 -0.0020799525 0.050731786 -0.016551608 -0.061364237
0.030557323 -0.01905315 0.005385565 -0.09860989 0.0006328552 0.014957843 -0.03619235 -0.057063714
-0.037807077 -0.028162993 -0.0057617524 0.026458716 0.03259863 0.009918013 4.221121e-05 -0.036648467
0.011107313 0.032621138 -0.026279302 -0.011283207 -0.0538024 0.06991454 -0.004113669 -0.0104955
-0.053512 0.011499933 -0.11307475 0.020491991 0.09821198 0.015540763 0.03457434 -0.005874819
-0.0050479304 -0.0050601675 0.040283114 0.028891949 0.044632092 -0.13579613 -0.06982038 -0.052480184
-0.022094628 0.0496184 -0.0821266 0.016418155 0.06123935 0.012906755 -0.001703488 0.05860533
-0.09449223 0.08206143 -0.02076162 0.10350428 -0.017522229 -0.073708706 0.0071417755 -0.081859484
0.109614916 -0.025667626 -0.070817485 -0.06397164 0.0604569 -0.0126970345 -0.120705076 0.032147437
0.064934835 -0.10002637 -0.0105709825 0.05021471 -0.045758154 -0.05602728 0.009619574 0.063214734
-0.10358506 -0.086594135 -0.050724167 0.023608515 0.023823116 0.024851771 -0.017526055 0.039790343
-0.11593984 -0.06699652 -0.018224334 -0.052545287 -0.017534006 -0.15668556 0.06010242 -0.034802534
-0.030428587 -0.040512357 -0.03369074 -0.07989752 -0.037108354 0.03377339 0.036180124 0.06819993
-0.06666907 -0.031585805 -0.00955652 -0.05425844 0.030665498 0.022496076 0.06991377 -0.048796464
0.015124225 -0.2304721 -0.010623899 -0.11045037 0.10077028 -0.058692604 0.010440311 -0.0022741533
-0.06167196 -0.12162377 -0.07991718 -0.06878874 -0.019529482 0.014199002 0.035183042 0.07282719
0.0056811916 -0.083934925 0.026563535 -0.068575226 -0.013620493 -0.11133396 -0.023158925 -0.06577242
0.059268817 0.0062835845 0.009276315 -0.04197436 -0.09079821 -0.091175616 -0.05941509 0.07976317
-0.047713965 -0.032995436 0.0328994 -0.06494597 -0.025926359 -0.07344888 0.061274987 0.103014566
0.0015760214 0.052353345 0.029696459 0.02353226 -0.038806375 -0.020600358 -0.09422541 0.06263981
-0.13527712 -0.033651218 -0.027579844 0.05919748 -0.036695834 -0.08005232 0.0008391171 0.019356113
-0.11423842 0.0782828 -0.07748496 -0.035906415 0.06907954 -0.0068472475 -0.15460569 0.035701618
-0.0028212601 0.023968427 0.020632934 0.0113640055 -0.0077867946 -0.15589234 -0.019047374 0.07604189
0.047630835 0.069609575 -0.0829424 0.05152882 -0.051104292 -0.04308592 -0.028138753 -0.042139072
0.031663973 -0.021918962 0.015648065 0.05160952 -0.05323179 0.052502062 -0.10586349 -0.10263237
0.038918916 -0.06337385 -0.0003388659 0.053866286 0.005091914 -0.051468886 -0.010716958 -0.029481977
-0.0053819246 0.022123354 -0.03941709 0.111711994 -0.011504935 -0.083601646 -0.06236169 -0.04246159
0.008230514 0.044508267 -0.0025820825 -0.024960702 0.0025744096 -0.060141467 0.010172427 0.01922961
-0.01977949 0.0036465228 -0.008063732 3.8744336e-05 -0.0039040481 0.002900268 0.097959876 0.00047925056
-0.039143894 -0.06320641 0.12422096 0.044868376 0.0068481667 -0.025927268 -0.013060007 -0.044120025
00000000: 12c9 9fbd 70c9 63bc 9641 173c 6851 08be
00000010: ef1f b9bd 82b8 183d 7d7b fbbc 632d d7bd
00000020: f55f 643d 152a a1bd 1f55 4d3c cc42 f13c
00000030: b670 3abd 718b 89bd 152c 6b3c ad8b 3fbd
00000040: 51e1 7c3c 3ae7 dd3d 1184 1bbd 4399 abbc
00000050: d04f 08bb 22cc 4f3d 3d97 87bc 1159 7bbd
00000060: 5a53 fa3c 5a15 9cbc 6579 b03b fbf3 c9bd
00000070: 32e6 253a be11 753c 6e3e 14bd a4bb 69bd
00000080: 98db 1abd 14b6 e6bc 15cd bcbb f3bf d83c
00000090: 2486 053d 297f 223c f10b 3138 b41c 16bd
000000a0: 73fb 353c be9d 053d b147 d7bc 33dd 38bc
000000b0: e85f 5cbd 5b2f 8f3d f5cb 86bb 51f5 2bbc
000000c0: 662f 5bbd 376a 3c3c bc93 e7bd d2de a73c
000000d0: 5d23 c93d af9e 7e3c d39d 0d3d 8e81 c0bb
000000e0: 1c69 a5bb c3cf a5bb e8ff 243d cfae ec3c
000000f0: 24d0 363d 240e 0bbe fdfd 8ebd 76f5 56bd
00000100: cbff b4bc aa3c 4b3d fe31 a8bd 5e7f 863c
00000110: 1dd6 7a3d db76 533c 9247 dfba 240c 703d
00000120: 2485 c1bd d30f a83d 4614 aabc 0dfa d33d
00000130: c78a 8fbc 97f4 96bd 8e05 ea3b f2a5 a7bd
00000140: c97d e03d ea44 d2bc c208 91bd 9003 83bd
00000150: a8a1 773d 3907 50bc 3934 f7bd 08ad 033d
00000160: 8efc 843d a0da ccbd ea31 2dbc f1ad 4d3d
00000170: e76c 3bbd dc7c 65bd 6b9b 1d3c ba76 813d
00000180: 6724 d4bd 4458 b1bd 25c4 4fbd a566 c13c
00000190: b228 c33c f195 cb3c cd92 8fbc 33fb 223d
000001a0: de71 edbd 7935 89bd 334b 95bc ba39 57bd
000001b0: 7aa3 8fbc 2e72 20be f52d 763d 1a8d 0ebd
000001c0: 5f45 f9bc 49f0 25bd 4dff 09bd 50a1 a3bd
000001d0: eefe 17bd f755 0a3d 9c31 143d 68ac 8b3d
000001e0: cb89 88bd 1e60 01bd f392 1cbc 193e 5ebd
000001f0: 3636 fb3c b149 b83c f32e 8f3d cdde 47bd
00000200: 99cb 773c e100 6cbe dd0f 2ebc ce33 e2bd
00000210: a660 ce3d a867 70bd d70d 2b3c f609 15bb
00000220: bd9b 7cbd e215 f9bd 9eab a3bd 1ce1 8cbd
00000230: 4bfc 9fbc eea2 683c 181c 103d 6c26 953d
00000240: 4a29 ba3b 13e6 abbd c59b d93c 2b71 8cbd
00000250: 7d28 5fbc 0f03 e4bd c9b7 bdbc b1b3 86bd
00000260: dcc3 723d 87e6 cd3b affb 173c 4eed 2bbd
00000270: 69f4 b9bd 48ba babd 3d5d 73bd df5a a33d
00000280: b86f 43bd 3926 07bd 85c1 063d 6502 85bd
00000290: 8463 d4bc 5e6c 96bd 7bfb 7a3d 4df9 d23d
000002a0: 8192 ce3a 7670 563d fd45 f33c bac6 c03c
000002b0: 6ff3 1ebd 15c2 a8bc 40f9 c0bd 4d49 803d
000002c0: 1686 0abe dcd5 09bd 20ef e1bc 0f79 723d
000002d0: 5f4e 16bd 79f2 a3bd 32f8 5b3a b690 9e3c
000002e0: d5f5 e9bd bc52 a03d 6fb0 9ebd 9b12 13bd
000002f0: 9379 8d3d e05e e0bb f450 1ebe dc3b 123d
00000300: e4e4 38bb 6f59 c43c 6606 a93c 1830 3a3c
00000310: 5e28 ffbb 3ea2 1fbe 3d09 9cbc dabb 9b3d
00000320: 8d18 433d 778f 8e3d b4dd a9bd e20f 533d
00000330: bc52 51bd dd7a 30bd 3e83 e6bc 059a 2cbd
00000340: 15b2 013d 658f b3bc 5f30 803c 8164 533d
00000350: 9409 5abd 670c 573d f5ce d8bd ec30 d2bd
00000360: 7169 1f3d 26ca 81bd d0a9 b1b9 e5a2 5c3d
00000370: 12da a63b 0ad1 52bd 2e96 2fbc 3084 f1bc
00000380: db5a b0bb 093c b53c d173 21bd 42c9 e43d
00000390: 327f 3cbc 5737 abbd f96e 7fbd 34ec 2dbd
000003a0: 47d9 063c 4d4e 363d 2838 29bb 637a ccbc
000003b0: 6db7 283b e656 76bd 40aa 263c 6a87 9d3c
000003c0: 9908 a2bc 80fa 6e3b be1d 04bc 6a81 2238
000003d0: 0fdb 7fbb 6c12 3e3b 309f c83d ec43 fb39
000003e0: 5955 20bd 5d72 81bd 8f67 fe3d e7c7 373d
000003f0: 9666 e03b 6c65 d4bc a4f9 55bc 33b7 34bd

actor.actor.2.bias f4 [256]
-0.06480313 -0.045963813 0.044829473 -0.0028441595 -0.11137315 -0.006128782 -0.05392482 -0.06890035
-0.025389908 -0.0815786 -0.08264448 -0.044133745 -0.08836326 -0.029923055 -0.03454391 -0.020280296
-0.072449215 -0.091119744 -0.024105659 -0.032623664 -0.03571607 -0.08562373 -0.022345077 -0.034325857
-0.030696029 -0.001690606 -0.048568483 -0.054073926 -0.0010414602 -0.06156839 -0.115090385 -0.06510397
-0.07864329 -0.031547423 -0.017855525 -0.033719677 0.00853982 -0.005247051 0.036231782 -0.08390144
-0.11480511 0.039047386 -0.036728155 -0.06153876 -0.077097684 -0.03425049 -0.08439377 0.04544058
-0.00088428176 -0.013116782 -0.034414057 0.013288173 0.042916674 -0.039925758 -0.021676464 -0.09169794
-0.05132899 -0.070450254 -0.07329227 -0.06640284 0.020135442 0.0064990167 -0.066930935 0.0076412847
-0.10178077 -0.06478193 -0.066169806 -0.031778034 -0.12845165 0.00544368 0.043551587 -0.016013553
0.0037906978 -0.0069168406 0.013561307 0.017018545 -0.0369015 -0.007060633 0.01798661 -0.054209076
-0.07575567 -0.08602614 -0.006335605 -0.11763832 -0.035779133 -0.05968255 -0.046317607 0.022139082
-0.02745799 -0.0517043 -0.055555683 -0.038677763 -0.04356417 -0.07432257 -0.022217406 -0.031160828
-0.007088501 -0.0421901 -0.035667103 -0.011361034 -0.008195761 -0.017559977 -0.052025314 -0.122639745
-0.10812722 -0.02759362 0.025642904 0.027686708 -0.019077867 -0.027265849 0.06231805 -0.02166777
-0.111316815 -0.08753383 -0.047304157 -0.05943991 -0.040004455 -0.05991504 -0.00095330196 0.03480257
0.0017089357 0.002784082 0.01493938 -0.046435483 -0.025548223 -0.093030356 -0.0076155057 -0.06025428
0.0046638004 -0.03060989 -0.119059026 -0.0018016077 0.015623481 -0.045663953 -0.09449829 -0.06655034
0.004133208 -0.07060401 -0.054813113 0.009624372 0.022549238 -0.12766998 0.013513398 0.013607029
-0.011408677 -0.08740642 0.04125868 -0.0807592 -0.08642205 -0.006404306 -0.015277999 0.015297992
-0.10092115 -0.08413809 -0.044480786 -0.037370533 -0.017808393 -0.085435145 -0.05609426 -0.074440345
0.040658098 -0.08223216 -0.04283692 -0.06311663 0.032003216 -0.024511375 -0.0151278395 0.020083142
-0.055184156 0.010854152 -0.017352574 -0.012315738 -0.04463141 -0.0022921995 -0.0027017447 -0.07140537
-0.04721959 0.01006144 0.037786983 -0.018284477 -0.07082882 0.03259631 -0.08838272 -0.096289925
-0.0802204 -0.02504315 -0.028960219 -0.021358375 -0.021439847 -0.049040712 -0.037649717 0.017860964
-0.06863156 -0.038343944 -0.0687745 -0.043307487 -0.0054849405 0.0166295 -0.037243042 -0.08102921
0.003026797 0.044243433 -0.024760101 -0.05105074 -0.053857375 0.0028991026 -0.039350193 -0.010547791
-0.06051082 -0.092665724 -0.066453636 0.03416084 -0.03202396 -0.020031994 -0.023140155 -0.052576493
-0.064469285 -0.07129617 -0.0838797 -0.052311968 -0.03590045 0.00088698894 -0.0050742985 -0.12204077
-0.03443878 0.009679543 -0.022128554 -0.077155024 0.013269938 -0.050721258 -0.017277166 -0.15145934
-0.017630808 -0.062363017 -0.0070508234 -0.0897111 -0.0070628617 -0.0012096616 0.02035434 -0.015213342
-0.034264438 -0.015082936 -0.13133204 -0.13150151 -0.043847416 -0.03851708 -0.00088722305 -0.02951539
0.0060703554 -0.017158765 -0.024549909 -0.027732791 -0.045578167 -0.1114875 -0.0006259527 -0.004957982
00000000: 81b7 84bd 8d44 3cbd 1c9f 373d 1465 3abb
00000010: 9b17 e4bd f3d3 c8bb 46e0 5cbd a01b 8dbd
00000020: 7ffe cfbc ae12 a7bd 8241 a9bd 96c5 34bd
00000030: ccf7 b4bd 3221 f5bc ea7d 0dbd dd22 a6bc
00000040: 4160 94bd fd9c babd 3b79 c5bc 64a0 05bd
00000050: 044b 12bd 7f5b afbd 060d b7bc 4599 0cbd
00000060: 3d76 fbbc 5397 ddba bfef 46bd 9f7c 5dbd
00000070: 9b81 88ba 232f 7cbd 82b4 ebbd 3b55 85bd
00000080: bc0f a1bd df37 01bd c045 92bc a51d 0abd
00000090: 9aea 0b3c 74ef abbb c767 143d 85d4 abbd
000000a0: f11e ebbd 27f0 1f3d 4370 16bd 1110 7cbd
000000b0: 64e5 9dbd 3e4a 0cbd a4d6 acbd e71f 3a3d
000000c0: 25cf 67ba c5e7 56bc c1f5 0cbd a3b6 593c
000000d0: 65c9 2f3d 3189 23bd d792 b1bc 21cc bbbd
000000e0: 593e 52bd 3948 90bd 421a 96bd 36fe 87bd
000000f0: 15f3 a43c b4f5 d43b 1613 89bd be63 fa3b
00000100: 7072 d0bd 63ac 84bd 0984 87bd af29 02bd
00000110: d488 03be e660 b23b 2663 323d db2e 83bc
00000120: 5b6d 783b aaa6 e2bb 3f30 5e3c 7a6a 8b3c
00000130: 0726 17bd e25c e7bb a858 933c 560a 5ebd
00000140: ca25 9bbd 792e b0bd e89a cfbb 5cec f0bd
00000150: 248d 12bd b175 74bd 88b7 3dbd 055d b53c
00000160: 94ef e0bc e3c7 53bd 5b8e 63bd 936c 1ebd
00000170: 5870 32bd 6e36 98bd 4701 b6bc fe44 ffbc
00000180: a846 e8bb 87cf 2cbd ab17 12bd a123 3abc
00000190: 8347 06bc f1d9 8fbc 7f18 55bd 8c2a fbbd
000001a0: ce71 ddbd 040c e2bc 1111 d23c 3ccf e23c
000001b0: 3049 9cbc a15c dfbc 3641 7f3d 9b80 b1bc
000001c0: 12fa e3bd f044 b3bd 01c2 41bd 4377 73bd
000001d0: b6db 23bd 7969 75bd 03e7 79ba 248d 0e3d
000001e0: 5efe df3a 2575 363b 4dc4 743c 2233 3ebd
000001f0: 824a d1bc b386 bebd 7e8b f9bb 31cd 76bd
00000200: cbd2 983b 98c1 fabc 38d5 f3bd ec23 ecba
00000210: a1f9 7f3c 200a 3bbd 5288 c1bd 8b4b 88bd
00000220: dd6f 873b d698 90bd b783 60bd 8baf 1d3c
00000230: 2eb9 b83c ebbb 02be 4d67 5d3c 04f0 5e3c
00000240: 76eb 3abc 2302 b3bd ddfe 283d 1465 a5bd
00000250: 0bfe b0bd 36db d1bb 9350 7abc 6ea4 7a3c
00000260: bfaf cebd 9750 acbd 7c31 36bd d811 19bd
00000270: e8e2 91bc 9ff8 aebd 18c3 65bd 2e74 98bd
00000280: 1b89 263d 5669 a8bd c475 2fbd 4b43 81bd
00000290: ce15 033d 14cc c8bc c2da 77bc 6785 a43c
000002a0: c808 62bd 9dd5 313c fc26 8ebc f3c7 49bc
000002b0: 6dcf 36bd ba38 16bb c10f 31bb fb3c 92bd
000002c0: 5469 41bd bdd8 243c 86c6 1a3d 54c9 95bc
000002d0: b30e 91bd b583 053d 0002 b5bd a733 c5bd
000002e0: 984a a4bd 4b27 cdbc fb3d edbc c2f7 aebc
000002f0: 9ea2 afbc eade 48bd 9736 1abd 2851 923c
00000300: b48e 8cbd 8a0e 1dbd a5d9 8cbd 3163 31bd
00000310: 04bb b3bb 973a 883c 298c 18bd a4f2 a5bd
00000320: 3a5d 463b 9a38 353d b2d5 cabc 951a 51bd
00000330: 8d99 5cbd dffe 3d3b ab2d 21bd a4d0 2cbc
00000340: 32da 77bd 87c7 bdbd d818 88bd 3dec 0b3d
00000350: 8e2b 03bd 231a a4bc 6c90 bdbc 735a 57bd
00000360: 7908 84bd ba03 92bd 1fc9 abbd 1345 56bd
00000370: 5a0c 13bd d284 683a 4d46 a6bb 83f0 f9bd
00000380: ae0f 0dbd f296 1e3c f146 b5bc 7403 9ebd
00000390: 276a 593c 18c1 4fbd d888 8dbc 2818 1bbe
000003a0: 7c6e 90bc 5d70 7fbd 980a e7bb 74ba b7bd
000003b0: 946f e7bb 828d 9eba 25be a63c 6241 79bc
000003c0: de58 0cbd 6b1e 77bc e87b 06be 55a8 06be
000003d0: 5999 33bd 16c4 1dbd 8894 68ba 42ca f1bc
000003e0: d5e9 c63b 8a90 8cbc e41c c9bc e12f e3bc
000003f0: 2cb0 3abd 8f53 e4bd fa16 24ba 9176 a2bb

actor.actor.4.weight f4 [128, 256]
0.077278145 -0.08101892 -0.08788215 0.09232172 -0.015053464 -0.013121886 0.16142757 0.10892846
0.11765577 0.003670772 0.19128948 -0.054640695 -0.0061358 -0.07093886 -0.041181136 -0.0015042832
-0.0117242085 0.07843359 0.021965194 -0.05005557 -0.014830594 0.060635477 0.08358618 0.09280227
-0.12447915 0.030560309 0.09124931 0.015695246 -0.006879057 -0.059663013 -0.03568086 0.050346162
0.022642177 -0.031836614 -0.02662882 -0.08404158 -0.03877908 0.03551759 -1.3268791e-05 -0.029490517
0.011493619 0.101832725 -0.09277449 0.018876389 -0.13482974 -0.00093648577 -0.08869519 -0.070772156
-0.12557195 -0.038738247 -0.00080509105 -0.11991998 -0.08939677 -0.047607604 0.037961096 -0.0018800923
-0.0021575324 0.003798785 -0.03805821 -0.101820804 -0.08179327 -0.069446415 -0.05325853 -0.038067054
0.013438982 0.0014342777 -0.14632328 -0.08978497 0.06932738 0.04891344 0.04723789 -0.023616392
0.020881364 -0.060556803 -0.022322495 -0.04984559 0.11427823 0.028710857 0.05135901 -0.029222526
-0.04031739 -0.039917536 -0.034541234 0.19669957 -0.022785334 -0.0598267 -0.09705267 0.027831621
-0.026191404 0.110752195 0.047834955 0.017232735 -0.0070225457 -0.10449625 -0.040124208 -0.07679448
0.038053464 0.014822044 0.016791157 0.05190247 0.0124804415 0.085682936 0.06900601 0.16759118
-0.038555942 0.09743935 -0.05824234 -0.08816919 0.108524956 -0.14252771 0.098947994 -0.10952672
-0.13014317 -0.079190604 -0.017791586 0.040990066 0.075268924 0.038865946 0.03953354 0.10503654
-0.12593998 -0.07088253 0.059677403 -0.018899078 -0.01045848 0.15727311 -0.018052712 -0.11427168
0.17171636 -0.018180903 -0.055719707 -0.040239785 -0.0017138859 -0.012590986 0.06835049 0.013573664
0.1096115 -0.025660876 0.047565382 0.098115504 0.013096075 0.03654658 -0.13233827 0.021672836
0.036674388 0.022775164 -0.039419394 0.026382368 0.18891656 0.011734147 0.029309036 -0.05337343
-0.034942504 0.0030381999 0.00776467 0.00096845336 -0.025407068 0.1063077 0.013475884 -0.0572973
-0.003578628 0.052164916 -0.050858732 -0.05618093 -0.005095729 -0.009324014 0.016720887 -0.040184963
-0.09466464 0.14338991 -0.0049290457 0.033351853 0.06630677 0.0084755635 -0.000104695435 -0.0419765
-0.16441931 -0.2542902 -0.08974777 -0.18742463 -0.09375686 0.051912338 -0.034250923 0.020747703
-0.02895143 -0.10298204 -0.031861827 -0.018776389 0.052896578 0.010037572 -0.13763432 0.036998753
-0.07772959 -0.017209973 0.14159931 -0.031336233 -0.06076568 0.0005777063 0.024608575 -0.011314341
-0.017423036 -0.0032083485 -0.09950305 0.0028830552 -0.014304659 0.04951105 0.056294035 0.1045206
0.029228788 0.0027903102 -0.036706764 -0.053744633 -0.039417714 -0.17283876 -0.04022187 0.007003919
0.10527577 -0.100748874 0.03273494 -0.036961485 -0.0015428454 -0.04595868 -0.017398506 -0.0011044571
0.0741947 -0.08377146 -0.08091432 -0.018523265 0.008705442 -0.07226447 -0.0005513028 0.04078486
-0.002146484 0.035758357 -0.106826976 -0.120030254 0.019520562 0.05512542 0.018667845 0.016807899
0.088233694 -0.052375883 -0.035740193 0.0505743 0.023504684 -0.051797006 0.14829065 -0.016212676
-0.11749918 -0.08068225 0.02526956 -0.25496385 0.09213387 -0.11085216 -0.0054080933 -0.1573928
00000000: 0144 9e3d 3fed a5bd 8ffb b3bd 2c13 bd3d
00000010: cea2 76bc 2efd 56bc 454d 253e e215 df3d
00000020: 82f5 f03d 5691 703b 64e1 433e ecce 5fbd
00000030: d20e c9bb 6548 91bd 8dad 28bd 5e2b c5ba
00000040: e516 40bc caa1 a03d 5af0 b33c 1207 4dbd
00000050: 05fc 72bc e85c 783d 3b2f ab3d 1e0f be3d
00000060: edee febd 9d59 fa3c ebe0 ba3d 5193 803c
00000070: b669 e1bb 3461 74bd 1826 12bd c737 4e3d
00000080: 167c b93c 1c67 02bd af24 dabc fe1d acbd
00000090: d0d6 1ebd e47a 113d 069d 5eb7 1996 f1bc
000000a0: bb4f 3c3c ad8d d03d 8d00 bebd a8a2 9a3c
000000b0: cf10 0abe 7f7e 75ba d3a5 b5bd fef0 90bd
000000c0: ef95 00be ffab 1ebd bf0c 53ba 9b98 f5bd
000000d0: a715 b7bd 3100 43bd 187d 1b3d 6e6d f6ba
000000e0: 6365 0dbb 09f5 783b ede2 1bbd 6d87 d0bd
000000f0: 3b83 a7bd ec39 8ebd 9e25 5abd 33ec 1bbd
00000100: 2d2f 5c3c 60fe bb3a c5d5 15be 2fe1 b7bd
00000110: 83fb 8d3d 7659 483d 857c 413d 2a77 c1bc
00000120: 650f ab3c 690a 78bd aadd b6bc e42a 4cbd
00000130: b40a ea3d 0833 eb3c d35d 523d 1464 efbc
00000140: d923 25bd 9280 23bd 1c7b 0dbd 9d6b 493e
00000150: 4fa8 babc d70c 75bd 8dc3 c6bd 24ff e33c
00000160: 5b8f d6bc 0cd2 e23d 96ee 433d aa2b 8d3c
00000170: 621d e6bb 2102 d6bd 4859 24bd 6d46 9dbd
00000180: f3dd 1b3d 29d8 723c 9c8d 893c af97 543d
00000190: c47a 4c3c 897a af3d 0653 8d3d 069d 2b3e
000001a0: d6ec 1dbd 488e c73d 858f 6ebd 0c92 b4bd
000001b0: 5542 de3d c9f2 11be 3fa5 ca3d 8c4f e0bd
000001c0: 4044 05be af2e a2bd a9bf 91bc 33e5 273d
000001d0: 9826 9a3d e631 1f3d eced 213d 661d d73d
000001e0: 69f6 00be dc2a 91bd 4b70 743d 3dd2 9abc
000001f0: 0b5a 2bbc 340c 213e 48e3 93bc 4507 eabd
00000200: 6ad6 2f3e 1ef0 94bc 593a 64bd 79d2 24bd
00000210: 78a4 e0ba 6c4a 4ebc 57fb 8b3d 1364 5e3c
00000220: fe7b e03d c236 d2bc ebd3 423d c8f0 c83d
00000230: eb90 563c deb1 153d af83 07be 3b8b b13c
00000240: e237 163d fb92 ba3c 3b76 21bd d61f d83c
00000250: 5873 413e 9440 403c 8119 f03c 199e 5abd
00000260: df1f 0fbd 891c 473b c66e fe3b cedf 7d3a
00000270: 7c22 d0bc dab7 d93d f4c9 5c3c 93b0 6abd
00000280: 6a87 6abb e1aa 553d 3f51 50bd fa1d 66bd
00000290: 13fa a6bb c0c3 18bc 3efa 883c fd98 24bd
000002a0: 89df c1bd ced4 123e d583 a1bb f49b 083d
000002b0: d8cb 873d 17dd 0a3c ef8f dbb8 8def 2bbd
000002c0: 895d 28be 5332 82be aecd b7bd 3eec 3fbe
000002d0: 9903 c0bd 08a2 543d b24a 0cbd 16f7 a93c
000002e0: 8d2b edbc 3fe8 d2bd 8c81 02bd f1d0 99bc
000002f0: 15aa 583d a174 243c 03f0 0cbe 018c 173d
00000300: b130 9fbd eefb 8cbc 69ff 103e 6c5a 00bd
00000310: 6fe5 78bd 3771 173a ec97 c93c c95f 39bc
00000320: c1ba 8ebc 2843 52bb 41c8 cbbd a4f1 3c3b
00000330: 175e 6abc 19cc 4a3d 9394 663d e50e d63d
00000340: 3671 ef3c a3dd 363b d559 16bd 5523 5cbd
00000350: 7874 21bd a5fc 30be b0bf 24bd 2281 e53b
00000360: d39a d73d 6d55 cebd 1315 063d ed64 17bd
00000370: 4d39 caba 2b3f 3cbd 5087 8ebc 6ec3 90ba
00000380: 64f3 973d 5f90 abbd 68b6 a5bd 1abe 97bc
00000390: 45a1 0e3c 65ff 93bd 4e85 10ba 060e 273d
000003a0: 07ac 0cbb 5b77 123d 1ac8 dabd 6cd2 f5bd
000003b0: 96e9 9f3c 31cb 613d 4fed 983c b8b0 893c
000003c0: deb3 b43d 1888 56bd 4f64 12bd ff26 4f3d
000003d0: e58c c03c 1929 54bd 81d9 173e 72d0 84bc
000003e0: 69a3 f0bd bc3c a5bd 1c02 cf3c 9f8a 82be
000003f0: afb0 bc3d 7506 e3bd 6036 b1bb 942b 21be

actor.actor.4.bias f4 [128]
-0.018714244 0.03286294 -0.052884236 0.019421553 -0.0017643896 -0.017269824 -0.01161887 -0.046692733
0.033300616 0.014616962 0.00057425234 -0.038849074 -0.022212425 -0.07045908 -0.054043215 0.026517961
-0.05974073 -0.05148997 -0.03830185 -0.0096182665 -0.062564194 -0.19263121 -0.048250925 0.029638717
-0.025710704 -0.027245864 0.010377405 -0.028867966 0.007908593 -0.029145278 0.003476509 -0.06096841
-0.065617874 -0.046939023 -0.0493831 -0.026045896 0.022947682 0.02088797 -0.050966017 0.0013511254
-0.055253513 -0.05771679 0.028169375 -0.03340854 0.00928475 -0.040502165 -0.0788312 0.019684374
0.0009827386 -0.061781567 -0.060125038 -0.076874875 -0.0063571357 -0.013510034 -0.035129823 -0.036834713
-0.004930802 -0.029021624 -0.04753339 -0.06570848 -0.057463992 -0.08141205 -0.036911305 -0.118368044
-0.025527824 0.023412393 -0.02694247 -0.034261752 -0.07737582 0.01193352 -0.0006914865 -0.054977063
0.030667033 -0.049558323 0.053091753 -0.030484762 0.0599067 -0.02683171 -0.05729625 0.008200593
-0.007343791 -0.07511021 0.008419314 -0.067271024 -0.020383677 0.00506865 -0.08966009 -0.012477082
-0.062073637 -0.07797205 -0.093053944 -0.029828465 0.049755335 -0.029555244 0.07414858 -0.09690241
-0.0122759715 -0.024953863 -0.054574333 -0.03329988 -0.047580194 0.01588428 -0.030774724 -0.048812494
0.042087033 -0.03902375 -0.04293713 0.008566118 -0.074791476 -0.041638307 -0.014860567 -0.06342577
-0.056215465 -0.026569778 -0.036343087 -0.061701797 -0.06496373 0.0025685201 0.0009292408 -0.07489416
-0.028070439 -0.04010769 0.009635569 -0.0048701274 0.01093402 -0.013825307 0.045509007 -0.085984536
00000000: 9d4e 99bc 4a9b 063d 249d 58bd f319 9f3c
00000010: 1743 e7ba 7279 8dbc 135d 3ebc e140 3fbd
00000020: 3a66 083d fb7b 6f3c 6c89 163a 3520 1fbd
00000030: d5f6 b5bc da4c 90bd 6b5c 5dbd 323c d93c
00000040: b2b2 74bd 26e7 52bd 67e2 1cbd ef95 1dbc
00000050: a821 80bd 1e41 45be c3a2 45bd e5cc f23c
00000060: 419f d2bc b832 dfbc fe05 2a3c 837c ecbc
00000070: 0b93 013c 14c2 eebc 24d6 633b 03ba 79bd
00000080: aa62 86bd 2243 40bd ef45 4abd 345e d5bc
00000090: c7fc bb3c 401d ab3c bec1 50bd 3f18 b13a
000000a0: 8251 62bd 7168 6cbd 76c3 e63c 65d7 08bd
000000b0: 101f 183c 99e5 25bd 4172 a1bd 2041 a13c
000000c0: 3ccf 803a ab0e 7dbd ac45 76bd 9370 9dbd
000000d0: 854f d0bb 3159 5dbc 4ae4 0fbd ffdf 16bd
000000e0: 9192 a1bb c2be edbc 5fb2 42bd 2b92 86bd
000000f0: 5d5f 6bbd 5cbb a6bd 4f30 17bd f26a f2bd
00000100: ba1f d1bc 59cb bf3c 74b6 dcbc 0d56 0cbd
00000110: 3777 9ebd d084 433c e044 35ba a12f 61bd
00000120: 6e39 fb3c abfd 4abd bd76 593d 2ebb f9bc
00000130: ba60 753d 2dce dbbc 79af 6abd c85b 063c
00000140: 2fa4 f0bb 62d3 99bd 2af1 093c 64c5 89bd
00000150: abfb a6bc eb16 a63b b69f b7bd ad6c 4cbc
00000160: ed40 7ebd cfaf 9fbd 1193 bebd d35a f4bc
00000170: 40cc 4b3d d71d f2bc 36db 973d c574 c6bd
00000180: 2821 49bc 0b6c ccbc 5689 5fbd 7465 08bd
00000190: 73e3 42bd c01f 823c 461b fcbc 9cef 47bd
000001a0: 7463 2c3d 5ed7 1fbd d8de 2fbd e758 0c3c
000001b0: 462c 99bd ee8c 2abd bc79 73bc 5fe5 81bd
000001c0: 3042 66bd dda8 d9bc 7ddc 14bd 06bb 7cbd
000001d0: b40b 85bd 9e54 283b 4b98 733a 1c62 99bd
000001e0: faf3 e5bc f647 24bd 81de 1d3c 9795 9fbb
000001f0: 9b24 333c 8a83 62bc a767 3a3d a918 b0bd

actor.actor.6.weight f4 [12, 128]
0.08869324 0.09569864 -0.03211456 -0.012509079 -0.065476775 0.02467642 0.006451893 -0.0607786
0.06251249 0.05753982 0.019814726 0.037218664 -0.022162264 0.0012159834 -0.046316512 -0.07305503
-0.005354728 -0.032626383 -0.026993921 -0.006799075 -0.0012085836 -0.053427074 -0.09951411 0.012226635
-0.03240338 -0.03660189 0.06670189 0.024292776 -0.002469422 0.0068261456 0.023633745 0.004317196
-0.039693017 -0.008912407 -0.045406226 -0.045547172 -0.0043283817 0.07601359 -0.05388736 -0.03658696
-0.00921706 0.0014195726 0.073642865 -0.041845687 0.04566992 -0.029088408 -0.018902473 0.009974766
0.039358046 0.008684566 -0.048843045 0.018744158 0.06948764 -0.012147361 0.006369738 -0.02927271
-0.047862276 0.044705078 0.014030239 0.024993967 0.0049775015 -0.009234965 0.065858364 -0.07210306
0.021260358 0.035019085 0.048320837 0.041435707 -0.009433805 0.011014726 -0.0016746642 0.014907104
-0.026170459 0.021043062 0.00024788178 0.04889936 0.035867695 0.051435165 -0.06457456 0.0071237497
-0.05627051 -0.028297499 0.06394662 0.040876813 0.09736075 -0.00031066514 0.019373596 0.007554003
-0.04670302 0.017867927 0.035489317 0.10625244 0.03517137 -0.070612386 -0.0777686 -0.060669586
-0.023340315 -0.0013215606 -0.015043959 0.03467075 0.048836302 -0.041605737 -0.009338215 0.038497567
-0.066999346 0.045107573 -0.003955173 0.03118655 -0.01100905 -0.064801395 -0.036384877 -0.03744076
0.046794627 -0.069025405 -0.06460548 -0.043507174 -0.03912867 -0.029045248 -0.042085987 0.03819054
0.038263485 -0.011662787 0.05701476 -0.021820623 -0.021110423 0.0295104 0.028005071 -0.035126157
-0.14809303 -0.12402935 0.057731286 -0.019212231 0.03326827 0.0020107678 0.10489816 -0.0014752877
0.093647435 -0.13345736 -0.058883734 0.051022038 0.05151637 0.0009509668 -0.07030072 0.03796361
0.002446316 0.025617266 -0.08102407 0.022147793 -0.15051481 0.050131883 -0.12732132 -0.048899017
-0.17621507 0.06259923 0.002721634 0.041135456 0.032086268 0.0255787 -0.009907867 -0.04734875
0.05371496 0.011277225 -0.036503248 0.091383085 -0.07531662 0.102316685 -0.024032075 -0.0021776825
0.012046986 0.0042339405 -0.012869137 0.025896486 0.08774617 0.080997236 -0.097493336 0.09429651
-0.104899384 0.0361789 -0.027588425 0.10964614 0.089727454 -0.013852112 -0.03342674 -0.0090001095
0.07636011 -0.038916193 0.07098138 -0.027681336 -0.0704543 0.06660615 -0.07137595 0.049775314
-0.11326717 -0.009499102 -0.065565325 0.017424997 -0.049452014 -0.03445376 -0.0056610648 0.0046410505
-0.08575186 0.10233823 0.061409928 -0.07836428 -0.05104058 0.04921768 -0.042457636 0.0028812897
-0.04459798 -0.05407896 -0.034510285 -0.35965124 -0.10333442 0.047520936 0.060472727 0.0043778047
0.011650654 0.08385056 0.09514393 0.05547442 0.018719776 -0.03228284 0.054703914 -0.021314565
-0.12425029 -0.057482846 0.01397148 0.059651934 -0.0043893675 -0.08664182 -0.0074254344 -0.087861314
0.030231062 0.027090905 -0.12157955 -0.0064507625 -0.039920658 -0.04776613 -0.037298795 -0.024694419
0.019501507 -0.07900251 0.011250758 -0.10691974 0.033265416 0.00956611 0.0138152 0.033816475
-0.052508514 -0.124988124 0.044689476 0.050630804 0.0038116479 0.06289711 0.05197888 0.05082787
00000000: cda4 b53d a6fd c33d 8f8a 03bd e1f2 4cbc
00000010: b018 86bd 3426 ca3c 676a d33b fbf2 78bd
00000020: 8c06 803d e0ae 6b3d 7e52 a23c 9972 183d
00000030: a38d b5bc a261 9f3a 62b6 3dbd e09d 95bd
00000040: b776 afbb 3ea3 05bd 5b22 ddbc c6ca debb
00000050: 5669 9eba 59d6 5abd 0ece cbbd 3952 483c
00000060: 68b9 04bd ddeb 15bd 009b 883d a501 c73c
00000070: 07d6 21bb dcad df3b 8e9b c13c 4477 8d3b
00000080: 2595 22bd 5805 12bc e1fb 39bd ac8f 3abd
00000090: 19d5 8dbb 03ad 9b3d feb8 5cbd 35dc 15bd
000000a0: 2703 17bc f410 ba3a 12d2 963d 6266 2bbd
000000b0: 6210 3b3d d04a eebc 5cd9 9abc 336d 233c
000000c0: e735 213d b649 0e3c a50f 48bd 598d 993c
000000d0: 894f 8e3d ba05 47bc 3cb9 d03b 53cd efbc
000000e0: 3c0b 44bd ac1c 373d 16df 653c 26c0 cc3c
000000f0: 4f1a a33b 404e 17bc c0e0 863d c5aa 93bd
00000100: 342a ae3c 2c70 0f3d 12ec 453d 7db8 293d
00000110: 3f90 1abc 1c77 343c 6880 dbba ed3c 743c
00000120: 6e63 d6bc 8062 ac3c 21f6 8139 b24a 483d
00000130: 01ea 123d aead 523d ab3f 84bd 586e e93b
00000140: e87b 66bd 28d0 e7bc 72f6 823d 726e 273d
00000150: 1365 c73d c5e0 a2b9 60b5 9e3c 9287 f73b
00000160: aa4b 3fbd c25f 923c 3f5d 113d e19a d93d
00000170: db0f 103d 3a9d 90bd 2545 9fbd ac80 78bd
00000180: 3034 bfbc 3738 adba f07a 76bc eb02 0e3d
00000190: 9308 483d c76a 2abd 50ff 18bc a0af 1d3d
000001a0: f436 89bd b8c2 383d 659a 81bb f07a ff3c
000001b0: 4d5f 34bc 98b6 84bd 4f08 15bd 7b5b 19bd
000001c0: b9ab 3f3d 315d 8dbd e14f 84bd 9434 32bd
000001d0: 6245 20bd 4df0 edbc 5b62 2cbd af6d 1c3d
000001e0: 2cba 1c3d 4615 3fbc 4f88 693d 2ac1 b2bc
000001f0: c4ef acbc cbbf f13c e46a e53c 72e0 0fbd
00000200: b3a5 17be 1a03 febd a477 6c3d f862 9dbc
00000210: 4f44 083d 16c7 033b d9d4 d63d 715e c1ba
00000220: 3aca bf3d 0ca9 08be 1230 71bd 7cfc 503d
00000230: d402 533d 4d4a 793a d3f9 8fbd bb7f 1b3d
00000240: 5f52 203b 4ddb d13c f3ef a5bd 4a6f b53c
00000250: 8e20 1abe 1757 4d3d 8560 02be 564a 48bd
00000260: b971 34be 0634 803d 715d 323b a77d 283d
00000270: e46c 033d 6c8a d13c 9b54 22bc c3f0 41bd
00000280: 3804 5c3d 1cc4 383c 6e84 15bd 0e27 bb3d
00000290: 9a3f 9abd 698b d13d eade c4bc 73b7 0ebb
000002a0: b960 453c debc 8a3b 13d9 52bc de24 d43c
000002b0: 44b4 b33d e1e1 a53d 96aa c7bd 871e c13d
000002c0: 7dd5 d6bd 5430 143d 1f01 e2bc 288e e03d
000002d0: 07c3 b73d f8f3 62bc 7aea 08bd 3275 13bc
000002e0: b062 9c3d 9666 1fbd b05e 913d f8c3 e2bc
000002f0: 584a 90bd ce68 883d 8e2d 92bd 33e1 4b3d
00000300: 9ef8 e7bd 1fa2 1bbc 1d47 86bd debe 8e3c
00000310: 328e 4abd 631f 0dbd 7480 b9bb f413 983b
00000320: ac9e afbd b596 d13d fa88 7b3d 747d a0bd
00000330: ed0f 51bd 7a98 493d 0fe8 2dbd 05d4 3c3b
00000340: 5fac 36bd e681 5dbd a85a 0dbd 3524 b8be
00000350: ffa0 d3bd 50a5 423d 40b2 773d b073 8f3b
00000360: 62e2 3e3c d8b9 ab3d d2da c23d 2539 633d
00000370: 375a 993c 033b 04bd 3611 603d e29b aebc
00000380: f076 febd 2273 6bbd a2e8 643c 9655 743d
00000390: afd4 8fbb 4471 b1bd 0f51 f3bb a2f0 b3bd
000003a0: 22a7 f73c bfed dd3c b3fe f8bd eb60 d3bb
000003b0: d883 23bd 6ba6 43bd 9fc6 18bd f34b cabc
000003c0: a0c1 9f3c 11cc a1bd 1955 383c bdf8 dabd
000003d0: 5141 083d 2cbb 1c3c 2659 623c 2583 0a3d
000003e0: 2b13 57bd c6f9 ffbd 500c 373d 3f62 4f3d
000003f0: d7cc 793b 33d0 803d cee7 543d e230 503d

actor.actor.6.bias f4 [12]
-0.078630686 -0.01947822 -0.028948842 0.007436107 -0.09984978 0.061620966 0.020911597 0.00042382223
0.031765558 -0.05457423 0.0050370134 -0.052698515
00000000: 2009 a1bd ca90 9fbc 1f26 edbc 96aa f33b
00000010: 0b7e ccbd 4466 7c3d cc4e ab3c 7534 de39
00000020: 9a1c 023d 3a89 5fbd 880d a53b 66da 57bd

onnx::Div_36 f4 [1, 53]
0.4904163 0.25127244 0.49259287 0.7178045 0.7178045 0.7178045 0.7178045 0.71635634
0.7163564 0.7163564 0.71635634 0.11820491 0.16281995 0.16240028 0.12411747 0.1602413
0.15445165 0.1320887 0.21450648 0.16007221 0.13499905 0.2074956 0.17153516 2.8986888
2.779642 3.2213702 3.006566 2.8324912 3.2082121 3.168865 2.9941013 3.2621222
3.2635896 3.0169952 3.3254383 1.1862091 0.5258232 0.5247409 0.06487091 0.08700278
0.055628337 0.33720186 0.42359605 0.59270173 0.3683016 0.46197644 0.56307226 0.36986312
0.4630008 0.57175237 0.34539798 0.45557773 0.59798235
00000000: d817 fb3e c8a6 803e 2235 fc3e 09c2 373f
00000010: 09c2 373f 09c2 373f 09c2 373f 2163 373f
00000020: 2263 373f 2263 373f 2163 373f 6a15 f23d
00000030: 46ba 263e 424c 263e 4d31 fe3d 4c16 243e
00000040: 9328 1e3e 4342 073e 96a7 5b3e f8e9 233e
00000050: 313d 0a3e ba79 543e eaa6 2f3e 1e84 3940
00000060: a8e5 3140 ee2a 4e40 946b 4040 8947 3540
00000070: 5953 4d40 afce 4a40 5b9f 3f40 9cc6 5040
00000080: a7de 5040 7316 4140 fbd3 5440 b3d5 973f
00000090: 599c 063f 6b55 063f 0adb 843d 832e b23d
000000a0: 8ada 633d b9a5 ac3e 95e1 d83e 4dbb 173f
000000b0: 0792 bc3e 2d88 ec3e 8125 103f b35e bd3e
000000c0: 710e ed3e 5d5e 123f 01d8 b03e 7c41 e93e
000000d0: 5f15 193f
