src/ga_quadruped/policy/param_debug.onnx (onnx, 772885 bytes, 8 tensors)

actor.0.weight f4 [512, 52]
-0.16790825 -0.6765343 0.38635057 -0.7053149 0.5313263 0.06530559 0.12460903 -0.020681916
-0.030417094 0.24953038 0.058734905 -0.12077248 0.13146642 0.06360091 0.049336515 -0.1058778
-0.14126293 -0.45717493 -0.35467312 0.35892183 -0.10289361 0.2252018 0.16198383 0.5333214
-0.38191307 0.003380617 -0.18804921 0.038056705 -0.14082468 0.16118635 0.24197519 -0.06715747
-0.15508005 0.03028704 -0.08542929 0.11638898 -0.044723812 -0.08520986 -0.06398734 0.24840431
0.06479621 0.09728118 -0.0023560615 -0.029988335 0.024519918 -0.016027587 -0.05592362 -0.020245109
0.012462446 0.18271022 0.09366502 -0.07779749 0.2536639 0.24841665 0.15855548 0.229209
-0.60646135 -0.087795116 -0.076223135 0.24230075 -0.17650843 0.04356699 -0.12480879 -0.09360021
0.006935076 0.07857583 -0.0026198647 0.015092994 0.11202199 -0.06307751 -0.15953094 0.08640533
0.01727637 0.00044008455 0.38851526 -0.114576586 0.17609087 -0.25459704 0.5118663 0.08281965
-0.040879123 0.33557105 0.049038526 -0.14778692 0.08035307 0.34484574 -0.2049878 -0.42626378
-0.2017433 0.17603584 -0.045919813 0.020907955 0.09953935 0.034058113 -0.0055122147 -0.043320622
0.026575312 0.031674024 0.002352296 -0.05631736 0.0435913 -0.10248301 -0.065215215 -0.08129108
0.12782241 -0.08744711 -0.17191912 0.07504244 0.27925763 -0.019489074 -0.13306634 -0.13252454
-0.06953035 -0.1826879 -0.030585058 0.02394515 0.037981194 -0.116498604 -0.14340495 0.02113461
0.043175027 -0.0051329546 -0.04508398 -0.18415377 -0.012020878 -0.2069423 0.074892975 -0.14356826
0.16214243 -0.14886048 0.15746307 -0.25711963 0.04377405 -0.23132618 0.12875278 0.096105956
0.023133546 0.121443994 0.252611 0.26286402 -0.20282958 -0.18543972 0.061991945 -0.1911573
-0.025741247 0.0047362517 -0.058703803 0.0788256 0.07111722 0.0014182013 -0.041658506 -0.09260485
-0.012752162 -0.03081861 -0.046149086 0.020564143 -0.2450442 -0.1437743 0.26817545 -0.027182987
-0.16002426 -0.045299117 -0.060647093 0.13230397 0.07644153 -0.06906686 -0.099098064 0.07284557
-0.10050991 -0.08452934 -0.0014796364 -0.07742021 -0.18977883 -0.08075385 0.4342236 0.105744116
0.35883224 0.24073216 -0.35654765 -0.053735632 0.23574479 0.124570176 0.24855515 0.10133206
0.12941447 -0.46539325 0.26765648 -0.2978748 -0.02915062 0.062579215 0.13698669 0.26000547
-0.33554757 -0.08101411 -0.006789895 0.31553215 0.013127771 0.058605358 -0.0038356145 -0.07171587
0.047681592 -0.056698456 0.08485435 0.015357155 -0.016633356 -0.02817941 0.024705095 -0.08008353
-0.14203122 0.057611115 -0.030562392 -0.57300615 0.7281828 -0.047539063 0.047761776 -0.056991287
0.2640171 -0.20032683 -0.19506958 0.0022627886 -0.06431653 -0.03481808 -0.09800438 0.024911445
-0.31455633 0.052626748 0.046593897 0.1599696 -0.043297272 -0.14672646 -0.040186048 -0.15289779
0.062260445 -0.068011515 -0.44894257 -0.05364727 -0.34857556 -0.13446747 0.22910355 -0.10937037
-0.14549977 -0.3867207 0.07614803 0.039869264 -0.38580507 -0.040663783 -0.14591591 0.18417843
-0.039983567 -0.06170956 0.029469924 0.027678257 0.055634804 -0.068435915 -0.024608959 0.06718388
00000000: 24f0 2bbe 5a31 2dbf becf c53e 848f 34bf
00000010: 0005 083f f0be 853d 0533 ff3d 1f6d a9bc
00000020: 452d f9bc e484 7f3e 0394 703d 9057 f7bd
00000030: 229f 063e 3241 823d 1615 4a3d 76d6 d8bd
00000040: 3ba7 10be d512 eabe b797 b5be 9ac4 b73e
00000050: e3b9 d2bd 4d9b 663e 17df 253e c087 083f
00000060: 1c8a c3be 578d 5d3b f98f 40be 59e1 1b3d
00000070: 5834 10be 090e 253e 58c8 773e db89 89bd
00000080: 4ecd 1ebe 871c f83c 8df5 aebd 585d ee3d
00000090: 5130 37bd 8282 aebd cb0b 83bd b35d 7e3e
000000a0: e0b3 843d 5b3b c73d 2768 1abb 19aa f5bc
000000b0: ffdd c83c 494c 83bc 2a10 65bd 12d9 a5bc
000000c0: 492f 4c3c 6318 3b3e 72d3 bf3d 4a54 9fbd
000000d0: 3ce0 813e ef60 7e3e 5e5c 223e c4b5 6a3e
000000e0: 0d41 1bbf edcd b3bd e01a 9cbd b01d 783e
000000f0: a0be 34be 4d73 323d c09b ffbd 78b1 bfbd
00000100: a23f e33b 5dec a03d 09b2 2bbb 9b48 773c
00000110: c96b e53d c82e 81bd 145c 23be 47f5 b03d
00000120: 2d87 8d3c 26bb e639 79eb c63e 21a7 eabd
00000130: 2a51 343e 8b5a 82be ab09 033f 599d a93d
00000140: de70 27bd f8cf ab3e 9fdc 483d 7455 17be
00000150: 2690 a43d 9f8f b03e 52e8 51be 3f3f dabe
00000160: cc95 4ebe bd42 343e 6a16 3cbd 2947 ab3c
00000170: 49db cb3d 8580 0b3d cf9f b4bb f770 31bd
00000180: 78b4 d93c 9fbc 013d fa28 1a3b 08ad 66bd
00000190: ca8c 323d 9de2 d1bd 8e8f 85bd f07b a6bd
000001a0: e1e3 023e 7817 b3bd 910b 30be daaf 993d
000001b0: dbfa 8e3e 8da7 9fbc 8b42 08be 83b4 07be
000001c0: ee65 8ebd 8912 3bbe 848d fabc 9f28 c43c
000001d0: 2b92 1b3d d296 eebd bfd8 12be 7d22 ad3c
000001e0: 4cd8 303d 5832 a8bb fba9 38bd ce92 3cbe
000001f0: 37f3 44bc afe8 53be 7d61 993d 8f03 13be
00000200: aa08 263e e26e 18be 003e 213e 2fa5 83be
00000210: 6b4c 333d c5e0 6cbe c5d7 033e 33d3 c43d
00000220: 9082 bd3c a1b7 f83d 3b56 813e 1d96 863e
00000230: 8fb2 4fbe e9e3 3dbe 44eb 7d3d bdbe 43be
00000240: 4fdf d2bc 8f32 9b3b 6673 70bd 516f a13d
00000250: e8a5 913d f0e2 b93a 1ca2 2abd 9da7 bdbd
00000260: 72ee 50bc 4f77 fcbc d306 3dbd 2276 a83c
00000270: deec 7abe 9239 13be 4b4e 893e dbae debc
00000280: 66dd 23be 918b 39bd 1669 78bd b17a 073e
00000290: 608d 9c3d ed72 8dbd edf3 cabd 0f30 953d
000002a0: 24d8 cdbd b81d adbd 5cf0 c1ba 7d8e 9ebd
000002b0: 6255 42be 4662 a5bd 8e52 de3e 5f90 d83d
000002c0: dcb8 b73e 7e82 763e 6a8d b6be e519 5cbd
000002d0: 1567 713e a61e ff3d 3e85 7e3e 2f87 cf3d
000002e0: 3a85 043e 0648 eebe 450a 893e 0c83 98be
000002f0: 48cd eebc 8829 803d 3d46 0c3e 701f 853e
00000300: e4cc abbe baea a5bd c47d debb 6e8d a13e
00000310: dd15 573c 2c0c 703d ef5e 7bbb c5df 92bd
00000320: c64d 433d a43c 68bd 1ec8 ad3d 949c 7b3c
00000330: ad42 88bc 82d8 e6bc 5762 ca3c d502 a4bd
00000340: a270 11be a2f9 6b3d fb5d fabc 88b0 12bf
00000350: 306a 3a3f 52b8 42bd daa1 433d b26f 69bd
00000360: 402d 873e 7a22 4dbe 52c0 47be 4b4b 143b
00000370: 63b8 83bd 679d 0ebd 85b6 c8bd 1613 cc3c
00000380: 870d a1be 258f 573d 3ed9 3e3d 12cf 233e
00000390: 7b58 31bd 763f 16be 209a 24bd 3d91 1cbe
000003a0: cf04 7f3d 9f49 8bbd cddb e5be 3dbd 5bbd
000003b0: 7f78 b2be d7b1 09be 1f9a 6a3e 93fd dfbd
000003c0: e4fd 14be 4100 c6be 80f3 9b3d f44d 233d
000003d0: 3e88 c5be 118f 26bd fb6a 15be 4599 3c3e
000003e0: cfc5 23bd 2ac3 7cbd e96a f13c 83bd e23c
000003f0: 52e1 633d 2128 8cbd ba98 c9bc b497 893d

actor.0.bias f4 [512]
-0.051531415 0.06946648 -0.021248303 -0.0619652 -0.08661119 -0.05301886 0.096795306 0.08530482
0.17492802 0.09982329 -0.17122859 0.11252219 -0.11198315 0.09995572 -0.031647038 -0.03245462
-0.0565569 0.05043386 0.09609958 -0.052477334 -0.09697929 0.045032915 -0.10523666 -0.09115208
-0.049692165 -0.14114432 0.06583995 -0.068243876 0.022109585 0.08871341 0.111243084 -0.006376887
-0.11996033 -0.0048385723 -0.11875998 -0.104114555 0.15211575 -0.13848084 0.08687016 0.049182966
-0.04560966 0.046068344 -0.06918641 -0.012899895 0.053530365 -0.0046372646 0.07803382 -0.10655773
0.12933588 -0.019491134 0.059513923 -0.052452832 -0.016763877 -0.10508623 -0.096709326 0.037436634
-0.016510231 -0.1712504 0.076281585 0.050245844 0.1740078 -0.09741451 0.036152877 0.080792286
0.010872852 -0.14872739 0.08803062 0.11274435 0.09497686 -0.00018971524 -0.14553986 -0.019115178
0.01441263 -0.053814042 -0.041340232 -0.06733765 -0.122699715 0.05299884 -0.023095451 0.064984664
-0.021210656 -0.17700441 0.036225423 -0.08171582 0.00010558912 0.044430852 0.06297479 0.060361985
-0.13772075 -0.081471674 0.1286332 0.00930241 -0.04057625 0.06541031 0.07807539 -0.007271835
0.066867895 0.008277731 -0.1433528 0.090393096 0.027207714 -0.006002776 -0.06091546 0.027913196
-0.14373872 0.0044932286 -0.1306947 0.035435718 -0.08486135 -0.03938697 0.10620784 0.09875309
0.001005337 0.036055814 -0.02064537 0.049776647 -0.11786211 -0.052438907 0.058025394 0.08972803
0.014645474 -0.020459885 -0.09777084 0.086150326 -0.15082656 -0.07757381 0.00013836072 -0.02098248
0.060841203 0.06686158 -0.08339609 -0.055177085 0.14085975 0.06958715 0.047718447 0.07315197
-0.042904433 -0.1187342 -0.014124947 -0.14679585 0.055922266 0.1261197 -0.1769273 -0.03265385
-0.06949684 -0.035661317 -0.07452928 0.053446595 0.10159949 -0.05697693 0.03148377 -0.019342232
-0.08716389 0.0102903275 0.11624098 0.13363658 0.047703672 -0.016461503 -0.05694556 -0.14109667
0.04293687 -0.0538574 -0.07594147 -0.12543955 0.11746455 0.046191167 -0.036685877 -0.071570106
0.020446919 -0.11278197 0.055702984 0.0042643715 0.058546383 0.043786783 0.015218284 0.09105259
-0.124979585 -0.054400183 0.018677153 0.10837197 -0.115360565 0.08635305 -0.023003742 -0.1303166
0.023500025 -0.061919596 -0.12790649 -0.10051093 -0.122223556 0.049062803 0.0005887144 -0.16701682
0.12742762 -0.057115763 0.09778189 0.09052491 0.07614597 0.09685397 0.13534117 0.0029877366
-0.10188518 -0.06621334 -0.10506195 0.04586092 0.014342074 0.0067220805 0.099044524 0.053654864
0.0157159 -0.10564713 -0.0843865 -0.025162617 0.044347446 -0.07961082 -0.15982185 -0.038325522
-0.079777084 -0.0004469256 0.004038898 -0.011568168 0.023765145 0.06665398 -0.097075194 -0.022190953
0.08518549 -0.01755978 -0.07787279 -0.10937205 -0.055199098 -0.1332913 0.074014604 0.14524852
0.08036974 -0.07563325 0.0083377715 0.06037753 0.012470022 0.07484185 -0.055164564 -0.026831029
0.044098143 -0.07272756 0.05746478 -0.07447395 0.050047606 -0.0045107417 0.013596936 0.019965308
0.1411825 0.0046539316 -0.008706632 0.003663144 0.12527137 -0.043609325 0.031889554 -0.115682736
00000000: 9b12 53bd 7144 8e3d ec10 aebc 39cf 7dbd
00000010: 3561 b1bd 4e2a 59bd 9e3c c63d 4bb4 ae3d
00000020: 5520 333e 2770 cc3d 8c56 2fbe 0972 e63d
00000030: 6c57 e5bd 96b5 cc3d 53a0 01bd 23ef 04bd
00000040: 35a8 67bd bc93 4e3d dbcf c43d 79f2 56bd
00000050: 149d c6bd 6f74 383d 5186 d7bd f1ad babd
00000060: 038a 4bbd 2388 10be 19d7 863d 72c3 8bbd
00000070: 291f b53c 60af b53d 6ad3 e33d 35f5 d0bb
00000080: c3ad f5bd e38c 9ebb 6f38 f3bd 033a d5bd
00000090: 3bc4 1b3e eccd 0dbe fce8 b13d 1474 493d
000000a0: 32d1 3abd 29b2 3c3d 9bb1 8dbd 155a 53bc
000000b0: a842 5b3d 32f4 97bb 32d0 9f3d f03a dabd
000000c0: a070 043e dfab 9fbc dfc4 733d c8d8 56bd
000000d0: 6654 89bc 7337 d7bd 8a0f c6bd 2857 193d
000000e0: 7740 87bc 445c 2fbe 8539 9c3d 96ce 4d3d
000000f0: 1a2f 323e 4281 c7bd 0a15 143d 6d76 a53d
00000100: 0c24 323c fe4b 18be 6649 b43d 83e6 e63d
00000110: 3a83 c23d 4cee 46b9 6708 15be 6f97 9cbc
00000120: f422 6c3c 1d6c 5cbd 6054 29bd 52e8 89bd
00000130: fd49 fbbd 5015 593d ac32 bdbc ae16 853d
00000140: f8c1 adbc a540 35be 1c61 143d a05a a7bd
00000150: ba6f dd38 20fd 353d edf8 803d 213e 773d
00000160: ab06 0dbe 9fda a6bd 6cb8 033e 2369 183c
00000170: 4833 26bd d7f5 853d fde5 9f3d 9348 eebb
00000180: 09f2 883d 529f 073c 14cb 12be 0420 b93d
00000190: b6e2 de3c efb2 c4bb 7d82 79bd 37aa e43c
000001a0: 3e30 13be ef3b 933b d5d4 05be 0b25 113d
000001b0: cacb adbd 3b54 21bd 7f83 d93d 0f3f ca3d
000001c0: 83c5 833a 43af 133d 7b20 a9bc 99e2 4b3d
000001d0: b161 f1bd 2eca 56bd 09ac 6d3d 54c3 b73d
000001e0: 92f3 6f3c 7d9b a7bc 143c c8bd 956f b03d
000001f0: 4772 1abe 05df 9ebd ec14 1139 73e3 abbc
00000200: a034 793d b9ee 883d 92cb aabd 5e01 62bd
00000210: 8a3d 103e b583 8e3d 6b74 433d b3d0 953d
00000220: 8fbc 2fbd eb2a f3bd 526c 67bc a751 16be
00000230: bf0e 653d 8625 013e 6e2c 35be 0bc0 05bd
00000240: 5c54 8ebd 9a11 12bd cfa2 98bd d1ea 5a3d
00000250: 6513 d03d a460 69bd 20f5 003d 9a73 9ebc
00000260: fb82 b2bd c398 283c c00f ee3d 07d8 083e
00000270: ed64 433d 46da 86bc bf3f 69bd a57b 10be
00000280: 92de 2f3d 9499 5cbd 3487 9bbd 3a73 00be
00000290: 4191 f03d f332 3d3d ee43 16bd 5993 92bd
000002a0: 4c80 a73c 3cfa e6bd d028 643d 24bc 8b3b
000002b0: 55ce 6f3d c559 333d 1c56 793c c879 ba3d
000002c0: 4cf5 ffbd bad2 5ebd d400 993c 20f2 dd3d
000002d0: 2942 ecbd ded9 b03d 5872 bcbc b771 05be
000002e0: 2083 c03c 679f 7dbd ebf9 02be add8 cdbd
000002f0: 5850 fabd 14f6 483d f453 1a3a 7506 2bbe
00000300: 637c 023e 38f2 69bd df41 c83d 2065 b93d
00000310: 6bf2 9b3d 605b c63d e096 0a3e e7cd 433b
00000320: 2da9 d0bd dc9a 87bd b82a d7bd a9d8 3b3d
00000330: 05fb 6a3c e644 dc3b dbd7 ca3d 34c5 5b3d
00000340: a2be 803c 865d d8bd d4d2 acbd d521 cebc
00000350: aba5 353d ff0a a3bd 57a8 23be 39fb 1cbd
00000360: 2b62 a3bd 5751 eab9 bb58 843b 6a88 3dbc
00000370: 1faf c23c e281 883d 5ccf c6bd cdc9 b5bc
00000380: bb75 ae3d 87d9 8fbc c57b 9fbd 74fe dfbd
00000390: 7318 62bd 847d 08be f894 973d 07bc 143e
000003a0: e498 a43d 9be5 9abd 269b 083c 6e4e 773d
000003b0: 104f 4c3c af46 993d 3df4 61bd bfcc dbbc
000003c0: 41a0 343d 30f2 94bd 3060 6b3d cc85 98bd
000003d0: b8fe 4c3d d8ce 93bb afc5 5e3c 498e a33c
000003e0: 2592 103e 0280 983b 43a6 0ebc 5c11 703b
000003f0: 2347 003e b19f 32bd 9f9e 023d 12eb ecbd

actor.2.weight f4 [256, 512]
-0.06754889 -0.018537924 0.13025759 -0.10066873 0.14902204 -0.10068467 -0.05855357 0.099177085
0.084237695 -0.124105595 0.108732484 -0.08740485 0.028903889 0.15197644 0.03299828 0.098087154
0.17094623 0.06172149 -0.08524475 0.050246213 -0.21419348 0.017143019 0.11793322 0.10775818
-0.19008692 -0.0076122805 0.20945847 0.20311207 0.023218622 0.1729365 -0.005747856 0.072275236
-0.13506906 0.036703788 -0.08501837 -0.0040016095 0.05989056 -0.03455713 -0.08949839 0.016479712
-0.021327913 0.05588089 -0.060329165 -0.24115689 0.14671767 -0.10807315 0.037332077 0.10254439
-0.048393622 0.06382835 -0.10251182 -0.09137153 -0.28652844 -0.02011273 0.099571876 -0.062334493
-0.23448229 -0.029300662 -0.06757525 0.020656494 0.11910915 -0.005829605 0.0047198604 0.11477488
-0.14228095 -0.027310932 -0.048671678 -0.0976254 0.019145174 -0.01686819 -0.06355907 0.13918655
-0.028415741 0.035591155 0.017529953 0.115453005 0.1926213 -0.06369239 -0.08361732 0.043825727
0.0043384777 0.05710339 0.022228314 0.050696578 -0.051849164 0.057663497 0.035781454 0.16420633
-0.041963954 -0.122706674 0.028243158 0.039138652 0.06537781 0.002312404 -0.014816996 0.061201546
0.10988923 -0.041338224 0.0949436 0.14842099 0.1362337 0.049141683 -0.13334954 0.13500415
-0.07344365 0.08356734 0.042507447 -0.026440343 -0.1286376 0.02836558 0.057610247 -0.063691095
-0.24492562 0.012159201 -0.052697003 0.029757597 -0.00220214 0.10417138 -0.14085153 -0.00899542
0.059397377 -0.019092731 -0.12019027 0.23239772 0.155208 0.24720651 -0.008203807 0.1770667
-0.057100985 -0.0068427767 0.084041074 0.07281065 0.20700939 -0.098193906 0.18264532 -0.018198602
0.17878096 0.113364115 0.16011667 -0.09971759 -0.13181537 -0.045499627 -0.035406437 0.11723239
-0.0037569224 0.10402087 0.14125484 -0.048547424 -0.06818029 0.17498448 -0.11486844 0.13621998
0.0042195935 -0.2072457 -0.09273792 0.09455445 0.017093845 0.018388083 -0.03375695 -0.008904172
0.027161628 0.012665596 0.10386011 -0.120189704 0.11065849 0.10124425 -0.029732285 0.03011146
0.1787175 0.083987236 -0.057100844 0.049199242 -0.123979904 0.026379412 0.03701094 0.0040793754
-0.04206729 -0.02528117 0.13646924 -0.009469135 0.007519435 -0.041281797 0.041435607 0.02279165
0.1952391 -0.11749681 0.08807362 0.0008041908 -0.23772666 -0.093560144 -0.073843956 0.032021023
-0.07464861 -0.13034448 0.14054203 0.17102183 -0.25712803 -0.1345947 -0.069921196 -0.3072603
-0.0037541173 0.02469527 -0.19400668 -0.100057915 0.13247319 -0.037170656 0.009433849 0.05291442
0.11109842 -0.29274508 0.16513583 0.073076084 0.08558408 -0.02308799 0.07955375 -0.1718554
0.13753091 -0.0073468112 0.09394067 -0.07924123 -0.0037769966 0.16505033 -0.074890174 0.0511457
0.031835597 0.088415176 -0.039151542 -0.01741269 -0.0066460557 0.15659133 0.13821943 0.12426103
0.016573993 0.044558924 0.00039400533 0.16314879 -0.044219613 0.07729565 -0.17095976 0.05249504
-0.094726615 -0.10325567 -0.083931975 0.108446926 0.091655426 -0.011545929 0.14507423 -0.06179868
0.13607174 -0.076966316 0.12539423 0.16665278 0.016239297 0.03827908 -0.17013241 -0.027975103
00000000: 1357 8abd d8dc 97bc 3f62 053e 682b cebd
00000010: 3c99 183e c433 cebd ded5 6fbd 5b1d cb3d
00000020: d084 ac3d 132b febd 23af de3d 5001 b3bd
00000030: d9c7 ec3c b69f 1b3e 3429 073d ebe1 c83d
00000040: 870c 2f3e accf 7c3d cd94 aebd f9ce 4d3d
00000050: 8955 5bbe 846f 8c3c f986 f13d 52b0 dc3d
00000060: 25a6 42be 7070 f9bb 487c 563e 9cfc 4f3e
00000070: fb34 be3c 4416 313e 8358 bcbb 0a05 943d
00000080: 8b4f 0abe b656 163d 1c1e aebd ef1f 83bb
00000090: ce4f 753d c78b 0dbd ef4a b7bd 7600 873c
000000a0: e0b7 aebc 5ce3 643d b71b 77bd d5f1 76be
000000b0: 283d 163e 7555 ddbd 85e9 183d cb02 d23d
000000c0: 6438 46bd 70b8 823d b8f1 d1bd ff20 bbbd
000000d0: dbb3 92be 74c3 a4bc 57ec cb3d 7452 7fbd
000000e0: 201c 70be f107 f0bc e564 8abd cf37 a93c
000000f0: 7fef f33d 4506 bfbb 0fa9 9a3b 180f eb3d
00000100: 19b2 11be 2dbb dfbc f45b 47bd d3ef c7bd
00000110: 57d6 9c3c 292f 8abc 422b 82bd eb86 0e3e
00000120: 21c8 e8bc 08c8 113d fa9a 8f3c a072 ec3d
00000130: 853e 453e 2871 82bd 8f3f abbd 9b82 333d
00000140: ca29 8e3b 3fe5 693d 2718 b63c 37a7 4f3d
00000150: ca5f 54bd 8f30 6c3d 938f 123d b425 283e
00000160: 65e2 2bbd a34d fbbd 325e e73c da4f 203d
00000170: cde4 853d b48b 173b fcc2 72bc 79ae 7a3d
00000180: 9b0d e13d 4552 29bd ca71 c23d acfb 173e
00000190: d980 0b3e ca48 493d c88c 08be 873e 0a3e
000001a0: a069 96bd 5b25 ab3d 4a1c 2e3d 6b99 d8bc
000001b0: 93b9 03be ef5e e83c b9f8 6b3d 7a70 82bd
000001c0: c8cd 7abe 6337 473c d0d8 57bd 34c6 f33c
000001d0: c751 10bb ce57 d53d 623b 10be 8761 13bc
000001e0: aa4a 733d 5c68 9cbc 5126 f6bd abf9 6d3e
000001f0: d9ee 1e3e b423 7d3e 4369 06bc f950 353e
00000200: b9e2 69bd 5f39 e0bb ba1d ac3d c01d 953d
00000210: 45fa 533e e319 c9bd 6007 3b3e 3c15 95bc
00000220: 5b12 373e 722b e83d a0f5 233e bc38 ccbd
00000230: 9cfa 06be d15d 3abd 5706 11bd 8917 f03d
00000240: b336 76bb e508 d53d 1ca5 103e aad9 46bd
00000250: 1ca2 8bbd 222f 333e 2540 ebbd 407d 0b3e
00000260: 8444 8a3b 3738 54be 61ed bdbd c3a5 c13d
00000270: 6408 8c3c 9ba2 963c ba44 0abd cee2 11bc
00000280: 1082 de3c 5c83 4f3c 9cb4 d43d 0526 f6bd
00000290: eba0 e23d 2559 cf3d 1f91 f3bc 4fac f63c
000002a0: b801 373e 8001 ac3d 93e2 69bd 2585 493d
000002b0: 2de9 fdbd a319 d83c c998 173d 48ac 853b
000002c0: c04e 2cbd 751a cfbc 98be 0b3e 6e24 1bbc
000002d0: 9865 f63b 1a17 29bd 62b8 293d 8eb5 ba3c
000002e0: c2ec 473e 2ba2 f0bd f15f b43d 55d0 523a
000002f0: 9e6e 73be 769c bfbd 803b 97bd 7a28 033d
00000300: 5fe1 98bd 0679 05be 40ea 0f3e 5920 2f3e
00000310: 49a6 83be 31d3 09be d832 8fbd 3951 9dbe
00000320: a307 76bb bc4d ca3c b0a9 46be 2aeb ccbd
00000330: 0da7 073e 4240 18bd 6e90 1a3c cabc 583d
00000340: 9287 e33d afe2 95be 5e19 293e eaa8 953d
00000350: b546 af3d 0623 bdbc 14ed a23d ddfa 2fbe
00000360: e7d4 0c3e 85bd f0bb f763 c03d 3a49 a2bd
00000370: 7d87 77bb f402 293e 0560 99bd 277e 513d
00000380: 0b66 023d 0413 b53d 5e5d 20bd 0fa5 8ebc
00000390: 28c7 d9bb 7a59 203e 6589 0d3e 917c fe3d
000003a0: 2fc6 873c 6b83 363d 8092 ce39 7a10 273e
000003b0: a01f 35bd 2f4d 9e3d 1310 2fbe 0a05 573d
000003c0: 0700 c2bd b577 d3bd 87e4 abbd 6c19 de3d
000003d0: d7b5 bb3d 232b 3dbc 578e 143e 9d20 7dbd
000003e0: 6456 0b3e 84a0 9dbd 5867 003e 07a7 2a3e
000003f0: 4608 853c 86ca 1c3d 3137 2ebe 0b2c e5bc

actor.2.bias f4 [256]
-0.037478074 -0.033451106 -0.14033526 -0.04753691 -0.07900326 -0.03798425 -0.07625595 -0.015092568
-0.075368725 -0.09667001 -0.07446672 -0.015821328 -0.1165133 -0.003910758 -0.26735625 -0.0534709
-0.08357423 0.04240826 -0.0042937165 -0.12619002 -0.048522715 -0.12038581 -0.04493071 -0.11732674
-0.120587245 -0.021634713 -0.03473665 -0.07897857 0.0229609 -0.04852315 -0.09207647 -0.099098
-0.0010452125 -0.018173592 -0.07061122 -0.031832755 -0.028036632 -0.05397418 0.0113165155 -0.085954316
-0.0034176633 -0.10822559 -0.12255866 0.0039753555 -0.07013726 -0.08911855 -0.1917287 -0.1136371
-0.011647885 -0.07410401 -0.113864385 -0.07752021 -0.11827716 -0.04551615 -0.05088177 -0.026553048
-0.018162232 -0.1295474 0.00062651216 -0.13944872 -0.052563444 -0.04740404 -0.03658252 -0.075622626
0.028530333 -0.17852204 -0.042951457 0.047768332 -0.15383299 -0.092271045 -0.034145907 -0.07282327
-0.13534805 -0.17400917 -0.08498957 -0.0509196 -0.04448582 0.029264124 -0.048935235 0.033456776
-0.13838118 -0.011593762 -0.08967008 -0.15017414 -0.029377915 -0.15708052 -0.0053183953 -0.10217453
0.008690653 -0.081457175 -0.013054463 -0.077250026 -0.115979806 -0.047786742 -0.08467509 -0.05151632
-0.02737525 -0.062100787 -0.08300355 -0.0974497 -0.031442873 -0.12428307 -0.19316727 -0.008330598
-0.056583863 -0.039593726 -0.08105687 -0.05946721 -0.017928522 -0.0015307773 -0.06066122 -0.10197232
-0.07465496 -0.051381025 -0.13015708 -0.12346125 -0.04805202 -0.052010044 0.046006408 -0.049605988
-0.06827133 -0.08784055 -0.13561754 -0.08619989 -0.048382204 -0.12713124 -0.24682803 0.0070955968
-0.011571847 -0.0046559954 -0.083615005 -0.038178742 -0.0136593385 -0.12483833 -0.079820566 -0.1021004
-0.06429512 0.014027808 -0.19028996 -0.025771271 -0.15172008 -0.05342592 -0.05593972 -0.079852
-0.03558776 -0.08165003 -0.060666673 0.0140869785 -0.08179673 -0.19569759 -0.05236651 -0.026274329
-0.057032987 -0.077059165 -0.044498734 0.012052399 -0.058601372 -0.100440815 -0.09852327 -0.05654641
-0.054926742 -0.099972345 -0.08485377 -0.07465032 -0.020181552 -0.06344092 -0.005255191 -0.14874229
-0.044406503 -0.09104967 -0.14675842 -0.041714847 -0.11914286 -0.04676947 -0.04802276 -0.16666752
-0.021761915 -0.10194507 -0.12865767 0.030039767 -0.12516566 -0.13391192 -0.05342617 -0.032690503
-0.07881103 -0.12394162 -0.10068349 -0.02098053 -0.028277356 -0.022109607 -0.12541313 -0.03047923
-0.07627964 -0.088810675 -0.058070324 -0.12229615 -0.05817625 -0.10080772 -0.077069044 -0.02582955
-0.00026082367 -0.045736704 -0.14997783 -0.12518793 -0.037974857 -0.06371821 -0.09866379 -0.0557826
-0.027900284 -0.08532108 -0.0049972488 -0.13410969 -0.08610359 -0.054980177 -0.009721337 -0.09999303
-0.027511358 -0.00078738324 -0.07090989 -0.066154666 -0.04326536 0.0024007054 0.013437879 -0.019766724
-0.065240525 -0.06291604 -0.03552343 0.00042380826 -0.107872054 -0.10658944 -0.091118425 -0.013362255
-0.020007282 -0.09601317 -0.11170081 -0.09686182 -0.070455864 -0.08298526 0.0074367947 -0.07539994
-0.116367236 -0.071241856 0.0043356926 -0.05241478 -0.034189977 -0.061242737 -0.0747778 -0.045592476
-0.061333716 -0.12499589 -0.039621696 -0.0648097 -0.013961653 -0.014566686 -0.05019603 -0.029000672
00000000: 9c82 19bd 0704 09bd 0cb4 0fbe 10b6 42bd
00000010: 76cc a1bd 5f95 1bbd 142c 9cbd d146 77bc
00000020: eb5a 9abd edfa c5bd 0282 98bd bb9b 81bc
00000030: 869e eebd d125 80bb ebe2 88be 4d04 5bbd
00000040: f728 abbd 49b4 2d3d 4eb2 8cbb f537 01be
00000050: c1bf 46bd d68c f6bd 4409 38bd 0049 f0bd
00000060: 72f6 f6bd 483b b1bc 0448 0ebd 84bf a1bd
00000070: 7f18 bc3c 36c0 46bd 9792 bcbd e4f3 cabd
00000080: 83ff 88ba c9e0 94bc 9e9c 90bd 1063 02bd
00000090: 14ad e5bc 0814 5dbd e868 393c d108 b0bd
000000a0: e0fa 5fbb 61a5 ddbd 0900 fbbd b343 823b
000000b0: 20a4 8fbd c983 b6bd 8754 44be 91ba e8bd
000000c0: c5d6 3ebc d8c3 97bd bb31 e9bd eac2 9ebd
000000d0: 4c3b f2bd 246f 3abd 6769 50bd c785 d9bc
000000e0: f6c8 94bc 13a8 04be 853c 243a a5cb 0ebe
000000f0: c44c 57bd bd2a 42bd 8dd7 15bd 09e0 9abd
00000100: 72b8 e93c 7bce 36be deed 2fbd baa8 433d
00000110: 6586 1dbe 9af8 bcbd 94dc 0bbd 5e24 95bd
00000120: ae98 0abe 762f 32be 030f aebd 1291 50bd
00000130: c336 36bd 51bb ef3c 5070 48bd f909 093d
00000140: ccb3 0dbe c3f3 3dbc f2a4 b7bd 40c7 19be
00000150: f4a9 f0bc b7d9 20be ef45 aebb e140 d1bd
00000160: 3e63 0e3c 05d3 a6bd 63e2 55bc 4335 9ebd
00000170: d286 edbd 08bc 43bd 226a adbd c702 53bd
00000180: 0f42 e0bc 655d 7ebd c4fd a9bd b593 c7bd
00000190: 3eca 00bd 1f88 febd a4cd 45be 0f7d 08bc
000001a0: 7bc4 67bd 082d 22bd 2501 a6bd e493 73bd
000001b0: d6de 92bc 5da4 c8ba e677 78bd ddd6 d0bd
000001c0: b3e4 98bd e974 52bd e647 05be 40d9 fcbd
000001d0: 32d2 44bd 7c08 55bd 3771 3c3d a62f 4bbd
000001e0: d7d1 8bbd bfe5 b3bd 53df 0abe 9189 b0bd
000001f0: 6b2c 46bd b12e 02be 7dc0 7cbe 2e82 e83b
00000200: d897 3dbc 5291 98bb 583e abbd 5061 1cbd
00000210: 6bcb 5fbc 3dab ffbd f778 a3bd 041a d1bd
00000220: 29ad 83bd e4d4 653c 5fdb 42be 461e d3bc
00000230: 825c 1bbe 23d5 5abd 0c21 65bd 7289 a3bd
00000240: 79c4 11bd 2238 a7bd 9e7d 78bd 12cd 663c
00000250: 0b85 a7bd f364 48be 447e 56bd 433d d7bc
00000260: 6c9b 69bd 32d1 9dbd 4e44 36bd 6d77 453c
00000270: fe07 70bd eab3 cdbd 91c6 c9bd 359d 67bd
00000280: ddfa 60bd 4dbe ccbd d0c7 adbd 44e2 98bd
00000290: c853 a5bc 50ed 81bd bd33 acbb e64f 18be
000002a0: 98e3 35bd 4078 babd d747 16be 30dd 2abd
000002b0: 2c01 f4bd 5891 3fbd 83b3 44bd e4aa 2abe
000002c0: 0b46 b2bc 94c8 d0bd d6be 03be f515 f63c
000002d0: 6d2b 00be 3520 09be 66d5 5abd 7ae6 05bd
000002e0: ad67 a1bd 1bd5 fdbd 2533 cebd 5cdf abbc
000002f0: eaa5 e7bc 351f b5bc 4d6c 00be 94af f9bc
00000300: 8038 9cbd 5fe2 b5bd 26db 6dbd 6776 fabd
00000310: 384a 6ebd 4774 cebd 60d6 9dbd 7e98 d3bc
00000320: 29bf 88b9 6956 3bbd ca93 19be 4431 00be
00000330: 868b 1bbd b17e 82bd 3e10 cabd 4c7c 64bd
00000340: 238f e4bc d2bc aebd f6bf a3bb 0d54 09be
00000350: 1457 b0bd e532 61bd 3e46 1fbc 25c9 ccbd
00000360: 805f e1bc 6568 4eba 3439 91bd 197c 87bd
00000370: 0537 31bd 2755 1d3b 8d2a 5c3c d3ed a1bc
00000380: d39c 85bd 20da 80bd 0481 11bd 9532 de39
00000390: 06ec dcbd 904b dabd 4c9c babd 5ced 5abc
000003a0: 50e6 a3bc 8ea2 c4bd 65c3 e4bd 7d5f c6bd
000003b0: 2a4b 90bd 2df4 a9bd 5bb0 f33b 496b 9abd
000003c0: f251 eebd 40e7 91bd 6d12 8e3b e1b0 56bd
000003d0: ca0a 0cbd aad9 7abd 1a25 99bd 2dbf 3abd
000003e0: 1039 7bbd d8fd ffbd 5c4a 22bd f3ba 84bd
000003f0: 6bbf 64bc 1ca9 6ebc 5a9a 4dbd d192 edbc

actor.4.weight f4 [128, 256]
-0.006333046 -0.04939837 -0.00073620165 -0.029494409 0.0018120491 -0.07555799 0.014337632 -0.010322833
0.013950076 -0.06562213 -0.014978838 -0.04454474 0.05191514 -0.13658218 0.11773266 0.04151367
-0.015069055 -0.013328975 -0.10678393 0.09369497 -0.041656606 -0.006659431 0.08091071 0.08048473
-0.102064885 0.18502274 -0.12830055 -0.074925706 -0.02577912 0.06054212 0.04533107 0.07027747
-0.15510516 -0.09093708 0.012180967 0.16470878 -0.00049358694 -0.047695603 -0.09193415 -0.040356707
-0.005098515 -0.011895497 -0.05917388 -0.028000183 0.024439838 0.041600298 0.087582126 0.041094273
-0.034964807 0.04221934 -0.038178634 0.061348658 -0.03608095 0.027717851 0.14003995 0.02438816
0.01946033 0.08367815 -0.035258673 0.057029452 -0.04816696 0.004317797 -0.0807459 0.075370245
0.07378087 0.037357736 0.0051298845 0.11551751 0.031532075 0.028026672 -0.07150452 -0.013036745
-0.12585434 0.040032245 0.078016035 0.037259538 -0.19662952 0.044036094 -0.07098334 0.006665393
-0.04835081 -0.012532303 0.05472727 0.094394945 0.10424215 -0.046376772 0.033111595 -0.010528405
-0.029540157 0.09418053 0.057687044 0.10761465 0.09548109 -0.12968099 0.04901428 -0.028041411
0.0684255 -0.03830351 0.028390517 -0.10213298 0.03694361 -0.033034336 0.07722191 0.05777351
-0.096261755 -0.04881434 0.07366934 0.0980591 0.14383653 0.05705177 -0.050065827 0.011060571
0.052309353 -0.018564286 -0.118429124 0.057983506 0.06408721 0.014182252 -0.07694365 -0.14781503
0.047809348 0.035025436 0.00897286 0.04521772 0.049900834 0.050185002 -0.08892742 0.0059215515
0.011743984 0.020264503 -0.14091921 0.069657706 0.060009018 -0.07363466 0.03338592 0.029384224
-0.012640732 0.06822069 0.09826793 -0.08795795 0.12617725 -0.09275747 -0.05324807 -0.08972076
0.08019246 0.06457905 0.024898164 -0.061777152 0.0559424 -0.0102192 0.05595136 -0.012030447
0.04516079 -0.027922232 -0.022882052 -0.07539816 0.06678329 -0.040690824 0.12447523 -0.07177553
0.07929882 0.0030467012 0.05485342 0.054138858 -0.0451246 -0.039845385 0.01601474 0.020728787
0.0885388 -0.0808834 0.10344083 0.022037217 0.16277027 -0.03355022 0.03606218 0.13155222
-0.0642922 -0.06799194 -0.056477644 -0.03588327 0.107309796 -0.10467811 -0.024923733 0.04332223
0.0901675 -0.08871474 0.01247038 -0.071652345 -0.031235605 -0.02647347 -0.053911 0.00063220237
-0.08559276 0.06412136 0.066289656 0.0030696741 0.040321518 -0.11063553 -0.06970179 0.009603525
0.028288376 0.06813263 0.12902431 -0.08899874 0.09424877 -0.060014524 -0.06943282 0.03551942
0.075758286 -0.09221807 -0.020949295 0.00048372077 0.13859217 0.122880295 0.0067876764 -0.10172515
-0.0058230483 -0.080412015 0.1257919 -0.0052730017 -0.1297666 -0.08669639 0.07601184 0.054739177
-0.13954067 -0.06135979 0.10055518 0.11574736 0.05510731 0.07373307 0.05325286 0.11242669
-0.040115766 -0.023781188 -0.042192597 0.048391335 -0.08059018 0.047078777 -0.007447447 -0.16078715
0.07364533 0.039759222 -0.030479567 0.051017776 0.0065447707 -0.0078740325 0.05275657 -0.03262838
0.12637709 0.046548355 -0.16520536 0.0355006 0.07251989 0.015490365 0.00931915 -0.11055255
00000000: 7185 cfbb f255 4abd a8fd 40ba 429e f1bc
00000010: 4782 ed3a 26be 9abd 63e8 6a3c 1a21 29bc
00000020: dc8e 643c e564 86bd cd69 75bc 8c74 36bd
00000030: f8a4 543d 33dc 0bbe d21d f13d 3d0a 2a3d
00000040: 33e4 76bc c661 5abc 88b1 dabd 26e3 bf3d
00000050: 1ea0 2abd 5b37 dabb 84b4 a53d 2ed5 a43d
00000060: 6507 d1bd 9a76 3d3e 3861 03be a672 99bd
00000070: bc2e d3bc 04fb 773d 12ad 393d a2ed 8f3d
00000080: e3d3 1ebe 383d babd ae92 473c 6ba9 283e
00000090: 0f64 01ba 775c 43bd f947 bcbd 134d 25bd
000000a0: 7211 a7bb 55e5 42bc 4f60 72bd a460 e5bc
000000b0: 0e36 c83c 1365 2a3d 425e b33d 7852 283d
000000c0: 4237 0fbd 30ee 2c3d 3361 1cbd bb48 7b3d
000000d0: 9ec9 13bd 8c10 e33c a266 0f3e aec9 c73c
000000e0: 456b 9f3c 735f ab3d 666b 10bd b797 693d
000000f0: b84a 45bd 4e7c 8d3b 1b5e a5bd b75b 9a3d
00000100: 6d1a 973d 6d04 193d 9718 a83b 7294 ec3d
00000110: c727 013d 3198 e53c f670 92bd 1298 55bc
00000120: f6df 00be daf8 233d dfc6 9f3d 759d 183d
00000130: 4059 49be 315f 343d b75f 91bd 5e69 da3b
00000140: 800b 46bd 4a54 4dbc b429 603d 2352 c13d
00000150: e97c d53d 92f5 3dbd 06a0 073d 557f 2cbc
00000160: 33fe f1bc b9e1 c03d 4049 6c3d 1265 dc3d
00000170: 978b c33d 18cb 04be 33c3 483d 1ab7 e5bc
00000180: ab22 8c3d 24e4 1cbd 3b93 e83c 192b d1bd
00000190: 2f52 173d 034f 07bd 8526 9e3d eba3 6c3d
000001a0: e224 c5bd 8cf1 47bd f3df 963d 36d3 c83d
000001b0: e249 133e 1eaf 693d d311 4dbd 6637 353c
000001c0: 5542 563d 2114 98bc f88a f2bd 1d80 6d3d
000001d0: 2840 833d ad5c 683c a294 9dbd d35c 17be
000001e0: bcd3 433d d576 0f3d e702 133c 3736 393d
000001f0: d164 4c3d ca8e 4d3d 941f b6bd 9309 c23b
00000200: d769 403c be01 a63c 204d 10be b3a8 8e3d
00000210: 04cc 753d c5cd 96bd adbf 083d 2fb7 f03c
00000220: 131b 4fbc 4ab7 8b3d b240 c93d 4c23 b4bd
00000230: 9c34 013e a1f7 bdbd a61a 5abd 85bf b7bd
00000240: f23b a43d 0542 843d 3cf7 cb3c 0a0a 7dbd
00000250: dc23 653d 6e6e 27bc 412d 653d 5a1b 45bc
00000260: 85fa 383d 2abd e4bc 2473 bbbc 5a6a 9abd
00000270: adc5 883d 6cab 26bd dfec fe3d 0dff 92bd
00000280: 6b67 a23d 2aab 473b fbad 603d b5c0 5d3d
00000290: 93d4 38bd ea34 23bd 5831 833c 6bcf a93c
000002a0: d553 b53d 32a6 a5bd c9d8 d33d 6587 b43c
000002b0: 40ad 263e f56b 09bd f0b5 133d a0b5 063e
000002c0: a1ab 83bd 5c3f 8bbd 1a55 67bd 56fa 12bd
000002d0: 3dc5 db3d 7a61 d6bd db2c ccbc a772 313d
000002e0: bda9 b83d 13b0 b5bd 9150 4c3c 77be 92bd
000002f0: d0e1 ffbc e4de d8bc c8d1 5cbd 62ba 253a
00000300: 424b afbd 0f52 833d dfc2 873d 962c 493b
00000310: 2d28 253d e194 e2bd d0bf 8ebd 1a58 1d3c
00000320: 06bd e73c 1f89 8b3d f31e 043e f944 b6bd
00000330: 8005 c13d cad1 75bd cb32 8ebd d07c 113d
00000340: 2927 9b3d d4dc bcbd db9d abbc e79b fd39
00000350: 1beb 0d3e aaa8 fb3d 286b de3b 4755 d0bd
00000360: 45cf bebb 0eaf a4bd 98cf 003e 25c9 acbb
00000370: 89e1 04be e08d b1bd 18ac 9b3d 3036 603d
00000380: c0e3 0ebe 6754 7bbd e0ef cd3d f40c ed3d
00000390: 34b8 613d 5d01 973d ac1f 5a3d f73f e63d
000003a0: 6e50 24bd c4d0 c2bc 25d2 2cbd fe35 463d
000003b0: 770c a5bd add5 403d b709 f4bb 63a5 24be
000003c0: 5dd3 963d 91da 223d 49b0 f9bc 04f8 503d
000003d0: 8475 d63b 1602 01bc 4617 583d 56a5 05bd
000003e0: ff68 013e 7da9 3e3d 982b 29be 1469 113d
000003f0: 4f85 943d 4dcb 7d3c 59af 183c 6069 e2bd

actor.4.bias f4 [128]
0.007745869 -0.06666554 -0.07499756 -0.06381543 0.096737 -0.07913829 -0.011113965 -0.005034803
-0.10546854 -0.083078355 -0.060179852 -0.07430465 -0.10255337 -0.09874825 -0.047638334 -0.021098692
-0.082563564 -0.03921996 -0.10180673 -0.07871984 -0.15542158 -0.20488866 -0.017047113 -0.0023352054
-0.039630767 -0.03050645 -0.119696565 -0.27339676 -0.12818459 0.06563856 -0.07683998 -0.17533566
-0.09197912 -0.03037095 -0.05836389 -0.07595325 -0.05311126 -0.07194792 -0.09568005 -0.10544683
-0.067026734 -0.11791662 -0.12608226 -0.2312084 -0.07617389 -0.045614727 -0.10901777 -0.010053566
0.049269084 -0.25510755 -0.14265995 -0.00376263 0.028545815 -0.052454717 -0.04714379 -0.058630675
-0.014551412 -0.017816413 -0.008355149 -0.12245474 -0.005030121 -0.07320032 -0.10199288 -0.04731371
-0.0932081 -0.06496555 -0.044418488 0.0055794213 0.0075423797 -0.20695288 0.00037483417 0.007407748
0.041713756 -0.0058058295 -0.060459413 -0.026408564 -0.03277305 -0.055027932 -0.15645604 -0.019351058
-0.023976361 0.030303217 -0.08598877 -0.05089448 -0.0919973 -0.02577747 -0.27751523 0.033829767
-0.37783244 -0.13964501 0.014676824 -0.08535744 -0.089112684 -0.012162191 -0.095362864 -0.0021897443
-0.017411456 -0.052841924 -0.19791394 0.01670773 -0.12521964 -0.011049439 -0.01267528 -0.077231124
-0.1106194 -0.1657686 -0.10259512 -0.10123416 -0.0921653 -0.11001844 -0.09705218 0.043969825
-0.09515342 -0.052366767 -0.06623007 0.053168256 -0.00077857985 -0.0074619143 -0.027521582 -0.18378459
-0.024061058 0.02042648 0.016949525 -0.0368757 0.025685769 -0.0047477 -0.005828935 -0.063085645
00000000: 0fd1 fd3b f187 88bd 5298 99bd aab1 82bd
00000010: 0c1e c63d 4113 a2bd 5917 36bc fdfa a4bb
00000020: e4ff d7bd fc24 aabd 267f 76bd 092d 98bd
00000030: 8007 d2bd 863c cabd 6a20 43bd 2ad7 acbc
00000040: 1617 a9bd 1ca5 20bd 0c80 d0bd de37 a1bd
00000050: d626 1fbe 55ce 51be 63a6 8bbc 3f0a 19bb
00000060: df53 22bd aae8 f9bc 7923 f5bd a9fa 8bbe
00000070: d242 03be 826d 863d 485e 9dbd 318b 33be
00000080: 8d5f bcbd 80cc f8bc f90e 6fbd 618d 9bbd
00000090: 318b 59bd 6e59 93bd e7f3 c3bd 82f4 d7bd
000000a0: 5045 89bd 457e f1bd b51b 01be e5c1 6cbe
000000b0: 0e01 9cbd 82d6 3abd b544 dfbd b6b7 24bc
000000c0: 61ce 493d 759d 82be 7315 12be 7596 76bb
000000d0: ead8 e93c c2da 56bd d919 41bd b826 70bd
000000e0: 0c69 6ebc baf3 91bc 09e4 08bc 8dc9 fabd
000000f0: b7d3 a4bb 0dea 95bd a5e1 d0bd 05cc 41bd
00000100: e3e3 bebd a90c 85bd 29f0 35bd 94d3 b63b
00000110: 1126 f73b 75eb 53be 6485 c439 b2bc f23b
00000120: 0bdc 2a3d d43e bebb 4aa4 77bd c656 d8bc
00000130: 093d 06bd f864 61bd 0336 20be 1c86 9ebc
00000140: 136a c4bc 743e f83c e11a b0bd bb76 50bd
00000150: 1569 bcbd 462b d3bc 7a16 8ebe 1591 0a3d
00000160: 4173 c1be 1aff 0ebe 1077 703c e2cf aebd
00000170: b680 b6bd ed43 47bc 9b4d c3bd d081 0fbb
00000180: 78a2 8ebc c670 58bd f4a9 4abe a6de 883c
00000190: 9439 00be b508 35bc faab 4fbc 5a2b 9ebd
000001a0: 6d8c e2bd 3ebf 29be 641d d2bd db53 cfbd
000001b0: 29c1 bcbd 5951 e1bd 4bc3 c6bd b419 343d
000001c0: ccdf c2bd 897e 56bd a2a3 87bd f5c6 593d
000001d0: 9c19 4cba 1383 f4bb f174 e1bc 0732 3cbe
000001e0: b21b c5bc 6f55 a73c bbd9 8a3c f90a 17bd
000001f0: f66a d23c 9892 9bbb a700 bfbb 0c33 81bd

actor.6.weight f4 [12, 128]
-0.03965418 -0.039561916 0.04970047 -0.010909087 -0.03648365 -0.006732915 0.012839833 -0.019590681
-0.005752871 -0.0007091718 -0.009267117 -0.031613287 0.021824656 0.06912675 -0.012788502 -0.012466724
0.028128024 -0.001354818 -0.02916534 0.0057971454 0.0077542393 -0.03565026 0.01243402 0.006324449
0.009859137 0.00050139154 0.013536207 0.069479324 -0.024173852 -0.016842118 0.023251142 -0.008987847
0.057262655 0.025050009 -0.04323466 0.009140373 -0.039422598 0.09882426 0.0398437 -0.027416024
0.03233876 0.028907659 -0.02233719 -0.030403763 0.002597819 0.04148965 0.0050593712 -0.033835817
-0.0052289334 0.0015057343 0.054244727 0.09231614 -0.037917316 -0.005047557 -0.01698071 0.070584446
0.0022240293 -0.028172825 0.016373824 0.009664302 -0.009186012 0.03733651 -0.026646892 -0.05075448
-0.0040653893 0.06337953 0.027168108 -0.04464789 0.085118346 -0.0108557725 0.011008987 0.00045409473
0.010314783 0.11683662 -0.04225021 -0.016921448 -0.014741653 -0.031200573 0.022800472 -0.055348612
0.033314187 -0.05812667 -0.017078506 -0.021496799 0.00024792377 -0.00010710111 0.04665341 -0.049524345
0.10927942 -0.028447485 -0.026771337 -0.057665523 -0.010899435 0.012771876 0.016487427 0.021153852
0.061343174 0.028577665 0.060273774 0.021692045 0.032835335 -0.042719744 -0.050250757 0.03479682
0.04661447 0.007704511 -0.08661557 0.010811307 -0.034400627 -0.041676342 0.010351102 -0.05246959
-0.07915092 -0.0063240165 0.0024755104 0.06345292 -0.022413887 0.020496536 -0.040137514 0.10066128
-0.052081794 -0.018200418 0.064968936 -0.0247923 -0.04042823 0.04963038 -0.026943916 0.013153615
0.0015432035 -0.058170207 -0.03141606 0.107744254 0.012415423 0.02065334 0.0005637278 0.06897874
-0.007091107 -0.026472759 0.077538036 -0.02681984 -0.038873892 0.019435253 -0.004707476 0.023822239
-0.030306263 -0.0027033414 0.022933837 0.018968426 0.024823427 0.008501951 0.013982194 -0.019869315
-0.019805431 0.020354027 0.0015873412 -0.032615084 0.001294032 -0.032333635 0.024262173 -0.04337166
-0.011372313 -0.07121459 -0.048732914 -0.0150370775 0.050452843 -0.0041356646 0.008911318 0.014448674
0.013842592 -0.056073353 -0.0090578785 0.029793406 -0.012972196 -0.031586472 -0.013465999 -0.12421131
0.023646096 0.07100479 -0.03835137 0.018697135 0.02763121 -0.028066665 -0.045518853 -0.03635206
-0.0071991566 0.053205986 0.0006621406 -0.017288405 8.385631e-06 0.03010282 -0.008757734 -0.09083765
0.013927962 0.005742484 0.036836516 -0.007927499 -0.022781625 -0.020220565 -0.06662937 -0.041048832
-0.012949392 -0.049122702 0.06832671 -0.01287259 -0.040866166 -0.016970672 0.059623748 -0.0091591645
-0.01377694 0.044746082 0.03448397 -0.006718009 -0.01868914 0.04892804 -0.0057050213 0.01687104
-0.06896997 0.063764066 -0.036598783 0.064162925 -0.019169074 0.009663951 -0.033773255 0.0104871215
0.055296373 -0.049379732 -0.033778723 0.004902812 -0.0037636936 -0.056466322 -0.047695164 -0.037071515
0.0012512048 0.017316243 0.0140707875 0.003999047 -0.005080834 -0.06846123 -0.016847558 -0.014102333
0.006476404 0.029086381 -0.016669791 0.022753686 -0.025561096 0.0475187 0.01838641 -0.14986485
-0.021916136 -0.048077878 -0.005983454 0.019851977 0.08888681 -0.019261718 -0.058217637 0.013996316
00000000: 6c6c 22bd ad0b 22bd b892 4b3d 07bc 32bc
00000010: e16f 15bd c99f dcbb 2a5e 523c a37c a0bc
00000020: 9482 bcbb b7e7 39ba 1bd5 17bc ef7c 01bd
00000030: 9fc9 b23c 5392 8d3d dd86 51bc 3b41 4cbc
00000040: be6c e63c 2694 b1ba 27ec eebc fbf5 bd3b
00000050: 4617 fe3b 0206 12bd 0fb8 4b3c 533d cf3b
00000060: 3888 213c d16f 033a f8c6 5d3c 2d4b 8e3d
00000070: 3e08 c6bc 7bf8 89bc 2e79 be3c c341 13bc
00000080: 3f8c 6a3d ad35 cd3c d416 31bd 81c1 153c
00000090: 9779 21bd 6064 ca3d 2633 233d 9297 e0bc
000000a0: a675 043d c1cf ec3c 7cfc b6bc 5011 f9bc
000000b0: 2c40 2a3b 0df1 293d 15c9 a53b 6d97 0abd
000000c0: 7957 abbb 0f5c c53a b82f 5e3d 3f10 bd3d
000000d0: 304f 1bbd fa65 a5bb 211b 8bbc 948e 903d
000000e0: 05c1 113b b2ca e6bc 6622 863c 0557 1e3c
000000f0: ed80 16bc 2bee 183d 954a dabc eee3 4fbd
00000100: f536 85bb 21cd 813d a78f de3c b5e0 36bd
00000110: 8752 ae3d 69dc 31bc 0a5f 343c 9013 ee39
00000120: 56ff 283c 0a48 ef3d 8e0e 2dbd d99e 8abc
00000130: f986 71bc 5898 ffbc 0ec8 ba3c 3ab5 62bd
00000140: 7574 083d 3b16 6ebd 39e8 8bbc 0e1a b0bc
00000150: c4fb 8139 789b e0b8 a517 3f3d 0ada 4abd
00000160: e3cd df3d b30a e9bc 904f dbbc af32 6cbd
00000170: 8b93 32bc 2141 513c a410 873c d84a ad3c
00000180: fb42 7b3d b51b ea3c a2e1 763d 84b3 b13c
00000190: 587e 063d e6fa 2ebd bdd3 4dbd 1c87 0e3d
000001a0: d1ee 3e3d 1f76 fc3b 8163 b1bd e821 313c
000001b0: ace7 0cbd d0b4 2abd ab97 293c 5aea 56bd
000001c0: e119 a2bd b239 cfbb 2c3c 223b 9bf3 813d
000001d0: 549d b7bc 5ae8 a73c 3c67 24bd 8027 ce3d
000001e0: b853 55bd 0b19 95bc 6f0e 853d 3919 cbbc
000001f0: 1298 25bd 3a49 4b3d 7db9 dcbc 4382 573c
00000200: 5145 ca3a e243 6ebd 20ae 00bd 05a9 dc3d
00000210: 0f6a 4b3c 3131 a93c 22c7 133a ba44 8d3d
00000220: 845c e8bb 66dd d8bc 43cc 9e3d 48b5 dbbc
00000230: 3b3a 1fbd ae36 9f3c 2c41 9abb db26 c33c
00000240: d744 f8bc 8b2a 31bb bedf bb3c ac63 9b3c
00000250: 805a cb3c c44b 0b3c 9215 653c f9c4 a2bc
00000260: 003f a2bc 7dbd a63c 550e d03a 6597 05bd
00000270: 829c a93a 4670 04bd 77c1 c63c 7ba6 31bd
00000280: f052 3abc f4d8 91bd 2a9c 47bd 135e 76bc
00000290: a4a7 4e3d 7884 87bb c700 123c 22ba 6c3c
000002a0: 0acc 623c 2cad 65bd 7f67 14bc 4d11 f43c
000002b0: 5589 54bc d160 01bd 7ea0 5cbc 8062 febd
000002c0: 75b5 c13c f66a 913d 5316 1dbd bc2a 993c
000002d0: d95a e23c 10ec e5bc fa71 3abd e6e5 14bd
000002e0: e7e6 ebbb 85ee 593d 8193 2d3a 6aa0 8dbc
000002f0: 03b0 0c37 309a f63c 997c 0fbc 1709 babd
00000300: 1b32 643c 722b bc3b e3e1 163d 57e2 01bc
00000310: 88a0 babc 99a5 a5bc fb74 88bd d222 28bd
00000320: b029 54bc e334 49bd e0ee 8b3d 8ee7 52bc
00000330: 4863 27bd 1406 8bbc 0838 743d 5210 16bc
00000340: adb8 61bc ab47 373d 103f 0d3d be22 dcbb
00000350: f819 99bc c568 483d 30f1 babb 2335 8a3c
00000360: 2140 8dbd bc96 823d 9be8 15bd da67 833d
00000370: 7608 9dbc 8c55 1e3c d355 0abd 2dd2 2b3c
00000380: 737e 623d 6742 4abd 8f5b 0abd c5a7 a03b
00000390: 4da8 76bb 3b49 67bd 015c 43bd 4dd8 17bd
000003a0: 77ff a33a cbda 8d3c 2989 663c 700a 833b
000003b0: 207d a6bb 6735 8cbd e403 8abc 790d 67bc
000003c0: 0438 d43b 9046 ee3c 168f 88bc f065 ba3c
000003d0: 8165 d1bc f8a2 423d 199f 963c 2c76 19be
000003e0: 7889 b3bc 4fed 44bd da10 c4bb 9da0 a23c
000003f0: 4a0a b63d c0ca 9dbc 9e75 6ebd ce50 653c

actor.6.bias f4 [12]
-0.17832486 0.021879245 0.017836336 -0.06477178 0.24857396 -0.0724463 0.035999548 -0.15876746
0.05027483 -0.1363169 0.21602713 -0.15403317
00000000: cb9a 36be 1a3c b33c 821d 923c 11a7 84bd
00000010: 2c8a 7e3e ba5e 94bd 4374 133d f093 22be
00000020: fbec 4d3d a896 0bbe 3736 5d3e dfba 1dbe
