src/ga_quadruped/policy/param_low_com.onnx (onnx, 772885 bytes, 8 tensors)

actor.0.weight f4 [512, 52]
0	0xbe08cbc6	-0.13358983
1	0xbf21fd2b	-0.6327693
2	0x3ed36e8a	0.41295272
3	0xbf25c0de	-0.64747417
4	0x3edbbf80	0.4291954
5	0x3d6d7f4a	0.05798272
6	0x3e0780e0	0.13232756
7	0x3bf12d34	0.007360125
8	0xbca0a157	-0.019608183
9	0x3e6d17e0	0.23153639
10	0x3d76af16	0.06022557
11	0xbdd00650	-0.10157454
12	0x3e10883c	0.1411447
13	0x3d961319	0.07327861
14	0x3d71b861	0.059013728
15	0xbdd8d676	-0.1058778
16	0xbe11087b	-0.14163391
17	0xbed98c4e	-0.42489856
18	0xbe95eb3b	-0.2928103
19	0x3eacf453	0.33780155
20	0xbd8e97a0	-0.06962514
21	0x3e583d56	0.21117148
22	0x3e3635a5	0.17793901
23	0x3ef6c7f4	0.48199427
24	0xbebb12f3	-0.36537895
25	0x3c20c04d	0.009811473
26	0xbe232696	-0.15932688
27	0x3cf61da3	0.030043429
28	0xbdb4c8b0	-0.088273406
29	0x3de82b86	0.113364264
30	0x3e56dfa0	0.20983744
31	0xbced2fd8	-0.028953478
32	0xbe1a8fe0	-0.15093946
33	0x3b8a40f3	0.0042191683
34	0xbda3323b	-0.07968565
35	0x3d83e5e7	0.06440335
36	0xbd5c075d	-0.05371796
37	0x3b951cf5	0.004550571
38	0xbd7d4021	-0.061828736
39	0x3e82134b	0.25405344
40	0x3d2e6a34	0.042581752
41	0x3db5cfa5	0.08877496
42	0x3cbb4a3d	0.022862548
43	0xbcff72b2	-0.03118262
44	0x3cec6331	0.028855892
45	0x3c9ffe17	0.01953034
46	0xbc8468cf	-0.016163258
47	0xbd3e5a5e	-0.0464729
48	0xbc5c3cab	-0.013442199
49	0x3dcc07d4	0.099624306
50	0x3d8f9451	0.07010711
51	0xbd852fc0	-0.06503248
52	0x3e6ac7df	0.22927807
53	0x3e3f2f49	0.18670382
54	0x3dc1227b	0.09430405
55	0x3e274557	0.16335045
56	0xbf089df6	-0.5336603
57	0xbda96dc2	-0.08272888
58	0xbd89a25d	-0.067204215
59	0x3e6e2313	0.23255567
60	0xbdf711be	-0.12063931
61	0x3d9eac0c	0.07747659
62	0xbe174ae5	-0.14774664
63	0xbdbceee9	-0.09225256
64	0x3a3318e5	0.00068320177
65	0x3d941e50	0.07232344
66	0xbc115aa4	-0.008871708
67	0x3c77489b	0.015092994
68	0x3de4c9d0	0.11171305
69	0xbd89abb7	-0.06722205
70	0xbe2b8e82	-0.16753581
71	0x3d96fb84	0.073721915
72	0xbb5e9f2b	-0.0033969383
73	0x3c535f3d	0.012901125
74	0x3ecde77a	0.40215665
75	0xbdcad174	-0.09903231
76	0x3e2ca16a	0.1685845
77	0xbe450db5	-0.1924351
78	0x3ee8c286	0.4546091
79	0x3d9f248a	0.07770641
80	0xbddcd3d0	-0.107825875
81	0x3eb8ddcd	0.3610672
82	0x3d175359	0.03694472
83	0xbdea98d0	-0.11454928
84	0x3dc97f5e	0.098387465
85	0x3ea04e56	0.31309766
86	0xbe43b907	-0.19113551
87	0xbeb59f10	-0.35472918
88	0xbe5a1f86	-0.21301088
89	0x3e15ae04	0.14617163
90	0xbc70fb0a	-0.01470829
91	0x3d3d1dd4	0.046171024
92	0x3dc2573d	0.09489296
93	0x3d29d5f4	0.041463807
94	0xbca04243	-0.019562846
95	0xbd15bdde	-0.036558025
96	0x3d036ccd	0.032086182
97	0x3c9f444d	0.019441748
98	0x3bc26adb	0.0059331483
99	0xbd46fb31	-0.0485794
100	0x3d7f5526	0.062337063
101	0xbdb9fc43	-0.09081318
102	0xbd69e00b	-0.05709843
103	0xbd678a50	-0.05652839
104	0x3d9f5f3a	0.07781835
105	0xbd29c3bd	-0.041446436
106	0xbe1cc0cb	-0.1530792
107	0x3dce5d37	0.10076373
108	0x3e8c5c32	0.2741409
109	0xbccf0525	-0.025271008
110	0xbe225ef3	-0.15856533
111	0xbe344ec6	-0.17608175
112	0xbcea6e77	-0.028617127
113	0xbe43739e	-0.19087073
114	0xbcc13d0a	-0.023588676
115	0x3cf29275	0.029610852
116	0x3d215a8c	0.039392993
117	0xbdebb294	-0.115086704
118	0xbe116654	-0.14199191
119	0x3cad227d	0.02113461
120	0x3d88633a	0.06659551
121	0x3c38c859	0.011278235
122	0xbd89ee6b	-0.06734928
123	0xbe16fce7	-0.14744912
124	0xbca04e2e	-0.019568529
125	0xbe3553af	-0.17707704
126	0x3d485bf2	0.04891581
127	0xbe08233e	-0.13294694
128	0x3e2f7bf2	0.17137125
129	0xbdf20423	-0.11817195
130	0x3dc917c2	0.098189846
131	0xbe66276b	-0.22475974
132	0x3ce04c45	0.027380118
133	0xbe4ee9bb	-0.20206349
134	0x3de0bd41	0.10973597
135	0x3c7b31af	0.01533167
136	0x3bfc9f11	0.007709392
137	0x3e0cc88f	0.13748382
138	0x3e460c98	0.19340742
139	0x3e76f5ea	0.24117246
140	0xbe460f2c	-0.19341725
141	0xbe2c9867	-0.16855012
142	0x3ccbb0d1	0.024864586
143	0xbe904b8b	-0.28182635
144	0x3c73cb9c	0.014880087
145	0x3ae7201b	0.001763347
146	0xbd980dec	-0.074245304
147	0x3db7bc80	0.089715004
148	0x3d215a4c	0.039392754
149	0x3c011de5	0.007880663
150	0xbd4d8ec3	-0.050184976
151	0xbdcf4abc	-0.10121676
152	0xbcffcd84	-0.031225927
153	0xbd70211d	-0.05862533
154	0xbd1914ef	-0.03737348
155	0x3d171f38	0.036895007
156	0xbe776391	-0.24159075
157	0xbdd63817	-0.10459917
158	0x3e60cd84	0.21953398
159	0x3c5da7d4	0.013528783
160	0xbdc71145	-0.09720091
161	0xbd80f574	-0.062968165
162	0xbd8a1f27	-0.06744223
163	0x3e00d6c6	0.1258193
164	0x3d8541eb	0.065067135
165	0xbd81e586	-0.06342606
166	0xbdcb9ac1	-0.09941626
167	0x3da79591	0.081828244
168	0xbdad60e5	-0.08465747
169	0xbd8ca679	-0.0686769
170	0x3c6b7e29	0.014373341
171	0xbd9e8e7d	-0.07742021
172	0xbe41d0f5	-0.18927367
173	0xbde1f33f	-0.11032724
174	0x3ecb574c	0.3971504
175	0x3dfc863c	0.12330291
176	0x3ea2caec	0.31795442
177	0x3e6c3746	0.2306796
178	0xbeafa263	-0.3430358
179	0xbd8218b3	-0.06352367
180	0x3e438d4d	0.1909687
181	0x3e10783e	0.14108369
182	0x3e719bba	0.23594561
183	0x3ddb6912	0.107134
184	0x3dac8557	0.0842387
185	0xbed0a8db	-0.40753826
186	0x3e62d459	0.22151317
187	0xbe6ee082	-0.2332783
188	0xbdc3b87f	-0.09556674
189	0x3de58045	0.11206106
190	0x3e2ec641	0.17067815
191	0x3e73ca15	0.23807557
192	0xbe799314	-0.24372512
193	0xbe0654f8	-0.1311835
194	0x3d12d7a8	0.035850197
195	0x3e9cef8e	0.30651516
196	0x3c213cf6	0.009841194
197	0x3d77c4f7	0.060490575
198	0xbae42853	-0.0017407037
199	0xbda48194	-0.080325276
200	0x3d84f417	0.06491869
201	0xbd8fb8c8	-0.07017666
202	0x3dcc3c0a	0.09972389
203	0x3c8b447f	0.017000435
204	0xbcb6497c	-0.022251837
205	0xbc65ccfc	-0.014025923
206	0x3d1d0dd6	0.038343273
207	0xbd9432c4	-0.07236245
208	0xbde950c6	-0.113923594
209	0x3da71a1e	0.08159278
210	0x3c8d5c4e	0.017255928
211	0xbf08b526	-0.5340141
212	0x3f313ce6	0.6923355
213	0xbd6923d9	-0.056918953
214	0x3d3d0cb0	0.046154678
215	0xbd0d4c06	-0.03449633
216	0x3e82e325	0.25563923
217	0xbe530825	-0.20608576
218	0xbe40b001	-0.1881714
219	0xbbedea90	-0.007260628
220	0xbd3c1173	-0.04591508
221	0xbc867ca4	-0.016416855
222	0xbda30733	-0.079603575
223	0x3ccc1316	0.024911445
224	0xbe9b1c79	-0.3029516
225	0x3d38123b	0.04493926
226	0x3cfa5f8a	0.030563135
227	0x3e218613	0.15773802
228	0xbd24cdd7	-0.040235367
229	0xbde463e9	-0.11151869
230	0xbd910e5a	-0.070828155
231	0xbe399631	-0.181237
232	0x3d99d735	0.075117506
233	0xbda9e54f	-0.0829569
234	0xbebd5c68	-0.36984563
235	0xbd510218	-0.051027387
236	0xbec1289e	-0.377263
237	0xbe4ceb87	-0.20011722
238	0x3e46f178	0.1942805
239	0xbdfd28b2	-0.12361278
240	0xbe28ba69	-0.1647736
241	0xbeb15448	-0.34634614
242	0x3d77742a	0.060413517
243	0x3cba0fd7	0.022712631
244	0xbeaa79f6	-0.33296174
245	0x3c9eb284	0.019372232
246	0xbe15fb50	-0.1464665
247	0x3e5a7f18	0.21337545
248	0xbd486a52	-0.04892952
249	0xbdc5840d	-0.09644327
250	0x3d18e179	0.037324402
251	0x3d356b37	0.0442917
252	0x3da0d19f	0.07852482
253	0xbd729431	-0.059223358
254	0xbcf0569a	-0.02933817
255	0x3d3e8a07	0.046518352

actor.0.bias f4 [512]
0	0xbd2b630d	-0.04184251
1	0x3d8176c1	0.06321479
2	0xbca2546f	-0.019815652
3	0xbd3cea09	-0.04612163
4	0xbd8bafd8	-0.06820649
5	0xbd7a07c9	-0.06104258
6	0x3dba0d04	0.09084514
7	0x3db794b2	0.08963908
8	0x3e2d4cb1	0.16923787
9	0x3dcf436d	0.10120282
10	0xbe2d44f6	-0.16920838
11	0x3de325dd	0.11091206
12	0xbdea0f08	-0.11428648
13	0x3dd3ab34	0.10335389
14	0xbce46dcb	-0.027884385
15	0xbd1722ac	-0.0368983
16	0xbd58ebca	-0.05295924
17	0x3d720e18	0.059095472
18	0x3dc57d8a	0.09643085
19	0xbd39579c	-0.045249566
20	0xbdc63793	-0.09678569
21	0x3d504c7a	0.050854184
22	0xbdcbe9b7	-0.09956687
23	0xbdc45df3	-0.09588232
24	0xbd8587c3	-0.06520035
25	0xbdf69be8	-0.120414555
26	0x3d994286	0.074833915
27	0xbd8d9192	-0.06912531
28	0x3c3bd6d4	0.011464793
29	0x3db0ac64	0.08626631
30	0x3e01f6a0	0.12691736
31	0x3be686a1	0.007035092
32	0xbdde5720	-0.108564615
33	0x3c1988b1	0.009370969
34	0xbde7f4ab	-0.113259636
35	0xbddf215d	-0.108950354
36	0x3e1ed3aa	0.15510431
37	0xbe02e9fe	-0.12784573
38	0x3da8a165	0.082339086
39	0x3d5e1f2f	0.054228958
40	0xbd3bab82	-0.04581786
41	0x3d2f8489	0.042851005
42	0xbd52db03	-0.051478397
43	0xbc4a3b74	-0.012343276
44	0x3d8a3c3f	0.06749772
45	0xbb2975be	-0.0025857533
46	0x3da46431	0.080269225
47	0xbdd7bcbb	-0.10534044
48	0x3de69b31	0.11260069
49	0xbca22955	-0.0197951
50	0x3d971783	0.073775314
51	0xbd38ee57	-0.045149174
52	0xbc6bacab	-0.014384429
53	0xbdc2068a	-0.094739035
54	0xbdd37201	-0.10324479
55	0x3ca1bedd	0.019744331
56	0xbb9ee6e7	-0.004849303
57	0xbe1f2269	-0.1554047
58	0x3da5724c	0.08078441
59	0x3d477ce0	0.048703074
60	0x3e3022f9	0.17200841
61	0xbdcbe930	-0.09956586
62	0x3d019e46	0.031645082
63	0x3d989430	0.074501395
64	0x3ce4bf98	0.02792339
65	0xbe0e40d6	-0.1389192
66	0x3db20210	0.086918
67	0x3dd9de82	0.10638143
68	0x3dc561c5	0.09637789
69	0xba89f5a0	-0.0010525472
70	0xbe160c4f	-0.14653133
71	0xbcf8cd23	-0.030371254
72	0x3c6f824c	0.014618468
73	0xbd50fcd1	-0.051022355
74	0xbd3106fc	-0.04321955
75	0xbd8f542e	-0.06998478
76	0xbde2ec13	-0.11080184
77	0x3d551997	0.052026358
78	0xbca9d186	-0.020729791
79	0x3d6f3532	0.05840034
80	0xbcc4971f	-0.023997841
81	0xbe27eacf	-0.16398166
82	0x3d35cac5	0.04438283
83	0xbd90dbf9	-0.070732065
84	0x3c954a73	0.018223977
85	0x3d36e004	0.04464723
86	0x3d84807c	0.06469819
87	0x3d8ece90	0.069729924
88	0xbdf1f6d8	-0.1181466
89	0xbd90f96e	-0.07078825
90	0x3dea90ce	0.114534006
91	0x3c50c880	0.012743115
92	0xbd3c9430	-0.04603976
93	0x3d673708	0.056448966
94	0x3d8ebe48	0.06969887
95	0x3c840ce7	0.016119434
96	0x3d671995	0.05642088
97	0x3b754b37	0.0037428865
98	0xbe10ebc0	-0.14152431
99	0x3db0df6e	0.08636366
100	0x3cb088bc	0.021549575
101	0xbc4c724f	-0.012478425
102	0xbd8529b8	-0.06502098
103	0x3cfb4594	0.030672826
104	0xbe09df82	-0.13464168
105	0x3b66c026	0.0035209744
106	0xbe0d29f8	-0.13785541
107	0x3d0b8526	0.034062527
108	0xbd996f1f	-0.07491898
109	0xbd049b75	-0.032374818
110	0x3db11224	0.08646038
111	0x3ddbcc45	0.10732321
112	0x3c0255b1	0.007955001
113	0x3d46abeb	0.048503798
114	0xbc19c33f	-0.009384929
115	0x3d7a5992	0.061120577
116	0xbdcc8c6b	-0.0998772
117	0xbd4d97f6	-0.05019375
118	0x3d8a83c0	0.067634106
119	0x3db3e47f	0.087838165
120	0x3c9738cc	0.0184597
121	0xbc572389	-0.013131031
122	0xbdc2658f	-0.09492027
123	0x3da53455	0.08066622
124	0xbe1361bd	-0.14392753
125	0xbd95bb46	-0.0731111
126	0xbb465554	-0.0030263262
127	0xbc89a260	-0.01680106
128	0x3d9c562f	0.07633626
129	0x3d9acba3	0.07558372
130	0xbdacc68f	-0.084363095
131	0xbd573235	-0.052538116
132	0x3e091204	0.13385779
133	0x3d84905e	0.06472848
134	0x3d16d49c	0.036823854
135	0x3d9c24d6	0.076242134
136	0xbd2754a2	-0.040852197
137	0xbdfa6af0	-0.12227428
138	0xbca0ab6d	-0.019612992
139	0xbe061864	-0.13095242
140	0x3d8ccc0b	0.068748556
141	0x3df63475	0.12021724
142	0xbe2a74c9	-0.16646113
143	0xbcb6f5bd	-0.022333974
144	0xbd9a6f9e	-0.075408205
145	0xbd084b3f	-0.033274885
146	0xbd8721af	-0.065982215
147	0x3d22c714	0.039740637
148	0x3dc0af37	0.094084196
149	0xbd50d6b7	-0.050986018
150	0x3d1b3b2f	0.03789824
151	0xbb1cd1ba	-0.0023928718
152	0xbdb75173	-0.08951082
153	0x3b82e35d	0.003994389
154	0x3de00664	0.10938719
155	0x3e032db0	0.12810397
156	0x3d55b4f5	0.052174527
157	0xbcccf1b5	-0.025017599
158	0xbd3d7313	-0.04625232
159	0xbe0a8a96	-0.13529429
160	0x3d41a18d	0.047273207
161	0xbd740d4f	-0.059583005
162	0xbd9f970c	-0.07792482
163	0xbdd4ae58	-0.10384816
164	0x3df86d52	0.12130226
165	0x3d7239a3	0.059136998
166	0xbcd6c11e	-0.026215132
167	0xbd5df7d2	-0.054191418
168	0x3c854738	0.016269311
169	0xbdea979b	-0.11454698
170	0x3d7276b6	0.059195243
171	0x3b529bbc	0.0032136282
172	0x3d742bfb	0.059612256
173	0x3d482798	0.048865885
174	0x3c54eddc	0.012996163
175	0x3da150bf	0.07876729
176	0xbdfa69f8	-0.12227243
177	0xbd50c4bc	-0.05096887
178	0x3ca17270	0.019707888
179	0x3ddc5791	0.107588895
180	0xbdec3f7b	-0.115355454
181	0x3da36f18	0.07980174
182	0xbbbf50a0	-0.0058384687
183	0xbdf64d6a	-0.12026484
184	0x3cd24029	0.02566536
185	0xbd42e3b2	-0.04758043
186	0xbe00cb7e	-0.12577626
187	0xbdab85c3	-0.083751224
188	0xbde7c14f	-0.113161676
189	0x3d69a73f	0.057044264
190	0xbbe1499a	-0.006875229
191	0xbe298f28	-0.16558516
192	0x3df77c57	0.12084263
193	0xbd4a5d07	-0.049405124
194	0x3dbd3608	0.09238821
195	0x3da7502a	0.08169587
196	0x3dc13cdb	0.094354354
197	0x3db257a8	0.08708125
198	0x3e02fefc	0.12792581
199	0x3b6aac9c	0.003580845
200	0xbda18a19	-0.07887668
201	0xbd68f6a7	-0.05687585
202	0xbdd7ce8a	-0.10537441
203	0x3d26d5ae	0.040731125
204	0x3cc2bd05	0.023771772
205	0x3c081a2c	0.008307021
206	0x3dc1404f	0.09436094
207	0x3d5921cc	0.053010747
208	0x3c47839b	0.012177373
209	0xbdbf1c76	-0.093316
210	0xbd911d05	-0.07085613
211	0xbccb63de	-0.024827894
212	0x3d117f3c	0.03552173
213	0xbd8bad26	-0.06820135
214	0xbe1b598e	-0.15170881
215	0xbd34261b	-0.043981653
216	0xbd8f9e25	-0.070125856
217	0x3be15e07	0.006877664
218	0x3a7b90c2	0.0009596461
219	0xbc30c89d	-0.010790017
220	0x3c99a084	0.018753298
221	0x3d88b82e	0.066757545
222	0xbd9ee47e	-0.07758425
223	0xbc969378	-0.018380865
224	0x3da3c014	0.0799562
225	0xbc6d321a	-0.014477277
226	0xbda9773f	-0.082746975
227	0xbde20bb9	-0.11037392
228	0xbd798318	-0.060916036
229	0xbe02425b	-0.12720625
230	0x3d95134c	0.07279071
231	0x3e1600bd	0.14648719
232	0x3dadb3c5	0.08481554
233	0xbd63f04c	-0.055649087
234	0x3c74629d	0.014916089
235	0x3d715cff	0.05892658
236	0x3c9b602f	0.018966762
237	0x3d6c9092	0.05775506
238	0xbd68c360	-0.05682695
239	0xbccd41bc	-0.025055759
240	0x3d3aeb94	0.04563482
241	0xbd92100f	-0.07131969
242	0x3d924a86	0.071431205
243	0xbd970a66	-0.0737503
244	0x3d3b0d1a	0.04566679
245	0xbb5d2bde	-0.003374807
246	0x3cab51a9	0.020912962
247	0x3cc71654	0.024302639
248	0x3e08eb76	0.13371071
249	0x3c4ffb38	0.012694173
250	0xbc18af8f	-0.0093192
251	0x3a91fcd1	0.0011137967
252	0x3dff0563	0.12452199
253	0xbd4c582f	-0.049888786
254	0x3d28d0da	0.0412148
255	0xbdc85b17	-0.09782999

actor.2.weight f4 [256, 512]
0	0xbd855057	-0.06509464
1	0xbcdbde8b	-0.026839515
2	0x3df4c34e	0.11951314
3	0xbdc4711b	-0.09591886
4	0x3dd8d001	0.105865486
5	0xbd9aa2d4	-0.07550588
6	0xbd4df793	-0.050284933
7	0x3dba9ed3	0.091123246
8	0x3d4c7d31	0.04992408
9	0xbdd7e48c	-0.10541639
10	0x3db23126	0.087007806
11	0xbdbe2a67	-0.09285431
12	0x3cc02e88	0.023459688
13	0x3e0329a3	0.12808852
14	0x3d1381cb	0.036012452
15	0x3de91e4a	0.1138273
16	0x3e092a64	0.13395077
17	0x3dcb2726	0.09919576
18	0xbdb0dc1d	-0.08635733
19	0x3ce4589c	0.027874283
20	0xbe46c253	-0.19410066
21	0x3be7d789	0.0070752543
22	0x3da6f542	0.08152248
23	0x3d8aa9e6	0.06770687
24	0xbe0e2c36	-0.13884053
25	0xbc4584bf	-0.012055575
26	0x3e2f9c54	0.17149478
27	0x3de1d002	0.110260025
28	0x3d20f676	0.039297543
29	0x3e21b239	0.15790643
30	0x3c8efd2b	0.017454704
31	0x3d88b015	0.0667421
32	0xbe00ffdf	-0.12597607
33	0x3bd3465a	0.0064475955
34	0xbdb0b9bb	-0.08629175
35	0xbc7d4aef	-0.01545976
36	0x3db10282	0.086430565
37	0xbd6ef347	-0.058337476
38	0xbd32af9b	-0.0436245
39	0x3c9f7395	0.019464293
40	0x3ca53e3a	0.020171273
41	0x3d34a8b0	0.044106185
42	0xbd52804a	-0.051391877
43	0xbe6f8886	-0.23391923
44	0x3e070709	0.13186277
45	0xbd989f93	-0.07452311
46	0x3d84f2f8	0.06491655
47	0x3da79dfb	0.08184429
48	0xbd7a894d	-0.061166096
49	0x3d4da3b3	0.050204944
50	0xbdb7c6e8	-0.08973485
51	0xbdb52d26	-0.08846502
52	0xbe940279	-0.28908136
53	0xbd22a936	-0.039712153
54	0x3d3f4143	0.046693098
55	0xbd98dcf4	-0.074640185
56	0xbe32e698	-0.17470777
57	0xbd8a519b	-0.06753846
58	0xbd99a17b	-0.07501503
59	0xbc89d766	-0.016826343
60	0x3de4c0c7	0.11169582
61	0xbcf615b7	-0.030039651
62	0x3c0c24a1	0.008553655
63	0x3dbddbfd	0.09270475
64	0xbe01fbdd	-0.12693734
65	0x3cd52e4a	0.026023049
66	0xbd5ec3bb	-0.054385882
67	0xbd67b67a	-0.056570508
68	0x3c6a74d4	0.014310081
69	0xbc65e0f9	-0.014030688
70	0xbd70cdaa	-0.058789887
71	0x3d9efc4a	0.07762964
72	0xbcdeeb73	-0.02721188
73	0x3b973d96	0.004615496
74	0xbc689eb6	-0.014197996
75	0x3ddacba4	0.106833726
76	0x3e296352	0.16541794
77	0xbd6ecfaa	-0.058303513
78	0xbca29c1a	-0.019849826
79	0x3ce591d6	0.028023642
80	0x3d688fa9	0.05677763
81	0x3d322b4d	0.043498326
82	0xbc49bdf2	-0.012313353
83	0x3d72b5b3	0.059255313
84	0xbc828765	-0.015933702
85	0x3cc39fc4	0.023879893
86	0x3d2c52c0	0.042071104
87	0x3e0c09b3	0.13675575
88	0xbd0b3324	-0.03398432
89	0xbdfb5c16	-0.122734234
90	0x3d21b690	0.039480746
91	0x3d459e15	0.048246462
92	0x3cb5103a	0.022102464
93	0x3c1232b0	0.008923218
94	0xbc8df2d5	-0.017327705
95	0x3d6539fd	0.055963505
96	0x3dad11a7	0.084506325
97	0xbbc54d34	-0.006021166
98	0x3daf1019	0.08547992
99	0x3e1788e8	0.1479832
100	0x3da1e992	0.07905878
101	0x3d171cc5	0.03689267
102	0xbddad215	-0.10684601
103	0x3e0bbfe4	0.13647419
104	0xbdcf3763	-0.10117986
105	0x3d918b7a	0.07106681
106	0x3d04011f	0.03222763
107	0xbcc9b39a	-0.024621774
108	0xbdf6a8e9	-0.12043936
109	0x3d40f09f	0.047104474
110	0x3d0eb43d	0.034839857
111	0xbd478c5a	-0.048717834
112	0xbe64fb68	-0.22361529
113	0x3c7dfcba	0.015502149
114	0xbbd8aa8b	-0.006612127
115	0x3ba2779b	0.0049581057
116	0xbbcb4c9f	-0.0062042023
117	0x3d9f275c	0.07771179
118	0xbdd8f8f5	-0.1059436
119	0x3b85db93	0.004085013
120	0x3ce61470	0.028085917
121	0xbd359f65	-0.044341464
122	0xbe0cf8fb	-0.13766854
123	0x3e43afa3	0.19109969
124	0x3dcaedf6	0.09908669
125	0x3e4a63ce	0.19764635
126	0xbd9ca281	-0.07648183
127	0x3e21ac02	0.15788272
128	0xbd8945a6	-0.067027375
129	0x3aec880b	0.0018045915
130	0x3ccc3516	0.024927657
131	0x3d3ddfa0	0.046355844
132	0x3e088d7f	0.13335226
133	0xbd8840e2	-0.066530004
134	0x3e209bd7	0.15684448
135	0xbcf03bf2	-0.02932546
136	0x3e1d64a9	0.1537043
137	0x3ddbea29	0.10738022
138	0x3e197add	0.14988275
139	0xbd8e12e9	-0.069372006
140	0xbdf7407d	-0.12072847
141	0xbbe4fb4e	-0.0069879657
142	0xbc65e065	-0.014030551
143	0x3da06307	0.07831388
144	0xbd51e68f	-0.05124527
145	0x3d89d8f7	0.06730836
146	0x3db966db	0.09052821
147	0xbd09e3a5	-0.033664364
148	0xbd6e4770	-0.058173597
149	0x3e1a149d	0.15046926
150	0xbdf474d8	-0.11936349
151	0x3dfc4d49	0.123194285
152	0x3ca6b7c9	0.020351307
153	0xbe3ec001	-0.18627931
154	0xbe1146ef	-0.14187215
155	0x3dd86652	0.10566391
156	0x3cb47c19	0.02203183
157	0x3d79802e	0.060913257
158	0xbd9bf85c	-0.0761573
159	0x3cba5c4a	0.022749085
160	0x3d4db561	0.050221805
161	0x3b66b9b9	0.0035205914
162	0x3dd479c9	0.10374791
163	0xbd9bc303	-0.07605555
164	0x3d98a0b3	0.07452526
165	0x3dbc7043	0.092011
166	0xbbb16aec	-0.0054143574
167	0x3d086bf0	0.033306062
168	0x3e3288ab	0.17434947
169	0x3d416708	0.0472174
170	0xbd8290b9	-0.0637526
171	0x3d60ad0c	0.05485253
172	0xbde88181	-0.11352826
173	0x3cf7244c	0.030168675
174	0x3d3262c7	0.043551233
175	0x3b592b47	0.0033137368
176	0xbcef0f05	-0.029181967
177	0xbc9e6ea8	-0.019339874
178	0x3da47693	0.08030429
179	0xbc9961ce	-0.018723395
180	0xbc6fd875	-0.01463901
181	0xbd1de3dc	-0.03854738
182	0x3cb79fbe	0.022415038
183	0x3c07e8bb	0.008295233
184	0x3df52796	0.11970441
185	0xbdc57e59	-0.096432395
186	0x3d8d27fb	0.06892391
187	0xbc7e77fb	-0.015531535
188	0xbe767ad0	-0.24070287
189	0xbdac9230	-0.084263206
190	0xbd31bcaa	-0.043392815
191	0x3d1b3b55	0.03789838
192	0xbdc14c81	-0.0943842
193	0xbdc20938	-0.094744146
194	0x3dccfc37	0.10009044
195	0x3e07fcba	0.13280001
196	0xbe4d6722	-0.20058873
197	0xbe036088	-0.12829792
198	0xbcd1b49a	-0.025598813
199	0xbe94a7b6	-0.29034203
200	0xbcd0967a	-0.025462378
201	0x3c197ab2	0.009367632
202	0xbe3143c7	-0.17311011
203	0xbdb49c78	-0.088189065
204	0x3de1fcfa	0.110345796
205	0xbd037e61	-0.032102946
206	0x3cd25981	0.025677444
207	0x3d3e4c47	0.046459462
208	0x3dcbae49	0.09945352
209	0xbe71e021	-0.23620655
210	0x3dcbb279	0.0994615
211	0x3dbc8309	0.092046805
212	0x3daf47d1	0.0855862
213	0xbcaee3ad	-0.021348799
214	0x3d9f90ce	0.07791291
215	0xbe42c4eb	-0.1902043
216	0x3df2b64d	0.11851177
217	0xbc781321	-0.015141279
218	0x3db67148	0.089083254
219	0xbd767260	-0.06016767
220	0x3c206141	0.009788812
221	0x3e0357f6	0.12826523
222	0xbdb7e0bb	-0.08978411
223	0x3d4908d2	0.049080677
224	0x3d6aae62	0.05729521
225	0x3d8eff91	0.06982339
226	0xbd27c957	-0.040963497
227	0xbd132a76	-0.035929166
228	0x3ad52c38	0.0016263789
229	0x3dea6db5	0.11446706
230	0x3e0434f8	0.12910831
231	0x3db62890	0.088944554
232	0x3d16afa6	0.036788605
233	0x3d8688f2	0.06569089
234	0xbccbddb2	-0.024885986
235	0x3e25d903	0.16196065
236	0xbd0956ae	-0.03352993
237	0x3d2ebe91	0.042662207
238	0xbe10872b	-0.14114062
239	0x3c8fa81f	0.017536221
240	0xbd8c43ba	-0.06848855
241	0xbe08ba6b	-0.13352363
242	0xbd9368a6	-0.071976945
243	0x3db22750	0.086989045
244	0x3db1062c	0.08643755
245	0xbc318437	-0.010834745
246	0x3de6ada6	0.112635896
247	0xbd93b683	-0.07212546
248	0x3de0e0aa	0.10980351
249	0xbdcd1488	-0.10013682
250	0x3de3174a	0.110884264
251	0x3dd0bc93	0.10192218
252	0x3cfdf764	0.031001754
253	0x3d28a951	0.041177098
254	0xbde7c5f9	-0.11317057
255	0xbb0244ce	-0.0019877437

actor.2.bias f4 [256]
0	0xbd2078e9	-0.03917781
1	0xbce79408	-0.028268829
2	0xbdce6ddb	-0.10079547
3	0xbd2d0781	-0.042243484
4	0xbd5bcf31	-0.05366439
5	0xbc9454cc	-0.01810684
6	0xbd882c02	-0.06649019
7	0xbc4ce39d	-0.012505439
8	0xbc8f7211	-0.017510446
9	0xbdaa09fc	-0.083026856
10	0xbd819899	-0.06327934
11	0x3c053a75	0.008131613
12	0xbdb0209f	-0.08599972
13	0xbbbbd640	-0.0057323277
14	0xbe393668	-0.1808716
15	0xbd81ef54	-0.06344476
16	0xbd959c9d	-0.07305262
17	0x3d0f16e4	0.03493394
18	0x3c21ee53	0.009883481
19	0xbdd0a221	-0.10187174
20	0xbd120d6c	-0.03565733
21	0xbdc37a98	-0.09544867
22	0xbcddac20	-0.027059615
23	0xbdf8a54f	-0.12140905
24	0xbde48130	-0.11157453
25	0x3b4b15f6	0.0030988432
26	0xbcf290a0	-0.029609978
27	0xbd825bfc	-0.06365201
28	0x3cba416e	0.022736277
29	0xbd13a59d	-0.036046613
30	0xbd872532	-0.06598891
31	0xbdbc4206	-0.091922805
32	0x3be592d3	0.007006028
33	0xbcabe477	-0.020982964
34	0xbd340ba7	-0.043956425
35	0xbce8fa5e	-0.028439697
36	0xbcdf8405	-0.027284632
37	0xbcda1bf6	-0.026624661
38	0x3c60b4fa	0.013715023
39	0xbd75aa9e	-0.059977166
40	0xbb1e7a59	-0.0024181812
41	0xbda75334	-0.081701666
42	0xbdf2a841	-0.11848498
43	0xb88b387d	-6.638558e-05
44	0xbcd42552	-0.025896702
45	0xbd89f4ea	-0.06736167
46	0xbe17b1a9	-0.14813866
47	0xbdb3e0bd	-0.087831
48	0xbc5e9672	-0.013585674
49	0xbd5cdcf0	-0.05392164
50	0xbdca9a27	-0.098926835
51	0xbd823cd3	-0.063592575
52	0xbdc4041e	-0.09571098
53	0xbd0d6bde	-0.0345267
54	0xbd70a041	-0.05874658
55	0xbc2b90d7	-0.010471544
56	0xbb3a8fff	-0.0028467176
57	0xbdc7f7ae	-0.09764038
58	0x399780c7	0.0002889691
59	0xbde6f3f4	-0.11276999
60	0xbd2832f9	-0.041064236
61	0xbd0211e9	-0.03175536
62	0xbd29b8b6	-0.04143592
63	0xbd507828	-0.05089584
64	0x3d1758d7	0.03694996
65	0xbe317e87	-0.17333423
66	0xbd23dce8	-0.040005594
67	0x3d367640	0.044546366
68	0xbe1315bf	-0.14363764
69	0xbd8f87f4	-0.07008353
70	0xbc8d5a34	-0.017254926
71	0xbd87e16c	-0.06634793
72	0xbdc9cdbe	-0.09853695
73	0xbe1ce312	-0.15320995
74	0xbdaba7af	-0.083815925
75	0xbd0a7c4b	-0.03380994
76	0xbd3180d5	-0.043335754
77	0x3d0b92cf	0.034075554
78	0xbd3bb579	-0.045827363
79	0x3ceeeacb	0.029164692
80	0xbdf27baa	-0.11839993
81	0xbc1efe82	-0.009704234
82	0xbd811908	-0.063036025
83	0xbdedfc07	-0.11620336
84	0xbd01bb38	-0.031672686
85	0xbe03c6f8	-0.1286887
86	0xbc176378	-0.009240024
87	0xbdc3b250	-0.09555495
88	0x3c8da011	0.01728824
89	0xbd9c1bfb	-0.07622524
90	0xbb83c812	-0.004021653
91	0xbd63f316	-0.055651747
92	0xbdbeac70	-0.093102336
93	0xbd3b6534	-0.04575081
94	0xbd5e385c	-0.054252967
95	0xbcbe0213	-0.023194348
96	0xbcb510bd	-0.022102708
97	0xbd5e879e	-0.054328553
98	0xbd8896b6	-0.06669371
99	0xbda14641	-0.07874728
100	0xbd146f25	-0.03623881
101	0xbde9f255	-0.11423174
102	0xbdf49265	-0.11941985
103	0xbc6a9a43	-0.014319005
104	0xbd5bf397	-0.053699102
105	0xbd07747d	-0.033070076
106	0xbd977163	-0.07394674
107	0xbd3b7793	-0.04576833
108	0xbc879dee	-0.016554799
109	0x3c2459f1	0.010031209
110	0xbd476a38	-0.048685282
111	0xbdc656f6	-0.09684555
112	0xbd8cb761	-0.06870914
113	0xbd3099a8	-0.043115288
114	0xbde84b4b	-0.11342486
115	0xbda8a09b	-0.08233758
116	0xbd5e5923	-0.054284226
117	0xbd3503fa	-0.044193245
118	0x3d6114e5	0.054951567
119	0xbcf08b13	-0.02936319
120	0xbd553bff	-0.05205917
121	0xbd8f24db	-0.069894515
122	0xbde1f28c	-0.1103259
123	0xbd54ecef	-0.05198377
124	0xbd442f1b	-0.047896486
125	0xbdd13e87	-0.10217004
126	0xbe416624	-0.1888662
127	0x3c2a4a86	0.010393744
128	0xbc57a163	-0.013161036
129	0xbb121335	-0.002228928
130	0xbd87801d	-0.066162325
131	0xbcca575b	-0.024699857
132	0xbca15c87	-0.01969744
133	0xbddf400c	-0.10900888
134	0xbd9652f1	-0.073400386
135	0xbd9925a0	-0.074778795
136	0xbd71e3c1	-0.059055094
137	0x3c59280d	0.013254178
138	0xbe100efc	-0.14068216
139	0xbc1548a9	-0.009111562
140	0xbdef78ac	-0.11692938
141	0xbd3972f8	-0.04527566
142	0xbd19b13b	-0.037522536
143	0xbd7d89a1	-0.06189883
144	0xbc883d41	-0.01663077
145	0xbd7158bb	-0.05892251
146	0xbd0601c9	-0.032716546
147	0x3bcddaff	0.00628221
148	0xbd967c72	-0.07347955
149	0xbe25a3d0	-0.16175771
150	0xbd0c52eb	-0.034258764
151	0xbc750e7b	-0.014957066
152	0xbd563b80	-0.052302837
153	0xbd1778e8	-0.03698054
154	0xbc897526	-0.016779494
155	0x3ca65a96	0.020306867
156	0xbd1a3b83	-0.03765441
157	0xbda57f9d	-0.08080981
158	0xbda426f4	-0.08015242
159	0xbd6d3fca	-0.057922162
160	0xbd8ba804	-0.06819156
161	0xbdbe2e09	-0.09286124
162	0xbd9b9945	-0.07597593
163	0xbd85ce87	-0.065335326
164	0xbc922f11	-0.017844709
165	0xbd810565	-0.06299857
166	0x3c44e2cc	0.012016963
167	0xbdd6164b	-0.10453471
168	0xbd2dbeb4	-0.042418197
169	0xbdce1fb1	-0.100646384
170	0xbdfa7e8b	-0.122311674
171	0xbd28616d	-0.041108537
172	0xbd9de88c	-0.077103704
173	0xbcc42505	-0.023943434
174	0xbd25943a	-0.040424563
175	0xbe014de9	-0.12627377
176	0xbc5fa977	-0.013651243
177	0xbdad354d	-0.08457432
178	0xbdc85392	-0.09781565
179	0x3cbbf739	0.022945033
180	0xbda94a9f	-0.08266186
181	0xbdc426fc	-0.09577748
182	0xbd35a0f9	-0.04434297
183	0xbc9898f8	-0.018627629
184	0xbd8e30bb	-0.06942888
185	0xbdd8f633	-0.10593834
186	0xbdc40d55	-0.095728554
187	0xbc6dff90	-0.014526263
188	0xbcaaf19e	-0.020867165
189	0xbd031078	-0.031998128
190	0xbdd7b8d5	-0.10533301
191	0xbcd37182	-0.02581096
192	0xbd8a4cc4	-0.06752923
193	0xbda2ced0	-0.079496026
194	0xbd83179b	-0.06400987
195	0xbdd2504b	-0.10269221
196	0xbcf38ca7	-0.029730154
197	0xbdb4ad5e	-0.0882213
198	0xbd8aef6c	-0.06783947
199	0xbcd33d8f	-0.02578619
200	0x3c1fe396	0.009758851
201	0xbc968e73	-0.018378472
202	0xbdfc1cae	-0.12310158
203	0xbdd3a53e	-0.10334252
204	0xbcbbd1c0	-0.022927165
205	0xbd42a445	-0.04751994
206	0xbda08843	-0.0783849
207	0xbd21b7bc	-0.039481863
208	0xbca65fe4	-0.020309396
209	0xbd73e4dc	-0.05954443
210	0xbba39aee	-0.0049928343
211	0xbde29922	-0.11064364
212	0xbd87dc1b	-0.06633779
213	0xbd10244a	-0.035190858
214	0xbc1fd299	-0.0097548
215	0xbd8906ec	-0.06690773
216	0xbb801aeb	-0.003909459
217	0x3afecf57	0.0019440454
218	0xbd8a6df4	-0.06759253
219	0xbd0ffeab	-0.03515498
220	0xbd1d6ebe	-0.03843569
221	0x3c29d850	0.010366514
222	0x3c88a0d2	0.016678248
223	0xbc6b49a9	-0.014360824
224	0xbd509993	-0.05092771
225	0xbd777dcb	-0.0604227
226	0xbcc675f5	-0.024226168
227	0xbc4a9081	-0.012363554
228	0xbda3a763	-0.07990911
229	0xbdb1fb01	-0.08690453
230	0xbdafc320	-0.08582139
231	0xbb248321	-0.0025102573
232	0xbcc71e50	-0.024306446
233	0xbd8d8bf4	-0.069114596
234	0xbdbc83a3	-0.09204795
235	0xbd92b0dc	-0.071626395
236	0xbd4bc317	-0.0497466
237	0xbd8a223a	-0.067448094
238	0x3b7784d4	0.003776838
239	0xbd7039f6	-0.058649026
240	0xbdd6f39b	-0.10495683
241	0xbd124369	-0.03570882
242	0x3bd42479	0.0064740744
243	0xbd02f125	-0.031968255
244	0xbcc29448	-0.023752347
245	0xbd827a7b	-0.063710175
246	0xbd9027f3	-0.0703887
247	0xbd4dfbb8	-0.050288886
248	0xbd68a393	-0.05679662
249	0xbdc68c4c	-0.09694728
250	0xbc873474	-0.016504504
251	0xbd5e30bc	-0.054245695
252	0xbb1e0018	-0.0024108943
253	0xbb93dbee	-0.0045123016
254	0xbcd1c678	-0.025607333
255	0xbcae18f9	-0.021252142

actor.4.weight f4 [128, 256]
0	0xbcd0a89d	-0.025471026
1	0xbd1ebc70	-0.038753927
2	0x3cf5b3d3	0.029992973
3	0xb8d76300	-0.00010270439
4	0x3ad7e0ab	0.0016470155
5	0xbdcf6a21	-0.10127664
6	0x3d991dc1	0.07476378
7	0x3cc6be82	0.024260763
8	0xbbbdc327	-0.0057910862
9	0xbd4ca431	-0.049961273
10	0xbd2589f4	-0.040414765
11	0xbcc7c218	-0.024384543
12	0x3cf0dddc	0.029402666
13	0xbd61ee43	-0.055158865
14	0x3dc7c6c9	0.09754712
15	0x3dd09c01	0.101860054
16	0x3b0442ff	0.0020181534
17	0xbd2a7f30	-0.0416252
18	0xbdcd0e7b	-0.100125276
19	0x3defcb21	0.11708666
20	0xbd80dedd	-0.06292508
21	0xbcccf2fc	-0.025018208
22	0x3d45f7d2	0.048332043
23	0x3c7717d9	0.015081369
24	0xbd83c03b	-0.064331494
25	0x3dabb3b2	0.083838835
26	0xbda89e06	-0.082332656
27	0xbda001b5	-0.078128256
28	0xbc9dc599	-0.019259261
29	0x3d893570	0.066996455
30	0x3cd7d171	0.026344987
31	0x3dc24112	0.094850674
32	0xbdd8511a	-0.10562344
33	0xbda795be	-0.08182858
34	0xbd1a287d	-0.03763627
35	0x3e35d477	0.1775683
36	0x3d20c064	0.039245978
37	0xbb2874e6	-0.0025704443
38	0xbdcab446	-0.09897666
39	0xbd40796a	-0.04699079
40	0xbb57db3e	-0.0032937075
41	0x3a79b8bc	0.0009526124
42	0xbd8f7bf5	-0.07006065
43	0xbcb50cf3	-0.022100901
44	0x3b900be0	0.004395947
45	0x3d28205d	0.04104649
46	0x3db218a7	0.08696108
47	0x3d1370cd	0.035996247
48	0xbcb0f969	-0.021603303
49	0x3d218040	0.03942895
50	0xbc99183c	-0.018688314
51	0x3d925858	0.071457565
52	0xbd7ca2c9	-0.06167868
53	0x3d93b9e8	0.07213193
54	0x3e271273	0.16315632
55	0x3cd8630f	0.026414422
56	0x3da13c32	0.078728095
57	0x3c36de4c	0.011161398
58	0x3c4aec40	0.012385428
59	0x3d4d0f42	0.05006338
60	0xbd2c74d3	-0.0421036
61	0xb9498d9a	-0.00019221604
62	0xbda470f3	-0.08029356
63	0x3dab09a7	0.083514504
64	0x3d4460e9	0.047943983
65	0x3d17f21c	0.037096128
66	0x3c02de2e	0.007987542
67	0x3dcd15b4	0.10013905
68	0x3d228653	0.039678883
69	0x3d3181c9	0.043336663
70	0xbd86a32e	-0.06574093
71	0xbd103bc2	-0.03521324
72	0xbdec21b0	-0.11529863
73	0x3d9c66b7	0.07636779
74	0x3d7d674d	0.061866093
75	0x3d14e07c	0.036346897
76	0xbe251d11	-0.16124369
77	0x3d0b5020	0.03401196
78	0xbdab7742	-0.08372356
79	0xbd2fd4dc	-0.042927608
80	0xbc78fea0	-0.015197426
81	0x3aaad61c	0.001303378
82	0x3d7feb92	0.062480517
83	0x3d840ca9	0.06447727
84	0x3dde72aa	0.10861714
85	0xbdde95a0	-0.108683825
86	0x3d3e6052	0.046478577
87	0x3d533453	0.051563572
88	0xbd1b1b4f	-0.03786784
89	0x3dc8251a	0.097727016
90	0x3cdcfc6a	0.02697583
91	0x3db5849d	0.088631846
92	0x3d9851f4	0.07437506
93	0xbddce355	-0.10785548
94	0x3c2cda60	0.0105501115
95	0xbd1b9bc4	-0.037990347
96	0x3db71c32	0.08940925
97	0xbd14092b	-0.036141556
98	0x3d404818	0.046943754
99	0xbd8f7dbd	-0.070064045
100	0x3c8b74a6	0.017023396
101	0xbd314f02	-0.04328824
102	0x3d7a9244	0.061174646
103	0x3d3fdae2	0.046839602
104	0xbd8fb893	-0.070176266
105	0xbc5e9ff4	-0.0135879405
106	0x3d1a1ef6	0.037627183
107	0x3dcad4a3	0.099038385
108	0x3dca6b6c	0.0988377
109	0x3d585d59	0.0528234
110	0xbd66eeaa	-0.05637995
111	0x3d993fc9	0.07482869
112	0x3d70ce5b	0.058790546
113	0x3d07988c	0.033104464
114	0xbd382ab6	-0.044962607
115	0x3dba5f7f	0.09100246
116	0x3d065443	0.032795202
117	0x3ca45569	0.020060258
118	0xbddaf4f7	-0.106912546
119	0xbe15ebed	-0.1464078
120	0x3d21dd44	0.039517656
121	0x3d2b4a2d	0.041818786
122	0x3cdfe9a8	0.027333096
123	0x3d9846e3	0.074353956
124	0x3d2c4a3f	0.042062994
125	0x3d272e7a	0.040815808
126	0xbda53672	-0.08067025
127	0x3c22120f	0.009892001
128	0xbcf75f66	-0.030196857
129	0xbbd53e9e	-0.0065077087
130	0xbe154138	-0.1457566
131	0x3dc8bff5	0.09802238
132	0x3d0e05ca	0.03467349
133	0xbd912b64	-0.07088354
134	0x3d49be18	0.049253553
135	0x3c9a2948	0.018818513
136	0xbc037861	-0.008024306
137	0x3d6f71b1	0.058458034
138	0x3da91645	0.08256201
139	0xbd8c3110	-0.068452954
140	0x3dbdf28c	0.09274778
141	0xbdd48eb7	-0.10378783
142	0xbcae0a1d	-0.021245057
143	0xbd6cd86a	-0.057823576
144	0x3cc0f6fd	0.023555273
145	0x3d2283bd	0.039676417
146	0x3d2a4c73	0.041576814
147	0xbd85d36a	-0.06534465
148	0x3da8abd6	0.082359
149	0xbc5842fe	-0.013199566
150	0x3dac7530	0.08420789
151	0x3c3424c5	0.010995095
152	0x3c78b882	0.015180709
153	0xbbf47286	-0.0074599413
154	0xbd05bc60	-0.03265035
155	0xbd796f71	-0.060897294
156	0xbb8ae452	-0.0042386437
157	0xbd076118	-0.03305158
158	0x3d98da23	0.07463481
159	0xbcf97f49	-0.030456202
160	0x3c703300	0.014660597
161	0xbd2644b4	-0.040592864
162	0x3dad22e7	0.08453923
163	0x3d1ee2ae	0.038790397
164	0xbcd89c00	-0.026441574
165	0xbc5defb5	-0.01354592
166	0x3d4c07b2	0.049812026
167	0x3c5870b2	0.013210462
168	0x3d50f234	0.051012233
169	0xbda4f81c	-0.080551356
170	0x3db88cef	0.09011256
171	0x3cae2067	0.021255685
172	0x3e3cb4a5	0.18428285
173	0xbce598b9	-0.028026925
174	0x3cafefaf	0.021476595
175	0x3ddaef9b	0.10690232
176	0xbc1bfe7b	-0.009521122
177	0xbcf264c5	-0.029589066
178	0xbd85f0bb	-0.06540056
179	0xbd193d81	-0.03741217
180	0x3d8eb73e	0.069685444
181	0xbd1643df	-0.03668582
182	0xbd119743	-0.035544645
183	0x3d07186e	0.032982282
184	0x3d6ccdf3	0.057813596
185	0xbc7babb7	-0.015360764
186	0x3bf2854e	0.007401145
187	0xbc345a1b	-0.011007811
188	0xbd9bedd6	-0.07613723
189	0xbca60c48	-0.020269528
190	0xbd79dadf	-0.060999747
191	0x3dd6ed5d	0.10494492
192	0xbd53810c	-0.05163674
193	0x3dd9d6bd	0.10636661
194	0x3d633e97	0.055479612
195	0x3ccc2d4d	0.024923945
196	0x3da587f7	0.08082574
197	0xbdd22fcc	-0.10263023
198	0xbd92f529	-0.07175667
199	0x3d99a20f	0.07501613
200	0x3d9c4a6a	0.07631381
201	0x3d17dea3	0.037077557
202	0x3e126ac8	0.14298546
203	0xbd9bca17	-0.07606905
204	0x3dbc3f95	0.09191815
205	0xbd83a040	-0.0642705
206	0xbdeb61fd	-0.11493299
207	0x3d8eef00	0.069791794
208	0x3d1b817f	0.037965294
209	0xbdd51c14	-0.10405746
210	0xbc53fa0b	-0.012938033
211	0xbbc6be63	-0.0060651763
212	0x3df8600f	0.12127697
213	0x3d91a01e	0.07110618
214	0x3cee3f4b	0.029082915
215	0xbd9ff006	-0.07809453
216	0x3d668000	0.056274414
217	0xbda35c28	-0.07976562
218	0x3d52147b	0.051289063
219	0xbc0795c4	-0.008275453
220	0xbdd29328	-0.10281974
221	0xbdeedbff	-0.11663055
222	0x3dad1408	0.08451086
223	0x3d2514bc	0.040302977
224	0xbde3a7a9	-0.11115963
225	0xbd5a4b4f	-0.053294476
226	0x3e0357ac	0.12826413
227	0x3dc4a597	0.09601896
228	0x3d749ec0	0.05972171
229	0x3d36a9d6	0.044595562
230	0x3db62d32	0.08895339
231	0x3e14539f	0.14485024
232	0x3c26eaf9	0.010187858
233	0xbcee57b9	-0.029094564
234	0xbcfd3313	-0.030908143
235	0x3d09e964	0.033669844
236	0xbd9f7cd0	-0.07787478
237	0x3d1fca9c	0.039011583
238	0xbc598855	-0.013277133
239	0xbe1e1108	-0.15436184
240	0x3d0f73d6	0.03502258
241	0x3ca2c0ce	0.019867327
242	0xbba89508	-0.005144719
243	0x3c9f7ad5	0.01946775
244	0x3d0806a8	0.033209473
245	0x3cbb2319	0.022843884
246	0x3cf2147b	0.029550781
247	0xbd2866db	-0.041113716
248	0x3df87932	0.12132491
249	0x3d6be30c	0.057589576
250	0xbe0a6bbe	-0.13517663
251	0x3d7ce520	0.061741948
252	0x3d9da5ed	0.076976635
253	0x3d17d30a	0.037066497
254	0x3c6be658	0.01439818
255	0xbde566e4	-0.112012655

actor.4.bias f4 [128]
0	0x3cd229be	0.02565467
1	0xbd74c67f	-0.059759613
2	0xbd886719	-0.06660289
3	0xbd7f553e	-0.062337153
4	0x3dc6c192	0.09704889
5	0xbd8f23f1	-0.06989277
6	0x3c863d4c	0.01638665
7	0x3bfc48d4	0.0076991115
8	0xbdbaff40	-0.09130716
9	0xbd88b95d	-0.0667598
10	0xbd63115c	-0.055436477
11	0xbd831cb4	-0.06401959
12	0xbdb44c7d	-0.088036515
13	0xbd8b0b57	-0.06789272
14	0xbd2d1911	-0.042260233
15	0xbac98dc1	-0.0015377329
16	0xbda37a67	-0.07982331
17	0xbcbcb07e	-0.023033377
18	0xbdba15b3	-0.0908617
19	0xbd4a0226	-0.049318455
20	0xbe0cf8fa	-0.13766852
21	0xbe4fd274	-0.20295125
22	0xbc013c03	-0.007887843
23	0x3c17c203	0.009262565
24	0xbca6580c	-0.020305656
25	0xbc81f75c	-0.01586502
26	0xbddd5eeb	-0.1080912
27	0xbe892b57	-0.26790878
28	0xbda85b8c	-0.08220586
29	0x3d7b3ed0	0.0613392
30	0xbd81fc02	-0.06346895
31	0xbe23172e	-0.15926811
32	0xbd89d16a	-0.06729396
33	0xbba34285	-0.004982295
34	0xbd2c757d	-0.042104233
35	0xbdb3bee3	-0.08776643
36	0xbd1f53a5	-0.03889813
37	0xbd873af9	-0.06603045
38	0xbdaea9ff	-0.08528518
39	0xbdcdcd80	-0.10048962
40	0xbd75aab5	-0.059977252
41	0xbdd7bdf8	-0.105342805
42	0xbdeaf3e9	-0.114723034
43	0xbe0d0943	-0.13773064
44	0xbd406e76	-0.046980344
45	0xbcc1b662	-0.023646537
46	0xbdbef3be	-0.09323834
47	0x3b04173b	0.0020155448
48	0x3d8caaab	0.0686849
49	0xbe77c83e	-0.2419748
50	0xbdfa8705	-0.12232784
51	0x3b72c032	0.0037040827
52	0x3d12734d	0.03575449
53	0xbcf79651	-0.030223044
54	0xbcb26b9d	-0.02177983
55	0xbd86afa9	-0.06576473
56	0xbc19c42e	-0.009385152
57	0x3cb53506	0.02212001
58	0xbc19ba65	-0.009382819
59	0xbdf4fe87	-0.1196261
60	0x3ad66624	0.0016357345
61	0xbd769371	-0.060199205
62	0xbda8e23b	-0.08246275
63	0xbcd00d2b	-0.025396904
64	0xbd9c229f	-0.07623791
65	0xbd811099	-0.06301994
66	0xbc89eadd	-0.016835624
67	0x3c9167b8	0.017749652
68	0x3b1da6ff	0.0024055836
69	0xbe555191	-0.20831896
70	0x3cc5b08f	0.024132041
71	0x3cc4c387	0.024019016
72	0x3d1f895a	0.038949348
73	0x3bb95ffc	0.005657194
74	0xbd67b3a3	-0.0565678
75	0xbc6efe59	-0.014587008
76	0xbcaca89c	-0.021076493
77	0xbd13a2f2	-0.03604407
78	0xbe16c2e7	-0.14722787
79	0xbc828882	-0.015934233
80	0xbca6d5be	-0.020365592
81	0x3d3c9596	0.046041094
82	0xbdb15b97	-0.086600475
83	0xbcf9db0a	-0.030499954
84	0xbda9536d	-0.08267865
85	0xbc9adbe3	-0.018903678
86	0xbe849501	-0.2589493
87	0x3d31a579	0.043370698
88	0xbe9ebe6e	-0.3100466
89	0xbde45966	-0.11149864
90	0x3cc932c2	0.024560336
91	0xbd9dc2ef	-0.07703196
92	0xbdb90333	-0.09033813
93	0x3c0160a2	0.007896574
94	0xbd9b889a	-0.07594414
95	0xbb7a561c	-0.0038198298
96	0x393a56a3	0.00017770617
97	0xbcdc25f6	-0.02687357
98	0xbe3daefc	-0.18523782
99	0x3c770b93	0.015078443
100	0xbde8cdb1	-0.113673575
101	0x3c0e56fb	0.00868773
102	0xbb40b2ed	-0.0029403523
103	0xbd3d7a91	-0.046259467
104	0xbdcc3019	-0.099701114
105	0xbe204b4d	-0.15653725
106	0xbdceefb6	-0.10104315
107	0xbd6e741b	-0.058216196
108	0xbda7c250	-0.08191359
109	0xbdb57956	-0.088610336
110	0xbd83430b	-0.06409272
111	0x3d415883	0.047203552
112	0xbd8c05a1	-0.06837011
113	0xbcce2229	-0.025162773
114	0xbd756bc3	-0.059917223
115	0x3d84aacc	0.064778894
116	0x3c9fb615	0.019496003
117	0x3c5b3fc2	0.0133819
118	0xbc23ba52	-0.009993153
119	0xbe360181	-0.17774011
120	0xbc63cb03	-0.013903382
121	0x3cb7a79e	0.022418793
122	0x3c9e06b9	0.019290315
123	0xbd4591f2	-0.048234887
124	0x3cbb07cb	0.022830864
125	0x3b91300f	0.004430778
126	0x3b025e29	0.001989255
127	0xbd38ef43	-0.045150053

actor.6.weight f4 [12, 128]
0	0xbd18df9a	-0.037322618
1	0xbd03b518	-0.032155126
2	0x3d77cc9e	0.060497873
3	0x3b6e9012	0.003640179
4	0xbd2f9690	-0.042868197
5	0xb98a91f8	-0.00026430166
6	0x3d1eff79	0.038817856
7	0xbb0fa654	-0.0021919208
8	0xba8d28a9	-0.0010769564
9	0xbc81545f	-0.015787302
10	0x3c0ca80a	0.0085849855
11	0xbd41dcbb	-0.047329646
12	0xbb9aacc8	-0.004720304
13	0x3d60729e	0.054796807
14	0xbcc0f2d5	-0.023553291
15	0xbcf90a2b	-0.030400356
16	0x3d11c459	0.035587642
17	0xbab517be	-0.001381628
18	0xbcdfedc9	-0.027335064
19	0x3a01cb3a	0.00049512426
20	0x3c541016	0.012943288
21	0xbda48731	-0.08033598
22	0x3bbd8f3c	0.005784897
23	0x3bb409f7	0.005494352
24	0xbbbf8e89	-0.005845849
25	0x3cb01ec1	0.02149904
26	0x3c08df64	0.008354042
27	0x3d7884e1	0.0606736
28	0xbd11d03e	-0.035598986
29	0x3a57c788	0.00082313316
30	0x3cd9a198	0.026566312
31	0xbc70c946	-0.014696425
32	0x3d5c9a92	0.053858347
33	0x3ccf3e9e	0.025298413
34	0xbd1a21a7	-0.03762975
35	0x3cbedcb0	0.023298591
36	0xbd3faede	-0.046797626
37	0x3dda3456	0.106545135
38	0x3d46480a	0.048408546
39	0xbce1c42d	-0.027559364
40	0x3d6b03cf	0.05737668
41	0x3d2d7686	0.04234936
42	0xbcda3a28	-0.02663906
43	0xbd04f284	-0.032457843
44	0x3b793d23	0.0038030825
45	0x3d4e50ab	0.0503699
46	0xbbef959a	-0.007311535
47	0xbd0e2b7b	-0.034709435
48	0xbc99634a	-0.018724103
49	0xb9b4bdb2	-0.0003447361
50	0x3d8c17bd	0.06840465
51	0x3d9557af	0.07292115
52	0xbc9bbd3d	-0.019011134
53	0x3a7f817a	0.00097467715
54	0xbc535b3d	-0.012900171
55	0x3daa10eb	0.08304008
56	0xbbe1a5ee	-0.0068862354
57	0xbce1fbd2	-0.027585898
58	0x3c35abe3	0.011088344
59	0x3cc5fbab	0.024167856
60	0xba6c6252	-0.00090173364
61	0x3d54aa5c	0.05192028
62	0xbbe9abce	-0.0071310764
63	0xbd5f77a7	-0.05455747
64	0x3beb44d6	0.0071798367
65	0x3d7ec136	0.06219598
66	0x3ce7479f	0.028232394
67	0xbd7aaee8	-0.06120196
68	0x3da21732	0.079145804
69	0x3c843f0d	0.016143346
70	0x3a86f421	0.0010296145
71	0x3c5055d9	0.01271578
72	0x3bd3ab46	0.0064596264
73	0x3dce90f6	0.10086243
74	0xbd3d0703	-0.046149265
75	0xbcc4a4ad	-0.024004305
76	0xbba7fbdc	-0.0051264595
77	0xbd1c86bb	-0.038214426
78	0x3bd913f9	0.0066246954
79	0xbd5c1116	-0.053727232
80	0x3c9bb2e6	0.019006204
81	0xbd909d4e	-0.070612535
82	0xbc6caa70	-0.014444932
83	0xbca2b30a	-0.019860763
84	0xbcda97eb	-0.026683768
85	0x3c0ae8b9	0.008478337
86	0x3dafef2b	0.085905395
87	0xbd8e4e2b	-0.06948503
88	0x3da81d06	0.08208661
89	0xbd28fadd	-0.041254867
90	0xbce665ca	-0.028124709
91	0xbd52fa99	-0.05150852
92	0xbccc8e2e	-0.02497014
93	0x3d213192	0.039353915
94	0xbad31828	-0.0016105222
95	0x3bff4947	0.0077907178
96	0x3dc3a1a9	0.095523186
97	0x3bf50410	0.007477291
98	0x3d968ea7	0.073514275
99	0x3cd0f72c	0.025508486
100	0x3d119bfa	0.03554914
101	0xbd404019	-0.04693613
102	0xbd4da3b2	-0.05020494
103	0x3c2c853d	0.010529813
104	0x3d77b0c6	0.06047132
105	0x3c2e8c57	0.010653577
106	0xbdb74b3b	-0.08949896
107	0x3bc6f8c8	0.0060721375
108	0xbd3f6c55	-0.046734173
109	0xbd28cfdc	-0.041213855
110	0xbabcc3c3	-0.0014401603
111	0xbd2fef87	-0.04295304
112	0xbdbb7164	-0.09152487
113	0xbc762057	-0.015022359
114	0xbc72870c	-0.0148027055
115	0x3d089c2d	0.033352066
116	0xbcf67f01	-0.030089857
117	0x3c9521c3	0.018204575
118	0xbd1b82ee	-0.03796666
119	0x3deda6ed	0.11604104
120	0xbd182fe7	-0.03715506
121	0xbcb52fd7	-0.022117538
122	0x3d8f272f	0.069898956
123	0xbcf72c5f	-0.030172525
124	0xbd5408ee	-0.05176633
125	0x3d302fc0	0.043014288
126	0xbd50bf5b	-0.05096374
127	0xb9fb1efc	-0.00047897536
128	0x3c09764f	0.008390023
129	0xbd7ef075	-0.062241036
130	0xbca024dd	-0.019548828
131	0x3dc0925f	0.09402918
132	0x3b897b65	0.004195618
133	0x3cfb5e8e	0.030684736
134	0xbd06d199	-0.03291473
135	0x3d912ece	0.070890054
136	0xbc2d6b27	-0.010584629
137	0xbcd75edb	-0.026290348
138	0x3d9bd9a6	0.076098725
139	0xbd0904d0	-0.033451855
140	0xbd0202e4	-0.031741038
141	0x3d391140	0.045182467
142	0xbc839474	-0.016061999
143	0x3d19ad83	0.03751899
144	0xbd18a7f7	-0.03726956
145	0xbc8c581e	-0.017131861
146	0x3c0a101a	0.0084266905
147	0x3c42233a	0.011849219
148	0xbc286860	-0.010278791
149	0x3ca2a694	0.019854821
150	0x3c66cf56	0.014087519
151	0x3ba0fa48	0.0049126484
152	0xbbbe6ccd	-0.00581131
153	0x3ca509f8	0.020146355
154	0x3cc5c427	0.024141384
155	0xbcf7f560	-0.030268371
156	0x3c9565ac	0.018236957
157	0xbcf1a6c2	-0.029498462
158	0x3cf3984d	0.029735709
159	0xbcfe96b3	-0.031077718
160	0xbc0c4e09	-0.008563527
161	0xbd994dde	-0.07485555
162	0xbd3a1155	-0.045426685
163	0xbcb28f69	-0.021796899
164	0x3d94bc87	0.07262521
165	0x3d058b25	0.0326034
166	0x3c2cf784	0.010557059
167	0x3c8bc932	0.01706371
168	0x3d2ac4ae	0.041691475
169	0xbcf070eb	-0.029350718
170	0xbcac9824	-0.02106864
171	0x3d318340	0.04333806
172	0xbca9724c	-0.020684384
173	0xbc0cbae5	-0.008589481
174	0xbbcba022	-0.0062141577
175	0xbdc86f4e	-0.09786855
176	0x3d05c063	0.032654177
177	0x3db88a80	0.09010792
178	0xbcf0e9a1	-0.029408278
179	0x3c9e9546	0.019358288
180	0x3ba3223e	0.004978447
181	0xbcf1661c	-0.029467635
182	0xbd401340	-0.04689336
183	0xbd3e8f4c	-0.046523377
184	0xbb629663	-0.00345745
185	0x3d80e340	0.062933445
186	0x3c148de5	0.009067033
187	0xbcc68d1e	-0.024237212
188	0x3c713bf3	0.014723766
189	0x3bf9555d	0.007609053
190	0xbc958a9c	-0.01825457
191	0xbd9160a1	-0.070985086
192	0x3cc83565	0.024439523
193	0xbc25c267	-0.01011715
194	0x3c731334	0.014836121
195	0x3b055f7f	0.002035111
196	0xbc4ce09f	-0.012504726
197	0xbcf4cb7a	-0.029882181
198	0xbc9e5e66	-0.019332122
199	0xbd703eae	-0.058653526
200	0xbc878f2b	-0.01654776
201	0xbd251828	-0.04030624
202	0x3dad728a	0.08469112
203	0xbd0d5fd8	-0.03451523
204	0xbd3170ab	-0.04332034
205	0xbcde2827	-0.027118756
206	0x3d930f72	0.0718068
207	0xbd1bde4b	-0.038053792
208	0xba1ea8b9	-0.00060523633
209	0x3d9ec5f4	0.077526
210	0x3cc210de	0.023689684
211	0xbc00ae1b	-0.00785401
212	0xbc8b77b6	-0.017024856
213	0x3d890725	0.06690816
214	0xbbcf0fec	-0.0063190367
215	0x3bf88b6d	0.00758498
216	0xbd88a458	-0.06671971
217	0x3d9f5376	0.07779591
218	0xbcd9d630	-0.02659139
219	0x3d667a68	0.05626908
220	0xbbb6e79f	-0.0055818106
221	0xbcbb6980	-0.022877455
222	0xbce160ab	-0.027511915
223	0x3a9b3395	0.0011840934
224	0x3d86a52a	0.06574471
225	0xbd6a3297	-0.057177152
226	0xbcabaa29	-0.020955162
227	0x3c263c98	0.010146283
228	0x3c1a280d	0.009408963
229	0xbd9fd6eb	-0.07804664
230	0xbd7fc468	-0.062443167
231	0xbd72887e	-0.0592122
232	0xbcc9efac	-0.024650417
233	0x3d13cb74	0.0360827
234	0x3d2c1b92	0.04201848
235	0x3bfc81fb	0.0077059246
236	0x3ac1dbfd	0.0014790293
237	0xbd59c86b	-0.05316965
238	0xbc1023d9	-0.008797609
239	0xbc54c612	-0.012986677
240	0x3bd21cca	0.0064121233
241	0x3cd32e3d	0.025778884
242	0xbcdbd53a	-0.026835073
243	0x3d0a2de6	0.03373518
244	0xbca59b55	-0.02021567
245	0x3d92b783	0.07163908
246	0xbc3dd2d6	-0.011585912
247	0xbe2fcb0b	-0.17167298
248	0xbcbe2f75	-0.023215989
249	0xbd14103a	-0.036148287
250	0xbc64e2a0	-0.013970047
251	0x3cb0e00c	0.021591209
252	0x3dc819a4	0.097705156
253	0xbd083fe2	-0.03326405
254	0xbd74a18b	-0.059724372
255	0x3cbc9f7c	0.023025267

actor.6.bias f4 [12]
0	0xbe3223ff	-0.17396544
1	0x3c6f72e2	0.014614793
2	0x3cce1fc7	0.025161637
3	0xbd789125	-0.060685296
4	0x3e82cacc	0.25545347
5	0xbd8a00f2	-0.067384616
6	0x3c76d1c0	0.015064657
7	0xbe193f2c	-0.14965504
8	0x3d441974	0.047875836
9	0xbe0e885d	-0.13919206
10	0x3e525349	0.20539583
11	0xbe184a9c	-0.14872211
