src/ga_quadruped/policy/param_action.onnx (onnx, 772885 bytes, 8 tensors)

actor.0.weight f4 [512, 52]
000000 72 e3 90 3e a6 98 65 3e 0b ea 7a 3e c4 fe ac bc
       0.28298527 0.22421512 0.24503343 -0.021117575
000010 ab 8d 47 be 1e 87 49 bd 31 f7 31 bc 56 1c f8 3d
       -0.19487636 -0.049201123 -0.010862158 0.1211478
000020 2d 94 08 3e ee a0 05 be 00 07 41 3d 7a 7e bb 3d
       0.13337775 -0.13049671 0.047125816 0.09154983
000030 b4 e0 64 3d 8e 7e 96 bd 8f 0a d1 bd b8 ee 7a 39
       0.055878356 -0.07348357 -0.10207092 0.00023930788
000040 08 ca 9e 3e 5a 92 3d 3e 7d 8d 48 be b3 da b3 3e
       0.31013513 0.1851286 -0.19585223 0.35127792
000050 e2 8c 07 3d cc 4e de bd 15 fc ba bc 2b b4 97 bd
       0.03309334 -0.10854873 -0.02282528 -0.07407411
000060 b9 d8 58 3d 1b 10 76 3d 70 07 41 be 41 d7 e2 bd
       0.052941058 0.060073953 -0.18850493 -0.11076213
000070 01 75 40 3e 11 10 80 be 5b 2c 5e bd f6 ec 6a bd
       0.18794633 -0.25012258 -0.05424152 -0.05735489
000080 0d 54 70 3e 41 4e 9b 3d 0f 45 32 be cd cc 6e 3d
       0.23469563 0.07583285 -0.17409156 0.058300782
000090 ec 2b a6 bd 2f b2 63 bd 5d 9d 6a 3d 20 ea 2e 39
       -0.08113846 -0.05558985 0.05727898 0.00016681151
0000a0 81 8a 67 3d f9 29 04 3b bc 03 d0 bd 97 d8 ee 3d
       0.056528572 0.002016662 -0.10156962 0.11662405
0000b0 31 3d 94 bd 51 3e 07 bc 12 94 8f 3d b7 48 7c 3c
       -0.07238234 -0.0082546035 0.07010664 0.015398196
0000c0 35 86 06 3d 34 0d c2 bd 2c 0c 15 bc 30 5b f0 3b
       0.032842834 -0.094751745 -0.00909714 0.007335089
0000d0 0f a5 70 be 16 4c 9d 3e e4 84 69 3d 48 91 83 3d
       -0.23500465 0.3072211 0.0570115 0.064241946
0000e0 a0 b1 84 3e 47 b0 81 bc 0f 94 42 3d 55 20 95 bd
       0.25916767 -0.015831126 0.04750448 -0.072815575
0000f0 6a a4 6c 3d 6d c1 09 bd f9 39 4a 3d 93 aa 54 bd
       0.057773985 -0.03363173 0.049371693 -0.051920485
000100 f5 d6 bf bd d1 8c 92 bd b5 6a 25 3e 5c f5 c3 3d
       -0.09367172 -0.07155765 0.16153987 0.09568283
000110 41 1e 57 be 43 9b 6f bd f1 6c 38 be 29 8a 93 3a
       -0.21007635 -0.05849768 -0.18010308 0.0011256385
000120 76 88 b4 3e b8 44 fe 3d 4b e3 cf bd 0e 5f 1f be
       0.3526036 0.12415451 -0.101507746 -0.15563604
000130 95 2d f7 bc 35 e6 f5 3d c1 63 90 be 2c dd 55 3d
       -0.030173102 0.12006799 -0.28201106 0.05221288
000140 85 c4 52 be 76 8b 83 bc 36 69 db 3d d7 68 07 3d
       -0.20582779 -0.016057711 0.10713427 0.033058967
000150 c7 18 9a 3d 1b 85 a8 bd 7b 6e 9f bd 37 45 9a bd
       0.07524257 -0.08228513 -0.07784744 -0.07532733
000160 3d 2a 0e bc 0f 18 2d bc 83 fa 3c be ef cf d4 bc
       -0.008677063 -0.010564818 -0.18454938 -0.025978057
000170 e2 1c 8f bd a8 6a 21 3d 65 14 56 bd 49 a8 da 3d
       -0.06987931 0.039408356 -0.052265543 0.10676629
000180 9c e9 a1 3c 4e 7b 9e bc eb 95 9a 3d fb 77 b6 bc
       0.019764714 -0.019345906 0.07548126 -0.022274008
000190 a7 b5 17 3d 20 3f 67 bd 90 74 e9 bd 7d b2 e4 3d
       0.03703847 -0.056456685 -0.11399186 0.111668564
0001a0 2f 1a f2 bc 2d 3e 7b 3e f0 28 84 3e 9d ff 10 3e
       -0.029553501 0.24535437 0.25812483 0.14160009
0001b0 3a 70 f9 3e 54 c2 a5 3d 10 c2 bc 3d b6 c3 d0 bd
       0.48718435 0.08093706 0.09216702 -0.10193579
0001c0 38 40 86 bd da 17 f2 3d 0b db 47 bd b3 75 ab 3d
       -0.065552175 0.118209556 -0.04879288 0.08372059
0001d0 00 38 b0 bd 2d c7 85 3d c4 27 21 3d 15 25 fb bc
       -0.08604431 0.065321304 0.039344564 -0.03065733
0001e0 6d 09 04 be e6 69 42 3b 35 dd a7 bc cc fa 07 3d
       -0.1289422 0.0029665171 -0.020491222 0.033198163
0001f0 cb 19 4c 3d 71 b4 1c be 4f 7d b1 3e 72 b6 90 3d
       0.049829286 -0.15303208 0.34665915 0.07066049
000200 02 c8 d3 bd 80 91 c3 bd 09 33 96 3d ac 08 b5 3d
       -0.10340883 -0.09549236 0.07333953 0.08839545
000210 a5 19 08 3e 4d 56 6e be ab 43 84 3d 6a 20 fe 3d
       0.13291033 -0.23275109 0.06458219 0.12408526
000220 9d fa 9b bb 52 e6 05 3e b5 00 34 3c a9 70 4f 3d
       -0.0047601 0.13076141 0.010986497 0.05064455
000230 89 d9 8a bd c0 d9 9b be 49 dd bc 3d 32 cc 06 3d
       -0.06779773 -0.30439568 0.09221894 0.03290958
000240 46 7d 15 be 6b 1a 9d bd 55 a4 b0 3d a2 2d 3a bd
       -0.1459857 -0.076710545 0.08625094 -0.045453675
000250 b9 2e 4e bd 91 50 93 bc 08 f2 f2 3d 4b dd 64 bd
       -0.050337527 -0.017982753 0.1186257 -0.055875104
000260 4a a8 a2 3d 81 3a 2a 3e 6e 22 82 3d 40 55 e6 3d
       0.07942255 0.1662388 0.06354223 0.11246729
000270 04 57 9b 3d 64 78 5d bd 38 27 70 3d 56 36 01 3e
       0.07584956 -0.05406989 0.058631152 0.12618384
000280 14 29 04 be 2c 2d 51 3d d7 ef 93 bd ba cb 9f be
       -0.12906295 0.05106847 -0.0722348 -0.3121012
000290 80 14 fa 3c 92 be f4 bd 29 92 8e bd 6e 52 ca ba
       0.030527353 -0.11950411 -0.069614716 -0.0015435943
0002a0 f9 2c b1 3d c9 bf e6 bd b0 e9 1c 3e 7f 38 37 3d
       0.08651156 -0.11267049 0.1532352 0.044731613
0002b0 70 5e bd be 1f 5c 86 be 23 fd d2 bd 33 7e 2f 3e
       -0.36986113 -0.26242158 -0.10302188 0.17137985
0002c0 07 47 a6 bd c3 04 93 bd d3 92 0d bd 83 0e 1c 3e
       -0.08119016 -0.071786426 -0.03456385 0.15239911
0002d0 bc 9b 97 3d 80 b8 1e 3c 40 cc 88 3c 1e 9d 3a 3e
       0.07402751 0.009687543 0.016698956 0.18223998
0002e0 6b a8 7b 3d 62 a0 2f be 85 75 1c 3e 7b 3a 1c be
       0.061439913 -0.17151025 0.15279205 -0.15256684
0002f0 98 24 15 3e da 23 c6 bc 67 2c 4d be 77 b1 00 3e
       0.1456474 -0.024187017 -0.2003647 0.12567697
000300 9e 5e 3d 3e a5 9b 37 be fd 7d f8 3c 46 df 9f 3d
       0.18493125 -0.17930467 0.030333513 0.07806258
000310 a2 c7 ac 3d 83 00 7f bc 0e 6e 3e 3d bc 22 3c 3d
       0.084365144 -0.015564087 0.046491675 0.045931563
000320 e7 68 ae bc 12 52 f4 3c 2e fa 3b 3d e1 7e c7 bc
       -0.021290256 0.02982429 0.045892887 -0.024352493
000330 d0 fc e8 bd 6d 8b c6 3d 21 bd a9 bd 1a 0c 94 3c
       -0.11376345 0.09694562 -0.082880266 0.018072177
000340 ff 52 79 be 77 b9 a8 be 72 a1 2a bd 36 c3 2c be
       -0.24348067 -0.32953998 -0.041657872 -0.16871342
000350 85 cd 03 3f b5 a5 0a 3d cc 89 50 3e 70 89 ee 3b
       0.5148547 0.033849437 0.20365065 0.0072795674
000360 4a 04 98 bd 10 1d 97 3d 46 96 d3 3d d9 fb fb 3b
       -0.07422693 0.0737859 0.10331397 0.0076899347
000370 78 7f e9 bd c2 53 fa bd 0e 2c dc bd a3 c0 a6 bd
       -0.11401266 -0.12223007 -0.1075059 -0.08142211
000380 e6 69 b0 be 15 45 06 3d 1d e6 4f 3c 93 ec 2b 3e
       -0.34455794 0.032780726 0.012689141 0.16789465
000390 c2 21 f7 3d f7 34 dd 3d f9 9f 4a 3e 5f a1 3a bd
       0.12066986 0.10801118 0.19787587 -0.04556405
0003a0 8a 25 b5 bd 8c 42 fd bd e0 22 92 bd c3 a9 02 3e
       -0.08845051 -0.123662084 -0.07135558 0.12760071
0003b0 6d a0 bd bd a3 ef 98 bd f5 61 90 bb 11 cd 6d 3e
       -0.092591144 -0.07467582 -0.0044062086 0.23222758
0003c0 4f 12 51 be 98 a2 bf 3d 71 41 93 be 24 d1 d9 3d
       -0.2041714 0.09357184 -0.28760865 0.106355935
0003d0 37 c4 f3 3d a3 a5 83 3d ee f4 1e be 74 06 07 be
       0.119026594 0.06428077 -0.15523121 -0.13186055
0003e0 8e 32 fa 3a 92 07 9b bd 81 67 ef 3c 16 e8 51 3d
       0.0019088553 -0.07569803 0.02922416 0.051246725
0003f0 ec 2b 17 3d 95 bb 81 bc ae 17 a6 3b 5c b4 29 bc
       0.03690712 -0.015836516 0.005068741 -0.010357942

actor.0.bias f4 [512]
000000 88 50 01 be c9 56 c7 bb a9 40 92 3d a4 dc ee 3b
       -0.12628376 -0.0060833436 0.07141239 0.007289486
000010 a6 d0 4c 3d 12 d6 12 3d 14 34 36 3d c8 be 2f 3e
       0.05000367 0.035848685 0.04448326 0.17162621
000020 92 42 96 3d 66 44 43 bd 16 b4 e2 bd fe 11 87 3b
       0.07336916 -0.04767265 -0.11069505 0.004122018
000030 50 c1 8a bd da 37 e9 3d 87 64 0e be 09 6a b8 bd
       -0.06775153 0.11387606 -0.13905536 -0.090045996
000040 b1 ac 2c bd da 44 56 3d d8 d0 70 bd 0f 9f bc 3d
       -0.04215688 0.052311756 -0.05879292 0.092100255
000050 ca 14 34 bd c9 16 24 3d 50 21 a8 3d 04 5d e0 3d
       -0.04396514 0.040060792 0.08209479 0.10955241
000060 f5 80 13 bd 77 e8 60 bd 89 c7 cb 3c 6d 21 62 bc
       -0.036011655 -0.054909196 0.02487542 -0.013801915
000070 b5 dd 48 bd eb bb 06 be 6f 21 87 3b 3e 83 8d 3c
       -0.04903956 -0.13157623 0.0041238586 0.017274495
000080 07 e4 19 3e 55 60 cd 3c df 65 a8 bd bf e6 04 3b
       0.15028392 0.025070349 -0.08222555 0.0020279137
000090 29 eb ad bd 7f b7 d3 3d 8b 3a 90 3c 0c 69 25 bd
       -0.08492119 0.103377335 0.01760604 -0.040383384
0000a0 04 bf bd bd 8b df 11 bc ae 1f ca 3b f2 fc 80 bd
       -0.09264949 -0.008903394 0.0061683273 -0.062982455
0000b0 89 a5 1e bc 34 7f a3 bb 4f 76 cb bd e3 6a e2 bd
       -0.009683021 -0.004989529 -0.09934675 -0.11055543
0000c0 00 ff 3c 3d d3 e5 68 bd 7b 2c 9c 3c 09 32 97 bd
       0.046141624 -0.056859802 0.019064179 -0.0738259
0000d0 91 32 45 ba b4 9a fa bc 86 d4 56 bc ed 30 fd 3c
       -0.00075224886 -0.030591346 -0.013112193 0.030907119
0000e0 79 ad 8e 3d 3b 0a b6 3c 0e ab 41 bd 43 15 48 3a
       0.06966681 0.022221675 -0.04728227 0.0007632563
0000f0 0b c4 c1 bd 9b af 9f 3d bc a5 66 bc c3 30 05 be
       -0.0946122 0.07797166 -0.0140776 -0.13006882
000100 c4 dd 1f bd 9a 0d a8 3b 93 8d e4 bd f0 2c 83 3a
       -0.03902985 0.0051285746 -0.11159816 0.0010007899
000110 36 55 37 bd 73 e6 17 3e 0f e5 82 3c 87 67 c6 3d
       -0.044758998 0.14834003 0.015978364 0.09687715
000120 e2 05 b5 3d a9 0e 0a 3d 0d a5 6d bd 9a 17 e8 bc
       0.08839013 0.033705387 -0.058018733 -0.028331567
000130 be 99 eb bd 8b 04 07 3e 06 e6 3f bd ec a4 87 3d
       -0.11503933 0.13185327 -0.046850227 0.06623253
000140 64 58 8f 3d 2a e0 ff bd 38 22 8f bd c8 1a c3 3b
       0.06999281 -0.12493928 -0.069889486 0.0059541203
000150 48 d3 18 bd c7 c9 9f 3c 27 4f 04 3d 85 ae b4 bd
       -0.03731087 0.019505395 0.032302048 -0.088223495
000160 08 db ef bc e8 48 5d bd a0 4b 09 bd cf b0 a4 3d
       -0.029279247 -0.054024607 -0.033519387 0.08041536
000170 0b c3 d6 bc 16 0f 2b bc f9 91 f2 3d c1 17 a3 bb
       -0.02621605 -0.0104406085 0.11844248 -0.004977197
000180 09 2b 5a bd 80 75 ca bc dd 62 b1 3d 76 44 ad bd
       -0.053263698 -0.024714231 0.08661435 -0.084603235
000190 0f 9f a7 bd b7 c3 d4 bd 53 22 c9 bd 64 dd c0 bd
       -0.08184635 -0.10388892 -0.09821 -0.09417227
0001a0 9a 1b ad 3d 16 c4 91 bd 9e 3b 06 3d 62 50 15 3e
       0.0845253 -0.071174785 0.0327717 0.14581445
0001b0 5e 6e fb bd 24 d8 00 be e3 e6 b1 bd 61 eb db 3c
       -0.1227691 -0.12582451 -0.08686616 0.026845636
0001c0 a0 d8 94 bd 04 5e 81 3d 23 ee eb 3d 9a bb eb bd
       -0.072678804 0.0631676 0.1152003 -0.115103915
0001d0 d7 01 fe 3b 54 f9 3d bd 04 d2 ea bd 44 59 6e 3c
       0.007751684 -0.046380356 -0.114658386 0.01454765
0001e0 cd de 35 bd 6d ed a3 bb 0b f4 19 3c 75 af 17 3d
       -0.044401933 -0.0050026686 0.009396563 0.037032563
0001f0 fc 95 ad bd 9d 8a 2d 3d 38 ab c3 bc df c4 5e bd
       -0.08475873 0.04236852 -0.023885354 -0.05438697
000200 56 b7 56 3d 29 4a 05 3e e6 b7 f7 bb d9 84 b5 3d
       0.052420937 0.13016571 -0.007559764 0.08863229
000210 4a 65 07 bd e0 10 f7 bd f3 25 9c 3d ac 18 1c be
       -0.03305558 -0.120637655 0.07624426 -0.15243787
000220 3d 94 bf bc f0 d9 9c 3d c2 f5 0b 3d 8c a0 26 bd
       -0.023386115 0.07658756 0.03416992 -0.040680453
000230 97 65 45 bd 78 0c 54 3c 80 74 a1 3d 0e fa b2 3a
       -0.048192587 0.012942426 0.07883549 0.0013654844
000240 a6 b7 ee 3d a5 07 f5 bd f0 c2 96 ba e8 8c 0f 3e
       0.11656122 -0.11964349 -0.0011502188 0.14018595
000250 17 75 85 3c d7 51 5f bd 9c e0 3e 3d ef ce bf bd
       0.016291184 -0.054521408 0.046600923 -0.09365641
000260 91 fc d1 3c 4a 70 b7 3d b6 7b 54 3d ab 52 06 be
       0.025633128 0.08956964 0.051875792 -0.13117473
000270 b6 a2 2c be f7 4b a1 bd da 98 a5 3d 80 c1 b5 3d
       -0.16858944 -0.07875817 0.08085795 0.08874798
000280 18 0a 0a be f3 4c 4e 3d fe 67 dd bd ad e6 45 bd
       -0.13480413 0.050366353 -0.108108506 -0.048315693
000290 86 ab 2b 3d 22 08 8c 3d 69 2c 6f bd fb b4 10 3c
       0.041911624 0.06837489 -0.058391962 0.008832212
0002a0 0c d9 89 3d 81 8a 0c be bd d2 55 3d 84 51 28 bd
       0.067308515 -0.1372471 0.05220293 -0.041093364
0002b0 ac da b9 3c 7c 89 d4 3c ff e8 b4 bd ce 7f 8a bc
       0.022687279 0.025944464 -0.08833503 -0.016906645
0002c0 90 01 01 3d 5f c2 93 3c 31 3f e0 bd 5d f7 fa bc
       0.03149563 0.01803702 -0.10949553 -0.03063553
0002d0 0b e9 90 3d 1d 42 a3 bd 1a 77 90 bd cd ee ad 3d
       0.070756994 -0.079715945 -0.07053967 0.08492813
0002e0 2c 2b ee 3b 55 2e 03 3e 79 70 c3 bd 0c fa 53 bd
       0.00726833 0.12810643 -0.09542937 -0.051752135
0002f0 69 ed 0f 3d ff c1 03 bd f0 d4 09 3e b5 c9 a9 3d
       0.03513852 -0.03216743 0.13460135 0.08290426
000300 8b bc 8d bd a8 45 bb bd cd ce a7 bd db 63 7b 3d
       -0.06920727 -0.09144145 -0.08193741 0.061374526
000310 c9 b9 90 bc 69 9c 7c bb 4c 61 06 3d 04 94 3d 3d
       -0.017666714 -0.0038545376 0.032807633 0.046283737
000320 f8 ca a6 3c 28 8a e8 3d db e8 df 3d e3 9f 28 bd
       0.020360455 0.11354476 0.109330855 -0.041168105
000330 79 a1 c7 bc bf 29 5d bd 17 10 c8 bd 36 5c 9b bd
       -0.024368988 -0.05399489 -0.09768694 -0.07585947
000340 14 dd 0b be bc 19 26 3d 21 c2 07 be 00 70 c6 3d
       -0.13658553 0.040551886 -0.13257648 0.09689331
000350 d2 f3 05 bd 45 18 24 3d 8a d9 a9 3d 43 92 8c 3d
       -0.03270323 0.040062208 0.082934454 0.06863835
000360 56 f0 4c 3d 5c 9c fd 3d 4f 29 bf 3d bf 29 07 be
       0.05003389 0.12383339 0.09334051 -0.13199519
000370 41 b0 5c bc 91 f5 10 be fd 27 9a 3d a6 f1 2f 3a
       -0.013469757 -0.14156176 0.075271584 0.00067117286
000380 c0 33 77 3d 2a 91 93 3d 73 90 89 bd 1d 33 cc bd
       0.060352087 0.07205422 -0.067170046 -0.099706866
000390 cd 64 86 bc 23 d6 c6 bc b9 9e ad bb f9 55 ec 3d
       -0.016405487 -0.02427203 -0.005298462 0.115398355
0003a0 1f a8 b8 bc 73 f0 91 bb eb da 34 bd b9 bb 74 3c
       -0.022541104 -0.0044537126 -0.04415409 0.014937335
0003b0 fd 09 ef 3d 05 eb 46 3c 6e 9d 85 3d 27 cf 07 bd
       0.11671827 0.012140994 0.06524168 -0.03315654
0003c0 64 12 b1 3c 1c 82 12 be 69 ca 2f bd d1 03 92 bc
       0.021615215 -0.14307445 -0.042917643 -0.017824085
0003d0 39 e0 86 bd 28 2a b6 3c bd bd ec bd f4 09 a8 3c
       -0.06585736 0.022236899 -0.11559627 0.020512559
0003e0 be db a2 3d 6d 20 25 3b 45 21 8a bd 49 58 9f bd
       0.07952069 0.002519633 -0.06744627 -0.07780511
0003f0 4d de 3d bd 7e 93 d9 bc 04 7a 59 bd b2 2e 22 bd
       -0.04635458 -0.026559588 -0.05309488 -0.039595313

actor.2.weight f4 [256, 512]
000000 67 c9 0d be 6d 75 e7 3d 10 c3 44 3d 22 fb be 3d
       -0.1384636 0.11301694 0.04803759 0.093252435
000010 a0 26 e7 bb a1 b6 34 3e cc a6 48 bd f5 45 0a 3d
       -0.007054165 0.17647792 -0.048987195 0.033758122
000020 6a a1 2e 3d 2d 1d 4d 3d 08 e1 10 3d 81 98 60 3d
       0.042634405 0.050076652 0.035370857 0.05483294
000030 e4 5b 1f bc 6d 80 49 3d ce cd cf 3d 06 8b b9 3d
       -0.009726498 0.049194742 0.10146676 0.0905972
000040 8e 84 af bc d9 a3 4f be ae fa 56 bc 61 35 fa 3d
       -0.021425512 -0.20277347 -0.01312129 0.122172125
000050 e1 77 9c 3b c0 f1 87 3d 6f bf 45 3c 0b 1d a9 3d
       0.004775033 0.06637907 0.012069567 0.08257493
000060 44 cc a0 bc bd 68 82 bd 2c 0b 2b 3d 9e 26 b4 bc
       -0.019628651 -0.063676335 0.0417587 -0.02199107
000070 d5 21 05 3c 07 36 27 3e 29 21 fe 3d a6 d7 16 3e
       0.008125742 0.16329204 0.124086685 0.14730701
000080 7c 16 dc ba ba 1d d9 3a ab df dd 3c a4 7a 08 3e
       -0.0016791369 0.0016564645 0.027084192 0.13328034
000090 85 a4 96 bd 5e 89 00 3d 81 77 e5 bc 2c 9a 8b 3d
       -0.07355598 0.031381004 -0.028011085 0.06816515
0000a0 98 8f 1f 3c 7d a3 1d 3d b4 db 11 bd 74 42 96 bc
       0.009738825 0.038485993 -0.035609916 -0.018342234
0000b0 05 b9 aa bd 39 f8 e3 bc 55 05 07 bd 7c 33 23 3d
       -0.08336071 -0.027828323 -0.03296407 0.03984402
0000c0 1a 83 b9 3d 7d 73 36 bd 86 95 86 3d 45 3d 58 3d
       0.09058209 -0.044543732 0.06571488 0.052792806
0000d0 2e 0a fd 3d 7f a0 48 3d 2e b2 47 3d 45 73 c7 bb
       0.12355457 0.048981186 0.04875391 -0.0060867392
0000e0 11 f0 35 bb 2f e6 dc bd 0d 90 f7 3d e0 80 6c 3c
       -0.00277615 -0.107860915 0.120880224 0.014435023
0000f0 ab cf ee 3d 63 17 0a 3e 74 42 d5 3d 34 92 98 3d
       0.11660703 0.13485484 0.104130656 0.07449761
000100 fb d9 49 bd 35 eb b6 bc 8d 73 f8 3d 86 b1 a8 bb
       -0.049280148 -0.022328952 0.121314146 -0.0051481156
000110 08 37 54 be e3 d2 9e bc 9e f7 b9 3d 5f 5e 4f bd
       -0.20724118 -0.019387668 0.09080432 -0.05062711
000120 96 10 21 bd b4 84 f6 3a c0 40 10 3d d9 dd 1c 3d
       -0.03932246 0.0018807859 0.035218 0.038297508
000130 67 04 04 3d c9 b3 c9 3d dc 10 bf 3d 9b c9 58 3d
       0.03223076 0.098487444 0.093293875 0.05292664
000140 54 74 9a bd 5e 9e 1b 3d a2 41 e8 ba 4a 85 06 3e
       -0.07541719 0.037992828 -0.0017719755 0.13136783
000150 c3 a9 4a 3b 89 a4 62 3c 0e c8 a6 bd d4 ed 18 3d
       0.003092394 0.013833174 -0.08143626 0.037336186
000160 27 eb 57 3d 96 47 3c 3d d5 2c c7 bd 63 92 30 bd
       0.052714493 0.045966707 -0.09725348 -0.043108355
000170 03 88 1c 3d b6 a2 15 bd ef 3b 64 bd 5b 67 82 3d
       0.03821565 -0.036532126 -0.05572122 0.0636737
000180 dc cd 81 bd 56 73 83 3c 21 e5 75 3a fb 8d 22 3d
       -0.06338093 0.016046207 0.0009380151 0.039686184
000190 1e 61 a7 3d 49 04 2d 3d 09 35 f7 3c 1e 79 8b 3d
       0.081728205 0.042240415 0.030176656 0.06810211
0001a0 34 e0 8e bd 9f 4b e3 3d 4a 1e 5c 3d 04 f9 b2 3c
       -0.06976357 0.11098408 0.053739823 0.021847256
0001b0 80 02 e7 bd 17 c7 09 bd 4e a8 c7 3d 5a 4a 73 3d
       -0.11279774 -0.033637132 0.097488984 0.05939708
0001c0 09 03 0f 3e e9 e5 13 3d f9 73 6a 3d 73 cc bb 3c
       0.13966002 0.03610793 0.057239506 0.022924637
0001d0 ef a9 6a 3d 15 4a af bd 34 82 c3 bd 1a 7f 38 3c
       0.057290968 -0.08559052 -0.09546319 0.011260772
0001e0 d6 18 76 3d e1 1e f1 3d 68 a3 02 be d5 ae ec bc
       0.06008228 0.11773468 -0.12757647 -0.02889196
0001f0 3a e5 b9 3b 99 d4 19 3d 13 c9 8a 3b 24 f6 95 bc
       0.005673078 0.037556265 0.0042353957 -0.018305846
000200 63 90 ae 3d c9 15 40 3c dc d4 f5 bc 46 7e ee bd
       0.08523633 0.011723944 -0.030008726 -0.116451785
000210 87 a4 4f bd f0 36 98 3c 87 bc ca bc 35 53 be 3c
       -0.050694015 0.018580884 -0.0247481 0.023233036
000220 1e 8e 0b 3e b4 31 a0 3d 61 53 1b bc a1 1e 2f 3e
       0.13628432 0.0782198 -0.009480328 0.17101528
000230 96 b6 0a 3c d6 39 01 3e 93 f0 8f bd 9f a3 eb bd
       0.008466383 0.12619719 -0.07028308 -0.115058176
000240 d8 d7 d3 bc 49 44 07 bd 20 4e 40 3c ae 51 3e 3d
       -0.025859758 -0.033024106 0.011737376 0.046464615
000250 56 cb c8 3d 16 f6 ef bc 42 30 60 3d 91 67 43 3d
       0.09804408 -0.029292148 0.054733522 0.04770619
000260 91 a7 43 bd 50 3d 13 3c 76 44 91 bc 61 f9 bb 3c
       -0.047767226 0.008986786 -0.01773284 0.022946062
000270 34 ee e5 3c 0a 4e 34 3d 48 fd 8c 3d c2 dd ac 3d
       0.028067686 0.044019736 0.06884247 0.084407344
000280 78 c2 15 3d 27 d1 98 bd 1a d7 c6 bc 81 7f 82 3d
       0.036562413 -0.07461768 -0.02427249 0.06371976
000290 8a c7 c6 3d d8 58 ab 3c 09 ed ea 39 96 34 99 bd
       0.09706028 0.020916387 0.00044808563 -0.07480733
0002a0 6a 63 6e bd 35 bf e2 bc 1d a4 ac bc 81 b0 dd 3d
       -0.058200277 -0.027679065 -0.021074349 0.10824681
0002b0 80 36 dd bc 9b 84 44 3c 99 92 e3 3c cb 90 17 3e
       -0.027003527 0.011994506 0.027779864 0.14801328
0002c0 dd 4a ab 3c 9c ee 64 bc 75 51 47 3d 54 37 e8 bb
       0.020909721 -0.0139729045 0.048661668 -0.0070866738
0002d0 76 8e 67 bd d7 6c c4 3c c1 15 31 bd 38 2a 37 3d
       -0.056532346 0.02397768 -0.043233637 0.044717997
0002e0 7c fd b3 3d 3f 1c 68 bd d1 1b 91 3d ba 87 82 bd
       0.08788583 -0.056667563 0.07085384 -0.06373544
0002f0 90 f2 24 bd 5d f8 22 be a0 90 77 bd 22 ee 9c 3b
       -0.040270388 -0.15915056 -0.06044066 0.00478913
000300 28 0b e8 3c a4 ac 98 bc 28 87 90 3d c2 6e 80 bb
       0.028325632 -0.018637009 0.07057029 -0.0039194534
000310 95 98 5a bd 5d ff a0 3d dd 30 0b bd fb 4e ac bc
       -0.05336817 0.07861207 -0.033982147 -0.021033755
000320 af 13 b0 bd d3 cd dc 3d 6b 30 10 3e 9f 55 53 bd
       -0.08597504 0.10781445 0.1408097 -0.051595327
000330 06 6c 02 3d d8 e1 22 3d 07 54 06 3e c1 a3 b2 3c
       0.0318413 0.039766163 0.13117991 0.0218066
000340 77 e9 85 3d 8c fc ab bc e9 c5 c1 bc e6 13 62 3d
       0.065386705 -0.020994447 -0.023653941 0.055194758
000350 0a fc 8a bd a5 29 aa 3c ba 7d ce bc 2d fb 60 bd
       -0.06786354 0.02077181 -0.025206435 -0.05492704
000360 7c 67 4d 3d 39 10 df 3d 6d 71 84 3d 0e 66 98 bd
       0.05014752 0.10891766 0.06466947 -0.074413404
000370 b6 b7 a0 3d b2 ad 3f 3d 15 b2 a8 bd 7b a5 77 3c
       0.0784754 0.046796508 -0.082370915 0.015115137
000380 52 b1 79 3d 07 85 49 3d e8 28 aa bd 28 54 7a 3d
       0.06096012 0.04919913 -0.083085835 0.061115414
000390 3c 28 1e bd 58 30 e4 3c 86 65 be 3c b7 2e bc bc
       -0.03861259 0.027855083 0.02324177 -0.022971494
0003a0 fa 46 a6 3d 42 fa 02 bd f0 62 b1 3d d4 26 7f bc
       0.081190065 -0.031976946 0.08661449 -0.015573222
0003b0 09 5e be bc 33 34 01 bc 5c 1c 8a 3d e5 04 c3 3d
       -0.023238199 -0.00788598 0.0674369 0.09522418
0003c0 91 4f b4 bc 4e e4 06 bd 80 36 fc 3b e5 af 12 bd
       -0.022010596 -0.032932572 0.0076969266 -0.035812277
0003d0 80 96 1f bd d1 d2 57 3d a5 29 97 3c 2a aa d4 bd
       -0.038961887 0.052691285 0.018452475 -0.10384019
0003e0 69 69 af 3d e9 02 3d bb bd ad 32 bd a2 61 da bc
       0.08565027 -0.0028840846 -0.04362272 -0.026657883
0003f0 b7 db 78 bc 45 6f 02 bd c0 25 cd 3c e5 a3 d8 3c
       -0.015189103 -0.031844396 0.025042415 0.026445339

actor.2.bias f4 [256]
000000 3a fa 23 bd 08 3b 38 bd ad 35 e1 3b a1 e7 f5 3c
       -0.040033557 -0.04497817 0.0068728537 0.030017676
000010 f2 2a 24 bd 25 bb 83 bd b9 94 b0 3c f9 88 4a bd
       -0.04008002 -0.06432179 0.021555291 -0.049447034
000020 89 32 0f bd 23 c4 b0 3c 08 d7 10 bc bc ee f4 bc
       -0.034960303 0.0215779 -0.00884033 -0.029898994
000030 19 4b 12 ba 02 60 30 3b ff 87 e0 bc 0c 87 e2 3b
       -0.00055806484 0.0026912694 -0.027408598 0.0069130715
000040 b6 c9 78 bd 59 7b 3d bd e7 85 2c 3b 2e 67 ab bc
       -0.06073924 -0.04626021 0.002632493 -0.020923223
000050 62 5c 5f bd d0 6f cb bc e4 c6 38 bd 1f d4 14 bc
       -0.054531462 -0.02483359 -0.045111552 -0.009083777
000060 50 fc 9b bc e9 03 9a 3c 25 cf 34 3d fb d9 5a 3c
       -0.01904121 0.018800693 0.04414286 0.013357635
000070 2e 93 6e bd 69 18 50 bd 76 cf 0c 3d 35 0c 3e bd
       -0.05824583 -0.05080453 0.034377538 -0.04639836
000080 84 42 f2 bb 21 9a 70 3d e6 70 c1 bc b8 20 34 bd
       -0.007393183 0.05874074 -0.023613404 -0.043976516
000090 8c af dc bc e4 db 2e bc 72 57 43 3a 5b 07 09 3c
       -0.026939176 -0.010672543 0.000745169 0.00836357
0000a0 f8 6e 3d 3d 61 28 2e 3d d9 bd 46 bd 72 d9 37 3b
       0.046248406 0.042518977 -0.048520897 0.0028053191
0000b0 7f c1 15 bd 50 3c a3 bb 75 9a 14 bd 31 3f 8d bd
       -0.036561485 -0.004981555 -0.036280114 -0.068968184
0000c0 1c c5 b6 bc f1 38 77 bc ce f8 c0 bc 5f 8f 05 3c
       -0.022310786 -0.0150892595 -0.02355614 0.008151858
0000d0 f0 a2 69 3c ef d6 aa bd eb 71 3b bd 8f d4 10 3c
       0.014260039 -0.083417766 -0.045762938 0.00883974
0000e0 95 05 64 3c 10 f8 9e bb f0 aa 84 bd d8 f2 ca bd
       0.0139173465 -0.0048513487 -0.06477916 -0.099096
0000f0 7a a8 78 bd a6 d9 fd 3c c9 71 15 bd 0d 13 8c bd
       -0.060707547 0.030987572 -0.036485467 -0.06839571
000100 62 6d 7f bd 6a 0a bd bc 68 8d b7 3c 1e a0 1e bd
       -0.062360175 -0.023076255 0.022406295 -0.03872692
000110 79 f2 8b bd 8b 12 5b 3c 28 42 2a 3c 55 67 0d bd
       -0.06833357 0.01337112 0.010391749 -0.034522373
000120 9f 05 00 ba 19 dd 38 bd 10 47 07 3d 1b a7 98 bd
       -0.000488365 -0.04513273 0.033026755 -0.07453748
000130 7f a2 6b bd 9d 80 1f bd 8c dc 8c 3c 6c 6e 5a 3c
       -0.057528015 -0.038941015 0.017195009 0.013331991
000140 5b 0a 57 bc 5a 28 a9 3c 1b ed 77 3c 63 9a 20 bd
       -0.0131250275 0.020649124 0.015132214 -0.039209735
000150 2e cd 65 3b 97 0a 40 bc 51 b2 1c 3c f5 ed 63 bc
       0.0035064924 -0.011721275 0.009563998 -0.013911714
000160 f4 85 3d bd 51 b7 be bc 04 a0 f2 bb 3f ec 66 bd
       -0.046270326 -0.023280771 -0.0074043293 -0.056377646
000170 44 cb 78 bd 76 34 6e bd 35 e4 9c bd 41 7a cf 3b
       -0.060740724 -0.0581555 -0.076607145 0.0063317125
000180 cc cb 90 bd b2 49 5f bd a1 6e 82 3c 06 d9 1c 3d
       -0.07070121 -0.05451364 0.015921893 0.038292907
000190 e9 21 2c bd 8d 5c 11 bd dc e3 81 3c 48 07 74 bb
       -0.042024527 -0.035488654 0.015855722 -0.0037235785
0001a0 14 ad 48 bd 84 b3 99 bd 1e 1d 71 bd 13 c8 c9 3c
       -0.048993185 -0.07504943 -0.05886566 0.024631536
0001b0 94 db 82 bd 31 25 f2 3a 03 f0 d4 b9 2d ad eb b8
       -0.063895375 0.0018474219 -0.00040614614 -0.0001123793
0001c0 a1 63 92 3c 15 8a 08 bb 4b b4 9e bc ac b5 02 3d
       0.017869772 -0.0020834256 -0.01937308 0.031911537
0001d0 6c d1 81 3b 1c 79 a8 bb c4 ac 01 3d f0 55 35 bd
       0.0039617326 -0.0051413905 0.031658903 -0.04427141
0001e0 37 79 8b bd 5a ac b4 3b d6 84 6e 3c a8 bf d8 bc
       -0.06810229 0.00551371 0.014558038 -0.026458576
0001f0 5f f9 7d 3b f8 bd c4 ba 1f 66 81 3c 0c e7 5d bc
       0.0038753373 -0.0015010228 0.015795765 -0.013543855
000200 9d 69 22 bd d6 9f cf bc 5a 59 97 bb f3 a0 e3 bd
       -0.039651502 -0.02534477 -0.004618806 -0.11114683
000210 46 2a 9d bc 26 62 7e 3d be 89 96 3b 8b 3c a6 3c
       -0.019185197 0.06210532 0.004594057 0.020292541
000220 f0 6f fa bc 3a c3 75 3c d7 83 d5 bb 7a 4c c9 3b
       -0.030570954 0.015000159 -0.0065159607 0.00614315
000230 45 e4 12 3c 6e 02 8a 3b 33 6f 1a bd 24 f5 8d 3d
       0.0089655565 0.0042117154 -0.037703704 0.069315225
000240 fc d8 58 bd ca f3 20 bc da d3 52 bd 58 45 47 bc
       -0.052941307 -0.009823749 -0.05147157 -0.012162529
000250 d3 64 ad 39 a7 b3 93 3c c3 86 f7 bc 5f 48 88 bd
       0.0003307225 0.01803 -0.030215627 -0.06654429
000260 07 13 f0 bc 27 e5 0e bd 44 04 2b 3b 26 8f 51 bd
       -0.029305948 -0.034886505 0.0026095072 -0.051161908
000270 fe f8 3c bb da 63 a4 3c 80 3c d9 bb 58 0c 6d bd
       -0.0028834934 0.020067144 -0.0066295266 -0.0578731
000280 90 9a 85 3d e1 60 c7 bc 75 56 49 bd 4e 77 81 3c
       0.06523621 -0.024338188 -0.049154717 0.01580396
000290 b8 cd 62 bd 96 49 9c 3c a2 6d 8f bc 9b 2a 19 bd
       -0.05537197 0.019078057 -0.017508332 -0.037394147
0002a0 98 09 92 bc b7 80 c4 bc e3 c6 93 3c 09 ca f7 bc
       -0.01782684 -0.023987157 0.018039173 -0.030247705
0002b0 76 ad bc 3b 56 ef 94 bc d0 0c fb 3c 10 03 37 bd
       0.005757983 -0.01818053 0.030645758 -0.044680655
0002c0 1f 79 99 37 ef 52 80 bc 86 af cb bc 53 cc df bc
       1.8295423e-05 -0.015664546 -0.02486397 -0.027319109
0002d0 8e 9c 0e bd 3f e6 b9 3b cd a5 40 bd 4a 81 61 bd
       -0.03481727 0.0056731994 -0.04703312 -0.05505494
0002e0 e6 c1 29 bd ae 03 0b bd a3 38 e4 3b 81 5e 14 bd
       -0.04144468 -0.033939056 0.0069647594 -0.03622294
0002f0 ac 6f 23 3d f0 47 80 bc 34 db 1a bd bf bc 18 3c
       0.03990142 -0.015659302 -0.037806705 0.009322344
000300 70 1c 64 bd 27 0a bd bc 75 b1 e9 3c e7 b9 c8 3c
       -0.055691183 -0.02307613 0.028527 0.024502708
000310 b7 7f 48 bd 2d 28 f7 bc 85 d4 49 3c 13 4d f9 3c
       -0.048949923 -0.030170524 0.012318735 0.03043226
000320 e0 f1 9f 3c f6 5a a8 bc c2 90 b9 bc d3 f6 f0 bc
       0.019524515 -0.020551186 -0.022652034 -0.02941457
000330 f1 89 2f bd 03 02 57 bd c8 da d1 3b c0 79 7e 3c
       -0.04285616 -0.052492153 0.0064042546 0.015531957
000340 a0 be a7 3c c5 39 45 bd b4 3c 47 bd 4b 13 10 bd
       0.02047664 -0.048150796 -0.048641875 -0.03517465
000350 f2 8c 8d 3c 72 1a 90 3b 3a b5 e8 bc fc af 2d bc
       0.017279122 0.004397684 -0.028406728 -0.01060104
000360 9d 86 4e bc 94 bf 9d bd 69 6d 91 bd 04 84 27 bc
       -0.0126053365 -0.07702556 -0.071009465 -0.010224346
000370 42 73 24 bd e2 fc 5a bb d7 9c a0 3c 4c 70 8b bd
       -0.04014898 -0.003341489 0.019606037 -0.06808528
000380 39 d9 d8 3a 9e 67 38 3d 55 51 06 bd 21 29 34 bd
       0.001654423 0.045020692 -0.032792408 -0.043984536
000390 49 06 89 3c 59 e2 ae 3c 5e 87 2b bc 43 93 56 3d
       0.01672663 0.021348165 -0.010469286 0.052386533
0003a0 86 c0 80 bd 2f 08 bc bc e3 19 d0 3c ca 2f 05 bd
       -0.06286721 -0.022953121 0.025402969 -0.03251628
0003b0 33 d2 5b bd b9 86 15 3c bc 17 8c bd 95 e7 90 bc
       -0.05366726 0.009126359 -0.068404645 -0.017688552
0003c0 00 95 d5 bc d6 eb 44 3d a7 05 53 bd 19 4c 91 ba
       -0.026072025 0.048076473 -0.051519062 -0.0011085301
0003d0 5b d0 90 bd 66 05 76 bd 0d 25 67 3d 7f a0 39 bd
       -0.07070991 -0.060063742 0.05643182 -0.045319077
0003e0 e9 77 5e bd d3 e6 70 bd f1 3f 54 bd f7 1b ec 3c
       -0.054313574 -0.05881388 -0.05181879 0.028821928
0003f0 46 9e e6 3b b4 85 7c bd a4 5a 40 bd e9 40 e2 bc
       0.0070379106 -0.061650947 -0.04696144 -0.027618842

actor.4.weight f4 [128, 256]
000000 bc 16 c5 3d 59 e9 92 3d e1 fb 30 bc 01 55 22 3d
       0.09623477 0.07173414 -0.01080224 0.039631847
000010 79 8c 92 bc 4d 60 6f 3d 1f 53 5f 3d fc 70 24 bd
       -0.017889248 0.05844145 0.05452263 -0.040146813
000020 46 d8 81 bd ca 25 6a 3b b0 f5 9f 3c d7 51 d4 3d
       -0.06340079 0.003572809 0.019526333 0.10367172
000030 7b 9c f8 bd 0c 4d d8 3b d2 e6 a3 bd b4 94 fa 3c
       -0.12139221 0.0066009816 -0.0800301 0.030588485
000040 66 19 fd bd a9 c1 c3 bc 3c 4d 54 3c e6 ab 9e 3d
       -0.1235836 -0.023896055 0.012957867 0.07747631
000050 09 f8 80 bc 57 c4 04 bd 66 e4 8c bd 6c eb eb bd
       -0.015743272 -0.032413807 -0.06879501 -0.115195125
000060 53 11 cf 3b 08 f9 45 3d 61 92 1b 3d bf e0 da bd
       0.006319204 0.048333198 0.037981395 -0.10687398
000070 5a 7e 09 bd c3 43 9e bd cd 06 01 3c 5e e4 0d 3d
       -0.033567764 -0.07727768 0.007875157 0.034641616
000080 6e 8c 85 3d 31 c2 38 bd d2 39 30 bd 53 16 cb 3c
       0.065209255 -0.04510707 -0.04302389 0.024790918
000090 70 f2 e8 bd 7c e9 d0 bb 8a 60 b4 3d fb a2 91 bd
       -0.11374366 -0.0063754898 0.08807476 -0.07111164
0000a0 ec f1 01 3d 7c dc 63 bb 76 07 d0 3d 32 01 eb 3c
       0.031724855 -0.003476887 0.10157673 0.028687093
0000b0 09 6a af bc 1f 51 1b bd 06 28 c0 3c 8c cf 9d 3c
       -0.021412866 -0.03791916 0.023456585 0.019264005
0000c0 ac 7a 32 3d 58 90 7e 3c 2b 80 66 3d 85 e6 63 bd
       0.04357402 0.015537344 0.056274574 -0.055639762
0000d0 da 54 bd bd ad 3f af 3c e0 c8 d5 bc 4a 17 25 bd
       -0.092447 0.021392668 -0.026096761 -0.040305413
0000e0 d6 dd 69 3d c8 6c 20 3c 55 a3 84 bb 62 09 bc bc
       0.057096325 0.0097915605 -0.004047791 -0.022953693
0000f0 c7 27 cb bc d7 9a 0b 3d 90 3b a7 bd ad 9a 58 3d
       -0.02479924 0.034083214 -0.081656575 0.052881885
000100 5b 28 91 3b b3 78 b2 3d a7 b5 94 3a 52 31 af bd
       0.0044298596 0.08714428 0.001134564 -0.08554329
000110 1b de d5 bb 8e 42 ce bd dd 69 5f bc 61 e3 4f 3d
       -0.006526721 -0.10071288 -0.01363608 0.050753955
000120 f2 bd bd 3d 53 cd a3 bd 65 2d 19 bd 05 51 9d bd
       0.09264745 -0.07998147 -0.037396807 -0.07681469
000130 7c 24 69 bc 52 d0 88 bd 45 cf 16 3d 0b f9 70 3d
       -0.01422989 -0.06680359 0.03681876 0.058831256
000140 a8 1b 9c bd 82 4a 6a 3c 7a d6 38 bd 76 71 88 bd
       -0.076224625 0.014299991 -0.045126416 -0.06662266
000150 fa 59 77 bd 11 47 87 3c 67 02 7b bc b1 1c 37 bd
       -0.060388543 0.01651338 -0.015320397 -0.044705097
000160 74 f0 66 bd 55 e3 b9 3d 4b 6a 48 bc 0c f7 3d 3d
       -0.056381658 0.09076563 -0.0122323735 0.04637818
000170 47 8c 8a bc fb 84 f4 3c 5f 66 b3 3d f4 13 13 bc
       -0.016912593 0.029848566 0.0875976 -0.008976925
000180 40 20 87 3d c9 37 3f 3d 02 02 fa 3b bb 59 08 be
       0.06597948 0.04668406 0.007629634 -0.1331548
000190 c6 ae 9e 3b 27 a5 d4 3b d3 e2 60 bd 25 86 a8 bc
       0.004842612 0.0064894143 -0.054903816 -0.020571778
0001a0 d9 e8 90 3c 53 e4 a2 bc 43 77 a9 bd 4f b0 0f bd
       0.017689155 -0.019884264 -0.082747005 -0.03508025
0001b0 9e 9a 2e 3d 64 88 2f bd 0e 83 7c 3b 8b c5 8f bd
       0.042627923 -0.04285468 0.0038530263 -0.070201
0001c0 83 69 8a bb ed b6 02 3e 29 7e c2 3c 31 c1 c4 3b
       -0.0042240038 0.12765093 0.023741798 0.0060044755
0001d0 54 36 9b 3d c8 7f 45 3d f8 04 8f 3d dc 5f c4 bc
       0.07578722 0.048217565 0.069833696 -0.02397149
0001e0 29 ad 44 3d 0d c9 aa bd 34 38 05 bd fb 02 41 3d
       0.0480167 -0.08339129 -0.032524303 0.047121983
0001f0 b9 dc 9e bd 46 df 96 bc fd 54 b9 bd 88 25 6f bd
       -0.07756943 -0.018417012 -0.09049413 -0.058385402
000200 8c d5 6b bd 64 0b 46 bd 21 f7 ff bd b8 4f bc 3d
       -0.0575767 -0.048350707 -0.12498308 0.09194893
000210 6b be df ba 16 4d 47 3c 11 71 46 3d e8 63 50 bd
       -0.0017070299 0.012164375 0.048447672 -0.050876528
000220 70 f6 68 bd de 4e e0 bc d9 49 f6 bc 54 8e 00 3d
       -0.056875646 -0.027381357 -0.03006451 0.031385735
000230 97 fa e6 b9 a4 fd 49 3c a1 d4 24 3d a8 76 76 bd
       -0.00044055723 0.012328539 0.04024184 -0.060171753
000240 b2 b3 71 3d 10 05 01 3d f0 4a c1 3d 74 1f fe 3c
       0.05900926 0.03149897 0.09438121 0.031020857
000250 3e 86 00 3c 01 00 4f 3d d2 c9 d7 bc b5 ac 1b 3d
       0.007844506 0.050537113 -0.026341353 0.038006503
000260 3e e5 70 3c fb b5 1e ba 7d 55 23 3d d3 fe 0f 3d
       0.014703093 -0.0006054339 0.03987645 0.03515513
000270 d6 e4 b8 3c d4 db a9 bd 9d d1 1e bd 18 d0 b8 bc
       0.022570055 -0.08293882 -0.03877412 -0.022560164
000280 72 cd 88 bc 0b fd 7b 3d 3e 53 d1 3c 99 bd 84 bd
       -0.016699526 0.061520617 0.025552388 -0.064814754
000290 fb 5c 1b 3c f3 5e d1 bc 96 6d a4 bc 62 78 36 bd
       0.0094826175 -0.02555797 -0.020071786 -0.0445484
0002a0 9a fa d1 3c d3 0b 91 3a ea 27 8a 3b a0 f3 9a bd
       0.025632191 0.0011066146 0.004216184 -0.07565999
0002b0 bb 05 61 bc 9a 1b ba bc 40 80 d9 3c 4a 1a 4c bc
       -0.013734276 -0.02271824 0.026550412 -0.01245744
0002c0 ca 8d fd bc f2 3a 44 3d 40 0d 2e bd 46 2d bb 3d
       -0.0309514 0.047907777 -0.042493105 0.091394946
0002d0 f2 47 24 3d e0 5f 07 bd de 9c 1e 3d cb 3d 11 3d
       0.040107675 -0.033050418 0.03872382 0.03545932
0002e0 48 96 98 bb e0 da ba bd 38 c1 93 bc 70 ff 27 3c
       -0.004656587 -0.09123778 -0.01803647 0.010253772
0002f0 84 43 3d 3d ae 10 a4 3c 1a 5b a9 b8 06 7c dd 3c
       0.046206966 0.020027485 -8.075517e-05 0.027036678
000300 d3 a4 b9 bc bf 1d bc 3c 03 35 e3 3a 9a 86 a0 3d
       -0.022661602 0.022963403 0.0017334524 0.07838173
000310 48 fd bf 3c d5 c8 a5 bd c6 05 ab bb a0 ab 27 3d
       0.023436204 -0.08094946 -0.005219194 0.04093516
000320 94 d4 71 3c a2 e5 21 3d ce f6 1f bd c7 a9 ea 3d
       0.014760155 0.039525636 -0.03905373 0.11458164
000330 1a b4 b1 bd 30 13 80 bd 17 a9 1c bd d9 40 3e 3d
       -0.0867693 -0.0625366 -0.038247194 0.046448562
000340 d3 1d f0 3c f2 05 1d 3d d4 c0 42 bd b8 e6 1f 3c
       0.029311096 0.038335748 -0.047547176 0.0097595975
000350 bc 34 db 3d 47 ee 8b bd f4 80 3c 3d 85 ee 8f 3d
       0.10703418 -0.06832557 0.046021417 0.07027916
000360 f8 58 f2 3c 30 da e3 3a 40 2c 05 3d 21 62 42 3d
       0.02958344 0.001738375 0.032512903 0.047456864
000370 cf 84 0f 3d ea f8 9d bc 9b 14 10 3c 8c 91 86 3c
       0.035038766 -0.01928373 0.008793975 0.016426824
000380 19 52 62 bb be 43 43 3d 1a 05 d2 3c fb 8d 1a 3d
       -0.0034533797 0.047672026 0.025637198 0.03773306
000390 69 b7 37 bd 8c ed 08 3d bc 0f 8f 3d 4a 88 4f bd
       -0.044852648 0.033429667 0.06985423 -0.050667085
0003a0 14 90 21 3d 7d 4e 67 bd a5 9c a5 bc 9e db 95 bc
       0.039444044 -0.056471337 -0.020216295 -0.018293198
0003b0 37 b6 b4 3c 4f b2 61 bd 3f d0 81 3d 5d 9e d7 bc
       0.022059543 -0.05510169 0.06338548 -0.02632063
0003c0 86 6c 04 bd 47 47 10 3d a3 62 d6 3d c8 2d 83 bd
       -0.03233006 0.035224225 0.10468032 -0.064052165
0003d0 a6 21 45 bc 97 36 49 bd 21 d6 44 bd c3 63 ed 3c
       -0.012031948 -0.049124327 -0.04805577 0.028978234
0003e0 3d ec ce 3c 2e 93 27 bd 62 1f 09 3e 0b b8 9e bd
       0.025259132 -0.040911846 0.13390878 -0.07749947
0003f0 e5 76 25 bd 11 59 aa 3c 6e 0e 68 bb 55 7b 6e 3d
       -0.04039659 0.020794423 -0.0035408991 0.058223087

actor.4.bias f4 [128]
000000 ec 66 40 bd 67 59 c7 bd 56 7a 34 3a ea 79 84 bd
       -0.046973154 -0.09733849 0.00068846846 -0.06468566
000010 19 8f aa bd b0 dd 02 be c0 b5 11 bd 1d c0 58 bd
       -0.08328075 -0.1277988 -0.03557372 -0.05291759
000020 78 fa 70 3b ba bd 22 bd 83 82 24 be 45 2a 6f 3d
       0.0036770385 -0.03973172 -0.16065411 0.05838992
000030 a5 44 c2 3c 50 85 10 bd de 4a 38 3c ee ac 9a bd
       0.023714373 -0.035283387 0.0112483185 -0.07552515
000040 a1 48 db bc 1b 71 40 bc 68 64 5d bd a5 31 57 3c
       -0.02676803 -0.011745716 -0.054050833 0.013134395
000050 ec ed 67 bb 73 ed 0e 3d 75 61 42 bd d3 ce 1d be
       -0.0035389615 0.034894418 -0.047456224 -0.15410928
000060 fc 05 16 bc 58 b9 82 3d 9b 49 e3 bd 30 41 c4 3c
       -0.0091567 0.06383008 -0.110980235 0.023956865
000070 04 f1 b5 3c dd a2 92 3d 62 b0 4c 3d 15 1e fe bc
       0.022209652 0.0715997 0.0499729 -0.031020204
000080 1c 5a 28 bc 75 5b be bc 46 cc bd bc ab ef 0e bd
       -0.01027539 -0.02323697 -0.023168694 -0.034896534
000090 0c 00 90 3c 80 e0 ec bc eb 27 83 bd b3 af e3 bc
       0.017578147 -0.028915644 -0.06404098 -0.02779374
0000a0 ec 19 b6 b8 bd d2 81 bc e2 bb 4f bd c4 31 c3 bd
       -8.6832646e-05 -0.015847558 -0.05071629 -0.095309764
0000b0 23 52 82 3d db 43 a6 bc 4b 7c 75 bd 1b 41 14 3d
       0.063633226 -0.020296028 -0.059932988 0.036194902
0000c0 87 d8 6c bd c6 00 9a bc fd cf 07 be 23 4c 8c 3b
       -0.057823684 -0.018799197 -0.13262935 0.004281537
0000d0 b2 84 17 3c 45 c0 84 bd fc 3b b3 bd 50 51 d9 bc
       0.009247946 -0.06481985 -0.087516755 -0.02652803
0000e0 87 a8 a3 bd af 1f d3 bc 12 0a 61 bd 4e 9d 3c bd
       -0.079911284 -0.025771944 -0.054941244 -0.046048455
0000f0 53 db 0b bd 69 d1 4c 3d de ed e4 bc 51 b3 a4 bd
       -0.03414471 0.050004397 -0.027945455 -0.080420144
000100 d3 0f 91 bd 21 f6 b1 bd ad a6 3b bb c0 7c 8c 3c
       -0.07083096 -0.086895235 -0.0028633282 0.01714933
000110 97 8d a4 3c 4e af d0 bd 5a e1 c6 bd 20 eb 1c 3c
       0.020087047 -0.10189687 -0.09710951 0.009577543
000120 da 6e a6 3c ed 79 2a 3c 15 d6 41 3d 12 f3 87 3c
       0.02031653 0.010405046 0.047323305 0.016595397
000130 a2 20 db 3a b1 65 c6 bc c3 ca 01 bd 13 ae f9 bc
       0.0016718099 -0.024218412 -0.03168751 -0.030478513
000140 e9 a9 2c bc b5 b6 ee 3c 97 70 fb bb df fc 40 3d
       -0.010538557 0.029139856 -0.007673334 0.047116157
000150 72 6e bf bd bb 25 7a bd 5c 57 c8 bd c2 46 08 bd
       -0.09347238 -0.06107114 -0.097822875 -0.033270605
000160 bd b9 91 bd 33 d0 47 3c b0 f7 a5 3d dc dc b4 bd
       -0.07115505 0.012195635 0.08103883 -0.08831188
000170 b1 e9 2b 3d e2 69 b4 3b bc 51 8e 3d 70 72 23 bd
       0.041970912 0.0055057863 0.06949183 -0.039904058
000180 e4 9a 66 3d 1a c9 5a 3d 77 dd 3b 3d 3b e8 01 be
       0.05630006 0.05341444 0.045865502 -0.12686245
000190 92 9d 8e bc c3 bb 5a bc f9 e1 94 bd c3 25 7d 3c
       -0.01740912 -0.01335043 -0.07269663 0.015450898
0001a0 54 44 9f bc 05 ca a7 bc c9 09 79 3a 53 25 b9 3c
       -0.019441761 -0.020482073 0.00095000543 0.022600805
0001b0 2d 01 09 bd f9 f0 7d bb 7e cb a7 bd e7 a3 0f bd
       -0.033448387 -0.0038748367 -0.0819311 -0.03506842
0001c0 db fb 27 bd c0 dd 85 bd a8 69 1f 3d 1c ba 5a 3c
       -0.041011672 -0.06536436 0.03891912 0.013350036
0001d0 ec e9 af bd 33 a6 c8 bd 5d 95 16 bd 49 81 bd 3a
       -0.08589539 -0.09797325 -0.036763538 0.0014458086
0001e0 42 38 72 bd 86 fa 74 3c b4 42 93 bd 69 b0 37 3d
       -0.059135683 0.014952308 -0.07190457 0.044845972
0001f0 c3 b0 a1 bd 88 2b 61 bd e8 b3 29 bd 75 c6 a2 bd
       -0.07895043 -0.054973155 -0.041431338 -0.07948009

actor.6.weight f4 [12, 128]
000000 23 a2 72 bd 46 99 2d 3d 4d 11 32 bc e8 71 50 3d
       -0.059236657 0.0423825 -0.010868383 0.05088988
000010 cd 88 4d 3c 8a e0 a2 bc 6c ce 30 3b 03 b4 a5 3d
       0.012544823 -0.01988246 0.0026978506 0.08090975
000020 74 a2 26 3c d2 40 c3 bc 30 03 db bc ab c5 32 bd
       0.010170568 -0.02383462 -0.026734918 -0.043645542
000030 c3 da d1 bd 10 e6 bb bc b0 1f 89 bb 45 64 71 3d
       -0.102468036 -0.02293685 -0.0041846856 0.058933515
000040 07 cf 48 bd 47 0c 08 bd aa 74 c3 bc 22 94 5a 3c
       -0.04902556 -0.033214834 -0.02385934 0.013340982
000050 11 c6 c9 bd de 56 2b 3c a9 47 c3 ba db 7a 51 3c
       -0.09852231 0.0104577225 -0.0014898676 0.012785639
000060 2f 2b 4a 3d 58 0d ac bd f3 4e 05 3d 78 76 33 3d
       0.04935759 -0.084009826 0.032545995 0.043814152
000070 52 c3 98 bd d8 5e 1e 38 a8 c7 8d bd 99 82 df bc
       -0.074591294 3.7758466e-05 -0.06922847 -0.027283954
000080 b0 b5 df bc b6 1e 46 bd 4c dd 08 bd f0 7a 37 3b
       -0.027308315 -0.048369132 -0.03341417 0.002799686
000090 15 73 e9 bc ba 70 c9 bc 2a a2 6f 3c f5 b7 b4 bc
       -0.028497258 -0.024589885 0.014626065 -0.022060374
0000a0 f7 5d 26 3d f0 d4 c7 3a 56 b3 0d 3c 18 33 40 3d
       0.040616956 0.0015245955 0.008648714 0.046923727
0000b0 88 5f 37 3d 7f 7a 35 bb a6 70 b3 3c 6f 85 91 3c
       0.04476884 -0.0027691422 0.0219043 0.017763821
0000c0 0c 80 a3 3d b6 e1 8b 3d e5 be 84 bd da d0 8a bc
       0.079834074 0.0683016 -0.06481723 -0.016945291
0000d0 bb 4a 0d 3d 18 f9 37 3d 1b b4 24 3d 43 df 88 3c
       0.034495097 0.04491529 0.040210824 0.016708022
0000e0 af 34 26 3c c3 51 f7 3c 41 63 08 bc b7 62 6c bd
       0.010144397 0.030190354 -0.008324445 -0.05771133
0000f0 6f c6 9a 3c 4f 0b 2c 3c 92 02 90 3c 2c 3b 1c 3c
       0.018893449 0.010500743 0.01757935 0.009535592
000100 4e 5b 48 3d a4 17 74 3b 3f 97 ed bc 5d 7b 38 3d
       0.0489152 0.0037245536 -0.029002784 0.045039523
000110 51 17 a4 bc 46 b2 3a 3b bd ee 4b 3d c3 d9 22 bc
       -0.02003065 0.0028487607 0.049788225 -0.009939614
000120 07 bc 85 3c ab 36 85 bc 9b db 5a 39 df 2b b6 3d
       0.01632501 -0.01626142 0.0002087191 0.088950865
000130 e0 ee 56 3c 6d f8 62 bd f7 1e 3d 3d d0 31 aa 3c
       0.013118476 -0.0554127 0.04617211 0.020775706
000140 72 34 ce bc a5 fb 68 39 d9 8c c7 3c 09 0f 5d bc
       -0.025171492 0.00022218989 0.024359154 -0.013492354
000150 4a cf 9d bc 1f 37 2a 3d c6 3c 63 bd 89 d7 51 bd
       -0.019263882 0.041556474 -0.05547788 -0.05123094
000160 ed ca 9d bc 81 84 47 bc 5c db 4f bd 16 80 98 bd
       -0.019261802 -0.0121775875 -0.050746307 -0.074463055
000170 ac f8 c1 3c 24 bc db 3c 7b 72 06 3d 43 f4 6a bd
       0.023678146 0.02682311 0.03282402 -0.057361852
000180 48 69 fc bc 54 7f bc 3d 2e b2 e8 bc 49 d9 8b 3d
       -0.03081192 0.092039734 -0.028405275 0.06828553
000190 e7 96 0c 3c 0a ff 90 3c b0 2e 34 3d 18 98 12 3d
       0.0085809 0.017699737 0.043989837 0.03578958
0001a0 93 af eb bc 75 40 f0 3c 38 35 69 3d 0f 04 a4 ba
       -0.028770244 0.02932761 0.05693552 -0.0012513417
0001b0 40 4a 62 bd 4d 3a 45 3c e8 88 85 3d 55 80 01 bd
       -0.05524659 0.012037826 0.065202534 -0.031616528
0001c0 d0 e7 8f bc 1a e2 8f 3d 10 ad a4 bd 99 62 47 3c
       -0.017566592 0.07025547 -0.080408216 0.012169504
0001d0 41 54 44 bc f4 37 ae 3b 71 95 ec bc 80 16 b2 bc
       -0.011982978 0.0053167287 -0.028879853 -0.021739244
0001e0 2a fa bf 3c b4 6e b7 bc 26 2d 31 bd 19 33 06 bd
       0.023434717 -0.022391655 -0.043255948 -0.032763574
0001f0 65 d3 2b 3b 7f 29 82 bd c1 ea a4 3d 23 ac 18 3c
       0.002621853 -0.06355571 0.08052588 0.009318384
000200 9a 77 c9 bc 6c c3 3d bd c7 48 2a 3c 99 48 90 3d
       -0.024593163 -0.046328947 0.010393328 0.07045097
000210 47 e7 22 bb ee 76 d4 bc 39 96 8c bd ff 6c c7 3d
       -0.002485709 -0.025935616 -0.0686459 0.09737586
000220 60 9b 3d 3c 4c e4 bf 3c 87 4e 31 3c 7d 6f b9 3c
       0.011572689 0.02342429 0.010821945 0.02263617
000230 84 7e 4f 3c 13 99 8f 3c e4 86 ff bb 4d 5a 6e bd
       0.012664441 0.017529046 -0.0077980626 -0.058191586
000240 87 6f e7 3b 95 9e a6 3d bb 61 12 3c 30 b9 75 bb
       0.0070628556 0.08135716 0.008934434 -0.0037494414
000250 87 b4 4c 3c 8e 18 4d bd 11 17 ba 3a 08 47 70 3c
       0.012494213 -0.050072245 0.0014197548 0.014665373
000260 58 58 86 3b b3 fd b5 bc aa 2b f0 bb 99 5c 0b 3d
       0.004099887 -0.0222157 -0.007329424 0.034023855
000270 63 e8 c5 3b 35 9e 92 bd b1 65 36 bd af 7e 0e 3d
       0.0060396655 -0.07159082 -0.044530574 0.034788784
000280 c3 ec 1e bd 0d 38 1f bd 1d a1 25 3c 94 a1 b4 3c
       -0.038800012 -0.038871814 0.010109213 0.022049703
000290 ce cd 9f 3c 7f e9 69 bc 3f 78 8f 3d 77 54 0c 3d
       0.019507315 -0.014276861 0.07005357 0.03426024
0002a0 c7 5e e8 37 a5 86 d8 bc 91 ff c8 39 f3 ac e6 bc
       2.770069e-05 -0.026431391 0.00038337384 -0.02815864
0002b0 13 bd 73 3d 10 7f 76 bc 82 c4 62 3d e2 e9 50 3a
       0.059506487 -0.0150449425 0.055363186 0.00079694216
0002c0 c9 c5 cb bb 8a 3e 33 bd 35 d1 e3 3b 0c 4d 99 bd
       -0.006218646 -0.043760814 0.0069524297 -0.07485399
0002d0 c8 c5 0c bd f9 d9 1e bc ca ee 4e 3d 2a 39 ee bb
       -0.034368306 -0.009695523 0.050520696 -0.007269998
0002e0 95 ac 37 bd 29 96 37 bd 27 55 58 3d bc c1 1a 3d
       -0.04484232 -0.04482094 0.052815583 0.037782416
0002f0 1d ab 1b 3d 8a 36 60 3c 9b 66 1b 3c d6 96 e0 bc
       0.038004983 0.013684878 0.009484912 -0.027415674
000300 89 f7 51 bd 3b fb 3c bc ae ce cd bd 77 74 0c 3d
       -0.05126146 -0.011534507 -0.10049187 0.034290757
000310 1e 5b 9f 3d 3d e3 9b bc ad 0b 1b bd f9 ef c9 bc
       0.07781051 -0.019029254 -0.03785293 -0.02465056
000320 c4 5d 13 3c 98 a6 90 3d 7b 70 2d bd fc 24 78 3d
       0.008994523 0.07063025 -0.042343598 0.060582146
000330 d3 a6 3b 3c c3 af 94 3c 62 e1 57 bd 94 cf c6 bc
       0.011453348 0.018150216 -0.052705176 -0.024268903
000340 38 2c 67 bd c3 fe 84 bc 90 7d 8d bc af c2 8c bd
       -0.056438655 -0.016234761 -0.017271787 -0.068730704
000350 ab 5d 9b 3b 09 21 51 3c 5b 8f 80 bc a2 9d 02 3d
       0.0047413907 0.012764224 -0.015693357 0.03188861
000360 45 48 20 3d a2 3b de bd da 6e 33 3b dc 9e bd 3b
       0.03913142 -0.10851218 0.0027379305 0.00578676
000370 6b 95 d8 bc 66 99 19 bd 78 eb 82 3c 7b b8 35 bd
       -0.026438436 -0.037499808 0.01598142 -0.044365387
000380 2e 2a f5 3c f1 df 4f 3d f0 d8 b9 3d 82 85 e0 3c
       0.02992734 0.050750677 0.09074581 0.027407411
000390 f0 7a 6b 3d e3 9d 16 3d b7 20 1e 3d 05 90 0b bc
       0.05749029 0.036771666 0.038605418 -0.008518224
0003a0 dd 68 2a bc a6 17 6d 3c e3 e4 0b 3d a5 0d ee bb
       -0.010400978 0.01447097 0.03415383 -0.00726481
0003b0 41 d9 8b 3c 4c 5f d4 bc 66 a5 26 3b 57 98 67 bd
       0.017071368 -0.025924347 0.0025428175 -0.056541767
0003c0 e2 d3 ea 3c 3c fa 94 3d de ca d6 bc 0d a0 ef bb
       0.028665487 0.07274291 -0.026219781 -0.0073127807
0003d0 37 a0 50 bd 01 32 71 3d 6c ea 90 3c 5d 07 60 bc
       -0.050934043 0.058885578 0.017689906 -0.013673631
0003e0 ee e6 83 bd 4f ca 0b bd 6a d2 01 bd c9 96 40 3d
       -0.06440531 -0.034128483 -0.031694807 0.0470188
0003f0 96 2a 9b 3d f1 6f 49 3d c7 33 2f 3d 16 d9 31 3d
       0.07576482 0.04917902 0.042773988 0.04341992

actor.6.bias f4 [12]
000000 8a 9a 48 3d b6 e5 3d bd 81 de 0c 3d 26 86 f6 3c
       0.048975505 -0.046361648 0.034391884 0.030093264
000010 1e 9b 76 3d 4e 8d 31 bc 97 2e 06 3e ad 2b de bc
       0.060206525 -0.010836912 0.1310371 -0.027120436
000020 f2 0d f2 ba 1f 22 04 be 89 a4 2a 3e 3e e4 f7 bd
       -0.0018467291 -0.12903641 0.16664328 -0.121040806
