src/ga_quadruped/policy/param_action.onnx (onnx, 772885 bytes, 8 tensors)

actor.0.weight f4 [512, 52]
00000000: 3638 223e 1f7e 1cbe 5a3a db3e 58a5 373d
00000010: e774 a8bd 2663 b2bc 0795 b53e f017 5d3d
00000020: fc77 413c e26c ef3d bde9 463d 1cc9 7bbd
00000030: 8326 303e c54f d53d 2219 b83d 76d6 d8bd
00000040: f9e3 a63d 9599 a7be 0073 1dbe a4e5 3b3e
00000050: fe1c e7bd 3ad8 fb3d 09d2 893e f0ee 893c
00000060: c3a1 c5be 3824 ed3d f666 16be 6dd1 58bc
00000070: 6b48 203d 7aed 953d 3746 4cbd b520 c6bd
00000080: 162e 84be 3ac6 7a3b 5ea5 32be 2573 c73d
00000090: 3993 ffbc f6d4 b4bd a5a8 643b 0888 b03e
000000a0: 2495 943d 6e53 79bc 21fd adbc a705 f8bd
000000b0: 2916 ae3c 04e2 313d de55 433d 275c 28bd
000000c0: 21dc 5bbd c015 91bd 42e4 713d 1097 d5bd
000000d0: 2219 203e 1386 de3e b522 00be 1efb 7e3e
000000e0: 8aa1 c43d 7cc1 70bd 6ee5 dd3d 9ea8 3c3e
000000f0: 7784 e63c 7e8e 273d c561 45be 4c57 9fbd
00000100: 8b55 83bc bbc5 633d 3f9b d1bc 9b48 773c
00000110: f02b 673d 8b6e ce3d fef1 f8bc 8091 113e
00000120: a6f5 fa3d 8c5d 42be 9b56 e23d 4aae 9cbe
00000130: 1cc5 f93c 004b 38bd 2b93 a7bc f21e dbbd
00000140: 520d 16be df41 603d d303 7d3c 819f 09be
00000150: 7aad 653d 1ff5 973e 2d71 8fbd e519 56be
00000160: 2a67 b0be 363f 3d3e 341f 76be 7da4 113e
00000170: 12e0 353e 28d7 193e 420f 8a3c 3ea1 423d
00000180: 99ab 08bc 711a 7cbc 1481 5abd 8bb8 80bd
00000190: 5a1b 823d 5eb1 aebd 2cc5 fabd 5f73 8dbd
000001a0: 38fc 03bc 71e5 113e d111 e73d ce6a 023e
000001b0: 8625 363e c403 15bd 621f cd3c 64db 82be
000001c0: d5f8 d8bd b8d5 8bbe ba75 83bd 0db7 7f3d
000001d0: 720c 763d 3f59 c1bd 0174 f8bd 7d22 ad3c
000001e0: 43f8 433c 752d 913d 8d22 1bbe 63b0 1b3c
000001f0: 1831 773d fe55 58be 69de 473e 1e7d 003d
00000200: d9a0 3a3e 1221 4e3c 4eca f93d 7b0c 6abd
00000210: ae11 c0bd c7a7 62be 13a0 973d ed00 b03d
00000220: 8345 163e 6e06 4b3e 816f 6abc 0860 a73d
00000230: 9213 67bd 8438 8c3d 8ccd 33be bdf1 64be
00000240: 3e5b d33d 26a8 2b3d 8c92 b53d 9909 983d
00000250: 73f7 2b3d 0e41 043c 3920 c2bd b091 eebc
00000260: 64c6 44bd 5c95 a8bd 7c2a 95bc c4a1 cd3d
00000270: d08e ff3c 5a00 f83c a32f 873e 1944 66bd
00000280: 94a7 8cbe d539 09bd 31b9 a53d 5442 0ebd
00000290: c686 65bd ac3f 1d3d d3f1 11be 33bd 0a3d
000002a0: b5ec fbbd 2532 dbbd f46e c4bc 7d8e 9ebd
000002b0: 9fa7 5fbd 52d5 bdbd c46e 503e 5b29 133d
000002c0: a3db 2f3d b467 353e eefd a13d bb0b 0fbe
000002d0: c192 103e f149 6f3e 7a01 363e c37b 52bc
000002e0: d183 863e 6d8f a5be daf8 d23d b107 88be
000002f0: ad63 38bd 7e82 d43d 6236 09bd 1fa7 453d
00000300: b9f9 1cbe 5fa7 b4bd 7178 4a3d 8588 763e
00000310: 89f3 d5bb b20b bc3c 7a79 163d 513a bebd
00000320: f2df 313c 237c c9bc 7d1d 923d d046 6fbd
00000330: 4bbf a3bd 1133 c93c eadd 783d 5c70 9abd
00000340: 47b7 1dbe d991 73be a43e 8c3e af20 7ebe
00000350: a37d f63e 3757 06bc 8b7d e13d 87ce a63d
00000360: 9fa2 853d 0d57 cebd d079 24be 7c47 33bd
00000370: a85b 62bd 4710 d3bc da2b b6bd 1613 cc3c
00000380: ba94 b0be f8aa 04be 7d2e 34bc 8510 ffbd
00000390: 0e33 8e3d e5d4 383e 3143 523e d5c1 133e
000003a0: 30cf af3d f337 cebc c6b6 99bd dca7 853c
000003b0: 98b9 89be 1944 2bbe 153f e83d d090 0abd
000003c0: aa03 83bd 6268 c33d 1c31 d2bd 1e33 59ba
000003d0: 7768 4ebe 9d05 ddbd e02a 73be 1b2e b93d
000003e0: d5c1 90bd 0958 48bd cb4f 00bc 0337 5f3d
000003f0: 8ed3 923d 06c2 11bd c300 f63b 9304 933d
0.15841755 -0.15282486 0.42817956 0.04483542 -0.08225422 -0.021775793 0.3546526 0.053977907
0.011808392 0.116906896 0.048562754 -0.06147109 0.17202191 0.104156055 0.08989169 -0.1058778
0.08148951 -0.3273436 -0.153759 0.1834932 -0.11284827 0.12297101 0.26918057 0.016837567
-0.38599977 0.11579174 -0.14687714 -0.013233525 0.039131563 0.07320686 -0.04987165 -0.09674207
-0.2581641 0.0038265125 -0.17445895 0.09738759 -0.03119813 -0.088296816 0.003489056 0.34478784
0.07255009 -0.015217645 -0.021238865 -0.12110453 0.021250801 0.043428436 0.04768931 -0.04110351
-0.05367673 -0.070842266 0.059055574 -0.104292035 0.15634587 0.43461666 -0.1251324 0.24900481
0.09601124 -0.05877827 0.10834776 0.18423697 0.028139336 0.040907376 -0.19275577 -0.077803224
-0.016032001 0.055608492 -0.025586722 0.015092994 0.056438386 0.10079678 -0.030388828 0.1421566
0.12253885 -0.18980998 0.11051675 -0.30601722 0.030489497 -0.0449934 -0.020455917 -0.10699262
-0.14653519 0.05475032 0.015442806 -0.13439752 0.056073643 0.296792 -0.070040084 -0.20908315
-0.34453708 0.18481144 -0.2403534 0.14222904 0.17761257 0.15023482 0.016852979 0.047517054
-0.008341693 -0.0153871635 -0.053345755 -0.06285199 0.06352873 -0.08529924 -0.12244639 -0.06906771
-0.008055739 0.14247681 0.11282695 0.12736055 0.17787752 -0.036380544 0.025039379 -0.25558007
-0.10594336 -0.27311492 -0.06418939 0.06243043 0.060070463 -0.094408505 -0.12131501 0.02113461
0.011961046 0.07088748 -0.15149899 0.009502503 0.060349554 -0.21126553 0.19518436 0.03136932
0.18225421 0.012581127 0.1219679 -0.05714081 -0.09378372 -0.22134314 0.074035786 0.085939266
0.14674954 0.19826671 -0.014308811 0.081726134 -0.056415148 0.06846717 -0.17558879 -0.22357841
0.103201374 0.041908406 0.08865842 0.074237056 0.041984033 0.008072151 -0.09478802 -0.029122204
-0.048040763 -0.08231613 -0.018208735 0.1004062 0.031196028 0.030273605 0.2640353 -0.056217287
-0.27471602 -0.03350242 0.08091963 -0.034731224 -0.056036733 0.0383908 -0.14252405 0.03387184
-0.12301008 -0.10702924 -0.023978688 -0.07742021 -0.054603215 -0.09269203 0.20354754 0.03592811
0.04293407 0.17715341 0.07909761 -0.13969319 0.14118482 0.2336805 0.17774001 -0.01284689
0.26272443 -0.32335988 0.10301371 -0.26568368 -0.045016933 0.10376452 -0.03349913 0.048255082
-0.15329637 -0.08820986 0.049431268 0.24075516 -0.006529276 0.022954796 0.036736943 -0.09288467
0.010856615 -0.024595326 0.07134531 -0.05841714 -0.079954706 0.024560483 0.06075851 -0.07540962
-0.15401946 -0.23786105 0.2739154 -0.24817155 0.48142728 -0.008199505 0.110102735 0.08144861
0.06525158 -0.10075197 -0.16062093 -0.043769345 -0.05526319 -0.025764598 -0.08895083 0.024911445
-0.3448847 -0.12955844 -0.010997412 -0.12454323 0.06943332 0.18049963 0.20533444 0.1442941
0.0858444 -0.025173163 -0.075055644 0.016315393 -0.2689941 -0.16725196 0.11340157 -0.03382951
-0.06397183 0.09541394 -0.10263273 -0.000828551 -0.20157038 -0.10792086 -0.23746824 0.09041997
-0.070682205 -0.048912082 -0.007831524 0.054495823 0.07169257 -0.035585426 0.007507415 0.07178607

actor.0.bias f4 [512]
00000000: f6da 33bc f564 3e3d c48b 693a e6fe acbd
00000010: 38d6 9ebd 7972 60bd 177e 733d 3ac3 ae3d
00000020: 379c 043e e89d e23d 02bc 1cbe f825 d43d
00000030: 5955 9abd 7c1f a23d ec00 0ebb 25fa 81bc
00000040: 8aaf 7ebd 920d 793d 5f87 ac3d 30eb 6bbd
00000050: 04b9 c5bd bf76 ea3c 41e5 c9bd c246 e7bd
00000060: 26c8 bdbd a24a a9bd dcc9 ce3d f8bf 52bd
00000070: fc1d 333c 830c 9f3d ad66 ee3d 38fa 26bc
00000080: 8329 eebd 4446 063d 62ea e3bd 59b9 e8bd
00000090: df80 213e 6f9d 9fbd 5274 c43d efff 8a3d
000000a0: f5ce 90bd 0c22 053d da9c 2bbd 8e80 9bbc
000000b0: dbfa b93d ed9a 723b eba4 993d 9519 ebbd
000000c0: 74bd db3d ad84 e1bc 13ab c93d cafe edbc
000000d0: 1e5d 0ebd add5 85bd 2624 f7bd 09ca bdbc
000000e0: 9e91 62bc 48e8 19be e04e 853d cab7 193d
000000f0: 53d6 1d3e 1bc7 9dbd 9b05 d03c 3498 7d3d
00000100: 96ea b63d f691 ddbd 4efc 933d f87f b83d
00000110: 48ae e23d 983a 4b3c a9d5 18be ffd7 12bd
00000120: 0fd6 193d 4497 a5bd 6c84 a5bd 4770 b0bd
00000130: 21ec 9fbd 092e 963c 80d4 23bb f70d 713d
00000140: 0df3 9ebb 2520 30be 2336 8b3d 8410 c2bd
00000150: ade0 a63c c66d 3c3d 516f e03d 8acb 853d
00000160: 67eb 72bd f2b5 3fbd 4407 bf3d fda9 873b
00000170: c09b 2e3c 1f8d a63d 560e 4d3d 3c7b 863d
00000180: 2bcf 993d f7a2 41bb d4ca aabd 713d b23d
00000190: 3aa4 143c 232a 1dbb 6415 95bd cee7 013d
000001a0: b627 0cbe f689 b33c e74b 0bbe 988d 503c
000001b0: 50e8 a0bd 6891 8dbd 5b41 ba3d af0d 283e
000001c0: bdfd 623c 6277 8d3d 2068 b93c eba1 873d
000001d0: 9b8c a8bd 57f4 cebc 0d57 783d cd65 b13d
000001e0: b20f 0d3d b1f5 1e3c 279d c1bd 313a a63d
000001f0: 2630 dabd 16ca 9ebd e10f 88bc 26fa 50bc
00000200: 1ded a03d 0973 493d 216d c3bd d196 0bbd
00000210: ca0a 013e 55d4 d13d 3ddf 683d d385 dd3d
00000220: a359 09bd 10a9 d5bd b673 1cbd 51fe cabd
00000230: c4e4 b83d bed5 163e 06a6 2bbe 67cf a33b
00000240: d033 96bd 69cc 65bd 9d81 e4bd aecf 583d
00000250: 3149 a83d e640 5ebb d6a3 503d 39da ccba
00000260: 3270 ecbd 3752 2a3b d606 b13d 398c 0c3e
00000270: e854 9b3d 680c 9e3c 9407 8dbc 21ad 30be
00000280: b0ab 613d cdd6 6abd 7ce8 6bbd c1a3 a4bd
00000290: 49e3 f93d bcbc 243d f3d2 693c f3b8 00bd
000002a0: b0bc 45bc 4364 bdbd 2b0f 6e3d 31aa 763b
000002b0: dc9d 283d e486 333d 6cb0 86bc d86f 563d
000002c0: 423f c6bd 0927 7cbd 3c48 c53c e08b fc3d
000002d0: 7821 00be 5620 bf3d 9b5e 8c3c e458 1dbe
000002e0: c1a6 e03c a8c5 fcbc 5093 f6bd ab21 57bd
000002f0: 8e53 eebd 7f4b 903d 6647 52bc 2eba 17be
00000300: a85d f33d aaa3 81bd dbc9 a23d de3a 833d
00000310: 0f38 033e c301 a33d cb17 de3d f7d6 8cbc
00000320: 0505 7cbd 1503 71bd 9559 c4bd 9a21 363d
00000330: 9dc0 803d 3b44 983a 1b9a d33d 1868 be3c
00000340: 72e0 07bb 9da4 bbbd 989b 85bd 418f 6cbc
00000350: 04fd a63c f9c1 f7bc b76a 06be 1926 5ebd
00000360: bb72 55bd fa7b 973c e7cb 37bc ac22 cabc
00000370: e63f b13c 3af6 c33d 2663 55bd 790b 373c
00000380: 8810 e43d a27c d6bc 6bd2 bcbd 4007 08be
00000390: 1442 7dbd 2e8a 01be dadf 523d f666 253e
000003a0: db62 043e e918 64bd 8800 18bc 74ff 153d
000003b0: 3619 56bc 54ae 8e3d a9d6 b6bd aec0 b1bc
000003c0: 09b7 313d 676f 7abd bece 453d 5eaa a5bd
000003d0: 8fce e73c 8a5a 033a b6fd 233d 6636 f73c
000003e0: f6e0 053e 969c a53a 0d32 9abc 2ea0 14bd
000003f0: eeee 013e b66e 79bd fe9a 9b3d 162a 94bd
-0.010977497 0.046483 0.00089090713 -0.084470555 -0.07755703 -0.05479667 0.05944642 0.0853333
0.12950216 0.110652745 -0.15306094 0.103588045 -0.0753581 0.079161614 -0.002166803 -0.015866349
-0.062179126 0.060803957 0.084242575 -0.05759734 -0.096544296 0.028621076 -0.0985818 -0.11292793
-0.09266691 -0.08266188 0.10097095 -0.051452607 0.010932442 0.07766058 0.116406776 -0.010191493
-0.116290115 0.032781854 -0.11128689 -0.11363477 0.15771817 -0.077937 0.09592499 0.06787097
-0.07070724 0.032503173 -0.041897632 -0.018982198 0.0908105 0.0037018612 0.07502159 -0.11479489
0.10729495 -0.027529085 0.09847083 -0.029052157 -0.034756772 -0.06534896 -0.12067442 -0.023167627
-0.013828663 -0.15030015 0.06509185 0.03752879 0.1541379 -0.07703992 0.025393298 0.06191273
0.089314625 -0.108188555 0.07225858 0.09008783 0.11068398 0.012404107 -0.14925255 -0.03585052
0.037557658 -0.08085492 -0.08081898 -0.08615165 -0.0780871 0.018332498 -0.0024998486 0.05885121
-0.0048507513 -0.17199762 0.06797435 -0.09475806 0.020370806 0.046003126 0.10958732 0.065329626
-0.05930653 -0.046804376 0.09327558 0.004140137 0.010657251 0.081323855 0.0500625 0.06566474
0.07510217 -0.0029546598 -0.08339468 0.08703125 0.009072358 -0.0023981414 -0.072794706 0.031715207
-0.13687024 0.02191637 -0.13603173 0.012729071 -0.0785681 -0.069125 0.09094497 0.1641147
0.013854441 0.06907536 0.022632658 0.0662268 -0.08229943 -0.025262995 0.060629893 0.08661995
0.034438796 0.009702132 -0.094538026 0.08116568 -0.10653715 -0.077533886 -0.016609134 -0.012754953
0.07857726 0.04918197 -0.09542299 -0.034079377 0.12601772 0.10245577 0.05685352 0.108165406
-0.03353275 -0.10432637 -0.038196288 -0.09911788 0.090280086 0.14729974 -0.16762552 0.0049990895
-0.07334101 -0.056103144 -0.11157534 0.052932434 0.08217085 -0.0033913194 0.050937496 -0.0015629
-0.11544837 0.0025988945 0.08643882 0.13725366 0.07584554 0.019293025 -0.017215528 -0.17253543
0.055095375 -0.057333756 -0.05759476 -0.08039046 0.12201554 0.040219054 0.014271486 -0.03142638
-0.012068912 -0.09247639 0.058119934 0.0037638063 0.04116617 0.043829814 -0.016441546 0.052352756
-0.09680034 -0.061560664 0.024082296 0.123313665 -0.12512767 0.093323395 0.017134955 -0.1536594
0.027423264 -0.030855969 -0.120398164 -0.052522343 -0.116370305 0.0704565 -0.0128344055 -0.14817116
0.11883098 -0.063300446 0.07948657 0.064077124 0.12814353 0.079593204 0.10844382 -0.017192347
-0.061528224 -0.05884083 -0.09587399 0.04446564 0.06286738 0.0011617014 0.10332128 0.023242995
-0.0020733145 -0.09162257 -0.06523818 -0.014438451 0.02038432 -0.03024386 -0.13126646 -0.05423555
-0.05211137 0.018491734 -0.011218048 -0.024674736 0.021636914 0.09568448 -0.05209651 0.011172169
0.111359656 -0.026182476 -0.092198215 -0.13284016 -0.061830595 -0.12650368 0.051483013 0.16152558
0.12928335 -0.05568782 -0.00927747 0.036620572 -0.013067534 0.06966844 -0.08927662 -0.021698322
0.043387447 -0.061141398 0.048292868 -0.080891356 0.028296737 0.0005010745 0.04003688 0.030177306
0.13074097 0.0012635167 -0.018822694 -0.03628557 0.126888 -0.060896598 0.07597922 -0.0723459

actor.2.weight f4 [256, 512]
00000000: e07e 813d f189 423c 9899 2c3d 2c7e ed3b
00000010: 714c 803d d9d0 12bd 8684 0bbd 5f6e 04bc
00000020: 1aaa 4c3d f49c 61bc bae9 ea3d 5417 afbd
00000030: 604e d93c 1941 2b3d 23ee 36bd f853 e8bb
00000040: cd84 dcbc d914 05bc 9987 16bd 8fbb 7fbc
00000050: b7dc 1dbd 8782 13bd 06d4 103d 20ea 993b
00000060: 7a0a a53b 1986 ecbc 0aef 833c 5322 3c3b
00000070: a0e9 e5bc 6df8 80bb f260 833d 94de 06bd
00000080: a094 87bd eb48 ccbd 18dd 583c 973f 3e3d
00000090: c68e 35bd f0c8 8d3b be54 333c a06c f23c
000000a0: 1935 8f3d 40d9 2e3d bfe6 82bc 09d5 b2bd
000000b0: b400 b8bc c92b 11bd 1466 febc 015a 323d
000000c0: 17b5 093d 2cec 983d f859 f83c 7ea7 b8bc
000000d0: dbff d13c 5849 f2bc 6b3d 083d dabe 0e3d
000000e0: 19df 1dba df1b acbc 948d ccbc fa0b 91ba
000000f0: 8a35 b53c 43f9 1bbd 60cf 04bd 699a 43bd
00000100: c6a7 34bd 3854 543c 0c91 f4bc e646 37bd
00000110: fcd4 9f3b 85b5 2ebd 42ac 593d ceba 2d3c
00000120: 3f47 413c f445 1d3c 3768 7f3d fb2a 133d
00000130: 0bbb 263c 628f a53d 689a 85bd 24c5 58bd
00000140: 7226 b2bd 524c 503c c798 383d efc6 05bd
00000150: 6267 903d a062 82bc 5670 24bc 1911 ae3c
00000160: 8188 a2bd 1bed 3abd 5ce9 3b3d 0f68 093d
00000170: e1f0 f03b edbd 09bb 6883 493d e732 99bb
00000180: 3f97 673d 064f 87bd b77a 38bd 2b5e 813c
00000190: 59f0 05bd d5ef 0cbd 9e4e 76bb e1ed 8abb
000001a0: 4c4d 33ba af62 5d3d fa4d bf3b 87de 80bc
000001b0: 82e7 ec3c 9f16 6a3c 3b3d 81bc c260 213d
000001c0: 8aca 1dbc e626 1ebc 505e 423c 78df a2bd
000001d0: 94e8 2ebd 7b67 b93d 340f fabc fa4c 843c
000001e0: 22b6 35bc 50f9 43bd ebb6 1f3d f09d 6a3d
000001f0: bd4b 0f39 45e4 833d 3280 693d 90e6 e63c
00000200: 834c 14bd 5159 9e3c 5e2f 5b3d ec52 d53c
00000210: ee04 883d b368 9cbb 8166 153d f81a 83bc
00000220: 6fd2 7c3c 6973 23ba 0d30 203d dd07 483c
00000230: 88e8 36bd bbc9 963c 51b8 b83b 1b28 713c
00000240: 8e59 883c c1fe 5abc a70c 943c e076 54bd
00000250: 94d2 663c 15a1 a73d 6686 34bd ce58 3a3d
00000260: 5442 64bc 552a aabd e36c ca3c eac4 aabd
00000270: 1d41 693b 76f5 74ba d7b8 1a3d efb6 093d
00000280: 86d9 bb3b 97c3 f83c e0d5 01bc 3431 0dbd
00000290: 15e6 ab3d 54b3 5c3d 8e0f 8c3c c10a 813d
000002a0: ca6e 693c 034d 9b3d 8db6 d3bc 8f8c 9fbd
000002b0: fe9d d83c 35ef a53c 9a2a 0f3d c2e3 86bc
000002c0: 4925 f83c b54e e73c 0857 543d bde1 90bc
000002d0: e282 633c 5155 733d 136a aabc a567 533d
000002e0: 25b1 3e3c e65f ecbc 02b1 3e3c c888 a43c
000002f0: 516a 5fbd c708 443c 88bd 0a3d 9478 363d
00000300: 8168 fd3c 5327 cc3a c469 633c 2d5b 813d
00000310: 775c 52bd 2689 003d b6a3 23bc 1840 66bc
00000320: b381 563d be0f 243d 267a 3abc 665f 1bbc
00000330: 7763 8abc 4a20 863d f2a9 283c b482 f8bb
00000340: 32ff 3ebc 954e e6bc 5cf1 c9bb 6c4a 1ebd
00000350: eef3 a2bb 1f7d 983b d762 743d 6a9d 1fbc
00000360: dc41 d23c f8c0 5f3d 7873 51bd 2421 7c3d
00000370: e765 e3bc c8f3 1dbd b33a 423d 594d e93c
00000380: 28cd 63bd 921e 78bc fd81 673d cde9 a73c
00000390: e604 0cbd 4165 e53c 98c2 823d 30f8 783d
000003a0: 55ab 1cbd 2c51 b8bc a7e9 6fbc 0b1a c63c
000003b0: b72d 83bc caaf b7bb 35ac 203d 7f0e bf3c
000003c0: f9fb b93c 122e 143d 3c80 80bc c31c c83c
000003d0: 2928 e6bc 9875 463d be3b 7e3d d47f 33bd
000003e0: 2001 9b3d a82e aabc 955d c7bb a40c bc3d
000003f0: b601 1bbd e6ea 8c3d 9520 19bd 97ad f43c
0.063230276 0.011873708 0.042138666 0.007247707 0.0626458 -0.035843704 -0.03406193 -0.008082955
0.04996691 -0.013770331 0.11470361 -0.08549371 0.02652663 0.04181013 -0.0446607 -0.007090088
-0.026918793 -0.008122646 -0.03675041 -0.015608682 -0.03854057 -0.036013152 0.03535845 0.0046970993
0.0050366493 -0.028872536 0.016105194 0.0028706982 -0.028065503 -0.0039358647 0.06414975 -0.03292711
-0.06620145 -0.099748455 0.013236307 0.046447363 -0.044325612 0.004326932 0.010945497 0.029592812
0.069925494 0.042687654 -0.015979169 -0.087320395 -0.022461273 -0.035442147 -0.031054534 0.043542866
0.033619966 0.07466921 0.030316338 -0.022540804 0.025634697 -0.029575989 0.033261698 0.03484998
-0.0006022319 -0.021009384 -0.024969853 -0.0011066191 0.022120256 -0.03807951 -0.03242433 -0.04775468
-0.044105314 0.012959532 -0.02985432 -0.04474535 0.0048776846 -0.04265358 0.053142793 0.01060362
0.011796772 0.009599198 0.062355246 0.03592966 0.01017643 0.08083989 -0.06523591 -0.052922383
-0.08698739 0.012713509 0.045067575 -0.03266042 0.07050969 -0.015916169 -0.010036549 0.021248387
-0.07936192 -0.045636278 0.045876846 0.033546504 0.0073529338 -0.0021017746 0.049197584 -0.0046752575
0.056540724 -0.066068694 -0.045038905 0.015791973 -0.032699917 -0.03440841 -0.003758348 -0.004239783
-0.0006839826 0.05404919 0.005838153 -0.01573111 0.028918985 0.01428762 -0.015776267 0.039398916
-0.009630809 -0.009652829 0.011863306 -0.079527795 -0.042702273 0.090529405 -0.030524828 0.016149987
-0.011090787 -0.047845185 0.038992804 0.057279527 0.00013665757 0.06440023 0.057007022 0.028186113
-0.03620578 0.019329699 0.05351197 0.026040517 0.06641565 -0.0047732233 0.03647471 -0.01600407
0.015431031 -0.0006235154 0.039108325 0.012208906 -0.044655353 0.01840674 0.0056372066 0.014719035
0.016644266 -0.013366402 0.01807244 -0.05187118 0.014088292 0.08185021 -0.044073485 0.045494847
-0.0139318295 -0.083088554 0.024710124 -0.083383396 0.003559179 -0.0009344438 0.037773933 0.033621725
0.005732718 0.030366702 -0.007924527 -0.034470752 0.08393494 0.053881958 0.01709726 0.06300879
0.014247606 0.07583048 -0.025843883 -0.07790481 0.026442524 0.020255664 0.034952737 -0.016466025
0.030291216 0.028235773 0.051840812 -0.017685765 0.013886185 0.059407536 -0.020802533 0.051612515
0.011638914 -0.028854322 0.011638882 0.020084754 -0.05454475 0.011964983 0.033872157 0.044548586
0.03093362 0.0015575684 0.013880197 0.063162185 -0.051357713 0.031380795 -0.009987762 -0.014053367
0.052369785 0.040054075 -0.0113816615 -0.009483194 -0.016893132 0.065491274 0.010294424 -0.0075839404
-0.011657523 -0.028113643 -0.0061628055 -0.038645193 -0.0049729263 0.0046535875 0.059664574 -0.00974212
0.02566617 0.05462739 -0.05113551 0.061555043 -0.027758552 -0.038562566 0.04741926 0.028479265
-0.055615574 -0.015144007 0.05652045 0.020497227 -0.03418436 0.028002383 0.06384772 0.060783565
-0.038249332 -0.022499643 -0.014643109 0.02418234 -0.01601301 -0.0056056725 0.03922673 0.023322342
0.022703158 0.03617675 -0.015686147 0.024427777 -0.028095322 0.04845199 0.062068693 -0.04382308
0.07568574 -0.0207742 -0.006084154 0.091820985 -0.03784343 0.06880741 -0.03738459 0.02986793

actor.2.bias f4 [256]
00000000: 326e 3fbd 9740 22bd 9eb5 63bd 798a 3abd
00000010: 837f 82ba b939 373c dbb6 00bd f328 80bc
00000020: 6d47 8f3b f39f 35bd aa72 98bc b661 97bc
00000030: d04d 7fbc 676b d6bc d139 86bd 4527 3fbd
00000040: 16de 7bbd bf6e 93bc e908 9b3b 233e 63bd
00000050: 182b 3abd fe32 87bd 74b2 18bd c2a9 45bd
00000060: d0fe 65bd da1f 803b d6a3 29bd d3d9 32bd
00000070: 13d1 9d3c f442 41bc 7045 f4bc f573 55bd
00000080: e116 80bc 32a5 d9bc e184 13bd 109d 45bd
00000090: 54db 00bd 9edf c4bc 52d0 7b3c c097 bfbc
000000a0: 4c89 06bb 04cd 78bd 9311 a5bd 5b00 b2bc
000000b0: d443 5c3d dd3e 57bd ba23 58bd 250a 85bd
000000c0: 8720 b6ba 9695 7cbd 4970 23bd 2d50 83bc
000000d0: f7bb ffbc ef71 41bd ab74 59bd 6511 6dbb
000000e0: e052 13ba cbc4 52bd 7431 10bc 2321 37bd
000000f0: 42d3 d2bb a79e 1dbc 9fc5 69bd 26bb 4dbd
00000100: b48f a03b 7566 9cbd cce7 13bd 97d8 0b3d
00000110: 4195 85bd af85 fdbc 05e3 fd3c aed6 d3bc
00000120: 1b3d efbc 110a babd 9c7d 06bd b0b0 a3bc
00000130: 19ed 87bd 02de 733d 7f22 d8bc 6031 473b
00000140: 42c5 3dbd 473c 993c d919 7a3b 1198 b9bc
00000150: 1e18 37bb aba6 9cbc b7a4 f3bc c373 6bbd
00000160: 02c0 86bc 66c1 2f3b 2a85 9fbc 02b3 20bb
00000170: f425 89bd acdd 1fbc 7814 72bd 5f43 153a
00000180: 5b51 0cbc b504 a3bd 8640 cebc a5b7 29bd
00000190: 6003 7cbd 67cd babd adef 1abd 5008 1a3d
000001a0: 085b 6fbd 27d4 0bbd 7ccd b6bd 3e64 d6bc
000001b0: 506b 2d3b 56f9 613c 28d9 15bd 9f5e 55bd
000001c0: ece9 41bd 9df9 07bd 750b 5abd 33bb 67bd
000001d0: c56d 31bd 0c36 96bc 5d0c fbbb 27eb 883b
000001e0: 47fc 7fbd 2be3 19bd 7800 abbd bca0 073c
000001f0: db2d 0abd 89fa a5bd 75cc 2dbd db8e 8a3c
00000200: f9b6 e33c 39d5 24bc 2a60 32bd 322d 1cbd
00000210: 91c7 9cbc 93e8 a4bd f3d6 9bbd 5b60 61bc
00000220: 8da5 5dbd 75f1 dc39 edf5 50bd 1734 8d3c
00000230: a70e 4fbd 55fe 65bd c9c0 76bd 2d33 febc
00000240: 3267 d03c 230a 2abd 35ae 2cbd dc04 da3b
00000250: fbbd 4ebd f914 e3bc b658 d5bc 0ab6 69bc
00000260: 75a9 d9bc 425e e1bc cb57 08b9 ddab 0f3d
00000270: 9ab1 8abc 0150 96bc b410 103b eca5 debc
00000280: fd51 1dbd 3d8e 7cbb 7986 c0bc 163f 62bd
00000290: 5965 143c 6232 66bb c115 713c 1d52 593c
000002a0: 4a72 3bbd bff0 6ebd 863d 74bd ff0c e43c
000002b0: c2b5 7cbd 0e49 c3bc 2ffd fabc ce10 6cbc
000002c0: 11bb 02bd 1fa9 82bd 49c9 88bd 3895 00bd
000002d0: b14e 79bd 93e4 80bd 4996 e1bc c89c 1cba
000002e0: 4168 5bbd 5c1d 7fbd c346 82bd 8d3b 013b
000002f0: 5ca6 00bd ebce d0bc 83da 70bd 65dd 77bc
00000300: acf6 62bc 81c6 e1bc c220 90bc 06dc f6bc
00000310: f745 60bc 1ad6 8fbd accb 26bd a457 c03c
00000320: a5e1 cf3c fecb 133d d38a 2dbd 851f f3bc
00000330: cd5f f4bc fbfb 8ebc 4c94 24bd 934b 2cbc
00000340: 00e2 703c 8ffa 8c3b e6e4 0d3b 94f9 23bd
00000350: a073 8fbc 4fe8 27bc 825a b7bb 0fb0 82bd
00000360: c4d8 3c3c 6af8 8c3c e1d4 10bd 0648 0bbc
00000370: 8f4b 76bd d81d e43c c92a c83b de84 8f3b
00000380: 2933 fdbc 4778 65bc df7b 00bd 4440 963c
00000390: 005f 88bd 3851 e3bb 6ce9 61bd 81ca ac3c
000003a0: b4c1 a53b 20ef d7ba bb9a 31bc 2728 2cbc
000003b0: c4e1 f7bb 501b 5dbd 24a9 043b c8f3 b7bc
000003c0: f4ed 8abd 73f6 103c a866 8c3c c687 cdbb
000003d0: fbe2 9bbd 8680 95bd b999 1bbd b99b 1fbd
000003e0: 2d4f 0d3c 96ee 02bd 5de5 c0bc 7a2d 63bc
000003f0: d7d3 a83c 7c8e 86bc 40c1 9dbb 0153 35bc
-0.04673595 -0.03961238 -0.055593126 -0.045542214 -0.0009956214 0.011183196 -0.031424385 -0.015644526
0.0043725283 -0.044341993 -0.018609364 -0.01847921 -0.015582517 -0.02617426 -0.06553996 -0.04666831
-0.061491095 -0.017997144 0.004731287 -0.05547918 -0.045451254 -0.06601523 -0.03727956 -0.048257597
-0.05615121 0.003910047 -0.04141601 -0.043664765 0.019264733 -0.011795748 -0.029818267 -0.05211254
-0.01563591 -0.02656803 -0.036015395 -0.04824549 -0.031459168 -0.02403241 0.015369492 -0.02338779
-0.0020528613 -0.060742393 -0.08059993 -0.021728685 0.053775623 -0.052550185 -0.052768447 -0.064960755
-0.0013895192 -0.061666094 -0.039902005 -0.016029442 -0.031217558 -0.047227796 -0.05308978 -0.0036173698
-0.00056199543 -0.051457208 -0.008800853 -0.044709336 -0.0064338753 -0.009620345 -0.05707323 -0.050227307
0.0048999432 -0.0763673 -0.03610973 0.034142103 -0.065226085 -0.030947534 0.03099204 -0.025859203
-0.029203942 -0.09083951 -0.032834634 -0.019981712 -0.0663702 0.059537895 -0.026383637 0.003039442
-0.046330698 0.0187055 0.003816238 -0.022655519 -0.002793796 -0.019122442 -0.029741628 -0.057483446
-0.016448978 0.0026818155 -0.019472677 -0.002452076 -0.06696692 -0.009757441 -0.05910155 0.0005693938
-0.0085643185 -0.07959882 -0.025177252 -0.041434903 -0.061526656 -0.09121209 -0.03782623 0.037605584
-0.058436424 -0.03413787 -0.08925912 -0.026170846 0.0026461668 0.0137923565 -0.03658405 -0.05209219
-0.047342226 -0.033197034 -0.053233583 -0.05657501 -0.043317575 -0.018336318 -0.007661386 0.004178423
-0.06249645 -0.03757016 -0.08349699 0.008278068 -0.033735137 -0.081044264 -0.042431314 0.016913822
0.02779721 -0.010060602 -0.04354874 -0.03812904 -0.01913813 -0.080521725 -0.07609358 -0.013755883
-0.05411296 0.0004214157 -0.051015783 0.017236752 -0.050551083 -0.056150753 -0.060242448 -0.031030262
0.025439832 -0.041513573 -0.042158324 0.0066534113 -0.05047415 -0.027719961 -0.026043277 -0.014264593
-0.026570061 -0.027510766 -0.00013002676 0.03507601 -0.01693039 -0.018348696 0.0021982612 -0.027178727
-0.03840827 -0.003853693 -0.023501622 -0.055235945 0.009057366 -0.0035125245 0.014714659 0.013264206
-0.04576329 -0.058335062 -0.059628986 0.027838228 -0.061696775 -0.023838546 -0.030638305 -0.014408303
-0.03191668 -0.063799135 -0.06679017 -0.031392306 -0.06086606 -0.06293597 -0.027537482 -0.000597429
-0.05356622 -0.06228386 -0.06361153 0.0019719333 -0.031408653 -0.025489291 -0.05880214 -0.015128468
-0.0138527565 -0.027560474 -0.017593745 -0.030134212 -0.013688556 -0.070232585 -0.04072158 0.02347929
0.02537615 0.036083214 -0.04236872 -0.029678116 -0.029830838 -0.017454138 -0.04018049 -0.010516065
0.01470232 0.00430233 0.0021651327 -0.040032938 -0.017511189 -0.010248258 -0.005595506 -0.06381237
0.01152629 0.017208297 -0.035359267 -0.008501058 -0.060130652 0.027846262 0.006108616 0.0043798527
-0.030908184 -0.014005727 -0.031368133 0.018341191 -0.06658745 -0.0069371723 -0.05515425 0.021092655
0.0050584916 -0.0016474463 -0.010840113 -0.01050762 -0.007564755 -0.053981125 0.0020242417 -0.022455111
-0.06783667 0.008847821 0.017138794 -0.006272289 -0.076116525 -0.072999045 -0.0379884 -0.038966868
0.008624834 -0.031965815 -0.023546869 -0.013865823 0.020608826 -0.016425364 -0.004814297 -0.011067153

actor.4.weight f4 [128, 256]
00000000: 7faf 9dbb 258f bd3c 6a29 bf3d 94bc 403d
00000010: 6095 023c 29a4 9c3c 92ca 2fbd db48 d23c
00000020: 079b b53d c400 36bb c368 ebbc 0e45 8c3d
00000030: 52df 20ba ff14 b53b 265f c53c aa8f b53c
00000040: 9725 1ebc c92c b7bc c883 48bd a04b 913d
00000050: ff4f 86bd 2c35 89bd 0ea0 36bd 315d 2f3c
00000060: e0b6 f7bc 39e6 4b3d 2272 8bbd 427e 98bb
00000070: e880 df3d 69a1 873d cb0f d53d 9d0f 3f3d
00000080: a3ee 3b3d 4e91 47bd 9c7b a03c 67ff a93d
00000090: 245f 9f3d fc1d c83d aab7 9bbd a6f1 f5bd
000000a0: c4be a43c 60cf 813c ac07 203d bf7d 8abc
000000b0: adef aebc 6f22 393c ea08 30bd 41d4 89bb
000000c0: 5b88 a83d 2053 d0bc 4e28 c33c 61c5 033e
000000d0: 4050 84bd 7501 73bd 886f cc3d 5072 c23c
000000e0: f9af e83c 5048 913c 6740 0fbd 3e7a cc3a
000000f0: ce26 dabc 1053 a7bc 896d 8c3d 692b e93c
00000100: 4b4c 7cbd 3b84 92bd 54d5 91bb ecaf da3d
00000110: ac9e 09bd 93d6 423d 2450 74bd 4c56 8c3d
00000120: 22bb ccbd c722 393d 53a0 fa3d 0a4b 04bd
00000130: 60a1 a8bc 3b12 5cbd 4486 0cbe c251 6abd
00000140: e263 923d b236 5d3d 8ef7 54bc ef05 393d
00000150: bb12 4a3c bc99 01bc 2555 66bd aae5 6bbd
00000160: a1c9 823d afc8 de3c 652e 543d 4723 1a3c
00000170: 8bfb a1bb 4282 27bd e7ef d6bb c470 ecbc
00000180: c2fb 753d 1d93 1b3d eaf6 5bbc 9120 b2bd
00000190: c8d2 27bc 8710 a03b 0fd4 edbc 4eaa cebc
000001a0: 6888 08bd dff2 7dbd 5d3d d2bc ac4f 893d
000001b0: 64ad 8d3d 3547 e0bb ed04 edbc c8cd f03b
000001c0: 9fdf 96bd ad11 1cbd e75e ec3c 61e2 5ebb
000001d0: a8e5 9a3d 57fd 8b3c 18ac 7bbc 01aa babc
000001e0: ac7a 3d3d e834 cbbb 616d 703d 6246 b03d
000001f0: 9ca9 e63d 89f4 233c 0410 40bc 8241 6d3d
00000200: f3e2 38bd 4cb0 193e b386 cd3c 5c94 38bd
00000210: 61ad 093d 4145 b33c 53d8 a03b 4646 8abd
00000220: 1da3 c9bc 31c1 cdbd 01b4 a13c 5d69 1f3c
00000230: 384b bd3d e9a4 8bbd 08d1 e9bc d3f0 57bc
00000240: 6d41 b3bd 17e7 f33c 4cbd 723d 7fa1 6cbc
00000250: 7515 223d 8e96 033c 0988 ec3c bc1a 823b
00000260: efaa 7fbb 45ad 0d3c d9c3 ab3c cd43 e1bb
00000270: e351 39bc 4463 ec3b 3485 05bd a290 253d
00000280: 48f3 a1bd 18fc ebbc 4fd2 97bd 5070 45bd
00000290: 8d6b f93c 775f ea3c 9273 6d3d 6195 9f3c
000002a0: 680a 963d ec95 de3c 8284 8c3c 653e 3bbd
000002b0: 5b59 01bd 8aab 89bc 3447 e4bc bed7 44bd
000002c0: c733 463c e82d b8bd 824d abbd 0b38 00bd
000002d0: ad52 4f3d c22f 303c 64db 6cbd 76ae f1bc
000002e0: 83f2 9dbd 24be 97bd c4df 4cbd 67dd 93bd
000002f0: ce69 5e3c 4c64 0a3b b708 833c 4ce2 be3d
00000300: 8e7d 80bd 390d ea3c ebfb 1a3d 34b6 8bbc
00000310: 8ee4 3d3d b809 553b 6343 87bd 1164 bc3d
00000320: 7267 82bd 2c9c 87bc 405e 823c 2ce8 89bd
00000330: f93c 233e b399 0ebd b487 cbbc 7de4 0d3d
00000340: 973e 00bd ebc0 60bd 6665 c6bd 2b27 a13c
00000350: e8d1 30bd 9d41 65bb cf01 1d3d 27d8 013d
00000360: 26c0 e33b aaeb a4bd a50e e23c a33a c23b
00000370: b33b 143e 1aef a839 96f8 d13d 8e56 263d
00000380: 4188 72bd 92a9 14bc 8ddc 453b d796 5f3d
00000390: 771a e23b 97b9 313c ee80 6cbd b4a2 843d
000003a0: a10c f73d d3b0 9c3c 8a7a febb df6e 3abd
000003b0: 3bfa 91bd 8b76 503d d0b8 b73c 659a babd
000003c0: e075 a13d ca2d 903d 612a b43d 6ba4 c83c
000003d0: a6c6 9e3d e4a5 b93d 93e6 e7b9 8b25 483d
000003e0: cfa7 8d3d e3d5 023e 928a d6bc fbc4 7b3c
000003f0: 3fc5 2c3d 3971 9ebc d55a ddbd 96dd 2dbd
-0.0048121805 0.023139546 0.09334071 0.047054842 0.007970184 0.019121246 -0.042917795 0.025669506
0.0886746 -0.0027771452 -0.028736478 0.06849109 -0.0006136793 0.0055261846 0.024093222 0.02216323
-0.009652517 -0.022360222 -0.0489538 0.070945024 -0.06558227 -0.06699595 -0.044586234 0.010703371
-0.030238569 0.049780104 -0.068088785 -0.004653723 0.10913259 0.066225834 0.10403403 0.04664575
0.04588188 -0.048722558 0.019590192 0.08300667 0.077818185 0.09771344 -0.076033905 -0.120089814
0.020110495 0.015845954 0.039069816 -0.016905664 -0.02135452 0.0112997135 -0.04297725 -0.004206211
0.08229133 -0.025430262 0.02382293 0.12868263 -0.06460619 -0.05932756 0.099822104 0.02373615
0.028404223 0.017734677 -0.03497353 0.0015600396 -0.026629832 -0.02042535 0.0685683 0.028463082
-0.061596196 -0.07154127 -0.0044504795 0.10678086 -0.033598587 0.047567915 -0.05964674 0.06852397
-0.0999663 0.045199182 0.12237611 -0.032298125 -0.020584762 -0.053728323 -0.13723093 -0.057206877
0.071479574 0.05400724 -0.012998475 0.045171674 0.012333567 -0.007910188 -0.056233544 -0.05759207
0.06386114 0.027195303 0.051802058 0.009407825 -0.0049433163 -0.040895708 -0.0065593603 -0.028862365
0.060054548 0.037982095 -0.013425568 -0.08697618 -0.010243125 0.0048847827 -0.029031781 -0.025227692
-0.033333212 -0.061999198 -0.025664026 0.06704649 0.06917837 -0.006844426 -0.028933013 0.00734875
-0.07366871 -0.038102794 0.028853847 -0.0034009444 0.07563335 0.017088575 -0.015360855 -0.022786142
0.046259567 -0.0062013753 0.05869806 0.086071745 0.11262819 0.010007032 -0.011722568 0.0579238
-0.04513831 0.15008658 0.025088644 -0.04506336 0.033612613 0.021883609 0.0049086004 -0.06751685
-0.024613911 -0.10046614 0.019739153 0.00972971 0.092428625 -0.068185635 -0.028542057 -0.013179976
-0.08752713 0.029773278 0.05926256 -0.014442801 0.039571244 0.0080315005 0.02887346 0.003970472
-0.0039011796 0.008647268 0.02096741 -0.0068745376 -0.011311027 0.007213982 -0.032597736 0.040421136
-0.0790773 -0.028806731 -0.0741316 -0.048202813 0.030446792 0.028609974 0.057971545 0.01948041
0.073262036 0.027171098 0.017153028 -0.0457138 -0.031579357 -0.016805429 -0.027865984 -0.04805731
0.012097306 -0.08993131 -0.08364393 -0.031303447 0.050615955 0.010753574 -0.057826415 -0.029502135
-0.07712271 -0.07409313 -0.050018087 -0.072199635 0.0135750305 0.002111691 0.015995366 0.093205065
-0.06273948 0.028570758 0.037837904 -0.017054655 0.046360545 0.0032507014 -0.0660465 0.09198774
-0.06367387 -0.01655396 0.015914083 -0.067337364 0.15941228 -0.034814548 -0.024844982 0.03464173
-0.03130969 -0.05487148 -0.09687309 0.019671997 -0.043168932 -0.0034981736 0.038331803 0.03170028
0.006950396 -0.08052762 0.027594874 0.0059274 0.14475898 0.00032221602 0.10252492 0.04060989
-0.059211973 -0.009073632 0.0030191273 0.05458721 0.0069001275 0.010847471 -0.057740144 0.06476346
0.12062956 0.019127285 -0.0077660726 -0.04551589 -0.07127806 0.0508943 0.022426993 -0.0911148
0.07883811 0.070399836 0.08797146 0.024492463 0.07752733 0.09064844 -0.00044231545 0.04886393
0.069167726 0.12776904 -0.026189122 0.015366788 0.042180296 -0.019341098 -0.108083405 -0.04244765

actor.4.bias f4 [128]
00000000: e87e 923d 1f39 abbc 4117 86bd d81c 98bd
00000010: 9c87 683d 807d 87bd f46f 623c 26c0 1a3c
00000020: 2c9b 63bd ea2f cabc cb82 0e3c 87d8 dfbc
00000030: 4d24 7e3a 4d57 aebd 0ea5 ec3b dd25 bfbc
00000040: 3039 b0bc 8032 4cbd d5fc b1bd 496c 45bd
00000050: 9012 c5bd cb77 1fbe fdb0 233d 4958 a93c
00000060: 348d 0cbc 8f15 67bd 2b4e 61bd 2877 22be
00000070: 90ce e9bc 233f 163d bb71 3bbd 9903 95bd
00000080: 8a19 3abd 9f0b 0d3b 5289 f3bc e3f9 6dbd
00000090: 81e2 4fbd 3669 9fbd 47ab 65bd 9a0d 75bd
000000a0: 9869 f03c 2108 bebd d7a7 9abd 9569 eebc
000000b0: 7e9d 0dbd 9f58 bbbc 59f1 00be a1ed bc3c
000000c0: b0d5 233d 9832 f0bd 95ff 4bbd 871e a4bc
000000d0: 8ca8 5b3d 59f8 42bd 116b c43c f9bc 13bd
000000e0: 45c9 473c 8dcc 9f3d ce70 1c3d c960 b9bd
000000f0: fd3b bf3b 63d3 06bd b8b2 42bd 9b03 b8bc
00000100: d43c 9abd abed 1fbd ab11 4fbc e7cf 0c3b
00000110: b74c a83a dd40 00be b52f f1bc 93aa 5d3d
00000120: 3598 d9ba 8b97 7f3c b101 0abd 50cf 223d
00000130: 2f6a 43bc 1887 f9bc cbe6 8fbd 4a82 4f3d
00000140: 775a 20bd 07a9 3c3b c3ae 86bd b018 ff3c
00000150: f277 3ebd 5f41 463a 011f c5bd 6bdc a33d
00000160: 6c8d 94bd e8d3 60bd 3419 383d ca9a 61bc
00000170: db08 8ebd 1b00 f73c d8be b5bd 4c27 54bc
00000180: a301 b7bb f954 c13c 7a95 f9bd 458e 63bd
00000190: 76f6 5fbd 25e6 ce3c c44b 3cbc be24 f5bb
000001a0: d16e 7cbd 9f85 9fbd 8de7 a0bd 7ad6 99b8
000001b0: d4b7 56bd d4c3 e6bc ba4c 42bd 5452 933d
000001c0: 6648 8dbd 38de 72bd c19c 25bd 2252 873d
000001d0: 29ab 143d 791f 0b3d a42d 913c 5976 a4bd
000001e0: 2ded 92ba 4b8b 6bbd 076f 843c f0ad 55bd
000001f0: 72d3 e93c bf9b 323c 0c32 393d 8497 3cbd
0.07153112 -0.02090126 -0.06547404 -0.074273765 0.056769952 -0.06615734 0.013820637 0.009445226
-0.055567905 -0.02468105 0.008698176 -0.027324928 0.00096947403 -0.08512745 0.0072218245 -0.023333484
-0.021511644 -0.049852848 -0.08690802 -0.048198972 -0.09622681 -0.15573041 0.03996371 0.02067198
-0.008578587 -0.056417044 -0.055006187 -0.15865767 -0.02854088 0.036681306 -0.04576276 -0.07276077
-0.045434512 0.002152182 -0.029728565 -0.05809964 -0.05075312 -0.07783739 -0.056071546 -0.059827425
0.029347226 -0.09278894 -0.07551544 -0.02910308 -0.034574024 -0.022869406 -0.12592067 0.023062529
0.03999871 -0.117284 -0.04980429 -0.020034088 0.053627536 -0.047600124 0.023976834 -0.03606889
0.0121939825 0.07802687 0.038193516 -0.090516634 0.0058360086 -0.032916438 -0.04753372 -0.022462657
-0.07531133 -0.039045017 -0.01263849 0.0021486224 0.0012840246 -0.12524743 -0.029441694 0.05411775
-0.0016601147 0.0156000955 -0.03369302 0.03974849 -0.011927172 -0.030459926 -0.07026442 0.050661363
-0.039148774 0.0028787272 -0.06576302 0.031139702 -0.046501108 0.00075628416 -0.09625054 0.08001026
-0.072535366 -0.05488959 0.04494591 -0.013769815 -0.06935283 0.030151417 -0.08874291 -0.012948822
-0.005584912 0.023600088 -0.121867135 -0.0555556 -0.054678403 0.025256226 -0.011492673 -0.0074811867
-0.06162912 -0.07789158 -0.07856665 -7.335558e-05 -0.052421406 -0.02816955 -0.047436453 0.07193437
-0.068985745 -0.059293956 -0.040432695 0.066074625 0.036296044 0.03396556 0.017721958 -0.080303855
-0.00112096 -0.057505887 0.016166223 -0.052167833 0.028543208 0.010901391 0.045213744 -0.046042934

actor.6.weight f4 [12, 128]
00000000: 0f25 02bd 1733 94bb 9046 a43b f3fe 54bd
00000010: 7533 88bc 0f28 933c 8d75 a839 f813 3cbd
00000020: 2c21 133c 5edd 833c 3376 b13d 4217 93bb
00000030: 205e 09bc 8b80 0bbd b659 12bd ef13 8f3b
00000040: 2a70 873d 43ed 52bd 95ec 09bd ec89 cfbb
00000050: b869 9dbb f4b4 1abc c1b4 633d d762 993d
00000060: a56d cd3b 4810 38bb 4de4 203d 1c3f e63b
00000070: f07f 6fbd bfa7 0a3d d1b1 b0bd b1f9 5bbc
00000080: f40e 3bbb 99ef d53a 5f2e 4c3c 36f9 f43c
00000090: 836b d0bc 36b1 1c3d 5326 3bbc 4371 21bd
000000a0: ef7d 2fbb d556 d6bb 6e9f f03c 68f5 24bc
000000b0: 94cc b73c c1a8 b8bc 5b7a 4ebd 84cf c33d
000000c0: 40a6 b23d 8174 163d b898 133d 1428 83bc
000000d0: 5d8e 52bc dfc4 c2ba 9523 6f3d 7021 b1bb
000000e0: e4e7 af3a 5397 e33c 81ce 27ba 88bc eabc
000000f0: 2fb1 b2bd 9b85 ed3c 27c4 043d 1c46 abbd
00000100: da41 a13c 9496 73bc 7ddb 103c f25d a3bd
00000110: d279 ad3c 590b 07bc 55f9 edbc 94b0 ee3b
00000120: 7b68 1e3d 9bf3 4f3d 1e68 1c3d b0da d73c
00000130: 5d59 fdbc 5d16 0d3c f043 adbd 9e1a ddbc
00000140: 4faa dd3b 93a5 4ebd 078d 7f3d 52c9 0dbd
00000150: fb55 94bc 861b 573d 7902 b03d 2972 f4bc
00000160: 3215 993c e8cb fb3b 7ead 2a3d 861c 6c3d
00000170: d741 3c3d 9e64 453d c7e1 233d f397 b0bc
00000180: 8c1b 023d 5e7f 963c cfb6 753d c5b3 ce3b
00000190: cc2c 853c e2f0 583d dac7 98ba 5f80 033d
000001a0: 4839 3d3b 7f34 973b f254 14bd 2189 48bc
000001b0: 781b fd3b dbd5 3cbd 0a23 063d 7a62 0fbd
000001c0: 2ac0 bfbd dda8 96bd ec7d ed3c 53fd 5c3d
000001d0: 4df5 af3d 36f1 c2bc c9e7 0c3c 1505 f53c
000001e0: ec79 0f3d 2538 abbc e7ed 49bd 9334 f43b
000001f0: 3107 0abd 8807 223d a463 90bd 05b2 4ebb
00000200: 6b91 b13c b0b5 b4bc 712c b0bc cfcb b23c
00000210: ac31 33bd 1b3d e83c f049 243d 38fa 73bb
00000220: a5f5 c03c 939c 0b3c 881d 8f3d 4cd8 02bc
00000230: 9766 913d dd48 39bb 84a1 18bd aabd 5d3c
00000240: c7a2 733d 39e3 a93d 7fb6 013d 1337 09bd
00000250: 546f 263a ce74 48bc bd99 5c3c dc3b 5cbc
00000260: ae0a de3c 44e2 543c 5d37 583c 1a4a 4fbc
00000270: e0ae 77bd dfe3 60bd 67a5 84bc e172 5d39
00000280: d62d 83ba a5f0 a73c 4a05 183d fc1f 6bbd
00000290: c975 e83c 4ea1 2fbc 2fca 4a3d 0d86 81bd
000002a0: bbf7 313d a09a b8bc d148 2cba f7f2 3a3d
000002b0: 0cd4 74bc 4721 94bc 6ac5 2d3d f98c 7aba
000002c0: 0109 5abd de7e 203d 9136 b8bc 5767 80bd
000002d0: 6457 b2bd b5f1 0c3c bc07 de3c 08ff 5dbd
000002e0: 2471 09bd b319 843d 4f5d 3bbd a0fc 123d
000002f0: 0ce9 43bb 3dec 983d c6c1 48bd f422 e23c
00000300: 934a c5bc 0197 cabc f48f 9e3c 9902 a43c
00000310: d344 f7bb 0885 a13d 346d 70bc 65de c43c
00000320: 987f 6cbd fd18 58bd 9bdb 4abc 9e70 a8bd
00000330: 0620 663b 3643 a5bb 0907 ca3d 4c8d 43bd
00000340: bbb7 67bc 2dfd 373d 6b21 4b3d ca58 8fbd
00000350: dd86 62bd b5b5 d03c 535a 51bd 4a61 7fbc
00000360: e1f6 173d a95b 1f3d 01f1 ff3b 182d a13b
00000370: 45b1 83bd 1bcd 1c3d 9840 b1bc 6003 bf3b
00000380: 3b0f 573d 4982 e43c dc6e b43c 8cae 8d3b
00000390: 51bf 49bc 53a1 093d c694 253c efbc 343d
000003a0: 9965 1bbd 5456 023d 7aff f1bc d35e 8eb9
000003b0: 123b c4bc 2280 89bd 447a 68bd 4c78 49bd
000003c0: 2c2a f4bc 644a 1fbc 0102 a13d a4d0 033d
000003d0: 4d73 553d e9a2 be3c 801b 353b f30c 9fbd
000003e0: f024 a5bc 9b2d 2fbd 9ab5 383c 57dd 8e3d
000003f0: 1615 123d fd73 9f3d 6587 05bd cbd1 5bbd
-0.031773623 -0.004522692 0.0050132945 -0.05200095 -0.0166261 0.017963437 0.0003213104 -0.04591748
0.008980077 0.016096767 0.08665123 -0.0044888565 -0.008384258 -0.034058135 -0.035730086 0.00436639
0.066131905 -0.0514958 -0.033672888 -0.0063335802 -0.0048038624 -0.009442557 0.055592302 0.07489555
0.006269174 -0.0028085876 0.039280225 0.007026566 -0.05847162 0.03385138 -0.08627666 -0.01342623
-0.0028542848 0.0016322016 0.012462228 0.02990399 -0.02544189 0.03825494 -0.011422711 -0.039414655
-0.0026777943 -0.006541113 0.029372897 -0.010068275 0.022436418 -0.022541406 -0.050409656 0.09561065
0.08723116 0.0367322 0.036034316 -0.016010322 -0.012851325 -0.0014859698 0.058383543 -0.0054055974
0.0013420549 0.027782118 -0.0006401316 -0.028654352 -0.08725201 0.028994372 0.032413628 -0.08362982
0.01968472 -0.014867444 0.008841393 -0.07976903 0.021176253 -0.008242452 -0.029049555 0.0072842333
0.03867386 0.05076943 0.03818523 0.026349396 -0.0309264 0.008611289 -0.08460224 -0.026990231
0.006764687 -0.050450873 0.062390354 -0.034615822 -0.018107405 0.052516483 0.085942216 -0.029839592
0.018686865 0.0076842196 0.04166936 0.05764439 0.045961227 0.04819166 0.04001024 -0.02155683
0.031764552 0.01837128 0.059988793 0.0063080513 0.016256712 0.0529641 -0.001165624 0.032104846
0.0028873254 0.0046144123 -0.036213823 -0.012239725 0.007724222 -0.046102386 0.03274826 -0.035006024
-0.09362824 -0.07356427 0.028990708 0.053952526 0.08591709 -0.023796659 0.008600184 0.02990965
0.035028383 -0.020900795 -0.049299147 0.0074525564 -0.033698265 0.039557964 -0.07050255 -0.0031539213
0.021675786 -0.022059292 -0.021505566 0.0218257 -0.043748543 0.02834945 0.040109575 -0.0037228
0.023554632 0.008521217 0.069880545 -0.0079861395 0.070996456 -0.002827219 -0.03726341 0.013533989
0.05948141 0.082952924 0.031668182 -0.03349979 0.00063489866 -0.01223488 0.013464388 -0.013442006
0.027104702 0.012993399 0.013196793 -0.0126519445 -0.06046951 -0.054904815 -0.016192151 0.00021118998
-0.0010008167 0.02050049 0.03711442 -0.05740355 0.028376477 -0.01071961 0.049509224 -0.06324396
0.043449145 -0.022534668 -0.000657213 0.045641866 -0.014943134 -0.018082274 0.042424597 -0.000955775
-0.053231243 0.03918349 -0.022486957 -0.062697105 -0.08708075 0.008602549 0.027103297 -0.054198295
-0.033555165 0.06450214 -0.045743283 0.035885453 -0.0029893545 0.07466934 -0.04901292 0.027604558
-0.024083411 -0.024730207 0.019355752 0.02002077 -0.0075460463 0.07886702 -0.014674474 0.024031827
-0.05773887 -0.052758206 -0.01238146 -0.08224605 0.0035114302 -0.0050434126 0.09864623 -0.047742173
-0.014142926 0.04491918 0.049592417 -0.06999357 -0.055304397 0.02547727 -0.05111153 -0.01558716
0.037100676 0.038905773 0.0078107123 0.0049187057 -0.06430296 0.03828154 -0.021637246 0.0058292598
0.05250476 0.027894156 0.022025518 0.004323786 -0.01231368 0.033601116 0.010106271 0.044125494
-0.037938688 0.03182061 -0.029540766 -0.00027155 -0.023953948 -0.067138925 -0.056757227 -0.04918699
-0.029805265 -0.009722326 0.0786171 0.032181397 0.052111913 0.023271041 0.00276348 -0.07766142
-0.020159215 -0.042768102 0.011273766 0.06975811 0.03566464 0.07785795 -0.032599825 -0.05366687

actor.6.bias f4 [12]
00000000: a359 78bd 91af f23c f1b1 24bb e78c 84bd
00000010: ac33 233e 1164 76bd d1c3 a43c a399 97bd
00000020: 0576 2d3d 3d7c a1bd 13fb 063e c66f f5bd
-0.06063236 0.029624732 -0.0025130475 -0.064721875 0.1593768 -0.060154025 0.020112904 -0.07402351
0.04234888 -0.07885025 0.13181715 -0.1198421
