src/ga_quadruped/policy/param_debug.onnx (onnx, 772885 bytes, 8 tensors)

actor.0.weight f4 [512, 52]
00000000: 9be0 323d d29f 07bf 94b9 d63e 0f7e e2be
00000010: 0d52 e63d 04fc 853c 8456 393e 88c0 af3d
00000020: ab25 c53c d973 3cbc bfd0 a93d cd8c 8bbd
00000030: cb66 1c3e d3cf ad3d 4799 903d 76d6 d8bd
00000040: 5f1d 65bd 1bcd e9be e73f a9be 0b9b 8c3e
00000050: a94f c6be 6212 aa3e 0e8d 25bd c6d7 4f3e
00000060: 1b06 5ebd 48fc 973e 1042 08bf a371 48bc
00000070: db49 fb3d 6e60 bdbd 3df3 773e 95f0 cfbd
00000080: 2bd7 84be f95e 773e d0e8 edbc 11d0 85bd
00000090: d4e1 0c3e 1d27 cd3e 5bcd a1bd bf6d 87bd
000000a0: d573 083d f698 4f3d bae6 893d 2e20 8bbd
000000b0: d99a 81bd aace bd3d 7b97 63bd f913 bbbd
000000c0: b09e eabd 6746 5abd 1d58 d93c 6755 9abd
000000d0: c926 a03e c5c8 963c 2a10 e3bd 0424 a2bd
000000e0: 3659 69be 5c5a 6fbd 0f1a d4bb 3b0f 853e
000000f0: f501 4dbe fee0 98bd 45be dabd 9583 c2bd
00000100: 8312 71bc c32b 693d 6ece c6bc 9b48 773c
00000110: 4f3f 03be bd4e 303e 83c4 a5be 1594 963d
00000120: f50f 09bc c6f2 3a3d 516b 303e 7308 97bd
00000130: 3275 983e c610 1cbe 8d77 3b3e 5337 3bbe
00000140: ea3f e9bd bb9c 8e3e 7688 a0bd 8e4b 953d
00000150: 83e9 03be ced4 743e 37da 05be aaa0 84be
00000160: 8d7f 95be 50c4 ce3d 3aa8 61bd ca8f 64bd
00000170: cc93 103e 382c a83d a1be 0c3d 92ca 523d
00000180: 2f5e 2c3d fabb 363d ffdd 93bd c083 b8bd
00000190: ea6f 75bc 5f56 d5bd 05fc 9abd 40c9 c13c
000001a0: 6dd4 073e 7c3f 863e 0683 0b3f e72c 933e
000001b0: bea0 703e b47c 5abd 86ff 82bd 7e12 c7bd
000001c0: a038 68bd b791 40be cbba 0fbe 8395 8b3d
000001d0: bc8a 643d 3c1a cabd 8e9a 00be 7d22 ad3c
000001e0: a0f2 8bbc eb62 c1bd 803d 253c 86e0 51be
000001f0: 5160 443e b414 09be 0225 cd3e d13e 1e3e
00000200: c615 293e b6b4 b73d 8b60 183e c7fe a6be
00000210: 748e 303c 5d6c 86bd 9b87 61be 239f d13d
00000220: e4b7 26bd 7fc0 283e 5c45 b33e fee4 163e
00000230: 15c1 57bd 4730 163e a0e8 83bd 440d cb3d
00000240: 0a03 a5bc d011 f33c 99ba 013d 3f58 473c
00000250: 3380 983c 8116 e13b bbce 2bbd 5c28 02bd
00000260: 0c5c e93c a903 35bc 24be 9ebc 6a0a dc3d
00000270: 01ce b4bd 8f94 a7be 970d 183f 2806 c1be
00000280: 06ba 12be c695 19bd a858 2f3c 190f 3a3e
00000290: 4b2e 553c 9d86 52bd 73cb 1cbe 30b1 6e3d
000002a0: 6a9c f9bd dce1 d8bd 672e bbbc 7d8e 9ebd
000002b0: a164 a5be b76d 7bbd ff6f bb3e 128d 883e
000002c0: 4bd9 50bd f2f2 c13e 4d54 4fbd 7850 ecbd
000002d0: 609f 6e3e 0f19 343b 8c28 663c f02c e43d
000002e0: 9015 0f3f c28b 84be 4192 af3d cdb2 b0be
000002f0: a38d dcbc 37e9 e53c 2df0 1bbe a191 7b3e
00000300: 7ba7 1abe b68e 9fbd e60c b8bc cf74 ea3e
00000310: c668 273d bde9 6f3d 77d6 3abc f85a d0bd
00000320: 188f 8cbc 85a0 b0bd bfae e33b 57be 22bb
00000330: e3e1 343c 5df7 abbb e97c 4d3d a21a 06be
00000340: 6f14 4bbe b85d 0e3e 696f c8be f20b b6bc
00000350: 7c63 193f a70a 423a bc9d 833e 852b 213e
00000360: 8757 b2bd b07e 84be b515 a1be 73ab 87bd
00000370: ac27 c2bd 3bbe 85bd f992 03be 1613 cc3c
00000380: 9196 91be 32ec 903c 7a8b e03c 7a76 06be
00000390: b05c c23c 7920 3b3e d4f3 9c3e dc52 f53d
000003a0: 94bc 4bbe 7624 77be 8d8d d83c 0ca7 d4bb
000003b0: a801 64be e75c 8fbe 663d 993e 0340 d5bc
000003c0: 7be7 bb3e fb0d 3dbe cf4a c8bd 79a4 7b3c
000003d0: d77c f23c 7248 32be b452 04bd 668c 923d
000003e0: bb14 abbd 3dbd 68bd 0fd2 aa3d 253b dd3d
000003f0: 1922 613e c9a7 ccbd 4c93 333d de5f 3a3d
0.04367123 -0.5297824 0.4193846 -0.442368 0.11246119 0.016355522 0.1809941 0.08581644
0.024065813 -0.01150223 0.08291768 -0.06813965 0.15273587 0.08486905 0.07060485 -0.1058778
-0.055936214 -0.45664296 -0.33056566 0.27462038 -0.3873265 0.3321715 -0.040417723 0.20297155
-0.05420504 0.29684663 -0.53225803 -0.012234124 0.12269946 -0.09246908 0.24213882 -0.10153309
-0.2594541 0.24157323 -0.029041678 -0.06533826 0.13758022 0.40068904 -0.079004966 -0.06612729
0.03331359 0.050682984 0.06733461 -0.06793247 -0.06328363 0.09267934 -0.055564385 -0.09134669
-0.114560485 -0.053289797 0.026531273 -0.075358205 0.3127959 0.018406281 -0.110870674 -0.07917026
-0.22787938 -0.058435783 -0.006472833 0.25988182 -0.20020278 -0.07464789 -0.10680822 -0.094977535
-0.014713886 0.0569265 -0.024268355 0.015092994 -0.12817119 0.17217536 -0.3237649 0.07352463
-0.008365621 0.045641683 0.17228438 -0.073746584 0.29776913 -0.15240774 0.18307324 -0.18282823
-0.11389144 0.2785395 -0.07838528 0.072898015 -0.12882046 0.23909304 -0.13071524 -0.25903827
-0.29198876 0.100960374 -0.055092074 -0.05580119 0.1411888 0.08211559 0.034361485 0.051462717
0.042082008 0.044612862 -0.07220077 -0.09009504 -0.014980296 -0.104168646 -0.075676 0.023655534
0.13264628 0.2622031 0.544968 0.28745195 0.23498818 -0.053341582 -0.063963935 -0.09720324
-0.056694627 -0.18805586 -0.140361 0.068156265 0.05579637 -0.09868285 -0.12558958 0.02113461
-0.017083466 -0.09442695 0.0100854635 -0.20495805 0.19177367 -0.13386804 0.40067297 0.1545365
0.16512212 0.08970015 0.14880578 -0.32616255 0.010776151 -0.065636374 -0.22024386 0.10235431
-0.040702716 0.16479681 0.35013855 0.14735791 -0.05267437 0.14666854 -0.06440854 0.099146396
-0.02014305 0.02967158 0.031672094 0.012167036 0.018615818 0.0068691378 -0.0419452 -0.03177677
0.028486274 -0.011048236 -0.019377775 0.10744174 -0.088283546 -0.3273053 0.59395736 -0.3770001
-0.14328775 -0.03749635 0.01070229 0.18169822 0.013011525 -0.05139791 -0.15311985 0.058274448
-0.12188037 -0.10589954 -0.022849275 -0.07742021 -0.32303336 -0.06138393 0.36608884 0.26670128
-0.050988477 0.37880665 -0.050617505 -0.11538786 0.23302984 0.0027480756 0.014047753 0.11141384
0.55892277 -0.25887877 0.085728176 -0.34511414 -0.026923006 0.028065307 -0.15228339 0.24567272
-0.15102951 -0.07790892 -0.022467088 0.45792243 0.040871404 0.05857252 -0.0114036715 -0.10173601
-0.017158076 -0.08624367 0.0069483216 -0.002483269 0.011040184 -0.005247994 0.05016795 -0.13096097
-0.19832014 0.13902938 -0.391475 -0.022222493 0.59917426 0.00074021 0.2570628 0.15739258
-0.08708101 -0.25877905 -0.31461874 -0.06624498 -0.09480223 -0.06530424 -0.12849034 0.024911445
-0.28435186 0.017690752 0.027410258 -0.13131133 0.023725837 0.18274106 0.30654776 0.11978695
-0.19896156 -0.24135002 0.026434684 -0.00648964 -0.22266257 -0.28000566 0.29929656 -0.0260315
0.36700043 -0.18462364 -0.097798936 0.015359038 0.029600544 -0.17410448 -0.032305434 0.07155685
-0.083535634 -0.056821097 0.08340847 0.108022965 0.21985663 -0.0999294 0.043841645 0.045501582

actor.0.bias f4 [512]
00000000: 7918 f8bc 83db 433d c7c6 5ebb 9cc3 aabd
00000010: 62d9 efbd dcc5 5abd 84ab d13d ce20 753d
00000020: ef73 2c3e 4387 fa3d 7729 27be 8401 b13d
00000030: 564f 97bd a9be 5d3d 242a 02bd aea5 3cbc
00000040: fa91 a6bd 572d 253d 0944 c93d 3de9 f3bc
00000050: cc73 01be 4693 cf3c a8d1 00be 37bf edbd
00000060: f563 aebd 2418 bebd 41ea cc3d 1022 90bd
00000070: 6704 c9bb 4805 8d3d 8d97 0d3e deb1 843b
00000080: 934c 0bbe 7263 2f3d c423 9ebd f1aa f6bd
00000090: 578f 1d3e 15ad d6bd c7cb e73d ae5f 8e3d
000000a0: 3058 7abd aac2 09bc 0604 79bc 8dc1 48bd
000000b0: 89f4 783d b47f d93c 4a86 893d 75c4 c9bd
000000c0: 3e11 d93d 65e0 1e3c 207c 8f3c 325f 69bd
000000d0: ca09 a8bc b70f a7bd 3195 b0bd f950 393c
000000e0: 8a89 26bd 9cb1 23be 358f 9c3d ab40 9e3d
000000f0: 3639 473e 7d42 11be e76f e43c 314b da3d
00000100: 0cb9 4f3d e117 37be 567b 9c3d 4982 c43d
00000110: e58b df3d 6d6b df3c cfff 13be c867 29bd
00000120: 5812 f73c 088f 24bd 3f3c 8cbd 2e82 28be
00000130: 3831 90bd 05ac d5b9 247b 20bb 00cf 4d3d
00000140: a653 bcbc e723 2dbe 5950 8e3d 621a 9bbd
00000150: a501 033d 675e 7f3c 4253 b63d c6d8 203d
00000160: 3f00 81bd d826 9fbc 23dc f63d b535 89b9
00000170: 2cba efbc 6f81 893d c8b4 ac3d 2736 e3ba
00000180: 3ce5 6c3d 65f3 75bb 2363 b3bd 13e2 063e
00000190: 50be e23c 7906 99bc c905 3abd 5c06 763c
000001a0: 87ae 14be 01e2 47bb 80ee 11be 7c01 153c
000001b0: 1efa 95bd 6cb9 83bd 9f10 6d3d 7645 1b3e
000001c0: 0fe5 2c3c b620 203d de33 363c bccd e33c
000001d0: 4588 09be 5bd9 a0bd d438 bc3d 6f62 4f3d
000001e0: 3e8e 47bc 11e9 7abd b18e dabd 3a63 cc3d
000001f0: 1818 41be ae89 a9bd 8e24 063c bf26 e9bb
00000200: 22d2 8d3d e54a 3d3d bc1f 81bd 22ad f9bc
00000210: a033 093e c925 c13d 3d0e 813d 4648 ac3d
00000220: b2ab a9bc 52a8 02be 0030 73bd a24a e0bd
00000230: 26f1 9b3d 48bd 1a3e 2ffb 1abe 4e25 9cbc
00000240: 877b 52bd 740d 81bd 7ea0 c7bd 0c5c 2b3c
00000250: 9851 f53d 19be 17bd 8a8e 163d 41b4 313d
00000260: bf76 f7bd 08ff 54bb e95e c43d 1715 283e
00000270: 5785 463d 19d7 8dbc 09ee 06bd 878e f9bd
00000280: 9572 fb3c 5246 4cbd b05d aabd efc4 c2bd
00000290: 9425 de3d ea8d bc3d 0dfe 1cbc d61b 29bd
000002a0: 20ad 823c 9e55 b5bd e90e 023d a2ad 33bc
000002b0: 40c9 5a3d 33f0 133d 23d9 d7bb 50d7 8f3d
000002c0: 4108 bcbd fa00 4fbd f7dd 9c3a f9ae 123e
000002d0: de70 04be d22f db3d 190d 2e3d 9c47 06be
000002e0: 5857 773d a387 34bd 039b 07be bb63 7bbd
000002f0: 1676 11be d8b7 803d 5755 e63b d339 1cbe
00000300: cec7 d93d 234a 74bd e86a 6b3d 7dd4 9b3d
00000310: bac2 143e f1ad 743d 1e30 023e feb4 60bd
00000320: fb9f 5abd 22cf dfbd 6cb3 d5bd 3181 263c
00000330: cb37 fd3c 6c98 353c da68 ce3d bc81 b6bc
00000340: 22fc 1abc 4c90 f6bd b363 62bd 1241 14bd
00000350: 42e0 7f3c 3ede 94bd 6ce6 28be 26f9 53bd
00000360: ac30 83bd 7431 1b3d aa0b f9bb 1cb9 a7bc
00000370: 0e5b 713c 1a0f a43d 8ba4 93bd 7320 afbc
00000380: 08b0 c53d ff27 d13c 3aa5 00be d6e8 18be
00000390: 4d03 0bbd 1f81 14be 816a 2a3d 87b6 2a3e
000003a0: 8cb8 d53d 9d1c c7bc dac4 5ab8 a821 0d3d
000003b0: c0ee e6bb 36b7 933d dc57 51bd c7d8 88bc
000003c0: bcb7 433d 818b 99bd e5e7 b73d 07eb c4bd
000003d0: 90fa e53c 7eb1 d3bc e241 5b3d daa8 ee3c
000003e0: da05 113e 238c 113d 22de 02bd a097 bfbc
000003f0: efe4 143e b9a2 a6bd fec5 5239 9f90 cbbd
-0.030285107 0.047816765 -0.0033992992 -0.08338091 -0.11711384 -0.05341135 0.10237792 0.059845738
0.168411 0.122328304 -0.16324411 0.08642867 -0.07388179 0.054136906 -0.03177847 -0.0115141105
-0.081333116 0.040326443 0.0982743 -0.029774303 -0.12641829 0.02533878 -0.12579978 -0.11608737
-0.08515159 -0.09281948 0.10005618 -0.07037747 -0.006134558 0.06885773 0.13827343 0.0040495237
-0.1360343 0.042819448 -0.077216655 -0.12044323 0.15386711 -0.104822315 0.11318164 0.06951843
-0.06111926 -0.008408228 -0.015198713 -0.04901271 0.060780082 0.026550151 0.06715067 -0.09851924
0.10598992 0.0096970545 0.017515242 -0.05697555 -0.02051248 -0.08157294 -0.08622206 0.011310809
-0.04065851 -0.15985721 0.07644502 0.07727178 0.19455418 -0.1418552 0.02788539 0.10658873
0.050713584 -0.17880203 0.07640712 0.095951624 0.10915355 0.027272904 -0.14453052 -0.04135874
0.030160114 -0.040175468 -0.068474285 -0.1645591 -0.07040638 -0.0004075469 -0.002448746 0.05024624
-0.022989105 -0.16908227 0.06948919 -0.075733915 0.03198399 0.015586472 0.08902599 0.03926923
-0.06298875 -0.019427702 0.120537065 -0.0002617069 -0.029263578 0.067141406 0.08432919 -0.0017334864
0.057835802 -0.0037529108 -0.08759143 0.13172178 0.027678639 -0.018679844 -0.045415673 0.015016165
-0.14519702 -0.00304997 -0.14251137 0.009094592 -0.07323097 -0.06431851 0.05787718 0.15163216
0.010552659 0.039093696 0.011120765 0.027808063 -0.13430889 -0.07853957 0.091905266 0.050630983
-0.012179909 -0.061257426 -0.106717475 0.099798635 -0.18856847 -0.082782134 0.008187426 -0.0071152146
0.06924845 0.046214003 -0.06304881 -0.030478064 0.133986 0.09431035 0.06301544 0.084122226
-0.020711754 -0.12759522 -0.05937195 -0.10951735 0.07614355 0.15111268 -0.15134881 -0.019060757
-0.051387336 -0.06301394 -0.09747408 0.010458957 0.119784534 -0.037046526 0.03675703 0.043384794
-0.12083196 -0.0032500643 0.09588415 0.16414295 0.048467007 -0.01731448 -0.03294185 -0.12185388
0.030694285 -0.04987175 -0.08318651 -0.09510218 0.10847011 0.092067555 -0.009582055 -0.041286312
0.015951693 -0.08854221 0.0317525 -0.01096669 0.053414583 0.036117744 -0.006587164 0.070234895
-0.09181262 -0.05053804 0.0011968006 0.1432456 -0.1293368 0.107024804 0.04249296 -0.13113254
0.060386032 -0.044074666 -0.13242726 -0.061374407 -0.14205202 0.062850654 0.0070292163 -0.15256433
0.10633813 -0.059641015 0.057475 0.07608888 0.14527407 0.059736196 0.12713668 -0.054860108
-0.053375226 -0.10928179 -0.10434613 0.010162638 0.030910393 0.0110837035 0.100785926 -0.022278659
-0.009459527 -0.12039241 -0.05527086 -0.03619487 0.015617432 -0.07268952 -0.16494149 -0.05175128
-0.06405768 0.03788896 -0.0076002674 -0.02047401 0.014731182 0.08010693 -0.072091185 -0.021377778
0.09652716 0.025531767 -0.12563029 -0.1493257 -0.033938695 -0.14502381 0.041605476 0.16671191
0.1043559 -0.024305636 -5.2158583e-05 0.034455925 -0.007047504 0.07212679 -0.05110918 -0.01670493
0.047782645 -0.074973114 0.08979777 -0.096151404 0.02807358 -0.02584147 0.053529628 0.02913325
0.14162388 0.035534035 -0.031950124 -0.02338773 0.14540456 -0.08136506 0.00020100918 -0.09939694

actor.2.weight f4 [256, 512]
00000000: f436 ba3d 7d34 a43d db29 ae3c e355 423d
00000010: 27a8 0b3d 2b34 b0bd 142b c8bc 9823 023e
00000020: fcb0 b03d 9f0d d13d bf3a 203d 832d 98bb
00000030: af71 1fbd 514a a73d 0459 8e3d ba08 943d
00000040: 1fbb 21bc ee02 f13c 1039 01bd ee1f 9ebb
00000050: 875f 233d 55ed 4dbd f7bb e43d 46d7 27be
00000060: 90b9 8cbd 8fd5 aabb 354e e23d 6dc4 9bbd
00000070: 6a99 1a3d 3a32 f0bd d4f8 05bc f55e 7f3c
00000080: 504e 0dbd 3214 ad3c 613f 1e3d ef0a 683e
00000090: 5209 ff3d 6c88 23bc a821 1dbd 7038 9cbd
000000a0: 7eb0 543d 62f6 d33d 518f c5bc 021c e1bd
000000b0: 8d90 2dbe bd43 613c 8b69 7e3d ac17 17bc
000000c0: 05c7 ba3d 3cd0 7b3d 3530 413d c966 5cbc
000000d0: 3fe1 5cbc 27ba 70bd f54f d33c b669 343c
000000e0: 4470 363d 1bbe 24bb b68c 8cbd 3162 b7bd
000000f0: 2a08 37bd 26de a8bd 015f a33c 1af3 1abd
00000100: 6679 1c3d 4260 b73d b59d 883d 165e b4bc
00000110: e4a4 c83c cc53 d6bd 1119 3ebd a494 23be
00000120: 1726 003d 5755 46b9 429b a0bd 0c6c 223d
00000130: d3ab 18be 213e 8fbd 8362 a53b 8125 d03a
00000140: de6d 9dbb 87ec a43c ed69 053d 9b34 423d
00000150: 165f 153e dcaa bebc 6a61 7b3d 9a28 05bc
00000160: 689c c43c 10e2 75bc 6ce6 62bb 8d64 b63d
00000170: 8bf3 ad3d 4762 3c3d f7e5 71bd ac92 fd3c
00000180: d481 f23c fe72 a1bd 0c52 00be bbd5 1d3d
00000190: a048 b13c c50a 363d 9b7f 973d 12ab 09bd
000001a0: 089a 6b3d 6166 c63d 13fa d2bd bdc5 423d
000001b0: 0909 ae3d ae65 953d facd 0abd 5b9e 48bd
000001c0: fcfd c0bc b8a3 4ebd 8cbc 933d f7fa 5bbd
000001d0: ee22 673d 9901 5b3d f3fd a5bc 77c8 8d3d
000001e0: 8aef b5bb 93a9 4bbd 9c9d 8abd 6fae 9cbd
000001f0: a425 4c3d f15b 5d3d e51c cdbd 1761 c2bb
00000200: 1839 9c3d 7bf8 50bc de08 bb3c 9081 e0bd
00000210: 4599 b43d b713 0f3c f4d6 03bc 4ab6 ebbd
00000220: b041 9cbd 5c67 28bb e97c 183e be1f 373e
00000230: 69b6 1f3d aa4f 403c cb67 143d 1eef 67bd
00000240: 49a9 85bd 5e88 573d 470c 46bd a3c7 ec3d
00000250: 52bb 67bd 7bf1 fa3d 840a 123d 423f 48bc
00000260: b979 d1bd 62c3 6e3c 85c5 503d 3e71 7f3e
00000270: 0031 c33d 9e3f e83c d04e c8bd 1c6a 57b9
00000280: 569b 6abd c006 b13d bd12 fb3c 9d8c 5ebd
00000290: 37e3 c73d 7c02 9f3d 7c89 0a3b bcd2 193e
000002a0: 0096 853d 5ee8 15bd 00fd 11bc fd19 e5bd
000002b0: 2ae4 533d 6633 a7bc 89a9 373d 823a d1bc
000002c0: 493d 46bd 1299 533d a632 aa3c c915 153e
000002d0: d124 f5bb 068d 5dbd 1a4e e4bc 78f5 113c
000002e0: a714 00bd 438c 26be 5d79 8bbc 4090 c73d
000002f0: a576 bcbd 757f 143c efe9 fe3c dfe5 bb3d
00000300: 575e c83a 05a2 3ebe ceba 77be 2b9b 333d
00000310: 87d4 28bc ba59 f03d ecb1 ab3c 9fb6 1b3d
00000320: 6b72 393d d075 d23d 754f cebd 5f86 2d3c
00000330: 3366 113e cb69 5e3d d03f cd3d 2b05 20be
00000340: 25db d63d c9bf a23d 27f0 e03d 25d8 01bd
00000350: c63b 3dbc 496f 093d de3b 633c 5d1e bbbd
00000360: 421e 65bd 5ef4 753d b87a 923d f901 2a3e
00000370: c02f cc3d fd34 8e3d 59ca 9dbb 94c7 91bc
00000380: f73c a23c 511c 24bd 266a 19bd 8619 00be
00000390: e9d5 b73c 8d28 87bc 35fc 753d 1164 c6bc
000003a0: 94fb 893d 0f82 543d e5c1 87bb bf17 e03d
000003b0: 8c85 3b3d 3be3 ac3c 9f16 45bd 3574 10bd
000003c0: 3e47 623d 1696 82be 53fa b93d fbae 4e3d
000003d0: d68b 903d f127 92bd 058d 92bc 3c3a b4bd
000003e0: 09eb 583d 0622 5e3d 54c1 6bbd 5ae3 40bd
000003f0: baeb af3d 1da0 ae3c 6232 ea3d 653a 8c3d
0.09092513 0.08017824 0.021260193 0.04744519 0.03409591 -0.086037 -0.024434604 0.1270889
0.08627507 0.10207676 0.039118525 -0.0046440973 -0.038926776 0.081684716 0.06950572 0.07228227
-0.009871273 0.029420342 -0.03154856 -0.0048255837 0.039886024 -0.050275166 0.11168664 -0.16390714
-0.06871331 -0.0052134464 0.11050073 -0.076058246 0.037743963 -0.1172833 -0.008177001 0.015586604
-0.034498513 0.021127794 0.03863466 0.22660421 0.124529496 -0.009981256 -0.038362175 -0.07627952
0.05192613 0.10349728 -0.02411619 -0.1099167 -0.16949673 0.01374906 0.062112372 -0.009221952
0.09119991 0.061477885 0.047165114 -0.01345224 -0.013481437 -0.05877128 0.025794962 0.011011532
0.04454066 -0.0025137726 -0.06862776 -0.089542754 -0.04468552 -0.082454965 0.019942762 -0.037829496
0.038201712 0.089539066 0.06670705 -0.02201752 0.024492688 -0.10465202 -0.046410624 -0.1597467
0.031286325 -0.00018914543 -0.07842113 0.039653823 -0.14909296 -0.06994272 0.005047144 0.0015880318
-0.004804357 0.020132316 0.03257172 0.04741345 0.14587054 -0.023274831 0.0613722 -0.008127356
0.024000362 -0.015007511 -0.0034622205 0.08905897 0.08493718 0.045992162 -0.059057202 0.030953728
0.029602922 -0.07883261 -0.12531298 0.038533907 0.021641076 0.044443864 0.07397386 -0.03361041
0.057519943 0.09687496 -0.10301604 0.04755186 0.08497817 0.072947845 -0.03388784 -0.048979145
-0.02355861 -0.050449103 0.07213697 -0.053706136 0.056429796 0.05346832 -0.020262694 0.06923001
-0.005552237 -0.049722265 -0.06768343 -0.07650458 0.049840584 0.05404276 -0.10015277 -0.005931984
0.07628077 -0.012754555 0.022831377 -0.10962212 0.08818296 0.008732728 -0.008046854 -0.11509378
-0.076297164 -0.0025696373 0.148914 0.17883202 0.03899232 0.011737743 0.036231797 -0.056624524
-0.06526429 0.052620284 -0.048351552 0.11561515 -0.056575127 0.1225309 0.03565456 -0.012222113
-0.10228295 0.01457295 0.05096962 0.24945542 0.095308304 0.028350648 -0.09780657 -0.00020543527
-0.057277046 0.086438656 0.030648584 -0.054333318 0.09760135 0.07764146 0.0021139076 0.15021795
0.06522751 -0.036598556 -0.008910418 -0.111865975 0.051731266 -0.02041025 0.044839416 -0.025540594
-0.04839829 0.05165965 0.020776104 0.14559092 -0.0074811955 -0.05408957 -0.027869273 0.008908622
-0.031269696 -0.16264443 -0.017025644 0.097443104 -0.09202317 0.009063591 0.031117408 0.09174704
0.0015286905 -0.18616493 -0.24192354 0.04384915 -0.010304577 0.11735864 0.020958863 0.038015958
0.045275133 0.10276377 -0.10073749 0.010591119 0.14199142 0.05430011 0.10021937 -0.15626971
0.10491017 0.07946736 0.109833054 -0.031700272 -0.011549896 0.033553395 0.013869254 -0.09136651
-0.05593706 0.0600475 0.07152313 0.16602315 0.09970045 0.069437005 -0.0048153815 -0.017795362
0.01980446 -0.040066067 -0.037454747 -0.12509736 0.022440867 -0.016498828 0.060054976 -0.024217637
0.06737438 0.051881846 -0.004142987 0.10942029 0.045781657 0.021104446 -0.048117276 -0.035267074
0.055243723 -0.2550513 0.09080949 0.050459843 0.070579216 -0.071365245 -0.017889509 -0.0880017
0.052958522 0.054231666 -0.05755742 -0.04709182 0.08589883 0.021316582 0.11435391 0.068470754

actor.2.bias f4 [256]
00000000: 2d22 8abd c525 9ebd 1a06 0ebe a97d 1cbd
00000010: 13f5 bcbd 8f71 33bd 6c5f 1cbd ab84 aebc
00000020: 1cce 8ebd eb29 73bd c476 a2bd 2d0f b0bc
00000030: 0e70 92bd f991 73bd 06f0 dcbd 0f95 6fbd
00000040: e804 c8bd 90c8 e4bd 46f9 32bb 1f3c b1bd
00000050: f5e6 cdbc 2832 7fbd b140 a2bd b60c 9dbd
00000060: b036 b3bd 9a0f 66bd 3a49 ecbd 6cda 57bd
00000070: 3993 2fbd 1c2c 27bd 3dd6 d6bd 0ae2 2cbd
00000080: e133 62bd 162e 60bd 027d c5bd 68ad 64bd
00000090: 7795 a3bc a6c1 53bc ebd7 3bbd efeb 59bc
000000a0: 2758 d7bc abb5 3abe 85c2 72bd 0e4f 87bd
000000b0: 6969 4b3b e2d2 d4bd 3cbe a9bd 1ca7 15be
000000c0: 0b7b 213c b247 94bd 7149 a9bd 7e07 e5bc
000000d0: 936d 4cbd 9508 afbc 67ac 8dbc 4759 60bc
000000e0: 8dd1 c53b 7ff1 3bbd fed1 abbc eb35 8dbd
000000f0: 1276 93bd 41fd 37bd 9406 f9bd 7468 64bd
00000100: ebf3 03bd 6dbb 14be c9b0 aebd 6e08 80bd
00000110: 20a4 91bd 8e90 8abd cf84 4ebd 2807 93bd
00000120: 6dc1 d0bc 6733 02be 81ea 69bd 2490 1dbc
00000130: 7ef6 67bd 791d 52bc 482d 10be 7cd9 1bbd
00000140: f33f d9bd ae9b acbd 3095 c8bd 8fa8 afbd
00000150: 7f50 31bc df69 cebb 584f 86bd c04f c6bd
00000160: a216 2cbd 35a4 31bd db8c 09bd c312 b9bd
00000170: 420a b1bd f72d 4cbd 6585 e4bc 35f2 02bd
00000180: 899b 23bd 048a 36bd 20c4 03bd 4759 b7bd
00000190: adf0 c7bd 7b66 e5bd 4e2f 23bd 339c 37bc
000001a0: efd7 39bd 4358 6dbd d793 47bd a7ca 4ebd
000001b0: fff4 81bd 7d11 93bc a640 4fbd 40e0 c3bd
000001c0: 950d 80bd a275 bcbc 864f 99bd fce6 66bd
000001d0: adef 01be 7406 85bc b0b1 8f3c 5082 3bbd
000001e0: 96b8 ddbd 349d a0bc 5763 50be 8ba9 efb9
000001f0: ac5c b5bd 7567 c7bd cd91 c5bd 049d 0abd
00000200: b596 0abd 9b2d 37bd ec16 b1bd 7124 98bc
00000210: 90df 96bd 3836 c7bd 8a47 e4bd cce1 c4bc
00000220: c6eb f1bd e01f 08be 0412 79bd e821 91bd
00000230: cafa 94bc 979c acbd 007a 66bd 93df a3bc
00000240: ea0f 8abd 210c 1ebd b765 1cbd 65f6 1f3d
00000250: b3b4 84bd 4deb a1bd 6030 37bd 6db3 eeb9
00000260: ca87 c1bd 2854 82bd 4d79 efbc 3a52 8ebc
00000270: fb35 c1bd ee8e 35bd 53aa 9dbd bb9b 77bd
00000280: 16ad c7bd d79d a9bd 0274 f5bd 9b0e 2cbd
00000290: 94e3 7a3c ceb1 c4bd 6f14 14bc 89b6 2abd
000002a0: e1a0 a0bd 4984 75bd 6fb1 1abe 7e96 c2bc
000002b0: cc1a a7bd 7d2d 8dbd 563e 49bd e684 9cbd
000002c0: ed4e 8dbd 326d 94bd ae57 77bd 9fab ccbd
000002d0: 58ef 2ebd 636c 1cbe 0805 9ebd 8f13 08bd
000002e0: d154 83bd 201e b3bd a6a7 aabd e8f7 35bc
000002f0: 1280 23bd 8b5c e1bc a9a3 17be 6f06 60bd
00000300: f28b c4bc 8220 2bbd 2cf4 2bbc 12ec c8bc
00000310: 7dcb 12bd 7efa 92bd dcf7 6cbd bb7a 81bc
00000320: a564 f43c e4c5 2abd 1a7f a9bd 095c b7bd
00000330: 455a 3fbd e19c 38be 217f aabc 4cb3 b1bd
00000340: 5b29 e6bc 2656 9cbd 17d2 803d 389f f8bd
00000350: af26 25bd 10a9 86bd 9a74 2cbd da58 dcbc
00000360: eff2 91bd ef1b 59bd c9f2 0fbe 2d73 6cbb
00000370: 6be9 bcbd da71 563d 4ee5 ffbc 2cee 2ebd
00000380: 7d73 7ebd 536c bcbc c123 0fbe 1697 acbd
00000390: 10f9 06be a55c 04bd 85e9 babd 01d8 36bd
000003a0: adcf 21bd 055c 0f3d b8f9 8c3a 15bb 72bc
000003b0: f6ac 01bd 0eb6 93bd 488f 43bc 0649 debd
000003c0: 25a8 9cbd a1b7 c7bc b212 6bbc 3b51 57bd
000003d0: 1152 62bd b13f d9bd 0531 b8bd 099e b8bc
000003e0: 8ab0 09bd 1106 61bd b63e 0fbe 8ee4 82bd
000003f0: 0afe f4bc dfe5 843c 43c1 cabd d273 febc
-0.067448 -0.07722048 -0.13869515 -0.038205776 -0.09226432 -0.04380947 -0.03817694 -0.021303495
-0.06972906 -0.059366148 -0.07932809 -0.021491611 -0.07150279 -0.059465382 -0.10787968 -0.058491763
-0.09766561 -0.11171067 -0.0027309223 -0.08654045 -0.025134543 -0.062303692 -0.07922495 -0.0766844
-0.08750665 -0.056167223 -0.11537404 -0.052698538 -0.04286501 -0.04081355 -0.104900815 -0.042207755
-0.055225257 -0.05473145 -0.09642984 -0.055829436 -0.019968731 -0.012924587 -0.045860212 -0.01330088
-0.026287152 -0.18233363 -0.05926754 -0.06606875 0.003103817 -0.10391785 -0.082882375 -0.14614528
0.009855996 -0.07240237 -0.08265961 -0.027957674 -0.049909186 -0.021366397 -0.017294122 -0.01369316
0.0060369433 -0.045884605 -0.020974156 -0.0689505 -0.072002545 -0.044919256 -0.12159458 -0.055763677
-0.03221504 -0.14524622 -0.08529813 -0.06251608 -0.071113825 -0.06765853 -0.050419625 -0.07179099
-0.025482858 -0.12714921 -0.057108406 -0.009616885 -0.056631558 -0.01282441 -0.14079773 -0.038049206
-0.106079005 -0.08428131 -0.0979408 -0.08577072 -0.010822414 -0.006299242 -0.06558102 -0.0968318
-0.04201377 -0.04336949 -0.033581596 -0.09036782 -0.08644535 -0.049848523 -0.027895639 -0.031969268
-0.03994325 -0.044565216 -0.03216946 -0.08952575 -0.09762702 -0.11201187 -0.039840035 -0.011206674
-0.045371946 -0.0579455 -0.048724975 -0.050486233 -0.063455574 -0.017952675 -0.050598763 -0.09564257
-0.062525906 -0.02300531 -0.07485871 -0.056372628 -0.12689085 -0.016238429 0.017540783 -0.045778573
-0.108262226 -0.01960621 -0.20350395 -0.00045711952 -0.088555664 -0.0973653 -0.0964695 -0.033841148
-0.03383513 -0.044721227 -0.0864695 -0.018572064 -0.0736686 -0.09727138 -0.111464575 -0.02403345
-0.11812548 -0.1329341 -0.060808197 -0.07086545 -0.018185992 -0.08428305 -0.056268692 -0.02000407
-0.067413166 -0.038585786 -0.03818294 0.03905334 -0.06479778 -0.07906208 -0.04472387 -0.0004552858
-0.09449728 -0.06363708 -0.029232645 -0.017373193 -0.09434124 -0.04432576 -0.076985024 -0.06045125
-0.097498104 -0.08282059 -0.11985017 -0.042006116 0.015313048 -0.09604226 -0.009038075 -0.041677985
-0.07843185 -0.05994061 -0.15106748 -0.0237534 -0.08159408 -0.06893442 -0.049131714 -0.07642536
-0.068998195 -0.0724739 -0.060386352 -0.099936716 -0.042708725 -0.15275721 -0.077158034 -0.033221778
-0.06412662 -0.0874598 -0.08332758 -0.011106469 -0.03991706 -0.027509948 -0.14808525 -0.054693636
-0.023992512 -0.04177905 -0.010495227 -0.02452663 -0.035838593 -0.07176684 -0.057853565 -0.015805593
0.029833147 -0.04169263 -0.08276196 -0.08953101 -0.046716947 -0.18028595 -0.020812573 -0.08676776
-0.028095892 -0.07633619 0.062900715 -0.121397436 -0.040320095 -0.06575215 -0.042103387 -0.026897836
-0.07126414 -0.053005155 -0.14057459 -0.0036079392 -0.092242084 0.05235467 -0.03123727 -0.042707607
-0.062121857 -0.023000872 -0.13978483 -0.08427255 -0.13180947 -0.032314915 -0.091265716 -0.04463959
-0.039504696 0.034999866 0.0010755574 -0.014815112 -0.03165909 -0.072124586 -0.011936016 -0.10853772
-0.076492585 -0.024379553 -0.014347719 -0.0525677 -0.055254046 -0.10607851 -0.08993725 -0.022536295
-0.033615626 -0.054937426 -0.13988766 -0.063912496 -0.029906292 0.016222892 -0.09900143 -0.031061087

actor.4.weight f4 [128, 256]
00000000: b9dd 413c 8954 b33d 2e62 9f3d 3d75 e83c
00000010: 9e3e 1ebd 9d55 30bb b4ab c43c 014a 943d
00000020: 9efe bcbc e739 03be 5f3d cdbd a176 b0bd
00000030: ee56 95bd d44c 933b 53fa cd3d 2b31 043c
00000040: e3e3 40bd 1c8c 9cbc 759d 3abc 8ddc bdbd
00000050: ad3b a1bc dde8 28bd 37c3 223d 8aa8 4cbc
00000060: e915 94bd 01ff 1e3e 8ea7 853b 3586 073d
00000070: 4768 003e 63b1 873d 0b77 843d db05 9bbd
00000080: eac4 37bd f88c 24bc 9a78 bc3b 2d99 823d
00000090: edf5 c13d 36cd 283b fb0c 1d3c bbcd 04be
000000a0: c9c7 a6bd 6822 983d 8e4d 2dbd 74e5 46bd
000000b0: fc64 94bd ed25 163e 6586 12bd e061 e83d
000000c0: f237 70bc 536b 013e c4d9 94bd 85d9 313d
000000d0: 873f b9bd 3322 eabd 49ac 183d b0ae 04bb
000000e0: 48c4 333d 6f33 e53c ee42 19be 5a1f 0c3e
000000f0: e6e0 273b 48bc 76bd e407 06bd 0106 a23c
00000100: 6910 c23c 43bd eabd 0df1 0f3d 8442 9ab9
00000110: a7ae 923d f3bc 313d 2f43 05bc f48c 75bd
00000120: 039b f83b eced 21bd 93a0 cd3c b780 b8bd
00000130: 2e17 1cbd 6ba4 e9bd 51b4 98bd 4271 ecbc
00000140: f533 06bd a9bf 48bd c0c9 003d 7d3d a53c
00000150: 799f 243d 3085 d3bd df42 a1bd dadb bdbd
00000160: e69e dd3d 1522 c83d c653 363d 676f a7bd
00000170: b65f 1d3e 263d a8bd 927d 083d 4d45 bfbd
00000180: 3996 cbbd c688 963d a5c3 94bc 4193 b13c
00000190: f10e 7e3d f7d5 483d ed9f df3d c2ac 0fbd
000001a0: 65c3 e8bd 8480 75bd de58 21bc 4c1d 163d
000001b0: 4c02 a8bd cddd 043d faf2 943d f571 d63d
000001c0: daa4 bfbd b75b 0dbc 2a54 0dbe 18e7 683a
000001d0: a019 0e3d 5df1 5d3c 65c1 bfbc ee61 edbb
000001e0: 5515 bf3d 465c 443d 7809 263d b715 c83d
000001f0: b86a 9f3d 5d52 373d 6618 81be 4232 10be
00000200: e31f b7bc 15d2 103d 9e84 5fbb e0c2 ed3c
00000210: 8904 45bd 5976 033e 3e1d 583c 8d08 92bc
00000220: b6a5 d73d a8aa cabd 0355 943d 50c7 8bbc
00000230: da16 b23d 4393 4e3d a6bc 08be c96b 493d
00000240: 013b a3bc 5230 2dbd 82d5 2f3d 82ed 50bd
00000250: 6994 a13d 0df2 b03d 62bb 99bc dee1 bebc
00000260: 09f3 983d 8985 2a3d cc49 263d a2fe febd
00000270: a3dc fc3c a71f 5c3d a7c9 a83d 86f8 ed3d
00000280: ccc6 a3bc e21b 90bb b1b2 0cbc dc3d 373d
00000290: 60b7 a03d ba4e efbb b580 ab3d 0294 97bd
000002a0: 3de3 f13c c1dd f7bc 74b0 19ba beaa d5bd
000002b0: 9416 b23a e7d9 a03c e563 25bd fc23 ecbd
000002c0: 2785 043c bb9b c0bd f07b 0dbe 2b1f b7bd
000002d0: 831c 92bd fe6f 7c3d 7c24 813d 04cf 2b3d
000002e0: c2bd 87bc 6284 24be 32c7 5dbd 8265 a6bd
000002f0: f662 71bd 4952 99bd f258 a73d a459 b13d
00000300: b401 80bd 5a66 9dbd 19ae ecbc 9928 293c
00000310: cbb5 adbc dd28 c03a d2bb 033b deb6 0e3d
00000320: 4171 84bd 4af6 13bd c5a4 f3bc f87d e8bc
00000330: aec6 a33d 7418 323d cd97 013c 2670 813c
00000340: 791a b5bd ee42 60bd 5807 a5bd 1ea2 91bc
00000350: 358c 08bb e862 76bc 40b3 e7bc 3e73 1e3d
00000360: 83a6 7d3d 068b 04bd e00e a2bb a266 313c
00000370: 7a3a 0f3e 1201 35bd 3b8e 05bd c12c 0f3c
00000380: 8c9d 093c 3796 b9bc 83b3 363d ca4c 653c
00000390: 5058 413e 9dbc b9bb 12be 1fbc a706 9ebd
000003a0: 6dcc 823d f7a2 45bc b1fa bb3d 126b 62bd
000003b0: 261c 26bd 8dcf d8bc f597 033d ea96 30bd
000003c0: de99 993d 1fc1 c53d ff51 333c 6089 9b3d
000003d0: 46f3 f13c bcf7 d1bb 126d 6eba 9e28 613d
000003e0: 082b 103e 76ed 193b a89d 773c 303d 61bd
000003f0: 7a1f c83c 9824 433c f084 6c3d 4b1f 7dbd
0.011832648 0.08756358 0.07782398 0.028376216 -0.038633935 -0.0026906498 0.024007656 0.072406776
-0.02307063 -0.12815057 -0.10021471 -0.08616377 -0.07291971 0.0044952426 0.10057511 0.008068363
-0.04709233 -0.019109778 -0.01139008 -0.09270582 -0.019681776 -0.0412377 0.039736953 -0.012491355
-0.072307415 0.15526964 0.004078812 0.033086974 0.12539779 0.06625631 0.06468018 -0.07569476
-0.044865526 -0.010043375 0.0057516815 0.06376872 0.09470735 0.002575708 0.009585614 -0.12969105
-0.08143575 0.074284375 -0.04231029 -0.048558667 -0.07245824 0.14662905 -0.0357727 0.11346793
-0.014661776 0.12638597 -0.07268098 0.043420333 -0.0904532 -0.11432304 0.03727368 -0.0020245723
0.04388836 0.027978627 -0.14966938 0.13683835 0.0025616228 -0.060238153 -0.03272237 0.019778254
0.023689466 -0.1146188 0.035141993 -0.00029422727 0.071622185 0.043393087 -0.008133694 -0.059948877
0.007586838 -0.03953354 0.025100982 -0.090089254 -0.038108043 -0.11408313 -0.074562676 -0.0288626
-0.032764394 -0.049010906 0.031442404 0.020170921 0.040191147 -0.10328138 -0.07874083 -0.09270449
0.10821323 0.09772126 0.044513486 -0.08175545 0.15368542 -0.08214788 0.03332288 -0.0933939
-0.09940762 0.07350306 -0.018159697 0.021676661 0.062025968 0.049032178 0.10919175 -0.035076864
-0.113653935 -0.059937015 -0.009847848 0.036649033 -0.08203563 0.03243809 0.072729066 0.10470954
-0.09357615 -0.008627824 -0.13801637 0.00088845333 0.034692407 0.013546315 -0.023407647 -0.00724434
0.09330241 0.04793956 0.040536374 0.09769767 0.07784027 0.044756282 -0.25213927 -0.14081672
-0.022354072 0.0353566 -0.0034106146 0.029023588 -0.04810003 0.12838115 0.013190566 -0.017826343
0.10529654 -0.09895831 0.07242777 -0.017062813 0.08695765 0.05043341 -0.13353214 0.049175058
-0.019925596 -0.04228241 0.042928226 -0.051007755 0.07889635 0.086399175 -0.018766109 -0.023301061
0.0746823 0.041631255 0.040597722 -0.12450911 0.030866927 0.053741124 0.08241587 0.11619668
-0.019992255 -0.004397855 -0.008587525 0.044736728 0.07847476 -0.007303086 0.08374158 -0.07401277
0.029527301 -0.030257108 -0.00058627804 -0.10432957 0.0013587051 0.019635154 -0.04037847 -0.11530301
0.008088387 -0.09404703 -0.1381681 -0.08941492 -0.071343444 0.06163024 0.06305787 0.041945472
-0.016569976 -0.16066125 -0.054145046 -0.0812483 -0.058932267 -0.07486398 0.08171262 0.08659676
-0.06250325 -0.07685538 -0.02889161 0.010324621 -0.02120485 0.0014660616 0.0020100963 0.034842364
-0.06466914 -0.03612355 -0.029741654 -0.02838038 0.079968795 0.04348035 0.007909727 0.015800547
-0.0884294 -0.05475133 -0.08058041 -0.017777499 -0.0020835523 -0.0150382295 -0.028283715 0.038684122
0.061926376 -0.032359146 -0.004945621 0.010827692 0.13987151 -0.044190474 -0.032606345 0.0087386975
0.0083993785 -0.022654636 0.04460479 0.013995359 0.18881345 -0.0056682364 -0.009749906 -0.077161126
0.063866474 -0.01206278 0.09178675 -0.05527789 -0.04055419 -0.026466155 0.03212734 -0.043112673
0.07500051 0.096559756 0.010944842 0.075945616 0.029534947 -0.006407706 -0.0009095232 0.054970376
0.14078915 0.0023487485 0.015113272 -0.054989994 0.024429072 0.01191058 0.057743967 -0.06179742

actor.4.bias f4 [128]
00000000: 058b 87bc f4a2 c0bd 6c21 aebd de48 79be
00000010: 1aff d63c 124c b6bd 1650 5abc 6177 aa3c
00000020: 12ea 9fbd 69e9 9fbd daff 1cbd a8fc b5bd
00000030: 0193 d2bc 8b60 87bd f390 15bd 810c 1fbd
00000040: 8556 48bd 1680 2dbd 8681 0ebe a52d 5bbd
00000050: af36 aabd 9d23 4cbe 7848 0c3b 0524 3bbd
00000060: 5b37 3fbc 1b49 b6bc fe64 a0bd e712 8bbe
00000070: a633 80bd 1369 d0bb c016 5bbd 8925 07be
00000080: 33c8 8abd efc1 0cbc b2cf 11bd 959c 9bbd
00000090: a386 7abd f65b 27be 21a3 f9bd 2fe0 b1bd
000000a0: fa84 633c 1e02 c5bd 95e2 96be f063 43bd
000000b0: f273 a3bd 4db6 87bc 8649 eabd 952d 4abd
000000c0: c9c7 6b3d 9aab 36be 33d0 25be da68 96bd
000000d0: c864 793c 380d 03bd b8fd 07bc 5641 21be
000000e0: 632e 963b 2a36 4c3c 7c33 993b a011 c6bd
000000f0: 8b12 2fbc 09f0 6fbd 1de3 9fbd 86ff 5ebd
00000100: 3826 cdbd ce02 17bd e7a2 abba 6779 2abc
00000110: 4e2c 19bd 1ddd 35be bc59 f13b ad19 803c
00000120: 1fc2 a53d 3881 413c 11f6 a3bd 12e0 bdbb
00000130: 1b28 65bd 4e90 8fbd a58e 8dbd a880 42bc
00000140: 52aa 75bd ab86 583c b475 1dbe e7e4 533b
00000150: 0cae aabd c88b 7dbc c3f9 12be 39c9 32bd
00000160: 7f03 e0bd 1955 60bd 7cd5 d23a 16d0 93bd
00000170: 1f1d 15be 6aba e5bb 78dd fdbd 4d1a dcbc
00000180: fde2 86bd cd02 0bbd 9524 52be 501b 33bd
00000190: 595f c5bd b939 85bd 5053 d4bc b571 3ebd
000001a0: 65fb f5bd 6cc6 27be e151 77bd 679f d4bc
000001b0: 4a43 86bd 4699 59bd fed3 9ebd 0ee9 2fbc
000001c0: 9116 8dbd 7e8f 74bd 1925 86bd 6428 0a3d
000001d0: 1d00 3ebd d885 193b 83b7 023c c98d d2bd
000001e0: ab6a 38bc 1dfe e8bd 9a97 d1bd 0941 91bd
000001f0: b58d 603c b8b2 bebc 6f01 9dbc eabd 8ebd
-0.016545782 -0.09406081 -0.085024685 -0.24344203 0.026244689 -0.08901228 -0.013324758 0.020808877
-0.07808317 -0.07808191 -0.038329937 -0.08886081 -0.025704863 -0.06610211 -0.036515187 -0.038830284
-0.048910636 -0.04235848 -0.13916597 -0.053510327 -0.08311211 -0.1993546 0.00214055 -0.045688648
-0.011670913 -0.022251656 -0.07831763 -0.2716286 -0.06259851 -0.006360182 -0.053488493 -0.13197912
-0.06776466 -0.008591159 -0.035598464 -0.07598225 -0.061163556 -0.16343674 -0.121893175 -0.08685338
0.013886685 -0.096195444 -0.29469743 -0.04770273 -0.07981099 -0.01656642 -0.11439805 -0.049359877
0.057563577 -0.17838898 -0.16192703 -0.073442176 0.015221782 -0.03199503 -0.008300237 -0.1574758
0.0045831664 0.012464086 0.004675327 -0.096713305 -0.010685573 -0.058578525 -0.0780699 -0.054442905
-0.10017055 -0.03686791 -0.0013094813 -0.010404921 -0.037395768 -0.1776013 0.0073654335 0.015637243
0.08093666 0.011810593 -0.08005918 -0.0057945335 -0.05594645 -0.07009946 -0.06911973 -0.011871494
-0.059976883 0.013215701 -0.15376931 0.0032332481 -0.08333978 -0.015475221 -0.14353089 -0.043648932
-0.10938167 -0.054768655 0.0016085352 -0.072174236 -0.1456189 -0.0070107477 -0.123957574 -0.02686801
-0.06586263 -0.033938218 -0.20521767 -0.04372722 -0.09637327 -0.0650515 -0.025918633 -0.04649516
-0.1201084 -0.16384286 -0.06038082 -0.025954915 -0.06555803 -0.05312469 -0.07755278 -0.010736717
-0.0688907 -0.059707157 -0.065500446 0.033729926 -0.046386827 0.0023425724 0.007978323 -0.102809496
-0.0112559 -0.11376593 -0.10233994 -0.070924826 0.013705661 -0.02327858 -0.019165723 -0.06969817

actor.6.weight f4 [12, 128]
00000000: 80f3 3abd 8c5e 32bd cffe 60bc 18bd 88bd
00000010: c985 d03b a97f 86bb 171d 26bd a494 ebbc
00000020: d67d dbbb 8a64 6b3c bfd2 c73b eaeb 80bd
00000030: ebcd 7b3c 6578 0abc d432 543d b3bd feba
00000040: 9c8f 513c 76ed 7b3d 911f 9dbc c4e6 723d
00000050: bc3d 96bb a204 c0bd 9e2d 8abc a11e 8b3c
00000060: e7c1 af3a 06ec 053d 5c77 f9bc cbc4 443d
00000070: 218d 743d 7545 93b9 32ec edbc ab07 3dbc
00000080: fe9f 02bd 153f 8439 448f 943d e67d 0d3d
00000090: 4496 c2b9 5ba2 633d 9b73 5c3c 1a89 e2bb
000000a0: ebce a4bc fdec 4e3d 76b8 52ba 10ab 413d
000000b0: f87f a9bc d7e1 97bd e413 183d 8ee5 c23d
000000c0: fe26 cbb9 d0c5 9a3d 7fae b93c b3c1 86bc
000000d0: 03ef 89bc d8ec cfbc 4a62 87bd 2503 633d
000000e0: 6b3c 98bb ae0b c7bc 3654 f23b 642d fc3c
000000f0: 7adf 92bd ecfa 59bd 9719 b23d dcb0 13bd
00000100: e7a1 56bd acdb 20bd 90e0 093d 8c09 5ebc
00000110: 8780 54bc 7c97 6ebc 94e0 5a3b 79a8 063c
00000120: 993a 80bc b8ca 1bbc f991 90bc 9253 063d
00000130: 6a28 1a3d b205 d13b 9380 2cbd 4064 b1bc
00000140: f193 4a3c fe3b 223b ba95 f13c 470f 57bd
00000150: a41e 053d f2ee 33bc 27a7 c83c 7963 cbbb
00000160: 7af7 673d 8108 443d c0a5 05bd 8340 f2bc
00000170: 5adf 63ba f76a 48bb 3860 c3b9 a11b 1f3d
00000180: d46b 5a3d d376 3dbc abed a43d 56de 2b3c
00000190: ff4d 1fbc 7cf0 993c 60c2 54bc 6dc5 b33c
000001a0: 1ed9 9f3d 1c13 d43d e68a 0abd df59 023d
000001b0: e856 023d d522 a93c 801e a7bc 146f efbc
000001c0: 6a95 51bc 8e4d e9bd 1176 99bc 2ef0 edbb
000001d0: 246e b83d d3ac e13c 8dda ab3b 4266 c93d
000001e0: 6fb6 933c 6729 043c fc7d cabc d167 8bbd
000001f0: f4e6 99bc b7dc 353c 5c1f 90bd be91 f43c
00000200: 9691 f13c 4fd9 88bd be20 78bc 2c67 ffbc
00000210: 2416 9d3b 395d 213b 1cae be3c 711e 3bbc
00000220: 46e9 10bc 874d e4bc 74f5 a6bc d721 19bc
00000230: 2e96 89bb e941 6f3b 8242 3a3b 764e 9f3b
00000240: d04a 453d 87e1 bd3c a20c e6bd 7a4d 7dbd
00000250: b5fc 9bbc 3f13 6fbd 4dcc e839 efbc 92bb
00000260: c1cf 183c 6bb5 c4bc efda 37bc 3122 95bc
00000270: 83e0 b33d a837 8ebb b36a 123d 2941 763a
00000280: eef9 d03c d0f3 a7bd 9b80 333d d1ff e13c
00000290: 033d 683d 5a4e b3bc c2d2 b9bc 9ea7 073b
000002a0: de5d ca3c 1e2b 093d 5ea4 513d 0ad1 453d
000002b0: f679 a2bc b4ed 7f3d ab68 5abb 26bd 9bbd
000002c0: e66c 98bb 51be 8cbc dbba 5ebb 9101 1f3d
000002d0: 2285 6ebd f713 8bbd 7963 53bb c0df 383a
000002e0: d1f9 1e3d a3f6 4e3d 1de1 453d 0a2d a03c
000002f0: bfb7 373c 60b7 703d fa2b 86bd 19ec d53c
00000300: 0f35 03bd 19db 843d 6acc 953c a85f 1d3d
00000310: b69b a63a 4516 203e 88e8 d4bc 24ee 053d
00000320: fba2 083c 98fe 823d 9920 b7bc ef12 35bc
00000330: 89b8 d7bb 9891 e23c 1b7e 03bd d740 1dbc
00000340: 709f 023d 8cf2 21bb d4fe 05bc 24a8 b6bd
00000350: 3946 f9bc 3ca8 d5bc ca4d 7bbd 4891 6dbd
00000360: 4b88 1dbb 4872 a93c d367 043c f02c 27bd
00000370: 0a17 1dbd 1452 3a3d 7a97 2b3d 7144 ffbc
00000380: 86f6 dbbb f52b 33bd 4b49 113d e2a5 e13b
00000390: a651 36bd 0855 67bb 58d4 333c c854 903b
000003a0: 645f 3c3a c6dd 4ebd 3104 223d 8c99 1a3b
000003b0: eb4f e93c b623 89bd 731c c5bc 9596 87bc
000003c0: 14ee e1bc b6c3 0bbd 56c1 5e3c 993f a73d
000003d0: a375 8c3c b596 903c 21ab d3bc 0d81 bbbd
000003e0: 9bcc 993b 42b8 2ebc 92d0 303b aabc 623a
000003f0: d1c6 d8bc c9f2 92bc 67dd 17bd 681f 0b3d
-0.045642376 -0.0435472 -0.013732626 -0.06676692 0.0063636047 -0.0041045737 -0.040555086 -0.0287574
-0.0066983504 0.014367232 0.006098121 -0.06294997 0.015368919 -0.008451556 0.051806286 -0.0019435197
0.012790587 0.061505757 -0.019180091 0.059302106 -0.004584996 -0.09375884 -0.016867455 0.016982378
0.0013409228 0.032695793 -0.030452423 0.04803924 0.059704904 -0.00028089774 -0.02904329 -0.011537473
-0.03189086 0.00025224002 0.07253888 0.034543894 -0.0003711452 0.055574756 0.013455297 -0.0069133164
-0.020118197 0.05051898 -0.0008038351 0.04728228 -0.020690903 -0.074161224 0.037128344 0.0951644
-0.0003874823 0.07557261 0.022666214 -0.016449785 -0.016837602 -0.02538149 -0.06610544 0.05542292
-0.0046458743 -0.024297561 0.0073952926 0.030783363 -0.07171531 -0.053217813 0.08696287 -0.036057338
-0.052400496 -0.039271995 0.033661425 -0.013552081 -0.012970096 -0.014562484 0.003339802 0.008218878
-0.015652942 -0.009508781 -0.01764773 0.032794543 0.037636198 0.0063788528 -0.042114805 -0.021654248
0.012364374 0.0024754996 0.02949034 -0.052504804 0.032499924 -0.010982262 0.024493767 -0.0062069264
0.056632496 0.047859672 -0.032628775 -0.029571777 -0.0008692645 -0.0030581334 -0.00037264987 0.03884471
0.05332549 -0.011563974 0.08053144 0.010490021 -0.009723186 0.01879143 -0.012985796 0.021944726
0.07805084 0.10355207 -0.03382387 0.03182399 0.03182116 0.020646492 -0.020400286 -0.02922777
-0.012791971 -0.113917455 -0.018733056 -0.0072612977 0.09005383 0.02754823 0.005244559 0.09833957
0.018031327 0.008066512 -0.024718277 -0.06806911 -0.018786885 0.011099986 -0.07037231 0.029854652
0.029488366 -0.06682073 -0.015144525 -0.031177126 0.004793899 0.0024622215 0.023276381 -0.011420832
-0.008844679 -0.027869 -0.020380713 -0.009346447 -0.004198811 0.0036507791 0.002842099 0.004861648
0.04816705 0.023178829 -0.11232878 -0.061841466 -0.019041399 -0.058367964 0.00044402704 -0.004478089
0.009326876 -0.024012288 -0.011221631 -0.01820478 0.087830566 -0.004340131 0.035746288 0.0009393865
0.0255098 -0.082008004 0.04382382 0.027587803 0.05669881 -0.021887947 -0.022683505 0.0020699273
0.024702962 0.033488385 0.051182143 0.04829506 -0.019833546 0.06248255 -0.0033326547 -0.076044366
-0.0046516536 -0.017180594 -0.0033985886 0.038819853 -0.058232434 -0.06790917 -0.0032255335 0.00070523843
0.038812462 0.05052818 0.048310388 0.019552726 0.011213242 0.05876863 -0.065513566 0.026113557
-0.032033022 0.06487102 0.018285949 0.038421303 0.00127112 0.15633495 -0.025989786 0.03269781
0.008339639 0.06396216 -0.022354411 -0.011051877 -0.0065832776 0.027657315 -0.032102685 -0.009597979
0.031890333 -0.002471122 -0.008178432 -0.08918789 -0.030428993 -0.026081197 -0.061353482 -0.05799988
-0.0024037536 0.020684376 0.008081394 -0.04081434 -0.03835205 0.045488432 0.041892506 -0.031160565
-0.0067127375 -0.043743093 0.03547029 0.00688623 -0.04451146 -0.0035298485 0.01097592 0.004404638
0.0007185845 -0.05050447 0.03955478 0.0023590056 0.02848049 -0.066962644 -0.024061417 -0.016551295
-0.027579345 -0.03412219 0.0135959 0.08166427 0.017145937 0.017649988 -0.025838437 -0.09155474
0.0046935803 -0.010664048 0.0026979786 0.0008649329 -0.02646199 -0.017938035 -0.03707638 0.0339655

actor.6.bias f4 [12]
00000000: a461 53be e84f b13d 544f 343d 16d9 dcbd
00000010: de55 673e a7a0 14bd d290 663d 3cff 0ebe
00000020: 2587 173d 52fe 3cbe 195e 623e 0829 31be
-0.20642716 0.08657819 0.044020966 -0.10783593 0.2259135 -0.036286023 0.056290455 -0.13964552
0.03699412 -0.1845639 0.22106208 -0.17300808
