src/ga_quadruped/policy/param_action.onnx (onnx, 772885 bytes, 8 tensors)

actor.0.weight f4 [512, 52]
00000000: 0411 8e3e 660e 74bc d28e a5be f99e bb3e
00000010: 6bbc 093e 1759 4f3d 0622 b23d b21b 3cbc
00000020: 783e 8b3d 0bd9 68bd 85af 32bd d12f a5bd
00000030: baf6 d53d 9df2 153d d109 b73c 76d6 d8bd
00000040: f299 8f3e 41f5 6b3c e6fd 9e3d d605 3e3f
00000050: 3a07 133d d0ac 3d3c 6eae de3e 3d31 373e
00000060: 6317 33bf 511b 0a3f 02f2 0bbf 73b6 88be
00000070: f867 813e 1a31 a2be 2fee 4b3d 52cc dfbe
00000080: 7b1b 9e3e 745e debd 50f3 073e 4db7 413e
00000090: f19a e73e 63eb abbd a849 043e f980 4ebe
000000a0: 7308 a33d 53de ab3c c2cc 36bc 9423 0cbd
000000b0: 9e55 99bd 7435 bd3c 97f1 00bb 1d36 41bd
000000c0: cb89 f83c 9e08 1fbd af3b 923c 2d31 4eba
000000d0: 088d 3a3d 9259 1a3e 913e 413e c7e8 66be
000000e0: 553d 523e 3257 70bd 9f39 54be ac5c c93d
000000f0: 1758 1abd 96a7 31be a1e4 8e3c f8c6 d4bd
00000100: bd77 91bc 88b4 5c3d 5ebe dfbc 9b48 773c
00000110: 750e febe 462e e5bd 4b40 0cbe f522 2bbe
00000120: 918a f4be 0f38 723d 5e3d 413e e9e4 f0be
00000130: 1ba9 c03e 7f24 8bbe 64d1 5d3e 288d de3c
00000140: fc29 0dbf 8a80 a1be e0f0 b43e 3059 13bf
00000150: ef31 1abf 0fe2 f73e d570 073f 30b7 863d
00000160: 1e60 8b3e 4276 263f b421 13bf 2d73 443d
00000170: 5df4 a03c d0e1 81bc 3611 bc3c bd16 e83c
00000180: 4394 713c ffa5 2fbd 750c 25bd 4522 bcba
00000190: 2d83 18bd 330a 993d c30b 083d c13a 3fbd
000001a0: 85c0 133f 7b10 afbe 642a a83f 3bf9 e63c
000001b0: 230d 01bf 2950 a3bc 5adf 3fbe 0a78 59be
000001c0: cf04 9bbe 4f2d 86be dc7a 06be bffa 553d
000001d0: ddc7 583d ebfb cfbd 418b 03be 7d22 ad3c
000001e0: 97a5 d9bc ab7c 683b 2e11 abbe bdca d7be
000001f0: a142 533e 6333 62be cd1f 4f3e 51ed c0bd
00000200: 8f9e 833e 05c0 8fbe 3484 903e 91e4 5cbe
00000210: 9b60 193d a823 f5bd 4190 48bc cc5b 503d
00000220: 6b9b 463d df06 963d acce 673e 449a a23d
00000230: c80e b93d b195 12bf 6256 043f 3ea3 84be
00000240: 341b b23c 67dc d73b 4c84 a4bd 6111 7ebc
00000250: 5711 383c 8285 cbbc 72fd 78bd 0dd1 01bd
00000260: 62ef f1bc 4836 84bc bc89 a8bc 66b6 aa3c
00000270: 79cc 82be 510d 3cbf b995 8e3f 56ee 1dbf
00000280: 5da0 1a3e 190d 40bd d029 143e b625 5fbe
00000290: 032f 06be 407b 453d ad88 f3bd 1db4 8b3d
000002a0: 21f6 e8bd b23b c8bd db26 71bc 7d8e 9ebd
000002b0: 430b 1abe 8742 0d3e dd8f 053e 000f 8e3e
000002c0: 2a6a 8ebe 51e2 db3e 0938 9fbe af95 34be
000002d0: b1a9 21bd 4148 943e dfa0 21bb 4ef9 d03e
000002e0: 4388 f4be 4517 8abc 0b7f e0be a205 483d
000002f0: b149 dfbe 4e89 1a3e b808 4abe 9c32 823e
00000300: 2530 a5be 73e3 e7bd 5b9e 68ba b8da 123f
00000310: f6a5 8abd a56c 4fbd e601 a23d c0cc 20bd
00000320: dcfd a33d e63b 4ebd 71d7 09bd 4da6 2dbb
00000330: 6ebd e43c 474d bd3c bfb3 7e3d 4be0 9abd
00000340: 4745 a1be 4b94 95be 9c7d 27bf 22bf 30bf
00000350: c03d bb3d 0eae c1bc bdb3 1f3c 4954 d73c
00000360: 529e 7e3e bcfe 7bbc 6cf7 2dbc e0fb 1abd
00000370: c9df 3abd df18 84bc 1a6e a2bd 1613 cc3c
00000380: f3c3 8e3d 0f4f a83e aceb 1d3f e2d7 b53d
00000390: f2da 2ebd 6c85 98bc a081 ba3d 96d7 cdbd
000003a0: f46d babd a93a 873e 52a7 30be 62dc 253f
000003b0: ec50 dbbe 1eb6 be3d ebb2 8d3e 233c 2bbf
000003c0: b590 92be 1c4d a63e fe40 f83d 3b0a a53d
000003d0: 53a3 cdbe d4fd 52be 6246 873e 317b 163f
000003e0: 9fe8 9fbd 32c4 64bc eb36 50bc 3a2d 1f3d
000003f0: ec32 2c3c 6400 65bd bda4 d9bc feed 39bc
0.27747357 -0.014896011 -0.32335526 0.36644724 0.13450782 0.050622072 0.08697896 -0.011481212
0.06799024 -0.056847613 -0.04362442 -0.08065761 0.1044745 0.036608327 0.022343548 -0.1058778
0.28047138 0.014401735 0.07763271 0.74227655 0.035895564 0.011576846 0.43492454 0.17889877
-0.6995756 0.5394793 -0.5466615 -0.26701698 0.25274634 -0.31678087 0.049787696 -0.43710572
0.3088034 -0.10857859 0.1327641 0.1891758 0.45235398 -0.08394506 0.12918723 -0.20166387
0.07960596 0.020980036 -0.0111572165 -0.034213617 -0.07487033 0.023096777 -0.0019675249 -0.047170747
0.030339142 -0.038826577 0.017850725 -0.0007865604 0.045544654 0.15073231 0.18871523 -0.22549735
0.20531209 -0.058676906 -0.20725106 0.09832129 -0.037681665 -0.17349085 0.017443003 -0.10389513
-0.017757291 0.053883106 -0.027312454 0.015092994 -0.49620405 -0.111904666 -0.13696401 -0.16712554
-0.47761968 0.059135493 0.18871066 -0.47049645 0.37629017 -0.27176282 0.21661907 0.027166918
-0.5514219 -0.3154338 0.35340023 -0.57557964 -0.6023244 0.48414657 0.52906543 0.06577909
0.2722177 0.650242 -0.574733 0.047961403 0.019647771 -0.015854746 0.022957426 0.028331155
0.014744821 -0.042882916 -0.040295083 -0.0014353475 -0.037234474 0.074726485 0.03321434 -0.04668689
0.57715636 -0.3419226 1.3137937 0.028195014 -0.5041067 -0.019935684 -0.18737546 -0.21237198
-0.30277106 -0.26206443 -0.13132805 0.052241083 0.05292498 -0.101554714 -0.1284609 0.02113461
-0.026568217 0.0035474699 -0.33411545 -0.42146865 0.20630886 -0.22089915 0.20226975 -0.094202645
0.25706908 -0.28076187 0.28225863 -0.21571566 0.037445646 -0.119696915 -0.012241424 0.050868794
0.048488062 0.07325529 0.22637433 0.0793958 0.090360224 -0.5725966 0.5169431 -0.25905794
0.021741487 0.0065875533 -0.08033046 -0.015507073 0.011234603 -0.024843935 -0.06078858 -0.031693507
-0.029533092 -0.016139165 -0.02057349 0.020838927 -0.25546625 -0.7345782 1.1139442 -0.61691797
0.15100236 -0.04688749 0.14469075 -0.2179173 -0.13103871 0.048213243 -0.11891303 0.06821463
-0.1137507 -0.09777011 -0.0147187365 -0.07742021 -0.15043359 0.1379491 0.1304316 0.2774582
-0.27815372 0.42946103 -0.3109744 -0.17635225 -0.03946847 0.28961375 -0.0024662537 0.40815204
-0.4776021 -0.016856799 -0.43846926 0.048833497 -0.4361091 0.1509144 -0.19729888 0.25429237
-0.32263294 -0.11322679 -0.00088736945 0.5736499 -0.06769936 -0.05064072 0.07910518 -0.039257765
0.08007404 -0.050350092 -0.033652727 -0.0026496828 0.027922358 0.023108138 0.062183138 -0.07562312
-0.31498167 -0.292147 -0.6542604 -0.69041646 0.09142637 -0.023642566 0.009747443 0.026285307
0.24865082 -0.015380558 -0.010618072 -0.037837863 -0.045623574 -0.01612514 -0.079311565 0.024911445
0.06970968 0.32872817 0.6168773 0.08879067 -0.04268927 -0.018618308 0.09106755 -0.100508854
-0.09103003 0.26411942 -0.17251328 0.647894 -0.42835176 0.0931208 0.27675566 -0.66888636
-0.28626028 0.32480705 0.12121771 0.08058592 -0.4016367 -0.2060464 0.26420885 0.58781725
-0.07808041 -0.013962792 -0.012708406 0.03886149 0.010510188 -0.055908576 -0.026567811 -0.011348246

actor.0.bias f4 [512]
00000000: e6d6 a0bd ac76 373d 0d96 ccbb 4810 9abd
00000010: 3621 8bbd 3e7a 92bd 45c4 883d 92c7 c73d
00000020: e16d 543e 81ab 203e 5e35 50be d2ed 2e3d
00000030: 23ca adbd 38ec fd3d 5b33 32bc 8c63 16bd
00000040: ec00 07be ed1f 013d b81a d53c d697 75bd
00000050: 0a30 a9bd d8d6 e4bb 2af3 9bbd 8c04 37be
00000060: abae a3bd 83f6 063d ca6b 183e 0262 88bd
00000070: fb2b c2bc 9474 f53d b6fc b33d 1cb6 8ebd
00000080: 45c0 63bd 3395 aa3d 4d97 1abe 2dd5 b7bd
00000090: d670 033e 7165 85bd 8bbf c33d 5ff0 cb3d
000000a0: a41e dabd e325 25bd b6b2 d5bc 4e8a bbba
000000b0: a50a 003e fe21 443c 173d 0f3b 7b86 01be
000000c0: d8d6 113e f12b 0fbc 0088 143d 3873 5abd
000000d0: 8b8d 023d 1f77 babd e24e 96bd 682d 09bc
000000e0: 9d1b 89bd 5e70 1cbe b382 f63d 88f9 ff3c
000000f0: 3440 b33d b53b 16be 3877 9bbc 328e 9f3d
00000100: 55b9 003d b3cf 43be c5db a63d 0356 993d
00000110: c312 343e 08c9 903c 5fee 2bbe e345 c6bc
00000120: f9ed 92bb 34c7 54be 33a3 c9bd a2ae bbbd
00000130: 8f21 07be 7a69 f83c 6a31 f9bc 2cfa 1c3c
00000140: 979b 03bd 32a5 1abe f024 5cbe 67bf 66be
00000150: 9304 1d3b 9eae 733d 755f 923d 4ce0 233d
00000160: bac8 05bd 35af 0cbc 96a1 e23d 1f03 c3bd
00000170: 1d1a 17bd 53a8 d63c 6265 5c38 5a23 ea3d
00000180: 8dff 263d 493a b03c cd43 12be 9a2a 323d
00000190: 819d 95bc b96f aabd e743 6dbd bbaa 3ebd
000001a0: 0661 23be dc7e 69bc eed2 09be e322 7abd
000001b0: 2674 63bd c3d7 06bd c33b 893d 7888 283e
000001c0: 9cb1 7b3c 587e 2a3d ff50 413c e9a7 a63d
000001d0: d77e 9ebd 8487 c1bd b1ba 1b3e cfb5 073d
000001e0: 63f0 58be 7b63 2dbd 41aa 81bd bc81 183e
000001f0: d692 33be b068 17be 0113 39bd 31d4 7cbb
00000200: c7af f13d 20bb 643d f364 12be ad87 24be
00000210: 2053 243e 7b56 0ebd f6bf 8c3d e67c 213e
00000220: 6fd5 523b 9723 50be 8458 a9bd a87d b4bd
00000230: be50 cb3d f292 043e f4a9 4dbe c697 f63c
00000240: 1796 c7bd f243 8ebc 45b8 16be 5f21 6e3d
00000250: a8d0 2b3d 5870 fdbc 8f91 68bd 8419 1cbd
00000260: ca57 8ebd ce05 04bd 2992 903d 7799 e93d
00000270: a5c4 963c 5d5c 043d 6956 71bd b8e7 bebd
00000280: ae80 92bd 660c dabd 5e03 afbd 4f6f dcbd
00000290: e838 0e3e a5e7 1d3d 478e a0bc bf1c adbd
000002a0: 6488 27be 8f04 8cbd a3f5 083d 0a0b 87bc
000002b0: 29eb aa3c 1e9c 45bd fca4 c43c 70fb a93c
000002c0: 762d 77bd 9600 56bc 083b 88bc fed4 c93d
000002d0: c37e 46be 7279 8e3d 110a b13d 0537 39be
000002e0: d282 d9bc ca81 66bd 4eca febd a722 f3ba
000002f0: 4249 36be b76f 903d b701 723c 389b 5dbe
00000300: 1bd0 133e 4ed6 463d b68a cf3d 5228 463c
00000310: 7614 223e 2558 aa3d e40a a43c c783 75bd
00000320: eec8 c0bd 6cfe 63be b58f 93bd 7beb c73d
00000330: 837b b53c 6621 0dbc bbfe c53d 2772 3b3d
00000340: b94a 6e3d e799 82bd 2e2f 8bbd a934 af3c
00000350: e216 72bd be97 ebbc 2866 27be 1790 70bd
00000360: 3712 b3bd ce36 273d 646a 0f3d 8963 adbd
00000370: 38f9 093d 1337 f03d 56bf 02bd d541 5dbd
00000380: 9e4d a83d 666c 13bd 5dc7 bdbd 9ee6 b8bd
00000390: 74a4 0ebe 4595 2fbe 4f6f a43c 2d20 1f3e
000003a0: c327 d93d 813a 85bc 3e5c 353c 62f9 6d3d
000003b0: 0e50 20be c8c0 b03d e832 c8bc 3a7e fcbd
000003c0: 44bb 8a3d 666c babd d5f7 fe3d 4e65 3abd
000003d0: d1e6 5d3c 981e 913d e132 a63d 96df 81bc
000003e0: e427 2a3d 7d07 6f3d a208 a43c 14d6 70bd
000003f0: 0780 263e db8e 2abe d348 c23d 0c3e edbd
-0.078534886 0.04479091 -0.0062434734 -0.07522637 -0.06793444 -0.07152222 0.066780604 0.09754862
0.2074504 0.15690424 -0.20332858 0.042707272 -0.0848582 0.12398571 -0.010876502 -0.03671603
-0.13183945 0.031524587 0.026013717 -0.059959255 -0.08261116 -0.006983619 -0.07614739 -0.17872828
-0.079923 0.032949936 0.14884868 -0.066593185 -0.023702612 0.11985126 0.08788435 -0.06968328
-0.055603284 0.08329239 -0.15096779 -0.08976207 0.12836012 -0.06513489 0.09558018 0.099579565
-0.106503755 -0.040319335 -0.026086193 -0.0014308186 0.1250406 0.011970995 0.002185648 -0.12648956
0.14242113 -0.008738504 0.036262512 -0.053332537 0.031873267 -0.09104752 -0.073392645 -0.008372642
-0.0669472 -0.1527724 0.12036648 0.031246915 0.0875248 -0.14671214 -0.018977746 0.077907935
0.031426746 -0.191222 0.081473865 0.074871086 0.17585282 0.017673984 -0.1679015 -0.024203246
-0.004483935 -0.20779115 -0.09845581 -0.09164168 -0.13196395 0.030323733 -0.03041907 0.00958113
-0.032130804 -0.1510208 -0.21498466 -0.22533952 0.0023959025 0.0594927 0.07147113 0.040008828
-0.03266213 -0.0085866945 0.11065976 -0.0952208 -0.036890138 0.02620331 5.2546508e-05 0.11432524
0.040771056 0.021512168 -0.14283676 0.04349766 -0.01826358 -0.08322091 -0.057926085 -0.04654954
-0.1595498 -0.014251437 -0.1345937 -0.061068427 -0.05553069 -0.03292061 0.06700852 0.16458309
0.01536217 0.041624397 0.011799096 0.08137495 -0.077390365 -0.09449676 0.15207936 0.03313237
-0.2118545 -0.0423312 -0.063313015 0.1489324 -0.17536482 -0.14786029 -0.04518414 -0.0038578624
0.11801105 0.05584252 -0.14296322 -0.16067381 0.16047335 -0.034750443 0.06872551 0.15770301
0.0032170673 -0.20326076 -0.08268836 -0.088130295 0.0992751 0.1294668 -0.20084363 0.030101668
-0.09745424 -0.017366383 -0.14718731 0.058137294 0.041947037 -0.030937359 -0.05677944 -0.03811027
-0.06950338 -0.0322321 0.07059128 0.11406224 0.018404314 0.032314647 -0.058920298 -0.093215406
-0.0715345 -0.10646896 -0.08545564 -0.10763418 0.13888896 0.03855099 -0.019599093 -0.084527485
-0.16360623 -0.06836807 0.033437382 -0.016484756 0.020864086 -0.048244588 0.024004452 0.020749778
-0.06034609 -0.013061663 -0.01662971 0.09855078 -0.19384293 0.069567576 0.08644498 -0.18087395
-0.026551638 -0.05627612 -0.1244093 -0.0018549756 -0.17801383 0.07052558 0.014770917 -0.21641243
0.14434855 0.04854422 0.10133879 0.012094574 0.15828118 0.083175935 0.020024724 -0.059940126
-0.09413324 -0.22265023 -0.07205144 0.09761711 0.022153622 -0.00861392 0.096677266 0.04576316
0.05817673 -0.06377011 -0.06796108 0.021387415 -0.059103854 -0.02875888 -0.16347563 -0.058731165
-0.087437086 0.04082375 0.03501357 -0.084662504 0.03368494 0.117292546 -0.031920753 -0.05401786
0.08217929 -0.03599205 -0.09266541 -0.09028362 -0.13929921 -0.17146786 0.020072607 0.15539618
0.10603287 -0.016263248 0.0110693555 0.058099158 -0.15655538 0.0863052 -0.024438336 -0.12328763
0.06773999 -0.091027066 0.12449614 -0.045506768 0.0135438 0.070859134 0.08115173 -0.015853684
0.04154195 0.05835675 0.020023648 -0.05879791 0.16259776 -0.16656058 0.09486546 -0.115841

actor.2.weight f4 [256, 512]
00000000: 096a 493e 8eda b9bd e090 bb3d be2c 9bbd
00000010: afc2 92bc c1d8 7fbd 4471 9ebd 042e b3be
00000020: 8465 04be e06e 1e3e cd4a a63d c97f d6bc
00000030: 5bac 0f3e 7cf9 f73c edde 94be 2354 fd3d
00000040: fcb3 1ebd a918 9e3d 6ee8 50be d5fe a5be
00000050: 59ca 75b9 12a0 053e b044 54bd f3b8 563d
00000060: f80d 733d 9574 02bd 0bab 44bb 217f 063d
00000070: 3463 843e 8f4d 843c 821f 95bb daab 2abe
00000080: abd5 093c 578d 5cbe 598c 643d 57ae 163e
00000090: 0352 85bd 2d8b 27be b819 fb3c b1f8 cbbc
000000a0: 3f5f 52bc 724d 9a3d 7779 23bd 514a 35be
000000b0: ff79 2ebc 613f b6bd 5a2a c13d 4914 30be
000000c0: 2161 d3bd 23e3 243e d9e0 113d 628f 34bd
000000d0: 9bab 793d 6489 1cbd c4de 8bbc a366 b8bc
000000e0: 3db2 f4bc a46e 733d 5148 b4bc 412a babd
000000f0: 88b5 c03d deba 453e 9d62 d8bd a0f1 30be
00000100: 9e63 1fbe 62e1 46bd 3f1d 4d3e c072 2e3c
00000110: f4de da3d 7b89 9c3b 9036 193d 2ef1 6d3e
00000120: 8882 21bc 4af3 d43d c7bd b63d 0ed2 5d3d
00000130: 9291 2ebe 69ac 7d3e c639 a6be d477 bfbd
00000140: 1f6f c33d 78ff 6a3e b811 fd3d f1a2 a93c
00000150: 44dc 623e 9eb8 123d 42d8 e03c 2109 4f3e
00000160: 892c 49be daa3 92be daf2 34bd e882 2d3e
00000170: e00e c5bc e1c9 e13d ee32 e13c 8d89 843e
00000180: 3a36 393e 22aa 203d 55ad 073e 9062 79be
00000190: 24d7 4abe 9eef 6ebe 807b d8bd 8369 5e3d
000001a0: 93f9 01bd 9823 e6bc 1cd5 923d 0999 713d
000001b0: 2b5f 943d 6970 c2bd aee3 c2bd 2e07 d43d
000001c0: 2985 77be 79ea 26be 2ebb 6dbe 0927 533d
000001d0: dd74 883d 4554 f6bc c84c 55bd aea9 51be
000001e0: b499 833d 731e bdbe 226e 0a3e 180d ec3c
000001f0: 547b 8d3d e709 e1bd d7e9 8bbd 34b8 853e
00000200: cf98 0abe 6d0e 70bd 72e4 323e a82a fb3d
00000210: aeb9 323e 1647 1b3e e9e2 2fbe e398 773e
00000220: aa7e 2fbe 5edb f13d 0842 0b3e 0ccc 083e
00000230: ffd3 873d 3798 783d 6609 ba3c 7fbf 8f3d
00000240: f71d b8bd d650 b03d eca9 0cbe 0101 2abe
00000250: dded 3dbd 8f47 ea3d 5d5e 543e 840a 053d
00000260: 9935 5fbe bde7 40be de27 993c 178f bc3d
00000270: 6e5e b4bd 6d9c 70bc d2f2 d23e d87d 2d3d
00000280: 792d bc3d e376 0b3d 96e2 a1bc fa94 38be
00000290: f42e ea3d 728f d9bd b661 283e dd18 73bd
000002a0: 681f 183d cdad 19bc b932 5cbe 34f5 5d3b
000002b0: b8ea 4e3d 2a40 3b3e 4438 ecbc 2093 ecbd
000002c0: 63ed f43d ca17 7f3c 2fc3 643d 8f22 ad3d
000002d0: e09a 873e b501 ffbd 3a17 13bd 65f3 7a3e
000002e0: f991 d13d b026 65bc 1e0c 023e abd0 7f3d
000002f0: 9d8c 103d 8555 aabd 012d 6dbe a664 b93d
00000300: 337b 9f3e a7c6 003e 5a44 853c c8ce 3ebe
00000310: 136a 953d 9ff8 14bd 8565 49bd a522 b93d
00000320: 1252 35be e1b0 56bd 34f2 25be 6476 74be
00000330: 8f8e fa3d 5e9a f63d 0110 be3d 4a00 1dbc
00000340: 4bc8 efbd 8e5c 393d a240 b23d 8a96 febc
00000350: 3d4e 8b3e d7d8 bb3d 56e0 673d baa1 81be
00000360: c1f5 93bd d1db d33d 63fb a23e cfc6 1f3e
00000370: 6bee fabd 6651 3cbe 649b a13d e9e0 aabe
00000380: 08a7 2cbd 0f38 643d 3d93 d23c dc01 943e
00000390: 74d9 77bd 42b1 acbd f0f0 f53d 3dac 09be
000003a0: 6d01 8abd dd19 903d d158 e4bd 62f2 fbbd
000003b0: bc90 2c3d 7a58 ac3d f7fb 5abd 8eb1 283d
000003c0: 0fc8 a73d 3937 b53c edbd 3c3e 4dd3 113d
000003d0: bef6 6d3d 82ed af3d f7db 1dbd 101f 823d
000003e0: c7a3 593e 4c42 58be 9eec 1bbd 9604 233e
000003f0: 2394 2cbd b854 d53a 5f16 8d3e 40a9 b63d
0.19669355 -0.09074889 0.09158492 -0.07576893 -0.017915098 -0.062462572 -0.077364475 -0.34996045
-0.1292935 0.15471983 0.08119736 -0.02618398 0.14030592 0.03027033 -0.2907633 0.123695634
-0.038745865 0.07719547 -0.20401165 -0.32420984 -0.00023440401 0.13049343 -0.051823318 0.052422475
0.059339494 -0.031849463 -0.0030009176 0.032836083 0.25856936 0.016150264 -0.004550875 -0.16667119
0.008412759 -0.21538292 0.05579791 0.14714943 -0.06509783 -0.16361685 0.030651912 -0.024898859
-0.012840091 0.07534303 -0.03991076 -0.1770413 -0.010649203 -0.08898807 0.09431906 -0.17195238
-0.1032126 0.16102271 0.035614822 -0.044082053 0.06095467 -0.038216963 -0.017073996 -0.022509879
-0.029870147 0.059431687 -0.02200714 -0.090900905 0.09409624 0.19309565 -0.10565684 -0.17279673
-0.15565345 -0.048554786 0.20030688 0.010647476 0.10687056 0.004777131 0.03740555 0.23236534
-0.009857781 0.10397966 0.08922916 0.054155402 -0.17047718 0.247728 -0.32465953 -0.09349027
0.09542679 0.22949016 0.12356895 0.02070758 0.22154337 0.035820596 0.02744687 0.20218326
-0.19645895 -0.28640634 -0.044176914 0.16944468 -0.024054945 0.110248335 0.027490105 0.25886193
0.18087092 0.03922475 0.13249715 -0.24354005 -0.19808632 -0.23333594 -0.10570431 0.054299843
-0.031732153 -0.028093144 0.07169554 0.058983836 0.07244714 -0.09494097 -0.09516083 0.10352932
-0.2417189 -0.16300382 -0.23215935 0.0515509 0.06662915 -0.03006948 -0.052075177 -0.20474884
0.06425801 -0.36937293 0.13518575 0.028814837 0.069082886 -0.10988217 -0.06831711 0.26117098
-0.13534854 -0.058607507 0.17469957 0.122639954 0.17453644 0.15163836 -0.17176403 0.24179415
-0.17138162 0.11809419 0.13599408 0.13359088 0.06632232 0.06069204 0.02270956 0.07018947
-0.0899009 0.08609168 -0.13736695 -0.16601945 -0.046369422 0.1143943 0.20739122 0.03248073
-0.2179779 -0.18838401 0.018695768 0.0920698 -0.088070735 -0.014685732 0.41200882 0.042356342
0.09188361 0.034048926 -0.019761365 -0.1802558 0.11434737 -0.10623063 0.16443524 -0.059349883
0.037139326 -0.009379816 -0.21503724 0.0033868076 0.050516814 0.18286195 -0.028835423 -0.11551499
0.119593404 0.015569637 0.055850204 0.08453857 0.26485348 -0.124514975 -0.035910822 0.2450691
0.1023292 -0.013986275 0.12699935 0.06245486 0.03529035 -0.08317093 -0.23161699 0.090524
0.3114868 0.1257578 0.016267944 -0.18633568 0.07295623 -0.036369916 -0.049169082 0.09039811
-0.17707089 -0.05241478 -0.16205674 -0.23873287 0.12234222 0.12041162 0.09280396 -0.009582588
-0.11708125 0.045254283 0.08703734 -0.031077642 0.2720813 0.09172218 0.056610428 -0.253187
-0.07224608 0.10344661 0.31832418 0.15603183 -0.12252506 -0.18390426 0.078909665 -0.33374718
-0.04215148 0.055717524 0.025704974 0.2890767 -0.060510114 -0.08432247 0.12008846 -0.1344461
-0.06738553 0.07036183 -0.11149753 -0.1230209 0.042130217 0.08415313 -0.05346295 0.041184954
0.08192455 0.022121059 0.18431826 0.035601903 0.05809664 0.08590223 -0.038539853 0.06353581
0.21253882 -0.2111904 -0.038067453 0.15919718 -0.04213346 0.0016275859 0.2755613 0.089190006

actor.2.bias f4 [256]
00000000: 04ea c7bd e0cc efbd c936 eabe f196 5cbe
00000010: ebf8 08be 1124 25be b4ff 39be 8833 eabd
00000020: 6dab 0dbe 63aa 78be dc03 84be 9a4d 8abd
00000030: 911f ebbd 8345 22be d067 0abf 3199 b8be
00000040: 4f3d 40bd 4e36 13be 7e61 ddbd cbd7 40be
00000050: 13b0 84be 25dd 89be 91bb f6bd 3509 78be
00000060: 5b07 36be 7f40 42be 8abc 3bbe 5c3a d8bd
00000070: c511 a3be cc8e edbc 5e30 68be 3377 60be
00000080: 9084 f3bd 3044 6dbe 0c72 6cbe 246b b4bd
00000090: a603 643e 7ee9 35be b811 ebbd 3865 acbd
000000a0: 48cf 1cbe 5ee1 8fbe 3e10 d9bd 5d6c 4bbe
000000b0: c5c3 acbd 1880 6cbe c016 d9bd ff52 78be
000000c0: 95e0 79be 60de 7abe 1590 cabe e9de 51be
000000d0: d0ef 61be f766 72be e1b8 0abe b923 2fbe
000000e0: 8a72 7a3d 4447 f5bd 40a2 e2bd 25df 09be
000000f0: fcca 2ebe 236b 40be 3e0c a3be 3fd8 4ebe
00000100: 410c 4ebe 6221 adbd e33f f9bd 3354 b7b9
00000110: dd86 c3bd 13f6 0abe bfc8 6cbe 8047 25be
00000120: c0cf e6bd 56fa 83be 8c17 51bd 71fc 2cbe
00000130: af81 d7bd c011 adbd 708b 66be 134a fabd
00000140: fa0d 5fbe d515 00be b7e5 7ebd 3536 04be
00000150: 68cb 44bb 5a04 97bd d77c 5cbe c942 3cbe
00000160: f418 0ebd 3736 a0be 49b5 f6bd adae debd
00000170: 8541 bbbe 1b25 ea3c c955 cabe 63e1 f33b
00000180: 4769 fdbd f94c 2abe 61d9 97bc 2dca 8abe
00000190: b54e 84bd e166 2bbf 0620 64be c1d2 80bc
000001a0: 4af0 5bbd 26e4 bcbd 9bdb 7abe b3ae 47be
000001b0: 8c9f 9ebd f834 8f3d 14f1 3ebe 2415 28be
000001c0: 1270 48be 561e 7abe f1c8 f3bd 9ea4 2bbe
000001d0: 695d 4abe ada6 b03d 68b7 f13c 9b09 aabd
000001e0: 4b18 99be 6d93 a4bd b8fb a7be 342e f2bd
000001f0: b263 4ebe d10e d7bd 458e fcbd 9e8b e3bd
00000200: 561b e5bd 07df 163d 0def abbd f433 84be
00000210: 49e6 70bd 29c9 8cbe b4d4 a3be 6062 0abe
00000220: 9d39 84be 2d70 20bd 60ba 0fbe 298b 86be
00000230: 2278 84be b765 03be 45c0 a5bd 9db3 1cbe
00000240: a325 eabd 010f 92bd 249c 42be 0727 08be
00000250: 6292 61be 03f9 18be a971 fdbd 5e30 debd
00000260: f8b5 b8be 3d5b ccbd f19c 02be c7e4 17be
00000270: 4415 19be f0cf 45be fbf2 64be 37ac 0ebe
00000280: 8b04 61be c4eb 69be 3cb8 3dbe 2ab2 55be
00000290: 96a4 f1bd 436b a6bd 426c 883d eadb a3bd
000002a0: 17da b8be 564d a5bd 9727 01be f11b 11be
000002b0: 73fb 44be 412e 0fbe fa86 46be 739a febd
000002c0: 61b2 a3bd f793 67be 9f44 59be 58eb 2ebe
000002d0: 9094 3ebe 7cfc 78be 6128 f5bd 46cf ddbd
000002e0: a62b 60be 90f2 2cbe ef57 10be ec56 66bd
000002f0: 2998 92be 55cc c6be 6838 14be 0744 aa3d
00000300: e512 44be 4caf 60be 13ca 72bc 6958 5abe
00000310: 8b6b 57be 27ab 2ebe fb87 0fbe 66ea b0bd
00000320: a76a edbd 1522 bbbd c82c b5be 0f6f 8ebe
00000330: 583a 59bd 7d95 de3d fa4d adbd d575 d2bd
00000340: e421 26bd 5d91 0ebe 88f4 ffbd 43e2 26be
00000350: 1ef3 413c f012 88be 20f0 6fbd dea1 a2be
00000360: 21a5 efbc 1554 06be 9684 35be 8d71 20be
00000370: 3044 b3be 0069 38bd b831 3abe 10ca 66bd
00000380: 5394 41be abd6 8cbe b415 58bd 7823 4ebe
00000390: 18de 2dbe aea7 02be dff9 5cbe c0b5 1dbe
000003a0: 3b0a 43be 18d9 e0bd fc1a 1ebe 9239 31be
000003b0: 90e0 e9bc 2ab0 aabe 1ef2 acbd d1ba 74be
000003c0: 8755 a3be 15a3 51bd 5dda eebc 5700 b7bd
000003d0: 94dc 9cbe 03e9 31be 472f 35be 3950 f6bd
000003e0: bcbe e23d f1d5 07be 08a2 76be 33da 26be
000003f0: a359 fabd 9688 57bd 55f9 1dbe 0db3 83be
-0.09761432 -0.11708999 -0.45744923 -0.21541955 -0.13376205 -0.1612704 -0.18163949 -0.1143561
-0.13834925 -0.24283747 -0.25784194 -0.067530826 -0.1148063 -0.15846829 -0.54064655 -0.36054376
-0.04693347 -0.14376184 -0.10809611 -0.18832318 -0.25915584 -0.26926532 -0.12047494 -0.24222262
-0.17776243 -0.18969916 -0.1833364 -0.10558006 -0.31849495 -0.028998755 -0.226747 -0.21920471
-0.11890519 -0.23170543 -0.2309038 -0.08809498 0.22267017 -0.17764851 -0.11477989 -0.084177434
-0.15313447 -0.2810163 -0.10598801 -0.19865556 -0.084357776 -0.23095739 -0.10600042 -0.2425041
-0.24402077 -0.24498892 -0.3956305 -0.2049519 -0.22064137 -0.2367209 -0.13547088 -0.17103471
0.06114439 -0.119764835 -0.11066103 -0.13464029 -0.1706962 -0.1879087 -0.31845278 -0.20199679
-0.20121862 -0.08453633 -0.121703885 -0.00034967213 -0.095472075 -0.13570432 -0.23123454 -0.16140556
-0.11270094 -0.2577693 -0.051047847 -0.16893174 -0.10522782 -0.08450651 -0.22514129 -0.1222116
-0.21782675 -0.12508328 -0.062230792 -0.12911303 -0.0030028466 -0.07373877 -0.21531998 -0.18384852
-0.034691766 -0.31291363 -0.12046296 -0.108731605 -0.36573425 0.028582146 -0.39518574 0.0074426397
-0.12373596 -0.16630925 -0.018536272 -0.27107373 -0.06460325 -0.66953856 -0.22277841 -0.015725495
-0.053695954 -0.09223203 -0.24497835 -0.19500236 -0.07745275 0.06992525 -0.18646652 -0.16414315
-0.19574001 -0.24425635 -0.11903561 -0.16762015 -0.19762196 0.08625541 0.0295064 -0.08302613
-0.29901347 -0.08035932 -0.32809234 -0.11825219 -0.20155218 -0.10500873 -0.12331823 -0.11110614
-0.111868545 0.03683379 -0.08395205 -0.25820887 -0.058813367 -0.27497223 -0.31998217 -0.1351409
-0.25825205 -0.03916948 -0.1403594 -0.26278046 -0.25872904 -0.1283177 -0.08093313 -0.15302892
-0.1143296 -0.07131768 -0.19004875 -0.13296138 -0.22028497 -0.1493874 -0.123751946 -0.10849069
-0.3607633 -0.0997834 -0.12755181 -0.14833365 -0.14949518 -0.19317603 -0.22358315 -0.13932882
-0.2197439 -0.22843844 -0.18527311 -0.20868745 -0.117989704 -0.08125927 0.066612735 -0.0800093
-0.3610389 -0.08071391 -0.12612759 -0.14170815 -0.19236545 -0.13982488 -0.19387427 -0.124318026
-0.079930075 -0.22615038 -0.21217583 -0.17081964 -0.1861136 -0.24315065 -0.11970592 -0.1083055
-0.2189165 -0.16889405 -0.14096044 -0.05623524 -0.28631714 -0.38827768 -0.14474642 0.083137564
-0.19147833 -0.2194187 -0.014818686 -0.21322788 -0.21037118 -0.17057477 -0.14016716 -0.08638458
-0.11592608 -0.0913736 -0.35385728 -0.27819106 -0.053034157 0.108683564 -0.084621385 -0.10276381
-0.040559664 -0.13922639 -0.124978125 -0.1629725 0.011837749 -0.26576948 -0.05857861 -0.3176412
-0.029253544 -0.13118012 -0.17726359 -0.15668316 -0.3501296 -0.04502201 -0.18183029 -0.056345046
-0.18904237 -0.2750753 -0.052755073 -0.20130718 -0.16979253 -0.12759277 -0.21579693 -0.15401363
-0.19046871 -0.10978907 -0.15439981 -0.17307118 -0.028549463 -0.33337528 -0.08444618 -0.2389939
-0.3190119 -0.051180918 -0.029156858 -0.08935612 -0.30637038 -0.17374043 -0.17693816 -0.1202702
0.11071536 -0.13265206 -0.24085248 -0.16294174 -0.12224128 -0.052620493 -0.15427144 -0.25722542

actor.4.weight f4 [128, 256]
00000000: 366c 07be 5834 aa3c 533b f93d 779d 07be
00000010: fe87 7e3c 64ae 953d 113a acbd fe9d 78be
00000020: 339a b23d dcf8 2cbe 6ff8 4fbd dd55 93bd
00000030: a345 bc3c c1a9 293e 086a 8c3e 025f 223c
00000040: 25a8 a4bd 054f 22be 3160 2cbd abd0 033d
00000050: d9a7 363d 3872 0e3d cfd2 363e 0384 d53d
00000060: cf3e d13d f326 973c 100d babb d1db 7e3e
00000070: cdcc 7d3e 7f83 1ebe 01bc 1abc 7a3e 98bd
00000080: 4e44 d93d c3a3 613e fe30 6e3d 064b f83d
00000090: 53f2 36bd a92c 903e 27e2 163d 554d 853c
000000a0: 6037 533e 5c33 b7bd 1b64 9c3a 1806 133d
000000b0: 0db8 26bd 3f04 adbb fce0 0f3e 8d92 f33d
000000c0: 0fcd 573e aee2 60bd 6558 b23e 5e3b 14bd
000000d0: 8870 a23d a6b4 f1bb 8ab6 f9bb f7eb 423e
000000e0: 7966 24be fdb1 13ba f5c3 593c 7ea5 053e
000000f0: 7679 69be 09ca 89bc e8f8 133e 4fe2 033e
00000100: 5048 b3bd 2ba7 40be 472c f33d 6a15 4cbb
00000110: dd65 31be c30c e83d 2ef3 b33d 017b 5dbc
00000120: 6706 123e 078c 8e3d f5ab 833b 09d4 933e
00000130: 0e14 0f3c 1e24 483c 9ae6 d23d 3fe9 ab3d
00000140: 072a 123d 89b0 923e 4379 883d 831b 5b3d
00000150: f0a7 a53d c427 2d3c 7bb3 b63d 188d 59bd
00000160: 68e7 e3bd 9728 1cbe dacd 873e 0068 0cbe
00000170: 7819 413e b607 75bc f4d9 813e ee23 6cbd
00000180: a37a 123e 1a83 cd3c fbae 203e f064 a93d
00000190: 896a 5cbd 0364 cc3d 25d5 193e f4dd 593e
000001a0: 4ef8 953d 2c6f 333e c621 82bd 2330 ad3c
000001b0: da64 ab3d 4b8d a0bd 771a e7bc bfff 55bd
000001c0: 23bb a03d db96 f3bd c0b3 c2bc bb34 403e
000001d0: b736 4a3d 2e52 2dbe 9673 b33d 3f30 05be
000001e0: 650b c73d adff ea3c 15bb c73c 09ce 5e3e
000001f0: d04e aa3d 7ce7 73bc db36 19bd 39cb 113e
00000200: 96f3 cd3d 1fe3 98be 094d ed3d 5ce7 2c3e
00000210: ade0 7dbd c38e 573d 2818 06bd 38fb 4abe
00000220: 93ee 4c3e 2793 2bbd 0802 77b9 23bf 9b3e
00000230: a694 3f3e 946b 433d 01d5 afbd 6fdd 6e3d
00000240: 1ecd 0c3e 7087 2e3e 461e 02bc 0610 0cbd
00000250: ac6d 9a3d 5feb 1d3c fb1c 2e3e 1533 14bd
00000260: 2fbf 183c 35d4 2b3e ebd8 6c3d 36cb d4bc
00000270: 7e2a 063d 3309 dc3c 289d 55bb 418c fa3d
00000280: a645 c3bd 7fda 91bd 93e9 d1be 37df 12be
00000290: 0941 ce3b 04ab 9ebd 7ddd 9abc 829f e4bd
000002a0: e0fb d03d cf36 833e 62aa adbd 2b73 903c
000002b0: e09e 1bbd 0cda 163c 4215 c93d 7c06 babd
000002c0: d23c 98bd ef5a 613d 5bfd f4bd fa82 acbd
000002d0: c74f 5c3d 77d5 d93d 2104 423d 82af 193e
000002e0: 6f34 b6bd 0720 a8bd fbf5 773d a553 8c3e
000002f0: b6b0 793d a630 b83d da02 54bd dca4 12be
00000300: 073a d4bc 8a7c 8d3e 3761 52bd f6b2 80bd
00000310: e4eb 2d3e 547f cc3d 0ee6 683d f5a1 a13c
00000320: ce42 8abd 0e93 95be e574 6a3b fdc7 393e
00000330: d112 973d 314d f9bd 0979 11bc fced 1d3d
00000340: b76d 053d 6613 3b3e d0bb cd3c 2f9f d13d
00000350: 8e27 60be 4d26 8a3e e45c 85be 57e0 a73d
00000360: e836 95be 0737 c83e b879 3e3e 73d4 d93e
00000370: 9514 2c3e 2265 083d 3921 a0bc 1e64 cb3d
00000380: f16b f63d 77b6 f8bc ab8f 433c a66f 333e
00000390: 1cee 183e 5608 abbc ab90 8cbc b391 2c3e
000003a0: 7054 1b3e e2a6 fabd 3898 9a3e 427c 833e
000003b0: 818c cebd af36 3e3e b36a 30be 9339 bebc
000003c0: 7feb 183e 7c4b b13d e7c5 b8bd a7b3 ef3c
000003d0: 8f1a a8bc 9893 583d 23c3 963d 6f66 f23d
000003e0: d4cc 62bd eca2 953e b538 64bd 42bc 213e
000003f0: b16d 143d 0588 2dbd d74d 44bd 31e0 a63d
-0.13224873 0.020776913 0.12169518 -0.13243662 0.015535353 0.07308653 -0.08409513 -0.24279019
0.087208174 -0.16891807 -0.050774034 -0.071941115 0.022982424 0.16568662 0.27424645 0.009910347
-0.080398835 -0.15850456 -0.042083923 0.032181423 0.044593666 0.034776896 0.17853855 0.1042557
0.10217058 0.01845119 -0.0056778267 0.24888541 0.24785157 -0.1547985 -0.009444238 -0.074337915
0.10608731 0.22035126 0.05815219 0.121236846 -0.044664692 0.28159073 0.03683677 0.016272226
0.20626593 -0.08945343 0.0011931689 0.035894483 -0.04070287 -0.005280047 0.14050668 0.11893187
0.21074317 -0.05490368 0.34833065 -0.03618943 0.0793162 -0.0073762713 -0.0076206373 0.19035326
-0.16054715 -0.00056341273 0.013291349 0.13051412 -0.2280024 -0.01681997 0.14450419 0.12879299
-0.08754027 -0.1881377 0.118736796 -0.0031140693 -0.17324014 0.11330559 0.08786617 -0.013518096
0.14260255 0.06960302 0.0040183016 0.28872707 0.008732809 0.012215642 0.1029789 0.083940975
0.03568461 0.2865031 0.06663754 0.053493034 0.08088672 0.010568563 0.08920952 -0.053113073
-0.111281216 -0.15249859 0.2652424 -0.13711548 0.18857372 -0.014955452 0.25361598 -0.057651453
0.14304595 0.025086928 0.1569175 0.082712054 -0.053812537 0.09980013 0.15022714 0.21276075
0.07322751 0.17522877 -0.06354098 0.021141117 0.08368845 -0.078394495 -0.028210862 -0.05224585
0.078481935 -0.11894008 -0.023767352 0.18770115 0.049368586 -0.1692588 0.08762281 -0.13006686
0.0971897 0.028686369 0.0243812 0.21758284 0.083158135 -0.014886733 -0.03740583 0.1423768
0.10056226 -0.2986078 0.11586959 0.16885132 -0.061981846 0.052626383 -0.03273788 -0.19822395
0.20012884 -0.041888382 -0.00023556512 0.30419263 0.18709049 0.047710016 -0.08585549 0.058316644
0.13750121 0.17043853 -0.007941788 -0.03419497 0.075404495 0.009638636 0.17003243 -0.036181528
0.0093229255 0.1678017 0.057824057 -0.025975805 0.032755367 0.026859855 -0.0032594893 0.122337826
-0.09534769 -0.07121753 -0.40998515 -0.14342962 0.006294374 -0.077474624 -0.018904442 -0.11163236
0.10204291 0.25627753 -0.084797636 0.017633041 -0.037993312 0.00920726 0.09818508 -0.09083268
-0.074334756 0.05501836 -0.11962386 -0.08423419 0.05378702 0.10636418 0.04736722 0.15008357
-0.0889672 -0.08209234 0.06053732 0.27407566 0.06095954 0.08993654 -0.051760532 -0.14320701
-0.025906576 0.27634078 -0.051362243 -0.06284134 0.16984516 0.099852234 0.056860022 0.019730547
-0.06751023 -0.29213756 0.003577524 0.18142696 0.07376636 -0.12172926 -0.008878955 0.038557038
0.032575335 0.18269119 0.02511397 0.1023544 -0.21890089 0.26982346 -0.26047432 0.08197086
-0.29143453 0.39104483 0.1860112 0.42544898 0.16804726 0.033299573 -0.019547092 0.09931205
0.12032307 -0.030360444 0.011936109 0.17523059 0.14934582 -0.020877998 -0.017158827 0.16852455
0.15168929 -0.122388616 0.3019426 0.2568074 -0.10085393 0.18575548 -0.17228203 -0.023220813
0.14933585 0.086569756 -0.09022122 0.02926047 -0.020520477 0.05287513 0.07361438 0.11835944
-0.05537112 0.29225862 -0.055718143 0.15794471 0.036237422 -0.042366046 -0.047925796 0.0814823

actor.4.bias f4 [128]
00000000: 2958 22be 4ed4 dcbd 208a 72be 57e7 cdbe
00000010: 5539 ccbd beef 2bbe 2df7 b4bd f979 cebd
00000020: 2f04 27be b06d 30be daa9 45be 5ad2 b0bd
00000030: 3116 08bd a1f1 65be 6219 2bbe 3f63 1abe
00000040: 2c1d 1bbe 44de 0cbe 2761 79be e237 c4bd
00000050: 1c76 6ebe 1d87 95be ad7e 66bd 34e5 ebbd
00000060: d17e 00be d9cd 15be 2757 8cbe f583 58be
00000070: 79ad 55be 49af eabd e58c 30be 7886 8abc
00000080: 397e 97be da13 2abe 6e04 a3be 2455 5dbe
00000090: ad99 4dbe abe5 bebe 9458 acbe abc1 febd
000000a0: 0af7 dbbe 1b66 32be 2925 2fbe 3144 40be
000000b0: ef68 02be bfff 58be f11c 21be 6d8e 4fbe
000000c0: 2d7a e9bd cb7b a8be b4a7 81be ee64 59be
000000d0: c101 ad3b 8386 27be c0fa 36be c052 58be
000000e0: 98cc 08be ac6e debd 8281 d6bd 9c8c cfbe
000000f0: 8d04 6abe 9ca1 71be d9e4 d3bd bad0 1cbe
00000100: 04d0 9dbe 6e0d 69be 6bb6 babe 0ae1 93bd
00000110: 3485 a4bd 498f 45be e09e a4bd 26a6 4cbd
00000120: 25b8 fabc 4a48 9fbd 1bc7 53be 4dc9 aebd
00000130: 4efe 96bd f80c 64be a53d 94be bd7e 63bd
00000140: e9c6 48be f306 94bd 1be7 84be 1854 16be
00000150: 6095 23be d365 dbbd ac1f 67be e568 8bbd
00000160: 706d dbbe a741 93be 5b7c 9cbb 9583 babd
00000170: 1777 083a ccdf 11be e0d1 72be 3791 61be
00000180: f584 c3bd e84e dfbd 0e75 84be 61ae f3bd
00000190: f530 17be 656f 87bd 5334 26be a1f4 10be
000001a0: fd5c 08bf 42b0 a3be ccee 05be 6b4a e6bd
000001b0: 1c72 13be aa2f f7bd 3223 bfbd 19ba cbbd
000001c0: 1329 04be 3d5a 1fbe 320c 88be c141 84be
000001d0: b2df 87bd 2d24 e3bd 4ffa 343c 1580 bbbe
000001e0: 08d5 d2bc b470 88be f875 dbbd c81c 40be
000001f0: 4051 c2bc 929f adbd 0109 81bd 99b6 31be
-0.15853943 -0.107826814 -0.23685503 -0.4021556 -0.09971873 -0.16790673 -0.088362075 -0.10081858
-0.1631019 -0.17229342 -0.19303074 -0.086338714 -0.03322429 -0.22455455 -0.16708902 -0.15076922
-0.15147847 -0.13756663 -0.24353467 -0.09580971 -0.23287243 -0.29204646 -0.05627315 -0.115183264
-0.12548377 -0.14629306 -0.27410242 -0.21144088 -0.20866956 -0.11459214 -0.17241247 -0.016909823
-0.29588488 -0.16609135 -0.31839317 -0.2161451 -0.20078154 -0.37284598 -0.3366133 -0.12439283
-0.42961913 -0.17421763 -0.17104019 -0.18776013 -0.12735341 -0.2119131 -0.15733697 -0.20269175
-0.11400256 -0.32906947 -0.2532326 -0.21229908 0.00527975 -0.16359906 -0.17869091 -0.21125317
-0.13359296 -0.10860953 -0.104739204 -0.40536964 -0.22853298 -0.23596805 -0.103463836 -0.15313998
-0.30822766 -0.2275903 -0.364673 -0.07220657 -0.08033219 -0.1929294 -0.080381155 -0.04996314
-0.030605385 -0.0777746 -0.20681421 -0.08534489 -0.073727235 -0.22270572 -0.2895328 -0.05554079
-0.19607128 -0.07227888 -0.2595757 -0.14680517 -0.15974951 -0.10712781 -0.22570676 -0.068071164
-0.42856932 -0.28761026 -0.0047755665 -0.091071285 0.0005205734 -0.14245528 -0.23712873 -0.22028051
-0.09546844 -0.10903722 -0.25870556 -0.118984945 -0.1476477 -0.06613044 -0.16230898 -0.14155819
-0.5326689 -0.31970412 -0.13079375 -0.11244663 -0.14398998 -0.12069638 -0.09332885 -0.09947605
-0.12906294 -0.15561767 -0.26571804 -0.25831416 -0.06634463 -0.11090884 0.011046006 -0.36621156
-0.025736347 -0.26648486 -0.1071586 -0.18760979 -0.023720384 -0.08477701 -0.063005455 -0.17354812

actor.6.weight f4 [12, 128]
00000000: d611 9abd 5ed7 c33c 452b cf3c ca6e 463d
00000010: 6f8b 3bbc b705 433d 022e c53c 7817 b5bc
00000020: ac1f 6c3d c7ac 8f3c b49e 4e3d 80dc 453c
00000030: 9d0a 1c3d f63b 653c 22cf 3bbd c8fb b6bc
00000040: cfcb b5bc 6879 edbc 2240 1e3c 0343 4e3b
00000050: 453d ce3c 61c7 1abc 202e 113d 420c 853d
00000060: fc62 bd3c b2b2 84bd c2d3 283d 2501 cdbb
00000070: 7c5e 2e3b 91ef b33b bba6 b1bc ca38 973a
00000080: 7d7c c83b a311 17bd 24ba 053d 364e 093d
00000090: dd96 5c3d 7993 ff3c f7ae ce3b fe2b 82bd
000000a0: e80f e9bc 5729 9b3a 5d29 80bd 5745 233d
000000b0: 0b5c cbbc 9b77 20bb 7011 663b 4e86 a7bb
000000c0: 0742 cb3c e31b 773d 6cb7 6d3d 7f1b 28bd
000000d0: 8737 4cbd fed8 af3c abf7 17ba e51d ef3b
000000e0: c4dc 243c 4448 343c 72fb 4e3c 83ba 523d
000000f0: 34a7 fb3c 379d c4bc a46d 7b3a 8eca 83bc
00000100: 0c19 003d a619 c8bd 486b 2b3d 832a 813d
00000110: 802b 6c3d bf85 1d3d a047 1bbc c214 c7bc
00000120: 0736 ffbc 515e d33c cf2e a8bb aff2 a03d
00000130: 0bb3 08bd 7166 193d 79e1 04bc d1da 1ebc
00000140: 46ad d13c f2d6 52ba 5f4e 283d fa6f 74bc
00000150: 9a25 a3bc 4d2f 8fbc cf80 81bb 6e07 33bd
00000160: 10f5 97bc e4e8 113c 83e3 86bc cab9 44bd
00000170: 81ec bdbb c831 b13d 94b9 46bd 7abf 94bc
00000180: a7b7 5cbc ce59 37bc 2e9f fb3b fe70 23ba
00000190: a669 0b3c b4c1 523c 716c 023d c032 003c
000001a0: fa96 0abd 97ff b23b d4d2 9aba c3b2 80bc
000001b0: 354b 873c d243 6abc 2d47 c6bb efef cebc
000001c0: 1cd5 783c eac4 d6bc 3677 48bd 7b32 f73c
000001d0: 58fd 193c ca7c 06bd a1e1 64bd ffbf 4a3b
000001e0: bd4b 86ba 6e7e 283d 991c e1bc e63a 393d
000001f0: ecf6 0bbd 1b11 41bc 6d8e d6ba a314 98ba
00000200: 55b3 23bc 3797 88bc 5fca 72bc 65bc c13c
00000210: 0e38 82bd 58f3 10bc 1ebc edbc ad9b 033b
00000220: b92b 2fbd 1a63 683b 4e1b 54bc 6252 043d
00000230: 9beb 65bc 84a8 b43c f9f9 683a 3337 933d
00000240: be38 5bbc a2f7 7c3d b3f1 0fbd 827a 91bd
00000250: 2af3 40bc a532 13bc e988 1f3d bc8b 09bd
00000260: 319a eabc 0423 e6bb 576d b9bc af6f d4bb
00000270: 818f 76bc 2c45 a3bc 6131 cfbc fb15 f43c
00000280: 0fe8 913c 0c5e 1d3c 92a3 603b 429a 21bb
00000290: 26cc 833c 0901 40bc c049 81bd f571 033c
000002a0: cba2 4ebb 7b39 fa3c e0e4 f7ba 8d75 e23c
000002b0: a59b 24bd c4ce 37bb 2671 b83c d25f 613b
000002c0: 75bf ae3a f53f 5e3d 8f84 98bc c3c4 dc3c
000002d0: 1f54 cabc d63c 36bc 237c 783c e3b2 6cbc
000002e0: 8bc3 a3bc 1538 94bb ba2f f03a 759a 8abd
000002f0: 16bd 0b3c 4140 7cbc 0b86 293c 5afa ecbb
00000300: e100 23bc 23ee bd3c fcf1 8bbd 4d13 3a3d
00000310: 5aa4 7dbc dafc d33c b7c3 353c 0b93 c23c
00000320: 7889 79bc 6808 1cbb 3bbc 25bd bdef 283b
00000330: fa64 83bd 9492 78bd 068b ff3c 6a44 09bd
00000340: 7e73 91ba 5124 23bc fda9 453d 35f4 53bd
00000350: c50e 53bd 07e8 1c3c c681 8ebc 6fc8 743d
00000360: 214d 9d3b f63d 1f3b df59 eabc dea8 cbbb
00000370: 4f40 423c 57df 85bb 0b34 3c3d 4c5a 80bc
00000380: fe95 513d e12c 53bb 30b5 523c 0015 373c
00000390: 1ad2 b5bb 9c19 dd3c cb2b 543b 02a1 d23c
000003a0: 88bc 323b 947a 163d 66ca a2ba 473d eebb
000003b0: 5982 fbbb a782 8c3b 46dd 863c 099d be3c
000003c0: 24ae db3c 8b20 e0bc b3ab 0a3a bb0a 31bc
000003d0: caf0 1abc ee76 203d 522f cf3c 8e0e 1bbd
000003e0: aca6 763d 9c80 67bd 9430 993b 5da9 7ebc
000003f0: 089b 133c b036 1d3c 8a9a c83d 15aa 0ebd
-0.07522933 0.023906406 0.025289187 0.0484455 -0.011446818 0.047612872 0.02406979 -0.022105917
0.057647392 0.017538441 0.05044432 0.012076497 0.03809606 0.013991347 -0.045851834 -0.022336856
-0.02219191 -0.028988555 0.009658845 0.0031473048 0.0251757 -0.00944695 0.03544438 0.064964786
0.023118488 -0.06479396 0.041217573 -0.00625624 0.002660661 0.005491205 -0.021685949 0.001153731
0.006118356 -0.036882054 0.03264822 0.033521853 0.053854812 0.03119825 0.0063074785 -0.06356047
-0.028449968 0.0011837882 -0.062578894 0.03986105 -0.024824163 -0.0024485353 0.0035105608 -0.005112446
0.024811758 0.06032933 0.058036253 -0.041041847 -0.049857643 0.021465775 -0.0005797098 0.007297265
0.0100624 0.011003558 0.012633191 0.051447403 0.030719377 -0.024000747 0.0009591228 -0.016087797
0.031273887 -0.09770517 0.04185036 0.063069366 0.057658672 0.03845763 -0.009477526 -0.02430189
-0.031153692 0.02580181 -0.005132533 0.07858788 -0.033373874 0.03745121 -0.0081103975 -0.009695725
0.025595319 -0.00080428936 0.041090365 -0.014919275 -0.01991539 -0.01747861 -0.0039521228 -0.043708257
-0.018549472 0.008905623 -0.016465908 -0.048028745 -0.0057960157 0.08652073 -0.048516825 -0.01815771
-0.0134715205 -0.011190845 0.007678888 -0.00062347937 0.008509075 0.012863565 0.0318417 0.0078246
-0.03383539 0.0054625976 -0.0011812099 -0.01571024 0.016515354 -0.014298396 -0.0060509653 -0.025260894
0.015187528 -0.026216943 -0.048941813 0.030175438 0.009398781 -0.032833852 -0.05587924 0.0030937192
-0.001024596 0.041136198 -0.027479457 0.045222186 -0.03417103 -0.011783863 -0.001636935 -0.001160283
-0.009991487 -0.016673667 -0.014818757 0.023649404 -0.06358348 -0.00884708 -0.029020365 0.0020081804
-0.042766307 0.003545946 -0.012945963 0.03230513 -0.0140332235 0.02205301 0.00088873465 0.07188263
-0.013380228 0.0617596 -0.03514261 -0.07103445 -0.011776725 -0.008984243 0.038948927 -0.033580527
-0.028637977 -0.007023217 -0.022635145 -0.0064830403 -0.015048862 -0.019930445 -0.0252921 0.029795637
0.01781085 0.009604942 0.0034277183 -0.0024658595 0.016088556 -0.011718997 -0.06312895 0.008022775
-0.0031530138 0.030544987 -0.0018912815 0.027643943 -0.040187497 -0.0028046826 0.02251489 0.0034389389
0.0013332205 0.054260213 -0.018617896 0.026949292 -0.024698315 -0.011122903 0.015166315 -0.014446947
-0.019990703 -0.004523287 0.001832477 -0.067677416 0.008528968 -0.015396179 0.0103469 -0.0072319927
-0.00994894 0.023184841 -0.06833264 0.045428563 -0.015481079 0.025877405 0.011094025 0.023751756
-0.015230529 -0.0023808721 -0.040462714 0.002577766 -0.06415744 -0.060686663 0.031194221 -0.03351251
-0.0011097041 -0.009957389 0.048257817 -0.051746566 -0.051527757 0.009576804 -0.017395865 0.05976146
0.0048004542 0.0024298406 -0.028607307 -0.006215199 0.011856153 -0.004085462 0.04594807 -0.015668057
0.051168434 -0.0032222795 0.012860581 0.01117444 -0.0055487277 0.02698975 0.0032374735 0.02571154
0.0027273018 0.036737993 -0.0012419939 -0.0072704884 -0.0076754508 0.004288036 0.016462933 0.02326824
0.026816435 -0.027359268 0.00052898674 -0.010805781 -0.009456823 0.03917592 0.025291119 -0.037855677
0.060217544 -0.056519136 0.0046749804 -0.015543309 0.00900913 0.009595558 0.09795101 -0.03483017

actor.6.bias f4 [12]
00000000: 905c 3ebe a30a 2d3e adc2 873d 9cb3 b5bd
00000010: 2389 a7be 67be c73e 316c 1f3e 68a8 9fbe
00000020: 5da2 853d 79e9 60be 530f 763e 74b2 46be
-0.18589997 0.16898589 0.06628928 -0.088721484 -0.32721815 0.39012453 0.15568615 -0.3118317
0.06525109 -0.21964063 0.24029283 -0.19404012
