src/ga_quadruped/policy/param_action.onnx (onnx, 772885 bytes, 8 tensors)

actor.0.weight f4 [512, 52]
0	0x3db5513e	0.08853386
1	0xbf0af46d	-0.54279214
2	0xbf5ae11a	-0.8549973
3	0xbec441fe	-0.38331598
4	0x3df0a670	0.117504954
5	0x3db54f4a	0.08853014
6	0x3ea1964e	0.31559986
7	0xbbacdb4e	-0.0052751666
8	0xbd267ec2	-0.04064823
9	0x3d89f059	0.06735296
10	0x3c749ceb	0.01492999
11	0xbdd31ddf	-0.10308432
12	0x3ddf44ea	0.10901816
13	0x3d288eea	0.04115192
14	0x3cdc4394	0.026887693
15	0xbdd8d676	-0.1058778
16	0xbe786712	-0.24258068
17	0xbeab0cb5	-0.33408132
18	0xbc751bb5	-0.014960219
19	0x3ee19b1f	0.4406366
20	0xbd395b86	-0.0452533
21	0x3eb191e8	0.3468163
22	0x3ece3d6c	0.40281236
23	0x3e441523	0.19148688
24	0xbe82c49e	-0.25540632
25	0xbdb11a78	-0.08647627
26	0xbdc646b0	-0.09681451
27	0x3cb1907e	0.021675345
28	0x3d8d2e2d	0.06893573
29	0xbd05b06a	-0.032638945
30	0x3e673316	0.22578081
31	0x3e555e1a	0.20836678
32	0xbe1cd090	-0.15313935
33	0x3e6d18b7	0.23153959
34	0x3e1ded9a	0.15422669
35	0xbe11eefa	-0.14251319
36	0x3e28ea19	0.16495551
37	0x3e1ebe87	0.15502368
38	0xbd912031	-0.07086218
39	0x3d40c78f	0.047065314
40	0x3ce33f96	0.027740281
41	0xbccf0471	-0.025270673
42	0xbd5d3a8a	-0.054010905
43	0xbccaf80b	-0.02477648
44	0xbd4cffcd	-0.050048638
45	0x3d1b23bd	0.03787588
46	0xbba58712	-0.005051502
47	0x3cf7f5d3	0.030268585
48	0xbd0dd729	-0.03462902
49	0xbd236e17	-0.03989991
50	0x3d1b1d0c	0.037869498
51	0xbd0f2b3f	-0.034953352
52	0x3ee585fa	0.44828779
53	0x3f164fc5	0.5871547
54	0xbcef3733	-0.029201126
55	0x3e9e92eb	0.30971465
56	0xbe6a103a	-0.22857752
57	0xbdb13aa6	-0.086537644
58	0xbdabd7f8	-0.08390802
59	0x3eb240a6	0.34814948
60	0xbd9e88d9	-0.07740945
61	0x3d241e38	0.04006788
62	0xbe57d045	-0.21075542
63	0xbdb1c677	-0.08680432
64	0x3bfdd8f8	0.007746812
65	0x3da295d7	0.07938736
66	0xbaecf978	-0.0018079719
67	0x3c77489b	0.015092994
68	0xbe97540c	-0.2955631
69	0x3ca1fa4e	0.019772675
70	0xbd1640c2	-0.03668285
71	0x3cb6b7de	0.022304472
72	0xbdb0894b	-0.086199366
73	0x3d06c680	0.032904148
74	0x3e8d92a6	0.27650946
75	0xbe2f1295	-0.17096932
76	0x3d18393e	0.037163965
77	0x3d80ad81	0.06283093
78	0x3d7e0399	0.06201515
79	0xbe29ed27	-0.16594373
80	0xbeb02a03	-0.34407052
81	0x3e8e4553	0.27787265
82	0x3d7d34be	0.061817877
83	0xbd5c5ec4	-0.053801313
84	0xbe5923c3	-0.21205048
85	0x3d83cafd	0.06435201
86	0xbe1679c4	-0.14694887
87	0x3e80cc29	0.25155762
88	0xbea819ba	-0.32832128
89	0x3e51234b	0.2042362
90	0xbda696bf	-0.08134221
91	0xbd2afec2	-0.041746862
92	0x3d768dac	0.060193703
93	0x3cd383f2	0.025819752
94	0xbd80f807	-0.062973075
95	0x3d96a1c8	0.07355076
96	0xbbad0e58	-0.005281251
97	0xbb331db4	-0.0027330937
98	0x3c137933	0.009001064
99	0xbcad8b9a	-0.021184731
100	0x3d73e728	0.05954662
101	0xbd5a06ee	-0.053229265
102	0xbd358a3a	-0.044321276
103	0xbb5969bf	-0.0033174602
104	0x3e6692ce	0.22516939
105	0x3eb846c0	0.35991478
106	0x3f8c7394	1.0972772
107	0x3e8afd01	0.27146152
108	0x3e99bf20	0.3002863
109	0xbd2ac6c8	-0.04169348
110	0xbe6fba77	-0.23410974
111	0xbde01f14	-0.10943428
112	0xbe548242	-0.20752814
113	0xbd937bec	-0.072013706
114	0xbcea1f97	-0.028579516
115	0x3d71aa88	0.059000522
116	0x3d6e5bda	0.058193065
117	0xbdc53177	-0.09628575
118	0xbdfc4c13	-0.123191975
119	0x3cad227d	0.02113461
120	0xbee15fcd	-0.44018403
121	0xbdb5f7d0	-0.08885157
122	0xbde4e06c	-0.111756176
123	0xbdf0f96e	-0.11766325
124	0x3cc3ebdc	0.023916177
125	0xbe2b2bc0	-0.16715908
126	0x3e4bd6d0	0.19906163
127	0xbdd5abea	-0.10433181
128	0x3e62cd97	0.22148739
129	0xbe0d671e	-0.13808867
130	0x3dfbbbb5	0.12291662
131	0xbd73a734	-0.05948563
132	0xbece2952	-0.402659
133	0xbea14abd	-0.31502333
134	0x3e127a57	0.14304481
135	0x3e8ae594	0.2712828
136	0x3ec332a7	0.38124582
137	0xbd814dd0	-0.0631367
138	0x3f057b2e	0.5214108
139	0x3dfefac8	0.124501765
140	0xbd74f90f	-0.059807833
141	0x3e31a313	0.17347364
142	0x3d609301	0.054827694
143	0xbd5d7be7	-0.05407324
144	0x3c9acbf6	0.018896084
145	0x3d381616	0.044942938
146	0x3ca62c0b	0.020284673
147	0x3d00b763	0.03142489
148	0x3c9d48bd	0.019199723
149	0xbcc286ba	-0.023745883
150	0xbcb96f9b	-0.022636225
151	0xbd81419c	-0.06311342
152	0x3d15f75c	0.036612853
153	0xbb819aef	-0.003955237
154	0xbd8cb338	-0.06870121
155	0x3cfe94a3	0.031076735
156	0xbeadbbc0	-0.33932304
157	0xbea84e64	-0.32872307
158	0x3f21641b	0.63043374
159	0xbebbcc20	-0.36679173
160	0x3d987a81	0.07445241
161	0xbd3483bc	-0.044070944
162	0x3d636d4a	0.055524148
163	0x3d843cc4	0.064569026
164	0xbd91aaf6	-0.07112686
165	0xbd8e9eef	-0.06963908
166	0xbddfe0f2	-0.10931577
167	0x3d8453ea	0.06461318
168	0xbdd34eaf	-0.10317742
169	0xbdb29425	-0.087196626
170	0xbb87dae5	-0.0041459673
171	0xbd9e8e7d	-0.07742021
172	0xbe3b79fd	-0.18308254
173	0xbdaa361f	-0.08311104
174	0x3dc8597e	0.09782694
175	0x3d421e61	0.047392253
176	0xbe42e50a	-0.19032684
177	0x3e905725	0.28191486
178	0xbe76c36e	-0.24097988
179	0xbdcf9ab1	-0.10136927
180	0x3ca7a0a0	0.020462334
181	0x3e142fcf	0.14471363
182	0xbc51a5a2	-0.012795838
183	0x3e99855d	0.2998456
184	0x3d60e1eb	0.054902952
185	0xbe93537a	-0.28774625
186	0xbe20bd1f	-0.15697144
187	0xbdf3cb39	-0.11903996
188	0xbec45224	-0.38343918
189	0x3e9ec19f	0.31007096
190	0xbe6f3f63	-0.23364024
191	0x3dd676de	0.10471891
192	0xbe373b80	-0.17893791
193	0xbdb2dc1f	-0.08733391
194	0xbd769f6a	-0.060210623
195	0x3ecece2d	0.40391675
196	0xba3bb806	-0.00071609055
197	0x3b1ad56f	0.0023625751
198	0x3c9dabd3	0.019246971
199	0xbdab816d	-0.083742954
200	0x3cf4975b	0.029857328
201	0xbcace963	-0.021107381
202	0x3da938a2	0.08262755
203	0xbb797e41	-0.0038069638
204	0xbc44bdfa	-0.012008185
205	0x3d3c7251	0.046007458
206	0x3d8a1be8	0.06743604
207	0xbd61363d	-0.054983366
208	0xbe042a7b	-0.1290683
209	0xbe926d4f	-0.2859902
210	0x3f6979c3	0.9120142
211	0xbf041cc0	-0.5160637
212	0x3e8f3ee9	0.27977684
213	0xbcd35c98	-0.025800988
214	0x3e717655	0.23580296
215	0x3c97f786	0.018550646
216	0x3c9c9e8e	0.019118574
217	0x3d115e98	0.035490602
218	0xbe25701e	-0.1615605
219	0xbce4084e	-0.027835991
220	0xbc82459d	-0.015902335
221	0x3c5ec0f7	0.013595811
222	0xbd4b1fc5	-0.049590845
223	0x3ccc1316	0.024911445
224	0xbd641db4	-0.05569239
225	0xbe133894	-0.14377052
226	0xbe6830e3	-0.22674899
227	0x3e33981b	0.17538492
228	0xbe81a5a7	-0.25321695
229	0x3e603fb6	0.21899304
230	0xbe5fd77b	-0.21859543
231	0x3d7e5aec	0.06209843
232	0xbbce7832	-0.0063009495
233	0xbc6a5862	-0.014303299
234	0xbe5fc8a0	-0.21853876
235	0x3e7a0bfb	0.24418633
236	0xbde46c98	-0.11153525
237	0xbea3503a	-0.31897146
238	0x3f038a3e	0.51382816
239	0xbe946406	-0.28982562
240	0x3d3aeedd	0.045637954
241	0x3ebe44f9	0.37161997
242	0xbecd2814	-0.4006964
243	0xbe7d1688	-0.24715626
244	0xbd81c460	-0.06336284
245	0x3d171282	0.036882885
246	0xbed3e7b4	-0.41387713
247	0x3e71ff45	0.23632534
248	0xbd3b79a4	-0.045770302
249	0xbd7c02e5	-0.061526198
250	0x3c621435	0.013798763
251	0x3d42305a	0.047409393
252	0x3dafd92f	0.08586346
253	0xbd28f65f	-0.041250583
254	0x3d9b64d5	0.075875916
255	0x3df4afda	0.119476035

actor.0.bias f4 [512]
0	0xbd978bfd	-0.073997475
1	0x3d8ff315	0.07028786
2	0xba81e5e4	-0.0009910432
3	0xbd8461e2	-0.06463982
4	0xbd1c6616	-0.038183294
5	0xbd12cf17	-0.035842028
6	0x3dc1d5eb	0.0946463
7	0x3d703e65	0.058653254
8	0x3df267f8	0.11836237
9	0x3dbd174d	0.0923296
10	0xbdfe2ca3	-0.124108575
11	0x3de5b6db	0.112165175
12	0xbdc197b4	-0.09452763
13	0x3e0f6e35	0.14006884
14	0xbd450c8f	-0.04810768
15	0xbc9d16a5	-0.019175837
16	0xbe089bd7	-0.13340698
17	0x3d10185f	0.035179492
18	0x3d9e503d	0.07730148
19	0xbd9e78ea	-0.07737906
20	0xbe07dd5e	-0.13268039
21	0x3d84cd33	0.06484451
22	0xbe33f262	-0.1757293
23	0xbde83879	-0.11338896
24	0xbdd14d91	-0.10219873
25	0xbda0f9da	-0.078601554
26	0x3db005b0	0.08594835
27	0xbd82291a	-0.06355496
28	0x3d5b6f17	0.05357274
29	0x3dee57f1	0.11637867
30	0x3e25f73e	0.16207597
31	0x37de3d65	2.6493051e-05
32	0xbdfc1ebe	-0.12310551
33	0x3d31628e	0.04330688
34	0xbe0b5086	-0.13604936
35	0xbde8f9f4	-0.113758
36	0x3e270551	0.16310622
37	0xbdd5e95f	-0.10444903
38	0x3d8ce4c7	0.06879573
39	0x3d962e17	0.0733301
40	0xbd6c558b	-0.057698768
41	0x3d4f6ff2	0.05064387
42	0xbd63cedb	-0.055617195
43	0x3c409df3	0.011756408
44	0x3de63532	0.11240615
45	0xbaa65336	-0.0012689594
46	0x3da6ef97	0.08151167
47	0xbdff3195	-0.12460629
48	0x3dd736e5	0.10508517
49	0x3ce590a5	0.028023073
50	0x3ccb7d34	0.024839975
51	0xbc28585a	-0.010274971
52	0xbd589204	-0.052873626
53	0xbdae9429	-0.08524353
54	0xbdec2c86	-0.1153193
55	0xbd6ae97e	-0.05735158
56	0xbcf8c513	-0.03036741
57	0xbe33de5f	-0.17565297
58	0x3e1eef88	0.15521061
59	0x3d18446e	0.037174635
60	0x3df8602a	0.12127717
61	0xbdc8db65	-0.09807471
62	0xbb022001	-0.0019855502
63	0x3dcb271f	0.09919571
64	0x3d2a6ddc	0.041608676
65	0xbe2e2d43	-0.17009453
66	0x3d0b357b	0.03398655
67	0x3e03edea	0.12883726
68	0x3e08d0af	0.13360856
69	0x3b8c2eb6	0.0042780293
70	0xbe04428f	-0.12916015
71	0xbcc32a38	-0.023823842
72	0xbc24ce1f	-0.010058909
73	0xbdef4efb	-0.11684986
74	0xbddf2873	-0.10896387
75	0xbddf1513	-0.108926915
76	0xbdd961f2	-0.10614385
77	0xbc8bfb2a	-0.017087538
78	0xbb0e7272	-0.0021735695
79	0x3daaa46e	0.08332144
80	0xbd0b5205	-0.034013767
81	0xbe0be275	-0.13660605
82	0xbc78c2f9	-0.015183204
83	0xbdf1332d	-0.11777339
84	0x3cb017bd	0.021495694
85	0x3da2bf5c	0.07946655
86	0x3dd2694d	0.10273991
87	0x3d4d5211	0.050127093
88	0xbda36abc	-0.07979342
89	0xbd6b0748	-0.05737999
90	0x3dea5a10	0.11442959
91	0xbc907939	-0.017635928
92	0xbc9a32d7	-0.01882307
93	0x3d85e034	0.06536904
94	0x3d9329fc	0.07185742
95	0x3bde42b9	0.0067828563
96	0x3d539b9b	0.05166207
97	0x3c750491	0.014954702
98	0xbdc84641	-0.09779025
99	0x3e02cb64	0.127729
100	0xbd007f15	-0.031371195
101	0xbb7f1bde	-0.0038926522
102	0xbd73198e	-0.059350543
103	0x3c712ea0	0.014720589
104	0xbe0957cc	-0.13412398
105	0xbbb97939	-0.005660203
106	0xbdd3ca5d	-0.10341332
107	0x3cf94689	0.030429142
108	0xbd803279	-0.06259627
109	0xbd60a6d5	-0.054846603
110	0x3da518af	0.08061349
111	0x3df556f2	0.11979474
112	0x3cf5a5c5	0.029986272
113	0x3d924704	0.071424514
114	0xbd25f12c	-0.040513203
115	0x3e0be1b7	0.13660322
116	0xbe0dbec6	-0.13842306
117	0xbd0abf41	-0.0338738
118	0x3d501a66	0.050806426
119	0x3dc78f66	0.09744148
120	0xbc8712bc	-0.016488425
121	0x3c3ed11e	0.011646537
122	0xbd870011	-0.065918095
123	0x3defad33	0.11702957
124	0xbe0dcff8	-0.13848865
125	0xbd70ee82	-0.05882121
126	0xbc5ba9fa	-0.013407225
127	0x3da838cc	0.08213958
128	0x3c859d9a	0.016310502
129	0x3d8a2fb5	0.06747381
130	0xbde9106e	-0.11380087
131	0xbd078852	-0.03308899
132	0x3e16ab99	0.14713897
133	0x3d3a42f8	0.045474023
134	0x3d8ad479	0.06778807
135	0x3df01eae	0.11724602
136	0xbc6f0590	-0.014588729
137	0xbddf9efd	-0.109189965
138	0xbd2844bb	-0.04108117
139	0xbe174733	-0.14773254
140	0x3d51b3d5	0.05119689
141	0x3da70b57	0.0815646
142	0xbe097a28	-0.13425505
143	0xbce60309	-0.02807762
144	0xbdf7c62e	-0.12098347
145	0xbccf33b0	-0.025293201
146	0xbdb86639	-0.090038724
147	0x3cb554fe	0.022135254
148	0x3da6cb47	0.08144241
149	0xbddb4c20	-0.10707879
150	0x3d5455ea	0.051839747
151	0xbc7c997a	-0.015417451
152	0xbcf4086f	-0.029789178
153	0xbc52e343	-0.012871566
154	0x3d9cb6ad	0.0765203
155	0x3e12be78	0.1433047
156	0x3d763dbc	0.06011747
157	0xbaf90358	-0.0018998189
158	0xbd089ca8	-0.033352524
159	0xbdea8af9	-0.11452288
160	0xbcc6b1f6	-0.02425478
161	0xbddae3c8	-0.10687977
162	0xbdd17cfc	-0.10228917
163	0xbde573a8	-0.112037
164	0x3e01ff8c	0.1269514
165	0x3d7d4692	0.06183488
166	0x3d446fc6	0.047958158
167	0xbcff5809	-0.031169908
168	0x3b1c80d7	0.0023880505
169	0xbda2c7b4	-0.079482466
170	0x3d67d0c5	0.056595583
171	0xbd255928	-0.04036823
172	0x3d3c8652	0.046026535
173	0x3d304c74	0.04304166
174	0x3b002ca7	0.0019557865
175	0x3c9b056c	0.018923484
176	0xbe14c63b	-0.14528744
177	0xbcfa7c99	-0.03057699
178	0x3cc5c887	0.02414347
179	0x3db9002a	0.090332344
180	0xbdd92c9a	-0.1060421
181	0x3d2ced69	0.0422186
182	0x3d834290	0.0640918
183	0xbe05b8af	-0.13058732
184	0x3d6d15cc	0.057882115
185	0x3c0655f4	0.008199204
186	0xbe1c9746	-0.15292081
187	0xbd841a04	-0.064502746
188	0xbdfbcd57	-0.12295025
189	0x3dad50db	0.084626876
190	0xbd3995e2	-0.045308955
191	0xbe05429d	-0.13013692
192	0x3e13bac8	0.1442672
193	0xbd2cee73	-0.04221959
194	0x3de9953b	0.114054166
195	0x3c8a2627	0.016863896
196	0x3e02b579	0.12764539
197	0x3d9e9934	0.07744065
198	0x3e244989	0.16043676
199	0xbb0703d2	-0.0020601642
200	0xbd8cc81a	-0.06874104
201	0xbd95ec90	-0.07320511
202	0xbdeed4ad	-0.116616584
203	0x3d4e75b2	0.05040521
204	0x3d834db7	0.06411307
205	0xbdad760c	-0.08469781
206	0x3d2d9f38	0.04238817
207	0x3d44ed42	0.04807783
208	0x3d8c2f12	0.068449154
209	0xbdb6884f	-0.089127176
210	0xbd74ad33	-0.05973549
211	0xbd8fe00d	-0.07025156
212	0x3cd6e04e	0.026230004
213	0xbcc64042	-0.024200562
214	0xbdf5ab41	-0.11995555
215	0xbd8bc04f	-0.06823789
216	0xbd95a85b	-0.07307502
217	0x3c7aa6d4	0.015298564
218	0xbb984672	-0.0046470696
219	0xbc498473	-0.012299645
220	0x3cab2833	0.020893192
221	0x3dcf41d5	0.10119978
222	0xbd7f4488	-0.062321216
223	0x3b8e98d5	0.004351715
224	0x3d89240d	0.06696329
225	0x3d2c054e	0.041997246
226	0xbd4e6bb3	-0.05039568
227	0xbdeca8a3	-0.115556024
228	0xbd40eae2	-0.047099
229	0xbe14c4c7	-0.1452819
230	0x3db5dfc7	0.08880573
231	0x3e3e4e9e	0.18584678
232	0x3dda645f	0.106636755
233	0xbda8d21c	-0.082432
234	0x3cb08cdf	0.021551548
235	0x3d837ebf	0.06420659
236	0xbd1d7f07	-0.03845122
237	0x3dce2b8d	0.100669004
238	0xbcc41a52	-0.023938332
239	0xbdd296b9	-0.10282654
240	0x3d93d86c	0.072190136
241	0xbd1d5259	-0.03840861
242	0x3d92e6a6	0.07172899
243	0xbdbefa52	-0.093250886
244	0x3d144762	0.03620089
245	0xbcc63f04	-0.02419997
246	0x3dace0db	0.08441325
247	0x3cdcca14	0.026951827
248	0x3d99738c	0.07492742
249	0x3c8676cb	0.016414067
250	0xbd5a785c	-0.05333744
251	0x3b969206	0.004595044
252	0x3e2dda4a	0.16977802
253	0xbd5bb66b	-0.053640764
254	0x3dce4540	0.10071802
255	0xbdc821a5	-0.09772042

actor.2.weight f4 [256, 512]
0	0x3d03a2ac	0.032137558
1	0x3c40a396	0.011757752
2	0x3e1b1a0f	0.1514666
3	0xbd818f29	-0.06326134
4	0x3d17c2fc	0.037051186
5	0xbd393fc0	-0.045226812
6	0xbe03d96e	-0.12875912
7	0x3cf4529f	0.029824553
8	0x3cff2fa6	0.03115065
9	0xbd594e29	-0.053053055
10	0x3c655813	0.013998049
11	0xbe51d0a5	-0.20489748
12	0xbc83f243	-0.01610673
13	0x3d80525d	0.062657095
14	0xbd495986	-0.04915764
15	0x3daa5dc7	0.08318668
16	0xbca9e1d1	-0.02073756
17	0xbd1c9480	-0.038227558
18	0xbd1af347	-0.037829664
19	0x3cec4914	0.02884344
20	0xbe101d98	-0.14073789
21	0xbdd1b387	-0.1023932
22	0x3e12840f	0.14308189
23	0x3da878df	0.08226179
24	0xbcdde3d2	-0.027086172
25	0x3d5f34c6	0.054493688
26	0x3d1857c0	0.03719306
27	0x3d609360	0.054828048
28	0x3d5d42e0	0.054018855
29	0x3c3a168d	0.011357916
30	0x3d80da0d	0.0629159
31	0xbca42262	-0.020035926
32	0xbe243b43	-0.16038232
33	0xbde80b33	-0.11330261
34	0x3d3348ff	0.043770786
35	0xbdab2ddd	-0.08358357
36	0x3db97802	0.09056093
37	0x3c03fd39	0.008055978
38	0x3e0986b5	0.13430293
39	0xbd8bfd46	-0.068354174
40	0x3cb51158	0.022102997
41	0x3d31b813	0.043388437
42	0xbc032596	-0.008004567
43	0x3c495d8e	0.012290372
44	0x3c8a6d23	0.016897744
45	0xbd864b18	-0.06557292
46	0x39259d6e	0.00015794273
47	0xbcc92173	-0.024552083
48	0x39206a1b	0.00015298316
49	0x3d521db8	0.051297873
50	0x3b3750c6	0.0027971729
51	0xbc1ed2a7	-0.009693778
52	0x3d734278	0.05938956
53	0xbd686f2f	-0.056746658
54	0x3b51b2d2	0.0031997454
55	0xbc6092eb	-0.013706903
56	0xba23c3be	-0.00062471244
57	0xbdb6f687	-0.0893374
58	0xbd341703	-0.04396726
59	0x3d9a74ea	0.07541831
60	0xbc089a08	-0.008337505
61	0xbc4f0d98	-0.012637518
62	0x3df49d5e	0.11944078
63	0x3aa2153c	0.0012365947
64	0xbe411bba	-0.18858233
65	0xbd035ab3	-0.03206892
66	0x3dc0803a	0.09399457
67	0xbd2023e3	-0.039096724
68	0x3b83773c	0.0040120166
69	0xbd12c599	-0.035832975
70	0x3cb7f057	0.02245347
71	0xbd15f9de	-0.036615245
72	0x3d16cde9	0.036817465
73	0x3cb92443	0.022600299
74	0x3d39ce08	0.045362502
75	0x3db0ed03	0.086389564
76	0x3cf245af	0.029574243
77	0x3e336b39	0.17521371
78	0xbd91cbdb	-0.071189605
79	0xbe145482	-0.14485362
80	0xbdae8bb3	-0.08522739
81	0xba764878	-0.0009394954
82	0x3e07cd8d	0.13262005
83	0x3d434fe4	0.04768361
84	0xbc64a5c8	-0.013955541
85	0x3d7aec39	0.061260436
86	0xbc3beb14	-0.011469621
87	0x3df63e42	0.120235935
88	0x3cb98529	0.022646504
89	0xbcf44e09	-0.029822366
90	0xbc71b970	-0.014753684
91	0xbd28b317	-0.04118642
92	0x3d819d68	0.06328851
93	0xbd8415ef	-0.06449496
94	0x3dd6b772	0.10484208
95	0x3d826725	0.063673295
96	0x3d77e6a2	0.060522683
97	0xbd4e9924	-0.050439015
98	0x3cebfece	0.028808024
99	0xbcc4dfe3	-0.024032539
100	0xbd4812d1	-0.04884607
101	0xba158d28	-0.0005704933
102	0xbe07414b	-0.13208501
103	0xbdce2a23	-0.10066631
104	0xbcb36940	-0.021900773
105	0x3d33e1dd	0.043916572
106	0x3cd45262	0.02591819
107	0xbd96a8a1	-0.07356382
108	0x3cfa3ebe	0.030547496
109	0xbdab7ed8	-0.08373803
110	0x3d34910b	0.044083636
111	0x3d06716d	0.032823015
112	0x3dee5ec6	0.1163917
113	0xbd44ec8b	-0.048077147
114	0x3cc3f5f8	0.023920998
115	0xbe0fd84e	-0.14047357
116	0xbdf950a0	-0.12173581
117	0x3e6a2988	0.22867405
118	0xbd774c38	-0.060375422
119	0x3daf627d	0.08563707
120	0x3d98c665	0.07459716
121	0x3c2d1c90	0.010565892
122	0xbde63b95	-0.11241833
123	0xbcc3a8d9	-0.023884224
124	0x3d5b68bf	0.05356669
125	0x3d5f5266	0.05452194
126	0x3ce2d696	0.027690213
127	0x3de9e827	0.11421233
128	0x3ba52ecb	0.0050409785
129	0xbd2eef0f	-0.042708453
130	0x3e190ac3	0.14945512
131	0x3e258da9	0.1616732
132	0x3bad07dd	0.0052804784
133	0xbcee93ba	-0.029123176
134	0x3dc31844	0.09526113
135	0xbdb0e04c	-0.08636531
136	0xbdbade64	-0.09124449
137	0xbc29767f	-0.010343193
138	0x3dc4debf	0.09612798
139	0xbe1005c5	-0.14064701
140	0x3cbd55b9	0.023112165
141	0x3b940092	0.0045166695
142	0x3c2c062e	0.01049952
143	0x3d0babab	0.034099262
144	0x3cf6bc55	0.0301191
145	0xbe0066db	-0.12539236
146	0x3ab23edb	0.0013599055
147	0xbd32cb54	-0.04365094
148	0xbd352f42	-0.04423452
149	0x3e317566	0.1732994
150	0xbda75b9b	-0.08171769
151	0x3d8ca57b	0.068675004
152	0xbdc64293	-0.09680667
153	0xbd56401f	-0.052307244
154	0x3dd0d002	0.10195924
155	0xbcaa5cf8	-0.020796284
156	0xbca7206d	-0.020401204
157	0x3d6c8a8a	0.05774931
158	0x3d21fe97	0.039549436
159	0xbd24bf68	-0.0402216
160	0xbb50c358	-0.0031854715
161	0xbbc13b14	-0.0058969352
162	0x3d89b573	0.06724062
163	0xbdef710a	-0.11691482
164	0x3e287d28	0.16453993
165	0x3e0fb30c	0.14033145
166	0xbce8b498	-0.028406426
167	0x3e07062a	0.13185945
168	0x3c0cad24	0.008586202
169	0xbda3abea	-0.079917744
170	0xb9f73e8c	-0.00047158112
171	0xbb3e885f	-0.0029072983
172	0xbdfbadde	-0.12289022
173	0x3c88ccc5	0.016699204
174	0xbd2e8560	-0.042607665
175	0x3e39b547	0.18135558
176	0x3e06e0fc	0.13171762
177	0xbd211740	-0.039328814
178	0xbd992894	-0.07478443
179	0x3d924811	0.07142652
180	0xbc8aa524	-0.016924448
181	0x3c8cfc7e	0.017210241
182	0xbc466e2f	-0.012111231
183	0x3c5c0470	0.013428792
184	0xbd5c89cc	-0.05384235
185	0x3ba818cf	0.0051299105
186	0x3deeaafe	0.11653708
187	0x3cf470be	0.029838916
188	0xbdd0d1e6	-0.10196285
189	0x3d515f28	0.05111614
190	0xbe1dc70f	-0.15407966
191	0x3d47ddd9	0.048795555
192	0x3da1fa43	0.07909062
193	0xbbcece30	-0.0063112006
194	0x3d24b032	0.040207095
195	0x3c947233	0.01812086
196	0x3ceafed2	0.02868596
197	0x3e0be63f	0.1366205
198	0x3ce242b5	0.027619699
199	0xbd1ff4ec	-0.039051935
200	0x3d05135e	0.032489173
201	0x3c94dd18	0.018171832
202	0x3ce7c679	0.028292881
203	0x3d34295a	0.04398475
204	0x3d807834	0.06272927
205	0x3d82f3f2	0.06394185
206	0x3d27b5ef	0.04094499
207	0xbd79180a	-0.06081394
208	0x3d85bcb4	0.06530133
209	0xbd9202fa	-0.07129474
210	0xbce0f6f4	-0.027461506
211	0xbd037d43	-0.03210188
212	0xbd85da31	-0.06535757
213	0xbbb1817c	-0.005417047
214	0x3d7b54fa	0.061360337
215	0xbb871d38	-0.004123356
216	0xbd375218	-0.044756025
217	0xbc5925f4	-0.013253678
218	0xbce4de74	-0.027938105
219	0x3dd69a23	0.10478618
220	0xbe0a182b	-0.13485782
221	0xbdba141c	-0.09085867
222	0x3d1fbeb1	0.039000217
223	0x3d6be56a	0.057591833
224	0xbd1d927b	-0.038469773
225	0xbe089937	-0.13339697
226	0x3d9a0c66	0.07521896
227	0x3e00c0c7	0.12573539
228	0xbbffd098	-0.0078068487
229	0x3d4229cf	0.047403153
230	0x3dc04ac9	0.09389264
231	0x3d9c2e03	0.076259635
232	0xbccdd003	-0.025123602
233	0x3cc86f55	0.02446715
234	0xbd5bc9d9	-0.053659294
235	0x3e245baa	0.16050592
236	0xbba05b6e	-0.004893712
237	0xbdc6306c	-0.096772045
238	0x3df3ff91	0.1191398
239	0xbd99ccd2	-0.075097695
240	0xbcccb6e7	-0.024989558
241	0xbc0cacd0	-0.008586124
242	0x3bf19e0b	0.0073735765
243	0xbcab0178	-0.020874724
244	0xbe1047dc	-0.14089912
245	0x3d1fae35	0.038984496
246	0x38e48f58	0.00010898587
247	0x3d11b142	0.035569437
248	0x3d64027b	0.055666428
249	0xbd076f18	-0.03306493
250	0xbd817dd0	-0.06322825
251	0x3e19818d	0.14990826
252	0x3d813a62	0.06309964
253	0x3d863d3f	0.065546505
254	0xbdaa86c6	-0.08326487
255	0x3d7e09e3	0.062021147

actor.2.bias f4 [256]
0	0xbda2cfed	-0.07949815
1	0xbd63e581	-0.055638794
2	0xbdb2c2a3	-0.0872853
3	0xbd4cd2f6	-0.050005876
4	0xbd95fea3	-0.07323959
5	0xbc582134	-0.01319151
6	0xbdc1cd17	-0.09462946
7	0xbcd39428	-0.025827482
8	0xbdb68814	-0.089126736
9	0xbdb26526	-0.08710699
10	0xbcfb8a65	-0.03070564
11	0xbd246391	-0.040134016
12	0xbd56cfab	-0.05244414
13	0xbe39ae69	-0.18132938
14	0xbcecefaf	-0.028922884
15	0xbd32a2f2	-0.043612428
16	0xbda29c6f	-0.079399936
17	0xbd5e5801	-0.054283146
18	0xbd78c73b	-0.060736876
19	0xbda4f2a7	-0.08054095
20	0xbd29417c	-0.041322216
21	0xbdefd1a6	-0.11709909
22	0xbd57a138	-0.052643985
23	0xbdd00e49	-0.10158975
24	0xbd855581	-0.06510449
25	0xbd404da3	-0.04694904
26	0xbd7c34c6	-0.061573766
27	0xbda44b25	-0.08022145
28	0x3ca3492f	0.019932358
29	0xbd232685	-0.039831657
30	0xbdabc72c	-0.083875984
31	0xbd8a81a9	-0.06763012
32	0x3b6bf6ee	0.0036005336
33	0xbd2a5f64	-0.041594878
34	0xbddaa1b6	-0.10675375
35	0xbd851173	-0.06497469
36	0x3c9c4f93	0.019080913
37	0xbd423039	-0.04740927
38	0xbd20ba54	-0.039240196
39	0x3c838bda	0.016057897
40	0xbdcdb1be	-0.10043667
41	0xbda0dee3	-0.07855012
42	0xbdb0fe0a	-0.08642204
43	0xbd7e636c	-0.062106535
44	0xbcec3f60	-0.028838813
45	0xbdbfe093	-0.09369006
46	0xbdaecc4e	-0.08535062
47	0xbdcc09bd	-0.09962795
48	0xbcd7bd20	-0.026335299
49	0xbda186db	-0.0788705
50	0xbdcc6b86	-0.09981446
51	0xbd2d9c84	-0.042385593
52	0xbd83191c	-0.064012736
53	0xbdcc03a9	-0.099616356
54	0xbd28506d	-0.041092325
55	0xbcc59ff7	-0.024124129
56	0xbc8148f4	-0.015781857
57	0xbd77db4a	-0.060511865
58	0xbb588171	-0.0033036137
59	0xbd200720	-0.039069295
60	0xbc09639d	-0.008385566
61	0xbcb3ea15	-0.021962205
62	0xbdb6834d	-0.089117624
63	0x3c1d2922	0.009592326
64	0xbb9de6b2	-0.004818761
65	0xbe1914db	-0.14949362
66	0xbd8cc0aa	-0.06872685
67	0xbd9fc031	-0.078003295
68	0xbdb43b4f	-0.08800375
69	0xbda297b0	-0.07939088
70	0x3b539673	0.003228572
71	0xbc82e069	-0.015976148
72	0xbd50c873	-0.050972413
73	0xbe094609	-0.13405623
74	0xbc8c530f	-0.01712945
75	0xbcdf7009	-0.027275102
76	0xbd2be9a3	-0.04197086
77	0xbe02b76d	-0.12765284
78	0xbe03c621	-0.12868549
79	0xbbda8d2b	-0.0066696606
80	0xbe092744	-0.13393885
81	0xbd9e7643	-0.077374004
82	0xbcb25ddb	-0.02177327
83	0xbcc92309	-0.024552839
84	0xbd3e10d6	-0.046402775
85	0x3c009d7c	0.007850047
86	0xbd9e1a1d	-0.077198245
87	0xbe11ef1e	-0.14251372
88	0xbcda63c2	-0.026658896
89	0xbc87fc99	-0.01659994
90	0xbc532fbf	-0.0128898015
91	0x3b26a923	0.0025430403
92	0xbe16c573	-0.14723758
93	0xbc3b5588	-0.011433966
94	0xbd4176b9	-0.047232363
95	0xbd0229c7	-0.031778123
96	0xbd832a7e	-0.06404589
97	0xbda2ca82	-0.079487815
98	0xbcc4e2a2	-0.024033848
99	0xbd663776	-0.056205235
100	0xbd884679	-0.066540666
101	0xbe553f87	-0.20825015
102	0xbd90ad5a	-0.07064314
103	0x3ae8109f	0.0017705149
104	0xbd75f40a	-0.060047187
105	0xbc8a20b4	-0.016861297
106	0xbd48e3ac	-0.04904525
107	0xbd81b7b5	-0.063338675
108	0x3ca5a49b	0.020220092
109	0xbc2845a6	-0.010270512
110	0xbd68ab84	-0.056804195
111	0xbd85eb49	-0.06539018
112	0xbd72172a	-0.059104122
113	0xbda68268	-0.08130342
114	0xbdcc65d8	-0.09980363
115	0xbccb64c7	-0.024828328
116	0xbe26c90c	-0.16287631
117	0xbd2b6c8c	-0.041851565
118	0x3d5512ca	0.05201987
119	0xbc8910c1	-0.016731622
120	0xbcb46d2d	-0.022024715
121	0xbd5b9bb4	-0.053615287
122	0xbe0368a2	-0.12832883
123	0xbdf90269	-0.12158663
124	0xbdb5d17d	-0.08877847
125	0xbdff5669	-0.12467653
126	0xbe0704df	-0.13185452
127	0xbd0035d9	-0.031301353
128	0xbcb63c23	-0.022245472
129	0x3c7d00dc	0.015442099
130	0xbdf86cd2	-0.12130131
131	0xbdc1b045	-0.09457449
132	0xbdb2815f	-0.08716082
133	0xbd7273fc	-0.059192643
134	0xbdc7f0c8	-0.09762722
135	0xbda866e0	-0.08222747
136	0xbd725d0e	-0.059170775
137	0xbd4645a9	-0.048406277
138	0xbcd8e63f	-0.026476977
139	0xbcddcee6	-0.027076196
140	0xbcfdf950	-0.03100267
141	0xbda469a2	-0.0802796
142	0xbd2a54b7	-0.041584697
143	0x3c82be17	0.015959783
144	0xbc440272	-0.011963474
145	0xbd52c6bc	-0.05145906
146	0x3b895301	0.004190803
147	0x3cb57676	0.022151213
148	0xbd7dd892	-0.061974116
149	0xbe0aba51	-0.13547637
150	0xbd2d736b	-0.0423464
151	0xbcb01417	-0.021493955
152	0xbd786d9b	-0.060651403
153	0x3bfb10fe	0.0076619377
154	0xbc996f0e	-0.018729713
155	0x3ca4594d	0.020062113
156	0xbdc70219	-0.09717197
157	0xbca7d690	-0.020488054
158	0xbdddca49	-0.108295985
159	0xbd02ffae	-0.031982116
160	0xbd3933e3	-0.0452155
161	0xbcadf06c	-0.021232806
162	0xbde5d255	-0.11221758
163	0xbda90a68	-0.08253938
164	0xbd7970ac	-0.060898468
165	0xbd0d8d7c	-0.03455876
166	0x3d06257c	0.03275059
167	0xbd0a6582	-0.03378821
168	0xbd619d0e	-0.05508142
169	0xbd9b0fc9	-0.0757137
170	0xbdc5949f	-0.09647488
171	0xbd9dba4f	-0.07701551
172	0xbd0f19b9	-0.03493664
173	0xbd9fa0b8	-0.077943265
174	0xbd5f8201	-0.05456734
175	0xbd07e164	-0.033173934
176	0xbd7bf65e	-0.06151425
177	0xbd74bbcc	-0.05974941
178	0xbdbed6ce	-0.093183145
179	0xbd1081c1	-0.035279993
180	0xbd5342fc	-0.051577553
181	0xbd9c5a69	-0.07634432
182	0xbd97eed8	-0.07418603
183	0x3b958985	0.0045635127
184	0xbe0c81a1	-0.13721325
185	0xbd1cedca	-0.03831271
186	0xbe8ab28e	-0.2708935
187	0xbd8d7649	-0.06907327
188	0xbb8312fc	-0.004000066
189	0xbd60f35f	-0.054919597
190	0xbda316bb	-0.0796332
191	0xbcb71e29	-0.022353249
192	0x3ca7d06b	0.020485124
193	0xbdb42e6a	-0.08797915
194	0xbd411d24	-0.04714693
195	0xbd78ea6f	-0.06077045
196	0xbd894a9f	-0.06703686
197	0xbdc74760	-0.097304106
198	0xbdcf9a8e	-0.10136901
199	0x3cdabac2	0.026700381
200	0xbc0d791d	-0.008634833
201	0x3d05c074	0.03265424
202	0xbd8a92c5	-0.06766275
203	0xbd9ab564	-0.07554129
204	0xbaf40a7c	-0.0018618847
205	0xbd348d1c	-0.044079885
206	0xbd947b0a	-0.0725003
207	0xbd83ea59	-0.06441183
208	0x3cc50019	0.024047898
209	0xbd2c4e87	-0.042067077
210	0x3ce8f96c	0.028439246
211	0xbdfe0326	-0.12402944
212	0xbd6bac80	-0.057537556
213	0xbd54b78a	-0.05193285
214	0x3c27d79e	0.010244278
215	0xbd071a77	-0.032984223
216	0xbd7509c0	-0.05982375
217	0x3c9e1059	0.019294905
218	0xbdb266a1	-0.08710981
219	0xbd7ecb85	-0.06220581
220	0xbcdd7371	-0.027032586
221	0xbcd65431	-0.026163192
222	0xbd469ba9	-0.048488293
223	0xbd23e200	-0.040010452
224	0xbdc48e6d	-0.09597478
225	0xbda74192	-0.081668034
226	0xbcafe600	-0.021471977
227	0x3c6489e8	0.013948895
228	0xbda4a3fd	-0.08039091
229	0xbce5e7ae	-0.028064575
230	0xbd18491f	-0.03717911
231	0x3cfaacc0	0.030599952
232	0xbd5f4e47	-0.05451801
233	0xbd734791	-0.059394423
234	0xbd6f51bd	-0.05842756
235	0xbd805f38	-0.062681615
236	0xbe17c452	-0.14820984
237	0xbd05cc39	-0.032665465
238	0xbc6e4fab	-0.0145453615
239	0xbd9364e1	-0.071969755
240	0xbe2c4df3	-0.1682661
241	0xbc7bfcf1	-0.01538013
242	0xbc04cf0a	-0.008106003
243	0xbd114ab4	-0.035471633
244	0xbd84e52f	-0.06489026
245	0xbe06e992	-0.13175038
246	0xbd84db01	-0.06487084
247	0xbd894398	-0.067023456
248	0xbb58150b	-0.0032971527
249	0xbc3e109b	-0.011600639
250	0xbe06c917	-0.13162647
251	0xbd2668a1	-0.040627126
252	0xbce92192	-0.02845839
253	0xbc73870c	-0.014863741
254	0xbd9c0e00	-0.07619858
255	0x3a4fb6f3	0.0007923685

actor.4.weight f4 [128, 256]
0	0x3da05cd2	0.07830204
1	0xbd941de8	-0.07232267
2	0xbce5a826	-0.028034281
3	0xbadb1932	-0.0016715883
4	0x3dac6684	0.08417991
5	0xbc2d5a36	-0.01058059
6	0x3d842e1d	0.06454108
7	0xbc95b1da	-0.018273283
8	0x3c795b64	0.015219543
9	0xbd88adc1	-0.06673766
10	0x3d8758d7	0.06608742
11	0x3e1a4868	0.15066683
12	0xbe04d827	-0.1297308
13	0x3dd334a8	0.10312778
14	0xbbbda3b2	-0.0057873363
15	0x3da8675c	0.08222839
16	0xbc834ba0	-0.016027272
17	0xbd22a489	-0.039707694
18	0xbb413f4f	-0.0029487198
19	0x3cfb2ccc	0.03066101
20	0x3d50a8c2	0.05094219
21	0xbdae34a8	-0.08506137
22	0x3cd6b9d9	0.026211666
23	0x3ddca04a	0.1077276
24	0x3d2ba6d9	0.041907165
25	0x3d80dde4	0.06292322
26	0xbc8222c2	-0.015885714
27	0xbb850003	-0.0040588393
28	0x3d06b096	0.03288325
29	0xbbcc4e2a	-0.006234904
30	0x3e2fda30	0.17173076
31	0x3b22a576	0.002481786
32	0x3b4e81f1	0.0031510557
33	0xbd788cb4	-0.06068106
34	0x3e00bfca	0.12573162
35	0x3da73e45	0.08166174
36	0x3c61e715	0.013788004
37	0x3d7d166f	0.061788972
38	0xbda6d3f9	-0.08145899
39	0xbdd72f84	-0.1050711
40	0x3d31727a	0.043322064
41	0x3d9ce721	0.07661272
42	0xbd3df846	-0.04637935
43	0x3d8ca5b7	0.06867545
44	0x3c0e4037	0.008682302
45	0x3d6faea0	0.058516145
46	0xbc6d70f0	-0.014492258
47	0x3db19043	0.08670094
48	0xbd15a79d	-0.0365368
49	0xbb8194ea	-0.0039545195
50	0x3d5cc7fc	0.053901657
51	0x3d16fb46	0.036860727
52	0xbcf00c69	-0.029302793
53	0x3dfd6e11	0.12374509
54	0x3e259c2f	0.1617286
55	0x3d1c114f	0.038102444
56	0x3d0da4c2	0.034580953
57	0xbd0231a3	-0.03178562
58	0xbe3a5d62	-0.18199685
59	0x3c89ddf3	0.016829466
60	0xbd5d714b	-0.054063123
61	0xbda80e2c	-0.08205828
62	0xbcb80c08	-0.022466674
63	0xbcf8f687	-0.03039099
64	0x3cd467b4	0.025928356
65	0xbddc24e3	-0.10749223
66	0x3ddca854	0.107742935
67	0x3dfb9c90	0.12285721
68	0x3e221773	0.15829258
69	0x3bfd2e4e	0.007726467
70	0x3d25d456	0.040485702
71	0xbcf2e5e9	-0.029650645
72	0xbda36f57	-0.07980221
73	0x3daa7a4a	0.08324106
74	0x3dff8b95	0.12477795
75	0xbcaf6c9f	-0.0214141
76	0xbe096a88	-0.13419545
77	0x3caeb8c2	0.021328334
78	0xbd4d84ce	-0.05017548
79	0xbd0a77bb	-0.03380559
80	0x3e01948d	0.12654324
81	0x3d0b0f4f	0.033950146
82	0xbc2bc826	-0.010484731
83	0xbe49e40a	-0.19715896
84	0x3e059115	0.13043626
85	0xbd3c4f68	-0.045974165
86	0x3e1ab60f	0.15108512
87	0x3ded6251	0.11591018
88	0x3da88351	0.082281716
89	0x3dc2bfdf	0.09509253
90	0x3dc7a8eb	0.097490154
91	0xbda6c109	-0.08142287
92	0xbcbad41f	-0.022806225
93	0xbcd9692e	-0.026539411
94	0xbd490a61	-0.049082164
95	0xbcf0b5ba	-0.029383529
96	0x3dd9903e	0.10623215
97	0x3d8a2090	0.06744492
98	0x3dfc2a66	0.12312774
99	0xbd15b947	-0.036553647
100	0x3e00f492	0.12593296
101	0xbd7c3dc6	-0.06158235
102	0xbb82b45a	-0.0039887847
103	0xbe272dc7	-0.16326056
104	0x3e18f1a5	0.1493593
105	0xbd97e381	-0.0741644
106	0xbd939336	-0.07205813
107	0x3c01f06d	0.007930857
108	0x3bcf5dd1	0.0063283225
109	0x3da53115	0.08066002
110	0xbce1e645	-0.027575621
111	0x3d3a0f2a	0.045424618
112	0xbd04175f	-0.03224885
113	0x3de410d6	0.11136024
114	0xbd1a2efd	-0.037642468
115	0xbd90ee16	-0.07076661
116	0x3d840b5e	0.064474806
117	0x3cbdd5a0	0.023173153
118	0x3d1e5c1d	0.038662065
119	0xbd6e53bf	-0.058185335
120	0x3db94aee	0.09047495
121	0x3deb7bf5	0.11498252
122	0x3d97c2dc	0.07410213
123	0x3cf857e4	0.030315347
124	0x3d5b2025	0.053497452
125	0xbd05d458	-0.03267321
126	0xbcd78b98	-0.02631168
127	0x3d9f2bb5	0.07772008
128	0x3d7b26cd	0.0613163
129	0xbcb8bffb	-0.02255248
130	0x3dc60a38	0.09669918
131	0x3d376e6d	0.044783045
132	0x3d376f66	0.044783972
133	0x3d0eaf58	0.03483519
134	0x3e00fec5	0.12597187
135	0x3e50daa6	0.20395908
136	0xbd9fc8a8	-0.07801944
137	0xbd988503	-0.07447245
138	0x3dbf6dab	0.093470894
139	0x3caf8f07	0.021430505
140	0x3d96b818	0.07359332
141	0xbdf166ce	-0.117871866
142	0x3d175752	0.03694851
143	0xbcac2ef3	-0.02101848
144	0x3cd30dc8	0.025763407
145	0xbd32e131	-0.04367179
146	0xbc03626e	-0.008019073
147	0xbcedf318	-0.02904658
148	0x3b3d0f66	0.002884829
149	0xbb45b89d	-0.0030169853
150	0x3d93946e	0.07206045
151	0xbd3f2399	-0.046664808
152	0x3c79cf07	0.015247113
153	0xbd4e77f6	-0.050407372
154	0x3e2fa338	0.17152107
155	0xbda02ed5	-0.078214325
156	0x3ddf364c	0.10899028
157	0x3d1f7926	0.038933896
158	0x3b82580f	0.0039777826
159	0x3c396c27	0.011317289
160	0x3d660717	0.056159105
161	0xbdc3468f	-0.09534942
162	0x3d801573	0.06254091
163	0xbe2e94d4	-0.17048961
164	0x3b9ea93b	0.004841951
165	0xbbea0149	-0.0071412665
166	0x3d074402	0.03302384
167	0xbd85ab3d	-0.06526802
168	0x3b41ba7b	0.0029560614
169	0x3d52bf43	0.051451933
170	0x3cd47d38	0.025938615
171	0xbc59bbba	-0.013289386
172	0x3c57d10b	0.013172398
173	0xbda088c4	-0.07838586
174	0xbe15b8de	-0.14621302
175	0xbca32768	-0.019916251
176	0x3d19d101	0.037552837
177	0xbd43ff4f	-0.047850903
178	0xbd157416	-0.03648766
179	0xbe0b7847	-0.13620101
180	0xbdf9c6de	-0.12196134
181	0x3d1ee13e	0.038789026
182	0xbc99be59	-0.018767523
183	0xbdbc8394	-0.09204784
184	0x3ded3064	0.115814954
185	0xbe747b94	-0.23875266
186	0x3b7db01c	0.0038709706
187	0xbdd7a3d7	-0.10529297
188	0x3c10aadf	0.008829801
189	0x3cdf05b1	0.027224394
190	0x3cf3385f	0.029689966
191	0xbdb08be5	-0.08620433
192	0xbd0616ec	-0.032736704
193	0x3cf83eb9	0.030303346
194	0x3d2aea6a	0.04172746
195	0xbc75c125	-0.0149996625
196	0x3d47a6fc	0.048743233
197	0xbce3687c	-0.027759783
198	0xbd8e1ab7	-0.06938689
199	0x3d0f9edf	0.03506362
200	0x3daf0cac	0.08547339
201	0xbdb22760	-0.086989164
202	0x3b13a550	0.0022528954
203	0xbca0c618	-0.019625708
204	0x3d0aa046	0.033844255
205	0x3cbc558e	0.022990014
206	0x3d78305d	0.060592998
207	0xbd820404	-0.06348422
208	0xbcb02ec7	-0.02150668
209	0x3e032395	0.12806542
210	0x3c0a098f	0.0084251305
211	0xbd5e88d7	-0.05432972
212	0x3d43f6ff	0.047842976
213	0x3dbdd7bf	0.09269666
214	0x3ca4818d	0.020081306
215	0xbc66aca4	-0.014079247
216	0x3da2be23	0.07946422
217	0x3d864da9	0.06557781
218	0x3c46301e	0.012096433
219	0x3d377c0e	0.044796042
220	0xbd53ceeb	-0.051711004
221	0xbd01d0eb	-0.03169338
222	0xbd2e0f70	-0.04249519
223	0x3d6738df	0.05645072
224	0x3d3e2f61	0.046431903
225	0xbdb5d3ef	-0.08878314
226	0xbd0976b5	-0.033560473
227	0x3e0077d6	0.12545714
228	0x3da18e38	0.07888454
229	0x3d9f5778	0.07780355
230	0xbc5b0560	-0.013367981
231	0x3c41d93e	0.01183158
232	0x3d7ea8bc	0.062172636
233	0x3e2a5e3e	0.16637513
234	0x3d9c0a44	0.076191455
235	0x3d1d3a09	0.038385425
236	0x3d241563	0.04005946
237	0xbccf1574	-0.025278784
238	0xbd450891	-0.048103873
239	0xbd2e6a06	-0.04258158
240	0x3d9cc894	0.07655445
241	0xbb4e11db	-0.0031443748
242	0x3d8c7a6f	0.0685929
243	0x3c59c58d	0.013291729
244	0xbdc3b472	-0.095559016
245	0x3dfabc95	0.122430004
246	0xbd454982	-0.048165806
247	0xbcfd3a63	-0.03091163
248	0x3c8a642f	0.016893474
249	0xbe063a38	-0.13108146
250	0x3d158cfd	0.03651141
251	0xbddde93a	-0.108355
252	0xbd529ce9	-0.051419172
253	0xbcb79bec	-0.022413217
254	0xbdcd7c1d	-0.10033438
255	0xbe1a8128	-0.15088332

actor.4.bias f4 [128]
0	0x3cc9f259	0.024651693
1	0xbd52a616	-0.051427923
2	0xbc8d6a31	-0.01726255
3	0xbe7145f3	-0.2356184
4	0xbe635dd7	-0.22203766
5	0xbe0b28e8	-0.13589823
6	0xbd72c09d	-0.05926572
7	0xbdb0429b	-0.08606454
8	0xbe13729a	-0.14399186
9	0xbcf300e7	-0.029663516
10	0xbc80963d	-0.01569664
11	0xbd8ea194	-0.06964412
12	0xbbc533aa	-0.0060181217
13	0xbe1b1536	-0.1514481
14	0xbbbca460	-0.0057568997
15	0xbc7fe9ba	-0.01561969
16	0xbda4053c	-0.08008811
17	0xbe211d7b	-0.15733902
18	0xbe0e76f1	-0.1391256
19	0xbcbb545c	-0.022867374
20	0xbe2a948a	-0.16658226
21	0xbe4c4ae9	-0.19950451
22	0x3db0f572	0.08640565
23	0xbd0f1eda	-0.03494153
24	0xbc66f1ed	-0.014095766
25	0x3b431d1d	0.0029771992
26	0xbe0d82e7	-0.13819467
27	0xbe1c0945	-0.15237911
28	0xbd835f9e	-0.06414722
29	0xbc0f4ad8	-0.0087458715
30	0xbdb39e2e	-0.08770405
31	0xbe088682	-0.1333256
32	0xbd87e9c2	-0.06636383
33	0xbc82f69a	-0.01598673
34	0xbdf5d7d8	-0.120040596
35	0xbdb7b482	-0.08969976
36	0xbdadb77c	-0.084822625
37	0xbdda4c64	-0.106591016
38	0xbdc140ef	-0.09436213
39	0xbd7b1e4d	-0.061308194
40	0xbcd33df8	-0.025786385
41	0xbe17f6d7	-0.14840256
42	0xbd8798c8	-0.066209376
43	0xbe17c837	-0.1482247
44	0xbe0c72ad	-0.1371562
45	0xbb227229	-0.0024787283
46	0xbdeff0a4	-0.117158204
47	0x3c93b6b1	0.01803145
48	0xbb369f43	-0.0027865923
49	0xbe8fe00f	-0.2810063
50	0xbcd211fd	-0.025643343
51	0xbbf5d8d9	-0.007502657
52	0x3d163afb	0.036677342
53	0xbdb9c913	-0.09071555
54	0x3c887860	0.016658962
55	0xbd87d2c4	-0.06631997
56	0xbb360927	-0.0027776451
57	0x3d2e4e1f	0.04255497
58	0x3ca55f77	0.020187123
59	0xbe48bba1	-0.19602825
60	0xbdabab28	-0.08382255
61	0xbe9bcf36	-0.30431527
62	0xbd0ddbf4	-0.03463359
63	0xbd12e91c	-0.03586684
64	0xbddfd850	-0.1092993
65	0xbd9761f5	-0.07391731
66	0xbe20a733	-0.15688781
67	0xbd283c8a	-0.04107336
68	0xbba317e9	-0.0049772155
69	0xbe4da68f	-0.20083068
70	0xbca9d41e	-0.020731028
71	0x3ce5cbc2	0.02805126
72	0x3d153042	0.036422975
73	0x3d8f942e	0.07010685
74	0xbc6a900f	-0.014316573
75	0x3d846f63	0.06466558
76	0x3d3bf810	0.045890868
77	0xbd49da89	-0.049280677
78	0xbd8d9e9a	-0.069150165
79	0xbc7ddc31	-0.015494392
80	0x3ce8e609	0.028430002
81	0xbd556c91	-0.05210549
82	0xbc9f5bb2	-0.019452903
83	0xbbd2509f	-0.006418302
84	0xbdae75db	-0.08518573
85	0xb8c9cdec	-9.622783e-05
86	0xbe47b486	-0.19502458
87	0x3d94190a	0.07231338
88	0xbdaab98b	-0.08336171
89	0xbda910ae	-0.082551345
90	0x3d01c37b	0.031680565
91	0xbd0ea1bc	-0.03482221
92	0xbdfaf223	-0.12253215
93	0x3d720402	0.059085853
94	0xbdc06e64	-0.09396055
95	0xbcd5a8d9	-0.02608149
96	0xbbdca265	-0.006733226
97	0x3d565deb	0.05233566
98	0xbdafebc6	-0.08589892
99	0xbd73be2c	-0.059507534
100	0xbde7d9ba	-0.11320825
101	0x3b401349	0.002930837
102	0xbc9356f3	-0.017985797
103	0x3d07c408	0.033145934
104	0xbde1735a	-0.1100833
105	0xbe1430d8	-0.14471757
106	0xbd8b5568	-0.06803399
107	0x3d0ad0ee	0.033890657
108	0xbdaad265	-0.08340911
109	0xbe019f1d	-0.12658353
110	0xbd8d3e32	-0.068966284
111	0x3da8a4eb	0.082345806
112	0xbdbb41f3	-0.09143438
113	0xbdba7c7a	-0.09105773
114	0xbd7969a5	-0.060891766
115	0x3db05452	0.08609833
116	0x3d2c62e8	0.04208651
117	0x3d2bc257	0.041933384
118	0x3d33632c	0.04379575
119	0xbd548da9	-0.05189291
120	0x3dbd84e4	0.092538625
121	0xbd4f7138	-0.050645083
122	0xbdb9aede	-0.090665564
123	0xbe10123e	-0.14069459
124	0xbd96d663	-0.0736511
125	0x3d232b6c	0.039836332
126	0x3cf736ba	0.030177463
127	0xbeb86dfe	-0.36021417

actor.6.weight f4 [12, 128]
0	0xbdc21bfb	-0.09477993
1	0xbcf899a2	-0.030346695
2	0xbd603cc1	-0.05474544
3	0xbd57e86a	-0.05271188
4	0xbd6729df	-0.056436416
5	0xbd5cf4fe	-0.05394458
6	0xbcaa7ded	-0.020812
7	0x3c4bc03d	0.01243597
8	0xbcd86fda	-0.026420522
9	0xbce37572	-0.027765963
10	0x3d332704	0.04373838
11	0xbca1de8f	-0.019759445
12	0xbd084508	-0.03326896
13	0xbcf239fc	-0.029568665
14	0x3d067a75	0.032831628
15	0x3cd16914	0.0255628
16	0x3c0a88d2	0.008455472
17	0x3d7ff387	0.062488105
18	0xbcc412ab	-0.023934683
19	0xbd49023f	-0.049074408
20	0xbd75c29c	-0.060000047
21	0xbcbe0f23	-0.023200577
22	0xbae2bf95	-0.0017299528
23	0x3c5c4270	0.013443574
24	0x3d34f36a	0.04417745
25	0xbcc22d65	-0.023703286
26	0x3c51854b	0.012788127
27	0xbc86254f	-0.016375212
28	0x3ccacdc3	0.024756318
29	0x3d3d03f4	0.046146348
30	0xbd964ea3	-0.073392175
31	0xbce5ccff	-0.028051851
32	0xbcf2a0c0	-0.029617667
33	0xbabf6408	-0.0014601955
34	0xbc7bd85f	-0.015371411
35	0xbd27e64e	-0.04099112
36	0x3ce152ef	0.027505366
37	0xbd849a9d	-0.06474803
38	0xbc87c238	-0.016572103
39	0x3c5f6ab1	0.013636277
40	0xbc06242d	-0.008187336
41	0xbcc05593	-0.023478305
42	0xb9f9dc06	-0.0004765691
43	0x3bd3cc41	0.006463558
44	0xbbb008ae	-0.0053721284
45	0xbd16f98b	-0.036859076
46	0xbd743048	-0.059616357
47	0x3cf3e171	0.029770585
48	0xbc517622	-0.012784513
49	0x3d35dace	0.04439812
50	0x3cb52dbc	0.022116534
51	0x3d634255	0.05548318
52	0xbbe4c8a6	-0.006981927
53	0xbc137037	-0.008998922
54	0xbd1d092b	-0.03833882
55	0xbb95ed0e	-0.0045753783
56	0x3b890beb	0.004182329
57	0x3dbc2154	0.09186044
58	0x3ce9244c	0.02845969
59	0x3d66ba53	0.056330036
60	0xbd0e4fba	-0.034744002
61	0x3d767fbf	0.060180422
62	0xbd64a635	-0.05582257
63	0x3c11658f	0.008874311
64	0xbdb26737	-0.08711093
65	0xbbff8e80	-0.0077989697
66	0x3da48894	0.08033863
67	0xbb0910be	-0.002091452
68	0x3ba749af	0.0051052193
69	0xbd60173d	-0.05470966
70	0x3d0d363c	0.03447555
71	0xbd60e150	-0.054902375
72	0x3d342e5a	0.043989517
73	0x3dcc6e64	0.09981993
74	0xbcd59d9d	-0.026076132
75	0x3c944518	0.018099353
76	0x3d686090	0.056732714
77	0x3cdc48b7	0.026890142
78	0x3c13e20f	0.009026065
79	0x3d2616bf	0.040549036
80	0x3d75683b	0.059913855
81	0xbd125f57	-0.035735454
82	0x3cf8562c	0.030314527
83	0x3d14336d	0.036181856
84	0x3ca5eda4	0.020254917
85	0x3d15b9f7	0.036554303
86	0xbdda0982	-0.10646345
87	0x3dab6dc2	0.08370544
88	0x3d0c7424	0.034290448
89	0x3b2fcafd	0.0026823871
90	0x3bbde1ba	0.005794731
91	0x3d3805ce	0.04492741
92	0x3d6b6615	0.0574704
93	0x3d7adeb3	0.06124754
94	0x3c6efa97	0.014586112
95	0xbcd010ae	-0.025398578
96	0x3c66e280	0.014092088
97	0x3dadd266	0.08487396
98	0x3d7ac3e8	0.061221987
99	0xbd68919c	-0.05677949
100	0xbc4ae073	-0.012382614
101	0x3cd5145e	0.026010688
102	0xbd1d033e	-0.03833317
103	0x3d01990b	0.031640094
104	0x3c2e462d	0.010636848
105	0xbca5f732	-0.020259473
106	0xbd9b458f	-0.075816266
107	0x3d1b2bc0	0.03788352
108	0xbcc917d7	-0.0245475
109	0x3c9b63bb	0.018968454
110	0x3d0db035	0.034591872
111	0xbd035dc4	-0.032071844
112	0xbd4303e8	-0.047611147
113	0xbdb0054b	-0.085947596
114	0xbd11bd1b	-0.035580736
115	0xbcc510df	-0.024055896
116	0xbd282133	-0.041047286
117	0x3d34bd44	0.04412581
118	0x3c98971a	0.018626738
119	0x3d2c425f	0.042055484
120	0xbba49434	-0.00502255
121	0x3c81cdfa	0.015845288
122	0x3cece8e4	0.028919645
123	0x3c4d748a	0.012539992
124	0x3caf0788	0.021365896
125	0x3d578480	0.052616596
126	0xbc991367	-0.01868601
127	0x3cf8ee20	0.030386984
128	0xbc4ef369	-0.012631276
129	0xbd1ac888	-0.037788898
130	0xbc397621	-0.011319668
131	0x3d3bb79e	0.045829408
132	0x3c8333b0	0.016015857
133	0x3dcfd117	0.101473026
134	0xbc9e453f	-0.019320128
135	0xbc8c13a3	-0.017099207
136	0x3d563501	0.052296642
137	0xbc47f199	-0.012203597
138	0x3c94e665	0.018176267
139	0xbc5d0735	-0.013490488
140	0x3a9b4870	0.001184715
141	0xbcc74532	-0.024324987
142	0x3c919c38	0.017774686
143	0x3d253fba	0.040343978
144	0x3bfb616b	0.0076715252
145	0x3c399595	0.011327167
146	0x3d28dc05	0.041225452
147	0xbda95954	-0.08268991
148	0xbcfc25d0	-0.03077975
149	0xbae7ed64	-0.0017694649
150	0xbae8fb14	-0.0017775022
151	0x3d3d3bd6	0.046199642
152	0xbd2df4a5	-0.04246964
153	0xbc84f687	-0.016230835
154	0x3d1f07b6	0.038825713
155	0x3cc95f8e	0.024581697
156	0x3d00be1e	0.03143131
157	0x3c23a2a1	0.009987504
158	0xbc451756	-0.0120294895
159	0x3d6ffe66	0.058592223
160	0x3d55bfc6	0.052184843
161	0x3b6d7bef	0.00362372
162	0xbd0b8cd3	-0.034069847
163	0xbc7b0bbf	-0.015322625
164	0x3d7b81b8	0.061403006
165	0x3d2841bb	0.04107831
166	0x3c5acb0e	0.013354076
167	0x3cc648ed	0.024204696
168	0xbc84cca3	-0.01621086
169	0x3c1eaa92	0.009684222
170	0x3bd1a7bb	0.006398169
171	0xbcbfb816	-0.023403209
172	0xbd3efc41	-0.046627287
173	0x3d7c3d8e	0.06158214
174	0x3d2452e8	0.040118128
175	0x3c9750d7	0.018471165
176	0x3c8f5ca5	0.017500231
177	0xbcd89ea7	-0.026442839
178	0xbc424b53	-0.011858779
179	0xbc2d2ac5	-0.010569279
180	0xbd93e810	-0.07221997
181	0x3cf2aa9c	0.029622369
182	0x3ba16943	0.0049258783
183	0xbd8d77a6	-0.06907587
184	0xbcc374b8	-0.023859367
185	0xbce68252	-0.028138313
186	0xbd0b60ba	-0.034027793
187	0xbc15b7fa	-0.009138102
188	0xbd5fe732	-0.054663844
189	0x3d16f516	0.036854826
190	0x3c723bfe	0.014784811
191	0x3cd78aa3	0.026311224
192	0x3d642c30	0.055706203
193	0xbd343749	-0.043998037
194	0x3d0e9e36	0.03481885
195	0xbd185c6f	-0.037197527
196	0x3d22eb40	0.039775133
197	0x3ccf236a	0.025285441
198	0x3d4a843e	0.049442522
199	0xbd3dd54a	-0.046345986
200	0xbdfc418e	-0.12317191
201	0x3d02e39b	0.031955343
202	0x3cb09785	0.021556625
203	0x3cb23dfc	0.021758072
204	0x3d37a425	0.044834275
205	0x3be8c210	0.007103212
206	0x3c78e17a	0.015190477
207	0x3d9c206b	0.07623371
208	0x3d49c9b1	0.049264614
209	0xbc4a7e6e	-0.012359245
210	0x3ca1a74f	0.0197331
211	0xbd0dbe44	-0.03460528
212	0x3c789c0c	0.015173923
213	0xbd1f5ffc	-0.038909897
214	0x3e0d996e	0.1382806
215	0xbd8ae985	-0.067828216
216	0x3d34f56b	0.04417936
217	0x3b4ec608	0.0031551141
218	0x3c0c4dc8	0.008563466
219	0x3d0588af	0.032601055
220	0xbdd68d4b	-0.10476168
221	0xbce97ccc	-0.02850189
222	0x3d0499ba	0.032373168
223	0xbd29d325	-0.04146113
224	0xbc2c98f6	-0.010534516
225	0xbd5ce722	-0.053931363
226	0x3ccf5d46	0.02531303
227	0x3d0620c9	0.03274611
228	0x3ca4bcc3	0.02010954
229	0x3d20ddd3	0.039274048
230	0x3c1739df	0.009230106
231	0x3d225b29	0.03963772
232	0xbca06826	-0.019580912
233	0x3c7002a3	0.014649066
234	0x3a87db72	0.0010365082
235	0x3ca36ea7	0.019950224
236	0x3d065ad4	0.032801464
237	0xbdb77487	-0.08957773
238	0xbcd2695d	-0.025685007
239	0xbcfa2eb3	-0.030539846
240	0xbd9a8902	-0.075456634
241	0x398a6541	0.0002639685
242	0xbd9760af	-0.07391488
243	0x3c32a078	0.010902517
244	0xbcb35666	-0.021891784
245	0x3cde751f	0.027155457
246	0xbd003f63	-0.03131045
247	0xbcd71f1a	-0.026259948
248	0xbcee13b7	-0.029062135
249	0xbb1823ac	-0.0023214621
250	0x3c972169	0.018448548
251	0x3dbeb602	0.09312059
252	0x3d56a5ed	0.052404333
253	0xbd05b7bc	-0.032645926
254	0xbd7522c2	-0.0598476
255	0x3b76d475	0.0037663255

actor.6.bias f4 [12]
0	0x3d3e7fae	0.046508484
1	0xbdb8484f	-0.08998167
2	0x3d2dadfc	0.042402253
3	0xbd887a2d	-0.06663928
4	0x3e135469	0.14387669
5	0xbd67055a	-0.056401588
6	0x3caa3148	0.020775452
7	0xbdcd61bf	-0.10028409
8	0xba802870	-0.0009777676
9	0xbd76ac3a	-0.06022284
10	0x3e064083	0.13110547
11	0xbe07a599	-0.13246764
