src/ga_quadruped/policy/param_action.onnx (onnx, 772885 bytes, 8 tensors)

actor.0.weight f4 [512, 52]
0	0xbe32bf5b	-0.17455809
1	0xbe669134	-0.22516328
2	0x3ea5dc1e	0.323945
3	0xbe3da3f2	-0.18519571
4	0xbd5287cf	-0.05139905
5	0xbb9d056b	-0.0047919056
6	0xbc7f7bd4	-0.015593488
7	0xbd96da5d	-0.07365868
8	0x3d0b293d	0.033974875
9	0x3e3a5ede	0.18200251
10	0x3d836861	0.06416393
11	0xbd7bb3e6	-0.06145086
12	0x3e1b3d05	0.15159996
13	0x3dab7bb6	0.08373205
14	0x3d8e4503	0.06946757
15	0xbdd8d676	-0.1058778
16	0xbe81b8ff	-0.25336453
17	0xbec2565f	-0.3795652
18	0x3e99d791	0.30047277
19	0x3e067a94	0.13132697
20	0x3dbeb18f	0.0931121
21	0x3e83b829	0.2572644
22	0x3eff9f43	0.49926195
23	0x3d5c2fbb	0.053756457
24	0xbf062840	-0.52405167
25	0xbdfad301	-0.12247277
26	0xbde9fd70	-0.114252925
27	0x3e8d614d	0.27613297
28	0xbe1c2194	-0.15247184
29	0x3ca2f61c	0.019892745
30	0x3dcf070f	0.10108768
31	0x3e68cde5	0.22734793
32	0x3c809994	0.015698232
33	0xbe9e29f9	-0.30891398
34	0xbed703b7	-0.41995022
35	0xbe7f1ae2	-0.24912599
36	0x3ddb1a7f	0.10698413
37	0x3dfa59e1	0.12224174
38	0x3ec61867	0.38690493
39	0x3f271986	0.6527332
40	0x3bfe728c	0.00776512
41	0xbbd64128	-0.006538529
42	0xb99ab12a	-0.00029505166
43	0x3d13a1e8	0.036043078
44	0x3d3cdb43	0.04610754
45	0x3d20a31a	0.039218046
46	0x3c944e2b	0.01810368
47	0xbd2c630a	-0.04208664
48	0xbc6c95e0	-0.01444003
49	0x3b90ef1a	0.0044230344
50	0xbd0582f1	-0.03259558
51	0xbd1ccef7	-0.038283315
52	0x3e33ca0e	0.17557546
53	0x3e06a4a9	0.1314875
54	0xbe63bad2	-0.22239235
55	0xbe278935	-0.16360934
56	0xbdd75102	-0.10513498
57	0xbd96c8a0	-0.07362485
58	0xbe801e2b	-0.25023016
59	0x3c2c7b06	0.010527378
60	0xbdb83080	-0.08993626
61	0x3e09d1d7	0.13458954
62	0x3da0a9ee	0.078449115
63	0xbd72d711	-0.059287135
64	0x3c9ce94f	0.019154219
65	0x3db9f268	0.090794384
66	0x3c1d4675	0.009599318
67	0x3c77489b	0.015092994
68	0xbda2fcf8	-0.07958406
69	0xbe025e55	-0.12731297
70	0xbeb6413f	-0.35596654
71	0x3e692088	0.22766316
72	0x3e263268	0.16230166
73	0x3d98b57c	0.074564904
74	0xbe0c2ed3	-0.13689737
75	0x3d3bd49d	0.04585706
76	0x3dbc0486	0.0918055
77	0xbe6b7958	-0.22995508
78	0x3da81537	0.082071714
79	0x3e8ce50c	0.275185
80	0xbea66c20	-0.32504368
81	0x3e7ad672	0.24495867
82	0x3e1e79ac	0.15476102
83	0x3d3f69b7	0.046731677
84	0xbf0aabdc	-0.54168487
85	0x3e0b0657	0.13576637
86	0xbda2b949	-0.079454966
87	0x3db7aa49	0.08968026
88	0xbf4c6dab	-0.7985484
89	0x3e712f49	0.23553194
90	0xbd9f634c	-0.07782611
91	0x3bdc59cd	0.0067245723
92	0x3de9e593	0.11420741
93	0x3d4df721	0.05028451
94	0xbe137bd8	-0.14402711
95	0x3ace4ef3	0.0015740081
96	0x3d027fab	0.031860035
97	0xbc6b2a1f	-0.014353304
98	0xbce18b3b	-0.02753221
99	0xbc01a0e0	-0.007911891
100	0x3d2147b6	0.03937503
101	0xbd791b6c	-0.060817167
102	0xbcfd4445	-0.030916343
103	0xbd9eeead	-0.077603675
104	0x3e5c99ab	0.21542995
105	0xbea31c96	-0.31857747
106	0x3f146bbd	0.57976896
107	0xbda75091	-0.08169664
108	0x3e51fd8c	0.20506877
109	0xbc6759d6	-0.01412054
110	0xbdb7440f	-0.08948528
111	0x3d9b2a1f	0.07576393
112	0xbe44cdef	-0.19219182
113	0x3d1eec79	0.038799737
114	0x3dc517bd	0.09623668
115	0x3d5db8f9	0.05413148
116	0x3d398b04	0.04529859
117	0xbddf9a5a	-0.10918112
118	0xbe0b5a38	-0.13608634
119	0x3cad227d	0.02113461
120	0xbe19b2f2	-0.15009668
121	0x3d856a0d	0.06514368
122	0xbe4369f2	-0.19083384
123	0xbca94a05	-0.020665178
124	0xbdb5b5dd	-0.08872578
125	0x3de06227	0.10956221
126	0xbe0a6391	-0.13514544
127	0xbe1c6235	-0.15271838
128	0x3e4dc76e	0.20095608
129	0xbde1487a	-0.11000152
130	0x3eddbc3b	0.4330767
131	0xbe654630	-0.22390056
132	0x3dfcd063	0.12344434
133	0xbd1839cb	-0.03716449
134	0x3c222523	0.009896549
135	0xbe293cac	-0.1652705
136	0xbcbfeda3	-0.023428744
137	0x3e8d56f2	0.27605397
138	0x3edf5bca	0.43624717
139	0x3e8d8306	0.27639025
140	0xbece1eea	-0.4025796
141	0xbe49b7e9	-0.19699062
142	0x3ecb9298	0.3976028
143	0xbe977e9a	-0.29588777
144	0xbc089496	-0.008336207
145	0x3c9c3944	0.019070275
146	0x3d1228a6	0.035683297
147	0xbd09c358	-0.03363356
148	0xbc85937e	-0.016305681
149	0xbd8889b6	-0.06666891
150	0x3c82dfe5	0.015975902
151	0xbb1ec985	-0.0024229002
152	0x3d3209b8	0.0434663
153	0x3caade1b	0.020857861
154	0xbcd88696	-0.026431363
155	0xbcf754fd	-0.030191893
156	0xbd244f62	-0.040114768
157	0xbe3d0ac3	-0.18461137
158	0x3e9a3993	0.3012205
159	0xbc2ce93c	-0.010553654
160	0xbe9e69c9	-0.30940083
161	0xbd37bb73	-0.0448565
162	0x3da65e38	0.081234396
163	0xbd889bd0	-0.06670344
164	0xbd6cb6d0	-0.05779153
165	0xbd44cd85	-0.04804756
166	0xbe3d9b84	-0.18516356
167	0x3d8ec07b	0.069703065
168	0xbdabeb90	-0.08394539
169	0xbd8b3100	-0.067964554
170	0x3c7728ac	0.0150853805
171	0xbd9e8e7d	-0.07742021
172	0xbe2effef	-0.17089818
173	0xbe366173	-0.17810611
174	0x3ed3e1ae	0.41383117
175	0x3d48d527	0.049031403
176	0x3e691cd6	0.22764906
177	0x3c2d2769	0.010568478
178	0xbe92c05f	-0.28662392
179	0xbeba2496	-0.36356038
180	0x3e21c143	0.1579638
181	0x3e8284dd	0.25491992
182	0x3eb7eed0	0.35924387
183	0x3c2451ab	0.010029237
184	0xbd1f6c69	-0.038921747
185	0xbe949f93	-0.29027995
186	0xbe47e790	-0.19521928
187	0xbe1c482b	-0.15261905
188	0xbeb555d2	-0.35417038
189	0x3c138a83	0.009005192
190	0x3e9a2dcc	0.30113065
191	0x3cd2d7ce	0.02573767
192	0x3dc7cda8	0.09756023
193	0xbe07b231	-0.13251568
194	0x3ed64195	0.4184691
195	0x3e658654	0.22414523
196	0x3c38cbb9	0.01127904
197	0x3d4a1dea	0.049344935
198	0xbcbcca3f	-0.023045657
199	0xbcc81acb	-0.024426838
200	0x3ad00002	0.0015869143
201	0x3c158862	0.0091267545
202	0x3d205dd1	0.03915197
203	0x3c44cb2d	0.0120113315
204	0xbdaaded5	-0.08343283
205	0x3cb8648a	0.022508878
206	0x3d64ecf3	0.055890035
207	0xbd0ca8e0	-0.03434074
208	0x3c18779d	0.009305862
209	0xbe861d15	-0.26194063
210	0x3d43b1c8	0.047776967
211	0xbe729401	-0.23689272
212	0x3e09fd33	0.13475494
213	0x3cfed68a	0.03110816
214	0x3dfc8688	0.12330347
215	0xbe034ff3	-0.12823467
216	0x3e0ce837	0.13760458
217	0xbdd16a1d	-0.102253176
218	0xbdfe74aa	-0.12424596
219	0xbd634c9b	-0.05549298
220	0xbdbf0476	-0.09327023
221	0xbd829b31	-0.06377257
222	0xbe02014f	-0.12695812
223	0x3ccc1316	0.024911445
224	0x3c871bf8	0.016492829
225	0x3e0f2ed8	0.13982713
226	0xbe3c34bc	-0.18379492
227	0x3a7bf28c	0.00096110324
228	0xbcac66b6	-0.02104507
229	0x3cbff481	0.023432018
230	0x3e0038e2	0.12521699
231	0xbda31883	-0.079636596
232	0x3e814f10	0.25255632
233	0xbd23bc4f	-0.039974507
234	0xbddec676	-0.10877697
235	0x3e52ff9c	0.2060532
236	0xbe6b0207	-0.22949992
237	0xbdd57310	-0.10422337
238	0x3de7d858	0.11320561
239	0xbe762891	-0.24038912
240	0x3e4aeff4	0.19818097
241	0x3de1501b	0.11001607
242	0xbeac446f	-0.3364596
243	0xbcd1e88e	-0.025623586
244	0xbd7c7577	-0.06163546
245	0xbed6ce64	-0.4195434
246	0x3e7ac96b	0.24490897
247	0x3e2392e1	0.15973999
248	0xbc2a33b1	-0.010388301
249	0xbd005eca	-0.031340398
250	0xbb7c365f	-0.0038484556
251	0x3c114909	0.008867511
252	0x3cfae4a2	0.030626599
253	0x3b056c34	0.0020358684
254	0x3cfc3af2	0.030789826
255	0x3d4306fe	0.04761409

actor.0.bias f4 [512]
0	0xbd0094f3	-0.03139205
1	0x3da74be0	0.08168769
2	0xbc63dcdc	-0.013907637
3	0xbd39ff86	-0.0454097
4	0xbdecab48	-0.11556107
5	0xbd8a90cf	-0.06765901
6	0x3ccdef98	0.025138661
7	0x3d720c1e	0.059093587
8	0x3e1cf9b8	0.15329635
9	0x3df897b5	0.12138311
10	0xbe15ea0c	-0.14640063
11	0x3dd62af6	0.10457413
12	0xbde04365	-0.109503545
13	0x3dc090ba	0.094026044
14	0xbd3c90a9	-0.046036396
15	0xbd066212	-0.03280837
16	0xbd22635b	-0.039645534
17	0x3d8f873e	0.07008217
18	0x3dc2ea60	0.0951736
19	0xbcd2a5e4	-0.025713868
20	0xbdef52cd	-0.11685715
21	0x3d324859	0.043526027
22	0xbdce60b3	-0.10077038
23	0xbdd92075	-0.10601894
24	0xbda4de5e	-0.08050226
25	0xbd77360f	-0.06035429
26	0x3ddf9a71	0.10918129
27	0xbcefe774	-0.02928517
28	0xbc2e0081	-0.010620237
29	0x3da84b54	0.08217493
30	0x3e1fcb9d	0.15605016
31	0x3cf2fb85	0.02966095
32	0xbdbd382b	-0.09239229
33	0x3cc04777	0.023471577
34	0xbdcb840f	-0.099372976
35	0xbddeb141	-0.10873652
36	0x3e39ceb9	0.18145265
37	0xbe091971	-0.13388611
38	0x3da5b7bc	0.08091685
39	0x3daa81ab	0.083255135
40	0xbda46ac2	-0.08028175
41	0xbc26773f	-0.010160266
42	0xbd12fe91	-0.035887305
43	0xbcac7df3	-0.021056151
44	0x3df80a3d	0.12111328
45	0xbb9d539e	-0.0048012277
46	0x3d9f41fa	0.07776256
47	0xbe1357ec	-0.14389008
48	0x3da4cdf3	0.08047094
49	0xbc034e62	-0.008014293
50	0x3bed453f	0.007240921
51	0xbc87281c	-0.016498618
52	0xbd1360de	-0.03598105
53	0xbd809f4d	-0.06280384
54	0xbdc3e0d7	-0.09564369
55	0x3cde94a6	0.02717049
56	0xbc423f5f	-0.011855929
57	0xbe080188	-0.13281834
58	0x3de13c0f	0.109977834
59	0x3d80916a	0.062777355
60	0x3e1e4b6e	0.15458462
61	0xbd8d019a	-0.06885071
62	0x3b8f7e02	0.004379035
63	0x3d5b49a0	0.05353701
64	0x3d5e2dfc	0.054243073
65	0xbe2c4ea4	-0.16826874
66	0x3d2ec3f5	0.042667348
67	0x3e001864	0.12509304
68	0x3da8d668	0.0824402
69	0x3985156c	0.00025383697
70	0xbe22b3de	-0.15888926
71	0xbc8ee1ab	-0.017441591
72	0x3d39ec26	0.045391224
73	0xbda79579	-0.081828065
74	0xbd76a5f0	-0.060216844
75	0xbda8b609	-0.082378455
76	0xbd657fab	-0.056029957
77	0x3c674c34	0.014117289
78	0xbb26d9e4	-0.0025459463
79	0x3d8c7854	0.06858888
80	0xbd5443ae	-0.051822357
81	0xbe045ef0	-0.12926841
82	0xbcc4f21d	-0.02404123
83	0xbd8a943f	-0.06766557
84	0xbce303b8	-0.027711734
85	0x3d806169	0.062685795
86	0x3db2ead2	0.08736195
87	0x3d2a9b65	0.041652102
88	0xbd1e73b5	-0.038684566
89	0xbd5659ca	-0.052331723
90	0x3e1d126f	0.15339063
91	0x3c7bff62	0.015380712
92	0xbd81ca88	-0.06337458
93	0x3dbb6e27	0.09151869
94	0x3d9e814b	0.077395044
95	0x3da555d2	0.080730096
96	0x3d907ed8	0.070554435
97	0xbca153f6	-0.019693356
98	0xbdff3885	-0.12461952
99	0x3e144219	0.14478339
100	0xbae05efe	-0.0017118154
101	0xbc865fa8	-0.016403034
102	0xbdeb2911	-0.11482442
103	0xbcb82455	-0.022478262
104	0xbdfb9417	-0.12284105
105	0x3cfaf9d4	0.030636705
106	0xbe200fe4	-0.15631062
107	0x3c51218a	0.012764344
108	0xbdd321bb	-0.10309168
109	0xbd92229d	-0.07135508
110	0x3d0e5880	0.03475237
111	0x3e39b727	0.18136273
112	0xba32106c	-0.0006792608
113	0x3d28f8fd	0.04125308
114	0x3d3cbfe5	0.046081442
115	0x3d9ed900	0.07756233
116	0xbdfbed8c	-0.12301168
117	0xbd251ecb	-0.04031257
118	0x3d999b74	0.075003535
119	0x3d254401	0.040348057
120	0x3b400d38	0.0029304754
121	0xbd12af7f	-0.035811897
122	0xbd6e6d03	-0.05820943
123	0x3e1a9d1a	0.15098992
124	0xbe1f5c6c	-0.155626
125	0xbd47c375	-0.048770387
126	0x3cc662cd	0.024217034
127	0x3ccedbac	0.025251232
128	0x3da833f7	0.082130365
129	0x3c8d7932	0.017269704
130	0xbd96a4c9	-0.07355649
131	0xbd011673	-0.03151555
132	0x3e089937	0.13339697
133	0x3d70276c	0.058631346
134	0x3d7e0f15	0.062026102
135	0x3e02927b	0.1275119
136	0xbb5a050d	-0.003326717
137	0xbe07ef22	-0.13274816
138	0xbd8521ed	-0.065006115
139	0xbdf13874	-0.11778346
140	0x3da96d91	0.08272851
141	0x3e1b6682	0.15175822
142	0xbe17e639	-0.14833917
143	0x3b98c1eb	0.0046617887
144	0xbd8d646e	-0.06903921
145	0xbd7c0d3a	-0.06153605
146	0xbd9052a6	-0.07047014
147	0x3cb78104	0.022400387
148	0x3dc41de3	0.09576013
149	0xbb3fd01d	-0.0029268332
150	0x3d9c1710	0.07621586
151	0xbbd4c413	-0.0064931004
152	0xbde21c01	-0.110404976
153	0x3c3494b7	0.0110217845
154	0x3db66d61	0.08907581
155	0x3e173f4f	0.14770244
156	0x3d452e86	0.04814007
157	0x3cb790c7	0.022407902
158	0x3c640a1c	0.013918426
159	0xbe104c16	-0.14091524
160	0x3cc81db0	0.024428219
161	0xbd15973a	-0.036521174
162	0xbd868ce6	-0.06569843
163	0xbda7475d	-0.08167908
164	0x3df1a126	0.11798315
165	0x3d83abb9	0.06429238
166	0xbb484397	-0.0030557865
167	0xbd7f6901	-0.062356
168	0xbd23a656	-0.039953552
169	0xbd927d82	-0.07152845
170	0x3d8faabe	0.07014988
171	0x3cca3fe5	0.02468867
172	0x3d26f2f1	0.04075903
173	0x3d5f4ad2	0.054514714
174	0xbcf6b7cf	-0.030116944
175	0x3d0f4d79	0.034985993
176	0xbe1f8c51	-0.1558087
177	0xbd8d7052	-0.06906189
178	0xbbcd2263	-0.0062602027
179	0x3db8c3c8	0.09021717
180	0xbdf37e4b	-0.11889323
181	0x3c678538	0.014130883
182	0x3d1517df	0.03639972
183	0xbe1cc96c	-0.15311211
184	0x3d29c621	0.041448716
185	0xbd01f4aa	-0.03172747
186	0xbdb7bd86	-0.089716956
187	0xbd7a8d76	-0.061170064
188	0xbe0b029f	-0.13575219
189	0x3da99924	0.082811624
190	0xbcc9a368	-0.024614051
191	0xbe213194	-0.15741569
192	0x3df37330	0.11887205
193	0xbd134717	-0.03595647
194	0x3da20915	0.079118885
195	0x3ced8f68	0.028999045
196	0x3e271481	0.16316415
197	0x3d50aee1	0.050948028
198	0x3dacbff5	0.084350504
199	0xbdb06899	-0.086137004
200	0xbdaabeda	-0.08337183
201	0xbdd99d6f	-0.10625731
202	0xbdccf601	-0.10007859
203	0x3b4d11be	0.0031291093
204	0x3d245e2f	0.040128883
205	0xbc4c69a0	-0.012476355
206	0x3dbeefa5	0.09323052
207	0x3bb5eb22	0.0055517117
208	0x3d2f24f8	0.042759866
209	0xbdb1aad8	-0.08675164
210	0xbda62358	-0.0811221
211	0xbd45fcb0	-0.048336685
212	0xbd7ad670	-0.06123966
213	0xbc98b30c	-0.018640064
214	0xbdf26eb3	-0.118375205
215	0xbd913086	-0.07089333
216	0xbdd321f1	-0.10309208
217	0x3c87bb6c	0.016568862
218	0xbcdbca05	-0.026829729
219	0xbaea84de	-0.0017892381
220	0xbc40e95c	-0.011774387
221	0x3dc521a0	0.09625554
222	0xbd6015b1	-0.054708187
223	0xba9f78f4	-0.0012166784
224	0x3dda527c	0.10660264
225	0x3a0bce82	0.0005333201
226	0xbdb84ee7	-0.089994244
227	0xbdcfdbbc	-0.10149333
228	0xbd215cca	-0.03939513
229	0xbe259ac8	-0.16172326
230	0x3d8a205a	0.06744452
231	0x3df6a074	0.12042323
232	0x3d8c483e	0.068497166
233	0xbd682063	-0.05667151
234	0xbbe888c7	-0.0070963833
235	0x3d2635c6	0.040578626
236	0xbd08ab1d	-0.03336631
237	0x3db69fb6	0.08917181
238	0xbd3810ea	-0.044938006
239	0xbd511298	-0.051043123
240	0x3d1a346b	0.037647646
241	0xbcaaa7f0	-0.020832032
242	0x3d94eed3	0.072721146
243	0xbde756d5	-0.11295859
244	0x3d37058d	0.044683028
245	0xbb328a4f	-0.0027243083
246	0x3c26c9af	0.010179921
247	0x3d6878d9	0.056755874
248	0x3ddddccb	0.108331285
249	0x3cd33dbc	0.025786273
250	0x3a74362e	0.0009315935
251	0xba8074cc	-0.0009800433
252	0x3e22ebde	0.15910289
253	0xbcea125a	-0.028573204
254	0x3dcaae5c	0.09896538
255	0xbe2d2563	-0.16908793

actor.2.weight f4 [256, 512]
0	0x3cfe025e	0.031006988
1	0xbb249ffb	-0.002511977
2	0xbbdb59d8	-0.00669406
3	0xbb405a4e	-0.00293507
4	0x3d9c14f6	0.076211855
5	0x3d3c0999	0.04590759
6	0xbc14318d	-0.009045017
7	0xbd6caf14	-0.057784155
8	0xbda4df9e	-0.08050464
9	0xbd9b0056	-0.075684234
10	0x3d90acc1	0.070642
11	0x3cbde19e	0.023178872
12	0x3cb8bdc1	0.02255142
13	0x3cc7d7ab	0.02439483
14	0xbd804973	-0.06264009
15	0x3d3d106f	0.04615825
16	0x3a8cb698	0.001073557
17	0xbc8e641c	-0.01738172
18	0xbd20679f	-0.03916132
19	0x3ca488a4	0.020084687
20	0x3d5e3785	0.054252166
21	0xb93e7a62	-0.00018165403
22	0xbe128d75	-0.14311774
23	0xbc8247ab	-0.015903315
24	0xbd110643	-0.035406362
25	0xbd8de1cd	-0.06927834
26	0x3c1cc830	0.009569213
27	0x3d1e851d	0.038701165
28	0x3b38e730	0.002821397
29	0xbb8da338	-0.0043224357
30	0xbca11a09	-0.019665735
31	0xbdbc14aa	-0.09183629
32	0xbd6cfc84	-0.057858005
33	0xbbf72431	-0.007542156
34	0x3ccc41ac	0.024933659
35	0xbc83987b	-0.01606392
36	0xbc007987	-0.007841474
37	0x3c7df737	0.015500835
38	0x3d6c063a	0.057623126
39	0xbdbc59c1	-0.09196807
40	0x3d2fa163	0.04287852
41	0x3d58da7d	0.05294274
42	0xba24e6cc	-0.0006290495
43	0xbcfee9fa	-0.031117428
44	0xbdfd961b	-0.12382146
45	0xbc795adc	-0.0152194165
46	0x3ae226f7	0.0017254044
47	0x3d9e78ad	0.07737861
48	0x3da23b12	0.07921423
49	0xbbea09d1	-0.0071422835
50	0xbb52bd21	-0.0032156187
51	0xbd540ac3	-0.051768076
52	0x3d9c0ae8	0.07619268
53	0xbdcbaa16	-0.09944551
54	0x3d8056bb	0.062665425
55	0x3d0579ab	0.032586735
56	0xbce78fdb	-0.028266838
57	0x3a832189	0.0010004501
58	0xbdce005b	-0.100586616
59	0xbda6c573	-0.08143129
60	0xbe01ac29	-0.1266333
61	0xbcc44a74	-0.023961283
62	0x3c860bf2	0.016363118
63	0xbb7564f7	-0.0037444213
64	0xbd82da93	-0.06389346
65	0xbce15663	-0.027507013
66	0xbc533593	-0.012891191
67	0xbd284386	-0.04108002
68	0x3d8700c7	0.06591945
69	0x3ccf49d8	0.025303766
70	0x3dc25ddf	0.09490561
71	0x3b71b80b	0.003688338
72	0x3d87e03b	0.066345654
73	0xbc5b644c	-0.013390612
74	0x3d2604e1	0.040531997
75	0xbc50144a	-0.01270015
76	0xbc8accd4	-0.016943373
77	0x3bb89e43	0.0056341006
78	0xbc7446cd	-0.014909458
79	0xbaab5306	-0.0013071008
80	0xbd29da33	-0.041467857
81	0x3e02118a	0.12702003
82	0x3d6830b8	0.056687087
83	0xbba8a296	-0.005146335
84	0xbd3b075e	-0.045661323
85	0x3dc02dc0	0.09383726
86	0xbdac15ca	-0.084025934
87	0x3a8d7e1d	0.0010795031
88	0xbc909c30	-0.017652601
89	0xbd23a4b2	-0.039951988
90	0xbc81be63	-0.015837854
91	0xbd4698e7	-0.048485663
92	0xbbb876ca	-0.005629395
93	0x3ce73440	0.028223157
94	0x3cd69971	0.026196213
95	0xbc9e6b07	-0.019338144
96	0xb929fc32	-0.00016211046
97	0x3b3222d3	0.0027181401
98	0xbd5296d7	-0.051413383
99	0xbca84a47	-0.02054323
100	0xbdd868cb	-0.10566863
101	0xbbec7772	-0.0072163874
102	0x3c6f0b67	0.014590121
103	0x3d517220	0.05113423
104	0x3e05d24f	0.13068508
105	0x3d449c84	0.048000827
106	0xbb6dc77a	-0.0036282227
107	0xbc97c158	-0.01852481
108	0x3d1347ec	0.035957262
109	0x3d2f6396	0.042819582
110	0x3cf647d5	0.030063549
111	0xbce2873b	-0.027652374
112	0x3c85e397	0.016343875
113	0x3d309093	0.043106627
114	0x3c457b6a	0.01205335
115	0xbca1ffd1	-0.019775303
116	0xbd8dacef	-0.0691775
117	0x3bd110c1	0.006380171
118	0xbe128b1a	-0.14310876
119	0xbc7b9968	-0.015356399
120	0xbb99204d	-0.00467304
121	0xbd696f0a	-0.05699066
122	0x3d236076	0.039886914
123	0x3e0114f9	0.12605657
124	0xbc3a4ed4	-0.011371333
125	0x3ccbae69	0.024863439
126	0x3cb1220e	0.021622684
127	0x3ddc44dc	0.107553214
128	0xbd9ae78b	-0.075636946
129	0x3cfad8bb	0.030620923
130	0xbccda1e3	-0.025101608
131	0x3da7699d	0.08174441
132	0xbb9365ae	-0.004498205
133	0xbb0cbaf0	-0.0021473728
134	0x3a40c06a	0.00073528907
135	0xba6a123b	-0.0008929108
136	0xbc0b87e9	-0.00851629
137	0x3cf1a6ee	0.029498544
138	0x3d7fe2d1	0.06247217
139	0x3dd7359c	0.10508272
140	0xbd09f0d1	-0.033676926
141	0x3b8a7296	0.0042250855
142	0xbc643c88	-0.013930447
143	0x3c0936f9	0.008374923
144	0x3d2e8e0e	0.042615943
145	0x3cd21cbb	0.025648465
146	0xbdc01a00	-0.09379959
147	0xbdb77756	-0.089583084
148	0x3d46afef	0.048507627
149	0xbc906ff6	-0.017631512
150	0x3c9ba7bc	0.01900088
151	0x3ccd5dbb	0.025069108
152	0x3ac6ec4c	0.0015176623
153	0xbc912612	-0.017718349
154	0xbbea6b4e	-0.007153905
155	0x3d21dab3	0.03951521
156	0xbc35216b	-0.011055331
157	0x3d1c85c2	0.0382135
158	0xbdb0dfe5	-0.086364545
159	0x3cf75c35	0.030195335
160	0x3c531ba1	0.012885005
161	0xb9fdfd33	-0.00048444569
162	0x3b34c887	0.0027585344
163	0x3cafddda	0.021468092
164	0x3cf28952	0.029606495
165	0x3da35393	0.07974925
166	0xbd5f1f4b	-0.054473203
167	0x3d1d5f65	0.038421053
168	0x3dda7c00	0.106681824
169	0x3ca5e4c5	0.020250687
170	0xbd64924f	-0.055803593
171	0xbd1d7947	-0.038445737
172	0x3ddde661	0.10834957
173	0x3dabe3fe	0.083930954
174	0x3931124c	0.00016886852
175	0x3c50443b	0.01271158
176	0x3ccf41d0	0.025299937
177	0xbc4549e0	-0.012041539
178	0x3cb4f656	0.022090118
179	0xbd0d2273	-0.03445668
180	0xbce854be	-0.02836072
181	0xbd759089	-0.059952293
182	0xbd8f6b5c	-0.07002899
183	0x3d6e9bdf	0.05825412
184	0xbcf1aac3	-0.02950037
185	0x3d1b4afd	0.03791331
186	0x3d49b694	0.049246386
187	0xbb30c743	-0.0026974238
188	0xba2f6200	-0.00066903234
189	0xbd84ac92	-0.06478228
190	0xbda1c338	-0.07898563
191	0x3e018212	0.12647274
192	0x3d7510ec	0.05983059
193	0xbd922a5e	-0.07136987
194	0x3d14c8b2	0.03632421
195	0x3a90aa05	0.0011036998
196	0xbd821dfb	-0.063533746
197	0xbc81d8c7	-0.015850438
198	0xbd1ede97	-0.038786497
199	0x3ba0dc0d	0.0049090446
200	0x3c5e4055	0.013565143
201	0xba98cf84	-0.0011658524
202	0x3a5a4dee	0.00083276525
203	0x3ce8aadf	0.02840179
204	0xbd0c7736	-0.034293376
205	0xbc66a45f	-0.014077275
206	0xbcb0dcad	-0.021589601
207	0x3ca10378	0.019654974
208	0xbcf8a29a	-0.030350972
209	0x3c3a7909	0.011381396
210	0x3c7f3ed2	0.015578942
211	0x3c9eaecb	0.019370457
212	0xbca3a10e	-0.019974258
213	0xbb434911	-0.002979819
214	0x3d6703d6	0.056400143
215	0xbc9a294e	-0.018818524
216	0x3d75f3ca	0.06004695
217	0x3d25cd39	0.04047892
218	0xbd11749a	-0.03551159
219	0x3d48fc3e	0.049068682
220	0x3d045022	0.032302983
221	0xbe066782	-0.13125423
222	0x3d991ebb	0.074765645
223	0xbde70467	-0.112801366
224	0xbd575af2	-0.052576967
225	0xbd7313ae	-0.05934494
226	0xbc55ceda	-0.013049806
227	0xbc242863	-0.010019395
228	0xbc393622	-0.01130441
229	0xbd79e6c7	-0.061011102
230	0x3cc22181	0.023697617
231	0x3cd4ae6a	0.025962073
232	0xbdd9d1a1	-0.10635687
233	0xbd536d25	-0.05161776
234	0xbd6052f4	-0.05476661
235	0xbc32e51a	-0.01091888
236	0xbb827611	-0.00398136
237	0xbbae2176	-0.0053140474
238	0xbd5ba76e	-0.05362647
239	0xbd643a29	-0.05571953
240	0x3d1853b8	0.037189215
241	0x3c7f5092	0.015583174
242	0xbca7741f	-0.020441113
243	0x3d0bd95d	0.03414284
244	0x3b178884	0.002312214
245	0xbd3fab81	-0.04679442
246	0x3d6fcf4c	0.058547303
247	0x3bbaafc5	0.005697223
248	0xbd681c4d	-0.056667615
249	0xbc36c35d	-0.011154977
250	0x3c7d042e	0.015442891
251	0x3d76c973	0.06025071
252	0xbbf1ca23	-0.007378833
253	0x3d13a7ed	0.03604882
254	0xbd0d3dc1	-0.03448272
255	0x3d9cc2ab	0.076543175

actor.2.bias f4 [256]
0	0xbd971617	-0.0737726
1	0xbd9e8990	-0.07741082
2	0xbe0e2086	-0.13879594
3	0xbde01bd4	-0.10942808
4	0xbd13db50	-0.036097825
5	0xbd56be3c	-0.052427515
6	0xbdfbfa6a	-0.12303622
7	0xbda839cc	-0.08214149
8	0xbda2a443	-0.07941487
9	0xbe4a1961	-0.19736244
10	0xbd270b62	-0.04078234
11	0xbe2228a3	-0.15835814
12	0xbd36d714	-0.04463871
13	0xbd30f499	-0.043202017
14	0xbe1208ee	-0.14261219
15	0xbc90487f	-0.017612694
16	0xbd11997f	-0.035546776
17	0xbb8034e3	-0.0039125546
18	0xbd8e3f25	-0.069456376
19	0xbdba0b40	-0.09084177
20	0xbd02673c	-0.031836733
21	0xbe175e3a	-0.14782038
22	0xbd14e637	-0.036352362
23	0xbcb1abcd	-0.021688366
24	0xbdf8c5a6	-0.121470734
25	0xbd872a7b	-0.065998994
26	0xbdb2cb33	-0.087301634
27	0xbdf7adcc	-0.12093696
28	0xbd234555	-0.039861042
29	0xbc7e9840	-0.015539229
30	0xbd6b88a4	-0.057503358
31	0xbc927f52	-0.017882977
32	0x39e28980	0.00043208525
33	0xbddaab74	-0.10677233
34	0xbd6d5a92	-0.057947703
35	0xbda1efc7	-0.07907062
36	0xbdb069ec	-0.08613953
37	0x3bb554cb	0.0055337898
38	0xbcf09e0e	-0.029372241
39	0x3b82c3c4	0.0039906222
40	0x39974aab	0.00028856596
41	0xbd633746	-0.055472635
42	0xbcbbe59b	-0.022936633
43	0xbd005203	-0.031328212
44	0xbc4d2aa1	-0.012522371
45	0xbe221f88	-0.1583234
46	0xbe01276f	-0.12612699
47	0xbd5f9b9e	-0.054591767
48	0xbb9b93b7	-0.0047478336
49	0xbc3e3d44	-0.011611287
50	0xbddc2772	-0.10749711
51	0xbe3e7ad0	-0.18601537
52	0xbc8f3f31	-0.017486187
53	0xbd7e0a8f	-0.06202179
54	0xbe1a3263	-0.15058284
55	0xbdae86b3	-0.085217856
56	0x3d88f7eb	0.066879116
57	0xbe091f69	-0.13390888
58	0xbd3d27e0	-0.046180606
59	0xbdbf9fc5	-0.093566455
60	0xbe0a8330	-0.13526607
61	0xbc9f9d22	-0.019484106
62	0xbe022b36	-0.12711796
63	0xbbae2091	-0.005313941
64	0xbd316643	-0.043310415
65	0xbdf21bcd	-0.11821709
66	0xbcb920e2	-0.022598688
67	0x3d87283b	0.0659947
68	0xbd4254ad	-0.047444034
69	0xbd5a4cd3	-0.05329592
70	0xbc357c4b	-0.011076997
71	0xbdb7eb2c	-0.08980402
72	0xbd0183d9	-0.03161988
73	0xbda00f15	-0.07815377
74	0xbd1fd9e4	-0.039026156
75	0xbcf60923	-0.030033654
76	0xbd655f2a	-0.05599896
77	0xbd14c8e4	-0.036324397
78	0xbd851718	-0.064985454
79	0xbc4280e1	-0.011871547
80	0xbe2f2509	-0.17103972
81	0xbd62c345	-0.055362005
82	0x3d119505	0.035542507
83	0xbdadf7dc	-0.08494541
84	0x3bcddf80	0.006282747
85	0x3bf309be	0.007416933
86	0xbdaa12c4	-0.083043605
87	0xbd90be1d	-0.07067511
88	0xbd23b51c	-0.03996764
89	0x3d17cb53	0.03705914
90	0xbc82bc62	-0.015958969
91	0xbd936a0c	-0.07197961
92	0xbe68bd1f	-0.22728394
93	0xbdca73f7	-0.098854
94	0xbe31a613	-0.17348509
95	0xbd9d6318	-0.07684916
96	0xbca98fa3	-0.020698374
97	0xbd3b09e8	-0.045663744
98	0xbcc25386	-0.023721468
99	0xbd280c0f	-0.041027125
100	0xbd9ac359	-0.07556791
101	0xbe0ad3ce	-0.1355736
102	0xbe17bd7a	-0.14818373
103	0x3bbe5237	0.0058081406
104	0xbddb88e8	-0.10719472
105	0xbce127c1	-0.027484776
106	0xbe05691b	-0.13028376
107	0xbdb1af04	-0.0867596
108	0xbd77d982	-0.060510166
109	0xbd14648d	-0.036228705
110	0xbd85aabc	-0.065267056
111	0xbdc4175d	-0.09574769
112	0xbe01948d	-0.12654324
113	0xbdbb0eed	-0.09133706
114	0xbd1dbabc	-0.038508162
115	0xbd8a3c78	-0.06749815
116	0xbd33b1fe	-0.04387092
117	0xbdb689d8	-0.0891301
118	0x3c1554bb	0.00911444
119	0xbd5177f5	-0.05113979
120	0xbddf0876	-0.10890286
121	0xbda48ce3	-0.080346845
122	0xbdc1244e	-0.09430753
123	0xbb8d6c4c	-0.0043158885
124	0xbdf74151	-0.12073005
125	0xbe26db58	-0.1629461
126	0xbded300c	-0.1158143
127	0x3a99eb33	0.0011743068
128	0x3d17adb1	0.03703088
129	0xbd8c46fc	-0.06849477
130	0xbdc148b8	-0.09437698
131	0x3d84586e	0.06462179
132	0xbc500bfc	-0.01269817
133	0xbdc32f7c	-0.09530541
134	0xbdbfc9c2	-0.09364654
135	0xbd10f1f2	-0.035386987
136	0xbd40756f	-0.046986993
137	0xbd35bf32	-0.04437179
138	0xbb229349	-0.0024807027
139	0x3d0f74b2	0.0350234
140	0xbda76e22	-0.08175303
141	0xbde1f603	-0.11033251
142	0xbde253af	-0.11051118
143	0xbcc49241	-0.02399552
144	0xbc994b29	-0.018712597
145	0xbd8696f6	-0.06571762
146	0xbcb0000c	-0.021484397
147	0xbcf2e0b1	-0.029648157
148	0xbd5ac46a	-0.05340997
149	0xbdfcdea8	-0.12347156
150	0xbd97c9a0	-0.07411504
151	0xbccd514e	-0.025063183
152	0xbdc92dc1	-0.0982318
153	0xbd839bb0	-0.064261794
154	0xbac0e22b	-0.0014715841
155	0xbcbc0110	-0.022949725
156	0xbde9e2ee	-0.114202365
157	0xbd825a48	-0.06364876
158	0xbce3d0c4	-0.027809508
159	0xbda0de74	-0.078549296
160	0xbdaf4dd9	-0.0855977
161	0xbd4ee230	-0.050508678
162	0xbdf25f10	-0.11834538
163	0xbd303d8c	-0.043027446
164	0xbdbb0ff2	-0.09133901
165	0xbdbadeef	-0.091245525
166	0x3bd8c28e	0.0066149896
167	0xbc0e5f55	-0.008689721
168	0xbd3ef9c4	-0.046624914
169	0xbcd1703e	-0.025566217
170	0xbe383f67	-0.17992936
171	0xbdab41e3	-0.08362176
172	0xbdc9b659	-0.09849233
173	0xbc4c02b5	-0.012451817
174	0xbdc5d042	-0.09658863
175	0xbd5585bf	-0.052129503
176	0xbb86070e	-0.0040901965
177	0xbd96cb81	-0.07363034
178	0xbd969445	-0.07352499
179	0xbe1c3aa9	-0.15256752
180	0xbd406ddd	-0.046979774
181	0xbe007ba0	-0.12547159
182	0xbe0a52bc	-0.13508123
183	0xbd6904e9	-0.05688945
184	0xbe118df9	-0.14214315
185	0xbe2ca481	-0.16859628
186	0xbe05d60a	-0.1306993
187	0xbb0ed731	-0.0021795745
188	0xbd41db5d	-0.04732834
189	0xbaaeac4f	-0.0013326498
190	0xbe3be57c	-0.1834926
191	0x3d0d4521	0.034489755
192	0xbcec6bf6	-0.028860074
193	0xbce1ecb4	-0.02757869
194	0xbc3a3c0c	-0.011366855
195	0xbd31ae07	-0.043378856
196	0xbe197035	-0.1498421
197	0xbdd8ca47	-0.10585456
198	0xbdd0da1e	-0.101978526
199	0xbabd93d5	-0.0014463613
200	0xbcf3c226	-0.029755663
201	0xbdbcd3d7	-0.09220093
202	0xbdc8ff23	-0.098142885
203	0xbdb573ee	-0.088600025
204	0xbdd34459	-0.10315771
205	0xbdc92f44	-0.09823468
206	0xbc23821e	-0.009979753
207	0xbd0cc37d	-0.03436612
208	0xbd3b705f	-0.045761462
209	0xbd93a7d3	-0.07209744
210	0xbd9b99f6	-0.07597725
211	0xbde6e674	-0.11274424
212	0xbd47cb53	-0.04877789
213	0x3c9ac65a	0.01889341
214	0x3ccf2ebd	0.025290841
215	0xbdf88313	-0.121343754
216	0xbc6cbe92	-0.014449732
217	0x3d481277	0.048845734
218	0xbe317c8f	-0.17332672
219	0xbd424e95	-0.047438223
220	0xbdd600eb	-0.10449394
221	0x3bc0ad36	0.0058800234
222	0x3cf1deb2	0.029525135
223	0x3c3c2671	0.0114837745
224	0xbd91620f	-0.07098781
225	0xbd85455a	-0.065073684
226	0xbcd1a3ee	-0.025590863
227	0xbd2b1ddf	-0.041776534
228	0xbdf79db8	-0.12090629
229	0xbd43f3c7	-0.047839906
230	0xbdfbace1	-0.122888334
231	0x3d28931f	0.04115593
232	0xbdb72b37	-0.089437895
233	0xbd3a163c	-0.04543136
234	0x3cd602f9	0.026124464
235	0xbd750593	-0.05981977
236	0xbd0ea762	-0.034827597
237	0xbcc7cf2e	-0.024390783
238	0x3c3eb712	0.011640327
239	0xbd8f4025	-0.069946565
240	0xbde9b2cd	-0.11411057
241	0xbd451f1e	-0.04812538
242	0xbd1d4acd	-0.038401414
243	0xbd3b0990	-0.045663416
244	0xbdd38522	-0.103281274
245	0xbdc58624	-0.09644726
246	0xbe09ac06	-0.13444528
247	0xbd8198a1	-0.0632794
248	0xbcd7b2c0	-0.026330352
249	0xbdc1bc39	-0.09459729
250	0xbdd7768f	-0.1052066
251	0xbd20f6eb	-0.03929798
252	0xbdf84eaa	-0.12124379
253	0xbcb1276c	-0.021625243
254	0xbd75007e	-0.059814923
255	0xbd2c0754	-0.041999176

actor.4.weight f4 [128, 256]
0	0xbd6f9cbc	-0.058499083
1	0x3c65206e	0.013984783
2	0xbd651b13	-0.055934023
3	0x3c9b2832	0.018940065
4	0x3cf60c4a	0.030035157
5	0xbd6fadf6	-0.05851551
6	0x3d56aaea	0.05240909
7	0x3c3e0f5e	0.0116003435
8	0x3ce23623	0.027613705
9	0xbd588901	-0.052865032
10	0x3d32e073	0.043671083
11	0x3d4f354c	0.050587937
12	0xbcb2ff6b	-0.021850308
13	0x3dbcdc10	0.09221661
14	0x3cf4c70c	0.02988007
15	0xbdaffe75	-0.08593456
16	0x3c8834aa	0.016626675
17	0x3da6e3c9	0.08148915
18	0xbdbc7ad4	-0.09203115
19	0xbc414f5e	-0.011798708
20	0xbd9bdacf	-0.07610094
21	0xbb7c95f0	-0.0038541518
22	0x3ca48a6a	0.020085532
23	0xbb091dde	-0.0020922343
24	0xbcc3adc1	-0.023886563
25	0x3d6fd169	0.05854932
26	0x3c2adb17	0.010428212
27	0xbbcbe3ed	-0.006222239
28	0x3d5d9154	0.054093674
29	0x3d6a48d2	0.057198353
30	0x3dcfc173	0.101443194
31	0x3d1387e9	0.036018286
32	0xbd2f1f51	-0.042754475
33	0x3d9b5a83	0.07585623
34	0xbce53749	-0.027980464
35	0x3daa8bf0	0.08327472
36	0x3baa0971	0.005189114
37	0x3d12c30d	0.035830546
38	0xbb9d7086	-0.0048046736
39	0xbd601504	-0.054707542
40	0x3d731731	0.05934829
41	0xbd30f939	-0.043206427
42	0x3c53ca53	0.012926656
43	0x3ace4991	0.0015738477
44	0x3c206757	0.009790263
45	0x3ce69db4	0.02815137
46	0x3cd68dd4	0.026190676
47	0xbe11d9de	-0.14243266
48	0x3cd2f1b0	0.025750011
49	0x3d03ae69	0.032148752
50	0xbd1c1397	-0.03810462
51	0x3c278466	0.010224437
52	0xbd84d204	-0.0648537
53	0xbd095837	-0.033531394
54	0x3d6f1e76	0.05837866
55	0x3c364631	0.011125133
56	0x3cf737a2	0.030177895
57	0x3cd9a5fe	0.026568409
58	0xbddeff97	-0.10888594
59	0xbcd30d7c	-0.025763266
60	0xbd0bcba8	-0.03412977
61	0xbc0f8f27	-0.0087621575
62	0x3d0918a6	0.033470772
63	0xbc1fd2d7	-0.009754858
64	0xbdf0e18e	-0.11761771
65	0xbcb60276	-0.02221797
66	0x3c6eee13	0.0145831285
67	0x3e0cdf4d	0.13757057
68	0x3c0d65d4	0.008630235
69	0x3d867346	0.065649554
70	0xbd81788b	-0.0632182
71	0xbd68fcb8	-0.056881636
72	0x3cc8ec14	0.024526633
73	0x3db0277d	0.08601282
74	0x3d401012	0.046890326
75	0xbce80c99	-0.02832632
76	0xbbb594a6	-0.005541402
77	0xbe105af6	-0.14097199
78	0xbe14ec0c	-0.1454317
79	0xbd94196d	-0.07231412
80	0xbc4753c9	-0.012165972
81	0x3c75f59f	0.015012174
82	0x3bab1ae4	0.0052217115
83	0xbcb8b3af	-0.022546617
84	0xbcbde85a	-0.023182083
85	0xbdad62c2	-0.08466102
86	0x3d03c68a	0.032171763
87	0xbd8134ac	-0.063088745
88	0x3c1ca242	0.00956017
89	0xbc49e72e	-0.012323184
90	0x3caa3627	0.020777775
91	0xbdbc8254	-0.092045456
92	0x3d4b1218	0.049577802
93	0xbcda6630	-0.026660055
94	0xbc9b3c5e	-0.018949684
95	0x3c5ad0b6	0.013355425
96	0xbc3a7210	-0.011379734
97	0xbd728588	-0.059209377
98	0xbcfb9801	-0.03071213
99	0xbd17327e	-0.036913387
100	0x3c50627f	0.012718796
101	0x3b8f2e92	0.0043695653
102	0x3d96e346	0.07367568
103	0xbd990abf	-0.07472753
104	0xbd9f4943	-0.077776454
105	0xbd83f51b	-0.064432345
106	0xbd5683ec	-0.052371904
107	0x3d0f6a02	0.035013206
108	0x3d9cdd34	0.07659379
109	0x3db2d236	0.08731501
110	0xbd1f668b	-0.038916152
111	0x3e069228	0.13141692
112	0xbd52f7f8	-0.051506013
113	0xbd738f13	-0.059462618
114	0x3c1857b4	0.009298254
115	0x3e14d721	0.1453519
116	0xbd18bdd4	-0.03729041
117	0xbe051dcd	-0.1299965
118	0xbc781e61	-0.015143962
119	0xbb195766	-0.002339804
120	0x3dd02028	0.10162383
121	0x3c97c0f6	0.018524628
122	0x3d242b2c	0.040080234
123	0x3dbbad11	0.09163869
124	0x3d9efaa0	0.07762647
125	0x3d2c5265	0.042070765
126	0x3beddf7b	0.007259307
127	0xbb4d53d4	-0.0031330483
128	0x3c341ad4	0.010992724
129	0x3e0c74f4	0.13716489
130	0xbc00c221	-0.007858784
131	0xbc42e4ae	-0.011895342
132	0x3cbe2174	0.023209311
133	0x3bbe6ea2	0.0058115283
134	0x3ccad7e4	0.024761148
135	0x3d258e42	0.04041887
136	0xbe2ea85a	-0.17056409
137	0xbdeb2142	-0.11480953
138	0xbc24d739	-0.010061079
139	0x3c5e0a8c	0.013552319
140	0x3c2122ed	0.009834987
141	0xbd0b9201	-0.034074787
142	0xbb0318ba	-0.0020003752
143	0x3d6176f1	0.055045072
144	0xbce02363	-0.027360624
145	0x3da58b69	0.08083231
146	0xbce888c7	-0.028385533
147	0xbc38c2cc	-0.011276912
148	0xbd37a5f2	-0.044835992
149	0xbdb3486d	-0.087540485
150	0x3d74fb86	0.059810184
151	0x3b8ddd7d	0.004329382
152	0x3c8db40c	0.017297767
153	0x3d3b998b	0.045800727
154	0xbcbaa18b	-0.022782108
155	0xbd9fb0de	-0.077974066
156	0x3cbaaf6a	0.022788722
157	0xbe0169cc	-0.12638015
158	0x3b55f3b0	0.003264647
159	0x3d8c5fb7	0.06854194
160	0x3cb88206	0.022522938
161	0xbdc296be	-0.09501408
162	0x3dea8dbf	0.11452817
163	0x3c7d1ef6	0.015449276
164	0x3d6419a1	0.055688504
165	0x3b89437a	0.004188952
166	0x3d13f971	0.036126558
167	0x3d02080a	0.031745948
168	0x3bd74ea2	0.006570653
169	0xbbf559e2	-0.0074875215
170	0xbd6aa477	-0.057285752
171	0xbc4da5f2	-0.0125517715
172	0x3d26e408	0.04074481
173	0xbd0cf5b8	-0.034414023
174	0x3b63b461	0.0034744965
175	0x3d24ac01	0.0402031
176	0xbd2d18ed	-0.0422601
177	0xbd8f9a53	-0.07011857
178	0xbd2ec1d3	-0.042665314
179	0x3c105b5b	0.008810843
180	0xbcadeae1	-0.021230163
181	0x3d0eb72f	0.034842666
182	0xbbc0ca92	-0.0058835233
183	0x3d35663a	0.044286944
184	0xbc941030	-0.018074125
185	0xbcd72e2b	-0.026267132
186	0xbcdb1eb0	-0.026748031
187	0xbe1e9cd6	-0.15489516
188	0xbac323e4	-0.0014888016
189	0xbd67c591	-0.0565849
190	0x3d0801f6	0.033204995
191	0x3ceaad6c	0.028647147
192	0xbd0c211c	-0.034211263
193	0xbdcb1cc8	-0.09917599
194	0x3dc4ccfc	0.0960941
195	0x3b2fc3cc	0.0026819585
196	0x3cfd56c6	0.030925166
197	0x3c916f46	0.017753255
198	0xbd1357e4	-0.03597249
199	0x3ddb7687	0.10715967
200	0xbd265a99	-0.040613744
201	0x3d174e20	0.03693974
202	0xbd22448b	-0.03961615
203	0xbd2aedb5	-0.0417306
204	0x3da6229c	0.0811207
205	0x3d1cb27d	0.038256157
206	0xbc6c6415	-0.014428158
207	0x3c830f37	0.015998466
208	0xbd3b098f	-0.045663413
209	0xbd28cc0b	-0.041210216
210	0xbd4a170f	-0.049338397
211	0x3c0e4d7d	0.008685467
212	0x3a9630d9	0.001145865
213	0xbd373d33	-0.0447361
214	0x3c05ba4c	0.008162092
215	0xbd43a8f3	-0.047768544
216	0xbc7fc8f3	-0.015611875
217	0x3c554a89	0.013018259
218	0x3d1decaf	0.038555797
219	0xbca56ef5	-0.02019451
220	0x3cade4a7	0.021227194
221	0xbc88e93c	-0.016712777
222	0xbb4200ac	-0.0029602451
223	0x3d289f6e	0.04116767
224	0xbdbd1d93	-0.092341565
225	0xbd7d0b3a	-0.061778285
226	0xbbf4b578	-0.007467922
227	0x3d64942c	0.05580537
228	0x3d46c309	0.048525844
229	0xbca19361	-0.019723596
230	0xbce9fa86	-0.028561842
231	0xbd587357	-0.05284437
232	0x3d0b6664	0.034033194
233	0x3d404499	0.04694042
234	0xbc03001f	-0.007995634
235	0xbcad32de	-0.02114242
236	0xbd142ebd	-0.036177386
237	0xbcbd9c42	-0.023145799
238	0x3d132060	0.035919547
239	0x3cdb781a	0.026790667
240	0x3dc1f208	0.09469992
241	0xbb22f2fe	-0.0024864073
242	0xb9a48b42	-0.00031384273
243	0x3c286dea	0.010280112
244	0x3c0c5154	0.008564312
245	0x3ca5aeed	0.020225013
246	0x3c5228a1	0.0128270695
247	0x3d845ce7	0.06463032
248	0x3dc782d9	0.09741754
249	0x3db1f58b	0.08689412
250	0xbc1deb04	-0.009638552
251	0xbbb97a31	-0.0056603183
252	0x3e01903d	0.12652679
253	0xbd5c8727	-0.05383983
254	0xbd4fe7d5	-0.0507582
255	0x3caf8286	0.021424543

actor.4.bias f4 [128]
0	0x3ce6b197	0.028160853
1	0xbdb697e9	-0.08915693
2	0xbe286f5e	-0.16448733
3	0xbdff7b8b	-0.12474736
4	0x3b87dd99	0.0041462895
5	0xbdd8eafb	-0.10591694
6	0x3c20a9cb	0.009806107
7	0xbc52d3e7	-0.012867904
8	0xbdca9ada	-0.09892817
9	0xbd7af286	-0.061266445
10	0xbd390861	-0.045174006
11	0xbd7b732f	-0.061389145
12	0xbc7f99f3	-0.015600669
13	0xbd99f2d8	-0.07517022
14	0xbd520bed	-0.051280905
15	0xbbfd9a60	-0.00773935
16	0xbd6572a1	-0.05601752
17	0xbdbc0e99	-0.09182472
18	0xbd949285	-0.07254509
19	0xbd84322c	-0.06454882
20	0xbd754cca	-0.059887685
21	0xbe507550	-0.20357251
22	0xbad6c10a	-0.0016384434
23	0x3c769592	0.015050309
24	0xbcdc5285	-0.026894817
25	0xbd96a84b	-0.07356318
26	0xbe0335a9	-0.12813438
27	0xbe4fa377	-0.202772
28	0xbc86ab34	-0.016439058
29	0xbdac4784	-0.08412078
30	0xbd1bced8	-0.03803906
31	0xbd9efb48	-0.07762772
32	0xbdfc4f97	-0.12319868
33	0x3b60b6a3	0.0034288547
34	0xbd12798c	-0.035760447
35	0xbd9f3ba6	-0.07775049
36	0xbdb0d092	-0.08633532
37	0xbe7f361c	-0.24922985
38	0xbdad0a60	-0.084492445
39	0xbd10c427	-0.035343315
40	0xbd17c94a	-0.0370572
41	0xbd83f951	-0.06444038
42	0xbdd88bff	-0.10573577
43	0xbd015d0f	-0.03158289
44	0xbd7e5b08	-0.062098533
45	0x3ba6927b	0.00508338
46	0xbde228ab	-0.11042913
47	0xbda52241	-0.08063174
48	0x3c063d46	0.00819332
49	0xbdb4b323	-0.0882323
50	0xbe062124	-0.1309858
51	0xbd9c82c3	-0.07642128
52	0xbc044a02	-0.008074285
53	0xbca7b437	-0.020471675
54	0xbd45f43f	-0.048328634
55	0xbd61b8c0	-0.055107832
56	0xbcc9eadc	-0.024648122
57	0xbcda04e5	-0.026613662
58	0xbdd6cf7c	-0.10488793
59	0xbde553c2	-0.11197616
60	0xba57d3c7	-0.00082331564
61	0xbd518f27	-0.05116191
62	0xbda9429c	-0.08264658
63	0xbe22f55d	-0.15913911
64	0xbda33590	-0.079692006
65	0xbdad6628	-0.084667504
66	0xbd0718e2	-0.032982714
67	0xbd8d55fc	-0.06901166
68	0xbc91ebca	-0.017812628
69	0xbe070abf	-0.13187693
70	0xbccae647	-0.024768008
71	0x3b0130f8	0.0019713026
72	0xbcb6088d	-0.022220874
73	0x3b809a81	0.0039246683
74	0xbdfb191a	-0.12260647
75	0xbd9dd7da	-0.07707186
76	0xbd742477	-0.059605088
77	0xbcc694fb	-0.024240961
78	0xbd8fb243	-0.070164226
79	0xbcb1fd83	-0.02172733
80	0xbb052d97	-0.0020321363
81	0x3c51fc4e	0.012816502
82	0xbd610a8c	-0.0549417
83	0x3c63b92a	0.013899127
84	0xbd8cfdf2	-0.06884374
85	0xbd146992	-0.036233492
86	0xbe012e55	-0.1261533
87	0xbe33779a	-0.17526093
88	0xbe0e52f3	-0.1389883
89	0xbd61bb61	-0.05511034
90	0x3c83cd31	0.016089054
91	0xbd6d0d44	-0.05787398
92	0xbe017b20	-0.12644625
93	0x3d023ccf	0.031796273
94	0xbdbb0755	-0.09132258
95	0xbd1c8505	-0.038212795
96	0xbcfd5969	-0.030926423
97	0xbd87118f	-0.06595146
98	0xbdb4b59e	-0.08823703
99	0xbd2802a2	-0.041018136
100	0xbda99316	-0.082800075
101	0x3bf2112f	0.0073873024
102	0xbc85dc81	-0.016340496
103	0xbd847df5	-0.06469337
104	0xbd5d4c41	-0.0540278
105	0xbe172201	-0.14759065
106	0xbdd464f3	-0.10370817
107	0xbce86ae3	-0.02837128
108	0xbd2fa2b4	-0.042879775
109	0xbdca3da3	-0.098750375
110	0xbd4c9be7	-0.049953368
111	0xbdff0ba4	-0.12453392
112	0xbdc02f2b	-0.093839966
113	0xbd397fe6	-0.04528799
114	0xbda5db2a	-0.08098443
115	0xbbe89e78	-0.007098969
116	0xbc02a1af	-0.007973119
117	0x3d0cb1f9	0.034349415
118	0xbe25a18f	-0.16174911
119	0xbdccedc0	-0.10006285
120	0xbd4a48db	-0.049385887
121	0xbd915e54	-0.0709807
122	0xbd7edfac	-0.06222503
123	0xbd25a5d9	-0.040441368
124	0xbc9da8b6	-0.019245487
125	0xbb1911e0	-0.0023356602
126	0xbc2da081	-0.010597349
127	0xbcd23464	-0.025659747

actor.6.weight f4 [12, 128]
0	0xbc5a4bf9	-0.013323777
1	0xbc6ff14d	-0.014644933
2	0x3c712bc4	0.014719907
3	0x3bc27ef5	0.0059355446
4	0x3c5c0467	0.013428784
5	0xbb9a5134	-0.004709387
6	0x3d10beb2	0.03533811
7	0x3c1c9017	0.009555838
8	0x3cb7809e	0.022400197
9	0x3d22434a	0.039614953
10	0xbd110b9d	-0.035411466
11	0x3c8dc5c8	0.017306224
12	0x3bb96231	0.0056574573
13	0xbc88c1ad	-0.016693914
14	0x3d02d731	0.031943504
15	0x3d03b526	0.03215518
16	0xbccf115e	-0.025276836
17	0xbcc46ca6	-0.023977589
18	0x3a71cf88	0.0009224345
19	0xbda90256	-0.08252399
20	0xbc892e90	-0.016745836
21	0xbcff61f9	-0.031174647
22	0x3c2aba4d	0.010420394
23	0xbd77fac1	-0.060541872
24	0x3b043780	0.0020174682
25	0x3d233fd2	0.039855786
26	0xbc2f84f1	-0.010712848
27	0xbd2494f2	-0.040181108
28	0x3d99dedd	0.07513211
29	0x3ccd395b	0.025051763
30	0xbcf123d3	-0.029436028
31	0x3d6820a9	0.056671772
32	0x3c0b8b54	0.008517105
33	0x3c2b86e6	0.010469174
34	0x3d79449d	0.06085645
35	0x3bf0e3c6	0.0073513715
36	0x3c9cfc87	0.019163383
37	0x3dec437c	0.11536309
38	0xbce0b999	-0.02743225
39	0x3c8d3a9c	0.017239861
40	0x3d8264a9	0.06366856
41	0xbc4cc50e	-0.012498153
42	0x3d29a1c5	0.04141404
43	0x3c34c728	0.011033811
44	0x3b4b2f64	0.0031003589
45	0x3c489398	0.01224222
46	0x3cb09f96	0.021560472
47	0x3c8e84d8	0.01739733
48	0x3b9ab40a	0.0047211694
49	0xbcb569c0	-0.022145152
50	0x3d558535	0.05212899
51	0xbc3f0bb3	-0.011660504
52	0x3ce9ca35	0.028538803
53	0x3c2b6b93	0.010462659
54	0xbcada4d9	-0.02119677
55	0x3a160d4b	0.00057240267
56	0x3d5cc4d0	0.053898633
57	0x3b6cc7d9	0.003612986
58	0x3d6bcb58	0.05756697
59	0xbcbb1029	-0.022834854
60	0x3b50f8d3	0.0031886592
61	0xbd264ec3	-0.040602457
62	0xbc1edef8	-0.009696715
63	0xbd17d8ee	-0.037072115
64	0x3c34d09a	0.011036063
65	0xbce0d079	-0.027443158
66	0xbbb58524	-0.0055395532
67	0x3c3c4138	0.011490159
68	0x3c4593a4	0.012059126
69	0x3c42dcf1	0.011893497
70	0xbd9d8258	-0.07690877
71	0xbd582a18	-0.05277452
72	0x3cba55ac	0.02274593
73	0x3c5d708e	0.013515605
74	0xbd553278	-0.052050084
75	0x3c7a30e4	0.0152704455
76	0xbcaee743	-0.021350509
77	0xbc95b819	-0.018276261
78	0xbb71d3af	-0.0036899855
79	0x3cb037ff	0.021511076
80	0x3d3c1441	0.045917753
81	0xbd875c4a	-0.066093996
82	0xbcfd9307	-0.030953897
83	0xbd1a6560	-0.037694335
84	0xbca1fe4a	-0.019774575
85	0x3d6f1295	0.05836733
86	0xbd807226	-0.06271772
87	0x3d257052	0.04039032
88	0xbcc41372	-0.023935053
89	0xbc264975	-0.010149349
90	0xbbca5037	-0.006174113
91	0xbb8c97cb	-0.004290556
92	0xbce4005d	-0.027832204
93	0xbd197451	-0.037464444
94	0xbcc7ab8b	-0.02437379
95	0x3d8a47e7	0.067519955
96	0x3db3dd9d	0.08782504
97	0x3d111bea	0.03542701
98	0x3d95e0bb	0.073182546
99	0xbcaabfc7	-0.0208434
100	0x3c88ee86	0.0167153
101	0xbbb8c77f	-0.005639016
102	0x3d47463e	0.048650973
103	0xb9bfd227	-0.00036586935
104	0x3b9671c0	0.004591197
105	0xbce26de7	-0.027640296
106	0xbd5fd50b	-0.054646533
107	0xbc8cac6d	-0.017172063
108	0xbc87d54b	-0.016581198
109	0x3c9f9b1b	0.01948314
110	0x3d5bba5c	0.053644523
111	0x3c8e9e98	0.017409608
112	0xbc7136b5	-0.014722516
113	0x3ac20555	0.0014802614
114	0x3afc5d56	0.001925389
115	0x3cc625aa	0.024187881
116	0x3abd5549	0.0014444973
117	0x3c71ee6b	0.014766316
118	0xbc9fb4bc	-0.01949536
119	0xbd37dc5f	-0.044887897
120	0xbbdc474f	-0.006722368
121	0xbcdc56dd	-0.026896888
122	0xbc53faa9	-0.01293818
123	0x3d31c131	0.043397132
124	0xbd0be0e6	-0.034150027
125	0xbd57ce2e	-0.052686863
126	0xbc5a0d3b	-0.013308818
127	0x3cf94239	0.030427085
128	0xbcd5a208	-0.02607824
129	0xbddebf22	-0.108762994
130	0xbd1d4e48	-0.038404733
131	0x3d93fd9c	0.072261065
132	0x3cb4a2e9	0.022050338
133	0xbc96ca7f	-0.018407105
134	0x3d7864a2	0.060642846
135	0xbd4a82f1	-0.04944128
136	0xbc2803b6	-0.010254791
137	0xbc52728e	-0.012844695
138	0x3c9f4e97	0.019446654
139	0xbb3d6328	-0.0028898213
140	0x3cf968f7	0.030445559
141	0x3ca90a93	0.020634925
142	0x3cb53b01	0.022122862
143	0xbc4b38a8	-0.012403645
144	0x3ce1f9e1	0.027584972
145	0xbd0c6b90	-0.034282267
146	0x3c435c9c	0.011923935
147	0x3d92d241	0.07169009
148	0xbb6ad818	-0.0035834368
149	0xbcde0709	-0.027102964
150	0x3caf2f30	0.021384805
151	0x3cebb37f	0.028772114
152	0xbcad96d7	-0.02119009
153	0xbcbf46a6	-0.023349117
154	0x3c966e08	0.018363014
155	0xbbf01332	-0.007326507
156	0xbd308f9d	-0.04310571
157	0xbd0fd923	-0.035119187
158	0x3d212a35	0.039346892
159	0x3d01745c	0.03160511
160	0xbc0fb570	-0.008771285
161	0xbc9e66bd	-0.019336099
162	0xbd4c5320	-0.04988396
163	0xbc093bce	-0.008376075
164	0xbc18f39a	-0.009335423
165	0xbc08da35	-0.008352806
166	0x3c896a9f	0.016774474
167	0x3d465c2d	0.04842775
168	0xbbddf946	-0.0067741005
169	0x3ced6eae	0.02898344
170	0x3cfa862b	0.030581554
171	0x38ffcae2	0.000121971374
172	0xbcaf06e8	-0.021365598
173	0xbc6198cc	-0.01376934
174	0xb86f46e0	-5.7048048e-05
175	0x3c76f4e0	0.015073031
176	0x3d01d8d5	0.031700928
177	0xbcf51b57	-0.029920263
178	0x3d8ab075	0.06771938
179	0x3d158326	0.036502026
180	0x3a6a6f02	0.0008942933
181	0xbb3a5406	-0.002843143
182	0xbc56112c	-0.0130656175
183	0xbd479e03	-0.048734676
184	0x3c149f7c	0.009071227
185	0xbc994187	-0.018708004
186	0x3cf21646	0.029551636
187	0x3c9ba8e9	0.019001441
188	0xbc451d78	-0.012030952
189	0xbd5ae868	-0.053444296
190	0x3b92e3cb	0.0044827214
191	0x3cbdaf52	0.023154888
192	0xbc96f8a8	-0.018429115
193	0xbd6b730d	-0.057482768
194	0x3c0025a7	0.007821477
195	0xbb9957ef	-0.004679672
196	0xbc9e4da8	-0.019324139
197	0x3d744e59	0.05964503
198	0x3bc43bb1	0.005988561
199	0xbbcbf4bb	-0.0062242425
200	0xbcf82fc5	-0.030296216
201	0xbcc41a3c	-0.02393829
202	0x3d1e7d7a	0.038693883
203	0xba4acac5	-0.00077359035
204	0xbcb7c3bd	-0.022432202
205	0x3b01f001	0.0019826891
206	0x3d2c3e44	0.04205157
207	0xbda6eead	-0.081509925
208	0xbd03ce2f	-0.032179054
209	0x3dbe3c40	0.092888355
210	0x3a296195	0.0006461379
211	0xbc8c1c4b	-0.017103335
212	0x3c88cd60	0.016699493
213	0xbc6abae5	-0.014326786
214	0xbc75034b	-0.014954398
215	0xbdb5709d	-0.0885937
216	0xbd2c3a50	-0.0420478
217	0x3c25a6ff	0.010110616
218	0xb5b5d22f	-1.3546722e-06
219	0x3ca5dbb9	0.020246373
220	0x3c4b2219	0.012398266
221	0x3c92c95c	0.017918281
222	0x3bf02b90	0.007329412
223	0xbc038d8e	-0.008029355
224	0x3d323765	0.04350986
225	0x3cdc6cc0	0.026907325
226	0xbd02ec5a	-0.031963684
227	0xbccd5462	-0.02506465
228	0xbc7a9d29	-0.015296259
229	0xbc7c153c	-0.015385922
230	0x3c3f5255	0.011677344
231	0xbc8fbe6c	-0.017546855
232	0x3cc853a3	0.024453944
233	0xbd8c8d82	-0.06862928
234	0xbcbaead8	-0.02281706
235	0xbc869b80	-0.01643157
236	0xbce3fb63	-0.027829831
237	0xbcb4f9bf	-0.022091744
238	0xbcbe3986	-0.023220789
239	0xbaf7cbaa	-0.0018905301
240	0xbd70ca0a	-0.05878643
241	0xbc67d3c6	-0.014149612
242	0xbd27d3b9	-0.0409734
243	0x3d00f66f	0.031485017
244	0x3ce1042d	0.027467811
245	0x3c7ad317	0.015309117
246	0x3d100460	0.035160422
247	0xbc1e9fa9	-0.009681621
248	0x3d6f1873	0.058372926
249	0x3d13b0ae	0.036057167
250	0x3cb1360b	0.021632215
251	0x3d36685f	0.04453313
252	0x3d257bd9	0.040401313
253	0x3c631901	0.013860942
254	0x3d623457	0.055225696
255	0x3bbbb5f4	0.0057284776

actor.6.bias f4 [12]
0	0xbd6eec22	-0.058330663
1	0x3dbea24a	0.09308298
2	0x3d193152	0.03740055
3	0xbe0bef80	-0.13665581
4	0x3e787a41	0.24265386
5	0xbd215b9b	-0.039394002
6	0x3bff0c16	0.007783423
7	0xbdda78d4	-0.106675774
8	0x3ccf189f	0.025280295
9	0xbe00e6e7	-0.12588082
10	0x3cfb1724	0.030650683
11	0x3aafa68f	0.0013401079
