src/ga_quadruped/policy/param_low_com_2000.onnx (onnx, 772885 bytes, 8 tensors)

actor.0.weight f4 [512, 52]
00000000: d0ee 0abe 776f 1fbf 1552 dc3e b4e1 1dbf
00000010: 6b40 d03e 9d75 7c3d a2c5 f93d 6bd1 3c3c
00000020: 61ea 85bc 66e9 663e 176a 4f3d 9819 cfbd
00000030: fd1c 0d3e 0b3c 8f3d a60a 643d 76d6 d8bd
00000040: a6e6 10be 80b1 cdbe 141c 92be 330a a33e
00000050: 224f 65bd e94f 4d3e 03db 313e 3ebb f23e
00000060: d73c b2be 849a a03c 3d65 07be 6c3d bf3c
00000070: dcaf 65bd e1a3 083e d145 583e d9dd 753c
00000080: 2ffb 13be e95b 2abc 42e6 c4bd 49bc 3a3d
00000090: 3f92 5bbd a93a 303b 5932 86bd b039 7f3e
000000a0: 155b 463d dded b13d 9d90 c53b 4f86 d5bc
000000b0: 7688 fa3c 94dd 853c 5037 5cbc 0f44 37bd
000000c0: 350b dbbc b4fb bd3d 2836 8d3d d4fb 87bd
000000d0: a757 5f3e 3824 6a3e b435 883d bc5a 213e
000000e0: 5716 00bf b55f aabd 0d25 97bd 2546 703e
000000f0: 1ead bdbd 7312 a63d cf5a 22be 9a83 b3bd
00000100: 452f 983a 0d19 953d 5686 09bc 9b48 773c
00000110: b5f0 d03d eae8 67bd e6c1 2fbe 0c69 9c3d
00000120: b520 4cbc 8511 3b3c 60d3 cd3e cbcc b0bd
00000130: 30be 203e 3894 39be 7048 d03e 0231 4d3d
00000140: 08e1 a3bd 1250 b23e 2e61 533d 159d eebd
00000150: f179 b43d 1456 9e3e 118e 55be 1aa3 aabe
00000160: decf 44be 5592 0a3e 80a5 2bbd 8fa9 563d
00000170: 64a7 d13d a17f 2f3d 59b8 22bc 8ca7 cfbc
00000180: ea62 393d 0c9c 673c 687e 24ba e529 56bd
00000190: ff7c 7f3d c019 bcbd a112 89bd 7015 87bd
000001a0: e287 9a3d 6a22 ddbb 8dc8 1ebe ea56 753d
000001b0: f0a9 963e 0596 02bd 1eed 1cbe a627 2bbe
000001c0: 241c f8bc 06b6 49be 0876 d0bc 0b6e 083d
000001d0: 715e 3a3d 9f30 dfbd 9125 0bbe 7d22 ad3c
000001e0: 38a5 af3d 7ead d33a 4e40 8cbd 7007 15be
000001f0: 4963 62bc 8577 27be 2d74 073d c936 06be
00000200: fa93 253e b713 f8bd fbe7 b33d 052d 45be
00000210: c632 a2bc 8a40 51be ca76 9c3d eac6 a03c
00000220: 354d 863d 866b fa3d 62ea 2e3e 632c 633e
00000230: 6656 50be 27a4 12be d5a4 e63c 05fe 70be
00000240: 5ef1 3c3c e922 533c 2545 51bd aa1e ce3d
00000250: 6400 0d3d 4cb9 8f3c eddd 7fbd fd80 d6bd
00000260: 34dd 2abd 086d 6ebd d4a4 02bd 4c0d f63c
00000270: 72ab 5ebe 9be8 a4bd 6479 453e 9962 c73c
00000280: 1472 cebd 16d0 83bd 375c 87bd 5f45 013e
00000290: b400 6c3d 43c4 7bbd cb02 d1bd fa23 a43d
000002a0: 6ca7 afbd 00ed 8ebd 2f4a 593c 7d8e 9ebd
000002b0: 7ac8 45be d79d f9bd 9808 c73e f7ef fc3d
000002c0: 34ea 963e f8bb 703e 3ff9 aebe a889 8bbd
000002d0: 3e32 463e d940 0b3e 8bd3 7a3e 062f 8b3d
000002e0: 2efd 843d 9f10 d6be 3a2c 553e 4c28 5bbe
000002f0: dba9 0fbe 1ed9 e33d 0c1e f83d 941c 4e3e
00000300: ccb4 5bbe e28b eebd f026 293c 3b24 953e
00000310: 8055 663c bf56 853d d8de d5bb c2e0 8dbd
00000320: 0ac8 6a3d f070 79bd c2d5 c83d b4c5 9e3c
00000330: 1fa0 8cbc 0519 1ebc 0198 ec3c c982 9bbd
00000340: 1889 bfbd a0fb 0f3d 4f9e aebb 1bb8 f7be
00000350: 9347 323f 1bc2 6dbd c649 353d 34b9 d8bc
00000360: 5b58 7c3e df58 43be a9bb 49be 5018 89bc
00000370: b123 33bd bb42 69bc 5390 9ebd 1613 cc3c
00000380: fad8 98be e546 7b3d 1247 cdba e152 0b3e
00000390: 4d43 15bd 70f3 dbbd 9eef 9dbd eebf 42be
000003a0: 23c8 963d 8a9c c5bd 5b12 b3be 78e9 27bd
000003b0: dd2a d0be 7bbb 50be b5e4 613e a036 f4bd
000003c0: 0272 48be 1f16 b1be 9bcc 9c3d 6f2c 9bbc
000003d0: 849a 96be e42a 15bc 2d3a 40be 9511 7c3e
000003e0: fca7 22bd 906d b3bd 3545 9e3c 0650 4b3d
000003f0: 25aa 993d b310 8abd b088 2abd 376c 263d
-0.13567662 -0.62279457 0.43031374 -0.6167252 0.40674147 0.061635602 0.121958986 0.0115245385
-0.016347112 0.22549972 0.050638285 -0.101123035 0.1378059 0.06993874 0.055674218 -0.1058778
-0.14150485 -0.40174484 -0.28537047 0.3184372 -0.05598367 0.20050015 0.17368703 0.4740848
-0.34812042 0.019604929 -0.13222213 0.023344718 -0.056075916 0.13343765 0.21120383 0.015006506
-0.14451288 -0.01039789 -0.09614231 0.04558972 -0.053606268 0.0026890433 -0.06552572 0.2492435
0.048426706 0.08687947 0.006029202 -0.02606502 0.030582648 0.016341008 -0.013440922 -0.04474264
-0.026738742 0.09276524 0.06895095 -0.06639829 0.2181078 0.22865379 0.06650868 0.15757269
-0.5003409 -0.08319036 -0.07380114 0.23464258 -0.09261535 0.08108988 -0.15854953 -0.087653354
0.0011610767 0.07280169 -0.008393845 0.015092994 0.10202161 -0.05661861 -0.1716381 0.076372236
-0.01245897 0.011417751 0.4020033 -0.08632811 0.15697551 -0.18122947 0.40680265 0.050095566
-0.08001906 0.34826714 0.05160635 -0.11651055 0.08812321 0.30925047 -0.20854975 -0.33327562
-0.1921992 0.13532384 -0.04190588 0.052407797 0.10237005 0.042846326 -0.009931647 -0.025348447
0.045260347 0.014136326 -0.00062749395 -0.052286047 0.062375065 -0.09184599 -0.06693006 -0.06595886
0.07545449 -0.0067484872 -0.15506192 0.05989734 0.29426527 -0.03188135 -0.15324828 -0.16714343
-0.030286856 -0.19698343 -0.025446907 0.03330807 0.045500223 -0.108979456 -0.13588549 0.02113461
0.08576435 0.0016149727 -0.06848203 -0.14553618 -0.013817617 -0.16354187 0.03306978 -0.13106836
0.1616973 -0.12113135 0.08784481 -0.19255455 -0.019799601 -0.20434776 0.07639845 0.0196261
0.06557695 0.1222754 0.17081597 0.22184901 -0.20345458 -0.14320432 0.02815477 -0.23534401
0.011532156 0.012886741 -0.051091332 0.100644425 0.0344242 0.017544411 -0.062467504 -0.10473821
-0.041714862 -0.05820945 -0.031895474 0.030035637 -0.21745089 -0.080521785 0.19284588 0.024339007
-0.100803524 -0.064361736 -0.066093855 0.12624119 0.057617858 -0.061466467 -0.10205611 0.080146745
-0.08576855 -0.06978798 0.013262316 -0.07742021 -0.19314757 -0.12188309 0.38873744 0.12350457
0.29475558 0.23509204 -0.34174535 -0.06813365 0.19355103 0.13598956 0.2449476 0.067960784
0.06493603 -0.41809556 0.20817652 -0.21402091 -0.14029638 0.11125396 0.12115106 0.20128089
-0.21455687 -0.11647774 0.010324225 0.29129204 0.014058471 0.06510686 -0.006526809 -0.06927635
0.05731968 -0.06089872 0.09806396 0.019381382 -0.017166195 -0.00964952 0.028881075 -0.07593305
-0.093523204 0.035152078 -0.0053289304 -0.4838265 0.69640464 -0.05804644 0.04425981 -0.0264555
0.2464308 -0.1907687 -0.19700493 -0.016735226 -0.04373521 -0.014237101 -0.077423714 0.024911445
-0.2985304 0.061346907 -0.0015661439 0.13605835 -0.036441136 -0.107397914 -0.07711719 -0.19018528
0.07362392 -0.09648998 -0.34974942 -0.040994138 -0.40657702 -0.20384018 0.22059901 -0.119244814
-0.1957474 -0.3458719 0.07656213 -0.018942086 -0.2941476 -0.009104464 -0.18772192 0.24616082
-0.039710984 -0.08761132 0.01932011 0.049636863 0.075031556 -0.067414664 -0.04163426 0.040630545

actor.0.bias f4 [512]
00000000: 3c15 39bd 1771 823d 697c 60bc dc74 41bd
00000010: 7838 87bd a9bb 85bd 057d bb3d 9b46 b83d
00000020: aac2 233e 1866 d03d de04 25be f495 e13d
00000030: 73d6 eabd f6ff d03d fe41 ddbc bfc4 20bd
00000040: 1c5c 55bd 030a 773d 304b c73d 6377 41bd
00000050: ddfe c2bd a145 4f3d 5f7c c8bd 1e7a c2bd
00000060: f8e8 8bbd cae2 ecbd adcd 9e3d b7a1 86bd
00000070: 5eda 1f3c 3851 b83d 37fa 073e 6c08 063c
00000080: 06e1 d7bd 24ad 573c 5c50 ecbd 3dc3 e3bd
00000090: f520 1d3e b5bd 00be 7b5e a73d 466a 6f3d
000000a0: 35dd 55bd f7d6 203d dc14 4dbd 3082 a1bc
000000b0: 179b 983d 6038 20bc 5a5e af3d be7e debd
000000c0: 9e7b f23d 0a1d b7bc 97c3 9a3d ab0a 2bbd
000000d0: 9b61 6cbc 70be bbbd efbe d6bd 2b1f 833c
000000e0: 2266 9fbb fac6 23be 6dab a83d a8fe 383d
000000f0: 3334 2d3e 2b3b c8bd 0be4 003d 5e9a a13d
00000100: 99c9 043d 0222 10be aaec b33d f232 d03d
00000110: c186 cd3d bc43 65bb f1e9 12be 9166 05bd
00000120: 648e 173c b3d0 3ebd ce10 52bd 1199 9ebd
00000130: 2109 d4bd fe70 613d d4d9 a2bc 17e8 5b3d
00000140: 6297 d3bc e73d 2abe 7eb5 323d 46dd 87bd
00000150: 5a8e 953c 8020 4f3d 85bb 813d fb78 8c3d
00000160: 1546 e7bd 6f53 82bd 6a41 e33d f7ab 4c3c
00000170: 11c2 3bbd f997 683d 423b 8e3d 9821 c33c
00000180: 87e0 743d 0072 5a3b cbd9 10be 1f23 b93d
00000190: 0b0d 9a3c 3e40 93bc 3f88 8ebd 2c0d db3c
000001a0: 1861 08be a821 523b d6e5 10be 7600 233d
000001b0: 21b5 9bbd fa31 20bd 5b3a aa3d 3a1f e23d
000001c0: c087 353c 49c9 513d 2342 d0bb 86ea 843d
000001d0: a89d c5bd 83a4 3ebd e7a2 883d a0b8 b03d
000001e0: c521 a23c d4de 18bc aaa8 c8bd fa47 a43d
000001f0: 8dea 0cbe 1235 8dbd d976 583a 96fb 47bc
00000200: 3e94 983d 9388 943d 4069 a9bd 2421 5fbd
00000210: 879c 0a3e 85e0 8b3d 21fc 163d 060e aa3d
00000220: 3020 1dbd 31d4 00be d11b 9cbc 5671 04be
00000230: c82d 913d 5fca ee3d 52a9 28be b1c0 96bc
00000240: 037a 9fbd 6bc7 ebbc c254 74bd da2d 1a3d
00000250: f144 be3d 809d 47bd da22 143d ba9b 1fbb
00000260: f8b7 c3bd 67f8 25ba 2779 d93d 5eda 093e
00000270: 2798 533d 0830 a8bc 3af5 2fbd 1eca 09be
00000280: 7d06 3c3d 2b22 84bd 10dd 96bd 15f4 cdbd
00000290: 69e6 fa3d 1842 733d de57 c2bc deca 53bd
000002a0: aeb7 863c 5ceb e4bd 7da5 6e3d 0cf6 773b
000002b0: a724 6a3d afd8 413d f134 433c a171 963d
000002c0: 98d1 fcbd e299 4fbd 1061 a13c 64b2 e13d
000002d0: 8267 e0bd 8844 9e3d aa5c 0dbb 4d39 f9bd
000002e0: cdce e33c 3b17 3abd 122d fcbd 7215 a9bd
000002f0: 383b e3bd c8fa 6f3d ab39 15bc f9e3 21be
00000300: 249d f73d 5ca5 52bd fc8c b43d ec18 9d3d
00000310: 04d0 cb3d 8fdc a43d 71ce 023e 9d43 973b
00000320: 7e2b 99bd 694f 75bd 1d18 dbbd c3d5 2c3d
00000330: 7345 cd3c fd89 183c 0a89 b93d 19c7 4f3d
00000340: f374 623c 42e8 c5bd 8e10 8abd cfd7 cabc
00000350: ad07 103d 79ee 82bd 4997 1abe fe6e 5cbd
00000360: e08a 9ebd bc5e 093c 091e a739 b4bc 48bc
00000370: 0186 843c 8324 8a3d 34ea 94bd 83a4 95bc
00000380: 7ad6 a93d 80ae 84bc 57ca aabd efb7 dfbd
00000390: dd9b 7ebd 77f7 06be 719b 993d 3924 193e
000003a0: 093c aa3d cec4 4bbd f3eb 823c dd49 823d
000003b0: 59c4 c03c 4b3d 683d 3250 6dbd eea1 b3bc
000003c0: 5c4c 293d eeea 8ebd db9b 9d3d 422d 92bd
000003d0: 0743 353d 8207 31bb a9c2 e43c 1023 063d
000003e0: b745 0b3e 91e4 963c 9f6f 24bc 2113 373b
000003f0: fe78 043e c1d4 62bd 5794 263d b92c d2bd
-0.045186266 0.063692264 -0.013701537 -0.047230586 -0.066025674 -0.06529934 0.09154705 0.08997842
0.15992227 0.10175723 -0.16115138 0.110149294 -0.11466684 0.10205071 -0.027009007 -0.03925013
-0.052089795 0.060312282 0.09731138 -0.047232997 -0.095212676 0.050603513 -0.09789347 -0.09495948
-0.06831545 -0.11566694 0.07754073 -0.065738134 0.009756653 0.08999866 0.13279043 0.008180719
-0.10540967 0.013163839 -0.11538765 -0.11121223 0.15344603 -0.12572367 0.081723176 0.05845096
-0.052212913 0.039267506 -0.05006872 -0.019715399 0.07451456 -0.009779066 0.08562918 -0.10864018
0.11839984 -0.022352714 0.07556837 -0.04175822 -0.014427568 -0.091671824 -0.104856364 0.016006073
-0.00486447 -0.15993872 0.08235822 0.045164734 0.16914444 -0.097769104 0.03146748 0.07890771
0.03241882 -0.14075473 0.087853745 0.10165967 0.10035468 -0.0034983 -0.14347054 -0.032568518
0.009250257 -0.04658575 -0.051285557 -0.07744039 -0.10353304 0.0550394 -0.01987926 0.053688135
-0.02582902 -0.16625176 0.043630116 -0.066340014 0.018256355 0.050568104 0.06334595 0.06859013
-0.11292664 -0.0636357 0.11096461 0.0124921715 -0.045839373 0.056785557 0.06944896 0.02381973
0.05978444 0.003333211 -0.14145581 0.09039902 0.018805047 -0.017974969 -0.06959581 0.02673968
-0.13318288 0.0032063518 -0.14150175 0.03979536 -0.07602907 -0.03911016 0.08311912 0.11041112
0.011079729 0.05121735 -0.0063555404 0.06490044 -0.09649211 -0.04654361 0.06671696 0.086289644
0.019791493 -0.00933047 -0.09797795 0.08021541 -0.13761349 -0.06894888 0.0008257456 -0.012205979
0.0745015 0.07252612 -0.08272028 -0.054474965 0.13536273 0.06829933 0.036861543 0.08303456
-0.038360775 -0.12580945 -0.019056233 -0.12933859 0.0708881 0.11659693 -0.1647084 -0.01840243
-0.07786944 -0.028781613 -0.059651144 0.037641384 0.09290493 -0.048734188 0.03616605 -0.0024354295
-0.09556574 -0.00063312653 0.10618811 0.13462207 0.051658776 -0.020530716 -0.042958476 -0.13456008
0.045904625 -0.064518295 -0.07366383 -0.100563206 0.122509785 0.059389204 -0.023723539 -0.05170714
0.016445007 -0.11177704 0.05826329 0.0037835864 0.05716386 0.047325786 0.011914478 0.07345892
-0.12344664 -0.050683863 0.019699603 0.110203534 -0.109572425 0.07727915 -0.0021570125 -0.121691324
0.027808571 -0.04543231 -0.12313284 -0.082560435 -0.110952795 0.058588773 -0.009107987 -0.15809621
0.12090519 -0.05142723 0.08815953 0.07670769 0.09951785 0.08049881 0.12774064 0.0046162144
-0.074789986 -0.059890185 -0.106979586 0.042196047 0.02505753 0.009310243 0.09059341 0.050726984
0.013821828 -0.0966344 -0.06741439 -0.024761109 0.03516357 -0.06393141 -0.15096773 -0.053816788
-0.07741332 0.008384403 0.000318751 -0.012252022 0.01617718 0.06745245 -0.07271233 -0.018266922
0.08292861 -0.01619649 -0.083393745 -0.109237544 -0.06216036 -0.13180338 0.07500351 0.14955224
0.08312232 -0.049748234 0.01598165 0.063617446 0.023531126 0.05669908 -0.05793781 -0.0219278
0.041332588 -0.06978403 0.07695743 -0.071375385 0.044253375 -0.0027012532 0.027924852 0.032748282
0.13600813 0.018419536 -0.010036378 0.0027934986 0.1293678 -0.05537868 0.04066881 -0.102624364

actor.2.weight f4 [256, 512]
00000000: 0992 3ebd 59e2 18bd 366f d23d a29f bdbd
00000010: 7ba5 d43d b545 c4bd 9c7a 4cbd 2610 b83d
00000020: 78ea 313d 4f4d 0cbe c8b1 d53d 87eb c9bd
00000030: 4ede ed3c 9f3a f03d 419e 1bbb e9b8 b53d
00000040: 1e0a 013e e7e0 d73d b8cb ebbd b001 c93c
00000050: 91b3 3fbe e609 26bc f1dd d23c 86bf 6c3d
00000060: fd8a e5bd bd75 a9bc 8eab 1f3e 3464 173e
00000070: 896f 0f3d 2249 033e cfde 2e3d 4a1a 8c3d
00000080: ad35 19be f6a1 3cbb 4933 bcbd a5d1 a1bc
00000090: 5b49 7f3d cf13 81bd 3813 6ebd 3326 cf3c
000000a0: ad2f 9a3a 36df f33c d52d 33bd e24d 6dbe
000000b0: 3aae f13d 4b36 81bd 9a51 753d 98bd a73d
000000c0: b14b 10bd a843 1c3d 020f aebd 4396 debd
000000d0: f941 87be 0a50 4dbd f78f 1c3d 342e 45bd
000000e0: c4ee 22be cfb6 6dbd eb90 9abd 240b bcbc
000000f0: b723 cb3d 4f49 07bd 5a56 9a3c e080 f13d
00000100: d0d0 00be 79d1 0f3c 833c 35bd 9c82 85bd
00000110: 7f8b cb3c 7d75 33bd d480 21bd 3009 b33d
00000120: a993 00bd d70c c03c b606 7fbc 21fb bf3d
00000130: 9932 1a3e d0fa 13bd b795 35bd bcd5 583c
00000140: 0504 bb3c 186e 1b3c 11cd d5bc b39b 5f3d
00000150: ec99 34bd ff28 cb3c 7eae 113d 907c 093e
00000160: 5511 34bd e435 03be 006d 133d b61a 873d
00000170: bc7c ac3c cf76 183c 88d9 9abc 6bd5 383d
00000180: 5d36 a73d 1069 83ba db3e 993d e4a9 083e
00000190: f361 873d e0f7 e63c f966 02be 3502 d03d
000001a0: 14b8 d6bd 3270 903d 5da5 863c 0404 e9bb
000001b0: c25d c3bd 5d2a 163d dd17 6d3d a78d 15bd
000001c0: 83d6 53be 8de6 df3c f9bb 173c 3eae 9b3a
000001d0: 72f6 c6bc 2436 a63d d334 07be 51f7 54bc
000001e0: 9889 cf3c b3ac 13bd 8765 eebd 2d25 483e
000001f0: 7c2e c53d 35e9 333e b43f 82bd 31a1 1c3e
00000200: c2b9 a5bd 17f0 453c f415 843d 0c5b 223d
00000210: 1806 073e f22b 7cbd b8bf 153e 835b 82bc
00000220: ca91 113e 93a1 a23d 7ac6 233e c097 93bd
00000230: ad9c 01be 1061 d0bc 67d0 88bc 1509 c53d
00000240: c9ec 63bd 47a4 2a3d 8540 be3d 82fd fdbb
00000250: 18a6 8bbd d56b 0b3e ce9e fbbd 4665 d13d
00000260: 8303 9ab9 f02d 40be 1f1f 07be 6460 bf3d
00000270: 3500 4c3d 2718 c83d 5736 aabd 13aa fe3c
00000280: 8219 303d 3ddf 563b 2fe2 bb3d bfa1 a8bd
00000290: b9d7 a53d f432 943d 7334 6fbc 45b7 a33c
000002a0: 47af 293e e3a3 4c3d 5758 8ebd 554b 573d
000002b0: 6a16 a5bd ce5e 233d fb2c 203b ee8b 8c3b
000002c0: 2c44 c4bc 9263 84bc 61bf 6f3d 5acb b5bc
000002d0: 7383 053d c3b9 30bd 9cd1 763c 3900 0bbc
000002e0: b624 ca3d 1b9c b7bd 2f39 903d fdbc acbc
000002f0: bf6e 77be e830 7bbd cf59 30bd 6f6d 1b3d
00000300: e281 6ebd 06f2 aabd e982 d43d 6197 113e
00000310: 1bce 50be 9eca efbd f4b7 f8bc ad86 62be
00000320: bf71 e8bc 9b4d 73bc ebad 1cbe 337a 92bd
00000330: f861 b83d 77e5 d1bc 4afd 0539 6da0 273d
00000340: 1dbd be3d 2797 81be 6c53 c93d e578 ad3d
00000350: 0982 953d 797a 9abc 54f8 9d3d 167f 3dbe
00000360: 88f2 c43d d1f5 cbbb 3997 933d bbcf 82bc
00000370: e8ce c6bc e69d ba3d e747 a3bd 0a8c 343d
00000380: 838f 8c3d f814 463d 16b3 cdbb 2edd d2bc
00000390: f1ef 983c 9473 a53d 3ba2 003e c1d4 953d
000003a0: 4419 783c 34c4 533d 2d4d 50bc 48a7 103e
000003b0: 82a5 40bd 0d5a df3c 6775 fcbd 6ed7 db3c
000003c0: 414c 8cbd c602 dcbd 5352 bcbd 584c a53d
000003d0: 9052 9d3d 01d3 50bc 8a4c d53d 628d 93bd
000003e0: fe70 d63d f960 d3bd ca6c d43d 80a4 143e
000003f0: 8f0c c33c 144a 543d 7a47 d3bd 1f9e 02bb
-0.04652599 -0.037325237 0.10275118 -0.09258963 0.103831254 -0.09583608 -0.049921617 0.08987455
0.043436497 -0.13701366 0.104343 -0.098593764 0.029036667 0.11729931 -0.002374545 0.088731594
0.12601516 0.105409436 -0.11513466 0.024536937 -0.18720843 -0.010134196 0.025740596 0.05779984
-0.112081505 -0.020686025 0.15592787 0.14784318 0.035018478 0.12820867 0.042692956 0.06840952
-0.14961882 -0.002878306 -0.09189469 -0.019753287 0.062325817 -0.06302606 -0.058123797 0.02528677
0.0011763476 0.029769521 -0.04374488 -0.23174241 0.11800809 -0.06309184 0.059892274 0.08190459
-0.035228435 0.03815046 -0.08498956 -0.10868504 -0.2641752 -0.05012516 0.038223233 -0.048139766
-0.15911394 -0.058035668 -0.07547172 -0.022954531 0.099189214 -0.033028897 0.018840004 0.11792159
-0.12579656 0.0087779695 -0.04424716 -0.065190524 0.02484679 -0.043813217 -0.0394295 0.08741987
-0.03139082 0.023443623 -0.015565565 0.09374071 0.15058364 -0.036127865 -0.044332232 0.013234552
0.022829065 0.009486698 -0.02609876 0.054591846 -0.044092104 0.024799822 0.0355668 0.13426423
-0.04396184 -0.12813526 0.035992622 0.065968916 0.021055572 0.00930567 -0.018902555 0.045125406
0.08164666 -0.0010025818 0.07482692 0.13346058 0.06610479 0.028194368 -0.12734593 0.10156671
-0.10484329 0.070526496 0.016436273 -0.0071110744 -0.09539367 0.036661495 0.057884086 -0.036512043
-0.20687298 0.027331615 0.009261125 0.001187749 -0.024287436 0.08115795 -0.13203745 -0.012998418
0.025334165 -0.03605337 -0.116404586 0.19545431 0.09628007 0.1756943 -0.06359807 0.15295865
-0.08092071 0.012081168 0.064495 0.03963761 0.13185918 -0.061565347 0.14623916 -0.015912777
0.1421577 0.07940974 0.15993682 -0.072066784 -0.12657423 -0.025436908 -0.016700936 0.09620873
-0.055645738 0.041660573 0.0928965 -0.0077511678 -0.06818789 0.13615353 -0.12286149 0.102243945
-0.00029375785 -0.18767524 -0.13195466 0.09344557 0.049804885 0.09770232 -0.08311146 0.031086957
0.042993076 0.003278687 0.091740005 -0.082339756 0.080977865 0.07236281 -0.014599907 0.01998485
0.16570769 0.049960982 -0.06950443 0.052562077 -0.08060916 0.039885335 0.0024440873 0.004289142
-0.023958288 -0.01616076 0.058532123 -0.022191692 0.032596063 -0.043145906 0.015064623 -0.00848394
0.09870283 -0.08965322 0.07042157 -0.02108621 -0.2416334 -0.061325938 -0.0430544 0.03794616
-0.058229335 -0.083469436 0.10376532 0.14217903 -0.20391123 -0.11708568 -0.030361153 -0.22121687
-0.02837455 -0.014850046 -0.1530072 -0.07152214 0.09003061 -0.025622113 0.00012778226 0.04092448
0.09313414 -0.25310633 0.098303646 0.084703244 0.07300193 -0.018857228 0.077133805 -0.1850551
0.09616572 -0.006224372 0.07206578 -0.015968194 -0.024268582 0.09112148 -0.07972699 0.044078864
0.0686331 0.04835984 -0.006277452 -0.025740232 0.0186691 0.080786854 0.12561886 0.0731597
0.015142743 0.051700786 -0.012713713 0.14126313 -0.04703284 0.02726462 -0.1232708 0.026836123
-0.06850482 -0.107427165 -0.091953896 0.08071202 0.07681763 -0.01274562 0.10414989 -0.07204701
0.1047077 -0.103212304 0.10372312 0.14515877 0.0238097 0.05182846 -0.103163674 -0.0019930673

actor.2.bias f4 [256]
00000000: 7ca5 04bd 4103 debc 9812 bcbd 7a19 25bd
00000010: f9b5 23bd 56ed 55bc f57f 86bd 214a 7fbc
00000020: d3a3 87bc d039 adbd 8461 5cbd 2bbf 803c
00000030: 2ff4 a1bd 670c f1b8 525e 2abe 566e 59bd
00000040: deed 9abd a312 153d 53ff 233c 71ff b8bd
00000050: ff6d 0ebd 3a50 b4bd 8d9f dfbc 93d0 ecbd
00000060: 9f38 cabd 97b1 d1bb 6911 01bd 8412 7bbd
00000070: 40fc 9e3c 4cce 0abd 1d4c 7ebd 218e b5bd
00000080: 78ff ab3b 2b86 b9bc 4859 1dbd 6ad6 d1bc
00000090: b470 b8bc 3298 b2bc e7df 2a3c 6612 48bd
000000a0: abdc d1bb 0da0 babd 4274 e9bd 796d c739
000000b0: ea3e dabc 8f68 8bbd 0555 17be 205e aabd
000000c0: c46f dcbb c729 29bd fe33 a2bd 33cb 6bbd
000000d0: ad3f c9bd 6c66 1fbd a93a 56bd f5cf 14bc
000000e0: d3e7 c9ba 71a4 c6bd 7972 a6b9 29ee d2bd
000000f0: cf25 37bd 8371 13bd f9f8 15bd d259 2bbd
00000100: 70f2 0f3d d66b 2fbe a31b 2ebd 0576 2f3d
00000110: ee73 0cbe 0fbd 84bd e779 7fbc d032 85bd
00000120: 6d81 aebd 5f7f 1fbe 2b8d 9abd bad7 efbc
00000130: d1ed 33bd d6f7 d93c ec62 0bbd 8722 123d
00000140: f1df e3bd f4bb b0bb c09d 83bd 86c1 cfbd
00000150: 7999 00bd 55c6 09be 2189 8a39 4c03 bfbd
00000160: bacd 9a3b b873 8bbd 40b7 1abc 1dff 45bd
00000170: 21d0 afbd 02fe 22bd 8366 5cbd 55b8 d7bc
00000180: 4228 73bc fa3d 51bd 1140 89bd 8702 a6bd
00000190: 1ece 24bd d4f3 e6bd 371f d4bd c8a5 28bc
000001a0: bc43 45bd 3bf3 11bd 9362 89bd 4d6a 35bd
000001b0: b364 b2bc d72a 003c 8a02 2bbd 2d3e b7bd
000001c0: eddd 96bd 41e7 26bd f61a efbd 9ff7 a5bd
000001d0: b070 53bd 275a 23bd ef2c 483d 3677 00bd
000001e0: 902c 4dbd 3078 7abd 1a12 e5bd 00e4 29bd
000001f0: 5f05 3cbd 1602 bfbd 2da1 25be 4c39 d93b
00000200: a1c6 f5bb dfbd 7f3b dd2a 84bd 0d9e 76bc
00000210: 22c2 bebc 0961 d3bd fb26 8cbd 30a6 67bd
00000220: 7179 5ebd c472 003c 8734 f4bd cb81 c0bb
00000230: e20e cdbd 86bb 34bd c80d 15bd 8f2a 62bd
00000240: 0fdb 7abc 42d4 66bd 54f4 26bd 8b59 523c
00000250: 0aeb 9ebd 6861 13be 9636 09bd bbb2 a0bc
00000260: 5e3c 53bd a79f 0bbd ca8c 62bc 99c1 bc3c
00000270: acd2 f5bc cb66 a1bd 5f5c 99bd 6357 8fbd
00000280: 7d08 80bd 6e90 a0bd a955 96bd 909f 8dbd
00000290: 3f60 04bc 44f6 80bd 2457 163c 4cc5 c0bd
000002a0: 2fdd 38bd 546c b8bd 86e3 e9bd 7c60 1dbd
000002b0: 9760 a8bd d2f1 eabc 01d7 1cbd 2e3d d2bd
000002c0: bdd4 60bc 20bb a5bd c67d babd 2021 c93c
000002d0: 9cfc b8bd da36 bdbd 3f9f 2cbd 9234 c8bc
000002e0: 4291 8ebd e568 dbbd 1da2 b9bd 2b94 8dbc
000002f0: fcfa 9dbc 3f0d e2bc a7dd cabd 89b3 b8bc
00000300: 0cd7 71bd 9003 93bd d593 78bd 4df6 bbbd
00000310: 75fb 03bd a85b afbd f6ba 8ebd 611d debc
00000320: 5b75 583c 2656 1bbc 4de4 00be d72d b9bd
00000330: 38d7 b5bc b897 52bd 87da 93bd f3c5 16bd
00000340: b1e2 d9bc 037e 4fbd 846c 2c3b 9356 e4bd
00000350: 15cc 87bd 4c72 b5bc ddd2 c0bb 6b94 73bd
00000360: 1a21 403b c148 c03b 0069 84bd 9ab9 bbbc
00000370: 21a0 3fbd b01c 973c 4f8e 5c3c 1750 9abc
00000380: a43a 62bd 1d62 7abd db60 d5bc 8a4e 3dbc
00000390: 2c3a a0bd cc9a 9fbd 8585 a5bd e5f9 14bb
000003a0: dbd7 99bc 57ec 74bd 0ecf acbd abb3 85bd
000003b0: a9fe 33bd ac9b 6fbd 567f b73b db53 66bd
000003c0: cd80 dfbd e80e fbbc 1428 723c 2e88 09bd
000003d0: 86c6 bebc ad2c 77bd a1cc 94bd bc9e 34bd
000003e0: 8f19 28bd 3378 aebd 1964 edbb 7ce2 4fbd
000003f0: fb48 13bc 5c05 06ba ecc2 abbc 9993 b6bc
-0.03238438 -0.027101161 -0.09183234 -0.0403075 -0.039968465 -0.013057074 -0.065673746 -0.015581639
-0.01655761 -0.084582925 -0.053803936 0.015716156 -0.079079024 -0.000114940856 -0.16637543 -0.05308374
-0.07564901 0.036394726 0.0100096045 -0.090330966 -0.03477287 -0.088043645 -0.02729776 -0.1156322
-0.09874081 -0.006399344 -0.031510744 -0.061296955 0.019407392 -0.033888146 -0.062084306 -0.088649996
0.00524896 -0.022646984 -0.038415223 -0.025614936 -0.022514679 -0.021801088 0.010429359 -0.04884567
-0.0064044795 -0.091125585 -0.113991275 0.000380378 -0.026641328 -0.06807052 -0.14778526 -0.08318734
-0.0067271907 -0.041299608 -0.07920073 -0.057566833 -0.09826598 -0.038916036 -0.052302036 -0.009082784
-0.0015404172 -0.096993335 -0.00031747276 -0.10299332 -0.04471379 -0.035996925 -0.036614392 -0.041833706
0.035143316 -0.1713098 -0.042506825 0.04283716 -0.13716099 -0.064813726 -0.015593029 -0.06503832
-0.0852078 -0.15575932 -0.07546457 -0.029277671 -0.04392797 0.026607435 -0.034029886 0.03567746
-0.11126698 -0.0053934995 -0.06426573 -0.101443335 -0.031396363 -0.13454564 0.0002642358 -0.09326801
0.0047242315 -0.06809181 -0.009443104 -0.048338998 -0.08584619 -0.039793022 -0.0538087 -0.026333014
-0.014841141 -0.051084496 -0.06701673 -0.08105951 -0.04023563 -0.11276975 -0.10357516 -0.010293432
-0.0481603 -0.035632353 -0.06708255 -0.04429083 -0.021776533 0.007822714 -0.04175047 -0.08947406
-0.07366548 -0.040747885 -0.11675064 -0.081038706 -0.05162114 -0.039880898 0.048870977 -0.03136369
-0.050091326 -0.061149776 -0.11185093 -0.041477203 -0.04590356 -0.0932657 -0.16174765 0.006629145
-0.007500485 0.0039023084 -0.06453488 -0.015052331 -0.02328593 -0.10321242 -0.068433724 -0.056554973
-0.054315034 0.007839862 -0.11924081 -0.0058748475 -0.10012604 -0.04412415 -0.036390096 -0.05521637
-0.015311017 -0.05635477 -0.040760353 0.0128387315 -0.07759674 -0.14392626 -0.033499323 -0.019616475
-0.051571243 -0.034087803 -0.013827512 0.023041533 -0.030007683 -0.07880934 -0.074883215 -0.069990896
-0.06251619 -0.07840048 -0.07340557 -0.069152 -0.0080795875 -0.062969714 0.009176049 -0.094126314
-0.045132812 -0.09005037 -0.1142035 -0.038422093 -0.08221548 -0.028679762 -0.03829098 -0.10265575
-0.013722596 -0.08092332 -0.09106021 0.024551928 -0.090325564 -0.09238978 -0.042144056 -0.02443913
-0.069612995 -0.107133664 -0.09064124 -0.017282566 -0.019284718 -0.027594207 -0.09905558 -0.022546547
-0.059042975 -0.07178414 -0.06068786 -0.091778375 -0.03222223 -0.08562404 -0.06969254 -0.027113618
0.0132115735 -0.009480989 -0.1258709 -0.090419464 -0.02219735 -0.05141422 -0.07219415 -0.036809873
-0.026597353 -0.050657284 0.0026309798 -0.11149325 -0.066307224 -0.022149228 -0.005884512 -0.059467714
0.0029316605 0.005868048 -0.0646534 -0.02291565 -0.04678357 0.018446296 0.013461663 -0.018837018
-0.055231705 -0.061128724 -0.02604716 -0.01155437 -0.078235954 -0.07793197 -0.080821075 -0.0022731957
-0.018779686 -0.059795704 -0.0843793 -0.065284096 -0.043944035 -0.05849807 0.0055998964 -0.056232315
-0.10913239 -0.030646756 0.014780063 -0.033577137 -0.023288023 -0.06034534 -0.07265592 -0.044096693
-0.04104 -0.0851902 -0.0072445986 -0.0507531 -0.008989568 -0.0005112493 -0.02096697 -0.022287177

actor.4.weight f4 [128, 256]
00000000: fa6f 24bd 1012 52bd 5582 163d b235 a4bc
00000010: 8bff 14bc 7348 86bd 5670 bd3c b420 d13c
00000020: 80e0 02bb 748f 85bd 9206 7bbd c2b2 1abd
00000030: 34d4 f33a 5dd2 5dbd a37b c33d 4f16 af3d
00000040: de91 1cbc 23c0 85bd 4144 e0bd c64c 033e
00000050: 62df 8abd 6585 5dbc 3d88 323d f362 2dbc
00000060: 7520 48bd 3936 a33d c8c0 bfbd 126f 96bd
00000070: 9f1c b0bc 0a59 953d 19cb c83c bb6f cd3d
00000080: 025f dbbd c83a aebd 0e39 1ebc bb53 193e
00000090: 498e 193d 7b60 253d e74c c3bd 439d 51bd
000000a0: 0d6e 02bd 80cb a73b c1f8 32bd 8fe8 3abc
000000b0: 1e82 513c d8a0 863c 6c9e aa3d 8af0 e43c
000000c0: 779c febc cec5 8e3d 7db3 cb3c 3a02 9e3d
000000d0: c0c6 7ebd 3b98 fa3c 68e3 123e 243c 813c
000000e0: b9ca 513d 065e 41bc 1392 af3c 0313 413d
000000f0: ae6f 0bbd 9a34 d23c 5cf0 abbd 089e 9d3d
00000100: 01b4 6e3d 0e64 8c3c bcfd d9bc 606a bd3d
00000110: 246d 693d bc96 0b3c 8639 7dbc a970 d8bc
00000120: 0eae ccbd 635e 9c3d 7731 583d b665 9c3c
00000130: 0b3a 25be 913a e13c 8ddc a1bd d6d4 8bbd
00000140: 74a9 07bd d9ad 29bc 52fd 383d 84cc 823d
00000150: adcc dc3d f060 d2bd 8444 063d 77bb a73d
00000160: 6f4b 9cbc 56a8 bf3d ea5c 873b a00b be3d
00000170: d494 923d b2b3 dfbd 773c 923c ae30 47bd
00000180: d95b 8c3d 8e9f 84bd 0b8b 903d a45b 9abd
00000190: c4a0 1d3d f2bf 43bd 7760 a63d 7900 9e3a
000001a0: ded8 a2bd 17aa b53b c6e4 533c 5d37 ca3d
000001b0: c48e c23d 3105 df3c e8b7 86bd 1f91 8b3d
000001c0: 19ec 643d 992c 043d 574c e0bc cf9d 993d
000001d0: 92ad 1a3d 34ce d13b 7f86 70bd ac5c 08be
000001e0: f096 4e3d ebf3 213d 6c27 273d ac19 983d
000001f0: 59d2 413d 095a 2f3c 201c 87bd b532 82bb
00000200: 2197 fabc 4b70 2dbb bb5f 1fbe c3df c03d
00000210: db43 f13c 3816 8dbd 3077 613d e118 153c
00000220: 5388 08bd 86e3 ca3d e1e6 a33d 8e0e 81bd
00000230: e53b cf3d d3b9 d5bd 953a 44bd 4ac1 6fbd
00000240: defc dbbb 005a d73c 2f7b 773d ca55 72bd
00000250: d7c9 5f3d 64a7 1dbc 60bd cf3d 000f 843b
00000260: 0451 efbb 6648 fcbb 8823 17bd c471 89bd
00000270: 2c03 d83a 926c 63bc 8a61 bd3d 2918 0ebd
00000280: 1c01 4d3b eabb f8bc f0af cd3d 851b 1c3d
00000290: cfd2 d9bb 7bea 44bb b6b8 5d3d 2e19 8e3c
000002a0: 75ce 9c3d 12ab 83bd 1306 943d bd48 fe3b
000002b0: 1d92 513e c8c1 fdbc 0bd8 e23c fb0c bf3d
000002c0: a938 a13c 7970 d3bb 6e23 6cbd 5a50 08bd
000002d0: 65c2 703d cbbf 6a3b e790 11bd 2077 1b3d
000002e0: c0b9 083d eeef 77ba 4b69 9c3b e75f 4bbd
000002f0: fe26 00be dff8 68bc 1424 2bbd 7c13 bd3d
00000300: 643e 3abd 7a04 df3d 77ab 433d 469f e33c
00000310: 75cd c63d ffb5 10be b861 b5bd f2e3 463d
00000320: 50d4 493d f24d cd3c 2635 053e 61cb 6cbd
00000330: be5d a83d 7270 7fbd 65fc adbd 9f69 813d
00000340: 2c08 813c 43a7 adbd 07ea 06bd a650 ffbc
00000350: bba6 053e 5858 a83d 889a 733d 2059 c4bd
00000360: bf92 833d d05b 94bd 3ac9 453d bad3 e1bb
00000370: 65ba 9abd 8508 cdbd 9c0f 6a3d 9434 173d
00000380: 5d62 01be fe97 5abd 41cc e93d 885b b13d
00000390: 4c30 503d c7aa 543d 5bb0 893d b239 1d3e
000003a0: 7f8b 283c e773 18bd 5336 17bd 67f9 0c3d
000003b0: 29de 9ebd 39c2 813c 5185 7c3c aea9 1cbe
000003c0: 1937 4c3d a2b9 c43c 1f86 93bc c257 023d
000003d0: bcfc 443d 4389 763c c559 d43c 570b 27bd
000003e0: 741c 033e faf0 893d 0f82 d7bd 24cd 953d
000003f0: 5910 773d 9de4 493d cca7 953c 997a dabd
-0.04014585 -0.051286757 0.036745388 -0.020045135 -0.009094129 -0.06556787 0.023124855 0.02552829
-0.0019970238 -0.06521502 -0.061285563 -0.037768133 0.001860267 -0.054155696 0.09545066 0.08549177
-0.009556262 -0.06530788 -0.109505184 0.12822255 -0.06780888 -0.013520573 0.04358696 -0.010582673
-0.04885908 0.079693265 -0.09362942 -0.07345404 -0.021498023 0.072923735 0.024510907 0.100310765
-0.10711481 -0.085073054 -0.009657158 0.14973347 0.03748921 0.040375214 -0.09536152 -0.051175367
-0.031843234 0.0051206946 -0.04369426 -0.011407985 0.01278737 0.016434118 0.08330998 0.02794673
-0.031080468 0.06971322 0.02486586 0.077152684 -0.06220126 0.030590167 0.14344561 0.015775748
0.051218722 -0.011802202 0.021431958 0.04713727 -0.034042053 0.025659848 -0.08395454 0.07696158
0.058277134 0.017137554 -0.026610248 0.09248805 0.05698885 0.008519825 -0.015455609 -0.026420908
-0.09994136 0.0763519 0.05278155 0.019091468 -0.16135423 0.027493747 -0.07903395 -0.068277046
-0.033120587 -0.01035639 0.04516346 0.063866645 0.10781226 -0.102723956 0.032780185 0.08190053
-0.019078938 0.093582794 0.0041309493 0.09279561 0.07157293 -0.10922946 0.017851098 -0.04863041
0.06853456 -0.06475745 0.0705777 -0.0753701 0.038483396 -0.047790475 0.08123868 0.0012054584
-0.079515204 0.005543958 0.012932962 0.09873841 0.09499887 0.027224155 -0.06578046 0.06814789
0.055889223 0.032269094 -0.027380152 0.07500803 0.037763186 0.006402755 -0.058722015 -0.13316602
0.050436914 0.03953926 0.04080908 0.074267715 0.047319744 0.010702618 -0.06597161 -0.00397333
-0.030589642 -0.0026464637 -0.15563862 0.09417679 0.029451301 -0.068890035 0.055045307 0.00910017
-0.033333134 0.09906678 0.08003021 -0.06301604 0.10118846 -0.10435834 -0.04790743 -0.058533944
-0.0067134937 0.026288033 0.06042021 -0.059163846 0.05463585 -0.009622429 0.10143542 0.0040301085
-0.007303359 -0.0076990603 -0.03689912 -0.06711152 0.0016480437 -0.013880866 0.0924712 -0.03469101
0.0031281179 -0.030363042 0.10043323 0.038112182 -0.006647445 -0.0030046988 0.054131232 0.017345991
0.07656566 -0.064291134 0.07227721 0.007760136 0.20465894 -0.030976191 0.027690908 0.09328648
0.019680338 -0.006452617 -0.057650976 -0.033279754 0.05877914 0.0035819884 -0.03553858 0.037955403
0.03338027 -0.00094580546 0.004773294 -0.049652006 -0.12514874 -0.014219492 -0.041782454 0.09232232
-0.045469657 0.10889526 0.047770943 0.027785908 0.097071566 -0.14131926 -0.08856529 0.04855723
0.049274743 0.025061581 0.13008556 -0.057811145 0.08221005 -0.062363096 -0.08495406 0.06318974
0.015750967 -0.08479168 -0.03293803 -0.031166386 0.13051884 0.08219975 0.059473544 -0.09587312
0.06424474 -0.07244074 0.048287608 -0.006891695 -0.07555083 -0.100113906 0.057143793 0.036915377
-0.12635179 -0.053367607 0.114159115 0.08660036 0.05082731 0.05192068 0.0672309 0.1535404
0.010287165 -0.037219908 -0.036917042 0.034417536 -0.077572174 0.015839683 0.0154126445 -0.15299103
0.049857233 0.024014298 -0.01800829 0.031821974 0.04809259 0.015047374 0.025921712 -0.0407823
0.12803823 0.06735416 -0.105228536 0.07314518 0.060318325 0.04929029 0.018268488 -0.10667915

actor.4.bias f4 [128]
00000000: 8c9f d93c ad52 7bbd 89ab 87bd e7e4 81bd
00000010: 2429 c03d 8860 88bd b1ff 8b3c 43b3 8f3a
00000020: 4fd4 a6bd 3b19 91bd 39ea 5dbd 0036 7bbd
00000030: 3650 8cbd 61eb 87bd b6a4 0fbd 792a 3dbb
00000040: cd00 9dbd f1cf b2bc 0d05 b1bd 8a82 27bd
00000050: 65ab 02be dd9b 4abe afa8 2dbb ef71 573c
00000060: 1865 84bc f440 9bbc af52 dfbd 52ed 88be
00000070: e25a 92bd 979d 673d 261f 6cbd ae63 1fbe
00000080: 7bc3 77bd 37af 4ebb e6e7 15bd f3d0 b2bd
00000090: 1e61 2abd eb08 7bbd 1649 abbd c170 bfbd
000000a0: 2f49 53bd 504f cfbd a964 e1bd c988 0dbe
000000b0: 64b3 11bd 7765 65bc fd5e c2bd 0a15 003c
000000c0: 50f7 8b3d 86ba 75be 2305 ebbd 3f1f 573b
000000d0: 2958 273d d6d0 e7bc 4fd5 7abc 274c 6bbd
000000e0: dab7 edbb efae 5b3c 4fb2 abbb 89f9 dbbd
000000f0: 1c25 353c eca7 7bbd d5ff acbd 1812 d0bc
00000100: 4f13 92bd dfb5 72bd e661 acbc 71a6 c53c
00000110: 2648 373c c85d 5abe 4aa6 023d 7dc4 d93c
00000120: 5cd6 203d 67c0 443c e1f4 54bd d340 34bc
00000130: 660d 9bbc 6671 f6bc 2b6a 0fbe 4d2e 0bbc
00000140: 29b5 8bbc b5c0 343d d3a2 99bd 7501 f0bc
00000150: a2af 9abd 5734 b4bc f2b9 80be 93b1 3f3d
00000160: 5fae 8dbe 772c f8bd 195e da3c 4ba9 94bd
00000170: 562c b2bd 4fd7 943c bd6a 9cbd 0f3a 22bc
00000180: dc41 03bb ceba dcbc a836 3ebe d38f 4c3c
00000190: 4815 dcbd 80e8 633c dcf5 9c3a 0888 3dbd
000001a0: 6e65 b4bd 9192 22be 2c4a cdbd 718c 41bd
000001b0: 50fa a6bd 811e 9cbd c828 79bd 0654 473d
000001c0: fba1 78bd bb49 cdbc 277b 61bd 8f21 8e3d
000001d0: 97f6 c83c 1c76 c13c 7bff 64bc 9625 2fbe
000001e0: 2a60 90bc 80c6 ba3c 42a2 aa3c 1ab5 3cbd
000001f0: 7fbd ad3c f463 b43b 0cc8 183c fb88 30bd
0.026565336 -0.061358143 -0.066245146 -0.06342488 0.09382847 -0.06659037 0.017089697 0.0010963458
-0.081459634 -0.070848905 -0.05417845 -0.061330795 -0.068512365 -0.06636692 -0.03506919 -0.0028864427
-0.07666168 -0.02182767 -0.086435415 -0.040895976 -0.12760694 -0.1978602 -0.0026498248 0.0131497225
-0.016161487 -0.01895187 -0.109044425 -0.2674356 -0.07146241 0.056546774 -0.057646893 -0.15565369
-0.06048916 -0.0031537542 -0.03659811 -0.0873126 -0.041596524 -0.0612878 -0.083635494 -0.09347678
-0.051583465 -0.101225495 -0.110055275 -0.1382171 -0.03557147 -0.014001242 -0.09490774 0.007817516
0.068342805 -0.23996934 -0.11475589 0.003282502 0.04085556 -0.028297823 -0.015309646 -0.05744567
-0.007254583 0.013408407 -0.005239762 -0.107409544 0.011056211 -0.06143944 -0.084472336 -0.025399253
-0.07132589 -0.059255477 -0.021042775 0.024127217 0.011186635 -0.21324837 0.031896867 0.02658295
0.03926693 0.012008763 -0.051991347 -0.011001783 -0.018927287 -0.03008337 -0.14005344 -0.008494926
-0.017054157 0.044129092 -0.075017594 -0.02929757 -0.075530306 -0.021997614 -0.25141865 0.046800207
-0.27672097 -0.12117856 0.026656197 -0.072588526 -0.08699863 0.018169073 -0.07637546 -0.009901538
-0.002002827 -0.026944544 -0.18575537 0.012485462 -0.107462466 0.013910413 0.0011975127 -0.046272308
-0.08808409 -0.15876223 -0.10023913 -0.047253076 -0.08153212 -0.07623006 -0.060829908 0.048664115
-0.06070135 -0.025059571 -0.055049088 0.069399945 0.024531646 0.02361589 -0.013976927 -0.17104182
-0.01762398 0.02279973 0.020829324 -0.04607115 0.021208523 0.0055050794 0.009325039 -0.043099385

actor.6.weight f4 [12, 128]
00000000: c5fb 62bd 796c c0bc d641 7e3d bba5 413c
00000010: d982 50bd 13a6 d1bb 5570 3d3d 888e d93b
00000020: 3794 1538 0fa6 babb 93fb 893b 73fa 0ebd
00000030: 98cb 2cbb d669 6c3d fa8a c6bc 1051 90bc
00000040: 4271 f63c 0f31 acbb 1539 aabc 8dc5 e73b
00000050: 9156 fd3b 0007 a6bd e2a6 8ab9 f4a7 c83b
00000060: 7adb 0b3c 6304 803c a04f b43c d032 713d
00000070: 856b 20bd ac90 e9bb e6b3 b03c a5fe 0bba
00000080: 8690 643d 2c60 c63c 6db4 0cbd 29c3 9a3c
00000090: 01a3 37bd 9e78 df3d 1e60 203d 1be7 c2bc
000000a0: aed0 503d 51b0 283d c5dd 3ebd 2cd1 cebc
000000b0: a1cb 183b 448c 653d 415e a0bb fe09 0bbd
000000c0: 2b92 d2bc 9485 f8bb 7a52 633d 152e 983d
000000d0: 046f c9bc 219c 1bbc fbf8 64bc ab53 a83d
000000e0: 272f 57bc 4f06 eabb e4b1 5f3c d4bc d03c
000000f0: 28db b1bb b657 ef3c 64a4 99bb 016c 5abd
00000100: 3468 69ba c0f4 7f3d f9dd d43c ebb7 6bbd
00000110: 75a9 8a3d 1959 b83c 1fa0 693c f127 e43c
00000120: 3f38 333c 0827 db3d c84a 00bd a93f 05bd
00000130: 200a cf39 7e07 27bd 4822 c13c 5412 41bd
00000140: 6547 a63c cdda 8fbd 7f54 17bc ef89 87bc
00000150: 3211 94bc e09a 013c 285e bd3d 597b 8fbd
00000160: a7b0 a53d 7a4f 0abd ba4a 03bd f209 3fbd
00000170: edde f7bc fa29 163d f5a9 723b 5049 353c
00000180: d590 d83d b39b 8b3c ede9 8b3d bb9d b03c
00000190: 8517 d03c dda8 14bd b317 67bd deaf 6038
000001a0: 9e67 6d3d c318 3d3c 9891 babd 9b08 413c
000001b0: 6d45 25bd b861 41bd c139 abbb bd69 4abd
000001c0: 0c58 c1bd 3426 c2bb b4b1 12bc 1558 303d
000001d0: 6c05 37bd 33a2 e03c 9758 13bd 788a d53d
000001e0: b1e1 e4bc b786 e7bc 58c5 673d ca60 abbc
000001f0: 30ff 71bd cd24 2f3d b92c 30bd a10d fc39
00000200: 3670 5d3c 9962 8fbd 3ed1 57bc 6f72 c13d
00000210: a021 2ebc 398a 213d f37e f4bc 308d 903d
00000220: e378 3ebc 936e 27bd cee5 803d 10b7 1ebd
00000230: 5763 93bc 7ab6 083d 672d 11bc c672 383d
00000240: 47ee 2bbd 59a9 dbbc 7462 823c 6768 9d3c
00000250: b2ee 9dbc 1abc 743c 7db1 903c 8af9 4cba
00000260: 939b fdba 792c ae3c 72e0 bc3c e037 23bd
00000270: 4eca 8d3c c250 08bd 770d 193d 0f84 14bd
00000280: 374d 84bb b25e 76bd 96c9 60bd ef77 cebc
00000290: 63c8 943d f5a2 bd3c c663 3a3c cc67 003c
000002a0: 1d13 413d 91eb bbbc 609e 6dbc 7420 193d
000002b0: d152 d1bc 8503 c4bc 8111 e7bb 8858 cabd
000002c0: e506 1e3d 2e8f d43d b1f6 cbbc 28c8 123c
000002d0: 3c6e 9b3a 24cc d4bc 4b83 68bd 3be0 1fbd
000002e0: 4833 edbb 851d 573d 784a 1d3c 49a4 8dbc
000002f0: f1e4 a53c c003 263c 9d13 7dbc 8323 95bd
00000300: c5ce 663c dfce b1bb 8427 b13c 0a06 58bc
00000310: 6705 fdbc d163 9bbc 7fa0 c0bc b46d 83bd
00000320: d8bc 55bc 8c07 41bd b1b9 a33d fd7b d0bc
00000330: 1b62 6dbd d7c0 d5bc 3a03 893d f376 25bd
00000340: 785c a83c 3fee 8f3d ccf2 bf3c 9581 9fba
00000350: 4a42 68bc 7619 4b3d ad60 8bba 2dd8 5bb9
00000360: 5192 58bd b881 8c3d bfaf fabc 23b6 0a3d
00000370: 1264 4dbc b7c5 9ebc 474c 93bc 7041 973a
00000380: 588b 853d 72f3 66bd 4824 79bc 961b 7e3c
00000390: ef19 703c af97 a0bd 4add 87bd b677 49bd
000003a0: d4f4 f8bb e2f2 1c3d efec 123d 467c 173b
000003b0: fa58 f53b 6be9 48bd 89ab a1bc 4964 aebc
000003c0: 3541 0ebc e4fb 083d 2286 71bc d11d e23c
000003d0: 0c32 75bc 71d0 983d ff7f f1bb 6127 2bbe
000003e0: 1348 0dbd 1350 3cbd 1f7e b3bc 963e fa3c
000003f0: 48aa d23d 6709 d8bc 6363 8cbd 1785 443c
-0.055415887 -0.023489224 0.062074505 0.011819298 -0.050906036 -0.0063979714 0.046249706 0.0066393055
3.5662404e-05 -0.0056960653 0.004210898 -0.034906816 -0.0026366469 0.05771812 -0.024236191 -0.017616779
0.030083302 -0.0052548717 -0.020779172 0.0070731104 0.007731267 -0.08106804 -0.00026445749 0.006123537
0.008536214 0.015627092 0.022010624 0.05888635 -0.03916504 -0.007127842 0.021570157 -0.0005340374
0.05580189 0.02421578 -0.034351755 0.018891888 -0.044833187 0.10911678 0.039154164 -0.02379184
0.050980262 0.041183773 -0.046598215 -0.025246225 0.0023314732 0.05604197 -0.0048940484 -0.033945076
-0.025704464 -0.007584283 0.055498578 0.074306644 -0.02458907 -0.009497673 -0.013975377 0.082190834
-0.013133801 -0.0071418653 0.013653252 0.025480665 -0.005427737 0.029216629 -0.0046887863 -0.053325657
-0.0008903772 0.06248927 0.025984751 -0.057548445 0.067706026 0.022503423 0.014259367 0.027851077
0.010938703 0.10700804 -0.031321317 -0.032531414 0.0003948966 -0.04077863 0.023575917 -0.04713662
0.020297715 -0.07024155 -0.009236454 -0.016545264 -0.018074606 0.00791046 0.092464745 -0.070059486
0.080903344 -0.0337672 -0.032053687 -0.046640344 -0.030257666 0.036661126 0.0037027572 0.011064842
0.105744995 0.017042017 0.06831727 0.021559587 0.02540184 -0.036293853 -0.056419086 5.356955e-05
0.057960145 0.011541548 -0.09109801 0.011781837 -0.040349413 -0.047212332 -0.0052253907 -0.049417246
-0.09440622 -0.0059249643 -0.008953501 0.04305275 -0.044682905 0.027421093 -0.035973158 0.104268014
-0.02793965 -0.02826248 0.056584686 -0.020920176 -0.059081256 0.042759705 -0.0430114 0.0004807534
0.013515523 -0.07001228 -0.013172446 0.094456546 -0.010628134 0.03943846 -0.02984569 0.070581794
-0.011625501 -0.040876936 0.06293832 -0.0387488 -0.017991705 0.03337715 -0.008860922 0.04503133
-0.041975286 -0.02681415 0.015916087 0.019214822 -0.019278858 0.014937425 0.017662758 -0.00078191666
-0.0019348733 0.02126144 0.023056243 -0.03984821 0.01730838 -0.03328014 0.037366357 -0.036258753
-0.004037525 -0.060148902 -0.054879747 -0.025203673 0.07264783 0.023148993 0.011376327 0.007837247
0.04713737 -0.022939475 -0.014503092 0.037384465 -0.025552185 -0.02392746 -0.007051647 -0.09880167
0.038580794 0.10378872 -0.024897905 0.008958854 0.0011858414 -0.025976248 -0.056765836 -0.039032202
-0.007238779 0.052518386 0.009600274 -0.017290251 0.02025077 0.01013273 -0.015446571 -0.07282164
0.014087384 -0.0054262723 0.021625288 -0.013185034 -0.030886365 -0.018968495 -0.02351403 -0.064174086
-0.013045512 -0.047126338 0.07994402 -0.025449747 -0.05795489 -0.02609293 0.066900685 -0.040396642
0.020551905 0.07027864 0.023431204 -0.0012169356 -0.014175961 0.04958483 -0.001063367 -0.00020966
-0.052873913 0.068606794 -0.03060138 0.033865105 -0.012536066 -0.019381387 -0.017980708 0.0011539888
0.06520718 -0.05638451 -0.015206404 0.015509507 0.014654621 -0.07841431 -0.066340044 -0.04918643
-0.007597545 0.03831757 0.03587049 0.0023114844 0.0074874135 -0.04905073 -0.019735115 -0.021288054
-0.008682539 0.033443347 -0.014741452 0.027602108 -0.014965545 0.07461632 -0.0073699947 -0.1671424
-0.034492563 -0.045974802 -0.021910725 0.030547421 0.10286385 -0.02637167 -0.06854894 0.011994622

actor.6.bias f4 [12]
00000000: b32d 30be 003c 1e3c e2d0 ca3c 0fb2 6abd
00000010: f3f5 833e 052c 81bd b464 0f3c 8031 13be
00000020: fd09 463d 5904 0fbe a637 543e c34f 15be
-0.17204933 0.00965786 0.024757806 -0.057298716 0.25773582 -0.06307224 0.008752037 -0.14374352
0.04834937 -0.13966502 0.20724353 -0.14581208
