src/ga_quadruped/policy/param_action.onnx (onnx, 772885 bytes, 8 tensors)

actor.0.weight f4 [512, 52]
00000000: 6da3 fdbe 3bc6 a4be 7a81 993f d9dd f1be
00000010: 6594 6f3f 2d44 193d f1b8 573e 0d63 2f3d
00000020: 2963 37be 8432 b43d f8f4 753d 5b6b b1bd
00000030: 83f7 e03d 8ff2 2b3d 420b e33c 76d6 d8bd
00000040: f99e 3dbd a7a6 14bf cd15 74bd 6ddd b83e
00000050: 8e55 13bf 99b8 313f 32d8 14bd d766 f4bd
00000060: 98a0 a9be 2736 673e ae0f c1be 6661 e0bd
00000070: f7a8 a1be 0137 9cbe 3376 d93e fe9a 893d
00000080: c006 eebe fe37 7dbe 70ca 373e 3c0f 8e3e
00000090: 01aa 243e bd8a 183f 9e1f 49be 6a12 ab3e
000000a0: 41ec 043d db84 ed3c 477b af3d 2e97 803d
000000b0: 7cf6 3dbd f15e 433d 79dc 6cbc a1bc a5b9
000000c0: 59b8 96bd 0d4f a939 9ffd a23c 8006 1fbd
000000d0: 6f52 0e3f bc17 053f 452e 7fbe 6115 863d
000000e0: fbf2 2e3e 7a60 8abd c704 68bd ae79 bebd
000000f0: fbc6 22bd 17b7 c93d 4619 7abd f537 83bd
00000100: d73a deba 283f 8f3d 5553 38bc 9b48 773c
00000110: cda1 26bf 2d8e 7ebe 89b5 e83c 2b82 583d
00000120: eb42 32bd 9f05 da3e b9ab 003f 889c 36bf
00000130: fc27 9c3e 5dd6 833e 1303 533e 7b2e 133e
00000140: 307f 27bf f891 393f 1c82 7abe da1d 5e3d
00000150: 1080 ffbe 880f 8f3e c1b9 3ebe 85b0 21bd
00000160: a45b b4be fa88 f7bc 0e51 88be a5ba 1e3e
00000170: db5b 853d 2b08 6c3d 414e 8dbd 787d 1fbd
00000180: d51c 753d 25ba ca3a c3d6 0c3d b71b 69bb
00000190: b8a1 98bd 771b 3dbb 2507 753c bf9b cdbd
000001a0: 91ef 9d3e 4ef8 12bf f0c2 503f 94d7 3a3e
000001b0: c5d2 523e 3f5f 5ebd 3ead e63c e30c 18be
000001c0: 002c 8dbd 7337 92bd 41cc de3d 5e3f a83d
000001d0: 6967 c63d b8ef 6bbd 8d12 adbd 7d22 ad3c
000001e0: bc74 6fbf b36c fa3c 3e9d 2ebe c0a9 5f3e
000001f0: 9de7 8d3e 872f 3f3e ef72 133f a248 66be
00000200: c967 143f d9f3 9cbe 83da ca3e bd20 403c
00000210: 3bba 323e ab60 f3be 7942 923e 7339 f3be
00000220: 7272 a43e d47f 903e d5e0 1c3f 11ac 043d
00000230: 2fae 2bbe ec35 d0bd c89e b7bd bbfd 13bf
00000240: dc1e f63c 7db4 35ba 748a 7cbd 2973 3dbc
00000250: f371 383c 5174 27bd bb3d 1dbd fe20 64bc
00000260: 537d b8bd a63f d03c f8d0 413b 5c53 013d
00000270: d0df dbbe f817 02bf 397a 763f 0349 0bbf
00000280: 0b99 ec3d 8258 56bd f243 00bd e3bd b63e
00000290: 286d 3bbe dd87 76bd fc85 05be 1fa6 c03d
000002a0: fc1d 78bd 85a8 36bd 2184 1d3d 7d8e 9ebd
000002b0: 85e8 97be 6cc4 1abe 0cbc 9bbd 1362 873e
000002c0: 8bc4 2bbe 9bed 65bc 20fa d3be 11b8 92be
000002d0: db14 cb3c 0f79 013f a8d5 ddbe 678c 993e
000002e0: f9e1 ee3d e4c6 81bd 6675 08be 6975 0b3e
000002f0: 31a5 f0be 8c36 eabd d003 63be a13d cd3b
00000300: 95da b3be 7f62 91bd 64af 9bbd fdd5 ce3e
00000310: a703 ca3c 40db c1bc 0a7d b6bd 8e79 e9bb
00000320: 38b6 a43d baaa 0dbd 749d e73c 3105 6a3d
00000330: 9b2f 9a3c 31f5 fbbb 4135 c93d a451 d7bd
00000340: 9796 98bd c21f 433d 7872 853e 5839 54bd
00000350: 3b78 1c3f 9f1d 1a3d e04f 213f 8d06 cb3e
00000360: 17b6 09be 06b2 48be 28de 21bd cdd2 c4bd
00000370: cc7a 0fbe c28b e2bd e9f9 31be 1613 cc3c
00000380: 3f3c b7be 74a2 5a3e 20a7 2a3e a285 073f
00000390: 02a9 4c3e 1a37 e23e f879 c8bd 8d26 63bd
000003a0: 3574 973e 8d8c f93c 6f53 13be c708 913e
000003b0: 32f9 8abe 3dea 9ebe 58c0 b9bd 807e 33be
000003c0: 0e0b 733e a8c0 863e cb37 cbbe a275 66be
000003d0: de88 8cbd 13b2 24bd 7d6d 90be ec39 18bd
000003e0: f1cb 11bd aca2 f7bb bfbd 4fbd 9a8b 6c3d
000003f0: 68d8 f43c 8ac2 edbb c46e cabc 75ba d63d
-0.49538746 -0.32182488 1.1992638 -0.4723957 0.9358581 0.037418533 0.21066643 0.04281907
-0.1790892 0.087986976 0.060048074 -0.086630546 0.10984709 0.04197937 0.02771533 -0.1058778
-0.046294186 -0.5806679 -0.059591103 0.36106434 -0.5755242 0.694223 -0.036338992 -0.11933678
-0.33130336 0.22579251 -0.37707275 -0.10956077 -0.31574222 -0.30510715 0.4247299 0.067190155
-0.46489525 -0.2472839 0.17948318 0.27745998 0.16080476 0.595867 -0.19640967 0.33412486
0.03245187 0.028994014 0.08568435 0.06278835 -0.046377644 0.047697965 -0.014456862 -0.00031611792
-0.0735938 0.0003229309 0.019896327 -0.03882456 0.55594534 0.5198934 -0.24919994 0.065470465
0.17084877 -0.06756683 -0.05664518 -0.09300552 -0.039740544 0.09849375 -0.06105926 -0.06407157
-0.0016954791 0.06994468 -0.011250337 0.015092994 -0.6509064 -0.24858923 0.028406875 0.052858513
-0.04352085 0.42582414 0.5026203 -0.713326 0.30499256 0.25749484 0.20606641 0.143732
-0.6542845 0.72488356 -0.24463695 0.054227687 -0.4990239 0.27941537 -0.18625547 -0.039474983
-0.35226166 -0.030216683 -0.2662434 0.15500887 0.06511661 0.057624977 -0.068996914 -0.038938016
0.05984195 0.0015466852 0.0343845 -0.0035569498 -0.074527204 -0.0028855482 0.014955317 -0.10039472
0.30846837 -0.5741013 0.8154745 0.18246299 0.20588215 -0.054290053 0.02815878 -0.14848666
-0.06893158 -0.07139482 0.10878802 0.08215211 0.09687693 -0.05760166 -0.08450804 0.02113461
-0.935375 0.03056941 -0.1705217 0.21842098 0.2771577 0.18670474 0.5759725 -0.22488645
0.57970864 -0.3065479 0.39619836 0.011726555 0.17453854 -0.4753469 0.2856634 -0.47504768
0.32118565 0.28222525 0.61280566 0.032390658 -0.16765665 -0.10166535 -0.08965832 -0.57809037
0.030044012 -0.0006931497 -0.061655477 -0.011563101 0.011257636 -0.040882412 -0.03838895 -0.013923882
-0.09008279 0.025420975 0.0029574018 0.03157364 -0.42944193 -0.50817823 0.96280247 -0.5440828
0.11552628 -0.0523305 -0.031314798 0.35691747 -0.18303359 -0.060188163 -0.13039392 0.09406685
-0.06057547 -0.044594306 0.038456086 -0.07742021 -0.29669586 -0.15113991 -0.076042265 0.26442012
-0.16774194 -0.0140337 -0.41401768 -0.28656057 0.024790218 0.50575346 -0.4332707 0.2998993
0.116641946 -0.063367635 -0.13326034 0.13619007 -0.4700103 -0.11436185 -0.22169423 0.0062634503
-0.35127702 -0.07098865 -0.076018125 0.40397635 0.024659945 -0.023664117 -0.08910568 -0.007125086
0.08042568 -0.034586646 0.028273322 0.057133857 0.018821528 -0.007689141 0.098246105 -0.105136186
-0.07450598 0.04763771 0.26063895 -0.0518125 0.6112096 0.037625905 0.63012505 0.39653435
-0.13448368 -0.1959916 -0.039518505 -0.096105196 -0.14011687 -0.11061813 -0.1738049 0.024911445
-0.35788152 0.21351033 0.16665316 0.5293828 0.19986346 0.44182664 -0.09788889 -0.055456687
0.29580846 0.030462528 -0.14387296 0.2832701 -0.27143246 -0.31038085 -0.0906989 -0.17528725
0.23734686 0.2631886 -0.39691004 -0.22505811 -0.06862043 -0.040208887 -0.28208533 -0.037164614
-0.035594884 -0.007557234 -0.050718065 0.057750322 0.029888347 -0.007255857 -0.02471102 0.104847826

actor.0.bias f4 [512]
00000000: dedd 95bd 331f 793d ff70 1a3d b082 b4bc
00000010: a849 26be 3b82 42bd 1798 7a3c 616a 0f3d
00000020: f815 3a3e 408d 4c3e 9dd8 dbbd 5ee3 9a3d
00000030: 3e8c e6bd 7c09 823d 829b bfbd 3be5 efbc
00000040: 2ccc 76bd 4ff2 7b3b 1cce 383d 597f 91bd
00000050: 9650 f3bd 69cf 483b 94a7 bbbd e02f 26be
00000060: 5da1 b6bd 71c1 fc3b 8cd7 1b3e e849 c1bd
00000070: a481 90bd 86d9 743d 940b 2b3d 5a33 69bd
00000080: a667 ffbd b99b a23d f384 1dbe b985 06be
00000090: 7cdd 463e 707b 7abd 6d0a 8f3d 2d1f eb3d
000000a0: 69f3 99bd 48a6 3cbd 2151 74bd e655 e53c
000000b0: a1e0 b63d 9604 9cba 126c c2bb 39f0 16be
000000c0: cd56 103d 81cc 0abd 9495 dc3d 21c3 753b
000000d0: fa94 56bd 5ab8 aabd 7106 05be 9689 f73d
000000e0: 1afa 2ebb 7c96 23be fda0 e53d 4fca 303d
000000f0: f33f f03d 9bb7 04be 8267 3f3d d962 6c3d
00000100: 804d c33d f7ff 07be f196 bf3b 08be 053e
00000110: dac9 b43d efe6 a2bc 1201 2fbe 2426 7dbc
00000120: 03f1 ca3c 7691 86bd 5a75 7ebd c9bf 1cbe
00000130: 08f1 9bbd 21e2 623d f485 713d 2e55 cb3c
00000140: d163 8fbc 3b76 24be c97e 843d f34b 00be
00000150: 3205 f3bc 0301 eb3c 41ac 033e 6b31 393d
00000160: 4c22 84bd bc3a 10bd 692f d83d e3b4 59bd
00000170: 9342 4abd 13f5 e73c cff8 253d 9c80 973d
00000180: 9dd5 523d e42b a43b 7465 bebd 3a9c ca3c
00000190: be7f b53d e075 3bbd 6b09 b3bd 1d02 90bc
000001a0: 57a5 02be 5897 d33d b693 28be 4763 e93b
000001b0: 9106 d7bd 5932 10bd c074 103e 8520 533e
000001c0: e41b 37ba e514 453d 290b 9ebc 0bf8 e43d
000001d0: 7309 efbd 81a9 1c3c 37d3 293e 7776 0ebb
000001e0: a560 a03c 81d8 37bb fcb9 d4bd a7b7 0a3e
000001f0: 2a5a f0bd df44 9ebd 1b62 8dbb 0289 8d3a
00000200: 30d2 ca3c d58e 823d 1d2c 6ebd aa9b 52bd
00000210: d1b2 b73d ad5f ca3d d627 043d ca30 183e
00000220: f695 033d fc28 19be c7c5 6cbd a0a0 27be
00000230: f8bc 9b3d 64b7 593e 3982 0cbe 0555 963d
00000240: bc07 c2bd aa72 52bb 6616 f5bd ecea 9e3d
00000250: 551a 2b3e 2b5e 7bb9 832b c6bc 220b a83c
00000260: bb3f efbd b265 62bd a493 cb3d 884b 0a3e
00000270: ff6a 353d c2ac 4c3d 9551 99bb f636 29be
00000280: a13b abbc 6bf4 dcbd c0a0 8dbd de22 79bd
00000290: b143 0f3e d801 803d cb38 c33c 15a8 abbd
000002a0: 8c14 bd3c 7d21 c7bd c1b6 8c3d afbc 10bc
000002b0: 13c3 ed3c be43 e33c 917e dbbb 4bc7 663d
000002c0: 994f ebbd c433 67bd 3854 f5bc dd07 093e
000002d0: f322 2fbe 41f8 e13c 4154 a63d e705 b7bd
000002e0: a571 523d 9bb1 10bd 96ab 1cbe 4f71 16bd
000002f0: 1a34 0bbe 9465 8d3d e1c6 b53d f61c 21be
00000300: c36e ee3d d5d5 87bd a05d 803d 0575 c23d
00000310: fb87 eb3d a684 de3d 4950 c43d 6806 d7bd
00000320: 8f05 e8bd b545 8bbe e55b 18be 03a8 343d
00000330: 4c57 1b3d 9ccd 89bc 78c6 e13d a777 ddb9
00000340: a818 5f3d c216 40be 7794 c7bd 0440 32bc
00000350: 0289 f7bb 039f 80bd 0b95 40be 12b6 cabc
00000360: 0c87 a0bd 0c38 f1bc 7c46 bb3c c634 07bd
00000370: dbb3 1abd 1ffb 933d e54f 80bd f402 9fbc
00000380: 8542 8f3d 0832 ae3c 564d 53bd 6f38 e0bd
00000390: 9ffd a3bd 273c 5dbe 8f4b 183e 936e 1a3e
000003a0: 24d9 0f3e 5e98 11bc 6e61 1cbd 9762 8f3d
000003b0: 7310 8e3c 585e cb3d f524 b8bc c2b6 bbbd
000003c0: 3632 1c3b 5054 17bd 2c11 003e 6211 b2bd
000003d0: 15f0 4f3d a7dc 653d b81f dd3d a17c 213d
000003e0: abc5 fe3d 4cd9 b33c 9804 d83a 94a4 e5bc
000003f0: b0c9 523e 43f2 6cbd 801a aa3d c470 b8bd
-0.073177084 0.06082077 0.037705418 -0.022034973 -0.16239035 -0.04748748 0.01529505 0.03501356
0.18172443 0.19975758 -0.10734675 0.07562898 -0.11257218 0.06349465 -0.09355833 -0.02928411
-0.060253307 0.0038443988 0.045118436 -0.07104368 -0.11880605 0.0030641204 -0.09162822 -0.162292
-0.08917496 0.0077134897 0.15218943 -0.094379246 -0.07055977 0.05977776 0.04175909 -0.05693374
-0.12470941 0.07939858 -0.15382747 -0.13136949 0.19420427 -0.061152875 0.069844104 0.11480556
-0.0751713 -0.046057016 -0.059647683 0.027995061 0.08929563 -0.0011903222 -0.005933293 -0.14740075
0.03523903 -0.033886436 0.10770717 0.003750034 -0.05238817 -0.083359435 -0.12990738 0.12086789
-0.0026699365 -0.15975374 0.11212347 0.043161687 0.11730947 -0.12960665 0.046729572 0.057711456
0.09536266 -0.13281237 0.005846851 0.13060772 0.08827563 -0.019885508 -0.17090252 -0.015450988
0.024773126 -0.06570713 -0.062123634 -0.15307535 -0.076143324 0.055391435 0.05896564 0.02482089
-0.01750365 -0.16060726 0.06469495 -0.12528972 -0.029665563 0.028687006 0.12858678 0.045213144
-0.06451854 -0.035212263 0.10555918 -0.053151023 -0.049379896 0.028315103 0.040520485 0.07397577
0.05147325 0.005010115 -0.092966944 0.024732698 0.088622555 -0.04576671 -0.08742031 -0.017579133
-0.12758385 0.10331601 -0.16462597 0.0071224305 -0.10499299 -0.035204265 0.14107037 0.20617874
-0.0006985052 0.04811563 -0.019292431 0.11180123 -0.11671724 0.009561897 0.16584478 -0.002173809
0.019577334 -0.002805263 -0.10387036 0.1354662 -0.117359474 -0.0772798 -0.0043146736 0.0010798278
0.024758428 0.06374899 -0.05814754 -0.051417984 0.089696534 0.0988153 0.032264553 0.14862362
0.032125436 -0.1495704 -0.057805803 -0.16369867 0.07604402 0.21261364 -0.13721551 0.07340435
-0.094741315 -0.0032111802 -0.11967163 0.077596515 0.16709264 -0.00023972306 -0.02419067 0.020513121
-0.116820775 -0.055272765 0.099402696 0.13505375 0.044291493 0.049969442 -0.004678915 -0.16524872
-0.020902457 -0.107888065 -0.06915426 -0.060824268 0.13990666 0.06250352 0.023830792 -0.083816685
0.023081087 -0.09723184 0.06870795 -0.008834048 0.029023683 0.027742263 -0.0066984375 0.056342404
-0.114897914 -0.056445852 -0.029947385 0.13381906 -0.17103176 0.027584197 0.08121539 -0.08936673
0.05137791 -0.035325628 -0.1529983 -0.036729153 -0.13594094 0.0690414 0.08875824 -0.15733704
0.1164222 -0.06632582 0.062678576 0.09494976 0.115005456 0.108651444 0.09585626 -0.10499269
-0.11329185 -0.2720162 -0.14878805 0.04410554 0.03792505 -0.016821675 0.11024183 -0.00042241553
0.054466873 -0.18758681 -0.09745114 -0.01087952 -0.0075541744 -0.06280329 -0.18806855 -0.024745021
-0.07838258 -0.02944567 0.022860758 -0.033009313 -0.03776918 0.07225632 -0.06265239 -0.019410588
0.069951095 0.021264091 -0.051587425 -0.10948264 -0.08007359 -0.21604978 0.14872573 0.15081243
0.14047676 -0.008886425 -0.038178854 0.070012264 0.017341828 0.09930104 -0.02247856 -0.09165718
0.002383364 -0.03694564 0.1250655 -0.08694722 0.05076607 0.056118634 0.107970655 0.039425496
0.12440046 0.021954201 0.0016480861 -0.028032579 0.2058475 -0.057848226 0.08305836 -0.09005883

actor.2.weight f4 [256, 512]
00000000: bff9 433d dbba 2e39 b190 d43d 3d25 3dbe
00000010: 6199 153e b9e7 4abd 4c67 09bd 82f5 943d
00000020: c8e7 a03d 5b08 76bd 563e bcbd 0f37 03be
00000030: 1b2a 003e 4116 a33e 9f34 8bbe 9e2d 043d
00000040: 0309 3a3e 220e 933c 71ca 55be 9607 d1bd
00000050: 1351 dbbd 6c47 7e3c 622e 9f3d 3199 0fbe
00000060: c03e babd 2f7a 1cbd d6c7 153e 25ea 113e
00000070: f6da 713d ecfc c0bd 58e6 a33d 3b3d 60bc
00000080: 4876 183e cf91 fcbd 6d08 993d 6dd5 0ebd
00000090: 35a9 a23d de2f 1a3e bf3b a73b 250c 473e
000000a0: aec7 4bbc 6eb1 cabd 83de fabc 4fe0 01be
000000b0: e942 4abe bf7a d1be a8d6 a8bc c083 f93d
000000c0: 1fd5 b53d 4977 553e 4fac 22be a1f5 123c
000000d0: 29a9 39be e7dd 673d 9360 603d 3a08 903d
000000e0: b1ee b6bd 5138 a33d e694 7e3c 1a2a e03d
000000f0: 2ccd 06bd 9c30 b9bb 63f9 3a3c 8517 683d
00000100: 2b28 0dbe c5fd daba b4e8 0e3e 7235 083e
00000110: b198 c33c b7f7 393c 5084 853e cf82 113d
00000120: d7ac 2f3e cf44 ac3d 21b5 093e 1662 523e
00000130: 95ed c0bd f2ac 653e f825 86bd cb49 2abe
00000140: 0f51 40bc c974 733d e3a2 213e ec10 0dbe
00000150: 4ac9 24bc 0d5b c7bd dc8c 3abe bd6c 02be
00000160: 1a3e 153d cfb4 d2bd 7710 133e a5d5 113d
00000170: 2875 9dbc 81eb 763d 1bad 8f3e 3090 72bc
00000180: b251 aa3d 85d3 8ebc 1507 a53d 945b b63d
00000190: 2be2 2f3c ffb7 81bd ff15 bf3d c906 073d
000001a0: d85b 2f3e e74f 3cbd e239 a93d ffed 2cbe
000001b0: f3b7 4a3e b4ce eabd 57ed 74bd 3da0 5a3e
000001c0: 01b4 e1bc 0cfe 4abe c5f6 213e d31e 5dbe
000001d0: f251 b0bc ecd4 533e 6bbc 8fbd 7d52 253d
000001e0: 69a7 4d3e c3ed b63d 0a3b 31be aa7e 5dbe
000001f0: ca25 2e3c e296 af3d 2705 89bd 99e7 4abc
00000200: cdbe 96bd 7cba 90bb 3a54 373e 0edd 1fbd
00000210: c01b 62bd c9f4 a2bd 2661 c63d 1d2b 793b
00000220: 51c2 103e ce25 eebd 00a0 9bbd 0273 40bd
00000230: 01de 05bd ebc9 82bd b07f 403e c113 a83d
00000240: 27b6 ffbd 17d8 dbbb b9ff d73d 80a3 bd3b
00000250: 1d17 3a3d 2ead 4f3c 2047 0cbe f539 0a3e
00000260: 7ff2 87bd e9cf 40be 0da1 81bc d810 87bd
00000270: d60c 123d b576 71bd 846a 4b3e b419 d13d
00000280: ba07 bfbc bd85 e53d f173 92bd 9790 f7bd
00000290: d881 37bb 441c a43d 65fe 69be c6e5 4c3e
000002a0: 9316 31bd 2bb4 20bd ee14 35be 2d41 fa3d
000002b0: bf0e 193e 0d4c c1bc ec4a 42be 09bc a0bc
000002c0: 6ad7 dd3d 7dae 94bc ec62 063e 3334 d03d
000002d0: 2fd7 623e 1b37 013e aac5 f6bd 667c a6bd
000002e0: 7a81 41bd 9d86 d7bd a20e 2f3e 59f7 e13d
000002f0: 2d4d 3abe 21f0 c3bd 88dd a1bd 691c 003e
00000300: ff57 3d3d bd5f a13e 8f2c fbbd 2fdd a83c
00000310: 66b2 85bd 96f7 7d3d 4247 d4bd 9608 643e
00000320: 7aaf 13be bd86 81bc 0e3e 543e fc1a 893c
00000330: 4eb5 27bd bbff c1bc edca 843d 909f 8abd
00000340: d0a6 2fbc 985e 103e 0bb2 d03d 43d9 1abd
00000350: b3a0 373e 7079 2e3e 2bae 8e3d 0130 45be
00000360: 72d4 5fbd ed3d cbbb 9a3f 5dbd 627c 6e3e
00000370: 2814 663e 5d4d debd 7714 0d3e e072 273e
00000380: fe8a 2c3e f71b 09be 468f 763e c478 5fbe
00000390: 5a4c 5d3d 3951 47be 161d b1bd 6bc2 5d3e
000003a0: b7f5 303e 72af 393d 84ac 273e bdf5 c03d
000003b0: 307d 3d3e 79cd f8bd a004 ac3d ee6e 833e
000003c0: 2f7e 493e 0460 70be f781 bbbb e60b 483e
000003d0: 2108 b8bb 21d6 8fbd 7340 49bb 7356 113e
000003e0: 7a5d 4f3e ea96 6d3d 899c 043d 5021 003e
000003f0: 1b2b 26bd 83f9 483e 7e45 7a3d 2734 58bd
0.0478456 0.00016663542 0.1037916 -0.18471237 0.1460929 -0.049537394 -0.033545777 0.072733894
0.07856709 -0.060066562 -0.09191577 -0.12813972 0.12516062 0.31852916 -0.27188584 0.032270066
0.181675 0.017951075 -0.20878007 -0.10206525 -0.10708823 0.015519958 0.07772519 -0.14023282
-0.09094 -0.03820246 0.14627013 0.14249475 0.059046708 -0.09423241 0.08002919 -0.0136864735
0.1488887 -0.12332498 0.0747231 -0.034871507 0.0794243 0.15057322 0.005103558 0.19438227
-0.012437744 -0.09897123 -0.03062368 -0.12683223 -0.19752087 -0.4091396 -0.020610169 0.121833324
0.0887854 0.20846285 -0.15886043 0.008969695 -0.18130936 0.056608107 0.0547796 0.07032819
-0.089322455 0.07969726 0.01553843 0.1094553 -0.03291051 -0.0056515466 0.0114119975 0.056663055
-0.13784854 -0.0016707709 0.13955957 0.13301638 0.02387652 0.011350564 0.2607751 0.03552514
0.17155777 0.08411562 0.13448001 0.2054523 -0.09420315 0.22429255 -0.06550211 -0.16629712
-0.011738076 0.059437547 0.15784793 -0.13775986 -0.010057757 -0.097341634 -0.18217796 -0.12736793
0.036436178 -0.10288393 0.1436175 0.035604138 -0.019220904 0.060283188 0.28061756 -0.014804885
0.083163634 -0.017434845 0.080579914 0.08904186 0.010735075 -0.063339226 0.09330367 0.032965455
0.1712488 -0.04597464 0.082629934 -0.16887663 0.19796734 -0.11465207 -0.059796657 0.21350189
-0.027551653 -0.19823474 0.15816791 -0.2159379 -0.02152345 0.20686692 -0.0701836 0.04036187
0.20083393 0.08932068 -0.17307678 -0.2163035 0.010629127 0.085737005 -0.06690436 -0.012384319
-0.07360611 -0.004416762 0.17903224 -0.039029174 -0.055202246 -0.07956845 0.09686498 0.0038020082
0.14136626 -0.116283044 -0.07598877 -0.04698468 -0.032682423 -0.06386169 0.18798709 0.08206893
-0.12485915 -0.0067091095 0.10546822 0.005787313 0.0454322 0.012675567 -0.13699007 0.13498671
-0.06638049 -0.18829311 -0.015823865 -0.065950096 0.035656773 -0.0589511 0.19864851 0.102099806
-0.023319114 0.11207149 -0.0715102 -0.12088125 -0.0028000977 0.08013204 -0.2285095 0.20009527
-0.04323442 -0.03923432 -0.17683765 0.122194625 0.14947031 -0.023595834 -0.18973893 -0.019620912
0.108321026 -0.018149609 0.13123673 0.10166206 0.22152399 0.12618677 -0.1204942 -0.08129196
-0.04724262 -0.10523722 0.17095426 0.11033506 -0.18193503 -0.09567285 -0.07903582 0.12510838
0.046226498 0.31518355 -0.12264358 0.020613281 -0.065281674 0.062003694 -0.10365154 0.222689
-0.14422408 -0.015811319 0.20726797 0.0167365 -0.04094439 -0.023681512 0.064840175 -0.067687154
-0.010720924 0.14098585 0.10190209 -0.037804853 0.17932396 0.17038512 0.06966814 -0.19256593
-0.054645963 -0.0062024505 -0.054015733 0.23289636 0.22468626 -0.108545996 0.13777338 0.16352415
0.16849896 -0.13389574 0.24078092 -0.21823412 0.054027893 -0.19464578 -0.08648126 0.21656196
0.17281233 0.045333333 0.16374403 0.09421871 0.18504786 -0.12148566 0.0839932 0.2567057
0.19677041 -0.23474127 -0.00572228 0.19535789 -0.0056162034 -0.07023264 -0.003070858 0.14193134
0.20250502 0.05800525 0.032375846 0.12512708 -0.040568452 0.19626431 0.06110143 -0.05278411

actor.2.bias f4 [256]
00000000: 4650 b0bd d77d 4dbe 1f66 96be b65a dfbd
00000010: e1e0 72be c4af 32bc 4fcc 45be 9d23 cebd
00000020: b596 7abd 2d36 e2bd 1b8e 07be f65b 91bc
00000030: e5b5 3dbe 8af9 873d bdbf 9cbe 52d5 3dbe
00000040: abfc 82be a92d e6bd bc39 04be 874a 3fbe
00000050: aea5 5abc e46c 5abe eedf 6bbd 1ed5 98be
00000060: d044 1cbe b6d2 8cbe 7deb 15be 4520 39be
00000070: 9d82 d0bd a339 9c3d 4665 91be a800 88bd
00000080: 440a b2bd bfbc 5fbd 389b 14be 49ac debd
00000090: d404 4ebd c69f bcbd 509c 51bd 23a9 cfbd
000000a0: 0e39 9b3d 545e 51be b71f 12be 7c5e dabd
000000b0: 1d63 383d 4e5c 83be 8287 49be d9df 36be
000000c0: 20f8 cbbc 7ab4 0fbe ce98 1cbe 594c 3dbe
000000d0: c8e6 a5bd db4f 43be 95cf 61be 87df 71be
000000e0: 81d1 913c ca4e a4bd 5f63 393c 2077 2ebe
000000f0: 7686 e0bd 5a34 e2bd 9bba 68be a631 71bc
00000100: 9e16 91bd 019f b1be d622 94be 85ec 54bd
00000110: 4177 a2bd 8ca1 0fbd 4412 21be 4059 7abe
00000120: 10b0 6abe 5603 56be 2ceb 463d 51c6 8cbd
00000130: 07e7 19be a16a 7bbc 07eb 31be 334f cdbd
00000140: 2574 10be d8ba 11bd 5a7b 8ebd 69c3 0ebe
00000150: a104 9cbd d239 11be 863c 8fbe 6c8f 8ebe
00000160: e33b 4abe f786 01be dd18 51bd 8408 a1bd
00000170: 4013 81be ed4e 58be a900 29be f9cb 5ebd
00000180: 46b7 28be 2145 17be 051c 74be fcc6 65be
00000190: 733b cbbd f6ab d3be 63df 25be 1781 dcbc
000001a0: 3644 03be 21fb a9bd 9177 a1be af7d c5bd
000001b0: d56e edbd f597 983c c174 06be 6bed 14be
000001c0: c3ac c6bd 5919 85be c030 c3bd 5794 d3bd
000001d0: 5158 c5bd 2717 2cbe 776b 833c 0bd4 c7bd
000001e0: 0e53 53be 4506 27be e84e 61be 3e5d 93bc
000001f0: 61ba 2cbe 58f5 2bbe 3640 3ebe d719 f8bc
00000200: 4a8a 22be 6d7a f1bd e4b5 bdbc 69c4 0e3e
00000210: 0773 21bd 31cf 9cbe 2409 81be bb8b 37be
00000220: 063b 80be efee c4be 88cf c9bd bd0d 18bd
00000230: f692 45be 9cc3 99be d9e0 1dbe 0d17 e1bd
00000240: 0ab4 a8bd 7cd1 9bbd 93de f9bd b27c 50bd
00000250: a9d7 2cbd 30ae be3c ae65 24be d496 90bd
00000260: 1735 7bbe 8d46 26be dc74 c8bd 0bab 74bc
00000270: 304d 41be b8fb d5bd 3168 24be 6c07 1fbe
00000280: e485 dcbd fdcb 9f3d 5add 2dbd 005b f1bd
00000290: 43bc 6ebe 77e2 f0bd 002b 113e 9451 85bc
000002a0: 311c e7bd 5c77 a7bd 2c80 82be d3b8 f9bc
000002b0: 0343 08be 6381 1dbe 6c42 82be f2c5 49bd
000002c0: 8a85 02be 5be0 35be b48c 13be fef6 26be
000002d0: a702 e6bd 02f4 35be 55ed 29be 80fd 3fbe
000002e0: d3a4 90be 44a3 a5be 8936 78bd eea9 a8bd
000002f0: e4b0 69be 7ec4 a9bd 82e3 c9bc b465 0c3c
00000300: a318 d9bd 1bd1 3bbd 60a7 90bd 7263 56be
00000310: 16c6 f9bd 424d ccbd 97d6 1bbe 92e4 4bbd
00000320: ba55 113b 4703 9d3c cb23 76be 3c9c 98be
00000330: fd23 69bd d845 febd e6c6 dcbc 1261 41be
00000340: a27e 02bd ec62 9fbd 7167 9e3e 476a 13be
00000350: 0fa4 a03d 1997 63bd 5383 c0bc 472c 25bd
00000360: dbea cb3c a532 b0bb 0b9f 39be 5c69 fabd
00000370: 8160 6fbe e82f dabc 32f7 99bd d4d7 01bd
00000380: 7f28 20be 2383 4abe 5750 07be a7d6 74bd
00000390: 8b2f 38be ff3e 0dbd 8fee 40be 7875 41bc
000003a0: 7d19 37be ce35 573e 83e2 17be cfb7 3dbe
000003b0: c675 b6bd 18a8 a4be af1c 78be db99 43be
000003c0: bfc2 0cbe e960 0bbe ef55 11be 217a 17bd
000003d0: 9b25 a1be a2b5 edbd c3c3 4fbe 2663 72be
000003e0: 7c09 2d3d ead1 94bd 4ae8 87bc ac29 fbbd
000003f0: 5e74 9cbd e006 a43c 81c2 96bd b7da 9dbe
-0.08609061 -0.20067535 -0.29374787 -0.109059736 -0.23718597 -0.010906164 -0.19316219 -0.100653864
-0.06117888 -0.110454895 -0.13237803 -0.017744046 -0.18526419 0.06639393 -0.30615035 -0.18538406
-0.25583395 -0.11239178 -0.12912649 -0.18680774 -0.013345165 -0.21330601 -0.057586603 -0.29850096
-0.15260625 -0.2750451 -0.14640613 -0.18078716 -0.101811625 0.07628181 -0.28397578 -0.0664075
-0.08693364 -0.05462336 -0.14512336 -0.108727045 -0.050297573 -0.09210162 -0.05117446 -0.10139682
0.07579242 -0.2044614 -0.14269911 -0.10662553 0.045016397 -0.2565636 -0.19680598 -0.17858829
-0.024898589 -0.1403369 -0.15292665 -0.18486156 -0.08100659 -0.19073431 -0.22051843 -0.23620425
0.017800095 -0.0802284 0.011315196 -0.1703763 -0.109631464 -0.110451415 -0.22727434 -0.01472131
-0.07084392 -0.34691623 -0.28932828 -0.051983375 -0.07932902 -0.035066172 -0.15729624 -0.24448109
-0.22918725 -0.2089971 0.04856412 -0.06873763 -0.15029536 -0.0153452465 -0.17374812 -0.10024872
-0.14106806 -0.03557858 -0.06957121 -0.1394173 -0.076180704 -0.14182213 -0.27975863 -0.27843797
-0.19749407 -0.12649141 -0.051049102 -0.07862952 -0.2521 -0.21123858 -0.16504158 -0.054393742
-0.16476163 -0.14772464 -0.23838814 -0.22439188 -0.099234484 -0.41342133 -0.16198497 -0.026917024
-0.12818989 -0.08299852 -0.31536534 -0.09643113 -0.11593405 0.018627146 -0.13130476 -0.14543693
-0.097009204 -0.259959 -0.09530783 -0.10331028 -0.09635986 -0.16805707 0.016042454 -0.09757241
-0.20637152 -0.16310985 -0.22002757 -0.017988797 -0.16867973 -0.1679281 -0.18579182 -0.030285759
-0.15873066 -0.11790929 -0.023158021 0.13942112 -0.03941634 -0.30626824 -0.25202286 -0.17924397
-0.2504503 -0.38463542 -0.098540366 -0.037122477 -0.19294342 -0.3003205 -0.15417804 -0.10990725
-0.08237465 -0.07608315 -0.12200656 -0.05090017 -0.042197857 0.023276418 -0.16054413 -0.07060018
-0.24531971 -0.1623785 -0.09787914 -0.014933358 -0.18877101 -0.10448402 -0.16055371 -0.15530175
-0.10767725 0.078025796 -0.042447425 -0.11784935 -0.23314004 -0.11761945 0.1417656 -0.016274251
-0.11284674 -0.08177063 -0.25488412 -0.030483639 -0.13306813 -0.15381388 -0.254413 -0.04926104
-0.12746254 -0.17761366 -0.14409143 -0.16305158 -0.11230975 -0.17768863 -0.16594441 -0.18749046
-0.2825075 -0.32351124 -0.060598884 -0.082355365 -0.22821385 -0.08289431 -0.024644617 0.00856917
-0.10600402 -0.045853715 -0.07063174 -0.20936373 -0.12195985 -0.09975673 -0.15218578 -0.04977853
0.002217634 0.019166602 -0.24037091 -0.29806697 -0.056919087 -0.124156654 -0.02695031 -0.18884686
-0.031859048 -0.0778254 0.30938295 -0.1439601 0.07843792 -0.05556402 -0.02350012 -0.04032543
0.024892261 -0.005377131 -0.18127076 -0.12227127 -0.23376657 -0.026634172 -0.07517852 -0.03169997
-0.15640448 -0.19776587 -0.13214241 -0.05977502 -0.17986886 -0.034483906 -0.18841003 -0.011807792
-0.17880817 0.21016619 -0.14832501 -0.18527149 -0.08909182 -0.32159495 -0.24229692 -0.1910166
-0.13746165 -0.13611187 -0.14192937 -0.036981706 -0.31474003 -0.11606909 -0.20289521 -0.23670635
0.042245373 -0.072666004 -0.016590256 -0.12263808 -0.07639383 0.02002281 -0.073613174 -0.3083093

actor.4.weight f4 [128, 256]
00000000: 87d7 51bd cbf6 6a3e 5d3d 7e3d f10f 63bc
00000010: a2d9 eebc 7bf0 763d e2d1 b03b 6649 e0bd
00000020: 6748 56bb 236c 77bd 9955 313d 2142 4cbd
00000030: 3413 b3bd ba8d 24be 6b26 293d bf9f 04bd
00000040: 2856 153e e2a4 ccbc 6c76 07be c125 f33d
00000050: 6b65 613d 23c5 03be 3922 f13d 34ce 54bc
00000060: ba95 203e 8826 f5bd c16e 303c bfc2 f33d
00000070: 4c4c b8bd d574 5dbe 1d00 cb3c 2cb1 7d3e
00000080: 0809 a1bd 43c7 453d e729 e43d f9b9 453e
00000090: 493d 3e3e 177d 3b3e 5d1c 61be 74c5 e9bd
000000a0: 1e13 133e 0559 9f3c f24e b1bc a90a bc3d
000000b0: 87d4 e2bd 4534 88bd 9248 3d3d 6d96 b23d
000000c0: 2543 91bd 56c6 833d d904 4bbd 8c6f 903d
000000d0: 7200 253d 7c03 f03b 073c ec3d f115 b33c
000000e0: 9873 3cbe 518c 083e 67ae 30be 4673 cdbd
000000f0: 9902 cbbd 812c 8f3d 5d14 04bd 745e 233e
00000100: 2a0b 9c3c d803 2c3d 3d8f 98bd 044f 0c3d
00000110: e3c5 d53d c18a d0bd f46e 06be 09ff ac3d
00000120: 5482 8bbc 9682 36bc 2654 333e a1db 58bc
00000130: 8671 5b3e a5be 05be fdc0 2bbe c462 76bc
00000140: b864 743e 17f0 233e d0b7 4dbc d750 ed3d
00000150: 974c f2bc 53f0 d33d 4834 543d df6e 4dbd
00000160: f331 3abd d702 823d a442 e33d 7a87 2e3e
00000170: fa44 703d cef3 32be 96b9 babd 5721 18bd
00000180: f928 4a3e 9e13 5b3e 51f9 333d e16e a5bd
00000190: af0d 853d 80b9 3b3e 3559 3c3d 2c55 83bd
000001a0: a02e cdbd 3260 1dbe 2514 47bc d9a9 8dbd
000001b0: 5ab7 423e efa9 a63b 86ed 49bd 2010 e4bc
000001c0: e222 b8bd da73 b23d dd16 503d f70b 643d
000001d0: 0004 9c3c b4bf 83be 598b b4bc 8353 ffbd
000001e0: 2e88 a4bd de0b a53d 0a4d e93d 8882 27be
000001f0: 1cd1 233d c531 9c3e 9baa 4cbd 8d99 e5bd
00000200: 504c bfbc 54c0 643d 2d99 7ebe f2d1 58be
00000210: c7c4 5abd dbb7 14bc 62ec 25bd e947 01bd
00000220: 4b7a 8f3d 5d48 793d b82e c63d a6e7 04bd
00000230: 5bab 8d3c 2a57 babd 2dc7 92bd a121 13be
00000240: 1402 5cbe 1ce2 c13c 1a96 64bd 2d01 89be
00000250: 9745 fc3c f7da 003e 27f3 453e ee66 d73c
00000260: 178b 423e c296 243c 4945 8ebd 5e4d 10bd
00000270: db84 ce3c 7c9f bebc 223c 0f3d 6371 863e
00000280: 0215 21be 13e1 9c3c 9fbe 5d3e ab18 293e
00000290: ee6b 563e e667 3c3e 2244 8ebc 0403 af3d
000002a0: 5a17 8d3c 39c3 043e 5646 c13d 17ea f7bd
000002b0: e01a 973d 6e59 763d 443c 36be 5767 07bd
000002c0: 9768 403d d9e2 1d3e 3bef 7abd 9ffc c43d
000002d0: c939 e43d 9dda 94bd 7fff 38be a223 c83c
000002e0: 748b a83b 19a7 21be f991 b4bd 2743 cfbd
000002f0: 5552 de3c 6b58 c0bd 546e a2be 6b12 5e3d
00000300: e9cc 0dbe 255d fbbd 77be 1fbe 9311 0b3e
00000310: 3a17 013e 546b c63d 65e7 57be abc2 413d
00000320: cd16 253d 9aa3 c0bc 0905 503d 28f1 4fbd
00000330: 7df3 abbd ab72 933c eaa6 1f3c 730e 18bd
00000340: 37ee 5dbc 6bfe 0a3e d730 96bd 356d 2a3e
00000350: 25bb 96bd f769 09bc 2769 74bb da49 93bd
00000360: 8780 9ebd 0979 4c3d 58f9 2fbe c8cb a9bd
00000370: 3973 0cbc b6a2 3fbe f48b 34be 39fd 083e
00000380: 25ff 11be 0c66 98bd 814b e03d 65be 313e
00000390: ba7f f53c bfce 8c3c 7366 50be abd3 1abd
000003a0: d94e a0bd 3f02 d5bd 151e 823d f3dc e0bd
000003b0: 9631 a7be 1b07 e43d f877 373e 5cab 04be
000003c0: f9c4 c0bc 8003 773d aa02 e73d 5a04 96bb
000003d0: f927 a33d a7cc 29bd 825c f1bd cc8b 8c3d
000003e0: 0327 90bd 5d8e a2bd 549d abbd 4fe5 eabb
000003f0: b893 7a3d 078d 7bbe d993 4c3e a146 8cbd
-0.051230934 0.22945707 0.06207024 -0.013858781 -0.02915651 0.060287934 0.0053961137 -0.109515
-0.0032696964 -0.06040586 0.043294523 -0.049867753 -0.08743897 -0.1606969 0.041296404 -0.03237891
0.14583647 -0.024980966 -0.13228768 0.11872435 0.05502836 -0.1286817 0.117741056 -0.012988616
0.15682116 -0.1197024 0.010768593 0.11902379 -0.089989275 -0.21626599 0.024780327 0.24774617
-0.07863051 0.048285734 0.11140805 0.19309224 0.18578066 0.18309437 -0.21983476 -0.11414614
0.14362761 0.019451628 -0.02164409 0.09181721 -0.110756926 -0.066505946 0.046211787 0.08720098
-0.07092885 0.06434314 -0.04956517 0.07052526 0.040283628 0.007324634 0.11534887 0.021861048
-0.1840347 0.13334776 -0.17254029 -0.10031752 -0.09912605 0.0699091 -0.032245982 0.15954
0.019048292 0.041995853 -0.074491955 0.034255043 0.104381345 -0.10182715 -0.13128263 0.084470816
-0.017029919 -0.011139533 0.17512569 -0.013235957 0.21430025 -0.13061006 -0.16772838 -0.015038196
0.23866546 0.16009556 -0.012556031 0.115876846 -0.029577537 0.103485726 0.05180767 -0.050154563
-0.04545779 0.06348198 0.11096695 0.17043868 0.05865953 -0.17475817 -0.09117429 -0.03714117
0.19742192 0.21394202 0.04393894 -0.08077789 0.064967506 0.18332481 0.045983512 -0.064127296
-0.10018659 -0.15368727 -0.012150799 -0.069171615 0.19015256 0.0050861756 -0.049298786 -0.02783972
-0.08991028 0.08713503 0.050803054 0.055675473 0.019044876 -0.25732195 -0.022039102 -0.124671005
-0.08033787 0.08058904 0.11391647 -0.16358387 0.039994344 0.3050672 -0.04996739 -0.11210928
-0.023351818 0.05584748 -0.2486312 -0.21173838 -0.053410318 -0.009077038 -0.040508635 -0.03156272
0.070057474 0.060860027 0.0967688 -0.03244748 0.017293623 -0.090986565 -0.07166896 -0.14368297
-0.21485168 0.023667388 -0.05580721 -0.2675871 0.030794902 0.12583528 0.19331037 0.026294198
0.18998371 0.010045709 -0.06946809 -0.035230033 0.025209835 -0.023269407 0.034969456 0.26258382
-0.1573067 0.019150293 0.21654747 0.16513316 0.2093961 0.18399009 -0.017366473 0.08545497
0.017223049 0.12965097 0.09437244 -0.12105196 0.07378173 0.06014388 -0.17796427 -0.033057537
0.046974745 0.15418567 -0.061263304 0.09618496 0.11143834 -0.0726826 -0.18066214 0.024431054
0.0051435772 -0.15786399 -0.088169046 -0.1012023 0.027138868 -0.093918644 -0.317248 0.054216783
-0.13847698 -0.12273625 -0.156 0.13580923 0.12606516 0.0968844 -0.21084364 0.04730479
0.040304948 -0.023515511 0.050786052 -0.050767094 -0.08396051 0.017999014 0.009744385 -0.037123155
-0.013545564 0.13573615 -0.07333534 0.16643222 -0.07359914 -0.00838708 -0.003729412 -0.071918204
-0.077393584 0.049920116 -0.17184961 -0.08290821 -0.008572393 -0.18714413 -0.17631513 0.13377847
-0.14257486 -0.07441339 0.10951901 0.17357786 0.029968131 0.017188428 -0.20351581 -0.03779952
-0.07827539 -0.10400819 0.06353394 -0.10979643 -0.3265502 0.11134168 0.17916858 -0.12955993
-0.023531424 0.060306072 0.11279805 -0.0045781555 0.079666086 -0.041454937 -0.117852226 0.06862602
-0.07038691 -0.0793731 -0.08379617 -0.007168449 0.06117603 -0.24565516 0.19978274 -0.06849409

actor.4.bias f4 [128]
00000000: 21f9 21bd 42fb a2bd 3e9c 40be 3573 bebe
00000010: 90b0 6ebc 4530 59be 41e8 e03c 2f82 6abd
00000020: 86e2 85bd 8271 dbbd f7c2 9cbd e9b5 f3bd
00000030: ed7f 0dbd e138 b6be fe43 d9bd cfbf f2bd
00000040: 54f9 c5bc b435 6cbe 831e 36be 92d9 56be
00000050: e177 86be 0f81 93be 72bc 1dbe d74d 88bd
00000060: 8e13 fabd 57d1 29be 4299 6dbe 069c d7be
00000070: b589 ecbd 9487 dbbd e34d 64bd b916 8ebe
00000080: 52cb 28be 3a9b c2bb 6b74 04be 4f7b 18be
00000090: aef2 13be c32e 1dbf f9ac 56be 5cd3 15be
000000a0: be69 8dbd 8c31 94be 1a9f 69be ad8d 07be
000000b0: e158 d6bd 61dd afbd 2bf3 83be d649 dbbd
000000c0: 1010 883d 6031 5fbe 8deb d0bd 2c97 28be
000000d0: b782 4cbd 5dab b4bd 5bf7 a63c 4aa0 fcbd
000000e0: c113 0abe be3c 9abc 736c adbd befc 70be
000000f0: 6a51 99bd c71b fbbd 9248 febd 4a6d 45be
00000100: 8e14 0fbe 684c 41be 7092 b0bd 3135 78bd
00000110: 57df 15be 0fea 1dbe 1454 c2bd 5615 90bd
00000120: 1627 86bc ae93 e03d 3968 cfbd 111b 96bd
00000130: 43e2 2dbe a346 9cbd 908a 96be 407b e2bd
00000140: b26a dcbd 6f95 1fbc bb68 4dbe 86b7 c5bd
00000150: 646d f9bd 68af 2dbc 5feb 58be 407b 3ebc
00000160: a6c7 00bf 39bb 0abe 8f0d 4c3d 638e d1bd
00000170: 18de d7bd cc74 8a3d 3ee8 22bf 9009 ecbd
00000180: 84b8 c8bc 9aba d0bd ddb2 c9be 8d89 cfbd
00000190: 095f d0bd bfd3 a33d db5b b0bd 44bc 6dbd
000001a0: 8a03 74be e617 5abe 7cfd 19be 97ce f1bc
000001b0: 6d48 c8bd f936 13be d97a bfbd ae9d 92bd
000001c0: 0ca9 f4bd 7f41 24be 6df5 00be e7aa 293d
000001d0: 3364 bdbd 0223 f9bc 9c79 d4bc 58ef 68be
000001e0: bb6f 4bbc 5447 73be d500 c9bd 636b aabd
000001f0: 3a12 d2bd 4ec4 90bd b317 8fbb 2017 14be
-0.03954423 -0.0795808 -0.18809602 -0.3719727 -0.014568463 -0.2120982 0.027454497 -0.05725306
-0.065373465 -0.10715009 -0.07654374 -0.11899931 -0.034545828 -0.3559027 -0.106086716 -0.11852991
-0.02416674 -0.23067361 -0.17785077 -0.20981434 -0.26263335 -0.288094 -0.15403917 -0.06655472
-0.12210761 -0.16583763 -0.23202994 -0.42111224 -0.11549703 -0.10719219 -0.05573834 -0.2775171
-0.1648381 -0.0059389146 -0.12935035 -0.14890788 -0.14448044 -0.6139948 -0.20964421 -0.14631408
-0.06904934 -0.2894405 -0.22814599 -0.13237639 -0.10466171 -0.085871466 -0.2577146 -0.107074425
0.06643689 -0.21796179 -0.10201178 -0.16463917 -0.049929347 -0.088217475 0.02038162 -0.1233526
-0.13484098 -0.018827792 -0.08467951 -0.23533913 -0.074862316 -0.122611575 -0.124161854 -0.19279972
-0.13972685 -0.18876803 -0.08621681 -0.060597602 -0.14635979 -0.15421318 -0.09488693 -0.070353195
-0.01637606 0.10965668 -0.10127301 -0.07329381 -0.16980843 -0.076306604 -0.2940259 -0.11058664
-0.10762538 -0.009740218 -0.20059483 -0.09654145 -0.12179068 -0.010600902 -0.21183537 -0.011626065
-0.5030464 -0.13547982 0.049817618 -0.10232236 -0.10540408 0.067605585 -0.63635623 -0.115252614
-0.024502046 -0.101918414 -0.39394274 -0.101336576 -0.101743765 0.07999372 -0.0861127 -0.058040872
-0.23829475 -0.21298179 -0.15038103 -0.029517455 -0.09779439 -0.14376439 -0.09349603 -0.07158981
-0.11946306 -0.1604061 -0.12593623 0.04142275 -0.09247627 -0.0304122 -0.025936894 -0.22747552
-0.012416775 -0.23757678 -0.09814612 -0.08321264 -0.10257383 -0.07068692 -0.004366839 -0.14461946

actor.6.weight f4 [12, 128]
00000000: 7bab d7bc cb48 09bd 7cdb 51bc d1db babc
00000010: 16b5 b5bb 5b21 f9bc 006f ebba 91cd 4a3d
00000020: 0e07 273c c3cc b33a 63a6 c3bb f8cb 183c
00000030: b0bc c23b c705 c93a 73ac 543c a526 83bb
00000040: 918b bf3c 15f8 573c 036c ce3c bc38 b2bc
00000050: e095 4e3d 3fcf 853c 3de2 88bd dd11 17bd
00000060: 1648 433c a522 293d bfea 11bd 92ef 9b3c
00000070: 89f1 f83c 6ecd a03a 0bfa a2bb 1f53 6d3c
00000080: e20c 84bc 49b7 d0bb bbfe 3ebc 837e 943c
00000090: e0e1 75bc 5dd5 173d f3d3 26bd 6034 5c3c
000000a0: 3517 933c ec0b acbb 07c7 453d 067a 173d
000000b0: 4124 243c 188a 933a cf82 2cbc 92e8 93bc
000000c0: f327 7c3b 5f7b fd3c 513e 9ebb 6f54 4f3d
000000d0: 6bad ae3c 88fe 21bc 0e66 5cbb fae2 ebbb
000000e0: c42a 4bbd 1203 d1bc ceba 7dbc 75a2 dc3c
000000f0: c963 ce3b fea9 893c 3ba8 243d 0388 92bc
00000100: ecfa c0bb 2709 e8bd 2740 cfbc c9fb 7035
00000110: 9393 ce3c 47aa 93bc 27d6 a73c 90ef 57bd
00000120: 62a0 073a 6e2f 303d 1f44 75bc b99b 1d3c
00000130: a908 813d f669 26bd 7130 463b d39e 33bd
00000140: 0105 fa3a 1ce8 55bd cbb3 f23b 4971 c7bc
00000150: 84b9 82bc 5024 e9bc c267 273d df80 8fbd
00000160: cb50 983c 5e60 513d 9307 243d 1edf d83c
00000170: c4e3 cdbc 0ae3 4c3d 7ccc 993d dfe7 4abd
00000180: dc9c 463d 936f b13c 5066 8a3d 0e8b 843d
00000190: b08c 13bb d4c1 8b3c 983a d03c 0f06 383d
000001a0: 46bb 2b3c 2b54 2ebd 8492 e03b 364f 383d
000001b0: 5734 cbbc 4cc6 99bc ec31 f5bc 899e 77bc
000001c0: 8ae5 c23c 445f a43c 4f7d 3e3c 965e 78bc
000001d0: f460 e03b 038a 9d3c f0d9 ae3b 56d2 3abc
000001e0: 90c8 2938 67ef 5bbc fe64 c13b ded9 27bd
000001f0: 6d40 8fbc 0c3b 443c 93a2 c13c 7118 9c3b
00000200: c576 063c 1159 fd3c b0e3 cd3b bd8e b83d
00000210: 9371 a5bc c526 b7bb b67d 2d3a 778e 51bc
00000220: 34ad 313c 27cd 6c3d fbac 8cbc 1902 33bd
00000230: f218 91bc b0ce 3fbd 06f9 e23d 45f5 f2bc
00000240: ac6f 4a3c 1255 ff3b 6daf 31bd 0efc 17b8
00000250: 968e fd3b 1e72 99bc 4947 9c3c 763f 27bc
00000260: ce87 c1bb 8f96 51bc b2f2 32bc cc8a eebc
00000270: edca 1abc 1944 7abd 5f81 fd3c c20e 1c3d
00000280: e804 c03c 4937 31bc 9a22 3cbc 25b8 34bc
00000290: 0089 e53c 7a69 23bd 0098 42bc d40b 36bc
000002a0: 48ae 07bd 5130 8abc 21a7 9fbc 2d33 0abd
000002b0: b9c5 88bc 7fc1 70bc 86a5 743c 04b1 a0bd
000002c0: 962d acbc 6dea 3ebc e91a 3cbc 2350 a83c
000002d0: a9ad 6a3c cb77 ab3c dec5 713c 4ea7 273d
000002e0: a6ae 013c af21 0bbd 580c 0cbc 468d 2b3c
000002f0: be09 3b3c 09eb 03bc 6eef 443d c971 afbc
00000300: 04c0 9abd 94a6 023d 1d35 d43b d028 113d
00000310: cf6d 6f3c 915c 62bd 030d 323b 4dd0 723d
00000320: 9358 853c 92c3 2f3d 3ba6 2b3c 3962 9abb
00000330: 2def 2bbd c4e5 29bd 37b0 c1bc 8afa 86bb
00000340: 4a6a 2c3d 5bb9 ac3b 0308 45bd ee43 b73d
00000350: c8ea b63b cf1f abbb ae6e 80bb 70e3 6b3c
00000360: 755a 7c3d d044 903c aae6 61bc 3113 aabc
00000370: a687 b13c 856c 4f3d 2b79 0a3d 31c2 0dbd
00000380: dd9f 313d 4f91 b0bd 147d fdbc 9198 37bc
00000390: e61e 3ebc d729 483c 1617 6b3c dc7c c73c
000003a0: 99b8 823c bdff 2cbd 2a87 3abb 19b1 933c
000003b0: 0639 0d3d 497e 3a3d 7dbd 013d 0224 97bc
000003c0: bb8a a4bd 1928 91b9 45e4 d0bc e0c0 eabc
000003d0: 680d 91bc 4928 9e3c 870d cdbb 1809 a3bb
000003e0: ecab 3ebd a07d f5bc 9bc1 14bd c281 833d
000003f0: 9a1c ac3c 4f49 c33c c464 a7bc 46ef c93b
-0.026326885 -0.033516686 -0.012808677 -0.022809895 -0.0055452688 -0.030411413 -0.0017962158 0.04951245
0.010194553 0.001371764 -0.0059707626 0.009325974 0.0059429035 0.0015336805 0.012980568 -0.0040024095
0.02338198 0.013181706 0.025197988 -0.021755569 0.0504359 0.016334174 -0.066837765 -0.03688227
0.011919042 0.041292805 -0.035624262 0.019035134 0.03038861 0.0012268254 -0.004973655 0.01448515
-0.016119424 -0.0063695055 -0.011657412 0.018126732 -0.015007466 0.037068713 -0.040729474 0.013440222
0.017955402 -0.0052504446 0.04828551 0.036981605 0.010018409 0.0011256365 -0.010529234 -0.018055234
0.003847596 0.030942617 -0.004829206 0.05061763 0.021322927 -0.009887345 -0.0033630165 -0.0071986886
-0.04960133 -0.02551416 -0.015486432 0.026932934 0.0062985164 0.016804691 0.0401995 -0.017887121
-0.005889287 -0.11329871 -0.025299145 8.977336e-07 0.025216853 -0.01802553 0.020487858 -0.0527187
0.000517374 0.043013982 -0.014969855 0.009619647 0.0630048 -0.040628396 0.0030241276 -0.04385264
0.0019074978 -0.05222331 0.007406687 -0.02434601 -0.015957601 -0.028459698 0.040870436 -0.07007002
0.018593213 0.051117294 0.040046286 0.026473578 -0.025133021 0.05002121 0.075097054 -0.049537536
0.048489437 0.021659648 0.06757796 0.06471835 -0.0022514276 0.017060198 0.025418565 0.044927653
0.010481661 -0.042560738 0.0068534035 0.044997416 -0.024805231 -0.018771313 -0.029931031 -0.015113481
0.023791093 0.020064957 0.011626556 -0.01515927 0.006847495 0.019230848 0.005336039 -0.011402687
4.047953e-05 -0.013423777 0.005901932 -0.04097926 -0.017486775 0.0119769685 0.023637092 0.004763656
0.008207028 0.03092626 0.006283246 0.090116 -0.020195758 -0.0055893385 0.00066181587 -0.012790314
0.0108445175 0.057812836 -0.017172327 -0.043703172 -0.01771209 -0.046827972 0.11082654 -0.02965797
0.012355726 0.0077921236 -0.04338019 -3.623595e-05 0.007737945 -0.018731173 0.01907696 -0.010208001
-0.0059060818 -0.012792244 -0.010922121 -0.029118918 -0.009447795 -0.0611001 0.030945478 0.03810001
0.02343984 -0.010816404 -0.011482859 -0.011030232 0.028019428 -0.039895512 -0.01187706 -0.0111112185
-0.033125192 -0.016868742 -0.019488873 -0.03374021 -0.016695844 -0.014694571 0.014932042 -0.07846263
-0.02101783 -0.011652571 -0.011481025 0.020546025 0.01432363 0.020931145 0.014756648 0.04093104
0.007915175 -0.03396767 -0.008547865 0.010470694 0.011415897 -0.008051642 0.0480799 -0.021416562
-0.07556155 0.031897143 0.006476058 0.035439312 0.014613583 -0.05526406 0.00271684 0.059280682
0.016277587 0.04291112 0.010476644 -0.004711416 -0.041976143 -0.041478887 -0.023643596 -0.004119222
0.042093553 0.0052711195 -0.048103344 0.089485034 0.0055821873 -0.0052222977 -0.003919444 0.014397487
0.061609704 0.017610937 -0.013787905 -0.020761104 0.021671128 0.0506406 0.03380696 -0.034609023
0.043365348 -0.086214654 -0.030943431 -0.011205808 -0.011604046 0.012217007 0.014348766 0.02435153
0.015957164 -0.04223608 -0.0028461912 0.018028783 0.03447821 0.04553059 0.03167485 -0.018449787
-0.08034273 -0.0002768643 -0.025499472 -0.028656423 -0.017706588 0.019306319 -0.006257716 -0.0049754493
-0.046550676 -0.02996713 -0.03631745 0.06421234 0.021009732 0.023838667 -0.020433791 0.006162557

actor.6.bias f4 [12]
00000000: 8d69 71bd 501b d33d b525 913d a089 72bd
00000010: d1e0 64be f5d3 9b3e a808 90bd 4ce5 22bc
00000020: b224 a43e 8575 b0be 636f a63e 6906 93be
-0.05893855 0.10307944 0.0708727 -0.05921328 -0.22351386 0.30435148 -0.07032901 -0.009942364
0.32059246 -0.3446466 0.32506856 -0.28715828
