src/ga_quadruped/policy/param_action.onnx (onnx, 772885 bytes, 8 tensors)

actor.0.weight f4 [512, 52]
0	0x3ddb6f35	0.107145704
1	0x3e754f66	0.2395607
2	0x3ee47a06	0.44624346
3	0x3b2777fd	0.0025553696
4	0x3cad54c4	0.021158583
5	0xbd416866	-0.047218703
6	0x3d38a92e	0.045083217
7	0x3c51cfb0	0.012805864
8	0x3d28962f	0.04115885
9	0xbdf40ddd	-0.11916707
10	0x3d43dc6b	0.04781763
11	0x3dc43f2d	0.09582362
12	0x3d8ae2ce	0.06781541
13	0xbd7c17c7	-0.061546113
14	0xbdb897cb	-0.09013327
15	0x397aeeb8	0.00023930788
16	0x3e809720	0.251153
17	0x3e085863	0.13314967
18	0xbdda8da6	-0.106715485
19	0x3e3c6b5e	0.18400332
20	0xbddc65fc	-0.107616395
21	0x3e16a5b7	0.14711653
22	0x3d584327	0.052798416
23	0xbd3fb49e	-0.04680311
24	0x3c876686	0.01652838
25	0x3d3e0812	0.046394415
26	0x3c505fc1	0.012718142
27	0xbe16a39d	-0.14710851
28	0x3d218329	0.039431725
29	0xbdd16908	-0.10225111
30	0x3e29083d	0.16507049
31	0xbd812704	-0.0630627
32	0x3e1fe330	0.15614009
33	0x3e00a7e7	0.1256405
34	0xbe045dcc	-0.12926406
35	0x3bb75ef8	0.005596038
36	0xbe2ba4b0	-0.16762042
37	0x3d4fb623	0.05071081
38	0xbe7334eb	-0.23750655
39	0xbe35faae	-0.17771408
40	0x3d86e46e	0.06586538
41	0x3bfd489b	0.0077296025
42	0xbddca696	-0.10773961
43	0x3da5f7ac	0.0810388
44	0xbdb99b8f	-0.090628736
45	0x3c3a95c7	0.011388249
46	0x3db6590e	0.089037046
47	0xbd65a65e	-0.056066863
48	0x3d820af1	0.06349743
49	0xbdae6171	-0.08514679
50	0x3d185571	0.03719086
51	0xbc83b4bf	-0.016077397
52	0xbddaff07	-0.10693174
53	0x3ed1e75a	0.4099682
54	0xbdcb3712	-0.09922613
55	0xba36d3e0	-0.0006974321
56	0x3e003530	0.1252029
57	0xbcc84e6d	-0.024451459
58	0x3db868dd	0.09004376
59	0xbe356738	-0.17715156
60	0x3dbc2451	0.09186614
61	0xbc60d572	-0.013722764
62	0x3c54c6ba	0.012986833
63	0xbcf7444d	-0.030183936
64	0xbdc2daf7	-0.095144205
65	0xbd9590c9	-0.07303006
66	0x3e23e8c4	0.16006762
67	0x3dc3f55c	0.09568283
68	0xbea55c1b	-0.32296833
69	0xbbec6099	-0.007213664
70	0xbe2b7b14	-0.1674617
71	0xbda4f29d	-0.08054087
72	0x3ec45b1b	0.38350758
73	0x3dbc4b60	0.09194064
74	0xbd9cf9ce	-0.07664834
75	0xbe8cec64	-0.27524102
76	0x3cc0c739	0.023532497
77	0x3e1f2b60	0.1554389
78	0xbe9e1858	-0.30877948
79	0x3c9e5b69	0.019330697
80	0xbd14d1c6	-0.036332868
81	0xbe11afa2	-0.14227155
82	0x3e238fbe	0.15972802
83	0xbddc58e0	-0.10759139
84	0x3d45fc0f	0.048336085
85	0xbe070960	-0.1318717
86	0xbda791de	-0.08182119
87	0xbdca4975	-0.09877292
88	0x3e340d98	0.1758331
89	0xbd806fbc	-0.06271312
90	0xbe3367d0	-0.1752007
91	0xbc450778	-0.0120257065
92	0xbd846c62	-0.06465985
93	0x3d0e80e0	0.034790874
94	0xbd2c2978	-0.042031735
95	0x3df6d108	0.12051588
96	0x3d08f99e	0.03344118
97	0xbc57af90	-0.013164416
98	0x3d5eb78e	0.05437427
99	0xbcc161dc	-0.023606233
100	0x3da9c461	0.082894094
101	0xbd2314ee	-0.039814882
102	0xbdcecfb6	-0.100982115
103	0x3d2383a0	0.03992045
104	0xbe310589	-0.17287268
105	0x3e3b1a49	0.18271746
106	0x3e615ed0	0.22008824
107	0x3e0d0ebe	0.13775155
108	0x3ed5babf	0.41744038
109	0x3ddd5adc	0.10808346
110	0xbd2e6302	-0.04257489
111	0x3d0d1267	0.034441378
112	0xbdaf8d29	-0.08571846
113	0x3d249aaa	0.04018656
114	0xbd1c9435	-0.03822728
115	0x3d6c9ffb	0.057769757
116	0xbddffa7a	-0.109364465
117	0x3d2c097e	0.04200124
118	0x3c834434	0.016023733
119	0xbcfb2515	-0.03065733
120	0xbd598722	-0.05310739
121	0x3dedf196	0.116183445
122	0xbba2455a	-0.004952115
123	0x3cc85755	0.024455706
124	0x3d4c2927	0.049843933
125	0xbdf5e9ee	-0.12007509
126	0x3eb2eda3	0.34946927
127	0x3e0ada92	0.1355994
128	0x3e8011b1	0.25013497
129	0xbdb998ea	-0.09062369
130	0x3e61f461	0.2206588
131	0x3c8773b1	0.016534658
132	0x3dd94620	0.106090784
133	0xbe725771	-0.23666169
134	0x3e2d1da9	0.16905846
135	0x3ddcc428	0.10779601
136	0x3dc42b5e	0.09578584
137	0x3dd60c6b	0.10451587
138	0xbcfa95c8	-0.030589
139	0x3ddce177	0.107851915
140	0x3dd6229e	0.104558215
141	0xbea93cdd	-0.33054247
142	0x3e8844a0	0.26614857
143	0x3c60f67c	0.013730641
144	0xbdfce704	-0.1234875
145	0xbd2e52e0	-0.042559505
146	0x3dededa5	0.11617593
147	0xbd52e728	-0.05148998
148	0xbda1d94f	-0.079027764
149	0x3c984cef	0.018591372
150	0x3dccd9af	0.10002457
151	0xbd9826fb	-0.0742931
152	0x3d859c79	0.065239854
153	0x3dd2fa7b	0.103016816
154	0x3dae82cb	0.085210405
155	0x3e1bb5ad	0.15206023
156	0xbd1094d8	-0.0352982
157	0x3da7ab6e	0.081869945
158	0x3ed9221b	0.42408833
159	0x3dd772cc	0.10519943
160	0x3c0f0702	0.008729698
161	0x3d051ab4	0.03249617
162	0xbd0e5f06	-0.03475859
163	0x3d62d4a9	0.05537859
164	0x3d8d2155	0.06891123
165	0xbdbfdb97	-0.09368055
166	0xbd606744	-0.05478598
167	0x3b42cbd6	0.0029723546
168	0x3db515ab	0.088420235
169	0xbde2d71b	-0.11076184
170	0x3e1edece	0.1551468
171	0x3d37387f	0.044731613
172	0xbe08e8b4	-0.13370019
173	0xbdb39c06	-0.087699935
174	0xbe14444f	-0.14479183
175	0x3e90e73d	0.2830142
176	0xbb98c767	-0.0046624425
177	0xbe8a764b	-0.27043375
178	0x3d13002d	0.03588884
179	0x3e296dbe	0.1654577
180	0xbde96f3d	-0.1139817
181	0xbdfed619	-0.1244318
182	0xbd319d1e	-0.04336273
183	0x3e4ff849	0.20309557
184	0xbdaa4ad1	-0.08315051
185	0xbe38d2d8	-0.1804918
186	0x3c74f8ea	0.014951924
187	0xbea463e9	-0.32107475
188	0x3d184a0f	0.037180003
189	0xbe14d8be	-0.14535806
190	0xbe313e29	-0.17308868
191	0x3dedc180	0.11609173
192	0x3e677cef	0.22606252
193	0xbe6375cf	-0.22212909
194	0x3dc229f7	0.094806604
195	0x3d549a99	0.05190525
196	0x3dcd097e	0.10011576
197	0xbc94238d	-0.018083358
198	0xbbabf9c7	-0.0052482816
199	0x3c72a21a	0.014809156
200	0xbbd72b04	-0.006566407
201	0x3d154d9d	0.03645097
202	0x3bdc93b9	0.006731477
203	0xbd3e0809	-0.04639438
204	0xbdc483ae	-0.095954284
205	0x3dbcdca7	0.092217736
206	0xbd92b1c0	-0.07162809
207	0x3c1f870b	0.009736787
208	0xbe890be4	-0.26766884
209	0xbe9cb516	-0.30606908
210	0xbeda9018	-0.4268806
211	0xbbe9f5fd	-0.00713992
212	0x3ee9423d	0.45558348
213	0x3d2a58e5	0.041588683
214	0x3e5704b3	0.20997886
215	0x3d80f317	0.06296366
216	0xbd44837a	-0.04797695
217	0x3da852d2	0.08218922
218	0x3dd822b1	0.10553492
219	0x3bfeee28	0.0077798553
220	0xbdf0b0c4	-0.11752465
221	0xbe00c297	-0.1257423
222	0xbde35d5a	-0.1110179
223	0xbda6c0a3	-0.08142211
224	0xbe9d63e9	-0.30740288
225	0x3dcc7b0a	0.09984405
226	0xbdb899f9	-0.09013743
227	0x3e3a17ba	0.18173113
228	0x3d8ad309	0.06778533
229	0x3dadd368	0.08487588
230	0x3e358ef6	0.17730317
231	0xbdb314fb	-0.08744236
232	0xbd8aa7eb	-0.06770309
233	0xbde005e8	-0.109386265
234	0xbdbe534d	-0.09293232
235	0x3e6f3ec6	0.2336379
236	0xbde6084a	-0.1123205
237	0x3babe6ef	0.0052460353
238	0x3e02acf1	0.12761284
239	0x3e3e4b8a	0.18583503
240	0xbdef338a	-0.11679752
241	0x3dd1d8e0	0.10246444
242	0xbe4a6d99	-0.1976837
243	0x3d2d9e99	0.04238758
244	0x3dc2a332	0.09503783
245	0x3da76732	0.0817398
246	0xbc0f7499	-0.008755826
247	0xbd8b5261	-0.06802822
248	0xbd26cc4d	-0.04072218
249	0xbd8b784f	-0.068100564
250	0x3d4ee0f9	0.05050752
251	0x3cc7b2d8	0.024377272
252	0x3b88a997	0.0041706073
253	0x3c241fae	0.010017319
254	0x3d5fa52e	0.054600887
255	0xbb6bb14e	-0.0035963836

actor.0.bias f4 [512]
0	0xbdea3494	-0.1143581
1	0xbbf7b305	-0.0075591826
2	0x3d4500cc	0.048096463
3	0x3c16bd11	0.00920035
4	0x3d3e7783	0.046500694
5	0x3d87ca31	0.06630362
6	0x3da5eaad	0.081014015
7	0x3e1e718f	0.15473007
8	0x3cad452f	0.021151153
9	0xbd0f382a	-0.03496567
10	0xbdf2d68c	-0.11857328
11	0xbcc4b00a	-0.024009723
12	0xbda22ac5	-0.07918314
13	0x3ddef4d6	0.108865425
14	0xbe16099a	-0.146521
15	0xbdd3ec29	-0.10347778
16	0xbd5d8c86	-0.05408909
17	0x3d810a57	0.063008
18	0xbd7a8e7c	-0.06117104
19	0x3dbf2ae2	0.09334351
20	0xbc547e17	-0.012969515
21	0x3cc5a7de	0.024127897
22	0x3d943c17	0.07238024
23	0x3de0b522	0.10972048
24	0xbd2966b2	-0.041357704
25	0xbd530fce	-0.051528744
26	0x3d110693	0.03540666
27	0x3b7cecfc	0.0038593402
28	0xbc322527	-0.010873116
29	0xbe0f269f	-0.13979577
30	0x3af5bc2b	0.0018748095
31	0x3d23f354	0.040026978
32	0x3e08b0dc	0.13348716
33	0x3d2ebabf	0.042658564
34	0xbda9811a	-0.08276577
35	0x3c3ee7fc	0.011651989
36	0xbdcb5981	-0.09929181
37	0x3dc17a99	0.09447212
38	0xbbbae28f	-0.0057032774
39	0xbd62f6b5	-0.05541106
40	0xbda84cf7	-0.08217805
41	0xbb0688a7	-0.0020528228
42	0x3c1061cd	0.00881238
43	0xbd3b19e5	-0.04567899
44	0xbc2c43d2	-0.0105142165
45	0xbc0521f3	-0.00812577
46	0xbd8656c4	-0.06559518
47	0xbd929e65	-0.071591176
48	0x3d15d50c	0.03658013
49	0xbd5aec9f	-0.053448316
50	0x3c92adb7	0.0179051
51	0xbda47c2e	-0.08031498
52	0x3b1ad82e	0.0023627388
53	0xbd490c27	-0.049083855
54	0xbcc55d76	-0.024092417
55	0x3d0ea786	0.03482773
56	0x3d82579a	0.06364365
57	0x3ceaaae1	0.028645935
58	0xbd7b9045	-0.061416883
59	0x3c7075c5	0.014676516
60	0xbd92cb0c	-0.07167634
61	0x3d9a3408	0.075294554
62	0x3c7c8b7b	0.015414114
63	0xbe0947fc	-0.13406366
64	0xbd22645d	-0.039646495
65	0x3b70c0b9	0.0036735965
66	0xbdb9502d	-0.090484954
67	0x3c774ced	0.015094024
68	0xbd796cb5	-0.060894687
69	0x3e07c7ae	0.13259766
70	0xbb8af3a8	-0.004240472
71	0x3db6c87a	0.089249566
72	0x3da37fff	0.07983398
73	0x3d2ae0d4	0.04171832
74	0xbd284d2e	-0.04108923
75	0xbc24b964	-0.010053966
76	0xbdd1d6a3	-0.10246017
77	0x3df86c23	0.121300004
78	0xbd11575e	-0.03548371
79	0x3d2b681c	0.041847333
80	0x3d99d8e5	0.075120725
81	0xbe0f0569	-0.13966908
82	0xbd3a6f82	-0.0455165
83	0x3ca3bdc7	0.019987954
84	0xbd05157a	-0.032491185
85	0x3d2bc614	0.04193695
86	0xbc2c3dc1	-0.01051277
87	0xbdceca7a	-0.10097213
88	0x3cab8fd7	0.020942612
89	0xbd6fd3a2	-0.05855144
90	0xbd874e46	-0.06606726
91	0x3db469e7	0.08809262
92	0xbcf8beee	-0.03036448
93	0xbc596b3f	-0.013270198
94	0x3de21995	0.11040036
95	0xbc4e5e06	-0.012595659
96	0xbd2460e1	-0.040131453
97	0xbc44b4b7	-0.012005976
98	0x3dcbd5a4	0.09952858
99	0xbdc7c3b9	-0.09754128
100	0xbd7a6152	-0.061127968
101	0xbdcfe6f2	-0.10151471
102	0xbdc5a538	-0.096506536
103	0xbdbfbcbe	-0.093621716
104	0x3da10cb7	0.07863753
105	0xbd77dc2f	-0.060512718
106	0x3d3c5463	0.045978915
107	0x3e0adcb5	0.13560756
108	0xbdb88ea7	-0.09011584
109	0xbde47e60	-0.111569166
110	0xbdbba342	-0.09161998
111	0x3d1629d9	0.036661003
112	0xbd53b1e3	-0.051683318
113	0x3d6f5070	0.05842632
114	0x3dd64121	0.10461641
115	0xbdb5a12d	-0.088686325
116	0x3c2caed2	0.010539727
117	0xbd4fe858	-0.05075869
118	0xbdcaea83	-0.09908011
119	0x3c6e968a	0.0145622585
120	0xbd115059	-0.035477016
121	0xbcd27894	-0.025692262
122	0xbba5f9a0	-0.005065158
123	0x3d668002	0.05627442
124	0xbdc21919	-0.09477443
125	0x3d864eb8	0.06557983
126	0xbcd8ff19	-0.026488828
127	0xbd3d5d2a	-0.046231426
128	0x3d82e1dc	0.063907355
129	0x3de36652	0.111035004
130	0x3badac0b	0.00530005
131	0x3dbb8a57	0.091572456
132	0xbc032096	-0.008003375
133	0xbe0f2e16	-0.13982424
134	0x3d8d06c0	0.06886053
135	0xbe1321b0	-0.1436832
136	0xbd11ff7b	-0.035644036
137	0x3d86ddbb	0.065852605
138	0x3d9229f1	0.07136906
139	0xbd352345	-0.04422309
140	0xbd64bf72	-0.05584664
141	0x3c13d6e7	0.009023405
142	0x3d9220b4	0.07135144
143	0x390722d2	0.00012887575
144	0x3dd7d632	0.105389014
145	0xbdf6cf07	-0.12051206
146	0x3a2ab9f1	0.0006512693
147	0x3dce5bb5	0.100760855
148	0x3d162876	0.03665968
149	0xbd783242	-0.060594805
150	0x3d9050ac	0.07046637
151	0xbdbc6f65	-0.09200934
152	0x3d1c62ce	0.038180165
153	0x3db70141	0.08935786
154	0x3d849c98	0.064751804
155	0xbddabe17	-0.10680788
156	0xbe253910	-0.16135049
157	0xbde0905e	-0.10965036
158	0x3dc015bb	0.09379145
159	0x3d8bb7d9	0.068221755
160	0xbe0f751a	-0.14009514
161	0x3d2d12cd	0.042254258
162	0xbda950fc	-0.082674
163	0xbd3e16fa	-0.04640863
164	0x3d66d079	0.05635116
165	0x3d719ef7	0.05898949
166	0xbce651d4	-0.02811519
167	0x3b98f0dc	0.0046673845
168	0x3d3cd5c2	0.046102293
169	0xbe1081a2	-0.14111951
170	0x3d0bae37	0.03410169
171	0xbced5cba	-0.02897488
172	0x3d2135ad	0.03935783
173	0x3ca98b80	0.020696402
174	0xbda421e6	-0.08014278
175	0xbcf26ac3	-0.029591924
176	0x3d37431a	0.044741727
177	0x3c58cb0d	0.013232005
178	0xbdcd9a3c	-0.100391835
179	0xbcf808fe	-0.030277725
180	0x3d1d9bc6	0.038478635
181	0xbdc3175a	-0.09525938
182	0xbdd8e889	-0.105912276
183	0x3daeaf55	0.08529536
184	0xbc1a09c4	-0.009401742
185	0x3e01a56c	0.1266076
186	0xbdd9e36f	-0.10639083
187	0xbd3577d5	-0.044303734
188	0x3ca3cd4f	0.01999536
189	0xbd189c0b	-0.03725819
190	0x3e05013f	0.12988757
191	0x3d807439	0.06272168
192	0xbd512621	-0.051061753
193	0xbdf7d98b	-0.1210204
194	0xbd65525d	-0.05598675
195	0x3cb23864	0.021755405
196	0xbc368793	-0.011140722
197	0xbc6c8546	-0.014436072
198	0x3d4e0e15	0.0503064
199	0x3d148c5e	0.036266677
200	0x3d0136fe	0.031546585
201	0x3dc30656	0.09522693
202	0x3daa5f46	0.08318953
203	0xbbc44135	-0.0059892186
204	0xbd10bc71	-0.03533596
205	0xbd916498	-0.07099265
206	0xbdbd4177	-0.09241002
207	0xbd89618b	-0.06708058
208	0xbe0038a4	-0.12521607
209	0x3d6cb23b	0.05778716
210	0xbdd9703c	-0.1061711
211	0x3ddc10aa	0.10745366
212	0xbd272d52	-0.040814705
213	0x3c683ec0	0.014175117
214	0x3db76ff4	0.089569
215	0x3da547fa	0.08070369
216	0x3d89604a	0.06707819
217	0x3e054879	0.13015927
218	0x3d8ec712	0.069715634
219	0xbdf336f8	-0.11875719
220	0xbc58da94	-0.013235707
221	0xbded1f82	-0.11578275
222	0x3d7dbabd	0.061945666
223	0xbc56f02c	-0.013118785
224	0x3d969742	0.07353069
225	0x3d663790	0.056205332
226	0xbd4d98d2	-0.05019457
227	0xbdc3431f	-0.09534287
228	0xbc984c07	-0.01859094
229	0xbce3b646	-0.027796876
230	0xbced2a5c	-0.028950863
231	0x3dd397c3	0.103316806
232	0xbd652372	-0.055942006
233	0x3c12b337	0.008953861
234	0xbd4906f2	-0.04907889
235	0x3d50fb04	0.051020637
236	0x3e0420e3	0.1290317
237	0x3c14dda4	0.009086046
238	0x3da2c6d5	0.079480805
239	0xbd52098e	-0.051278643
240	0xbaa41c55	-0.0012520651
241	0xbe019927	-0.12656079
242	0xbcdf5c1b	-0.027265599
243	0xbd012f2f	-0.03153914
244	0xbd90d07f	-0.070710175
245	0x3d4455aa	0.047933258
246	0xbe0c07e8	-0.13674891
247	0x3b53308d	0.0032224983
248	0x3dae1f9e	0.08502124
249	0xbc89318d	-0.01674726
250	0xbdac6309	-0.08417327
251	0xbd9d81ec	-0.07690796
252	0xbd4ee711	-0.05051333
253	0xbd49febc	-0.0493152
254	0xbd19deb8	-0.037565917
255	0xbd40a249	-0.047029767

actor.2.weight f4 [256, 512]
0	0xbca18c05	-0.019720087
1	0xbd8bcab0	-0.06825769
2	0x3d74d3f5	0.05977245
3	0xbd81d185	-0.06338791
4	0x3da73f64	0.08166388
5	0xbbb1a272	-0.0054209763
6	0xbd89ce56	-0.067288086
7	0xbd09ec0b	-0.033672374
8	0x3c16864e	0.009187294
9	0x3d06e568	0.032933623
10	0x3db30d24	0.08742741
11	0xbc320184	-0.010864619
12	0xbd346b41	-0.044047598
13	0xbce3732d	-0.027764881
14	0x3dff7ffb	0.12475582
15	0x3d7106ec	0.05884449
16	0x3d3549c9	0.04425982
17	0xbe4bbcc0	-0.19896221
18	0x3cb5120f	0.022103338
19	0x3cc917b6	0.024547439
20	0xbd882230	-0.06647146
21	0x3da72533	0.08161392
22	0x3e44c5b4	0.19216043
23	0x3e29929b	0.16559832
24	0xbdde9c05	-0.10869602
25	0xbc14b93b	-0.0090773655
26	0x3d749ed0	0.059721768
27	0xbcb877f5	-0.022518137
28	0xbcca388d	-0.024685169
29	0x3e07c30c	0.13257998
30	0x3d4b7dba	0.04968045
31	0x3beadc22	0.007167355
32	0xbd6bb389	-0.057544265
33	0xba0a7f9c	-0.00052832975
34	0x3dd5aa0a	0.10432823
35	0xbd94b14b	-0.072603785
36	0x3c41025f	0.0117803505
37	0xbd7a9c99	-0.0611845
38	0x3e054a10	0.13016534
39	0xbcce4169	-0.025177674
40	0x3d2fcca3	0.042919766
41	0x3cce5375	0.02518628
42	0x3da926cd	0.08259354
43	0x3c021b90	0.007941142
44	0xbe0eb64d	-0.1393673
45	0xbd92b566	-0.07163505
46	0xbd4c25ef	-0.049840864
47	0xbca15f85	-0.019698868
48	0x3d3f2739	0.046668265
49	0xbd1542ee	-0.036440782
50	0x3d8b3dc2	0.06798889
51	0xbcb69011	-0.022285493
52	0x3d934cbb	0.071923696
53	0xbc098c4b	-0.008395265
54	0x3dffdeab	0.124936424
55	0x3cef94e0	0.029245794
56	0xbd20d7d4	-0.03926833
57	0xbdaa5fa3	-0.083190225
58	0x3c990be9	0.018682437
59	0x3d841734	0.06449738
60	0x3df5fdac	0.12011275
61	0x3cc013e0	0.023446977
62	0xbc91acde	-0.017782625
63	0x3c950a5f	0.018193422
64	0x3d791497	0.06081065
65	0x3d9432f6	0.072362825
66	0xbc91daf4	-0.0178046
67	0xbbcbcbc9	-0.0062193614
68	0x3dec7d11	0.11547292
69	0x3ce5a85a	0.028034378
70	0x3e6428d3	0.22281198
71	0xbdf1be6e	-0.118039
72	0x3df75c44	0.12078145
73	0xbc11d27d	-0.008900282
74	0x3cf27a3f	0.029599307
75	0xbb94a6fb	-0.004536507
76	0xbccbe7e7	-0.024890853
77	0x3d3face2	0.046795733
78	0x3e2daadc	0.16959709
79	0x3d896bc8	0.06710011
80	0x3cea6eac	0.028617226
81	0xbc71c081	-0.014755369
82	0xbdc08c98	-0.09401816
83	0x3d0215bf	0.03175902
84	0x3d973eab	0.07385
85	0xbc87f0d1	-0.016594322
86	0x3d253a0f	0.040338572
87	0x3d019ec5	0.031645555
88	0xbca146fe	-0.019687172
89	0x3dcddea8	0.10052234
90	0x3d59d8a9	0.05318514
91	0xbe403e53	-0.18773775
92	0x3d8f205d	0.06988595
93	0x3d5e053d	0.054204214
94	0x3ac16795	0.0014755601
95	0xbc77d3bc	-0.015126165
96	0xbd838c49	-0.06423242
97	0xbcd5aa1f	-0.026082097
98	0xbd333d54	-0.04375966
99	0x3d53e1a3	0.051728856
100	0x3c37eb7a	0.011225576
101	0x3d9aa379	0.07550711
102	0x3c934f53	0.01798216
103	0x3ca33b46	0.019925725
104	0xbd376a4e	-0.044779114
105	0x3d9baae6	0.07600956
106	0x3ded281f	0.11579918
107	0x3db1af73	0.086760424
108	0x3cd882a2	0.026429478
109	0x3d557dcd	0.052121926
110	0x3d14b9a2	0.036309846
111	0xbded2e9a	-0.11581154
112	0x3bf9b448	0.007620368
113	0x3ce12012	0.027481113
114	0xbd303777	-0.043021645
115	0xba4dc7bb	-0.00078498916
116	0x3d90a1c8	0.07062107
117	0xb8a1d885	-7.717408e-05
118	0xbe213a02	-0.15744784
119	0xbda11f5a	-0.07867308
120	0xbcd71688	-0.02625586
121	0xbb2cd2a8	-0.0026370678
122	0xbdc854e0	-0.097818136
123	0x3caddcb6	0.021223407
124	0x3e1c6271	0.15271927
125	0x3d17553f	0.03694653
126	0xbd03fe1b	-0.032224756
127	0x3d159851	0.036522213
128	0xbd696774	-0.056983426
129	0x3dbbc61b	0.09168645
130	0x3da641d1	0.08118022
131	0xbd023638	-0.03178999
132	0xbdee8bb2	-0.116477385
133	0xbd92aa6b	-0.07161411
134	0x3bc9601c	0.0061454903
135	0x3ce5ec6c	0.028066836
136	0x3d621bb0	0.055202186
137	0xbb797dcc	-0.0038069366
138	0xbbbaeddc	-0.0057046246
139	0x3e05963d	0.13045593
140	0xbdec959a	-0.11551972
141	0xbcedc5b0	-0.029024929
142	0xbcc3145d	-0.02381342
143	0x3c261b2b	0.010138313
144	0xbd6fe659	-0.058569286
145	0xba98360f	-0.001161279
146	0xbda68f83	-0.081328414
147	0x3e72d209	0.23712935
148	0x3c4a0d74	0.012332309
149	0xbcfc0c65	-0.030767629
150	0xbc7d81ac	-0.015472811
151	0x3d021765	0.031760592
152	0x3d1e0879	0.0385823
153	0x3e23fd5a	0.16014615
154	0x3d079c86	0.033108257
155	0x3d171c61	0.0368923
156	0x3d2c137c	0.04201077
157	0x3e936abf	0.28792378
158	0x3d875cf7	0.066095285
159	0x3ca459f3	0.020062422
160	0xbd836114	-0.064150006
161	0x3c90dc71	0.01768324
162	0xbced6352	-0.028978024
163	0x3d398499	0.04529247
164	0x3d612885	0.054970283
165	0xbe045437	-0.1292275
166	0x3d148beb	0.03626625
167	0x3dface64	0.12246397
168	0x3c26deeb	0.010184984
169	0xbcc6fa40	-0.02428925
170	0x3de72973	0.11287203
171	0x3d129720	0.035788655
172	0xbc2360e7	-0.009971834
173	0xbd62c6ad	-0.055365253
174	0xbe1df8b4	-0.15426904
175	0x3d98fcaf	0.074700706
176	0xbde6fd3b	-0.11278769
177	0x3d9a1a02	0.07524492
178	0x3d849faf	0.0647577
179	0xbd81cb43	-0.06337597
180	0xbd52d342	-0.051471002
181	0xbbb08e5d	-0.005388065
182	0x3e597f50	0.21239972
183	0x3b6c3a92	0.0036045653
184	0xbca33aa7	-0.019925429
185	0xbc281c0a	-0.010260591
186	0xbcca4456	-0.024690788
187	0x3cc4c290	0.024018556
188	0xbca255ba	-0.019816268
189	0xbc78d9e1	-0.015188665
190	0x3d5ceaa9	0.053934727
191	0xbd267826	-0.040641926
192	0x3d30f844	0.043205515
193	0x3cea27bd	0.028583402
194	0x3e0ea641	0.13930608
195	0x3de3a5d6	0.11115615
196	0x3d0e6250	0.034761727
197	0x3d4412dd	0.047869552
198	0xbaeb59c0	-0.0017955825
199	0x3ded6ebe	0.11593388
200	0x3d9921a6	0.07477121
201	0x3d5ca705	0.05387022
202	0x3d819b4c	0.06328449
203	0x3dcf17a5	0.10111932
204	0xbd848511	-0.06470693
205	0x3d445041	0.0479281
206	0x3e249cb1	0.16075398
207	0x3d3fa94d	0.046792317
208	0x3a822847	0.0009930216
209	0x3c17185f	0.009222119
210	0x3d92b96c	0.07164273
211	0x3d785c26	0.060634755
212	0x3d895dcd	0.06707344
213	0x3c819c38	0.015821561
214	0x3c944b0a	0.018102188
215	0xbc929e86	-0.017897855
216	0x3daca9d1	0.084308274
217	0xbd3a785d	-0.045524944
218	0x3d4f9a3b	0.050684195
219	0x3d200f37	0.03907701
220	0x3c1215ad	0.008916301
221	0x3cc668c3	0.024219876
222	0xbd16f10a	-0.036850967
223	0x3dd22f62	0.10262944
224	0x3e3ef1b4	0.1864689
225	0xbb757425	-0.003745326
226	0x3d37e51d	0.044896234
227	0x3e0608b1	0.13089253
228	0x3db90970	0.09035003
229	0xbd5bbfa7	-0.05364957
230	0xbcfc5628	-0.030802801
231	0x3c262f9a	0.010143185
232	0xbd9d71a8	-0.07687694
233	0x3d181060	0.03712499
234	0x3dd309c4	0.10304597
235	0x3d41f566	0.04735317
236	0xbcc9b5a3	-0.024622744
237	0xbdb50ad8	-0.08839959
238	0xbc4d0ecd	-0.012515736
239	0x3c15aaef	0.009134992
240	0x3c9be4b8	0.01902996
241	0x3baf8efa	0.0053576203
242	0x3d4ddd3c	0.050259814
243	0xbcc22563	-0.023699468
244	0x3e0aad0f	0.13542579
245	0xbc41332c	-0.0117919855
246	0x3dda586d	0.10661397
247	0xbdabc51e	-0.083872065
248	0xbcfdcf69	-0.03098269
249	0x3de6b0c5	0.11264185
250	0x3c915425	0.017740319
251	0xbe02a9bb	-0.1276006
252	0xbd0971ca	-0.033555783
253	0xbd828bec	-0.06374344
254	0xbd8fc544	-0.07020047
255	0xbca03555	-0.01955668

actor.2.bias f4 [256]
0	0xbd0e16dc	-0.03468977
1	0xbd5bed97	-0.05369338
2	0xbcd685c6	-0.026186835
3	0xbb2910a9	-0.0025797284
4	0xbd4c354b	-0.04985551
5	0xbd9813b3	-0.07425632
6	0xbc4fb909	-0.012678393
7	0xbd62524b	-0.055254262
8	0xbd2de9fb	-0.04245947
9	0x3bad85b0	0.005295478
10	0xbd23fbb0	-0.04003495
11	0xbbbe5442	-0.005808384
12	0xbc98a662	-0.018634025
13	0xbc0ebdc1	-0.008712233
14	0xbcd6a771	-0.02620289
15	0xbc50c530	-0.012742326
16	0xbd6c5bef	-0.057704862
17	0xbcccaddf	-0.024985252
18	0xbc73b722	-0.014875205
19	0x3c55a41c	0.013039615
20	0xbcd6bc98	-0.026212975
21	0xbceb57fb	-0.028728476
22	0xbd5f8a73	-0.054575395
23	0xb989a408	-0.0002625289
24	0x3bc52ea2	0.006017522
25	0x3d004344	0.03131415
26	0x3c9873e6	0.018609952
27	0x3d00c2b4	0.031435683
28	0xbdaddd23	-0.08489444
29	0xbd438d80	-0.047742367
30	0x3cbd8192	0.023133073
31	0xbd3af716	-0.045645796
32	0xbb85c885	-0.0040827417
33	0x3cb609b7	0.02222143
34	0xbcd0dca9	-0.025495844
35	0xbd309626	-0.043111943
36	0x3cffbebf	0.031218885
37	0xbaef906b	-0.0018277293
38	0xbd0b33e2	-0.033985026
39	0x3d149817	0.036277857
40	0x3cb4bffc	0.022064202
41	0x3ca3cb2e	0.019994345
42	0xbd502537	-0.05081674
43	0x3c828efb	0.015937319
44	0xbd813085	-0.063080825
45	0xbcc92b5d	-0.02455681
46	0xbd7073d3	-0.05870421
47	0xbd480cd8	-0.048840374
48	0xbcac16e5	-0.02100701
49	0xbc89e200	-0.016831398
50	0xbd18f9b1	-0.0373475
51	0xbb881e86	-0.0041540293
52	0x3a705e26	0.00091693026
53	0xbd88bd68	-0.066767514
54	0xbd1f44ea	-0.03888408
55	0xbcaab33f	-0.020837424
56	0x3ce543c3	0.027986413
57	0x3ce719dc	0.028210573
58	0xbd39e6ba	-0.045386054
59	0xbdb0986f	-0.086228244
60	0xbd87d52e	-0.06632458
61	0x3c151a97	0.009100578
62	0xbd5ad559	-0.05342612
63	0xbd5b2b6b	-0.053508203
64	0xbda6469a	-0.08118935
65	0xbc51dcce	-0.012808992
66	0x3cd1c984	0.025608785
67	0xbd9bdd06	-0.07610516
68	0xbc7409af	-0.014894887
69	0x3b4ae883	0.0030961342
70	0x3bd6751f	0.0065447236
71	0xbc923e9e	-0.017852124
72	0x3cd6f7e8	0.026241258
73	0xbd1701a5	-0.036866803
74	0xbcfb5223	-0.030678814
75	0xbda9bd2a	-0.08288033
76	0xbd1f4624	-0.03888525
77	0xbd23da18	-0.040002912
78	0x3cbec75c	0.023288421
79	0x3b9e7dbe	0.004836767
80	0xbc65dc2f	-0.014029547
81	0xba331c78	-0.000683255
82	0x3c52cce3	0.012866232
83	0xbd4da8ab	-0.050209682
84	0x3c89b638	0.016810521
85	0xbcaeb03b	-0.021324268
86	0xbca2aa66	-0.019856643
87	0xbc46aaf2	-0.0121257175
88	0xbd8c626f	-0.06854712
89	0x3bc54ebf	0.00602135
90	0x3b750a4e	0.0037390175
91	0xbcfa8eef	-0.030585734
92	0xbd605bf6	-0.0547752
93	0xbd55e2fd	-0.052218426
94	0xbd40b9ab	-0.047052067
95	0xbbb3f865	-0.0054922574
96	0xbd8779dd	-0.066150405
97	0xbc80817e	-0.015686747
98	0x3cd3bc5f	0.025846658
99	0x3bab14eb	0.0052209995
100	0xbd088f8c	-0.033340022
101	0xbc8c250b	-0.017107507
102	0xbd0759ca	-0.033044614
103	0x3bd8464f	0.0066001783
104	0xbd48a252	-0.048982926
105	0xbd64142c	-0.0556833
106	0xbd8cf40d	-0.068824865
107	0x3cd9f706	0.026607048
108	0xbc435399	-0.011921787
109	0xbc785dfa	-0.0151591245
110	0x3c027963	0.007963511
111	0x3bcb4e9f	0.0062044407
112	0x3c2bc645	0.010484283
113	0x3d133804	0.035942093
114	0xbce67e34	-0.02813635
115	0x3b903cd3	0.004401782
116	0x3c41529b	0.01179948
117	0xbcc1d975	-0.023663262
118	0xbbaff26b	-0.0053694746
119	0xbd4dd694	-0.050253466
120	0xbd31dc7a	-0.043423153
121	0xbbeb9087	-0.00718886
122	0x3c8b7a96	0.017026227
123	0xbc144168	-0.009048797
124	0xbceb891d	-0.028751904
125	0xbbd8800c	-0.0066070613
126	0xbc09cecc	-0.008411121
127	0xbd85f2ae	-0.06540428
128	0x3b92d7c2	0.0044812867
129	0xbd54d5b8	-0.05196163
130	0xbc859691	-0.016307147
131	0xbd759f99	-0.059966657
132	0xbd8fd25b	-0.07022544
133	0x3cf83793	0.030299937
134	0x3b956ae5	0.004559862
135	0xbca79fc4	-0.020461924
136	0xbd70e6fd	-0.058814038
137	0xbc226673	-0.009912121
138	0x3baddda3	0.005305962
139	0xbc7a6b88	-0.0152844265
140	0x3c819110	0.015816242
141	0xbcbb0d3a	-0.022833455
142	0xbd20b1d0	-0.039232075
143	0x3d86867d	0.0656862
144	0xbd62248a	-0.055210628
145	0x3b0bae49	0.00213136
146	0xbd2e7f40	-0.042601824
147	0xbb972a54	-0.0046132
148	0xbc9fd006	-0.019508373
149	0x3bd571a1	0.0065137898
150	0xbd26cd08	-0.040722877
151	0xbd3d70b4	-0.04625006
152	0xbb8e8adb	-0.004350049
153	0xbc00649d	-0.007836488
154	0x3cfb6a04	0.0306902
155	0xbd25c166	-0.040467642
156	0xbcf6b32c	-0.030114733
157	0x3ce0d3b7	0.027444704
158	0xbc337fe2	-0.010955783
159	0xbd72cecd	-0.05927925
160	0x3d2f98dc	0.042870387
161	0xbcd47c95	-0.025938312
162	0xbd287996	-0.04113158
163	0x3ca8f3ab	0.020624002
164	0xbd27c671	-0.040960733
165	0xbc1bf14f	-0.009517982
166	0xbbef00b4	-0.007293785
167	0xbd583ff8	-0.05279538
168	0xbcf14736	-0.029452901
169	0xbc1a652a	-0.009423533
170	0xbcd07e84	-0.025450952
171	0xbd355058	-0.044266075
172	0x3c9d2b1f	0.0191856
173	0xbd1862f6	-0.03720375
174	0x3c5ee6b5	0.0136048095
175	0xbcef7e96	-0.029235166
176	0xbb26b074	-0.0025434764
177	0xbbf79175	-0.0075551816
178	0xbd26195a	-0.04055152
179	0xbc3ae8f2	-0.011408078
180	0xbd17c88e	-0.0370565
181	0xbc53384e	-0.012891842
182	0xbd7493b0	-0.05971116
183	0xbd40796c	-0.046990797
184	0xbd398d0c	-0.04530053
185	0xbd877112	-0.06613363
186	0x3b3606ce	0.0027775052
187	0xbd7bdf63	-0.061492335
188	0x3cff3410	0.031152755
189	0xbd016b7a	-0.03159664
190	0xbb2f92fb	-0.0026790488
191	0x39a49879	0.0003139412
192	0xbdac4639	-0.084118314
193	0xbd15ff57	-0.036620464
194	0x3bebd075	0.007196481
195	0x3d14da20	0.036340833
196	0xbd2744a8	-0.04083696
197	0xbd53a674	-0.051672414
198	0xbca0b511	-0.01961759
199	0x3d2f80ec	0.04284756
200	0xbc0cf490	-0.00860323
201	0xbd31fd80	-0.043454647
202	0xbbf012dd	-0.0073264674
203	0xbd8504ad	-0.064950325
204	0xbd4cf23a	-0.050035693
205	0xbd650395	-0.05591162
206	0xbcd97d6e	-0.026549067
207	0x3cc42e88	0.02394797
208	0x3d16c2b6	0.036806785
209	0xbd8037bf	-0.06260633
210	0xbd0aff01	-0.033934597
211	0xbcfbb53c	-0.030726068
212	0x3c836b87	0.016042484
213	0xbcabc146	-0.020966183
214	0xbd4a5a37	-0.04940244
215	0xbc5ce36c	-0.013481956
216	0xbd1d29ea	-0.03837005
217	0xbdb342e0	-0.0875299
218	0xbd90e193	-0.07074275
219	0x3c173798	0.009229563
220	0xbbe85877	-0.007090624
221	0xbccc6091	-0.02494839
222	0x3bd6701d	0.0065441267
223	0xbd2de7d3	-0.042457413
224	0xbcd646cb	-0.026156804
225	0x3d80ad5c	0.06283066
226	0xbdb868bc	-0.090043515
227	0xbbdaec0c	-0.006680971
228	0x3ac4d47a	0.0015016936
229	0x3b23a54c	0.002497035
230	0xbc04dac4	-0.008108798
231	0x3d11263c	0.035436854
232	0xbd113037	-0.035446372
233	0xbccf3c16	-0.025297206
234	0x3c3cdf02	0.011527779
235	0xbcf64866	-0.03006382
236	0xbd6c6c60	-0.057720542
237	0x3c2eb77a	0.010663861
238	0xbd487c33	-0.04894657
239	0xbb6e8e90	-0.0036400892
240	0xbd09eb51	-0.03367168
241	0x3cfccf9e	0.030860718
242	0xbcf341d4	-0.029694475
243	0x3c8d3b5f	0.017240224
244	0xbd480ba5	-0.04883923
245	0xbd7fcd60	-0.06245172
246	0x3cc97c37	0.024595363
247	0x3bdbe8e6	0.0067111133
248	0xbce650e2	-0.02811474
249	0xbd1cbf26	-0.03826823
250	0xbd41734c	-0.047229096
251	0x3d5fc122	0.054627545
252	0x3d06ca24	0.03290762
253	0xbcbb3594	-0.022852696
254	0xbd8bbd3b	-0.06823202
255	0xbcddff95	-0.02709941

actor.4.weight f4 [128, 256]
0	0xbcf2a440	-0.029619336
1	0x3bcb567f	0.0062053795
2	0xbdae7292	-0.08517946
3	0xbd1f6ae6	-0.038920306
4	0xbd02396e	-0.03179305
5	0x3c7262bc	0.014794048
6	0x3d5e0097	0.05419978
7	0xbd2b394e	-0.041802697
8	0xbcd12349	-0.02552952
9	0xbccbc5f8	-0.024874672
10	0x3d958828	0.0730136
11	0x3ddff194	0.10934749
12	0xbdb51e94	-0.08843723
13	0x3d5f49ed	0.05451386
14	0xbb6054dc	-0.0034230268
15	0x3d4ea5df	0.050451156
16	0xbd1db3e3	-0.03850163
17	0xbcae7617	-0.021296544
18	0xbc38dad4	-0.011282641
19	0x3d25f229	0.040514145
20	0xbc2657a4	-0.010152731
21	0xbd9927fc	-0.074783295
22	0xbd9c4c53	-0.07631745
23	0x3c81ab77	0.015828831
24	0x3cfa2197	0.030533595
25	0xbb8a6a2b	-0.004224082
26	0x3d394174	0.045228437
27	0xbdd97c27	-0.10619383
28	0x3d91e3b5	0.0712351
29	0xbdb64a31	-0.0890087
30	0x3db979ef	0.0905646
31	0xbd4c1b41	-0.04983068
32	0x3c984a9e	0.018590268
33	0x3cf9b92e	0.030483808
34	0xbd5ddd26	-0.05416598
35	0x3ce19440	0.027536511
36	0xbdab6ec7	-0.083707385
37	0xbd12e7da	-0.035865642
38	0xbd0274a9	-0.031849537
39	0xbd24fd16	-0.040280424
40	0x3d5921ca	0.05301074
41	0x3d82ba71	0.06383217
42	0x3d6fb1c8	0.058519155
43	0x3d8cdfc5	0.06878618
44	0xbc35f2ed	-0.011105281
45	0xbc03c575	-0.008042683
46	0x3cc109f0	0.023564309
47	0x3cfaf520	0.030634463
48	0x3c82490f	0.015903978
49	0x3d40934b	0.04701547
50	0x3d458fe6	0.048232935
51	0xbc9275d9	-0.01787846
52	0xbdc01290	-0.093785405
53	0xbc3c3be2	-0.011488887
54	0xbe0499c5	-0.12949283
55	0x3c045063	0.008075806
56	0x3d9a8bdd	0.07546208
57	0xbc0cea6b	-0.0086008115
58	0xba787cf4	-0.00094790687
59	0xbc86c44e	-0.016451027
60	0xbbdd488c	-0.006753033
61	0xbcde8aa3	-0.027165717
62	0x3aa25f89	0.0012388091
63	0x3d8fd365	0.07022742
64	0x3d65704e	0.056015305
65	0x3aec39c4	0.0018022587
66	0x3cf4e8dc	0.029896192
67	0xbd3ed66c	-0.046591207
68	0x3d3d7edc	0.04626356
69	0xbd82f16f	-0.06393706
70	0xbd317b4b	-0.043330472
71	0x3d9b633c	0.07587287
72	0x3d9beb0d	0.07613192
73	0xbd9efed6	-0.0776345
74	0xbd094c13	-0.033519816
75	0xbd487149	-0.048936162
76	0xbd1eaebf	-0.03874087
77	0xbd5f0327	-0.054446366
78	0x3cf17853	0.02947632
79	0x3d828b2e	0.06374203
80	0xbdbad768	-0.09123117
81	0x3cc157c9	0.02360143
82	0xbb94e0b4	-0.0045433883
83	0xbdc288fb	-0.09498783
84	0xbd2fa76b	-0.04288427
85	0x3cf4064b	0.029788157
86	0x3d034370	0.032046735
87	0xbdcaa255	-0.09894244
88	0xbd33fe47	-0.04394367
89	0x3c1fa44b	0.00974376
90	0x3bdacb94	0.0066771004
91	0x3c258fbd	0.010105071
92	0xbd71c395	-0.059024412
93	0x3e0f60ba	0.14001742
94	0x3dde2e3c	0.10848662
95	0x3ce1ef55	0.027579943
96	0x3d3e4ee1	0.046461944
97	0x3d542a37	0.05179807
98	0xbc2332e9	-0.009960868
99	0xbd1bb3aa	-0.038013138
100	0xbd154112	-0.03643901
101	0xbbeddc66	-0.0072589396
102	0x3caab0e0	0.020836294
103	0xbc70e72d	-0.014703554
104	0x3ca57bce	0.020200636
105	0xbd50721c	-0.050890073
106	0xbd946a99	-0.072468944
107	0x3d4ac0c1	0.04950023
108	0xbd1051e7	-0.03523436
109	0xbd26535d	-0.040606845
110	0x3d0ee924	0.03489031
111	0xbc5ada16	-0.01335766
112	0x3d1402f0	0.036135614
113	0x3d8f8dab	0.07009443
114	0x3c1d65ef	0.009606822
115	0x3c5eed89	0.0136064375
116	0x3c71ef19	0.014766478
117	0x3d681524	0.056660786
118	0x3da4eb94	0.080527455
119	0xbcebfc8f	-0.028806953
120	0x3df5bca0	0.11998868
121	0xbda57185	-0.08078293
122	0xbd1f0f44	-0.038832918
123	0x3d6c8841	0.05774713
124	0xbd537756	-0.05162748
125	0xbd4865b2	-0.04892511
126	0xbaaf0dc4	-0.0013355543
127	0xbd056be0	-0.03257358
128	0x3c6e4df7	0.014544955
129	0xbd152502	-0.036412247
130	0xbd83ff93	-0.06445231
131	0x3d97a1a4	0.074038774
132	0x3ce738c0	0.028225303
133	0x3c31de6c	0.010856252
134	0x3d1b9cb0	0.037991226
135	0xbcdbbb5a	-0.026822735
136	0x3d2eecf8	0.04270646
137	0x3cf378c9	0.02972068
138	0xbd88a6ad	-0.06672416
139	0x3e05b68b	0.13057916
140	0x3ce3556a	0.02775069
141	0xbd6fbc7b	-0.05852936
142	0x3da71c2b	0.081596695
143	0xbbeb4207	-0.007179502
144	0x3dc837ab	0.09776243
145	0x3ce4a127	0.027908875
146	0x3ddf4d32	0.10903396
147	0x3dbfea16	0.0937082
148	0xbd4b0c0d	-0.04957204
149	0xbcac0b31	-0.02100143
150	0x3d157561	0.036488894
151	0x3d3ba1ed	0.04580872
152	0xbd43c0ae	-0.047791176
153	0xbd05f2b1	-0.03270215
154	0x3d10e26e	0.03537219
155	0x3d567838	0.052360743
156	0x3cb884e1	0.0225243
157	0xbdc564c5	-0.09638361
158	0xbda56512	-0.08075918
159	0xbd4102da	-0.04712186
160	0x3c8fddb4	0.017561771
161	0x3ced053a	0.028933156
162	0xbd2f5b5c	-0.042811736
163	0xbd88dd61	-0.0668285
164	0xbb605f65	-0.0034236547
165	0xbd8b90cc	-0.06814727
166	0xbda5f447	-0.08103233
167	0xbd60b472	-0.054859586
168	0xbd0d9e82	-0.034574993
169	0xbd45f266	-0.048326872
170	0x3d2e5841	0.042564634
171	0xbd83f5c1	-0.06443358
172	0xbd0312da	-0.0320004
173	0xbcb3dbf7	-0.021955473
174	0x3c2a6085	0.010398989
175	0x3bb74f10	0.005594142
176	0xbdb7d288	-0.089757025
177	0x3d06ffa5	0.032958645
178	0xbc7307c2	-0.014833393
179	0x3d824d70	0.06362426
180	0xbb9ccdfe	-0.0047852984
181	0xbd25e0ab	-0.040497463
182	0x3d541458	0.051777214
183	0x3d149153	0.036271404
184	0x3c500373	0.012696135
185	0xbdd7ab38	-0.10530704
186	0x3c0cb0b9	0.008587056
187	0xbddc9395	-0.107703365
188	0x3d8efbec	0.06981644
189	0x3cfa22b6	0.03053413
190	0x3afba579	0.0019199095
191	0x3ce57bc8	0.028013125
192	0xbc4fa48c	-0.012673508
193	0x3d594001	0.053039555
194	0xbd337473	-0.043812227
195	0x3d9a5eb9	0.07537598
196	0xbc0c6e2c	-0.008571189
197	0x3c1bb821	0.009504349
198	0xbbe007bb	-0.006836859
199	0xbce6b7c9	-0.028163807
200	0x3d3a3a28	0.04546562
201	0x3d156cbd	0.036480654
202	0xbd03f9b5	-0.03222056
203	0x3d679acf	0.05654412
204	0xbd76ecb1	-0.06028432
205	0xbd153aa2	-0.03643287
206	0xbdbaac2b	-0.0911487
207	0x3d032b04	0.032023445
208	0x3d36e464	0.044651404
209	0x3d4e3a9a	0.050348856
210	0xbcb40b63	-0.021978086
211	0x3b7c3f54	0.0038489895
212	0x3da7618c	0.081729025
213	0xbd56ff86	-0.05248978
214	0x3d182d58	0.03715262
215	0x3dd1a919	0.10237331
216	0x3bf42dc6	0.0074517457
217	0xbcf7a34b	-0.030229231
218	0x3d5d08f0	0.0539636
219	0x3c91233a	0.017716993
220	0xbceab08a	-0.028648634
221	0xbcbf510e	-0.02335408
222	0xbaf23c74	-0.0018481151
223	0x3d7532ff	0.059863087
224	0x3d3ad60d	0.04561429
225	0x3d6d9701	0.058005337
226	0x3d63fa37	0.055658545
227	0xbd4bc7b0	-0.049750984
228	0xbcf63e85	-0.030059109
229	0xbcba632b	-0.022752365
230	0x3d047a97	0.032343473
231	0x3c962435	0.018327812
232	0x3b7be56f	0.0038436314
233	0x3d6b8673	0.057501268
234	0xbcb8c688	-0.022555605
235	0xbcfa59e2	-0.030560438
236	0x3d5ee579	0.05441806
237	0xbc9fab4c	-0.01949086
238	0x3cdb2774	0.026752211
239	0xbd9ff152	-0.078097
240	0x3b94d3f4	0.0045418683
241	0x3d769c2c	0.06020753
242	0x3df6918e	0.12039481
243	0xbc2fb7c8	-0.010724969
244	0xbd886e9b	-0.06661721
245	0xbb20c79b	-0.0024533037
246	0xbd23fe97	-0.040037718
247	0xbc1ca907	-0.009561784
248	0xbc5e0946	-0.013552016
249	0x3c390bd0	0.01129432
250	0x3d70cebe	0.058790915
251	0xbd43429c	-0.047670946
252	0xbb1f41ca	-0.0024300688
253	0x3cd6c04a	0.026214737
254	0xbd2fc6d6	-0.042914234
255	0x3d53bcfa	0.051693894

actor.4.bias f4 [128]
0	0x395fb154	0.00021332997
1	0xbdb9df60	-0.090758085
2	0x3ca51cd7	0.020155353
3	0xbd833a4f	-0.06407606
4	0xbdffe778	-0.12495321
5	0xbdd21574	-0.10257998
6	0xbba2e0a8	-0.004970629
7	0xbd15c770	-0.03656715
8	0x3a26c512	0.0006361763
9	0xbc6410e1	-0.01392004
10	0xbd4f4216	-0.050600134
11	0x3c74bf4c	0.014938187
12	0x38d53f0d	0.000101683756
13	0xbd584a31	-0.05280513
14	0x3c248434	0.010041285
15	0xbdada588	-0.08478838
16	0xbc3bc630	-0.011460826
17	0x3c7cc229	0.015427151
18	0xbcf9983d	-0.0304681
19	0x3c8c156a	0.017100055
20	0xbb3213da	-0.0027172477
21	0x3cd44283	0.025910622
22	0xbcf311f8	-0.029671654
23	0xbda488e8	-0.08033925
24	0xbbaea415	-0.0053296187
25	0x3da33b47	0.07970291
26	0xbd856846	-0.06514029
27	0xbbd9630d	-0.006634122
28	0xbb0e43ae	-0.002170782
29	0x3d154adc	0.036448345
30	0x3d0fb760	0.03508699
31	0xbc0cb1d0	-0.008587316
32	0x3ca5d8f7	0.020245058
33	0xbc159f18	-0.009132169
34	0x39387410	0.00017590844
35	0xbc03a2f3	-0.008034456
36	0x3d21d1d0	0.039506733
37	0xbc3bceb9	-0.011462861
38	0xbd77fb9b	-0.060542684
39	0xbc80ddc8	-0.015730754
40	0x3d397d56	0.045285545
41	0xbd5555f4	-0.052083924
42	0xbd1e403b	-0.038635474
43	0xbdefe3d2	-0.11713375
44	0x3d9ab8ac	0.075547546
45	0x3c57a1b7	0.013161114
46	0xbd95638f	-0.0729438
47	0x3d70cfee	0.058792047
48	0xbd7643af	-0.06012314
49	0xbcfae0a5	-0.030624697
50	0xbe0551db	-0.13019507
51	0x3c956517	0.01823668
52	0xbbd7a779	-0.0065812436
53	0xbd140b31	-0.036143485
54	0xbdb5c8e4	-0.088762075
55	0xbd262b7d	-0.040568817
56	0xbdd8eac5	-0.10591654
57	0x3c1ca39e	0.009560494
58	0xbd294ea3	-0.04133476
59	0xbd41ee68	-0.047346503
60	0xbd85111d	-0.06497405
61	0x3daeb4fd	0.085306145
62	0xbd34c21a	-0.044130422
63	0xbd8247cf	-0.06361353
64	0xbd712cd5	-0.058880646
65	0xbdfae57b	-0.12250801
66	0x3b7643c7	0.003757702
67	0xbbda394b	-0.006659662
68	0x3d4f1dc7	0.050565507
69	0xbe07ab18	-0.13248861
70	0xbdcd8937	-0.10035937
71	0x3d020e72	0.031752057
72	0x3cefb6aa	0.029261906
73	0xbd022d6f	-0.03178161
74	0x3d70cdd1	0.05879003
75	0x3b27f214	0.0025626468
76	0x3c6bb49e	0.014386324
77	0xbd380736	-0.044928752
78	0xbcf17d59	-0.029478716
79	0xbc28caab	-0.010302226
80	0xbbc5d094	-0.0060368273
81	0x3d075f5a	0.03304992
82	0xbd1340cf	-0.03595048
83	0x3d390e52	0.045179673
84	0xbd9cb575	-0.07651798
85	0xbdb86159	-0.090029426
86	0xbdae6c3f	-0.0851674
87	0xbcbabb16	-0.022794288
88	0xbd8213a1	-0.063514
89	0x3c9ea25b	0.019364526
90	0x3d513800	0.051078796
91	0xbd59c8bd	-0.053169955
92	0x3d9ff988	0.07811266
93	0x3c1cb305	0.009564166
94	0x3dad73a7	0.084693246
95	0xbc10da9d	-0.008841184
96	0x3d66452e	0.05621832
97	0xba68d63d	-0.00088820216
98	0x3d226fe6	0.039657496
99	0xbdac493d	-0.084124066
100	0xbb902e45	-0.004400047
101	0x3a628ea2	0.000864247
102	0xbdc36a9b	-0.09541818
103	0x3c58a041	0.013221801
104	0x3be485ee	0.0069739735
105	0xbc2ed0e3	-0.01066992
106	0x3c9ace59	0.018897222
107	0x3ba9884e	0.0051737195
108	0xbcb518cc	-0.02210655
109	0x3c456648	0.0120483115
110	0xbdb37b67	-0.087637715
111	0xbd0a1a7e	-0.03371667
112	0x3af659bc	0.0018795053
113	0xbd99bc17	-0.075065784
114	0xbca7002c	-0.020385824
115	0xbc003eeb	-0.007827501
116	0xbd3309fb	-0.04371069
117	0xbdaff223	-0.08591106
118	0xbd003dba	-0.031308867
119	0x3cbbb4cd	0.022913361
120	0xbd3e3192	-0.046433993
121	0x3c535085	0.012897615
122	0xbdbfe99c	-0.09370729
123	0x3d099ade	0.03359496
124	0xbd4ca16d	-0.049958635
125	0xbd95a8cc	-0.07307586
126	0xbc9e6d54	-0.019339241
127	0xbe1dbe05	-0.15404518

actor.6.weight f4 [12, 128]
0	0xbd1a5faf	-0.037688907
1	0x3d848de9	0.0647238
2	0xbd4c9369	-0.04994527
3	0xbcf12f57	-0.029441519
4	0xbd90d0fa	-0.07071109
5	0xbd243bc2	-0.040096052
6	0xba8db501	-0.001081139
7	0x3daef85d	0.08543465
8	0xbd28e532	-0.041234203
9	0xbd88e896	-0.06684987
10	0xbcc380b6	-0.023865085
11	0xbd3c7268	-0.046007544
12	0xbd1be5fa	-0.03806112
13	0xbcbd581a	-0.0231133
14	0xbce17349	-0.027520793
15	0x3d97c71b	0.07411023
16	0xbac5ab17	-0.0015080896
17	0x3c33548c	0.0109454505
18	0xbacc1d88	-0.0015572766
19	0x3cd3dfea	0.025863606
20	0xbd89aa9d	-0.06721995
21	0x3cd04d73	0.025427556
22	0x3a30dc1e	0.0006746667
23	0x3bce77f2	0.0063009197
24	0x3c463a8d	0.0120989205
25	0xbdc2b50f	-0.095071904
26	0x3d104dca	0.035230435
27	0x3d4def0c	0.0502768
28	0xbc2691b5	-0.010166575
29	0x3d3ad493	0.045612883
30	0xbcf4c2d0	-0.02987805
31	0x3c7ba37d	0.015358803
32	0xbadd97d9	-0.0016906216
33	0xbdb8cac2	-0.09023048
34	0xbcf7fb96	-0.030271333
35	0x3d026653	0.031835865
36	0x3cb4e233	0.022080516
37	0x3cff805d	0.031189138
38	0x3d0fbc3b	0.03509162
39	0xbba460b3	-0.0050164103
40	0x3d4c7c74	0.049923375
41	0x3c0cd33a	0.008595282
42	0x3b80ed39	0.003934529
43	0x3d065099	0.032791708
44	0xbbe28f7e	-0.0069140783
45	0xbcc4a075	-0.024002293
46	0x3c13c28b	0.009018551
47	0xbda08870	-0.078385234
48	0x3be469ea	0.0069706338
49	0x3d89ed96	0.06734769
50	0xbcedb185	-0.029015312
51	0x3c2b7859	0.010465705
52	0x3a8d5720	0.0010783412
53	0x3d143096	0.036179148
54	0xbcc79f5b	-0.024367979
55	0x3cdc6358	0.02690284
56	0xbc71e720	-0.014764577
57	0xbc031420	-0.008000404
58	0xbb9f7738	-0.004866507
59	0xbc70988a	-0.014684806
60	0x3c5dd0bf	0.0135385385
61	0x3d39f939	0.045403693
62	0xbd97d0a8	-0.07412845
63	0x3ca72c07	0.020406736
64	0x3dc8801b	0.09790059
65	0xbcb89876	-0.022533637
66	0xbcababdc	-0.020955972
67	0xbd1ab40f	-0.037769374
68	0xbd62f6b8	-0.05541107
69	0x3ca27d4c	0.019835137
70	0x3d8b29be	0.06795071
71	0xbc8c5894	-0.017132081
72	0xbd1d681f	-0.038429376
73	0xbb88b7ee	-0.0041723168
74	0x3c75e1b6	0.015007427
75	0x3ca95789	0.020671623
76	0xbd26abc2	-0.040691145
77	0xbd1c85e6	-0.038213633
78	0xbaf82b86	-0.001893387
79	0x3bb030e9	0.0053769243
80	0xbc1943a2	-0.009354504
81	0xbc53cb0a	-0.012926826
82	0x3d346a3c	0.044046625
83	0xbc8eeb9e	-0.017446335
84	0xbc912573	-0.017718052
85	0x3cb92a1e	0.02260309
86	0xb9e96ed8	-0.00044523808
87	0xbd4e2373	-0.050326776
88	0x3d2e40cb	0.04254226
89	0xbc2ac590	-0.010423079
90	0xbd21e868	-0.03952828
91	0xbd9080d3	-0.07055821
92	0xbcabce00	-0.020972252
93	0x3d66fee9	0.056395445
94	0x3cc6a816	0.024250071
95	0xbc870775	-0.016483048
96	0xbd9dd432	-0.07706489
97	0x3bb4be22	0.0055158297
98	0xbcc4cbf3	-0.024023032
99	0x3d87ca98	0.066304386
100	0x3c166f92	0.009181874
101	0x3c51ec67	0.01281271
102	0x3d045810	0.032310545
103	0x3cf1ee20	0.029532492
104	0xbcd2dd8d	-0.02574041
105	0xbc22822f	-0.0099187335
106	0x3d92d75a	0.07169981
107	0x3c54af25	0.012981211
108	0xbd3f2153	-0.04666264
109	0x3bd26cfd	0.006421684
110	0x3d4b8e19	0.04969606
111	0xbd6cce87	-0.057814147
112	0x3ca08a07	0.019597067
113	0x3d31aa65	0.04337539
114	0x3c838897	0.016056342
115	0xbc7caae7	-0.015421606
116	0x3c45eba4	0.012080107
117	0xbd812807	-0.06306463
118	0x3d21108d	0.039322425
119	0xbc229dc9	-0.009925314
120	0x3c3811d0	0.011234716
121	0xbcb2dd87	-0.021834148
122	0x3c1f4f40	0.0097234845
123	0x3d7b7239	0.061388228
124	0xbab66e37	-0.0013918345
125	0xbd79fc6b	-0.06103174
126	0xbd611de7	-0.054960158
127	0x3b957b53	0.0045618205
128	0xbce200f2	-0.027588341
129	0xbd01fd6e	-0.03173583
130	0x3ca32c5c	0.019918613
131	0x3c747cf3	0.014922368
132	0x3b8d3352	0.0043090964
133	0xbd366217	-0.04452714
134	0xbd401b0d	-0.046900798
135	0x3db8d5c9	0.09025151
136	0x3cfaa6d2	0.030597124
137	0x3ce4c9ca	0.027928252
138	0x3d4cff13	0.050047945
139	0x3db8f655	0.09031359
140	0xbcea66ea	-0.028613526
141	0xbc558472	-0.013032066
142	0xbc2e8570	-0.010651931
143	0xbd78f1c7	-0.06077745
144	0x3d0e633a	0.0347626
145	0xbc6db3a7	-0.0145081645
146	0x3b22a74f	0.0024818962
147	0x3c5583bb	0.013031895
148	0xbc2228c4	-0.009897415
149	0x3d13b1d8	0.036058277
150	0x3c6aef18	0.014339231
151	0xbc7eca58	-0.015551172
152	0xbab58085	-0.0013847506
153	0xbb4ea529	-0.0031531549
154	0x3c80ca84	0.015721567
155	0xbc9f333a	-0.019433606
156	0xbc4ae227	-0.0123830205
157	0xbd925c23	-0.0714648
158	0xbd990d19	-0.07473201
159	0x3c3cdeca	0.011527726
160	0xbd780813	-0.060554575
161	0xbdabcedf	-0.08389067
162	0xbc975922	-0.018475119
163	0x3d08feb1	0.033446018
164	0xbcf06803	-0.029346472
165	0xbc580c1a	-0.013186479
166	0x3c90a715	0.017657796
167	0x3c045ada	0.008078301
168	0xbd791ef6	-0.060820542
169	0x3cf03d68	0.029326156
170	0x3c974293	0.018464362
171	0xbd1e3b4d	-0.038630772
172	0x3d2d1b52	0.042262383
173	0x3b3d6fad	0.0028905675
174	0xbcc95575	-0.024576882
175	0xbc7af2b7	-0.015316657
176	0xbc12e7d8	-0.008966409
177	0xbd80573f	-0.06266641
178	0xbd07b8a5	-0.033135075
179	0xbe072f49	-0.13201632
180	0x3d34b1c3	0.04411484
181	0xbc80256b	-0.015642842
182	0x3d36e118	0.04464826
183	0xbcf73fef	-0.030181853
184	0xbd0c9c82	-0.034328945
185	0x3d1387cf	0.03601819
186	0x3d3320b8	0.043732375
187	0x3c89c62e	0.016818132
188	0xbacee1f8	-0.0015783897
189	0xbbc2d6fa	-0.0059460374
190	0xbcd8800f	-0.02642825
191	0xbca9b8d6	-0.02071802
192	0xbc5dda8a	-0.013540873
193	0xbc511960	-0.0127623975
194	0xbd8de737	-0.06928866
195	0x3b90302f	0.004400275
196	0x3dd0f2d5	0.102025665
197	0xbc245f93	-0.010032552
198	0xbcea2e9c	-0.028586678
199	0xbcd6d74b	-0.026225707
200	0x3c41490e	0.011797203
201	0xbaa037d7	-0.0012223673
202	0xbd09f948	-0.033685
203	0x3deec0ea	0.11657889
204	0xbb8393aa	-0.0040154057
205	0xbc8745f9	-0.016512858
206	0x3c60ae74	0.013713468
207	0xbc893cb7	-0.016752584
208	0xbc92ae75	-0.017905453
209	0xbc65b8bc	-0.014021095
210	0xbc76221e	-0.015022783
211	0xb7e70c16	-2.7542974e-05
212	0xbc5a0511	-0.013306872
213	0x3c186485	0.0093013095
214	0x3c1cbdf3	0.009566772
215	0x3cc58a4e	0.0241138
216	0x3c91359b	0.017725756
217	0xbd6d8b8b	-0.057994407
218	0xb7eb545f	-2.8053471e-05
219	0xbc8e9635	-0.017405609
220	0xbcd6f940	-0.026241899
221	0xbceb981e	-0.028759059
222	0x3d267496	0.04063853
223	0x3bdca9ca	0.0067341076
224	0x3b3ac797	0.0028500312
225	0x3d6b66e8	0.057471186
226	0x3dee6433	0.11640205
227	0xbd80a9c7	-0.062823825
228	0x3d48d0a8	0.049027115
229	0xbca5518f	-0.020180492
230	0x3d42e2a7	0.047579434
231	0x3d41bb24	0.04729761
232	0xbccfdff0	-0.025375336
233	0xbc62faf3	-0.013853776
234	0x3d5b45f0	0.053533494
235	0x3c0cb05f	0.008586972
236	0x3c94c9c0	0.018162608
237	0x3cf8e0c4	0.030380614
238	0x3a8fa00d	0.0010957733
239	0xbd0ca3d3	-0.034335922
240	0x3d79969c	0.060934648
241	0x3d218996	0.039437853
242	0x3d1611cf	0.036638077
243	0xbd46c252	-0.048525162
244	0x3c948b55	0.018132845
245	0x3d4f000b	0.05053715
246	0x3b232894	0.0024896013
247	0x3ba201f0	0.0049440786
248	0xbcd570ff	-0.026054857
249	0x3cb9153e	0.022593137
250	0xbc136aae	-0.008997602
251	0x3c828053	0.01593033
252	0xbc71aeb8	-0.014751129
253	0x3d6a60e7	0.05722132
254	0xbbff135b	-0.00778429
255	0x3d88cfff	0.06680297

actor.6.bias f4 [12]
0	0x3d18972f	0.037253555
1	0xbd97972d	-0.07401881
2	0x3d3db2c5	0.046313066
3	0x3d896499	0.067086406
4	0x3ba371ad	0.0049879164
5	0xbcf54fbf	-0.029945252
6	0x3d7c7bd8	0.061641544
7	0x3ca97f5d	0.020690614
8	0x3ccba179	0.02485727
9	0xbe2200f1	-0.15820672
10	0x3e40ecf4	0.1884039
11	0xbd83804c	-0.06420955
