src/ga_quadruped/policy/param_action.onnx (onnx, 772885 bytes, 8 tensors)

actor.0.weight f4 [512, 52]
00000000: 2662 1e3c 400a fcbb 38fe 873d a9e1 a7bd
00000010: 167a 00bd 9fda b2bd dfdc f43b b851 c5ba
00000020: 21bc 863d f24c 2fbd 9ae1 2fbc e32c 003d
00000030: b9a2 093d d41d c4bd 98a7 febd b8ee 7a39
00000040: 1821 f63d 1077 9b3d 4751 743d 85e0 f0bc
00000050: 441b 04bd 78ca 863d 46ed 95bd 6f13 ebbd
00000060: 9dfe 6fbe d018 863d ceab 41bc f1ca d5bd
00000070: 288d 09bd 6195 21bd 8225 1cbc 4d12 243d
00000080: a341 8bbd eeb6 20bd 66f1 21bd 3416 37be
00000090: 9d03 9b3d d9f5 d1bc ae3f d739 b9a1 533c
000000a0: 2033 e9bb 01aa f2bb 2e12 cdbc 0cfc 4f3a
000000b0: 5690 ed3c d050 1a3d d48e 1a3d 6dca 9a3c
000000c0: 4904 ae3d 9fe0 85bc 57f4 e13c 29fa f83c
000000d0: 488b 82be 4c08 433f a2ac 08bf 6c89 e13c
000000e0: fbb2 973e 18d7 83bc 1ac8 663e e210 a6be
000000f0: 824d 36be 4649 063d ff93 8f3b 9e26 77bd
00000100: 4e3f 67be 019b 50be c3ae f03c 5cf5 c33d
00000110: ac12 ffbe 99d5 0bbe 0319 00bf 3ea8 bdbd
00000120: 1cb9 0040 ec7d 6d3c 1993 2bbe 13cf 6c3e
00000130: c64f 353e 0fd7 633d 0198 0cbe 3be1 093d
00000140: 53b3 32be 59ca 0f3d 7aaf b4bc 5d5a 843e
00000150: 37c1 513f 43a6 33bf 211a f6bd a5ba b4be
00000160: 3198 4f3a 06b4 243d b9b8 03be f231 b2be
00000170: 8040 e2bc 9bd0 01be 5516 003c 0de2 083e
00000180: e8e4 b8bc 66d4 af39 ada5 243c b1da fa3c
00000190: 1464 183e 0c70 4fbd 93b5 8dbd fa1c 7a3e
000001a0: fe17 03bf dc00 303f 7e58 5a3f d270 ae3e
000001b0: 926c 903f 61d0 1f3e 6f9c 2bbd 7374 0c3d
000001c0: 52ef 2d3d f308 2b3d 3780 a0bc 9581 963c
000001d0: ee81 2cbe c513 8cbc f370 30bd 1525 fbbc
000001e0: d618 06be b813 8cbe da99 a83e 0a34 c13d
000001f0: 5c87 48be 4ee5 edbe 9be5 373f 228e be3b
00000200: 806d 29be 03ad 303d 59c0 a13e 3e7f 34be
00000210: 5d51 a73d 4a6c bcbd c73e 193d 9307 7d3e
00000220: e4d5 e43e 73fe 773e a7d7 a83e 3c2a 43be
00000230: e8dd e5bd aa8f 6dbe ce0d 8e3d 7818 8c3e
00000240: bcd9 68bd 3ec0 f43d 9903 6d3e e845 373e
00000250: baa5 d1b9 0ac5 9bbd fdb7 793e b0e8 e3bc
00000260: a480 193d 0eea 9f3e e415 b63d 50e6 813e
00000270: 007d 6f3d c052 233e add8 b63e c5b5 193f
00000280: 2c55 433e 73ef 623d 2651 703d 8d1e d9bb
00000290: 7a97 0dbe 7b98 dbbc 99de 33bc e726 cfbc
000002a0: f46d 103e bc1a 6ebd e2c1 543e 7f38 373d
000002b0: e241 08bf f3ef e8be 2881 5ebe 350b 183e
000002c0: 4ff2 f4be 559f 5dbd 81dd b5be 09ab a4bd
000002d0: bfe0 013e 99c2 4f3e 48dd b13e 48c4 d63e
000002e0: ecc6 93be 0c7c f0bd 5a3a 003d ca5b 09be
000002f0: 7298 ee3d 38a6 b0bb d4c6 b73d dfba f9bd
00000300: 918d 533e c2de 3b3d 3870 6d3e 111a 1d3e
00000310: c1c3 e83d 820d 7b3d 5a3f 853c ce07 11bd
00000320: 7824 bf3d 72e8 203c ab27 743c 655f 343b
00000330: 437d 10bd 6135 72bc 72a6 d1bd e87c a8bd
00000340: 7e4f 4a3c 7f7c 7cbe 7506 23bc 0cf0 243e
00000350: 81eb c3bd 17dc 08bd 7e7b 653b f905 5d3c
00000360: 3531 f43c 7e74 a73b c093 59bc e618 473c
00000370: 7fd7 c5bd e1ab d6bd 1584 b8bd a3c0 a6bd
00000380: 692d 333d aa94 9e3d 4069 ff3d 7253 dd3d
00000390: 7179 313e b408 4a3d 717e 9a3e 09a7 04be
000003a0: e7f9 d5bd 8957 69be 53f3 13bd 606a 483e
000003b0: 20ac 473e fdd2 a3bd e5e6 9f3c 6306 9f3d
000003c0: d7c3 803c 632b 0e3d 0434 4a3d 1e94 cf3d
000003d0: aeab 493c aafc 0fbd 5c02 27bd 67ba 3fbd
000003e0: 95b4 0bbd 7b8d 263c 31b1 85bb e1b2 a9bc
000003f0: ce70 97bc 51c3 053d e258 6cbd 8c8b e33c
0.009666955 -0.0076916516 0.06640285 -0.08197338 -0.03136643 -0.08733105 0.007472619 -0.0015054261
0.065788515 -0.04279799 -0.01073494 0.031292807 0.03360245 -0.09576002 -0.1243431 0.00023930788
0.12018031 0.07591069 0.059647825 -0.029403934 -0.032252565 0.065815866 -0.07320647 -0.11478316
-0.23436971 0.06547701 -0.011820747 -0.104390986 -0.033581883 -0.0394491 -0.009530427 0.040056515
-0.067996286 -0.039236955 -0.039536856 -0.17879564 0.075690486 -0.025629925 0.0004105544 0.012916976
-0.0071166903 -0.00740552 -0.025033083 0.0007933981 0.028999489 0.037674725 0.037733868 0.018895352
0.08496911 -0.01634246 0.02758233 0.030392723 -0.25496888 0.76184535 -0.53388417 0.027531348
0.2962874 -0.016093776 0.2253727 -0.32434756 -0.17803004 0.032784723 0.004381656 -0.060339563
-0.22582743 -0.2037163 0.029380208 0.09568283 -0.49818933 -0.136557 -0.50038165 -0.09260605
2.0112982 0.014495354 -0.16755332 0.23125868 0.17706212 0.055625018 -0.1372986 0.033662062
-0.1745122 0.035105083 -0.02205633 0.25850192 0.8193545 -0.7017557 -0.120167024 -0.35298648
0.00079191016 0.040210746 -0.12863435 -0.3480373 -0.027618647 -0.12677233 0.007817824 0.13367482
-0.022570089 0.0003353685 0.010049266 0.030621858 0.14881927 -0.050643966 -0.06919398 0.24425116
-0.51208484 0.6875131 0.8529128 0.3407045 1.1283133 0.15606834 -0.041897234 0.034290742
0.04246456 0.04175658 -0.019592388 0.018372336 -0.16846439 -0.01709927 -0.043076467 -0.03065733
-0.13095412 -0.27358794 0.3292988 0.09433754 -0.19582886 -0.46464008 0.71834725 0.0058152834
-0.16545677 0.043133747 0.31592062 -0.17626664 0.08169816 -0.09200342 0.037413385 0.2470992
0.44694436 0.24218158 0.3297703 -0.1905908 -0.11223966 -0.23199335 0.06936227 0.27362418
-0.056848273 0.1195073 0.23145904 0.17897761 -0.00039987062 -0.076059416 0.24386592 -0.027820915
0.037476197 0.31233257 0.08890894 0.25371027 0.05846882 0.15949535 0.35712186 0.60042983
0.19075459 0.055404138 0.05867114 -0.0066259564 -0.13827315 -0.026806107 -0.010978364 -0.025287105
0.14104444 -0.058130965 0.20777085 0.044731613 -0.5322553 -0.45495567 -0.21728957 0.14848025
-0.47841117 -0.05410703 -0.35520557 -0.08040435 0.1268339 0.20289077 0.34739137 0.41946626
-0.28862703 -0.1174241 0.03130565 -0.13413921 0.116501704 -0.0053909086 0.0897347 -0.12193846
0.20659472 0.045866735 0.2318734 0.15341975 0.11365462 0.06129218 0.01626556 -0.035407834
0.09333128 0.009821044 0.014902036 0.002752268 -0.03527571 -0.014783234 -0.10236825 -0.08226949
0.012348054 -0.24656866 -0.00995027 0.16107196 -0.09566403 -0.03341302 0.0035016234 0.0134901935
0.02980862 0.0051103225 -0.013279855 0.012151932 -0.09660243 -0.10482002 -0.09009568 -0.08142211
0.04374448 0.07743199 0.12471247 0.108069316 0.17331482 0.049324706 0.30174592 -0.12954344
-0.10448056 -0.22787298 -0.036120724 0.19571829 0.19499254 -0.07999227 0.019519279 0.0776489
0.015718384 0.034709346 0.049366012 0.10135673 0.012308998 -0.03515307 -0.040773734 -0.046808627
-0.034107763 0.0101655675 -0.0040799608 -0.020715179 -0.018486407 0.03265697 -0.057701953 0.027776502

actor.0.bias f4 [512]
00000000: 5f1e 18be a67d 0dbe 654b 34bc 730c 7d3d
00000010: 2127 8a3d bf53 acbd fcb2 1f3d 1cf5 4f3e
00000020: 8407 b4bd 1453 fcbd 15c3 2bbe 12cf 7a3c
00000030: 4a6a bbbc 483e 383e b51b 21be 8b50 d8bc
00000040: b382 3abd 0133 153c 8d38 99bd 1b2a 863d
00000050: ece7 003d 0e04 853d c78d 983d 30a3 1c3e
00000060: b7db 83bb f80c c7bd 0171 bfbd 4e3d fc3c
00000070: 1e6a ccbd 349e c7bd f0e9 35bd 7f73 2ebd
00000080: bffb 0a3e b2b6 483d cacc 25be 56b0 cdbc
00000090: be96 19be bda0 d13d 8fb6 a93d 0b1b dd3b
000000a0: 4bed cbbd 9ec2 fd3b 25f0 3e3d f3b9 97bd
000000b0: b828 13be 482e 553d b438 40be 51ca 80be
000000c0: 3569 233d c5ab 38bd c450 6a3d 16d7 61bd
000000d0: 1c16 813c 6667 61bd 0b53 0d3d 4a8c 3a3d
000000e0: 6a28 f83d 2dfb 3e3c efd8 e23b d1e3 8abd
000000f0: d9cb 65bd 8009 313d 70a6 60bc 54ce 4abe
00000100: fa87 4cbc 3783 57bd f9b2 10be c91e 06bb
00000110: ce59 87bd c64e e83c 87ab f1bc cf70 e43d
00000120: 71db e53d 7738 253d 90d9 9ebd f271 a2bd
00000130: c551 87bd fa8c 963d 0b38 c9bd 9109 9f3c
00000140: be0a 093e 45e2 2bbe 98e1 7fbd 1120 933c
00000150: e896 72bc 2f47 403d 7e89 01be f900 32be
00000160: 3f5b c9bc b2c4 85bd 16bb d2bd bb90 ce3d
00000170: 01e2 bb3c 46cf 33ba 4aa5 da3d 24e1 b1bc
00000180: 00f8 47bc 5e3f 9ebd dafa 3f3d 5a8e a8bd
00000190: 0db4 51be 1d35 92bd 033b efbd a874 f8bd
000001a0: 09d6 0f3e 56a9 9abe 4c3d e33d e0d0 f23d
000001b0: 056b 47be 5570 44be ee00 c7bd 07ca 183d
000001c0: 1658 0bbe f17a 9b3d 8112 8a3e 8088 9dbe
000001d0: fbb8 dabd bb16 60be f988 e5bd 227c 9fbd
000001e0: 854a 09be 8fb2 37bd ba9b 1dbd 7e3e 8ebd
000001f0: 08d1 8dbd 791c c93c ca0b 853d aeb7 1cbd
00000200: 0251 e83d dd1b 2d3e a21f 70bb 9d8e e63d
00000210: 093f f3bc 0d16 49be be53 8b3d f00e 0abe
00000220: a6fe 2abe 4d59 a03d b599 173c f9e1 87bd
00000230: f4fe ea3b 3d1c 95ba aaaf b13d 4c5b 0b3c
00000240: 78e5 2f3e 7b1f 30bf 9a61 a5bd decb 003e
00000250: 5fdc 523d 8f5e 81bd dfab b53d fe45 7abe
00000260: c21b 2f3c ca6d 1f3e 0893 fd3d 14d5 f2bd
00000270: 96b0 17be e1a0 a6bd 921f 803d 1ece b53d
00000280: 7142 5abe ab61 4d3d 557e 27be d540 2abe
00000290: 7013 3cbd a6f8 223e d6df 7dbe 07b0 45bd
000002a0: 270a ce3d 799d ffbd d518 113d 3dad 263a
000002b0: e1ee dbbd d7e2 593c 8520 edbd 690a 85bc
000002c0: 7771 803d 9da8 80bd 46c4 c1bd 89c6 81bd
000002d0: 63b3 473d 4945 0abe 268b 45be 2f65 d63d
000002e0: 74e3 ad3d 601e c63d 0e53 8bbd 1788 74bd
000002f0: 5381 153d 6cf5 0cbc 4177 a43d c492 f53d
00000300: 293b 94bd 8201 6fbe 33f9 55be 8d2f 01bd
00000310: 737f c6bc 2fc4 8b3d d7df e9bc 788b 6d3d
00000320: a848 333c 8755 243e a090 8b3d 5136 2dbd
00000330: 2a26 bdbd 1fd3 65bd fb20 0abe 801e fbbd
00000340: df23 1ebe 5281 eabb b977 eebd fb27 f63d
00000350: 38c0 6ebd ac37 5d3d 35fe c13d b767 183d
00000360: 1335 c0bd c46d 10bd c5c3 ea3d 5988 2dbe
00000370: 849a 0f3c 782e 5bbe 1909 603d f5b5 843c
00000380: 0d7c eb3c 589b 083e 3c0c f6bc 2f64 fabd
00000390: 4c91 c1bd a58c 14bc 62ea 173d 3cdf 813e
000003a0: 8a1c 1abe 7c34 e9bd d851 a3be cd29 913d
000003b0: 276d 123e 83b7 8f3d 82f5 4d3d f415 c9bb
000003c0: 4622 373d 0cc9 03be fd0a 3e3c 7a52 16bd
000003d0: 7275 c3bd 600b b23d 267e acbe 57bb 173d
000003e0: 5c03 1a3d 25d6 d03c 0d13 2abe 132f 7bbd
000003f0: 89a3 95bd a2e3 3dbd d7a1 58bd f6fc 3abd
-0.14855336 -0.13817462 -0.011004304 0.06177945 0.067457445 -0.08414411 0.038989052 0.20308346
-0.08790496 -0.123205334 -0.16773637 0.0153081585 -0.022877831 0.17992508 -0.15733226 -0.026405593
-0.0455348 0.009106399 -0.07481489 0.06551 0.031471178 0.06494914 0.07448917 0.15296626
-0.004023995 -0.097192705 -0.09347726 0.030790951 -0.09981178 -0.09746972 -0.044412553 -0.042590614
0.13572596 0.049002357 -0.16191402 -0.025108498 -0.1499891 0.102357365 0.082867734 0.0067476085
-0.099573694 0.0077441474 0.04661574 -0.07408514 -0.14371002 0.05204609 -0.1877163 -0.25154355
0.039895255 -0.045085687 0.05720593 -0.055136763 0.015757613 -0.05503025 0.034503024 0.045543946
0.12117083 0.011656565 0.006922833 -0.06781734 -0.056102607 0.04322195 -0.013711557 -0.1980527
-0.012483591 -0.05261537 -0.14130773 -0.0020465127 -0.06608926 0.028357875 -0.029500736 0.11154329
0.11223496 0.040337052 -0.077563405 -0.079318896 -0.06607393 0.07351108 -0.098251425 0.019413741
0.13383004 -0.16785534 -0.062471002 0.017959626 -0.014806487 0.046942886 -0.12650105 -0.17383184
-0.024579642 -0.06531657 -0.1028959 0.10086199 0.022934915 -0.0006859194 0.10676058 -0.0217138
-0.012205124 -0.0772693 0.04687009 -0.082302764 -0.2047884 -0.07139037 -0.116811775 -0.121316254
0.14046492 -0.30207318 0.11095676 0.11856246 -0.19474418 -0.19183476 -0.09716974 0.037302043
-0.13607821 0.075918086 0.26967242 -0.30768204 -0.106798135 -0.21883671 -0.11207766 -0.07787348
-0.13407333 -0.04484802 -0.03847859 -0.06945513 -0.06924635 0.02454971 0.06496389 -0.038261108
0.11343576 0.1690516 -0.0036639948 0.1125767 -0.029693143 -0.19637318 0.06803082 -0.1348226
-0.16698703 0.07829533 0.009252955 -0.06634898 0.007171506 -0.0011376214 0.086760834 0.008505654
0.17177379 -0.68798035 -0.08075257 0.12577769 0.051479694 -0.06316864 0.088706724 -0.24440762
0.01068777 0.15569225 0.123815596 -0.11857048 -0.14813456 -0.08136154 0.062560216 0.08877204
-0.21314408 0.05014197 -0.16356786 -0.16626294 -0.045916975 0.15915164 -0.24792418 -0.048263576
0.1006053 -0.124812074 0.035424072 0.0006358212 -0.10738922 0.013298712 -0.11578468 -0.016240316
0.06271642 -0.062821604 -0.09461264 -0.06336696 0.04875506 -0.13502993 -0.19291362 0.10468518
0.08490649 0.09673762 -0.06802951 -0.059700098 0.036500286 -0.008603435 0.080305584 0.11990884
-0.072378464 -0.23340419 -0.20895843 -0.03153949 -0.024230694 0.068245284 -0.028549118 0.057994336
0.010942616 0.16048251 0.068146944 -0.04228813 -0.09235795 -0.056109544 -0.13489144 -0.12261677
-0.15443371 -0.0071565295 -0.11643929 0.120193444 -0.058288783 0.05400817 0.09472314 0.037208285
-0.09385123 -0.03526093 0.11463121 -0.16946544 0.008764867 -0.21404445 0.054696176 0.016200045
0.028745675 0.13340509 -0.03003513 -0.1222614 -0.09451541 -0.009066735 0.03708876 0.25365627
-0.1504995 -0.11386964 -0.3189838 0.07088051 0.14299451 0.07017424 0.050282963 -0.00613665
0.04471042 -0.12869662 0.0115992995 -0.03669975 -0.09543885 0.08693576 -0.33689994 0.037043896
0.03760086 0.025492737 -0.1660883 -0.06132419 -0.073065825 -0.046359666 -0.052888718 -0.0456514

actor.2.weight f4 [256, 512]
00000000: 4bbf cabc ebbc 00bf e661 39bf 58d7 1dbc
00000010: dad3 0b3c 94bc 05bd d8f8 8c3d 871d b8be
00000020: 7b7c 8e3e d3d6 ffbe 921a 14bf 7ef2 f4be
00000030: f70f c3be a459 a6bf a621 b5bb ba2f 0dbd
00000040: 0dad a3bd 72bf d0bc d523 1e3e 1289 d93b
00000050: 443f 09be 5e6d 573e 37d3 43be 54ef 623e
00000060: 01f2 6dbd 5849 f3bd 5022 67be c458 52bc
00000070: 5d8e 9abe b9ed 70bd 0479 423e 3c83 ad3e
00000080: 3f81 68be b05e 033e da1a e93d 6e1d d0be
00000090: c002 633f b368 773d a7bc d7be 640a 43be
000000a0: 2f4b 01bc 6c17 9c3d 732c 0abe fb40 613c
000000b0: 848d 40be 2d22 01bf 90e5 abbd 293f 16be
000000c0: 098f 753d bff0 d7bd 562f c23d be4b 1abe
000000d0: 73cc 363d 4b43 74bd 8522 8abe 4b9a 04bf
000000e0: 42e9 c43e d5c2 623c 79a6 9d3c 8532 4f3e
000000f0: 99d1 8f3b 6311 83bd e673 42be ea03 ac3e
00000100: f1f6 653d 8d94 ea3e 5873 9fbe b62b 74bd
00000110: 7c75 a33e ddef dc3a 8eff 32bc a9e7 32be
00000120: f637 b03e a762 afbd bd22 8abf 8c79 2cbd
00000130: fc76 1c3e f153 b43c 16d6 18bc 2b3c 8a3d
00000140: 02c3 213d f127 dc3d 48a0 65bd 693b 923d
00000150: ad4d a33c 2a0b 0b3e a23b 0e3e a31b 3dbe
00000160: c0a8 873d bbfc 5cbe 3584 4ebe 4664 37bd
00000170: 930c b8bd ea29 0ebd 91c3 013d dd2f d13e
00000180: e740 25bd 212c 99bd 04d6 23be 48d0 9b3c
00000190: 9eed ce3e 5dcf 0c3d be1c 6d3e 98a6 173d
000001a0: 54fd bfbd 431b 993e 6b7a 9dbc 0943 07bf
000001b0: 7919 85bd 395f 513f dfb4 54bd 98e3 ae3e
000001c0: a932 fbbd 1a9b 6dbe b0e3 203d 50a6 8bbc
000001d0: 6566 03be 6c5b dc3e 925c 2e3d e675 4ebc
000001e0: e7e2 133f 2cd6 ddbd 2c59 613d c140 193e
000001f0: a7de 283d e625 d8bd 6ebf b7bd a7c6 053d
00000200: a3e1 8bbd 688d 403d dab1 9bbd f753 5abd
00000210: 13ee 4fbd 6b38 773d 6f03 09bf b88f bd3d
00000220: 7840 763f 046d f23c fb74 c53a 7be6 d7bd
00000230: d545 91be 9346 263f c326 01be 930f d2bd
00000240: e637 8bbe b1c3 ba3e 1a96 c1bd 5264 19bd
00000250: 1692 f5be 9b15 8c3e 9fc0 333e a28c 1d3f
00000260: 81e6 303e 8e4c 0abe d695 723e f202 f13d
00000270: c55f 8c3d 3b0e a33d f37e a3bd a6a5 e8bd
00000280: 34ff f1bd f9d0 973d f5c5 f43d e0c8 e4be
00000290: cce6 27be 07f0 b5be 4176 ad3e 02ab 203e
000002a0: 7f09 bdbe 8ca5 bebc 0707 c6be b816 35bd
000002b0: 8d2b 903f 61f5 eebd 029f d7bd ec0b d13c
000002c0: e34b 983e 3827 1a3e fbb1 f0bc 2936 8d3a
000002d0: 1b34 633d 54d3 7e3e 5d69 423e 34fa 19be
000002e0: f398 3b3a 3077 2abe 2897 0f3e de5a cbbc
000002f0: 9877 45be 89e0 4e3e a6ef 59bd 4252 743e
00000300: 0776 20be d3c3 ea3d 054f f93d d754 73bd
00000310: c8a1 b33c cc03 79be 9f15 00bf d475 b4be
00000320: c62b b03d d623 7e3e a7e1 4bbd 222a 5ebb
00000330: 1b1d 1a3e 1a1a 4fbd 2a0a f9bd 2cda 7a3e
00000340: 7de0 b8bd f2f1 aabe 46df 8e3e 706d 163f
00000350: f902 ac3d 1952 2fbd f1c4 87be 1fd3 263e
00000360: e556 533f 8bd5 79bf 25ed 83be 9740 88be
00000370: ece6 98bc 5532 ff3d 7d7f 163e fc0c 48bd
00000380: 4f07 32bd 457f 45be 41da 353d f1e2 903c
00000390: 389a 17bd 83f6 2cbd f8f9 d0be b31a a8be
000003a0: 4b61 723e 5cc6 07bf 6780 e13e 65c5 c3bd
000003b0: 36d3 b7be dd23 a03d fca2 bebd 915c 8a3d
000003c0: 879c a13c c910 563d 21ff 143e 266e 11be
000003d0: e41c bc3d 90d6 bb3d 17c9 213d 0fbc cf3c
000003e0: a231 6a3d e32e febd 34e9 d73e 748d 17bf
000003f0: cb5e 36be cd2e 82bc 0ff0 f6bb bb98 223e
-0.024749419 -0.50288266 -0.72415006 -0.0096338615 0.008534396 -0.032650545 0.06883401 -0.35960028
0.27829346 -0.49968585 -0.57853043 -0.47841257 -0.38098118 -1.2996106 -0.005527693 -0.034469344
-0.07991991 -0.025481913 0.15443356 0.0066386545 -0.1340304 0.21037814 -0.19123541 0.22161609
-0.05809212 -0.118792236 -0.22571683 -0.012838546 -0.3018674 -0.05882046 0.18991476 0.33889186
-0.22705553 0.12829089 0.11382075 -0.40647453 0.8867607 0.060402583 -0.42136118 -0.19046932
-0.00789146 0.07621655 -0.13493519 0.013748403 -0.18803984 -0.50442773 -0.08393395 -0.14672531
0.059950862 -0.105439655 0.09481685 -0.15067956 0.04462857 -0.059634488 -0.2697946 -0.5179793
0.38459212 0.013840397 0.01924442 0.20234115 0.0043889997 -0.06399801 -0.18989524 0.33596736
0.056143705 0.4581646 -0.31142688 -0.059612 0.3192557 0.0016856153 -0.010925187 -0.17471184
0.34417695 -0.08563738 -1.0791851 -0.042108104 0.15279764 0.022012683 -0.009328386 0.067497574
0.039492615 0.10749806 -0.05606106 0.07140238 0.0199345 0.13578478 0.13889936 -0.18467574
0.066239834 -0.21580784 -0.2016762 -0.044773363 -0.08986773 -0.03470794 0.031680647 0.4085683
-0.0403451 -0.0747912 -0.15999609 0.019020215 0.40415663 0.034377445 0.23155496 0.03702411
-0.093744904 0.29903612 -0.019223412 -0.5283666 -0.06498999 0.81785923 -0.051930305 0.34158015
-0.12265522 -0.23203698 0.03927964 -0.017047077 -0.12832029 0.430385 0.04256875 -0.012601351
0.577681 -0.10831866 0.05501668 0.14966108 0.041227963 -0.105541036 -0.08972059 0.032660153
-0.06830146 0.047009856 -0.07602282 -0.05330273 -0.050764155 0.06035654 -0.53520864 0.09255928
0.9619212 0.029592998 0.001506477 -0.105420075 -0.2837359 0.6495144 -0.12612443 -0.10256877
-0.27191085 0.36477426 -0.09452458 -0.03744919 -0.47963017 0.27360234 0.17553948 0.61542714
0.1727543 -0.13505766 0.2368997 0.1176814 0.06854204 0.079616986 -0.07983198 -0.1135972
-0.11816254 0.07412905 0.1195182 -0.44684505 -0.16396636 -0.3553469 0.33879283 0.15690234
-0.36921307 -0.023272298 -0.38677236 -0.04421112 1.1263291 -0.11667896 -0.10528375 0.02551838
0.29745397 0.15054023 -0.029381743 0.0010773587 0.055469614 0.24885303 0.18985505 -0.15036851
0.0007156275 -0.16647029 0.14022505 -0.024823602 -0.19283903 0.20202841 -0.053207062 0.23859504
-0.15670024 0.11463132 0.12173275 -0.05940708 0.02192773 -0.24317855 -0.5003299 -0.35246146
0.08602099 0.24818358 -0.049775746 -0.0033899625 0.15050165 -0.050562 -0.12160142 0.24497288
-0.09027193 -0.33387715 0.2790472 0.5876074 0.083990045 -0.042802904 -0.26517442 0.16291474
0.82554466 -0.97591466 -0.25766864 -0.26611778 -0.0186648 0.12460772 0.1469707 -0.048840508
-0.043464 -0.1928683 0.044397596 0.01768634 -0.03701231 -0.04222728 -0.4081571 -0.3283287
0.23669927 -0.5303705 0.44043276 -0.095591344 -0.3590333 0.078193404 -0.093084306 0.06755937
0.019727958 0.0522621 0.14550449 -0.14202175 0.09185198 0.09171784 0.039498415 0.025358228
0.05717624 -0.12411287 0.42170107 -0.59200215 -0.17809598 -0.015891457 -0.0075359414 0.15878575

actor.2.bias f4 [256]
00000000: 6ea2 01bf 93a3 ffbe 4a84 78be 955d aebc
00000010: fc7c 6fbe dde8 73be 1e91 883d 8f46 afbe
00000020: d0fe fabe 65e2 3cbe c165 c8bc 44ee 92be
00000030: 422d 3cbd 9a83 9a3d a2b2 09bd a778 b4be
00000040: ec70 83be 6fee 94be 3438 23bd ddc2 2cbe
00000050: ad8f c3be 6a18 87be 74a0 73be 3416 fdbc
00000060: 8ea9 5cbe 96ac 58be ce31 1fbe 6a88 42bc
00000070: 054e 28bd 0bcd a3be bf18 26bf 2988 b1be
00000080: 7267 18be 1eaa eabd 673f fbbe 1adc 87be
00000090: 8f20 36be 4642 dfbe 9f06 80be 49a8 c1bd
000000a0: 8521 84be 04ea 61bd 9663 eebd 86f2 0cbf
000000b0: 90d0 46be d3b6 4cbe 9601 1ebf 828c 8dbe
000000c0: 7b28 10be 8efb 13be ca94 92be a34d 3fbe
000000d0: 36f6 83be 0682 dabe 2518 2cbe aaca 1bbe
000000e0: 8c3a a6be 127b 3abe abcc 23be 6710 f1be
000000f0: abe9 87be 660e bbbd cf2c 14bc f117 2dbf
00000100: 2e65 61bf d9a9 bebd a417 a4be 9f3e 57be
00000110: fd93 2abf 7a44 4abe 8469 5cbb adb4 acbe
00000120: f5a4 f2bd bfe8 babe e79b 95bc 7d6b 08bf
00000130: 1e9b 09be cf35 bbbf 07e4 64be dfa6 8bbc
00000140: 12f9 90bd caa7 79bd ef8b 91be 2e86 1d3a
00000150: b7ab 1cbe cee2 eebd 4b51 35be 65e9 c1be
00000160: 78b8 31be 3600 04be 1bea 00be 0c3c 0abf
00000170: eda5 afbe 8732 92be 7956 43be d110 8bbe
00000180: 83c2 02bf 321d a6be 085d 74be e148 50be
00000190: 1f3d 013e 97d2 f4be 03b8 76bd c40b e4be
000001a0: 84e9 86be e48c 69be be79 03be 2d96 8ebe
000001b0: ef07 d4be 6e26 14be d139 ac3c 726c 81be
000001c0: d1a7 61be 20a2 0fbe cff1 68be 1d13 8fbd
000001d0: 50ab aabd b8fd 8cbe b0c7 58bd 1d70 24bf
000001e0: ceee 11be 3c4d 03bd 9466 45ba b973 a0be
000001f0: 91d4 fdbe 1a70 a2be 549e 58be d817 2abe
00000200: 4b93 3bbd 0885 b7be 6b47 133c 18d0 8dbe
00000210: 7991 9cbe c6e5 cbbd e888 0c3e 2722 c9be
00000220: 9d4a 52bf 81de 43be e204 d5bd 9b81 aabd
00000230: 02b2 f63b 7e86 59be 0102 3bbe 0ccf c5bd
00000240: 6e6d 52be 5124 18be c848 8bbf 5eb8 e3bd
00000250: 3f5d 86be b23c 37be 7dbe dbbe e724 74bf
00000260: 25f8 d2bd 8fb4 10bf ee6e 98bb 4172 bcbe
00000270: 1a63 fabd a7ae b63d 3fb0 1fbe 6e7c 8fbe
00000280: 5076 6cbe e54e abbe deab 60be 2928 97bd
00000290: cd67 a0be 4da4 d1be f19a 22bd d911 8dbe
000002a0: 7792 99be 8b57 f03d 7af4 01be be9a b7be
000002b0: eb2e 15be c055 18be 65f4 77be dafa 3abe
000002c0: 4519 0cbe dccf f8be f24a 0fbe 4a9f 5fbe
000002d0: 0658 81be 87c1 273e 1ff5 a2be e9cd 9fbe
000002e0: c29b e2be 4dca 84be a572 23be a33a 6cbe
000002f0: 47ed be3d 9061 59be b66a 32bf a9e5 58bd
00000300: 7e8e a8be d836 cdbe b743 89be a277 83be
00000310: aebc 023c 1c6b 063d 7234 7ebe b9c5 0bbe
00000320: ed07 b0be 3930 aabe 3e8d 43be 205b 81be
00000330: a3ed 00be ec3e acbe 2bf9 85be 15b7 c8bd
00000340: abea 2ebe 1d17 ebbd f4b3 16be 3df6 d7bd
00000350: c40d 5fbd bf50 51be 683c 65be f0d1 483a
00000360: 7f29 e9bd 5523 eebe e1d1 43be 25cd 5abe
00000370: d8b4 80be 5283 c5bd 5862 ccbe 82ae 14bf
00000380: ad9f 3abe d244 f93d b580 a6be f4fc 6fbe
00000390: d23d ef3b a616 b23c ec8f 29bd a823 80be
000003a0: 681c c8be 0f70 efbe ea72 21be 9b72 09be
000003b0: ea72 a1be 9e6b 39bd d06c 6ebe a079 68bd
000003c0: 632d 2cbe a445 73bc ecca aebe 7fb0 c6bd
000003d0: 7148 21bf 80be 80be 2186 b7bd d3d8 5fbe
000003e0: a364 83be a465 e6be d2a7 5bbe 0ae9 d33e
000003f0: 1c51 ebbd c035 9ebd 6499 a2be 74e9 b8be
-0.50638473 -0.49929485 -0.24269214 -0.021284858 -0.23387522 -0.23819299 0.06668304 -0.3423352
-0.49022532 -0.18445738 -0.024462583 -0.28697407 -0.0459416 0.07544632 -0.033617623 -0.352483
-0.2567209 -0.2908816 -0.03984852 -0.1687121 -0.38195553 -0.26385814 -0.23791677 -0.030894376
-0.21549055 -0.21159586 -0.15546343 -0.011873344 -0.04109003 -0.31992373 -0.6488151 -0.34674194
-0.14883211 -0.114582285 -0.4907181 -0.26535112 -0.17785858 -0.4360525 -0.25005051 -0.09455926
-0.25806823 -0.055154815 -0.11640088 -0.5505756 -0.19415498 -0.19991617 -0.6172117 -0.2764626
-0.14077942 -0.14451429 -0.28629142 -0.1868196 -0.25773782 -0.42677325 -0.16806085 -0.15214029
-0.32466543 -0.1821101 -0.15996043 -0.47082826 -0.26545462 -0.09133606 -0.009043886 -0.67614657
-0.8804501 -0.093097396 -0.32049286 -0.21019982 -0.6663206 -0.19752684 -0.0033632228 -0.33731595
-0.11847869 -0.36505696 -0.018262817 -0.53289014 -0.13438079 -1.4625796 -0.2235261 -0.017047344
-0.070787564 -0.06095103 -0.28427073 0.0006009069 -0.15299879 -0.11664353 -0.17706792 -0.37873378
-0.17355525 -0.12890705 -0.12589304 -0.53997874 -0.3430628 -0.28554174 -0.19075955 -0.27161267
-0.5107805 -0.3244415 -0.23863614 -0.20340301 0.12620972 -0.47816917 -0.06023408 -0.44540226
-0.26350033 -0.22807652 -0.1283941 -0.2784895 -0.41412303 -0.14467785 0.021023663 -0.2527805
-0.22036673 -0.1402669 -0.22748493 -0.069860674 -0.083334565 -0.27537322 -0.05292481 -0.6423357
-0.14251253 -0.03205608 -0.0007530239 -0.3133829 -0.49576238 -0.31726152 -0.21154147 -0.16610658
-0.045794766 -0.35843682 0.008989195 -0.27697825 -0.30579737 -0.09955935 0.137241 -0.3928387
-0.821451 -0.19127847 -0.10401322 -0.083255015 0.0075285444 -0.21242711 -0.18262483 -0.09658632
-0.20549557 -0.14857604 -1.0881586 -0.111191496 -0.26243016 -0.17894247 -0.4291877 -0.9536881
-0.10301236 -0.5652551 -0.0046518957 -0.3680592 -0.122259334 0.08920031 -0.15594576 -0.2802462
-0.23092008 -0.3345863 -0.21940562 -0.07380707 -0.31329194 -0.40945664 -0.039698545 -0.2755268
-0.29994556 0.117354475 -0.12690917 -0.35860246 -0.14568679 -0.14876461 -0.24214323 -0.18259755
-0.13681515 -0.48596084 -0.13993433 -0.21838108 -0.2526247 0.16382419 -0.31827638 -0.31211784
-0.4425946 -0.25935593 -0.15961702 -0.23069243 0.09322601 -0.21228623 -0.6969408 -0.052953396
-0.32921213 -0.40080905 -0.26809475 -0.2567721 0.007979555 0.03281699 -0.24824694 -0.13649644
-0.34381047 -0.33239916 -0.19096848 -0.25264835 -0.12590651 -0.33641756 -0.26166663 -0.09800545
-0.17081706 -0.11479018 -0.14717084 -0.10545013 -0.054456487 -0.20440958 -0.22386324 0.00076606777
-0.11384868 -0.4651133 -0.19123031 -0.21367319 -0.25137973 -0.09644188 -0.3991878 -0.5807878
-0.18224974 0.121713296 -0.3252007 -0.23436338 0.0073010707 0.021739315 -0.04139702 -0.25027204
-0.39084172 -0.4676518 -0.15766492 -0.13422625 -0.31532985 -0.045268647 -0.23283696 -0.056756616
-0.16814189 -0.014848147 -0.34139192 -0.09701633 -0.6300116 -0.2514534 -0.0896113 -0.21860056
-0.25662717 -0.4499942 -0.21450737 0.41388732 -0.1149008 -0.07725096 -0.31757653 -0.3611561

actor.4.weight f4 [128, 256]
00000000: ada8 05bf 6484 9fbe 96cc 44be d85e 003e
00000010: 1942 603d 4e60 ef3c 63bc 493e 60c1 033e
00000020: bbf3 173e fe9b 91bd 276f c73c 18bd 1f3e
00000030: 10b9 0ebd bc8e b7bd f10a 79be d3ad 60bd
00000040: 9e73 f73d 41c0 04be 3016 d73d 96dd 83be
00000050: af96 2c3e 91fd 16bd 592c 023d 17fa 05be
00000060: 8696 903e 3443 e6bd fa04 d03d 1ad7 b3bd
00000070: 65d0 29be e1db 1bbf c3a5 f23e 6fb5 27bf
00000080: 34c7 533c 02c8 b2bd 553e 193e e5ad 82bd
00000090: edd0 793e 11d7 b2be 8cce 8d3e ce4c e93e
000000a0: f23f c73d bc74 943d 7fc6 c1be 9151 3bbd
000000b0: 4be8 ee3d 3054 903e 1ce0 df3e 7339 45be
000000c0: b70a 8cbc 6d17 51be 87b4 ec3d d2d2 d53e
000000d0: 13e6 c43d b569 16be e719 80be f335 5abd
000000e0: ea73 2f3e e24e eebd 920d 8b3e 2b29 b23d
000000f0: 65ef 733e dd91 6abe 8acd 9e3c 2d0a 083e
00000100: 2b4b 873e 2e51 d63d e720 e73c c46e 68be
00000110: c858 783c 158c 36bc 89cf 6bbd 5a3b df3e
00000120: b5c6 4a3c 506e aebe 87cb 86be 1194 41be
00000130: ffa0 88bd 1220 a63e fe6b 1cbe 764f 8c3e
00000140: 0c28 01bf b202 f23d 3519 b8bb e11f 7abe
00000150: 3d80 12be bb6d abbd f0a4 983d 95e9 b8be
00000160: 3157 3abe 987a 20be a5ff 06be 0fe5 35bb
00000170: 4fcd f2bd f590 abbe 4d44 373d 6199 62be
00000180: 7370 44be 9d94 1fbd b966 21be 4efe aa3c
00000190: 741a 95bf 33e0 a33e 4773 783e 2862 7dbf
000001a0: cc6c 4d3d 5276 2d3e ed1b 24be c64c b7bb
000001b0: f550 84bd dc2c 93be a217 483e 3e22 493e
000001c0: 6329 a2bd f310 1ebd a3a2 e83d 9cb4 803e
000001d0: 56b8 a13d d2bc 22be 3370 81bd cd49 3cbc
000001e0: 3a69 f63d dfc0 bdbd 57da ba3c 5784 ffbd
000001f0: bd0b cf3d fb5d dfbe 7993 34be 24d9 e83d
00000200: 48a4 0f3d 4c77 a93c 197a 1fbc 1b94 cdbd
00000210: d1f0 493e d0fc 303e 35ef 20be 6b48 3cbe
00000220: 3259 453e c087 8c3d 4cc8 c3bd be55 f8be
00000230: 7bce 1e3e 339d 783d cfab cf3d 9dfb 4a3e
00000240: 7f1d 473e 842e dc3d 9e26 663e 6cb9 01be
00000250: 754f d33e 2c2e 423e b990 8dbe e2f6 fdbc
00000260: 8119 e73d 1f51 de3e 1cde 37be 674a edbd
00000270: cd11 00be 56df f6be c1f3 663e 7166 5c3b
00000280: 86f9 1a3e 9a7e 47be 8f2b 773e 8259 b0bd
00000290: a37d f0be a2df 5e3e ab03 42be 641a 2abe
000002a0: e748 103e 6bd5 ad3d 65f6 f1bd a54c b8bd
000002b0: 5d4d acbe 3aa4 f4bc e3b2 95bc 6009 a13d
000002c0: 7292 ccbe 379a 943c 5b42 f3bd af13 a3be
000002d0: c8e6 593d 0ca9 a7bd dd96 2b3e 642e 0abc
000002e0: 1f2c 123e f286 36be 73d1 12be b9d9 bcbd
000002f0: f633 3b3d 7292 b83b d619 d33e 1dea e93e
00000300: 51a3 813e 2d38 5f3c 96b7 e63c 5f29 073e
00000310: 59b0 81bd 05fb a53d 5e9d 0a3d a7fb 273e
00000320: 232f 9ebe 99d9 1b3e 93e3 74bd e133 f43c
00000330: 3e4c a2be 9bec 25be 54a4 cdbd dac5 4d3e
00000340: 55ef 123e c10c 28be e5b2 d7be 7d3f b83d
00000350: 9801 143e 13b8 12be fef4 6b3e 83b0 d3be
00000360: c2c2 95be f00a f2bd cf73 913c 88a4 bcbe
00000370: 0737 943d 6fd2 23be 06d9 de3d 4974 013e
00000380: 813a 4c3d 3e3f bbbd 3a6b da3e 7bf8 573e
00000390: 923e eebc b515 053b 9eeb a0be 8220 f43d
000003a0: dae7 b8bd a52b 1abe d6f8 2c3d bb46 6fbe
000003b0: a0c5 343e 7711 963d 2f1b 26be d361 3e3e
000003c0: 02e0 0a3e 14e7 7dbd a47f 76bd 1ef4 b3be
000003d0: d252 ec3d b7ad 163e cb1e 9f3e 60e7 8c3a
000003e0: c1fc adbc 1cf6 233e da44 943e 7401 37be
000003f0: 4e17 723e 719b dcbd 0203 a6be 7ce3 193e
-0.52210504 -0.31155694 -0.19218668 0.1253618 0.054750536 0.029220726 0.1970077 0.12866735
0.1483907 -0.07109831 0.024344994 0.15599477 -0.034844458 -0.08962771 -0.2432058 -0.05485327
0.12082599 -0.12963964 0.10502279 -0.25754994 0.16854356 -0.036862914 0.031780574 -0.13083683
0.2823984 -0.11243287 0.10157199 -0.08781262 -0.16583402 -0.60882384 0.4739209 -0.6551122
0.012925912 -0.08729555 0.14965184 -0.06380824 0.24396105 -0.34929708 0.27696645 0.4556641
0.097289935 0.07248828 -0.37846753 -0.045732085 0.116654 0.2818923 0.4372567 -0.19260196
-0.017094953 -0.20419092 0.1155787 0.41762406 0.09614196 -0.14688762 -0.25019762 -0.053274106
0.17134061 -0.116361395 0.2715879 0.086992584 0.2382179 -0.22907205 0.019385118 0.13285132
0.26424536 0.104647025 0.028213931 -0.22698504 0.015157886 -0.011141797 -0.057570968 0.4359997
0.012376477 -0.34068537 -0.26327154 -0.18904139 -0.066713326 0.32446343 -0.15275571 0.27404374
-0.5045173 0.1181692 -0.0056182393 -0.24426223 -0.14306732 -0.08370539 0.07453334 -0.3611571
-0.18197323 -0.15671766 -0.13183458 -0.0027754938 -0.11855566 -0.3350903 0.04474287 -0.22128822
-0.19183521 -0.038960088 -0.15761842 0.020873215 -1.1648698 0.32006988 0.24262725 -0.989779
0.050152585 0.16939667 -0.16026278 -0.005593869 -0.06460754 -0.28745162 0.19540265 0.19641969
-0.0791805 -0.038590383 0.113591455 0.25137794 0.078964874 -0.15892342 -0.063202284 -0.011492205
0.12031789 -0.09265303 0.02280919 -0.12476414 0.10109661 -0.4362639 -0.17634381 0.11369541
0.03506878 0.020686768 -0.0097337 -0.100380145 0.1972077 0.1728394 -0.1571625 -0.18387
0.19272307 0.0686183 -0.09559688 -0.48502916 0.15508454 0.06069679 0.10140192 0.19822545
0.19444846 0.1075106 0.22475669 -0.12668389 0.41271558 0.18962926 -0.27649477 -0.031001512
0.11284161 0.43421265 -0.17955822 -0.11586457 -0.1250679 -0.48217267 0.22553922 0.0033630396
0.15134248 -0.19481888 0.2413771 -0.08610822 -0.46970853 0.21764997 -0.18946712 -0.1661163
0.1409031 0.08487972 -0.11814574 -0.08998994 -0.33652773 -0.029863466 -0.018273776 0.07863116
-0.3995548 0.018139942 -0.11877891 -0.31850955 0.053198606 -0.0818654 0.16756769 -0.008433912
0.14274643 -0.17824915 -0.14337711 -0.09221215 0.04570385 0.005632692 0.4123065 0.45686427
0.25319913 0.013624233 0.028163712 0.13199376 -0.06332464 0.08104519 0.033841483 0.16404592
-0.30895337 0.15219726 -0.059787344 0.029809894 -0.31698793 -0.16203539 -0.10041109 0.20095006
0.1434911 -0.16411115 -0.42128673 0.089964844 0.14453733 -0.14328031 0.23042676 -0.41345605
-0.2925015 -0.118184924 0.017755417 -0.36844277 0.07237058 -0.15998243 0.10881238 0.12642016
0.04986048 -0.09142922 0.42659932 0.21090882 -0.02908257 0.0020307128 -0.31429762 0.11920263
-0.09028597 -0.15055712 0.042229496 -0.23366825 0.17653513 0.0732755 -0.16221307 0.18592004
0.13562015 -0.06198795 -0.06018032 -0.35147184 0.11539234 0.14714704 0.3107818 0.0010750107
-0.021238687 0.16011852 0.2895878 -0.17871648 0.23641703 -0.107718356 -0.3242417 0.15028185

actor.4.bias f4 [128]
00000000: c6a9 b3be aebe 1bbe 2039 21be e408 0fbf
00000010: fb68 cebe b5da c1be aa9a bebe 54ad 8cbe
00000020: 3fe1 aabe f633 83be 2d2b 23bf 4b47 4abe
00000030: d458 50be 0c65 8bbe 3397 afbe b0f4 7cbe
00000040: b6a5 b6be 3f8a 63be 42b1 79be adc6 0fbf
00000050: 9ba4 1cbe 72aa 8abe 6b52 09bf ff43 1dbf
00000060: 1956 8dbe 24e9 cbbd 096b eabe 4001 2bbe
00000070: 931c bfbe f497 d8bc b183 9dbe 0192 dcbe
00000080: b51d c7be 7db1 e4be c83c bfbe 7fc9 46be
00000090: c7f9 5dbe 3865 bebe 26ea c9be 923c 94be
000000a0: 7ffb 1fbe 0dc7 bdbe c807 84be a8d1 86be
000000b0: 09bf a9be 7c60 a8be ef1e aabe e4f4 2fbe
000000c0: 1885 c2be 3601 98be 268b cabe 22af 17bf
000000d0: 0cca 75be 2478 84be 71e7 aebe da97 9ebe
000000e0: 5cf8 bebe 9798 b1be d8c9 babe f042 bcbe
000000f0: 6a57 58be 16ac a4be 3caa adbe 47b0 b9be
00000100: 40f5 e8be da47 adbe 338f 76be 86a9 2cbe
00000110: 3c0d d9be 0f2d 26be a047 acbe ab0c 63bf
00000120: 716e a1be 5f06 1bbe ca94 bc3c d53d 3bbe
00000130: 34e8 91be ae4c 57bd 810a 08bf 57bd a3be
00000140: c5d1 8ebe 8c40 aabe f7ae b5be 9961 1ebf
00000150: 4235 01bf 0cb4 e1be fa22 89be 70d5 d3be
00000160: 4f05 90bf 7ddb aebe fc9c dfbd 5e36 9bbe
00000170: 399c 40be 1a93 70be fba7 e1bd 6fb2 6dbf
00000180: 1eb7 bebe 7b22 cebd 43c7 92be 4ead 22bf
00000190: 4c0e 41be 1f10 a1be d649 ddbe 79af b2be
000001a0: 5590 ebbe 39b8 a4bd 4866 47be 112b 98be
000001b0: 3e77 72be ea78 bdbe 0954 32bf 841d bcbe
000001c0: 24a7 4bbe 6c2d 16bf 0dfd 85be af02 93be
000001d0: 92ed 5cbe 68e8 d3be a4af 51be 2e47 c3be
000001e0: 8723 89be 57c3 40be 930c 5abe 973e 72be
000001f0: 7361 50be f465 9fbe 64be c9be 70f2 4ebf
-0.35090464 -0.15209457 -0.15744448 -0.5587294 -0.4031447 -0.37862173 -0.37227374 -0.2747599
-0.33374974 -0.2562558 -0.63737756 -0.19753759 -0.20346385 -0.2722553 -0.34295043 -0.24702716
-0.35673302 -0.22220705 -0.24384025 -0.5616253 -0.15297167 -0.27083164 -0.53641385 -0.6143188
-0.2760475 -0.099565774 -0.45784786 -0.16699696 -0.37326488 -0.026439644 -0.30764535 -0.43080142
-0.38889852 -0.44666663 -0.3735106 -0.19412802 -0.21677314 -0.371866 -0.39436454 -0.2895246
-0.15623282 -0.37065926 -0.25787187 -0.2633183 -0.3315356 -0.32886112 -0.33226725 -0.17183262
-0.37992167 -0.29688424 -0.39559287 -0.59251606 -0.24002856 -0.2587291 -0.3416095 -0.3097523
-0.37298858 -0.3468673 -0.3648212 -0.3676982 -0.21127096 -0.3216254 -0.3391894 -0.362673
-0.4549961 -0.3384388 -0.24078064 -0.16861543 -0.4239291 -0.16228126 -0.33648396 -0.88691205
-0.31529573 -0.15139149 0.023020167 -0.18285306 -0.2849747 -0.05256336 -0.5314103 -0.31980392
-0.27894416 -0.3325237 -0.3548505 -0.6186767 -0.5047189 -0.44082677 -0.26784497 -0.41373777
-1.125162 -0.3415183 -0.10918614 -0.30314916 -0.18809594 -0.23493615 -0.11018368 -0.92850393
-0.37249082 -0.100651704 -0.2866765 -0.6354569 -0.1885311 -0.31457612 -0.43220395 -0.348995
-0.46008554 -0.0804295 -0.19472611 -0.29720357 -0.236783 -0.37006313 -0.6965948 -0.3674127
-0.19887978 -0.5866306 -0.26169625 -0.28712985 -0.21575001 -0.4138825 -0.20477158 -0.38140243
-0.26784918 -0.18824516 -0.21293859 -0.23656689 -0.20349674 -0.31132472 -0.3940307 -0.8083868

actor.6.weight f4 [12, 128]
00000000: ce01 b3bc 5bb1 243c a9b2 4ebd b3c6 8abc
00000010: 7d34 083c 37a3 e0bc b5d2 f7bb 73eb 713d
00000020: e4bd 26bc 0586 f1ba 829c 8cbc ad2b b5bb
00000030: 854f 8dbb 0ade e9bb 14cd 8fbc c28d e6ba
00000040: af03 a7bc 0baa 073c 52fb 16bc 5dad 2a3c
00000050: 5884 30bd 3e60 923c ccc3 82bc 5a2f c3bb
00000060: 3d4c cb3c e8d4 7abd b18b 3f3c d387 973c
00000070: 8a73 6a3c a6dc 8cbb 1deb 063c 44e2 78bb
00000080: 3d3b 1abc 1f38 37bc 0815 8c3d f531 27bd
00000090: 452d 18bd 44ef c03a 20e7 ca3c 3342 49ba
000000a0: e72e b03c 558a 9d3b fe02 05bd 29b5 d3bc
000000b0: 3290 9e3c 54de 9e3c 66f6 53bc 7fd3 31bc
000000c0: 6212 adbc 6629 973d c517 5abc 6d4c c13d
000000d0: ebd3 5fbc 2c0f f03c 6a23 91bb 708c b83c
000000e0: 295d b23c 7c1b 3f3c 8c43 493c a23e 71ba
000000f0: 1e8d 4a3d a20c 063c 5c1f 96bc 01c4 af3c
00000100: e224 b7bc 7014 a4bb c8bf 9f3c 3644 9e3c
00000110: b1db 5b3a b3a1 2dbc 5ef8 17bc b280 26bc
00000120: 7c38 2b3c c86d 99bb 47aa d63b a726 8c3c
00000130: 2906 52bc 03b1 a9bb c443 7b3d 5acb 9e3b
00000140: 3929 563c 9228 5dbb 3395 3abc 5a3c a8bc
00000150: 192f 9a3c cb8e 7a3d 84c9 f53b e3c0 273c
00000160: e1aa cc3c 483a 563c a702 dcbc 8e2b 45bb
00000170: 19cf 8e3a 91da 1f3c 5e7f 4abc 0d85 dd3c
00000180: 4c27 b1bb 1381 ab3a d446 0c3c 5808 e23b
00000190: c68b 02bd 483d b93b 49c1 0abd 1014 653b
000001a0: baaa 14bc 49d2 aabb 09a6 673c 09c0 883b
000001b0: c472 05bd b60f 203a 8271 2d3c 542f b3bc
000001c0: 5bad 3f3c 396a e63c b78b 723b 65cc 403b
000001d0: 1dc9 72bd bf46 babc ce1a c73c 5b29 95ba
000001e0: d68e e83c c161 fbbc 93d6 b1ba 325b 4cbb
000001f0: f52a f9bc 108a 693b 3872 b4bc 5c10 09bb
00000200: 5628 883c 16de 5cbd dc19 e6bc e961 b13c
00000210: c45d 9fbc 7af6 183c deb0 043c bbdf 6dbc
00000220: 5d54 e139 8122 9e3c 4a71 8ebb 9a4d 0b3d
00000230: 5ed8 82bb 0e90 ccbb 8a47 78b8 cd41 a33b
00000240: d479 58bc d7d2 26bd 4c61 36bc 60fb 94bb
00000250: 3ea6 26bd d1bd 39bc 2bcd 80bc ec98 65bc
00000260: 8ab3 81b9 a458 6f3c 6c50 e53c cca8 9f3c
00000270: 3486 cc3c ec0c 21bd 3680 b53c ea3c 9bbc
00000280: fcc5 663c f4b7 dc3c 262a 4bbd 6acb e3bb
00000290: 22a8 a33c 2c16 cd3b 9981 1ebd d5ee 0e3c
000002a0: c04c 27bd 17d4 9237 401d 37bc 3310 83bd
000002b0: 3c86 a3bb 612d 97bc 8328 c43b 8551 6c3d
000002c0: 942d ba3c a4e6 83bc 3223 48bc 731c debc
000002d0: 29e6 32bc f891 443c eff8 56bb acef e1bc
000002e0: efb0 fd3c e060 bbbc 17f1 60bb 6d41 233d
000002f0: 9e8c 113d 7582 573b d02b 3d3d 069a 6d3c
00000300: e411 e3bc 61e7 583c 8afd 33bd 6c30 ceba
00000310: 85c0 9cba fba6 a93c 3f8b bdbc c3c0 f03c
00000320: 0a9d a6bc de47 443d 7fb2 5bbc 599c 203d
00000330: f1f1 abbb 10e1 ecbc 26bf d8bc 8aa5 ebbb
00000340: 0179 85bc 5612 00bc aa64 05bd 6850 3dbc
00000350: 8986 793c 7706 03bc 2250 54bb 20e6 89bd
00000360: 2be4 eebb a4d4 4dbc 343a ff3b b647 5fbc
00000370: e931 a0bc bbc8 25bc dbd0 da3c a64d e43c
00000380: a48a f23b 87ce c9ba 3f2a 1bbc 45bd ef3b
00000390: f163 383b c7fd c53c 3773 573d 63c2 cb3c
000003a0: f6f7 78bb 8e1e 77bb 0c02 083b 9a64 7b3b
000003b0: 8b79 a63d 5147 afbb 70bf a4bd 9b1f 963b
000003c0: 2a68 033c 45d2 cb3b 36a6 97bc 30dd d2ba
000003d0: 11d3 863b d6fd 653d 59b7 b33a 10ae f1ba
000003e0: e7d0 0e39 5b93 803c 0d55 12bd 0201 bebb
000003f0: a0d4 88bc 6ece dcbb e738 de3c bdcc 3fbd
-0.021851446 0.01005205 -0.050463352 -0.01694045 0.008313295 -0.027421577 -0.00756296 0.059062432
-0.010177109 -0.0018426782 -0.017164472 -0.005528888 -0.004312458 -0.007137065 -0.017553844 -0.0017589855
-0.020387499 0.0082802875 -0.009215193 0.01041731 -0.043094963 0.017868157 -0.015962504 -0.0059565725
0.024816627 -0.0612382 0.01169102 0.018497383 0.014309773 -0.0042987643 0.008234766 -0.0037976662
-0.009413538 -0.011182814 0.06839949 -0.040819127 -0.037152547 0.0014719744 0.024768412 -0.0007677406
0.02150674 0.00480775 -0.032473557 -0.02584322 0.019355867 0.019393124 -0.012937164 -0.010853647
-0.02112693 0.07380943 -0.013311331 0.09438405 -0.013661365 0.02930411 -0.0044292705 0.022527903
0.021772938 0.011664268 0.012284171 -0.00092027534 0.049450986 0.008181723 -0.0183255 0.021455767
-0.022356454 -0.005007319 0.019500628 0.019319635 0.00083869236 -0.010597634 -0.009275524 -0.010162519
0.010450479 -0.0046822764 0.0065510604 0.017108275 -0.0128188515 -0.005178572 0.061343923 0.0048460187
0.013071352 -0.0033746106 -0.011388111 -0.02053659 0.018821286 0.061171334 0.007500829 0.010238859
0.024983825 0.013075419 -0.026856733 -0.0030085775 0.001089546 0.0097567 -0.012359468 0.027040983
-0.005406296 0.0013084732 0.008561809 0.0068979673 -0.03187158 0.0056530572 -0.033875737 0.0034954585
-0.0090739075 -0.005213056 0.014138707 0.004173283 -0.032580152 0.0006105857 0.010586144 -0.021873154
0.011699046 0.028126823 0.0037009546 0.0029418704 -0.059273828 -0.022738812 0.024304774 -0.0011380123
0.028388422 -0.030686261 -0.0013567976 -0.0031182286 -0.030415991 0.003563527 -0.02202712 -0.0020914292
0.016620796 -0.053922735 -0.028088503 0.021653133 -0.01945389 0.009336108 0.008098809 -0.0145186735
0.000429782 0.019303562 -0.004347001 0.034009553 -0.003993078 -0.0062427586 -5.9194434e-05 0.0049822093
-0.01321264 -0.040728416 -0.011131596 -0.004546568 -0.040685885 -0.01133676 -0.015722832 -0.01401351
-0.00024738564 0.014608536 0.02799245 0.019489668 0.024966337 -0.039318964 0.022155862 -0.018949945
0.014085289 0.026943184 -0.049600743 -0.006951739 0.019977633 0.0062587466 -0.038697813 0.008723934
-0.04084468 1.7503318e-05 -0.011176407 -0.06399574 -0.004990367 -0.018454256 0.0059862747 0.05769493
0.022726811 -0.016101189 -0.0122154225 -0.027113175 -0.010919132 0.011997692 -0.0032802185 -0.027580105
0.030968158 -0.022873342 -0.0034323388 0.039857317 0.035534494 0.0032884155 0.04618436 0.014502054
-0.027718492 0.013238759 -0.043942966 -0.0015730984 -0.0011959231 0.020709505 -0.023137687 0.029388791
-0.020338554 0.0479201 -0.013409256 0.039211605 -0.0052473475 -0.028915912 -0.026458334 -0.0071913647
-0.01629305 -0.007816872 -0.032566704 -0.011554815 0.01522983 -0.007997147 -0.0032396396 -0.06733346
-0.0072903833 -0.0125629045 0.007788921 -0.013627937 -0.019555049 -0.010118659 0.026710918 0.027869057
0.007401781 -0.0015396633 -0.0094705215 0.007316264 0.0028135742 0.024168862 0.05260011 0.024872964
-0.0037989593 -0.003770742 0.0020753173 0.0038359524 0.08128651 -0.0053490777 -0.08044326 0.0045814044
0.00802044 0.0062201344 -0.018511873 -0.0016087648 0.0041145165 0.05615028 0.0013711258 -0.0018438715
0.00013619997 0.015695265 -0.035725642 -0.00579846 -0.01670295 -0.0067384755 0.027126743 -0.046826113

actor.6.bias f4 [12]
00000000: 36f5 83bd 4daa 0dbd 49a5 bf3d 6794 55bd
00000010: 5d28 e63d 9367 38be ce7d f53e cf8e a4be
00000020: 606f 20bb f46a 98be 5322 353e a8c6 debd
-0.06443255 -0.03458624 0.093576975 -0.05214348 0.112381674 -0.1800826 0.47947544 -0.32140204
-0.0024480447 -0.297691 0.17688875 -0.108777344
