src/ga_quadruped/policy/param_v2.onnx (onnx, 772885 bytes, 8 tensors)

actor.0.weight f4 [512, 52]
0	0xbe781557	-0.2422689
1	0xbefcff75	-0.49413648
2	0x3ef43094	0.47693312
3	0xbe574159	-0.21021022
4	0x3ef0e2a0	0.470479
5	0x3d20191c	0.039086446
6	0x3e10116d	0.14069147
7	0x3d9f9d6a	0.07793696
8	0xbe24e9ee	-0.16104862
9	0x3df2c112	0.118532315
10	0x3e32ef1a	0.17474023
11	0xbdbf1536	-0.093302175
12	0x3de96dc8	0.11397892
13	0x3d3cdfcd	0.04611187
14	0x3d027268	0.031847388
15	0xbdd8d676	-0.1058778
16	0xbe97103e	-0.2950458
17	0xbd1036c7	-0.03520849
18	0x3be76df4	0.007062668
19	0x3e94c090	0.29053164
20	0xbc269fdc	-0.010169949
21	0x3eb7d520	0.3590479
22	0x3e93e765	0.28887478
23	0x3eddfd47	0.43357298
24	0xbeefc9db	-0.4683369
25	0xbc8de384	-0.017320402
26	0xbe80ce79	-0.25157526
27	0xbe71d103	-0.23614888
28	0xbdb19ce0	-0.086725
29	0xbcb250a2	-0.021766964
30	0x3db08da5	0.086207666
31	0xbc7843a0	-0.015152842
32	0xbe7def73	-0.24798374
33	0x3d080fe6	0.033218287
34	0xbe6541dd	-0.22388406
35	0xbc2db75a	-0.010602796
36	0x3dcc84ab	0.09986242
37	0xbd50e35c	-0.050998077
38	0x3e02cc5c	0.1277327
39	0x3e6e6314	0.23279983
40	0xbc16560c	-0.009175789
41	0x3c7c7799	0.015409374
42	0x3be88635	0.007096077
43	0x3c946aaf	0.018117277
44	0xbc766ca4	-0.01504055
45	0x3d9f81c5	0.077884234
46	0x3cb80ba7	0.022466494
47	0xbd8c3929	-0.0684684
48	0xbd8ae0be	-0.067811474
49	0x3a0b4cc8	0.00053138705
50	0x3d42ab40	0.047526598
51	0xbde2e281	-0.110783584
52	0x3e5eb719	0.21749534
53	0x3ddc4c86	0.10756783
54	0xbe9d466a	-0.30717784
55	0x3db4e908	0.0883351
56	0x3d7df85e	0.06200444
57	0xbd43e9d8	-0.047830433
58	0x3e7e8e7b	0.2485904
59	0x3e65e43e	0.22450349
60	0xbd75849c	-0.05994092
61	0x3dc46705	0.09589962
62	0xbdd506a5	-0.10401658
63	0xbda7db3d	-0.08196113
64	0x3aafc67e	0.0013410596
65	0x3d957763	0.07298162
66	0xbc0692c5	-0.0082137035
67	0x3c77489b	0.015092994
68	0xbe3b71ea	-0.18305174
69	0x3e801f07	0.25023672
70	0xbe8703f4	-0.26370203
71	0xbd8ba681	-0.068188675
72	0xbe498380	-0.1967907
73	0x3cda1ecc	0.026626013
74	0x3eb6956b	0.35660872
75	0xbdc715e0	-0.09720969
76	0x3e374512	0.17897442
77	0xbe7fe644	-0.24990183
78	0xbdfe107d	-0.12405489
79	0x3de606cd	0.11231766
80	0xbe2d13b0	-0.16902041
81	0x3e742c94	0.2384513
82	0xbc3d7fe9	-0.011566141
83	0xbd99fdbc	-0.07519099
84	0xbf006d37	-0.5016665
85	0x3e554f8d	0.20831127
86	0x3b058889	0.002037557
87	0xbddd0969	-0.107928105
88	0xbd811e4e	-0.06304608
89	0xbd394304	-0.045229927
90	0xbd9bbe81	-0.07604695
91	0xbd87d07c	-0.06631562
92	0x3d88e40f	0.06684124
93	0x3e17793a	0.14792338
94	0xbd0d1beb	-0.034450453
95	0x3c786b06	0.015162235
96	0xbaba799d	-0.0014226917
97	0x3cf86e34	0.030325986
98	0xbcf44576	-0.029818278
99	0xbcee1c8c	-0.029066347
100	0x3e016176	0.12634835
101	0xbe0fc23b	-0.14038937
102	0xbdcf3cc6	-0.101190135
103	0xbd28e64f	-0.041235264
104	0x3d58e502	0.052952774
105	0xbd272f57	-0.04081663
106	0x3eda7f44	0.4267522
107	0x3e22b285	0.15888412
108	0x3e415849	0.18881334
109	0xbd28d51d	-0.041218866
110	0x3d5b01f5	0.053468663
111	0xbea1dd68	-0.31614232
112	0xbda324e8	-0.07966024
113	0xbe59c0db	-0.21264975
114	0xbde7ccc1	-0.113183506
115	0x3d575a56	0.052576385
116	0x3d4de9ad	0.05027168
117	0xbdd56a45	-0.1042066
118	0xbe06430b	-0.13111512
119	0x3cad227d	0.02113461
120	0x3dfd4e81	0.12368489
121	0x3d0d2b0b	0.034464877
122	0xbe1a440c	-0.1506502
123	0x3e48b888	0.19601643
124	0xbd15e3b5	-0.03659411
125	0xbe606dfd	-0.21916957
126	0x3dfd63b1	0.1237253
127	0xbd9097af	-0.07060181
128	0x3e971c3e	0.29513735
129	0x3e62688c	0.22110194
130	0x3e3dba5a	0.18528119
131	0xbe172492	-0.14760044
132	0x3de98985	0.11403183
133	0xbe28c5d1	-0.16481711
134	0x3e01cca0	0.12675714
135	0x3e1634fa	0.14668646
136	0x3d2350aa	0.03987185
137	0x3c5b1689	0.013372072
138	0x3e5f2da4	0.21794754
139	0x3e56aa83	0.20963483
140	0xbdf7aacf	-0.12093126
141	0xbd64b61a	-0.055837728
142	0x3d02d87d	0.03194474
143	0xbe21b254	-0.15790683
144	0x3cb88905	0.022526274
145	0xbbeeda2b	-0.0072891912
146	0x3cca57a4	0.024699993
147	0x3d6db220	0.0580312
148	0x3c03cb68	0.008044101
149	0xbd435b4e	-0.047694497
150	0xbda959ff	-0.082691185
151	0xbd3bb19a	-0.04582367
152	0x3cdc5922	0.02689797
153	0x3ca32bdb	0.019918373
154	0xbd781799	-0.06056938
155	0x3d848ff6	0.06472771
156	0xbe063931	-0.13107754
157	0xbec1717d	-0.37781897
158	0x3e83d390	0.25747347
159	0xbec62b77	-0.38705036
160	0xbe5d70fc	-0.21625131
161	0xbd78f74c	-0.060782716
162	0x3cd111af	0.025521128
163	0x3e3da226	0.18518886
164	0x3c68dc09	0.014212617
165	0x3d82313e	0.063570485
166	0xbdb58fa6	-0.088652894
167	0x3d5ab92e	0.053399257
168	0xbdd8daa1	-0.10588575
169	0xbdb8200f	-0.0899049
170	0xbbe09b01	-0.0068544154
171	0xbd9e8e7d	-0.07742021
172	0xbe5560a2	-0.20837644
173	0xbe5efed4	-0.21776897
174	0x3e356771	0.17715241
175	0x3e49195c	0.1963858
176	0x3eb107ee	0.34576362
177	0x3efada62	0.48994738
178	0xbe645bdb	-0.22300665
179	0xbe250af5	-0.16117461
180	0xbd056619	-0.03256807
181	0x3e21d646	0.15804395
182	0x3e0f65bc	0.14003652
183	0x3ea38680	0.31938553
184	0x3e1f2cec	0.1554448
185	0xbe71e650	-0.23623013
186	0xbc10cc99	-0.008837842
187	0xbe8b6a74	-0.27229655
188	0xbdd634f8	-0.10459322
189	0x3e91ac01	0.2845154
190	0x3d36f029	0.04466263
191	0x3e45075d	0.1924109
192	0xbe075724	-0.13216835
193	0x3c53b510	0.012921587
194	0xbc00a365	-0.007851456
195	0x3e6902e8	0.22755015
196	0x3d80c282	0.062870994
197	0x3da006cc	0.078137964
198	0xbb9c6f1b	-0.004773987
199	0xbd83adc1	-0.06429625
200	0xbb829789	-0.0039853496
201	0xbcfb2b45	-0.030660281
202	0x3d1bdc27	0.03805175
203	0x3d1ab9d2	0.03777487
204	0xbbb329a1	-0.005467609
205	0xbc9dcb62	-0.01926202
206	0x3d204845	0.03913142
207	0xbd2c54f8	-0.04207322
208	0x3d81a25f	0.06329798
209	0xbe8a2682	-0.26982504
210	0xbe84a0eb	-0.2590402
211	0xbe963144	-0.29334462
212	0x3e73d650	0.23812222
213	0xbd13e98f	-0.03611141
214	0x3e889094	0.26672804
215	0x3e71ec31	0.23625256
216	0x3d106095	0.035248358
217	0xbe18e866	-0.14932403
218	0xbe00e890	-0.12588716
219	0xbd281577	-0.041036095
220	0xbd906cfa	-0.07052036
221	0xbd28075e	-0.04102265
222	0xbdd56b63	-0.10420873
223	0x3ccc1316	0.024911445
224	0xbef14b3d	-0.47127715
225	0x3c225cde	0.009909837
226	0xbe5437be	-0.20724389
227	0x3e0bbd0c	0.13646334
228	0x3e2ee12e	0.17078087
229	0x3e9d8305	0.30764022
230	0x3e836933	0.25666198
231	0xbe3089de	-0.17240092
232	0xbd6dbb3c	-0.05803989
233	0x3ecd0f52	0.4005075
234	0xbea73be5	-0.32662883
235	0x3d9162f9	0.07098956
236	0xbc819b89	-0.015821235
237	0xbe69cd79	-0.22832288
238	0x3e05e7bb	0.1307668
239	0xbe6e91aa	-0.23297754
240	0x3e178961	0.147985
241	0x3b8d5efb	0.004314301
242	0xbe77a9c4	-0.24185854
243	0xbda9621f	-0.08270668
244	0xbc98c1c7	-0.018647088
245	0xbd37b20a	-0.044847526
246	0xbeb19a33	-0.34687957
247	0x3d1490e2	0.036270984
248	0xbcfbbcc1	-0.030729653
249	0xbdaeaecf	-0.08529436
250	0x3c0269a2	0.007959755
251	0x3c7ae86b	0.015314202
252	0x3db71527	0.08939581
253	0xbd86e55d	-0.06586716
254	0xbd4b8578	-0.049687833
255	0x3de1c7e7	0.110244565

actor.0.bias f4 [512]
0	0xbd8d6c43	-0.06905415
1	0x3d82c70e	0.06385623
2	0xbc121cd0	-0.008918002
3	0xbd89f281	-0.06735707
4	0xbdbe0a8c	-0.092793554
5	0xbbfa7567	-0.00764339
6	0x3d669f79	0.05630443
7	0x3d9e7ab0	0.077382445
8	0x3e30d4e3	0.1726871
9	0x3dc91187	0.09817796
10	0xbe46ebfe	-0.19425961
11	0x3e03c3fe	0.12867734
12	0xbcf60fbc	-0.0300368
13	0x3ddda62e	0.10822712
14	0xbd1b127a	-0.037859417
15	0xbcc2ced8	-0.023780271
16	0xbda2a510	-0.079416394
17	0x3d11953d	0.035542715
18	0x3d98c16d	0.07458768
19	0xbd39bf79	-0.04534862
20	0xbdba5636	-0.09098475
21	0x3d925425	0.071449555
22	0xbdd4ce6f	-0.103909366
23	0xbd8d4031	-0.06897009
24	0xbde7f638	-0.113262594
25	0xbd25fd00	-0.040524483
26	0x3d7700bb	0.06030343
27	0xbd9e4557	-0.07728069
28	0xbc850643	-0.016238337
29	0x3dc40eb7	0.09573119
30	0x3e17e184	0.14832121
31	0x3cc91a9f	0.024548827
32	0xbdc9c1d4	-0.09851423
33	0x3d1ced1e	0.03831207
34	0xbdcb053b	-0.09913107
35	0xbda66e53	-0.081265114
36	0x3e11781f	0.14205979
37	0xbdc17b2a	-0.0944732
38	0x3e0a7e4b	0.1352474
39	0x3d7aa566	0.061192892
40	0xbd961800	-0.073287964
41	0x3d3d8f70	0.04627937
42	0xbd267f3a	-0.040648676
43	0xbc52b56a	-0.012860635
44	0x3cee6a57	0.029103441
45	0x3bff6e3f	0.007795125
46	0x3de43d7c	0.1114454
47	0xbde7493b	-0.112932645
48	0x3de5b190	0.11215508
49	0x3d4756a2	0.048666604
50	0x3d42dca1	0.04757369
51	0xbd80303e	-0.062592015
52	0xbcb363e6	-0.021898221
53	0xbddb6bdb	-0.10713931
54	0xbde5cbc4	-0.11220506
55	0xbd1be077	-0.038055863
56	0xbcc48e20	-0.023993552
57	0xbe083260	-0.13300467
58	0x3d15b8e5	0.036553282
59	0x3d1f1cb6	0.03884574
60	0x3e335b17	0.17515217
61	0xbde242a9	-0.11047871
62	0x3b80cacb	0.003930425
63	0x3e147048	0.14495957
64	0x3cf21629	0.029551582
65	0xbe1509b2	-0.1455448
66	0x3d769a80	0.060205936
67	0x3dd7e11c	0.10540983
68	0x3db21e85	0.086972274
69	0x3bc5c143	0.0060350015
70	0xbe27765e	-0.16353747
71	0xbda74dc2	-0.08169128
72	0x3d419a70	0.047266424
73	0xbdc6c2c9	-0.09705121
74	0xbdb36bea	-0.08760817
75	0xbdcb849f	-0.09937405
76	0xbdb400e2	-0.08789231
77	0x3c2a735b	0.010403479
78	0x3cf4f959	0.029904054
79	0x3d44b072	0.048019834
80	0xbc668146	-0.014068907
81	0xbe2b0eea	-0.16704908
82	0x3dc539d7	0.09630173
83	0xbdb5856c	-0.08863339
84	0x3cdb49e5	0.026768634
85	0x3d9a22b2	0.07526149
86	0x3e0098f9	0.12558354
87	0x3d19a0d9	0.037506912
88	0xbda7ba3b	-0.081898175
89	0xbd79aa93	-0.060953688
90	0x3e206f64	0.15667492
91	0x3c7665a7	0.015038884
92	0x3cd647b0	0.02615723
93	0x3da1d6d3	0.079023026
94	0x3deb9aec	0.115041584
95	0x3d846dfa	0.06466289
96	0x3d7bb1b6	0.061448775
97	0x3d354a4d	0.044260312
98	0xbde42631	-0.11140097
99	0x3e0977e6	0.13424644
100	0xbaa8b73d	-0.0012871992
101	0xbd49a15f	-0.04922616
102	0xbd9e56f2	-0.07731427
103	0x3c817d36	0.015806776
104	0xbe160d53	-0.1465352
105	0x3ccb1a45	0.0247928
106	0xbdcaf4e4	-0.099099904
107	0x3ba9ff4a	0.0051879035
108	0xbda9b6a3	-0.08286788
109	0xbd50247d	-0.050816048
110	0x3da09d30	0.07842481
111	0x3e0ba58f	0.13637374
112	0x3c12c497	0.0089580035
113	0x3d8962c5	0.06708292
114	0x3c0e1bdc	0.008673634
115	0x3bcb466e	0.006203464
116	0xbde46f43	-0.11154034
117	0xbdaf96fd	-0.085737206
118	0x3db7fe48	0.08984047
119	0x3dbb0615	0.091320194
120	0x3c8e232e	0.01735076
121	0xbd21d212	-0.03950698
122	0xbde2bd95	-0.11071316
123	0x3d68c3be	0.0568273
124	0xbe2948e6	-0.16531715
125	0xbda515d0	-0.08060801
126	0xbd4d36e9	-0.050101195
127	0xbce3cb46	-0.02780689
128	0x3d9b14cd	0.07572327
129	0x3cdfa0eb	0.027298411
130	0xbdae17c4	-0.08500627
131	0xbd1ebbf0	-0.03875345
132	0x3e03ec5a	0.1288313
133	0x3dbb0c1c	0.09133169
134	0x3d845f95	0.06463543
135	0x3dc5310f	0.09628498
136	0xbca0289b	-0.019550612
137	0xbdd334f7	-0.103128366
138	0xbd7c82ad	-0.06164806
139	0xbdda48cf	-0.106584184
140	0x3da6c04f	0.08142149
141	0x3e04c2c5	0.12964924
142	0xbe330e09	-0.17485823
143	0xbc1bf3e7	-0.0095186
144	0xbccae91b	-0.024769356
145	0xbd56f52e	-0.052479915
146	0xbdc64dbb	-0.09682795
147	0x3d71b75c	0.059012756
148	0x3d9a0c8d	0.07521925
149	0x3a1faf8b	0.00060915266
150	0x3d751540	0.05983472
151	0xbc4daf86	-0.012554055
152	0xbda98409	-0.08277137
153	0x3c98620f	0.018601445
154	0x3dbedd2c	0.09319529
155	0x3d73a515	0.059483606
156	0x3dadff05	0.08495907
157	0xbb7d804b	-0.0038681205
158	0xbd880481	-0.06641484
159	0xbe1b5f85	-0.15173157
160	0xb904cb08	-0.00012664136
161	0xbdd6b619	-0.10483951
162	0xbd5967eb	-0.05307762
163	0xbdf4c44f	-0.119515054
164	0x3e023c09	0.12718214
165	0x3ddb7982	0.10716535
166	0x3c691c80	0.014227986
167	0xbd29dd5a	-0.041470863
168	0xbd1634c8	-0.03667143
169	0xbdb47c2c	-0.088127464
170	0x3d338e44	0.043836847
171	0x3c6eca94	0.014574666
172	0x3d1b82e0	0.03796661
173	0xbcba4a82	-0.022740606
174	0x3b2aa562	0.0026038517
175	0x3d8c986c	0.0686501
176	0xbdc1cb9e	-0.09462665
177	0xbd815701	-0.06315423
178	0x3cb88926	0.022526335
179	0x3e130b5c	0.14359802
180	0xbe396995	-0.18106683
181	0x3ddd2fe6	0.108001515
182	0x3c996d32	0.018728826
183	0xbdf1cd50	-0.118067384
184	0x3da68b11	0.081319936
185	0xbd229e70	-0.03970188
186	0xbe0becc6	-0.1366454
187	0xbd814b73	-0.06313219
188	0xbdcfd1cc	-0.101474375
189	0x3c912b3a	0.017720807
190	0xbcb00fb1	-0.021491857
191	0xbe1718ac	-0.14755505
192	0x3dec6c16	0.11544053
193	0xbd1cab30	-0.038249195
194	0x3dc66b5b	0.09688445
195	0x3d83be62	0.06432797
196	0x3dfb5c20	0.12273431
197	0x3dea3137	0.11435168
198	0x3dcba30c	0.09943208
199	0xbd476098	-0.048676103
200	0xbd72767e	-0.059195034
201	0xbda8f5f9	-0.082500406
202	0xbde0362e	-0.10947834
203	0x3d43d4c4	0.04781033
204	0x3d8c2c6a	0.06844409
205	0xbc518c4b	-0.012789796
206	0x3de2c133	0.11072006
207	0x3cdd95ac	0.027048908
208	0x3cc204da	0.023683954
209	0xbdd3aef7	-0.10336106
210	0xbd683ed7	-0.056700554
211	0xbd0ae071	-0.03390545
212	0x3d39bbd7	0.045345154
213	0xbd8f0518	-0.069833934
214	0xbe182178	-0.14856517
215	0xbcb5726c	-0.022149287
216	0xbd026390	-0.03183323
217	0x3d1eb4c4	0.03874661
218	0xbc98d6e3	-0.018657153
219	0xbbd72be0	-0.0065665096
220	0x3d6df041	0.058090452
221	0x3e069088	0.13141072
222	0xbd93a41d	-0.072090365
223	0xbc3055c2	-0.010762634
224	0x3dd17826	0.102279946
225	0x3bd42446	0.0064740507
226	0xbdb660e9	-0.08905203
227	0xbdff2b9f	-0.12459492
228	0xbd89bf63	-0.06725957
229	0xbdb8196d	-0.089892246
230	0x3d9672b3	0.07346096
231	0x3e09794d	0.13425179
232	0x3e15668a	0.14589897
233	0xbdab9009	-0.08377082
234	0xbd0d622c	-0.034517452
235	0x3d7daad9	0.06193051
236	0x3cdc6786	0.026904833
237	0x3de9f522	0.114237085
238	0xbd8435f1	-0.06455601
239	0xbd112462	-0.035435088
240	0x3d53cc3b	0.05170844
241	0xbd92623e	-0.071476445
242	0x3da5e22c	0.080997795
243	0xbd68577e	-0.056724064
244	0x3caabb95	0.0208414
245	0xbb8022c9	-0.0039103967
246	0xbcf708c1	-0.030155541
247	0xbc523394	-0.01282968
248	0x3df75d1c	0.12078306
249	0x3ca6e4c7	0.020372761
250	0xbd485579	-0.048909638
251	0xbcf08fc7	-0.029365433
252	0x3e0e795f	0.13913487
253	0xbcc70cf1	-0.024298163
254	0x3d293aea	0.04131595
255	0xbd69fc0e	-0.057125144

actor.2.weight f4 [256, 512]
0	0x3dc2a9f4	0.09505072
1	0xbd56c7ad	-0.05243652
2	0x3dc6b117	0.09701746
3	0x3c850642	0.016238336
4	0x3d668846	0.056282304
5	0xbdc25513	-0.09488883
6	0xbca3c84e	-0.019992974
7	0x3d14a5a2	0.036290772
8	0x3d7ac9eb	0.06122772
9	0x3d94476c	0.07240185
10	0x3ddf3f82	0.10900785
11	0xbe4c732e	-0.19965813
12	0xbccce8ac	-0.02501329
13	0xbbad290e	-0.005284435
14	0xba83ca35	-0.0010054769
15	0xbcb47283	-0.02202726
16	0xbd8edc47	-0.06975608
17	0x3ca2ae1a	0.019858409
18	0xbce5d75d	-0.028056795
19	0xbd6d794e	-0.057977013
20	0xbdbb5383	-0.09146788
21	0xbdd2ce6b	-0.10293277
22	0xbcb8a221	-0.022538247
23	0x3dcbf439	0.09958691
24	0x3c1fb15a	0.009746874
25	0xbe14cd3d	-0.14531417
26	0xbbef8f06	-0.007310751
27	0xbd662bb5	-0.056194026
28	0x3d977e4d	0.07397137
29	0x3d3be40c	0.04587178
30	0xbaad9979	-0.0013244591
31	0xbcff9965	-0.031201074
32	0xbdc3d6c8	-0.09562451
33	0xbe226a3d	-0.15860839
34	0x3d2167d6	0.039405666
35	0x3c7c64ea	0.015404919
36	0xbd9f4e64	-0.07778624
37	0x3d8a94c2	0.067666546
38	0xbdca8ea6	-0.09890489
39	0x3a22b15e	0.00062062393
40	0x3cbd7d7d	0.023131127
41	0xbd30f2b0	-0.043200195
42	0xbab9b9b6	-0.0014169726
43	0xbd26a4e4	-0.040684596
44	0x3a965eed	0.0011472382
45	0x3d076230	0.033052623
46	0xbcdc0452	-0.026857529
47	0x3dc1c07d	0.09460542
48	0x3d72a9ba	0.059243895
49	0x3daccd0f	0.08437549
50	0x3d74de77	0.05978247
51	0xbd570b58	-0.052501053
52	0xbe1218f2	-0.14267328
53	0xbe16663c	-0.14687437
54	0x3db58de3	0.08864953
55	0x3d3ff0c1	0.04686046
56	0x3d1b7174	0.037949994
57	0x3d2980b5	0.04138251
58	0x3d064fba	0.032790877
59	0x3dad545c	0.08463356
60	0x3d73b346	0.05949714
61	0x3da740f2	0.08166684
62	0x3d45f472	0.048328824
63	0xbe03be55	-0.12865575
64	0xbd97bfd2	-0.07409634
65	0x3c59cb6b	0.0132931275
66	0xbd12b70f	-0.03581911
67	0x3c0f3859	0.008741462
68	0x3dd645df	0.104625456
69	0xbda6dd8d	-0.08147726
70	0x3d57930a	0.05263046
71	0x3d209d66	0.039212607
72	0x3bc7a1fe	0.006092309
73	0x3dadd2d9	0.084874816
74	0xbda0b937	-0.07847827
75	0x3d0efee9	0.03491107
76	0xbd8934af	-0.06699502
77	0x3d2c24aa	0.042027153
78	0xbe275413	-0.16340666
79	0xbd2bc99c	-0.041940317
80	0xbda52870	-0.080643535
81	0xbd064872	-0.032783933
82	0xbc2c0cbe	-0.010501085
83	0xbd96eb8e	-0.07369147
84	0x3d2de333	0.042453002
85	0xbd91fb0d	-0.07127962
86	0xbd869791	-0.06571878
87	0x3dabd0b9	0.0838942
88	0xbda6682d	-0.08125339
89	0xbdc85cf7	-0.09783357
90	0xbd546a11	-0.051858965
91	0x3d23ce7e	0.03999185
92	0xbb974bda	-0.0046171965
93	0xbd16e3ad	-0.036838222
94	0x3bb41df8	0.0054967366
95	0xbd89c4b8	-0.06726974
96	0x3da25765	0.079268254
97	0xbd978e3e	-0.074001774
98	0x3c79e0b4	0.015251327
99	0x3ad391e0	0.0016141497
100	0x3bb57c7a	0.0055385204
101	0x3ceb7958	0.028744385
102	0xbdb83cc6	-0.089959666
103	0x3e056271	0.13025834
104	0x3c5c55fb	0.013448234
105	0x3da21269	0.07913668
106	0xbc138206	-0.009003168
107	0x3e11c5f8	0.14235675
108	0x3da8d240	0.08243227
109	0xbdb5357e	-0.088480935
110	0x3c37e3ec	0.011223774
111	0xbcb275e2	-0.021784727
112	0xbe000dba	-0.12505236
113	0x3cebcce0	0.028784215
114	0xbd61192a	-0.05495564
115	0xbd958bab	-0.0730203
116	0xbd9cd847	-0.07658439
117	0x3da52b4d	0.080648996
118	0xbe0b1b1d	-0.13584562
119	0x3dea0f8b	0.11428746
120	0x3d54b2cb	0.051928323
121	0xbe0d8dab	-0.13823573
122	0x3e2b7938	0.1674546
123	0x3dc67095	0.09689442
124	0xbd122889	-0.03568319
125	0x3ddb8bea	0.10720046
126	0x3daa6111	0.08319295
127	0x3d42ce78	0.047560185
128	0xbe402edc	-0.18767875
129	0x3c44b41a	0.01200583
130	0x3e0521f3	0.13001232
131	0x3d61aa80	0.055094242
132	0x3e469018	0.19390905
133	0x3ce43c77	0.027860863
134	0x3dd6e8ff	0.10493659
135	0xbc9a7b7b	-0.018857708
136	0xbcd76031	-0.026290985
137	0x3b27978c	0.0025572507
138	0x3e272f1d	0.16326566
139	0x3d35b280	0.044359684
140	0xbd7c2cf9	-0.061566327
141	0x3d7c1455	0.061542828
142	0xbd200b88	-0.039073497
143	0xbe0990fc	-0.13434213
144	0xbbfc9c4f	-0.007709063
145	0xbc64a2aa	-0.013954798
146	0x3d2c5313	0.042071413
147	0xbdbb5998	-0.09147948
148	0xbce3819f	-0.02777177
149	0x3ddd3f34	0.10803071
150	0xbe3f2926	-0.1866804
151	0x3dc563a9	0.09638149
152	0xbcd5efd2	-0.026115332
153	0xbe550be9	-0.20805325
154	0xbc549270	-0.012974367
155	0xbd510e38	-0.05103895
156	0xbd0dd428	-0.034626156
157	0xbc731083	-0.01483548
158	0x3db9f9ec	0.09080872
159	0xba4ee50c	-0.0007892407
160	0x3d002002	0.031280525
161	0x3d70c5db	0.05878244
162	0x3e038b08	0.12846005
163	0xbdae0242	-0.084965244
164	0x3e4227ee	0.18960544
165	0x3d18c642	0.03729845
166	0x3c9d7708	0.019221798
167	0x3e347473	0.17622547
168	0x3d3298e3	0.043602835
169	0x3cb45b5e	0.022016224
170	0xbd0c4422	-0.034244664
171	0xbda8e785	-0.08247284
172	0xbc763f6e	-0.015029771
173	0x3e3d90a0	0.18512201
174	0xbc0c8323	-0.008576187
175	0x3daa345a	0.083107665
176	0x3c6b91d2	0.014378028
177	0xbd79c735	-0.060980994
178	0x3df45b08	0.11931425
179	0xbc84ffbc	-0.016235225
180	0x3dff833f	0.12476205
181	0x3c59ed7d	0.0133012505
182	0xbc99c424	-0.018770285
183	0x3d8d1d58	0.068903625
184	0xbd994edb	-0.074857436
185	0xbd9d115f	-0.07669329
186	0x3d9765fb	0.07392498
187	0x3d6dc8cb	0.05805282
188	0xbe17bd6c	-0.14818352
189	0x3dc39d9e	0.095515475
190	0xbba4cf46	-0.0050295917
191	0xbc819cc1	-0.015821816
192	0x3e33ee42	0.17571357
193	0x3c94d333	0.018167114
194	0x3d690c4e	0.0568965
195	0x3d76fcaa	0.060299553
196	0xbd3c0fb6	-0.04591342
197	0xbc4d1b84	-0.012518767
198	0x3da82032	0.08209266
199	0xbb5b5c24	-0.0033471668
200	0x3cb2b28f	0.021813659
201	0xbd0a5d98	-0.033780664
202	0xbdae561d	-0.085125186
203	0x3d83feae	0.06445061
204	0xbda9e452	-0.08295502
205	0x3dcbf5ab	0.09958967
206	0x3d1251bf	0.03572249
207	0x3d172696	0.036902033
208	0xbdf2ae6a	-0.11849673
209	0xbdc7ac4b	-0.09749659
210	0x3cda72cb	0.026666066
211	0xbdd7de3a	-0.10540433
212	0x3c87cf49	0.016578333
213	0x3cc8f177	0.024529202
214	0x3dfc20c2	0.123109356
215	0x3cf755e3	0.030192321
216	0x3dfc177f	0.12309169
217	0xbcf92787	-0.030414356
218	0xbd2ec54c	-0.042668626
219	0x3d95576b	0.07292064
220	0xbdbae96b	-0.09126552
221	0xbd767d9d	-0.060178388
222	0x3cf84b51	0.030309351
223	0x3d755d8f	0.059903678
224	0xbc85a079	-0.01631187
225	0xbb054953	-0.0020337894
226	0xbbd7b8e5	-0.0065833204
227	0x3d0fb94c	0.035088822
228	0xbda99319	-0.0828001
229	0x3d62b783	0.05535079
230	0x3d98af66	0.074553296
231	0x3d201983	0.03908683
232	0xbd614241	-0.054994825
233	0xbc26f1af	-0.010189458
234	0x3d250013	0.040283274
235	0xbdb67d3b	-0.089106046
236	0xbd727cfd	-0.05920123
237	0x3bf00ade	0.007325514
238	0xbd4322e7	-0.047640707
239	0xbc59526d	-0.013264281
240	0x3c194a7b	0.009356136
241	0x3de3fe25	0.111324586
242	0x3bf9dcde	0.0076252064
243	0xbc7ba686	-0.0153595265
244	0xbd92149a	-0.07132836
245	0x3de143d2	0.10999264
246	0x3dc743f6	0.097297594
247	0xba85b62b	-0.0010201385
248	0x3c40886c	0.0117512755
249	0xbe568349	-0.20948519
250	0x3ca4e2bd	0.020127648
251	0x3e84ec4d	0.25961533
252	0x3e24261f	0.16030167
253	0x3d543b79	0.05181453
254	0xbd84fb94	-0.06493297
255	0x3d97f9e2	0.07420708

actor.2.bias f4 [256]
0	0xbd8d6d90	-0.06905663
1	0xbd8b6cd6	-0.06807868
2	0xbe47de34	-0.19518358
3	0xbda263fa	-0.07929225
4	0xbd47178b	-0.048606437
5	0xbd1f109b	-0.038834196
6	0xbd7d027c	-0.061769947
7	0xbdda3a38	-0.106556356
8	0xbd5acca5	-0.05341782
9	0xbdf1959e	-0.11796115
10	0xbd505e0d	-0.050870944
11	0xbc9bbdff	-0.019011496
12	0xbd9a352b	-0.07529672
13	0x3931b335	0.00016946795
14	0xbdf07eeb	-0.11742958
15	0xbd0fb9a2	-0.035089143
16	0xbdb8d4de	-0.09024976
17	0xbd2bd761	-0.04195345
18	0x3d06d4b6	0.0329177
19	0xbd8fa279	-0.07013411
20	0xbdbb7b0c	-0.09154329
21	0xbdd29647	-0.102825694
22	0xbd520b58	-0.05128035
23	0xbe1f8cb2	-0.15581015
24	0xbe224ccf	-0.15849613
25	0xbd890b64	-0.06691626
26	0xbd1f6394	-0.038913324
27	0xbd81653f	-0.06318139
28	0x3d43f269	0.047838602
29	0xbceef2b2	-0.02916846
30	0xbc8903f8	-0.016725525
31	0xbd9016d9	-0.07035608
32	0xbc9d9012	-0.019233737
33	0xbd9ff52e	-0.07810436
34	0xbd375b4b	-0.044764798
35	0xbd823517	-0.06357782
36	0xbc502e34	-0.012706328
37	0xbd650574	-0.055913404
38	0xbd0d191f	-0.034447785
39	0xbce74fc2	-0.028236274
40	0x3cccb7b4	0.02498994
41	0xbdc406b5	-0.09571592
42	0xbdf69839	-0.12040753
43	0xbde838fe	-0.113389954
44	0x3d86c7ab	0.065810524
45	0xbd97e5dc	-0.07416889
46	0xbd845c5f	-0.06462931
47	0xbd7b15d7	-0.061300125
48	0x3cfd95cf	0.030955223
49	0xbd800ca8	-0.06252414
50	0xbd38657c	-0.045018658
51	0xbdb59e2b	-0.08868059
52	0xbdebb6ff	-0.11509513
53	0xbd78fc63	-0.06078757
54	0xbe00e557	-0.12587486
55	0xbd44f97f	-0.0480895
56	0x3c23e7f3	0.0100040315
57	0xbdc49a9b	-0.09599801
58	0xbd3b490c	-0.04572396
59	0xbd44c88f	-0.04804283
60	0xbd6e2cab	-0.058148067
61	0xbc21cf70	-0.009876117
62	0xbe17c5ef	-0.148216
63	0xbd8d42bc	-0.06897494
64	0xbd007e59	-0.031370495
65	0xbe0c08e3	-0.13675265
66	0xbdb63a53	-0.08897843
67	0xbd32c081	-0.043640617
68	0xbdbd5c18	-0.09246081
69	0xbd996dfb	-0.0749168
70	0xbd441523	-0.04787172
71	0xbc2d6183	-0.010582331
72	0xbb0a8bd9	-0.0021140485
73	0xbdcbc10c	-0.0994893
74	0xbce348fa	-0.027744759
75	0xbb535ab2	-0.0032250104
76	0xbd0a4f98	-0.033767313
77	0xbbcbe799	-0.006222677
78	0xbd9326f1	-0.07185162
79	0xbd9511d1	-0.07278789
80	0xbe070ec6	-0.1318923
81	0xbd03ac2d	-0.03214662
82	0xbe094d85	-0.13408478
83	0xbd8fcc68	-0.07021409
84	0x3bc23ac1	0.005927414
85	0xbd0b2ccd	-0.033978272
86	0xbda09f06	-0.07842831
87	0xbdb75b5b	-0.089529715
88	0xbd371eee	-0.04470723
89	0xbdbdd829	-0.09269745
90	0xbd72e373	-0.059298944
91	0xbca18134	-0.01971493
92	0xbdb826ae	-0.089917526
93	0x3cf9eef0	0.030509442
94	0xbdd33a07	-0.10313802
95	0xbcd98a63	-0.026555246
96	0x3bdb0ee5	0.006685125
97	0xbde87de0	-0.11352134
98	0xbc928605	-0.017886171
99	0xbc27a5d0	-0.010232404
100	0xbd9722a0	-0.07379651
101	0xbe1911ce	-0.14948198
102	0xbdc2d0db	-0.09512492
103	0x3d4cdf86	0.050017856
104	0xbdfe2ca5	-0.12410859
105	0xbc49d1a6	-0.0123180505
106	0xbd930195	-0.07178036
107	0xbcdca187	-0.026932491
108	0xbd7a86bc	-0.06116365
109	0xbcb0c929	-0.021580296
110	0xbdc7d124	-0.09756687
111	0xbdbb98ca	-0.091600016
112	0xbd67a9d5	-0.05655845
113	0xbcc1d8cd	-0.023662949
114	0xbd8e35ea	-0.06943877
115	0xbe060dda	-0.13091221
116	0xbda996a4	-0.082806855
117	0xbd6a1ecf	-0.057158288
118	0x3c9ca155	0.019119898
119	0xbd3ceb67	-0.046122935
120	0xbdb82a40	-0.089924335
121	0xbcb324ba	-0.021868099
122	0xbe35080a	-0.17678848
123	0x3d8279f6	0.063709185
124	0xbe1dd1fb	-0.15412132
125	0xbdb7c785	-0.08973602
126	0xbdf73985	-0.12071518
127	0x3cf89fdb	0.030349663
128	0xba056a80	-0.0005089417
129	0xbd5236ae	-0.051321678
130	0xbd69e265	-0.057100672
131	0xbd0df6e8	-0.034659296
132	0xbccedca9	-0.025251703
133	0xbdd65ea2	-0.104672685
134	0xbdf3c858	-0.11903447
135	0xbd9dc286	-0.07703118
136	0xbdcb60d8	-0.09930581
137	0x3c00d750	0.0078638345
138	0xbd5a076a	-0.053229727
139	0x3c87f1ac	0.01659473
140	0xbd802d52	-0.06258644
141	0xbd287d37	-0.04113504
142	0xbd042b20	-0.03226769
143	0xbdbf3bda	-0.09337588
144	0x3d07a14f	0.03311282
145	0xbd708cc5	-0.058728
146	0xbc386c5c	-0.011256304
147	0x3d0b3eef	0.033995565
148	0xbd90b8db	-0.070665084
149	0xbddd86ce	-0.108167276
150	0xbd6fca6d	-0.058542658
151	0xbb82352f	-0.003973625
152	0xbc9f2781	-0.019428017
153	0xbdb5fddf	-0.08886313
154	0x3cade8bb	0.021229139
155	0xbd0ad4b7	-0.033894267
156	0xbc8b1153	-0.016976034
157	0xbd399dab	-0.04531638
158	0xbd771750	-0.060324967
159	0xbda86547	-0.08222442
160	0xbd4cf995	-0.050042707
161	0xbcf7ddd8	-0.03025715
162	0xbc991cb2	-0.01869044
163	0xbe0d135f	-0.1377692
164	0xbd4cc35d	-0.049991
165	0xbd81cdd4	-0.06338087
166	0x3cf0f55d	0.029413873
167	0xbcdd230e	-0.026994254
168	0xbd421c18	-0.047390074
169	0xbd328cf0	-0.04359144
170	0xbe0bcf31	-0.13653256
171	0xbb435f01	-0.0029811265
172	0xbd593a6b	-0.053034227
173	0xbd29e31b	-0.04147635
174	0xbdc75ddb	-0.097346984
175	0xbceeffba	-0.029174674
176	0xbd59f74b	-0.053214353
177	0xbd8f49c7	-0.06996494
178	0xbdb31747	-0.08744674
179	0xbd1cc359	-0.038272236
180	0xbdf31442	-0.11869098
181	0xbde5f7d3	-0.11228909
182	0xbd88a0df	-0.06671309
183	0xbd82aec7	-0.063809924
184	0xbd8c2683	-0.06843283
185	0xbdc6b314	-0.09702125
186	0xbde95f17	-0.1139509
187	0xbc96b810	-0.018398315
188	0xbda56e6d	-0.08077703
189	0xbe0d788a	-0.13815513
190	0xbdd30fab	-0.10305723
191	0xbc91f68e	-0.017817762
192	0xbc78c815	-0.015184422
193	0xbd2a33d3	-0.04155333
194	0xbd667399	-0.056262586
195	0xbdb08ccc	-0.08620605
196	0xbc454b67	-0.012041903
197	0xbdeaab8a	-0.114585
198	0xbd64ace1	-0.055828933
199	0xbb823a85	-0.003974261
200	0x3d90f114	0.07077232
201	0xbc824bc0	-0.015905261
202	0xbd989240	-0.0744977
203	0xbd2b6077	-0.041840043
204	0xbc06768d	-0.008206976
205	0xbbb8916b	-0.0056325695
206	0xbd01608c	-0.031586215
207	0xbd28d6d8	-0.041220516
208	0x3c8fbba5	0.01754553
209	0xbc66351e	-0.01405075
210	0x3d619740	0.055075884
211	0xbd167357	-0.03673109
212	0xbd1954ed	-0.037434507
213	0xbcc521f9	-0.024064051
214	0xbba8d332	-0.0051521296
215	0xbdff18b6	-0.12455885
216	0xbc9d0232	-0.019166086
217	0xbd9eda62	-0.07756497
218	0xbd1ea13f	-0.038727995
219	0xbdb77c34	-0.08959237
220	0xbd1972ae	-0.037462883
221	0xbca6b832	-0.020351503
222	0xbd977f46	-0.07397322
223	0x3be2c92e	0.006920955
224	0x3aee7349	0.0018192317
225	0xbe0fbb06	-0.14036188
226	0xbc0e861a	-0.0086989645
227	0xbb596716	-0.0033173016
228	0xbe1462c5	-0.14490803
229	0xba2e9790	-0.0006660158
230	0xbd633d61	-0.055478457
231	0x3d69ba84	0.05706264
232	0xba21332a	-0.00061492866
233	0x3d31e0b0	0.04342717
234	0xbcd33831	-0.02578363
235	0xbdccfb99	-0.10008926
236	0xbdc54560	-0.09632373
237	0xbdbd59a5	-0.09245614
238	0xbd13c3af	-0.03607529
239	0xbd88b5a4	-0.0667527
240	0xbdb5b2b9	-0.08871979
241	0xbc2052d2	-0.009785371
242	0xbbdb85de	-0.006699308
243	0xbc0db955	-0.008650144
244	0xbe1eb110	-0.15497231
245	0xbd4b53f0	-0.049640596
246	0xbd83f102	-0.06442453
247	0xbd0f499c	-0.03498231
248	0xbb2c406d	-0.0026283518
249	0xbd207167	-0.03917065
250	0xbb4bf79e	-0.0031122933
251	0xbd4ee61b	-0.050512414
252	0xbd1409cc	-0.036142156
253	0xbd3b5a04	-0.045740142
254	0xbd4d6231	-0.05014247
255	0xbd252607	-0.04031947

actor.4.weight f4 [128, 256]
0	0xbcc760b3	-0.024338102
1	0x3da5332c	0.08066401
2	0x3cc151cb	0.023598572
3	0x3d92810d	0.07153521
4	0x3dbe2dd1	0.092860825
5	0x3bc9ccae	0.006158433
6	0x3ce45645	0.027873168
7	0x3dd17c05	0.10228733
8	0x3c4ed252	0.012623386
9	0x3cf0530b	0.029336473
10	0xbd8abf6e	-0.067747936
11	0xbd95985d	-0.073044516
12	0xbe02c3c7	-0.12769996
13	0xbcc7de9f	-0.024398146
14	0xbc8cb34e	-0.017175343
15	0x3cde5e4e	0.027144577
16	0x3d059a75	0.032618005
17	0x3a30f675	0.0006750592
18	0xbd062fb0	-0.032760322
19	0x3d9f4253	0.07776322
20	0xbdeb5c91	-0.11492265
21	0xbd93d4e1	-0.07218338
22	0x3e2e82ce	0.17042086
23	0x3cd54cb7	0.026037557
24	0xbd16df7e	-0.036834233
25	0x3dced00e	0.10098277
26	0xbc66a213	-0.014076727
27	0xbd88967a	-0.06669326
28	0x3dc74093	0.097291134
29	0x3872a0f1	5.7847185e-05
30	0x3db8af09	0.0901776
31	0x3cbc7848	0.023006573
32	0x3da42e98	0.080166996
33	0xbc836dad	-0.016043508
34	0x3d3fb814	0.04680641
35	0x3d8d0dab	0.068873726
36	0x3c257373	0.010098326
37	0x3d7e1325	0.062029976
38	0xbdb40383	-0.08789732
39	0xbd4c3406	-0.0498543
40	0x3d1f26df	0.03885543
41	0x3d44b1f4	0.04802127
42	0x3d1a3548	0.03764847
43	0xbd728d11	-0.059216563
44	0xbd1ed755	-0.038779575
45	0x3d9caaa3	0.07649734
46	0x3d5063f7	0.050876584
47	0x3dc2585d	0.0948951
48	0x3d4ec8ce	0.05048447
49	0x3d30f80e	0.043205313
50	0xbb9b1aae	-0.004733405
51	0x3d4adf1e	0.049529187
52	0x3d69bc4d	0.057064343
53	0xbb01679f	-0.00197456
54	0xbb38bed7	-0.0028189921
55	0xbd81ddaf	-0.06341111
56	0x3d6e4878	0.05817458
57	0x3d76abe0	0.060222507
58	0xbe27c55c	-0.1638388
59	0x3d13e4f5	0.036107022
60	0xbdabcb9c	-0.08388445
61	0xbd14a934	-0.036294177
62	0x3bebd7ca	0.007197355
63	0xbc211ef6	-0.009834042
64	0xbdac92e2	-0.08426453
65	0x3c37a410	0.011208549
66	0xbac079d5	-0.0014684746
67	0x3d6f34fb	0.058400135
68	0xbb03222e	-0.0020009386
69	0x3d8c0a13	0.06837859
70	0xbd7b9d92	-0.061429568
71	0x3973e125	0.00023258159
72	0x3db0d1a8	0.08633739
73	0x3db7b8cf	0.08970796
74	0x3d1af077	0.03782698
75	0xbe15e6c4	-0.14638811
76	0xbc203d09	-0.009780177
77	0xbd47ba90	-0.048761904
78	0x3c8a1179	0.016854035
79	0xbccfa90e	-0.025349166
80	0xbc56f5ad	-0.013120097
81	0x3db842da	0.08997126
82	0x3df38240	0.118900776
83	0x3d5b65fc	0.053564057
84	0x3d0dcfe9	0.034622107
85	0xbd825e37	-0.06365626
86	0xbc69f505	-0.014279609
87	0x3c800b33	0.01563034
88	0x3d009d15	0.031399805
89	0x3d95da29	0.073170014
90	0x3da86c31	0.08223761
91	0x3c5aca28	0.013353862
92	0x3d6214b8	0.05519554
93	0xbdea6617	-0.11445253
94	0xbcdcdcbf	-0.026960729
95	0xbd6a1f92	-0.057159014
96	0x3cc15f92	0.023605142
97	0x3d9c3306	0.076269194
98	0x3d29df06	0.041472457
99	0x3cf0ad45	0.029379496
100	0x3e0b2e96	0.1359199
101	0xbcb76108	-0.022385135
102	0x3d0bf037	0.034164634
103	0x3d102cdc	0.03519903
104	0xbbd44c78	-0.0064788423
105	0xbd530699	-0.051519964
106	0xbd3af081	-0.04563952
107	0x3db76fc7	0.08956867
108	0x3c847022	0.01616675
109	0x3d07d4e3	0.03316201
110	0x3d63d7f6	0.05562588
111	0xbc31f836	-0.010862401
112	0xbd8ef8b2	-0.069810286
113	0x3cb02d7d	0.021506066
114	0xbc927758	-0.017879173
115	0x3bfccb5c	0.007714672
116	0x3de60ea6	0.11233263
117	0x3c97e0dd	0.01853984
118	0x3c46c7ae	0.012132568
119	0x3cbb0824	0.02283103
120	0x3e23ef55	0.16009267
121	0x3d9fbd44	0.077997714
122	0x3e17e1bd	0.14832206
123	0x3d8db26e	0.069187984
124	0x3cffa5d4	0.031207003
125	0xbc7dfdf7	-0.0155024445
126	0x3ca95458	0.020670101
127	0x3caf1049	0.02137007
128	0xbdab8ebd	-0.083768345
129	0xbbdfbf68	-0.0068282373
130	0x3bdf4970	0.0068141744
131	0xbdc1064f	-0.094250314
132	0x3dacb1db	0.08432361
133	0x3d5bceec	0.053664133
134	0x3cc7a257	0.024369402
135	0xbd920dee	-0.07131563
136	0xbba50682	-0.005036176
137	0xbd33a4d0	-0.04385835
138	0xbb383e06	-0.002811314
139	0xbb0dfce6	-0.0021665632
140	0x3da72ed7	0.08163231
141	0xbd9ede52	-0.07757248
142	0xbdcce744	-0.10005048
143	0xbd8530b6	-0.065034315
144	0x39f69347	0.00047030507
145	0x3da0a823	0.078445695
146	0xbd21d12c	-0.039506122
147	0xbd417083	-0.04722644
148	0x3d872add	0.065999724
149	0xbdcb28bc	-0.09919879
150	0xbca980a3	-0.020691222
151	0x3da4d2d3	0.08048024
152	0xbdb45bd9	-0.08806581
153	0xbd1a822e	-0.037721805
154	0x3c3cbd00	0.0115196705
155	0x3acac0b4	0.0015468807
156	0x3d378669	0.044805918
157	0xbd1244a9	-0.03571001
158	0x3d98088d	0.07423506
159	0x3be35a6e	0.0069382703
160	0xbdb404cf	-0.0878998
161	0xbcc74d01	-0.02432871
162	0x3bec5fff	0.007213592
163	0x3d69c3ec	0.05707161
164	0x3dc7f3d2	0.09763302
165	0x3c77f11c	0.015133169
166	0xbc5e1541	-0.013554872
167	0xbc94ec74	-0.018179156
168	0x3c9c824d	0.019105101
169	0x3d93e56e	0.072214946
170	0x3e352514	0.17689925
171	0xbde564e0	-0.11200881
172	0x3e0604fd	0.1308784
173	0xbd19c51b	-0.03754149
174	0xbca6128f	-0.020272521
175	0x3d62acb4	0.055340484
176	0xbcec11ba	-0.028817046
177	0xbd75e546	-0.060033105
178	0xbdb1f44b	-0.08689173
179	0xbd9e4ec3	-0.07729866
180	0xbd450eb0	-0.04810971
181	0x3d4ab5d4	0.04948981
182	0xbd03b5e5	-0.03215589
183	0xbd1ee06a	-0.038788237
184	0x3ae99ad8	0.0017822636
185	0xbdbc6fb5	-0.09200994
186	0x3dbcdda0	0.09221959
187	0xbd8b0cb7	-0.067895345
188	0xbde20406	-0.11035924
189	0xbc03e7a1	-0.00805083
190	0x3d0b1ee1	0.033964995
191	0x3cdc6c58	0.026907131
192	0xbdba1d63	-0.09087636
193	0xbc5dfc88	-0.013548978
194	0x3d95a2d3	0.07306447
195	0xbc8174aa	-0.0158027
196	0xbdc17fdd	-0.09448216
197	0xbd6ea9c7	-0.05826738
198	0xbdabc73b	-0.083876096
199	0x3d7e74e4	0.062123194
200	0x3d0236ee	0.031790666
201	0x3cf00563	0.029299444
202	0xbc8dee36	-0.017325502
203	0xbcb90c04	-0.022588737
204	0x3d83ca17	0.0643503
205	0x3d287d4d	0.04113512
206	0xbe17b5b7	-0.14815412
207	0xbd567294	-0.052355364
208	0xbd831d06	-0.0640202
209	0xbdb1d265	-0.08682708
210	0xbd96d7d5	-0.073653854
211	0x3bc49b2a	0.0059999423
212	0x3d26fb05	0.040766735
213	0x3d806174	0.06268588
214	0x3cf3853c	0.029726617
215	0x3d9a4d4c	0.075342745
216	0x3d4ca8a0	0.0499655
217	0xbca0e59c	-0.019640736
218	0xbb88e9a0	-0.004178241
219	0x3d95edfe	0.07320784
220	0x3c60a07d	0.013710138
221	0xbdecf76c	-0.115706295
222	0x3dc5fb52	0.09667076
223	0x3d7ae557	0.06125387
224	0xbcf8fe2f	-0.030394642
225	0x3c90943d	0.01764881
226	0xbc3e45a9	-0.011613288
227	0x3cc7d4f4	0.024393536
228	0x3b63d71c	0.0034765666
229	0xbc85a18f	-0.016312389
230	0x3d1951d4	0.037431553
231	0x3ddaae3c	0.10677764
232	0x3d12dcaf	0.03585499
233	0xbd5f958a	-0.05458597
234	0x3d5c6682	0.053808697
235	0x3d0a115b	0.033707958
236	0xbdd6d51d	-0.10489867
237	0xbdfbe8c0	-0.12300253
238	0x3d8ca92a	0.06868203
239	0xbb8c2baf	-0.0042776684
240	0x3dc27be7	0.09496289
241	0x3c2278bd	0.009916482
242	0x3b93dfde	0.004512771
243	0x3e051da5	0.1299959
244	0x3c6504a3	0.013978156
245	0x3ccd5bc8	0.025068179
246	0x3bf69594	0.0075251553
247	0xbdea4654	-0.11439195
248	0x3cc9f737	0.024654014
249	0xbca2e98c	-0.019886754
250	0xbdd3be81	-0.1033907
251	0xbcb70ab7	-0.022343976
252	0x3ca78f51	0.02045408
253	0xbd53e97f	-0.05173635
254	0xbdc0ed2d	-0.09420238
255	0xbcac2748	-0.021014825

actor.4.bias f4 [128]
0	0x3d1b17ca	0.037864484
1	0xbd38dbcf	-0.0451315
2	0xbdb6a562	-0.08918263
3	0xbe422342	-0.18958762
4	0x3dce8105	0.10083202
5	0xbe258620	-0.16164446
6	0x3c806e66	0.015677642
7	0x3a820b0d	0.0009921506
8	0xbe249538	-0.16072547
9	0xbd9ab5c6	-0.07554202
10	0xbcd7479e	-0.026279267
11	0xbd9c7f12	-0.07641424
12	0x3c7d058d	0.015443218
13	0xbe068728	-0.13137496
14	0xbcdc790b	-0.026913187
15	0xbd0bd51c	-0.034138784
16	0xbd705a5e	-0.05867993
17	0xbdc8d2eb	-0.098058544
18	0xbdca87a7	-0.09889155
19	0xbd21ea8f	-0.039530333
20	0xbe064743	-0.13113122
21	0xbe871b1f	-0.2638788
22	0x3d4cdb9a	0.050014116
23	0x3aa748bf	0.0012762769
24	0xbbb6df8f	-0.0055808495
25	0xbd2f7156	-0.042832695
26	0xbe0bfbe5	-0.13670309
27	0xbe64b4fb	-0.22334664
28	0xbd3ffdf1	-0.046873037
29	0x3d46325f	0.04838788
30	0xbdeac8f8	-0.11464113
31	0xbdeeea92	-0.116658345
32	0xbd7c8fc0	-0.06166053
33	0xbd06bbd6	-0.032893978
34	0xbdf8b937	-0.12144702
35	0xbdd3abbd	-0.10335491
36	0xbda643b7	-0.08118384
37	0xbdb21694	-0.08695713
38	0xbdd58b01	-0.104269035
39	0xbdbe27bb	-0.09284922
40	0xbd36bee4	-0.04461564
41	0xbdc48c83	-0.09597113
42	0xbd4cdb74	-0.050013974
43	0xbcacef1f	-0.021110116
44	0xbcf6356b	-0.030054769
45	0xbd256f38	-0.04038927
46	0xbe08a5a7	-0.13344441
47	0xbc8274e8	-0.015924886
48	0x3d562648	0.0522826
49	0xbe4175c8	-0.18892586
50	0xbdd01b51	-0.1016146
51	0xbd49f6f2	-0.04930777
52	0x3d552835	0.052040298
53	0xbd706ed7	-0.058699455
54	0xbb6102f3	-0.0034334033
55	0xbd898c1d	-0.067161776
56	0x3b98a0d7	0.0046578455
57	0x3d9536d8	0.07285851
58	0x3d88d460	0.06681132
59	0xbdf4d681	-0.11954976
60	0x3d98eb38	0.074667394
61	0xbd76fb41	-0.06029821
62	0xbd6658eb	-0.056237143
63	0xbd9531e0	-0.072849035
64	0xbde58859	-0.11207647
65	0xbd282272	-0.041048475
66	0x3b415bbe	0.0029504145
67	0xbce66bbe	-0.028127547
68	0x3d4ac376	0.049502812
69	0xbe4da91a	-0.20084038
70	0xbd47c8a8	-0.048775345
71	0xbcc4c8e5	-0.024021575
72	0x3c9657b9	0.018352376
73	0x3cab0dc9	0.020880597
74	0xbdb06030	-0.08612096
75	0x3da32460	0.07965922
76	0xbd480ba5	-0.04883923
77	0xbdc48649	-0.09595925
78	0xbd8ba5b6	-0.06818716
79	0x3b8c5475	0.004282529
80	0xbc916861	-0.017749967
81	0x3ba51736	0.0050381673
82	0xbd7b153c	-0.061299548
83	0xbd4dc655	-0.050237972
84	0xbd80ec3e	-0.062950596
85	0xbd07ab7e	-0.033122532
86	0xbe1e3c6d	-0.15452738
87	0x3d869099	0.065705486
88	0xbe34e65f	-0.17666005
89	0xbdaceb17	-0.08443277
90	0x3d4f46e1	0.050604705
91	0xbd8b2cca	-0.06795652
92	0xbe0e3a83	-0.13889508
93	0x3c2ae682	0.010430934
94	0xbe1890e9	-0.14899029
95	0xbc733070	-0.014843091
96	0xbcb34ba4	-0.021886654
97	0x3d25f6e0	0.04051864
98	0xbe16b8a5	-0.14718874
99	0xbd4598b9	-0.04824135
100	0xbd98c69c	-0.07459757
101	0xbcc6f5fd	-0.024287218
102	0x3b03cfcb	0.0020112868
103	0xbcc0da97	-0.023541732
104	0xbd96cf08	-0.07363707
105	0xbdc96f87	-0.09835725
106	0xbd8e942f	-0.069618575
107	0xbd6ee13c	-0.05832027
108	0xbd66d338	-0.056353778
109	0xbe1e0f0a	-0.15435424
110	0xbd867f90	-0.06567299
111	0x3d833a9b	0.064076625
112	0xbd9f6526	-0.077829644
113	0xbd8942ef	-0.0670222
114	0xbda0e874	-0.07856837
115	0x3d50dd08	0.05099204
116	0x3d629314	0.055316046
117	0xb9d02b49	-0.00039705102
118	0x3c8e6802	0.01738358
119	0xbdb2766a	-0.08713992
120	0xbbf940ec	-0.0076066162
121	0xbd9e23a7	-0.07721644
122	0x3c1f017f	0.009704947
123	0xbda8e8af	-0.08247506
124	0x3b56b87d	0.0032763772
125	0x3d554c93	0.05207498
126	0x3d7d8d72	0.06190247
127	0xbdc87277	-0.097874574

actor.6.weight f4 [12, 128]
0	0xbd84dea7	-0.0648778
1	0x3d393d3a	0.045224406
2	0xbd23094c	-0.039803788
3	0x3b87fa92	0.0041497434
4	0xbd946ea7	-0.07247668
5	0xbcd5c38e	-0.026094224
6	0x3c761336	0.015019229
7	0x3c826f90	0.015922338
8	0xbd809380	-0.062781334
9	0x3c167624	0.00918344
10	0x3b46962f	0.0030301919
11	0x3b0bf3c3	0.002135501
12	0xbd138874	-0.036018804
13	0xbd2078ce	-0.03917771
14	0x3d680e80	0.056654453
15	0x3d351bc6	0.04421594
16	0x3b4563f9	0.0030119403
17	0x3c8925d1	0.016741665
18	0x3ccb75bf	0.02483642
19	0x3cac580c	0.021038078
20	0xbc7dcf0c	-0.015491258
21	0x3c22d751	0.009939031
22	0x3d824da8	0.06362468
23	0x3c91a758	0.017779991
24	0xbbb3a39c	-0.0054821502
25	0x3c8813db	0.01661103
26	0x3d78b63a	0.06072066
27	0xbcb79372	-0.022409175
28	0x3aa0d9f9	0.0012271992
29	0x3c3e8c8b	0.011630188
30	0xbd859a08	-0.0652352
31	0xbc8d33ff	-0.017236708
32	0x3be23b0c	0.0069040116
33	0xbc516d80	-0.0127824545
34	0xbca6a19d	-0.020340735
35	0x3d3be9b1	0.045877162
36	0x3c5c263a	0.013436848
37	0x3d48e820	0.049049497
38	0x3cd8bf42	0.026458386
39	0x3d7aefc0	0.0612638
40	0x3d042516	0.03226193
41	0x3c6190aa	0.013767401
42	0xbbbd76e3	-0.0057819947
43	0xbc84f2f3	-0.016229128
44	0x3bc03fb5	0.0058669695
45	0xbc9fc5e6	-0.019503545
46	0xbd00d8c7	-0.031456735
47	0x3cce8aaf	0.025212614
48	0xbd398da0	-0.04530108
49	0xbc45443e	-0.012040196
50	0x3cb61a31	0.022229286
51	0xbcaf758e	-0.02141836
52	0xbce6711c	-0.028130107
53	0x3d02b578	0.031911343
54	0x39907961	0.00027556255
55	0x3d0d2fc6	0.03446939
56	0x3ad46e82	0.001620725
57	0x3c790bd1	0.015200571
58	0x3b1c9c56	0.0023896894
59	0x3bddf04f	0.006773032
60	0xbd84b80d	-0.064804174
61	0x3cbdb944	0.02315963
62	0x3a3f3b83	0.000729494
63	0x3c6939ac	0.014234941
64	0x3d12047b	0.035648804
65	0xbb99d10e	-0.0046941107
66	0x3d67c081	0.05658007
67	0xbd1b57d1	-0.037925545
68	0x3d42c0db	0.047547203
69	0xbc2d3f4f	-0.010574176
70	0xba78258a	-0.0009466043
71	0xbc5fb13b	-0.013653095
72	0xbbbb9e1c	-0.005725635
73	0x3d0d086c	0.03443186
74	0xbcf0489a	-0.029331494
75	0x3ddc35b1	0.10752428
76	0x3cac1968	0.021008208
77	0x3d2eaa43	0.042642843
78	0x3bb84bc8	0.005624268
79	0x3c5555b8	0.013020925
80	0xbb95de55	-0.004573623
81	0xbce3204c	-0.027725361
82	0x3cbef53a	0.023310293
83	0xbc3beb64	-0.011469696
84	0x3c0b4ed5	0.008502682
85	0x3c09bc3d	0.008406696
86	0x3afc2a8a	0.0019238752
87	0xbd8b2273	-0.0679368
88	0xbd56f259	-0.052477214
89	0x391db0bc	0.00015038525
90	0x3d4395ec	0.0477504
91	0xbbf28e1e	-0.0074021956
92	0x3da89533	0.082315825
93	0x3decd54e	0.11564122
94	0x3c0926e7	0.008371091
95	0xbbb81923	-0.005618231
96	0xbca70dd6	-0.02039234
97	0x3c60cc12	0.013720529
98	0x3da4c8b2	0.08046092
99	0x3c9023ea	0.01759525
100	0xb9951502	-0.00028435147
101	0xbc79a13f	-0.015236198
102	0x3d3f9dc8	0.04678133
103	0xbbbc4cab	-0.005746444
104	0xbced504a	-0.028968949
105	0x3d6062f5	0.054781873
106	0xbd52ce80	-0.051466465
107	0xbd072cfe	-0.033001892
108	0x3d5093dd	0.050922263
109	0x3d23e8f1	0.040017072
110	0x3c3f8228	0.0116887465
111	0x3bb06008	0.0053825416
112	0xbc5b3ad3	-0.013380724
113	0xbcb6b19f	-0.022301493
114	0xbcaf767b	-0.0214188
115	0xbcd16191	-0.025559219
116	0xbbac427f	-0.0052569504
117	0xbd10f6c6	-0.03539159
118	0x3b1de369	0.0024091846
119	0x3c9950ca	0.018715281
120	0xbc58507d	-0.013202784
121	0xbd55fd73	-0.05224366
122	0x3cd33e68	0.025786594
123	0xbc1cf058	-0.009578787
124	0xbdb9bd73	-0.09069338
125	0x3d7974e5	0.060902495
126	0xbe081f34	-0.13293153
127	0x3ccba257	0.024857683
128	0x3d68f2d0	0.05687219
129	0x3b2bd76d	0.0026220933
130	0x3c3ac3e3	0.011399242
131	0xbd061964	-0.032739058
132	0xbd561d5a	-0.052274086
133	0xbcc552af	-0.024087278
134	0xbc9c4a2f	-0.019078342
135	0xbcd4db59	-0.0259835
136	0xbc55d98a	-0.013052354
137	0xbd550eaf	-0.052015956
138	0x3d2a13e6	0.041522883
139	0xbbc9a44f	-0.0061536203
140	0x3c990adb	0.018681934
141	0xbc4155bf	-0.011800229
142	0xbbbbd7f7	-0.005732532
143	0xbd2b2b99	-0.041789625
144	0xb9ded950	-0.0004250505
145	0x3d39d259	0.04536662
146	0xbd48695f	-0.048928615
147	0x3c539d78	0.012915961
148	0x3cd66d6c	0.026175223
149	0xbcde2655	-0.027117888
150	0x3d2a30d6	0.04155048
151	0xbd6301bb	-0.055421572
152	0x3c96e7e9	0.01842113
153	0xbcc29c3f	-0.023756145
154	0x3d3f8968	0.0467619
155	0xbc976665	-0.018481443
156	0xbc1cbffb	-0.009567256
157	0xbcf42e18	-0.029807135
158	0x3cdfeabc	0.02733361
159	0x3d4a96dc	0.049460277
160	0x3d7edf25	0.062224526
161	0xbd8ab8b3	-0.0677351
162	0x3d4098f3	0.047020864
163	0xbdb4762e	-0.088116035
164	0x3cebc60e	0.028780963
165	0x3bcfc87d	0.0063410387
166	0x3bf0034d	0.0073246122
167	0xbb8aa588	-0.0042311586
168	0x3cc8a24a	0.024491448
169	0x3cd67104	0.026176937
170	0x3d444c2e	0.047924213
171	0xbb426898	-0.0029664394
172	0xbc85706d	-0.01628896
173	0xbc39f3cc	-0.01134963
174	0x3beefe9a	0.0072935345
175	0xbcf93b55	-0.0304238
176	0xbd284180	-0.04107809
177	0xbcccf54f	-0.025019316
178	0xbbae2fff	-0.00531578
179	0xbdae37ba	-0.08506723
180	0xbd077aa7	-0.033075955
181	0xbd170c2f	-0.036876854
182	0x3b9a15ac	0.0047022905
183	0xbdca1554	-0.09867349
184	0x3aeb688f	0.0017960238
185	0x3dc256e2	0.09489228
186	0xbc33ebb8	-0.010981493
187	0xbb9ca80b	-0.0047807745
188	0x3cc5fdbd	0.024168843
189	0x3c0700b5	0.008239915
190	0xbc82eaaa	-0.015981037
191	0xbd0da899	-0.034584615
192	0xbc6f02b9	-0.0145880515
193	0x3ba56a7c	0.0050480943
194	0x3d3f62a9	0.04672495
195	0x3d1d2a37	0.038370337
196	0x3c2aa27a	0.010414714
197	0x3d2fde73	0.042936753
198	0x3cada8a7	0.021198584
199	0xbd379407	-0.044818904
200	0xbcb2b7c1	-0.021816136
201	0x3cd4e495	0.025987903
202	0xbd1578b8	-0.03649208
203	0x3b8876c9	0.004164551
204	0x3cd681be	0.026184913
205	0x3c0a669f	0.008447318
206	0x3ca2e1d8	0.019883081
207	0xbd9f8eea	-0.077909306
208	0xbbe3a980	-0.006947696
209	0x3ddb079c	0.10694811
210	0x3da5cd8e	0.08095847
211	0x3d188e1c	0.0372449
212	0xbb044405	-0.0020182144
213	0xbccbaf7a	-0.024863947
214	0x3d14a4d5	0.03629001
215	0x3c225eb2	0.009910272
216	0x3d6fc26c	0.058535025
217	0xbc57c3ce	-0.013169242
218	0xbd3dc3d4	-0.046329334
219	0xbcf45d4f	-0.02982965
220	0xbdb47f0a	-0.08813293
221	0x3d1910c6	0.037369512
222	0xbcaa5320	-0.02079159
223	0x3d63d450	0.0556224
224	0x3c75650a	0.014977703
225	0x3d3e34b8	0.046436995
226	0x3cebde2b	0.028792461
227	0x39339fef	0.0001713035
228	0x3cb13d7b	0.021635761
229	0xbb25246b	-0.0025198709
230	0x3db2fd83	0.0873976
231	0x3c61e0b5	0.0137864845
232	0xba153b05	-0.00056926935
233	0x3d0ae355	0.033908207
234	0xbd46e29f	-0.048555966
235	0xbc61dcc3	-0.013785544
236	0x3d894bb8	0.06703895
237	0xbceffd0d	-0.029295469
238	0xbd04e5f9	-0.03244588
239	0xbc6af3f2	-0.014340388
240	0xba95bbeb	-0.0011423802
241	0xbd27e63e	-0.04099106
242	0x3dd15e43	0.10223057
243	0x3bd33100	0.0064450502
244	0xbcb9b6f6	-0.02267025
245	0xbb8d3f99	-0.00431056
246	0x3c79091d	0.015199927
247	0xbe03c389	-0.1286756
248	0x3c403c52	0.0117331315
249	0xbe0dc5d3	-0.13844995
250	0x3d2592ef	0.04042333
251	0x3c7ba5df	0.015359371
252	0x3c784eaf	0.015155478
253	0xbce75cd5	-0.028242508
254	0x3cafe107	0.021469606
255	0xbca82fbc	-0.020530574

actor.6.bias f4 [12]
0	0xbd9aec5b	-0.075646125
1	0x3da6e224	0.08148602
2	0xbbe3ff8d	-0.0069579543
3	0xbd1b6a04	-0.0379429
4	0x3e165f90	0.14684892
5	0xbdbc5ba7	-0.09197169
6	0x3e2811cb	0.16413037
7	0xbe1c2a8e	-0.15250608
8	0x3d586612	0.052831717
9	0xbd77f227	-0.06053367
10	0x3e3b8ce7	0.18315469
11	0xbe2e9ce3	-0.17052035
