src/ga_quadruped/policy/param_action.onnx (onnx, 772885 bytes, 8 tensors)

actor.0.weight f4 [512, 52]
-0.2356364 -0.49788493 -0.2350284 -0.19430207 0.4447904 0.090736695 0.2444852 -0.0129078375
-0.039789688 0.09617505 -0.014531563 -0.1092332 0.095884606 0.028018164 0.013753622 -0.1058778
-0.22658154 -0.58588386 -0.4525017 0.42863828 -0.16210431 -0.018583965 0.17628004 0.21365853
-0.2927564 0.13563895 -0.112457015 0.09771614 -0.021542838 0.10565194 0.37834814 0.13501792
-0.28202292 -0.3330529 0.04016421 0.098146014 -0.19210793 0.4421471 -0.18595931 0.22947586
0.053178523 0.017685128 0.0005955414 -0.021328814 -0.018773487 0.03863548 0.017970454 -0.032339647
-0.029821923 0.0034046557 0.08719339 -0.06522634 0.22313781 0.6730126 0.5235193 0.22920865
0.34135273 -0.09939205 -0.15973528 0.44053525 -0.23482886 0.0738716 -0.17574222 -0.081507705
0.033819042 0.10545929 0.02426428 0.015092994 -0.21328746 -0.19409469 -0.19505233 -0.025483157
0.041403875 -0.30303374 0.23006059 -0.085286 0.18551606 0.2769434 0.06954361 0.058870632
-0.16034023 0.18352333 -0.13030446 0.10073403 -0.2046278 -0.25689697 0.22824834 -0.23226762
-0.037237406 0.032776877 0.06081568 0.22361152 0.063959375 0.021709878 -0.06717611 0.1117803
0.013572687 -0.0058410913 -0.024134256 -0.037351143 0.034368433 -0.04069543 -0.08157558 -0.04815892
-0.039115988 0.17240217 1.2801585 0.14464952 0.21904841 -0.04347461 -0.18615638 -0.037119124
-0.22894512 -0.10846835 -0.10411629 0.054643944 0.06566987 -0.08880912 -0.11571533 0.02113461
-0.4104124 -0.13267069 -0.2125039 -0.055532943 0.089830644 -0.22143584 0.1915984 -0.15839046
0.17178681 0.02003343 0.30817747 0.083502136 -0.34463254 -0.02235953 0.20615773 0.025936028
0.13968411 -0.031717766 0.55260533 0.10160532 -0.21229005 -0.070690386 0.3713486 -0.047167797
0.020288765 -0.016553529 -0.01815387 0.032651592 0.01581835 -0.040978808 0.007830213 -0.022418316
0.043507054 -0.021047084 -0.03596271 0.029139346 0.0604011 -0.5307711 0.09624627 -0.42699853
0.0048147524 -0.02692035 0.1323062 0.10205595 0.009955136 0.03788351 -0.123865046 0.08721317
-0.08963521 -0.07365434 0.009395901 -0.07742021 -0.32747316 0.14750747 0.068430446 0.19841316
0.10729741 0.43664646 -0.23962943 -0.065245435 0.23036596 0.22162652 -0.017084396 0.18542525
0.0039048851 -0.18041922 -0.07981878 -0.39012027 0.12631764 0.32238132 -0.21254267 0.027678642
-0.24007736 0.0661667 -0.12826438 0.44186383 -0.018310664 -0.0021297545 0.010881298 -0.04799062
-0.005784665 0.0025870835 0.021056117 -0.011551969 -0.029072516 0.024513176 0.042120986 -0.026168372
-0.29061854 -0.45883194 0.23066483 -0.1395177 0.14335163 0.0066148136 0.045625173 -0.12320797
0.20232669 -0.07233387 -0.18910095 -0.066244945 -0.08683023 -0.057331957 -0.1205176 0.024911445
-0.22915427 0.13061605 -0.19775444 0.19854137 -0.28235874 0.34217373 0.1366025 0.043529402
0.054326225 0.12180878 -0.2764312 0.19834636 -0.44666597 0.003138754 0.058600362 -0.11712482
-0.0010848609 0.4561141 -0.19762158 -0.09888032 -0.11639944 0.13622029 -0.43544784 0.21283017
-0.05969921 -0.09415514 0.054743413 0.13750185 0.116671585 -0.095977806 -0.013412458 0.081159286
00000000: ab4a 71be c6ea febe 49ab 70be 1ff7 46be
00000010: 91bb e33e 29d4 b93d 545a 7a3e 657b 53bc
00000020: 83fa 22bd 6df7 c43d cb15 6ebc a8b5 dfbd
00000030: 265f c43d 5986 e53c df56 613c 76d6 d8bd
00000040: fe04 68be 7cfc 15bf 4eae e7be 7a76 db3e
00000050: acfe 25be 663d 98bc c182 343e 4dc9 5a3e
00000060: 2be4 95be f0e4 0a3e dd4f e6bd 661f c83d
00000070: 9b7a b0bc 0b60 d83d d9b6 c13e 2342 0a3e
00000080: 4f65 90be e985 aabe 3a83 243d c700 c93d
00000090: f1b7 44be 1b61 e23e 1e6c 3ebe b8fb 6a3e
000000a0: b9d1 593d 67e0 903c 1b1e 1c3a c4b9 aebc
000000b0: dbca 99bc 3d40 1e3d c636 933c 9476 04bd
000000c0: 1b4d f4bc a520 5f3b 7392 b23d 6395 85bd
000000d0: 3d7e 643e 8e4a 2c3f 5c05 063f acb5 6a3e
000000e0: c9c5 ae3e 0f8e cbbd a591 23be d68d e13e
000000f0: fa76 70be fe49 973d c5f5 33be 83ed a6bd
00000100: d685 0a3d 0afb d73d e2c5 c63c 9b48 773c
00000110: 0768 5abe c2c0 46be ccbb 47be 0ec2 d0bc
00000120: 1c97 293d 3d27 9bbe 0195 6b3e 6daa aebd
00000130: ecf7 3d3e 86cb 8d3e e16c 8e3d 5522 713d
00000140: 3b30 24be 8aed 3b3e 886e 05be a54d ce3d
00000150: f389 51be 0088 83be efb9 693e 90d7 6dbe
00000160: 4086 18bd 0c41 063d dd19 793d 6bfa 643e
00000170: 22fd 823d ead8 b13c a193 89bd 12ed e43d
00000180: fa5f 5e3c a066 bfbb 34b5 c5bc 83fd 18bd
00000190: eac5 0c3d 40b0 26bd 1911 a7bd 4a42 45bd
000001a0: 1638 20bd 328a 303e 3cdc a33f 011f 143e
000001b0: 3a4e 603e 6f12 32bd c79f 3ebe 390a 18bd
000001c0: 9770 6abe a724 debd ec3a d5bd 54d2 5f3d
000001d0: ed7d 863d 8ee1 b5bd 29fc ecbd 7d22 ad3c
000001e0: 9321 d2be d3da 07be 9f9a 59be 8376 63bd
000001f0: 21f9 b73d 14c0 62be 5f32 443e 1c31 22be
00000200: e2e8 2f3e 261d a43c 70c9 9d3e 2b03 ab3d
00000210: ad73 b0be 552b b7bc 031b 533e cb77 d43c
00000220: 5a09 0f3e 7dea 01bd 8b77 0d3f 7316 d03d
00000230: 9062 59be 1fc6 90bd 6721 be3e 0533 41bd
00000240: a034 a63c 449b 87bc 6db7 94bc adbd 053d
00000250: 7c95 813c 65d9 27bd 4b4a 003c 9ea6 b7bc
00000260: 7434 323d ef6a acbc a24d 13bd a3b5 ee3c
00000270: 2567 773d 9de0 07bf c41c c53d 8d9f dabe
00000280: 12c5 9d3b 1188 dcbc 477b 073e b602 d13d
00000290: de1a 233c bd2b 1b3d f5ac fdbd d29c b23d
000002a0: aa92 b7bd 16d8 96bd 44f1 193c 7d8e 9ebd
000002b0: 90aa a7be 330c 173e 4325 8c3d d22c 4b3e
000002c0: bfbe db3d 2090 df3e 6b61 75be 669f 85bd
000002d0: 0ee5 6b3e 10f2 623e 93f4 8bbc 1ee0 3d3e
000002e0: 1ae9 7f3b d1bf 38be 0778 a3bd d8bd c7be
000002f0: 6959 013e 2a0f a53e c9a4 59be 52be e23c
00000300: d7d6 75be 6882 873d bd57 03be fa3b e23e
00000310: 3f00 96bc 5a93 0bbb 7947 323c d091 44bd
00000320: 498d bdbb 0f8c 293b e17d ac3c 7844 3dbc
00000330: 7c29 eebc dbcf c83c 0e87 2c3d 0e5f d6bc
00000340: f4cb 94be 05ec eabe 6733 6c3e badd 0ebe
00000350: c5ca 123e 14c1 d83b 76e1 3a3d 7654 fcbd
00000360: ba2e 4f3e c823 94bd aea3 41be 6eab 87bd
00000370: 0cd4 b1bd ead4 6abd eed1 f6bd 1613 cc3c
00000380: 6ba7 6abe 37c0 053e 2480 4abe 6e4e 4b3e
00000390: 5391 90be 6531 af3e 87e1 0b3e e34b 323d
000003a0: 2d85 5e3d e276 f93d 6488 8dbe 4f1b 4b3e
000003b0: 67b1 e4be 8eb3 4d3b ef06 703d 23df efbd
000003c0: e431 8eba ca87 e93e 505d 4abe c481 cabd
000003d0: d462 eebd 557d 0b3e 05f3 debe 27f0 593e
000003e0: 2987 74bd 69d4 c0bd a13a 603d 49cd 0c3e
000003f0: 83f1 ee3d 0390 c4bd edbf 5bbc d736 a63d

actor.0.bias f4 [512]
-0.087112725 0.09634177 0.0064729173 -0.051108308 -0.10914003 -0.026126387 0.039278768 0.09950139
0.05450652 0.10910453 -0.15587792 0.097016215 -0.04185299 0.09282273 -0.06438195 -0.039452013
-0.09269226 0.04459124 0.079171605 0.0055118664 -0.14430586 0.029753352 -0.1254457 -0.179981
-0.12409915 -0.08269749 0.08277871 0.010226041 0.034887265 0.13467172 0.13002574 -0.01931745
-0.13406958 0.08316002 -0.16918735 -0.063902535 0.14400783 -0.103516504 0.093101375 0.074468255
-0.08245747 0.018065015 -0.07145468 -0.036056515 0.09512973 -0.00487474 0.00341814 -0.066500135
0.11960858 -0.06036386 0.05067294 0.028041605 -0.034269836 -0.10398473 -0.14056529 0.031121653
-0.06190751 -0.20378903 0.11844478 0.043264486 0.20050041 -0.14575791 -0.0056746053 0.13070107
0.03337003 -0.13256286 0.031339265 0.17029175 0.10162031 -0.026912661 -0.1589305 -0.05071528
-0.003141826 -0.09403052 -0.07470949 -0.20360345 -0.10677464 -0.04036011 -0.008810067 0.021407265
0.01797591 -0.16943213 0.018183095 -0.11372021 4.1729367e-05 0.07419687 0.05880042 0.039324988
-0.045187354 -0.05122886 0.12365409 0.0021014567 -0.031144831 0.108058035 0.071155176 0.039895765
0.07541182 -0.016735006 -0.12438415 0.0919491 -0.017308194 -0.00090551726 -0.05855837 -0.016375376
-0.09550513 0.049424186 -0.20081718 -0.044268403 -0.10311994 -0.13329649 0.0973608 0.13303159
-0.002233086 0.03693622 -0.074675076 0.12836778 -0.094401255 -0.047844023 0.04097101 0.0819818
0.015373199 -0.0578664 -0.120822445 0.103917316 -0.13740832 -0.08274872 -0.037104882 -0.011379405
0.029016657 0.048963834 -0.16722097 -0.0516185 0.17837949 0.064365365 0.10276969 0.083678894
-0.05464343 -0.10163669 -0.06213624 -0.13363627 0.06866876 0.10655386 -0.17628543 -0.023086336
-0.078684546 -0.058504436 -0.13019559 0.014230239 0.09833241 -0.097205445 0.012550388 -0.026952205
-0.1044008 0.03308374 0.091859445 0.16412443 0.05699495 -0.0117465295 -0.05113295 -0.15276943
-0.016091522 -0.07889906 -0.08589535 -0.0957236 0.11854188 0.08326733 -0.026769573 -0.067150205
-0.056408778 -0.03501038 0.009018934 -0.01287322 0.08164944 0.021580573 -0.01118449 0.07331364
-0.17363252 -0.04111518 -0.024599686 0.14630388 -0.116876915 0.12854162 0.013971953 -0.12841469
0.05047368 -0.051580805 -0.18415095 -0.0064214286 -0.16251452 0.08116243 -0.046444874 -0.1579079
0.10785575 -0.07842291 0.09176374 0.038052622 0.10761289 0.09719087 0.04798251 -0.02506772
-0.13343336 -0.06636753 -0.1380651 0.045831423 0.07624129 -0.01914204 0.10638262 0.08325554
0.043457545 -0.14278688 -0.075454265 -0.06478983 0.03194842 -0.09462074 -0.1699224 -0.03415919
-0.12564711 0.013931656 -0.040512703 -0.02424388 -0.0057580494 0.10747479 -0.028492052 -0.02809933
0.13059404 0.011253217 -0.14177999 -0.16393796 -0.016065808 -0.2596132 0.07594601 0.07774285
0.09463025 -0.09916673 0.018732212 0.0068011894 -0.009719847 0.08686737 -0.106544815 -0.051134273
0.040876273 -0.069716595 0.0838274 -0.15169536 0.064216435 -0.009811978 0.020788146 -0.0001666554
0.09984876 -0.03015374 0.030973135 -0.08803201 0.16895197 -0.08186333 0.10633045 -0.08653565
00000000: 2868 b2bd d54e c53d c41a d43b f256 51bd
00000010: cf84 dfbd 0107 d6bc c6e2 203d 62c7 cb3d
00000020: 3b42 5f3d 3272 df3d 769e 1fbe 70b0 c63d
00000030: 0a6e 2bbd d819 be3d afda 83bd 6f98 21bd
00000040: 71d5 bdbd 4ea5 363d b924 a23d e39c b43b
00000050: eac4 13be 4dbd f33c d674 00be f04c 38be
00000060: b227 febd 4d5d a9bd e287 a93d 208b 273c
00000070: f3e5 0e3d 62e7 093e 7825 053e a13f 9ebc
00000080: 8949 09be cd4f aa3d 733f 2dbe 55df 82bd
00000090: ca76 133e 7600 d4bd efab be3d d082 983d
000000a0: 76df a8bd 15fd 933c d556 92bd ffaf 13bd
000000b0: 60d3 c23d 48bc 9fbb e002 603b 3931 88bd
000000c0: 58f5 f43d 1840 77bd 6e8e 4f3d 82b7 e53c
000000d0: 875e 0cbd f2f5 d4bd 59f0 0fbe d6f2 fe3c
000000e0: bb92 7dbd 12ae 50be 2d93 f23d 1a36 313d
000000f0: fb4f 4d3e 9041 15be 0af2 b9bb 80d6 053e
00000100: 03af 083d 8fbe 07be 9a5d 003d f660 2e3e
00000110: 4f1e d03d f177 dcbc adbe 22be d3ba 4fbd
00000120: 18e7 4dbb 1393 c0bd 4a01 99bd 6c7d 50be
00000130: aaac dabd a550 25bd 1958 10bc 4a5e af3c
00000140: 3742 933c 9e7f 2dbe b7f4 943c 24e6 e8bd
00000150: 9106 2f38 87f4 973d b6d8 703d 3d13 213d
00000160: 6016 39bd 5ad5 51bd 5b3e fd3d 98b8 093b
00000170: 7223 ffbc 884d dd3d ceb9 913d be69 233d
00000180: 8371 9a3d da17 89bc 1ebd febd cf4f bc3d
00000190: eac9 8dbc 3c60 6dba e7da 6fbd a725 86bc
000001a0: 3298 c3bd 0471 4a3d 05a3 4dbe c952 35bd
000001b0: 8c30 d3bd e07e 08be 1965 c73d 6f39 083e
000001c0: f758 12bb 6f4a 173d 3fef 98bd d872 033e
000001d0: 7255 c1bd 18f8 43bd 38d1 273d 13e6 a73d
000001e0: dfdf 7b3c 5105 6dbd c271 f7bd 9ad2 d43d
000001f0: c4b4 0cbe 2978 a9bd 4afb 17bd af70 3abc
00000200: 57b4 ed3c 4d8e 483d f93b 2bbe ec6d 53bd
00000210: 1da9 363e fdd1 833d ea78 d23d d75f ab3d
00000220: cad1 5fbd e626 d0bd 9282 7ebd f2d7 08be
00000230: 35a2 8c3d e938 da3d 2b84 34be 8e1f bdbc
00000240: 5d25 a1bd 59a2 6fbd fe51 05be f325 693c
00000250: 8162 c93d a613 c7bd 25a0 4d3c dfca dcbc
00000260: 16d0 d5bd d182 073d ce20 bc3d 3c10 283e
00000270: 8973 693d 8474 40bc c970 51bd 976f 1cbe
00000280: 5ed2 83bc d595 a1bd e7e9 afbd bc0a c4bd
00000290: 16c6 f23d 1088 aa3d dd4b dbbc 0c86 89bd
000002a0: e40c 67bd 0b67 0fbd 27c4 133c 33ea 52bc
000002b0: d237 a73d bec9 b03c 273f 37bc 7625 963d
000002c0: b9cc 31be 6468 28bd 4885 c9bc afd0 153e
000002d0: 2a5d efbd 6aa0 033e 9eea 643c 247f 03be
000002e0: 7dbd 4e3d 6546 53bd 1192 3cbe d96a d2bb
000002f0: 356a 26be 7d38 a63d fb3c 3ebd 9cb2 21be
00000300: 7ae3 dc3d 319c a0bd a1ee bb3d 11dd 1b3d
00000310: 2664 dc3d 020c c73d 4f89 443d d25a cdbc
00000320: c1a2 08be b3eb 87bd f060 0dbe bbb9 3b3d
00000330: 6524 9c3d c4cf 9cbc 22df d93d e181 aa3d
00000340: 8a00 323d b936 12be c487 9abd 88b0 84bd
00000350: 59dc 023d 85c8 c1bd 2300 2ebe 82ea 0bbd
00000360: a3a9 00be 9a41 643c a6f0 25bd 1a9b c6bc
00000370: 05ae bcbb be1b dc3d 2a68 e9bc 9130 e6bc
00000380: 72ba 053e 6a5f 383c c62e 11be 5adf 27be
00000390: 719c 83bc 05ec 84be 9589 9b3d a537 9f3d
000003a0: 81cd c13d ed17 cbbd 4c74 993c 83dc de3b
000003b0: fe3f 1fbc 85e7 b13d 2b34 dabd 2c72 51bd
000003c0: e16d 273d 93c7 8ebd b3ad ab3d 0756 1bbe
000003d0: e883 833d 6bc2 20bc e74b aa3c 38c0 2eb9
000003e0: 827d cc3d fa04 f7bc 5fbb fd3c 204a b4bd
000003f0: bf01 2d3e f6a7 a7bd c7c3 d93d 9a39 b1bd

actor.2.weight f4 [256, 512]
0.032009285 0.07296232 0.16283979 0.03293525 0.009329025 -0.033118505 -0.16936564 0.08878963
-0.031780656 -0.1187803 0.14399144 -0.078075916 -0.056095283 -0.045482997 -0.14957152 -0.13113207
-0.029934166 -0.0751653 -0.026569957 -0.026200479 -0.05096031 0.019739283 0.075715594 -0.107925355
0.12932678 -0.109514005 -0.027456451 0.100939825 0.056053966 0.019230425 0.21356039 -0.034536168
-0.15026271 -0.073159 0.021288365 0.024141261 0.06375758 0.10346612 -0.10351663 -0.11881567
0.047006384 -0.07052664 0.07570128 -0.041327942 0.049598984 -0.093459025 -0.12861773 -0.072060116
0.030094557 0.04793757 0.008821541 -0.07298381 0.018386764 0.0070332214 0.06733487 0.059179727
-0.030863574 -0.034959953 -0.005245735 0.10976699 -0.07274868 -0.13313618 -0.11244406 -0.15613921
0.105816305 0.02169703 0.057484504 0.013124726 0.05959367 -0.07137243 -0.033921897 0.14934935
0.064114705 -0.027440563 -0.0066403644 0.08371787 0.025550265 0.09567647 -0.09940871 -0.19000444
-0.23927775 0.06525165 0.0003867408 -0.045186963 0.04094554 -0.08806238 0.036843304 -0.06964483
-0.032539804 0.015513567 -0.06399161 0.14424317 0.05673887 -0.089629605 -0.043542366 -0.05759568
-0.049157288 -0.13524997 0.04061799 0.024080351 -0.20730478 -0.10101149 -0.070348665 0.021121394
0.15670395 0.12135641 -0.08525834 0.0062334775 -0.019690258 -0.081717744 0.04432175 -0.05080213
-0.02945274 0.007840623 -0.046013374 -0.065540045 -0.051667996 0.17080083 -0.21199243 -0.04206449
-0.038820334 -0.032484304 0.02049953 0.047953922 -0.1199513 -0.025415013 0.13876249 0.23467658
-0.039667353 -0.10864972 0.012273899 0.18900844 0.13966902 0.14100276 0.12040364 0.0996585
-0.088083334 0.04474369 0.06611624 0.14685158 -0.028359577 -0.0009753691 -0.06108876 0.114086136
-0.0702683 -0.0053205416 0.034865133 -0.06581514 -0.01258375 0.03270824 -0.1474291 0.01866612
-0.016527962 -0.110784724 0.3131716 -0.038702194 0.060838465 0.07774657 0.09266899 -0.014923806
0.015653262 0.05377564 0.06306101 -0.059044942 0.22257909 0.14132757 -0.052652493 0.055615325
-0.06440644 -0.04059525 0.13773231 -0.106714964 0.021287564 -0.103359625 -0.1544626 0.09906443
0.016240776 -0.059020273 0.084668495 -0.018519485 0.21821734 -0.08294878 0.11860653 -0.063822985
-0.04441603 -0.038687956 0.07827132 0.1081493 -0.01839181 -0.085580446 -0.1140648 0.02765993
0.07339708 0.1276271 -0.07387592 -0.0029604456 -0.12918708 0.09913505 -0.019995656 -0.033734087
0.0063988296 -0.04756639 0.013042237 0.10817274 -0.112106524 -0.11236261 -0.06515536 0.035103247
0.05468022 -0.15744723 -0.029431067 -0.08694258 -0.064227685 0.1300797 0.029256213 0.028060459
-0.02258186 0.01984671 -0.13697979 0.09440801 -0.15142563 -0.22343524 0.21261294 0.103962556
-0.05977884 -0.070969984 0.0587398 0.1438342 0.036890805 -0.023541754 0.11784547 0.11395413
-0.18843962 -0.10633692 -0.08674148 -0.0035293258 -0.111693315 -0.0020207076 0.13662232 0.027223742
0.0037709663 0.2173551 -0.055706907 0.017845321 -0.22225894 0.13230199 0.059187185 -0.063142024
-0.042431034 -0.09190501 -0.035416033 0.045262102 0.04182378 0.10885354 0.1098806 0.06792208
00000000: 2b1c 033d 456d 953d 79bf 263e 1de7 063d
00000010: c4d8 183c 45a7 07bd 306e 2dbe 56d7 b53d
00000020: 6f2c 02bd 1643 f3bd 7e72 133e 44e6 9fbd
00000030: 2bc4 65bd 614c 3abd 4729 19be 7c47 06be
00000040: 7f38 f5bc 44f0 99bd 3da9 d9bc 63a2 d6bc
00000050: c2bb 50bd 47b4 a13c c710 9b3d f807 ddbd
00000060: 3d6e 043e e148 e0bd 5aec e0bc 8ab9 ce3d
00000070: d898 653d 2089 9d3c 93af 5a3e cc75 0dbd
00000080: 78de 19be 63d4 95bd f064 ae3c e5c3 c53c
00000090: 5693 823d 0ce6 d33d 8700 d4bd a155 f3bd
000000a0: c489 403d 4570 90bd 4609 9b3d 7d47 29bd
000000b0: 4e28 4b3d 7267 bfbd 5eb4 03be 4194 93bd
000000c0: dc88 f63c 2f5a 443d 3a88 103c 8978 95bd
000000d0: d79f 963c f076 e63b dde6 893d 7166 723d
000000e0: 9bd5 fcbc 2b32 0fbd 6ae4 abbb 84cd e03d
000000f0: 43fd 94bd da54 08be 1249 e6bd f5e2 1fbe
00000100: 38b6 d83d f8bd b13c df74 6b3d 1709 573c
00000110: 7e18 743d b52b 92bd b0f1 0abd 09ef 183e
00000120: 924e 833d 08cb e0bc 6a97 d9bb 4674 ab3d
00000130: ca4e d13c 06f2 c33d cb96 cbbd 8690 42be
00000140: 3a05 75be a8a2 853d 79c3 ca39 f715 39bd
00000150: 83b6 273d 0d5a b4bd 01e9 163d f3a1 8ebd
00000160: 7548 05bd 9e2c 7e3c 090e 83bd 7bb4 133e
00000170: 0467 683d ba8f b7bd 7b59 32bd 73e9 6bbd
00000180: 2759 49bd f87e 0abe 0d5f 263d 2844 c53c
00000190: b447 54be 1ddf cebd f612 90bd c606 ad3c
000001a0: 0077 203e b689 f83d ed9b aebd 3342 cc3b
000001b0: 774d a1bc a25b a7bd b98a 353d e515 50bd
000001c0: df46 f1bc f575 003c 8578 3cbd dc39 86bd
000001d0: d2a1 53bd 6ae6 2e3e 8b14 59be d14b 2cbd
000001e0: 1202 1fbd 430e 05bd a1ee a73c 556b 443d
000001f0: 07a9 f5bd 2533 d0bc c117 0e3e 0f4f 703e
00000200: 3c7a 22bd bf83 debd 7718 493c 6e8b 413e
00000210: 6505 0f3e 0763 103e 2f96 f63d c119 cc3d
00000220: 0965 b4bd 2945 373d f467 873d 4360 163e
00000230: 5852 e8bc eaaf 7fba 3538 7abd fea5 e93d
00000240: d4e8 8fbd f057 aebb bece 0e3d 17ca 86bd
00000250: 132c 4ebc 13f9 053d a7f7 16be b1e9 983c
00000260: a665 87bc 1ae3 e2bd 0758 a03e 3186 1ebd
00000270: c131 793d 9839 9f3d 3dc9 bd3d fb82 74bc
00000280: 453b 803c d843 5c3d 2126 813d 1cd9 71bd
00000290: c6eb 633e 2db8 103e 24aa 57bd e5cc 633d
000002a0: 86e7 83bd 3447 26bd b309 0d3e 608d dabd
000002b0: 4263 ae3c 36ae d3bd 722b 1ebe 4be2 ca3d
000002c0: 600b 853c 3ebf 71bd ad66 ad3d 2db6 97bc
000002d0: 5e74 5f3e 0de1 a9bd fbe7 f23d a0b5 82bd
000002e0: 95ed 35bd 4377 1ebd b74c a03d 617d dd3d
000002f0: 6caa 96bc cd44 afbd ce9a e9bd 1497 e23c
00000300: 3551 963d aeb0 023e 424c 97bd 0904 42bb
00000310: 9e49 04be 5107 cb3d eecd a3bc c12c 0abd
00000320: 46ad d13b fad4 42bd 1baf 553c ab89 dd3d
00000330: 1b98 e5bd 5e1e e6bd 2c70 85bd 6cc8 0f3d
00000340: 5ef8 5f3d d939 21be 6c19 f1bc f40e b2bd
00000350: ce89 83bd 9d33 053e baaa ef3c 0cdf e53c
00000360: 98fd b8bc 9195 a23c 6e44 0cbe fd58 c13d
00000370: 520f 1bbe 35cc 64be 35b7 593e 52ea d43d
00000380: a8da 74bd b658 91bd 2599 703d 4649 133e
00000390: d01a 173d a3da c0bc f758 f13d c860 e93d
000003a0: 51f6 40be 2cc7 d9bd 84a5 b1bd 434c 67bb
000003b0: 77bf e4bd d96d 04bb b9e6 0b3e 5304 df3c
000003c0: 5122 773b 5692 5e3e ed2c 64bd 5a30 923c
000003d0: d997 63be 2c7a 073e 436e 723d 9b50 81bd
000003e0: 2acc 2dbd b238 bcbd 6710 11bd c164 393d
000003f0: 694f 2b3d 9bee de3d 1409 e13d bb1a 8b3d

actor.2.bias f4 [256]
-0.045791734 -0.048996434 -0.14033794 -0.06994112 -0.0039810855 -0.058651306 -0.1157511 -0.027761428
-0.029904038 -0.05166107 -0.08864389 -0.021826545 -0.060507186 -0.018303497 -0.043922193 -0.03528406
-0.06722977 -0.030856857 -0.020700332 -0.052676708 -0.07529381 -0.13980591 -0.071594365 -0.08110608
-0.07113754 -0.084861845 -0.077360906 -0.09772827 -0.00047429468 -0.044729132 -0.022364648 -0.041828513
-0.042966787 -0.11943415 -0.05207453 -0.06750107 0.044216506 -0.08883684 0.025104186 -0.057700466
-0.00952036 -0.15678068 -0.15416802 -0.010338059 -0.022401962 -0.09195805 -0.13609816 -0.12751645
0.090162225 -0.054105077 -0.17237656 -0.09728563 -0.07020638 -0.048477072 -0.04000179 -0.058171682
-0.064456806 -0.10957137 -0.07444805 -0.10755117 -0.063838355 -0.03351114 -0.10437805 -0.039221
0.021413079 -0.1763192 -0.028532138 0.04448851 -0.04993829 -0.08916875 -0.0077293683 -0.032187235
-0.011887019 -0.11421841 -0.059477493 0.008258956 -0.0594616 0.00046530413 -0.088258706 0.08166693
-0.097974874 -0.07108155 0.1111931 -0.04022001 -0.026990095 -0.027123952 -0.058718152 -0.12589292
-0.008463177 -0.045865163 0.002431546 -0.022627536 -0.121602036 -0.0678946 -0.12709184 -0.023457257
-0.025808906 -0.14889933 -0.037913483 -0.0472683 -0.04708637 -0.18673228 -0.055050205 0.005632795
-0.0530357 -0.06946782 -0.12408743 -0.049852982 -0.036006123 -0.011336658 -0.12742074 -0.0805496
-0.12009009 -0.028372709 -0.051111665 -0.063398175 -0.076423146 -0.06306873 0.0186893 -0.07004772
-0.0715953 -0.05005169 -0.13924417 -0.027523968 -0.06643693 -0.04880695 -0.11493421 -0.07094144
-0.0024580953 -0.01589862 -0.082612865 0.017873665 -0.009039285 -0.142784 -0.048899386 -0.07821863
-0.12783404 -0.0119291805 -0.030215796 -0.015233701 -0.061636545 -0.08617479 -0.07843325 -0.107226826
-0.076469906 -0.06624969 -0.06449081 -0.04808746 -0.09432504 -0.1142978 -0.060572516 -0.07917286
-0.030347532 0.012198095 -0.05347886 -0.044206474 -0.0817726 -0.04891975 -0.053909067 -0.09034991
-0.04683648 -0.06357104 -0.06371202 -0.05783485 -0.070222445 -0.06879063 0.046245277 -0.07349675
-0.02811747 -0.073767655 -0.14590277 -0.08339809 -0.08691359 -0.033494372 -0.095905274 -0.092856586
-0.06219581 -0.10264803 -0.14266367 0.00600858 -0.12013851 -0.110499896 0.0021703022 -0.044760015
-0.12247409 -0.10153236 -0.09553561 -0.02107221 -0.024710093 -0.081011385 -0.10187685 -0.06564241
-0.009142291 -0.092220485 -0.09581902 -0.050462816 -0.09933072 -0.08426224 -0.09136607 -0.06482475
-0.06989565 -0.0179078 -0.08404563 -0.10624252 -0.10370724 -0.052174695 -0.071350284 -0.09262574
0.08102758 -0.057159137 0.05222154 -0.104410045 -0.067589164 -0.06349725 0.016502764 -0.117162585
0.0027096928 0.0131266285 -0.079403535 -0.09032203 -0.16128832 -0.022613559 -0.01749042 -0.03648769
-0.0953645 -0.10131466 -0.040960323 -0.054758314 -0.10785304 -0.03403795 -0.041917652 0.01334628
0.026291694 0.113664575 -0.0029017187 -0.16244939 -0.0413224 -0.095727354 -0.089817435 -0.08263559
-0.20692028 -0.04578193 -0.009629875 -0.050561577 -0.04440026 -0.077052146 -0.09490291 -0.09814817
-0.04689938 -0.05186586 -0.029612668 -0.033100307 -0.03140331 -0.02677496 -0.026049146 -0.09698847
00000000: 1d90 3bbd 7cb0 48bd c0b4 0fbe 4a3d 8fbd
00000010: c473 82bb 5a3c 70bd ea0e edbd ef6b e3bc
00000020: 50f9 f4bc 8f9a 53bd ee8a b5bd 95cd b2bc
00000030: 62d6 77bd 37f1 95bc c2e7 33bd 0586 10bd
00000040: c3af 89bd 85c7 fcbc be93 a9bc 88c3 57bd
00000050: a433 9abd 4829 0fbe 11a0 92bd f21a a6bd
00000060: 8fb0 91bd 0ccc adbd 656f 9ebd c225 c8bd
00000070: c1aa f8b9 e535 37bd 1136 b7bc 6054 2bbd
00000080: f1fd 2fbd e499 f4bd 1a4c 55bd 003e 8abd
00000090: 5e1c 353d 17f0 b5bd 4ba7 cd3c 5357 6cbd
000000a0: 49fb 1bbc 1d8b 20be 39de 1dbe f660 29bc
000000b0: 5284 b7bc 8154 bcbd 515d 0bbe ac93 02be
000000c0: f9a6 b83d 499d 5dbd 7b83 30be b03d c7bd
000000d0: 5dc8 8fbd e58f 46bd ebd8 23bd 6e45 6ebd
000000e0: ee01 84bd f466 e0bd 3878 98bd ca43 dcbd
000000f0: afbd 82bd fa42 09bd 29c4 d5bd 33a6 20bd
00000100: 7b6a af3c 058d 34be 3bbc e9bc 9539 363d
00000110: 188c 4cbd 1b9e b6bd a446 fdbb c3d6 03bd
00000120: c5c1 42bc 57eb e9bd ac9e 73bd 9250 073c
00000130: 028e 73bd 10f4 f339 fbc0 b4bd fe40 a73d
00000140: 0da7 c8bd 3493 91bd 35b9 e33d bdbd 24bd
00000150: 551a ddbc 0d33 debc 7282 70bd 13ea 00be
00000160: 23a9 0abc 1cdd 3bbd 935a 1f3b 625d b9bc
00000170: 7d0a f9bd 530c 8bbd 5d24 02be 6f29 c0bc
00000180: 336d d3bc 1179 18be 2b4b 1bbd 689c 41bd
00000190: a3dd 40bd bf36 3fbe 537c 61bd 4f93 b83b
000001a0: f63b 59bd 2545 8ebd 8d21 febd a432 4cbd
000001b0: 287b 13bd 64bd 39bc 957a 02be 30f7 a4bd
000001c0: cbf1 f5bd e26d e8bc 775a 51bd e7d6 81bd
000001d0: bd83 9cbd 2e2a 81bd 4e1a 993c 2e75 8fbd
000001e0: 8fa0 92bd 0003 4dbd 0696 0ebe f279 e1bc
000001f0: 1610 88bd cce9 47bd a162 ebbd bf49 91bd
00000200: ff17 21bb d33d 82bc ef30 a9bd cb6b 923c
00000210: 8219 14bc f835 12be b94a 48bd 1731 a0bd
00000220: ede6 02be 9c72 43bc 1e87 f7bc c696 79bc
00000230: 9a76 7cbd 697c b0bd 9da1 a0bd bd99 dbbd
00000240: 419c 9cbd ebad 87bd c213 84bd 5bf7 44bd
00000250: 7d2d c1bd f714 eabd e31a 78bd 6125 a2bd
00000260: 639b f8bc 85da 473c a60c 5bbd d911 35bd
00000270: 6578 a7bd 1360 48bd c1cf 5cbd 6009 b9bd
00000280: 9cd7 3fbd 8931 82bd 737b 82bd 3ce4 6cbd
00000290: c9d0 8fbd 1ae2 8cbd b06b 3d3d 7785 96bd
000002a0: 9c56 e6bc 7f13 97bd 8967 15be 9ecc aabd
000002b0: c1ff b1bd 6531 09bd fc69 c4bd 982b bebd
000002c0: 09c1 7ebd 2139 d2bd 6d16 12be 9fe3 c43b
000002d0: 2e0b f6bd c54d e2bd a13b 0e3b 4756 37bd
000002e0: b2d3 fabd 33f0 cfbd 2da8 c3bd a19f acbc
000002f0: d26c cabc 4ce9 a5bd cfa4 d0bd 876f 86bd
00000300: 8cc9 15bc 18de bcbd c33c c4bd 19b2 4ebd
00000310: e86d cbbd ae91 acbd 221e bbbd d7c2 84bd
00000320: 7325 8fbd 61b3 92bc 1e20 acbd ae95 d9bd
00000330: 7664 d4bd 22b5 55bd 1920 92bd 90b2 bdbd
00000340: caf1 a53d b31f 6abd 41e6 553d efd4 d5bd
00000350: 306c 8abd d90a 82bd ce30 873c f0f2 efbd
00000360: 1a95 313b 1211 573c 529e a2bd c2fa b8bd
00000370: c428 25be 1240 b9bc 1248 8fbc 1e74 15bd
00000380: 774e c3bd 0f7e cfbd 03c6 27bd 414a 60bd
00000390: 0ee2 dcbd 616b 0bbd d8b1 2bbd 5baa 5a3c
000003a0: ae61 d73c f9c8 e83d c32a 3ebb 2259 26be
000003b0: ad41 29bd b40c c4bd 34f2 b7bd d93c a9bd
000003c0: e9e2 53be d585 3bbd a0c6 1dbc a819 4fbd
000003d0: 0cdd 35bd 84cd 9dbd 755c c2bd e801 c9bd
000003e0: 9019 40bd 4c71 54bd 4496 f2bc 3094 07bd
000003f0: c2a0 00bd 2957 dbbc 0565 d5bc e4a1 c6bd

actor.4.weight f4 [128, 256]
-0.3580195 0.18626304 0.1212066 0.071716286 -0.0092102075 -0.04725427 0.023591107 -0.06409491
0.07280905 -0.08845261 -0.034038004 -0.014829159 -0.116111845 0.030958978 0.03175807 -0.01970944
0.055585366 0.061507437 0.07407273 0.043603454 -0.07215196 -0.023471415 0.07727933 0.090110816
0.081636645 0.028591525 -0.09853051 -0.04912073 0.10915243 0.02061751 -0.0013460113 0.07086124
0.11876046 0.060041405 0.0055728573 0.03030134 0.0059591806 0.06267762 0.07576618 -0.09959616
0.07867615 -0.13822109 0.010557217 0.0074313614 0.072342955 -0.04361703 0.035324648 -0.029527197
0.027884563 0.03247787 0.19879936 -0.0402546 -0.059639473 0.003287371 0.00143413 -0.048459947
-0.006800245 0.1455917 -0.064982116 0.011631165 -0.11883044 -0.12433449 -0.085341595 0.1958419
-0.11395198 -0.053763166 0.058382344 0.062781386 0.067704655 0.15223381 -0.09004824 0.059345797
0.06703863 0.09237779 0.07242378 0.0061297906 -0.22334331 0.034050398 0.044552524 0.053717915
-0.08844934 0.03786136 0.10709853 0.012435511 0.18618682 -0.06688352 0.057636883 -0.136727
0.07761942 0.025670866 -0.036085878 0.066015355 0.047923207 -0.08394176 0.09279745 0.0438253
-0.015538442 0.08742423 0.053470455 0.017101992 0.027229967 0.109675184 0.05517902 -0.07987501
-0.13504687 -0.053568173 -0.02429799 0.1375203 0.1089208 0.030860195 0.030696481 0.09759056
0.100633904 0.11316497 -0.0869355 0.042386357 -0.020638037 -0.063864954 -0.020618368 -0.03105974
0.03191874 -0.048679613 -0.040979072 0.086070634 0.20329429 0.0063344445 -0.06813221 0.0071011377
0.006909806 0.05326575 0.032311946 0.06832293 0.08571765 -0.041954894 0.045744576 -0.019923331
0.032307897 -0.102916166 0.06560572 -0.031740427 0.03009079 0.03360908 -0.09633678 0.08561175
0.0234303 -0.00988642 0.051045455 -0.020684283 0.052945103 0.016957253 0.040178936 -0.041198567
0.010274072 0.030863075 0.11736273 0.03131906 0.031214507 -0.01940547 0.062267788 -0.029878901
0.010904808 -0.035186447 -0.0018464763 0.070413575 -0.029498497 -0.15924609 0.18276256 0.023607846
-0.01956832 0.13872151 0.020845069 0.011927602 -0.05735071 0.020375269 -0.1027674 0.11044735
0.0009553286 -0.0035928674 -0.10022172 -0.12418035 -0.007896023 0.03571974 0.004980898 -0.08724563
-0.031319376 -0.039261904 0.0004787071 -0.010975149 -0.11900829 0.10563276 -0.05736115 0.034934312
-0.05810781 0.04718071 0.09423636 0.02232553 -0.068148404 -0.22941922 -0.060744017 0.003873315
0.02304107 0.05380215 -0.08987939 -0.06831319 0.06400944 0.038635954 -0.024552668 -0.13653569
-0.081343986 0.07102353 -0.13144055 -0.02509167 0.012328032 0.05044723 -0.04074143 0.04475371
0.0062942333 0.12891349 0.07869916 0.0840547 0.13205308 -0.10103842 0.10126344 0.051641136
-0.19823854 -0.06545631 0.060368787 0.08154346 0.050986975 0.041828673 -0.08849575 0.04080012
-0.038519137 0.013159892 0.040153857 0.17621441 0.1044604 -0.09960381 0.031397387 -0.07455493
0.08328029 0.18154044 0.20186839 0.12010125 -0.0664148 0.011717331 -0.057218738 0.065849505
0.033937525 0.050640434 -0.071469255 -0.07118125 0.10372258 -0.06324751 0.0305052 -0.013039218
00000000: 554e b7be bdbb 3e3e 2a3b f83d fddf 923d
00000010: 69e6 16bc b28d 41bd 2342 c13c 3144 83bd
00000020: e91c 953d a426 b5bd 6f6b 0bbd 00f6 72bc
00000030: 0ccc edbd af9d fd3c c014 023d b175 a1bc
00000040: 7bad 633d 39ef 7b3d 72b3 973d 8999 323d
00000050: 68c4 93bd 2047 c0bc a044 9e3d 058c b83d
00000060: 1d31 a73d c638 ea3c 5dca c9bd d232 49bd
00000070: 4f8b df3d 0de6 a83c a56c b0ba b31f 913d
00000080: af38 f33d faed 753d 849c b63b 843a f83c
00000090: 3b45 c33b 205d 803d 4d2b 9b3d 12f9 cbbd
000000a0: f620 a13d d489 0dbe 2df8 2c3c c782 f33b
000000b0: 8b28 943d c5a7 32bd 94b0 103d 05e3 f1bc
000000c0: 2b6e e43c 8407 053d 0f92 4b3e 02e2 24bd
000000d0: 8548 74bd ef70 573b 6bf9 bb3a f07d 46bd
000000e0: 97d4 debb fe15 153e 5815 85bd a490 3e3c
000000f0: 605d f3bd 15a3 febd 93c7 aebd c78a 483e
00000100: a85f e9bd c436 5cbd 5322 6f3d 8793 803d
00000110: bda8 8a3d 2ee3 1b3e 366b b8bd 9414 733d
00000120: 8d4b 893d 9130 bd3d eb52 943d 69dc c83b
00000130: 1cb4 64be 6e78 0b3d b57c 363d 5107 5c3d
00000140: ed24 b5bd 8314 1b3d 7956 db3d 50be 4b3c
00000150: c2a7 3e3e 3afa 88bd a714 6c3d 2a02 0cbe
00000160: eef6 9e3d b54b d23c c9ce 13bd 0f33 873d
00000170: 204b 443d a8e9 abbd 970c be3d 2882 333d
00000180: f394 7ebc 7a0b b33d d603 5b3d 7a19 8c3c
00000190: 6111 df3c 629d e03d 6503 623d 8295 a3bd
000001a0: ba49 0abe 4d6a 5bbd 940c c7bc 1fd2 0c3e
000001b0: de11 df3d 85ce fc3c 3077 fb3c 8fdd c73d
000001c0: 2619 ce3d 09c3 e73d 3d0b b2bd 519d 2d3d
000001d0: 1a11 a9bc a1cb 82bd dae7 a8bc ff70 febc
000001e0: 3abd 023d 4664 47bd acd9 27bd cd45 b03d
000001f0: 612c 503e 2c91 cf3b e688 8bbd a9b0 e83b
00000200: a76b e23b 302d 5a3d 8859 043d e4ec 8b3d
00000210: bc8c af3d e5d8 2bbd aa5e 3b3d 4136 a3bc
00000220: 4955 043d b6c5 d2bd 4b5c 863d 4002 02bd
00000230: f680 f63c ada9 093d 384c c5bd 3755 af3d
00000240: e7f0 bf3c a7fa 21bc 0a15 513d 1672 a9bc
00000250: f7dc 583d f0e9 8a3c ab92 243d d4bf 28bd
00000260: 9554 283c 8fd4 fc3c df5b f03d 6a48 003d
00000270: 91b5 ff3c 38f8 9ebc 820c 7f3d 99c4 f4bc
00000280: 14aa 323c aa1f 10bd 7705 f2ba fe34 903d
00000290: d5a6 f1bc 6811 23be 1c26 3b3e 3e65 c13c
000002a0: be4d a0bc 030d 0e3e 47c3 aa3c fd6b 433c
000002b0: 94e8 6abd 09ea a63c b777 d2bd 3832 e23d
000002c0: 046f 7a3a 5076 6bbb 0c41 cdbd 4452 febd
000002d0: 525e 01bc dd4e 123d cd36 a33b d6ad b2bd
000002e0: bf48 00bd 17d1 20bd fbfa fa39 1dd1 33bc
000002f0: 9eba f3bd fd55 d83d 86f3 6abd 4817 0f3d
00000300: 7402 6ebd 8f40 413d fefe c03d 08e4 b63c
00000310: 6491 8bbd dfec 6abe b8ce 78bd 71d7 7d3b
00000320: a0c0 bc3c a55f 5c3d b012 b8bd c9e7 8bbd
00000330: 6217 833d bc40 1e3d ad22 c9bc 03d0 0bbe
00000340: ad97 a6bd c974 913d 5a98 06be 0c8d cdbc
00000350: 84fb 493c c1a1 4e3d 7ce0 26bd ab4f 373d
00000360: db3f ce3b e601 043e 062d a13d df24 ac3d
00000370: ec38 073e 3bed cebd 3563 cf3d a885 533d
00000380: 0bff 4abe f50d 86bd 4345 773d 4200 a73d
00000390: b8d7 503d 8b54 2b3d 433d b5bd 071e 273d
000003a0: 3ec6 1dbd 969c 573c 5f78 243d 8d71 343e
000003b0: 56ef d53d 15fd cbbd 8c9a 003d 41b0 98bd
000003c0: db8e aa3d bde5 393e 96b6 4e3e a5f7 f53d
000003d0: 7c04 88bd 0cfa 3f3c 325e 6abd 1bdc 863d
000003e0: 1302 0b3d 586c 4f3d 795e 92bd 7ac7 91bd
000003f0: 816c d43d e987 81bd 0be6 f93c 72a2 55bc

actor.4.bias f4 [128]
0.07029731 -0.014025589 -0.05269944 -0.30936247 0.13828005 -0.071974784 -0.036292568 0.0032467672
-0.11473258 -0.11229692 -0.007525526 -0.07230489 -0.003765253 -0.12097748 -0.022073884 -0.03280529
-0.031045157 -0.15750884 -0.09387185 -0.09478796 -0.11721608 -0.34748447 -0.075066365 -0.06160586
-0.017401658 -0.078236714 -0.066614725 -0.3855452 -0.06023942 0.06441983 -0.081347436 -0.15685423
-0.03412135 -0.04778028 -0.028598197 -0.1447039 0.060924184 -0.13436817 -0.110179916 -0.06340886
0.050847773 -0.090392806 -0.18919027 -0.10182032 -0.051934313 -0.004431401 -0.14500034 0.0069661345
0.05359567 -0.1647082 -0.114063896 -0.05956672 -0.029321203 -0.073727615 -0.05610801 -0.024718203
0.044394296 -0.015339691 -0.005466913 -0.12357843 0.03376834 -0.04291492 -0.060950924 -0.044629693
-0.05766991 -0.09078813 0.03634255 0.0051576714 -0.00016948734 -0.27189666 -0.04445633 0.044007983
0.064235285 -0.08108268 -0.017122472 0.07154931 -0.06467948 -0.05019849 -0.09329019 0.033856638
0.013802868 0.035981186 -0.10528469 -0.0041103545 -0.07219857 -0.015476758 -0.12661445 0.084855445
-0.10755255 -0.12632082 0.06229763 -0.0073932824 -0.04912442 0.017706256 -0.14678618 -0.02867896
-0.05026066 -0.062078297 -0.14674719 -0.08307067 -0.13356358 -0.009121202 0.022472305 -0.0077968496
-0.18119565 -0.054398615 -0.16077177 0.010927276 -0.09367104 -0.08413413 -0.032321252 0.07976108
-0.052118897 -0.12021363 -0.06436259 -0.032627683 0.057423458 0.020861562 0.03910083 -0.15806127
0.06831664 -0.055346254 -0.021200085 -0.1593587 0.07133475 0.017352719 0.049843367 -0.10433367
00000000: 09f8 8f3d 96cb 65bc 5edb 57bd c264 9ebe
00000010: 4999 0d3e 8467 93bd 84a7 14bd b7c7 543b
00000020: eaf8 eabd edfb e5bd b098 f6bb 9614 94bd
00000030: 76c2 76bb 0bc3 f7bd 4ad4 b4bc d75e 06bd
00000040: 6a52 febc ff49 21be e23f c0bd 3120 c2bd
00000050: fc0e f0bd 7ce9 b1be 65bc 99bd 6d56 7cbd
00000060: ec8d 8ebc 923a a0bd 4d6d 88bd 2e66 c5be
00000070: 9cbd 76bd 8bee 833d 7c99 a6bd 659e 20be
00000080: d4c2 0bbd 41b5 43bd c446 eabc 422d 14be
00000090: a38b 793d cf97 09be 02a6 e1bd 81dc 81bd
000000a0: c145 503d dd1f b9bd 18bb 41be 2c87 d0bd
000000b0: 13b9 54bd 4935 91bb f87a 14be 2c44 e43b
000000c0: 2287 5b3d 44a9 28be 559a e9bd 3cfc 73bd
000000d0: 0533 f0bc 81fe 96bd 83d1 65bd d47d cabc
000000e0: cbd6 353d 5453 7bbc ca23 b3bb b016 fdbd
000000f0: ac50 0a3d 8ec7 2fbd ada7 79bd a0cd 36bd
00000100: 4937 6cbd 21ef b9bd eddb 143d af01 a93b
00000110: 69b8 31b9 0a36 8bbe d717 36bd b741 343d
00000120: ca8d 833d ad0e a6bd 6d44 8cbc 7288 923d
00000130: ad76 84bd ef9c 4dbd ed0e bfbd 42ad 0a3d
00000140: 6d25 623c 0261 133d 809f d7bd 27b0 86bb
00000150: d8dc 93bd 3a92 7dbc 38a7 01be b1c8 ad3d
00000160: 8344 dcbd 3f5a 01be cd2b 7f3d 5943 f2bb
00000170: b036 49bd b60c 913c 1e4f 16be 23f0 eabc
00000180: 1fde 4dbd d045 7ebd e544 16be f520 aabd
00000190: e4c4 08be 1871 15bc d717 b83c b77c ffbb
000001a0: 5a8b 39be 15d1 5ebd 5ba1 24be 5108 333c
000001b0: 9ad6 bfbd 844e acbd 4a63 04bd c759 a33d
000001c0: a07a 55bd 9032 f6bd 89d0 83bd 9ba4 05bd
000001d0: dc34 6b3d dee5 aa3c 3128 203d d0da 21be
000001e0: 98e9 8b3d c1b2 62bd cdab adbc ed2e 23be
000001f0: f417 923d 4a27 8e3c 8f28 4c3d e4ac d5bd

actor.6.weight f4 [12, 128]
-0.048545968 -0.022956604 0.0673549 -0.013225158 -0.068227336 -0.061155792 -0.04783707 -0.020404352
0.12012192 -0.091658875 0.035788946 0.010244299 0.065527394 0.046723336 0.08280931 0.0775547
-0.018009854 0.0026732758 -0.02908073 -0.05847436 0.055056468 0.024489818 -0.06342918 -0.045669436
0.08602908 -0.023592323 -0.020751135 0.01302159 -0.030234117 0.0877428 -0.029579824 0.018623615
-0.040650863 -0.019174594 0.021789405 0.03232377 -0.07612484 -0.028888592 0.0037552668 0.016795978
-0.019821716 -0.08709913 0.1584951 0.022079932 0.0023165443 0.07182593 0.15730801 -0.090294704
0.03435278 -0.039916705 0.012017666 0.011421921 -0.00914299 -0.07990327 -0.043633323 0.03995909
-0.0033625378 0.066278085 -0.059139203 0.02109231 -0.06337635 -0.07678841 0.04493521 -0.030602397
0.0393863 0.031421073 -0.021450285 -0.06998634 0.021529809 -0.01866876 0.0406567 0.042784553
0.03515799 0.07203744 0.01533916 0.08732567 0.061040122 -0.0797246 -0.07635024 0.037669636
-0.051546235 -0.03906882 0.026505455 -0.07267652 -0.0027795595 -0.029027838 0.0041350788 0.014655446
0.023507284 0.002976229 -0.026983175 -0.010273077 0.014393084 -0.08422903 0.013399766 -0.04164482
-5.759344e-05 -0.058753494 -0.005119865 0.09144186 0.04626721 -0.06321505 -0.014454794 -0.060519833
-0.006245692 0.0076993015 0.03361958 0.052659146 0.05414346 -0.03568853 -0.018827539 -0.02373775
-0.10028466 -0.011533918 0.022110248 -0.030610073 -0.07131153 0.04624385 0.07729244 0.036032796
0.009814059 -0.11456784 -0.029229486 -0.022758845 -0.12448406 -0.06877036 0.040309012 -0.008408269
0.006745313 -0.01804608 -0.027119087 -0.02769176 -0.05178702 0.046326034 -0.021715872 0.069179066
0.0041728015 -0.1287456 0.015645267 -0.017157296 0.022364723 0.025194157 0.05963579 0.05572075
0.020494642 -0.006605724 -0.01438574 0.03413072 0.059694033 -0.05321085 0.019856997 0.048194434
-0.0021858623 0.011319937 0.042287655 -0.021300312 0.08154212 -0.020673063 0.06553397 0.024944384
0.026224378 -0.12967707 -0.046850562 -0.13248546 0.029621422 -0.018162983 -0.041140985 0.11639135
0.05544089 0.079892986 -0.06919091 -0.013555295 0.021020567 0.05960092 0.041736837 -0.038987435
-0.027983608 0.019991888 -0.038920503 -0.07934831 -0.044937335 -0.04542797 0.060619403 -0.08081111
0.035906013 0.075716004 0.0406368 -0.041033603 -0.038381755 -0.004802753 -0.072767936 -0.056616973
-0.023873255 -0.015599631 0.0034532144 0.08829282 0.088780575 0.010873436 0.013184805 0.0045391587
-0.04647588 0.002717704 -0.05052467 0.04861298 -0.12537621 -0.061053656 -0.009907297 0.07377
-0.040681824 0.061607413 0.021579077 0.050203044 0.022363378 -0.053225026 0.020630237 0.087049946
0.04199158 0.016228031 -0.0074866135 0.04154412 -0.13672586 0.104513116 -0.07314158 -0.06662456
-0.04702727 0.0789592 0.056333628 -0.10597078 -0.084604636 0.03812552 0.008096243 0.056134064
0.0648817 -0.022361306 0.0033800579 0.014939933 0.04665369 -0.027863087 -0.0800722 -0.032378547
0.06525883 -0.031017844 -0.12211839 -0.060604416 -0.0016071748 0.039776325 -0.003169993 0.018002674
0.018094756 -0.035648104 -0.019045247 0.081856824 0.033543684 -0.059166733 -0.045618962 -0.033120975
00000000: 23d8 46bd 7d0f bcbc 5ef1 893d 55ae 58bc
00000010: c6ba 8bbd 7f7e 7abd cef0 43bd 0727 a7bc
00000020: 7b02 f63d a6b7 bbbd 6e97 123d b4d7 273c
00000030: 3a33 863d f860 3f3d ed97 a93d 00d5 9e3d
00000040: 6789 93bc 2032 2f3b b63a eebc cf82 6fbd
00000050: e482 613d df9e c83c 28e7 81bd e00f 3bbd
00000060: 0430 b03d b044 c1bc 49fe a9bc 8258 553c
00000070: 8aad f7bc 7fb2 b33d 6351 f2bc 8d90 983c
00000080: 8581 26bd 0a14 9dbc b27f b23c ee65 043d
00000090: 57e7 9bbd c5a7 ecbc ec1a 763b b897 893c
000000a0: 2761 a2bc 0761 b2bd 8a4c 223e f9e0 b43c
000000b0: 2ad1 173b 7919 933d 5a15 213e 6eec b8bd
000000c0: 80b5 0c3d b37f 23bd bfe5 443c 0223 3b3c
000000d0: 7bcc 15bc 53a4 a3bd dbb8 32bd 25ac 233d
000000e0: 065e 5cbb cebc 873d f33b 72bd c8c9 ac3c
000000f0: 76cb 81bd 3e43 9dbd fc0d 383d e1b1 fabc
00000100: 8753 213d 62b3 003d 82b8 afbc 0055 8fbd
00000110: 485f b03c 3aef 98bc a487 263d db3e 2f3d
00000120: d301 103d 5e88 933d 1a51 7b3c cdd7 b23d
00000130: 3505 7a3d a746 a3bd 845d 9cbd 7a4b 1a3d
00000140: 2522 53bd a106 20bd f821 d93c 6dd7 94bd
00000150: 4529 36bb cacb edbc 8e7f 873b 651d 703c
00000160: 5992 c03c d60c 433b d20b ddbc 6850 28bc
00000170: f8d0 6b3c 4580 acbd b18a 5b3c c293 2abd
00000180: 7c90 71b8 81a7 70bd 8ac4 a7bb df45 bb3d
00000190: b082 3d3d e476 81bd cdd3 6cbc a5e3 77bd
000001a0: a9a8 ccbb 6c4a fc3b afb4 093d 1eb1 573d
000001b0: 88c5 5d3d 232e 12bd 363c 9abc ab75 c2bc
000001c0: 0b62 cdbd c2f8 3cbc 8d20 b53c fac1 fabc
000001d0: c80b 92bd 316a 3d3d 804b 9e3d 2097 133d
000001e0: 26cb 203c 8ba2 eabd ad72 efbc c270 babc
000001f0: 80f1 febd 79d7 8cbd 101b 253d d6c2 09bc
00000200: c907 dd3b 5fd5 93bc d928 debc d4d9 e2bc
00000210: a01e 54bd 5ec0 3d3d 7ce5 b1bc c1ad 8d3d
00000220: ffbb 883b e3d5 03be 812a 803c 758d 8cbc
00000230: 3936 b73c fa63 ce3c a844 743d 713b 643d
00000240: 61e4 a73c d474 d8bb 2bb2 6bbc a7cc 0b3d
00000250: bb81 743d 9ff3 59bd 24ab a23c 8767 453d
00000260: af40 0fbb 4277 393c d235 2d3d fe7d aebc
00000270: 8eff a63d 8e5a a9bc ad36 863d 2a58 cc3c
00000280: 82d4 d63c 11ca 04be 60e6 3fbd 45aa 07be
00000290: a0a8 f23c 89ca 94bc 7383 28bd 975e ee3d
000002a0: fd15 633d ef9e a33d f7b3 8dbd 0717 5ebc
000002b0: 5333 ac3c 1820 743d 3ff4 2a3d 4ab1 1fbd
000002c0: e13d e5bc 07c6 a33c 1b6b 1fbd 5e81 a2bd
000002d0: 3610 38bd ae12 3abd 0d4c 783d 4c80 a5bd
000002e0: 2f12 133d fe10 9b3d c672 263d da12 28bd
000002f0: 3036 1dbd 6a60 9dbb 5b07 95bd 33e7 67bd
00000300: d891 c3bc 9895 7fbc 534f 623b ded2 b43d
00000310: 97d2 b53d 7f26 323c 1505 583c 39bd 943b
00000320: 7e5d 3ebd 821b 323b f5f2 4ebd 671e 473d
00000330: 9f62 00be 6613 7abd 3752 22bc ba14 973d
00000340: fca1 26bd 0e58 7c3d 9bc6 b03c b5a1 4d3d
00000350: 6733 b73c 7c02 5abd be00 a93c 3e47 b23d
00000360: 5dff 2b3d a6f0 843c 4452 f5bb 2b2a 2a3d
00000370: dd01 0cbe f90a d63d 41cb 95bd 7572 88bd
00000380: ab9f 40bd 5cb5 a13d 17be 663d 3507 d9bd
00000390: 3245 adbd 8129 1c3d 1ba6 043c d5ec 653d
000003a0: b2e0 843d 0f2f b7bc f683 5d3b 9fc6 743c
000003b0: f117 3f3d 2141 e4bc e5fc a3bd 5e9f 04bd
000003c0: 6ca6 853d 2219 febc 3519 fabd 563c 78bd
000003d0: d6a7 d2ba 80ec 223d a8bf 4fbb 587a 933c
000003e0: 743b 943c bf03 12bd c704 9cbc 8da4 a73d
000003f0: 1a65 093d d158 72bd f3da 3abd dca9 07bd

actor.6.bias f4 [12]
-0.03411454 0.0070735924 -0.029355709 -0.01733181 0.13501033 0.017540675 0.11388423 -0.13995953
0.064214736 -0.10085898 0.1753621 -0.21777315
00000000: b0bb 0bbd 98c9 e73b 627b f0bc 71fb 8dbc
00000010: 2640 0a3e 76b1 8f3c 233c e93d 8d51 0fbe
00000020: 0483 833d 278f cebd 1f92 333e edff 5ebe
