src/ga_quadruped/policy/param_debug.onnx (onnx, 772885 bytes, 8 tensors)

actor.0.weight f4 [512, 52]
000000 5a 83 21 3d ad d7 0d bf b5 f0 cb 3e da dd c3 be
       0.039431907 -0.5540722 0.39832082 -0.38255197
000010 ad 1a 0b 3e 5f 43 8f 3c d0 00 4a 3e 1c ed aa 3d
       0.13584395 0.01748818 0.19726872 0.08346006
000020 38 f2 31 3c f2 f9 98 bb d1 8c b4 3d 1a 93 8a bd
       0.010860972 -0.0046684677 0.08815921 -0.06766339
000030 b3 29 18 3e be 55 a5 3d 32 1f 88 3d 76 d6 d8 bd
       0.14859657 0.08072995 0.06646575 -0.1058778
000040 9b 33 a6 bd e1 c0 c0 be 6e 7b a4 be 6a 1f 8b 3e
       -0.08115312 -0.37647155 -0.3212542 0.27172405
000050 22 c4 ac be ca e0 98 3e 0c eb 24 bd 16 15 43 3e
       -0.33743387 0.29859 -0.04026322 0.19051012
000060 79 96 4f bd 63 38 88 3e c3 88 e8 be 4d e1 c5 bc
       -0.05068061 0.2660552 -0.4541684 -0.024155283
000070 58 bd 24 3e de 39 ae bd 81 33 6d 3e 43 dc df bd
       0.16087854 -0.08507131 0.23164178 -0.109306835
000080 fc 0f 7f be 97 08 8b 3e 7b 71 70 bd 7b 27 e4 bd
       -0.24908441 0.2715499 -0.058701973 -0.11140343
000090 73 05 69 3d 25 59 b5 3e 8c 61 fd bc b0 72 7a bd
       0.056889962 0.35419574 -0.030930303 -0.06114453
0000a0 ef d5 7c 3d 50 3b 60 3d fd 00 63 3d a3 cb a6 bd
       0.06172746 0.054744065 0.055420864 -0.08144309
0000b0 95 c8 7f bd e3 8a c6 3d ea c5 1f bd a8 06 c2 bd
       -0.06244715 0.09694459 -0.039007105 -0.09473926
0000c0 b4 df e5 bd ae f2 7a bd fb e9 d4 3c 4b fc b5 bd
       -0.112243086 -0.061266594 0.025990477 -0.08886012
0000d0 19 5a bb 3e 11 80 0f 3d 3b 2c d5 bd 2f a3 db 3a
       0.36592177 0.035034243 -0.10408827 0.0016757007
0000e0 86 63 ca bd 6d ba 43 bd 14 4c 28 3c 94 e8 8b 3e
       -0.09882264 -0.04778521 0.010272045 0.2732588
0000f0 8c b1 f2 bd 7d 72 84 bd d7 a3 bc bd 77 14 c8 bd
       -0.11850271 -0.064671494 -0.092109375 -0.09769528
000100 c3 47 cc bc 96 4c 3f 3d 83 46 0d bd 9b 48 77 3c
       -0.024936562 0.046703897 -0.034491073 0.015092994
000110 f0 02 e2 bd e4 39 1f 3e b9 da 99 be 06 f5 3a 3d
       -0.110357165 0.15549427 -0.30049685 0.04564383
000120 c5 11 d4 bc e2 8d 23 3d d9 32 2c 3e c7 7f 6f bd
       -0.02588738 0.039930232 0.16816272 -0.058471467
000130 a1 c1 92 3e 00 38 f7 bd bc 85 d7 3d 0e 9a 4d be
       0.28663352 -0.12071228 0.10523555 -0.20078298
000140 f7 58 b1 bd 24 03 8b 3e 30 21 da bc 2b c2 33 3d
       -0.08659547 0.27150834 -0.026627153 0.043886345
000150 35 bf eb bd 35 79 70 3e c7 57 49 be 41 8b 8a be
       -0.11511079 0.23483737 -0.1966239 -0.27059367
000160 b8 1e 97 be 75 a1 4f 3d a0 5e b1 bc bc 5c df bb
       -0.29515624 0.050691087 -0.021651566 -0.0068164747
000170 77 81 02 3e 04 6a af 3d 14 44 f9 3b 56 39 99 3d
       0.127447 0.08565143 0.0076069925 0.07481639
000180 60 9a e3 3c 4b ac 07 3d 01 40 84 bd 23 40 93 bd
       0.027783573 0.033123296 -0.0645752 -0.071899675
000190 8c ec 27 ba 0f d9 d9 bd f5 6a be bd b3 f6 88 3a
       -0.00064057927 -0.10637104 -0.09297744 0.0010449499
0001a0 d5 02 09 3e b2 95 8b 3e 69 a3 ed 3e c0 c7 66 3e
       0.13379987 0.27262646 0.46413735 0.22537136
0001b0 d7 be 47 3e 85 6e 54 bd 06 8a 8b bd cb da ae bd
       0.19506393 -0.051863212 -0.06813435 -0.08537825
0001c0 aa 5a 14 bd b3 2f 44 be 83 37 15 be 6f 85 8c 3d
       -0.036219276 -0.19158821 -0.14571957 0.06861388
0001d0 b9 79 6b 3d a7 a2 c6 bd 70 bd fd bd 7d 22 ad 3c
       0.05748913 -0.09698992 -0.12389648 0.02113461
0001e0 87 8b 53 bc 0c 86 cc bd ac 74 2f 3c da b1 64 be
       -0.012911684 -0.09986505 0.010708969 -0.2233347
0001f0 b2 da 35 3e 8d f4 f6 bd c0 5d c7 3e 42 c4 21 3e
       0.17759207 -0.12058363 0.38938713 0.15797523
000200 98 4b f0 3d cb 64 8f 3d 71 fd 00 3e 9c 0f 88 be
       0.11733168 0.070016466 0.1259668 -0.2657441
000210 af f9 3f 3c e9 7b 88 bd 19 bc 60 be 8c ec 9e 3d
       0.011717244 -0.06664259 -0.21946754 0.077599615
000220 11 4f 63 bd 08 e3 0d 3e 30 27 9e 3e 1f 6f 04 3e
       -0.055495325 0.13856137 0.30889273 0.12933014
000230 6c 88 29 bd 61 9d f6 3d 1f 67 83 bd e9 40 2f 3d
       -0.041389868 0.120417364 -0.06416153 0.042786513
000240 b1 24 08 bd 90 3a 79 3d ee 2b 5e 3d 45 38 7a 3c
       -0.033238117 0.060846865 0.054241113 0.015272205
000250 3b 99 27 3c ed b5 ca 3b f1 83 37 bd d2 f7 3e bd
       0.010229404 0.006186238 -0.044803564 -0.04662306
000260 6b c6 97 3c e0 ff 3f bc 4d 3c 3d bc a7 54 be 3d
       0.01852723 -0.01171872 -0.011550021 0.0929349
000270 fe e0 a6 bd 50 e7 ad be c3 1b 06 3f cb 25 b6 be
       -0.081483826 -0.3396554 0.5238611 -0.3557571
000280 31 3d 01 be f0 1c 1f bd f9 fc 8b 3b 9f 9b 31 3e
       -0.12620999 -0.038845956 0.0042721 0.17344521
000290 6f 17 da bb 7f 78 46 bd 8c 37 17 be ca 6f 4f 3d
       -0.0066556255 -0.048454758 -0.14767283 0.05064372
0002a0 ea 2e f6 bd 5c 74 d5 bd c8 77 ad bc 7d 8e 9e bd
       -0.12020667 -0.104225844 -0.02117528 -0.07742021
0002b0 f2 dc 9a be 45 af a6 bd 26 1d b7 3e 1d c5 89 3e
       -0.30246693 -0.08138899 0.35764426 0.26908198
0002c0 66 1e 1c bd 34 b5 b6 3e 0d c3 3e bd a3 9a ee bd
       -0.038114928 0.35685122 -0.046572734 -0.11650588
0002d0 bc 3f 80 3e f6 ea c6 3c 1b a5 94 3c a1 a8 a3 3d
       0.25048625 0.02428196 0.018145135 0.07991148
0002e0 7d 4c 05 3f 0b 42 4c be 2f c5 c5 3d f5 fc a8 be
       0.52069837 -0.19947068 0.096567504 -0.3300549
0002f0 f7 e3 3b bd 25 e9 97 3c 53 5e cc bd b2 c7 5a 3e
       -0.0458717 0.01854379 -0.099789284 0.2136524
000300 65 b5 1b be 74 b6 70 bd e4 2d 75 bd 42 b1 df 3e
       -0.15205915 -0.05876775 -0.059858218 0.43689924
000310 59 27 36 3d 27 10 0f 3d 02 9f b0 bc ec 39 b0 bd
       0.04447112 0.034927513 -0.021560196 -0.08604798
000320 3e 3e 6f bb 38 d9 ed bd 9e 3c 87 3c 08 a8 d4 bc
       -0.0036505605 -0.11613697 0.016508397 -0.02595903
000330 80 d5 3a 3a 6e 2e a6 3c b9 ce 6f 3d 71 74 0b be
       0.0007127151 0.020285811 0.058546755 -0.13618638
000340 a3 07 59 be 77 91 f8 3d 6a 9a c2 be 66 3c 62 bd
       -0.2119432 0.1213712 -0.38008434 -0.05523338
000350 01 55 1e 3f ce 6e 4a 39 32 18 84 3e 8e 5a 46 3e
       0.61848456 0.00019305499 0.2579971 0.19370481
000360 d5 b5 64 bd e9 62 73 be c2 29 93 be 21 2c 86 bd
       -0.05583747 -0.237682 -0.28742796 -0.06551386
000370 17 35 c1 bd a9 cb 84 bd b8 19 03 be 16 13 cc 3c
       -0.09433954 -0.064841576 -0.1280278 0.024911445
000380 70 d9 80 be 7a dd 17 3d bf 87 6d 3c 04 84 d7 bd
       -0.25165892 0.03707645 0.014497696 -0.10523227
000390 c0 a5 66 3d 04 fc 3e 3e 1d b5 99 3e af 89 d9 3d
       0.056310415 0.18650824 0.3002099 0.10621964
0003a0 7c 1d 3e be d2 68 6f be 55 cf 83 bb fe 1a 3a bc
       -0.18565935 -0.2337983 -0.0040225186 -0.0113589745
0003b0 6b 3a f7 bd 58 d0 8e be d6 c3 8a 3e 9d 76 a7 bd
       -0.12071689 -0.2789333 0.27102536 -0.081769206
0003c0 d8 ae ae 3e 44 51 50 be 1d 16 c0 bd b5 7f b5 3c
       0.3411777 -0.203435 -0.09379218 0.022155622
0003d0 f5 88 81 3d 74 a5 55 be ba d2 be bd 72 d8 f2 3d
       0.063249506 -0.20863897 -0.09317537 0.1185769
0003e0 3e a5 60 bd 21 af a2 bd 5b ba a9 3d 79 16 b2 3d
       -0.054845087 -0.079435594 0.082874976 0.086956926
0003f0 89 19 53 3e 47 5a 61 bd a8 a2 70 3d 35 21 1c 3d
       0.2061521 -0.055017736 0.05874887 0.038117606

actor.0.bias f4 [512]
000000 86 02 0d bd 9d f6 19 3d c8 e0 e0 ba 39 53 a7 bd
       -0.034426235 0.037588704 -0.0017156834 -0.0817017
000010 03 ea ee bd 9d 81 63 bd e1 75 cc 3d 4c 85 82 3d
       -0.11665728 -0.05554353 0.09983421 0.063730806
000020 6e fd 2c 3e b2 fe f0 3d 1b c0 22 be eb 37 b9 3d
       0.16893551 0.11767329 -0.15893595 0.09043869
000030 a8 2d 98 bd 0e 3d 72 3d c0 d3 09 bd 84 46 68 bc
       -0.07430583 0.059140258 -0.033649206 -0.0141769685
000040 6e 1f 96 bd 82 72 14 3d 8d 44 cd 3d 35 60 fc bc
       -0.073302135 0.036242016 0.10022841 -0.030807594
000050 c2 b7 f8 bd 11 c4 e7 3c 74 01 ef bd 30 1d db bd
       -0.12144424 0.028291734 -0.11670199 -0.106989264
000060 5a 05 b3 bd 41 53 ac bd 65 90 d4 3d ea 97 85 bd
       -0.08741255 -0.08414317 0.103791036 -0.06523116
000070 16 31 0f bc de 85 90 3d 77 88 14 3e 38 a9 4a 3c
       -0.00873973 0.07056783 0.14505182 0.012369446
000080 89 94 07 be 3f a9 3d 3d e7 42 94 bd ea 8d fc bd
       -0.13240255 0.046303984 -0.07239323 -0.123317555
000090 95 b4 1f 3e 2a 10 e3 bd 1b 43 e0 3d 95 58 85 3d
       0.1559623 -0.110870674 0.10950299 0.06511036
0000a0 16 94 84 bd 66 e6 0c bc ae 4c 00 bc ed 27 30 bd
       -0.06473558 -0.008599853 -0.007830782 -0.043006826
0000b0 87 66 77 3d 9b ea 9d 3c 95 2f 84 3d 8c b8 e5 bd
       0.060400512 0.019276908 0.06454388 -0.1121684
0000c0 ff 03 c5 3d ff a5 2f 3c 52 eb 97 3c 1f 6e 6b bd
       0.09619903 0.010720729 0.018544827 -0.057478067
0000d0 8a 8d 85 bc 4b b7 9d bd 4b e7 b3 bd 11 f3 ad 3a
       -0.016302843 -0.07700976 -0.0878435 0.0013271292
0000e0 b7 d8 f4 bc b0 89 1f be ec 31 a8 3d ed 78 a3 3d
       -0.029888494 -0.15579867 0.08212647 0.07982049
0000f0 1e 48 47 3e d8 8e 0b be cb bb ba 3c 9a 1d d9 3d
       0.19461104 -0.1362871 0.022794625 0.10601349
000100 50 01 65 3d 37 9c 28 be 01 dd 99 3d 56 5f c9 3d
       0.055909455 -0.16465841 0.07512856 0.09832637
000110 f7 68 dc 3d 68 64 b0 3c 43 53 12 be 5a e1 38 bd
       0.10762208 0.021532252 -0.14289574 -0.045136787
000120 75 ba 00 3d 24 9b 13 bd 90 b9 83 bd ef aa 16 be
       0.03142782 -0.036036626 -0.064318776 -0.14713643
000130 ac 82 88 bd a1 ca 5a 3c 13 df cc bb 7b 25 2e 3d
       -0.06665549 0.013353975 -0.0062521785 0.042516213
000140 17 13 a5 bc e1 9a 30 be 48 cb 91 3d bc 6e 94 bd
       -0.020150704 -0.17246582 0.07118851 -0.072476834
000150 9d 61 23 3d 57 fc 9c 3c 51 85 ba 3d 31 60 13 3d
       0.039888013 0.019163294 0.09107459 0.035980407
000160 a8 b3 88 bd 9d bc 69 bc 16 b6 fa 3d 89 5a ed 3b
       -0.06674892 -0.01426616 0.122417614 0.0072434586
000170 ef a4 b0 bc 77 69 60 3d cf 52 a0 3d e8 96 26 3c
       -0.021563021 0.05478808 0.078282945 0.010167815
000180 27 c4 73 3d af 96 82 bc 5e 17 a5 bd bd bd 01 3e
       0.059513237 -0.015940992 -0.080610976 0.12670036
000190 b8 f8 ad 3c a9 6e bb bc 6d e0 5d bd 42 92 2e 3c
       0.021236762 -0.022879915 -0.054169107 0.010654988
0001a0 75 fc 0d be b9 38 1c bb 45 37 0c be 14 cf 17 3c
       -0.13865836 -0.002383752 -0.13692959 0.00926568
0001b0 cd 7a 9c bd d3 97 77 bd 01 dc 4c 3d 3f 60 21 3e
       -0.0764061 -0.060447525 0.0500145 0.15759371
0001c0 87 06 74 3c 92 ae 34 3d 45 3a a8 3c 9a 7d 01 3d
       0.014894134 0.044111796 0.020535598 0.031613924
0001d0 1a f4 fe bd 72 80 8e bd ad 55 ba 3d 25 5e 57 3d
       -0.124489024 -0.06958093 0.090983726 0.052580018
0001e0 b9 f0 8f bb 26 db 68 bd cc ac c1 bd 15 59 ce 3d
       -0.00439271 -0.05684962 -0.094567865 0.10075585
0001f0 6a bb 3b be 60 fd ab bd ec 66 52 3c 51 65 40 bb
       -0.18333212 -0.08397937 0.012841921 -0.0029357264
000200 97 c2 96 3d c2 01 5f 3d 5c 82 71 bd 50 49 02 bd
       0.07361334 0.054445036 -0.05896221 -0.031808197
000210 31 11 05 3e 73 bd c7 3d 9b 05 6c 3d 21 64 bb 3d
       0.12994839 0.097529314 0.057622533 0.091499574
000220 48 a2 b3 bc 5a 84 fc bd b5 0f 80 bd d7 25 d2 bd
       -0.021927968 -0.123299316 -0.06252996 -0.102611236
000230 f8 e7 a0 3d 72 f8 13 3e 87 99 1e be 99 6c 2b bc
       0.078567445 0.14450243 -0.15488254 -0.010462903
000240 9d 09 68 bd 27 57 60 bd e5 89 b0 bd 5e 73 09 3c
       -0.056649793 -0.054770615 -0.08620051 0.008389322
000250 67 68 ea 3d f7 64 af bc 6c dd 38 3d 58 5d 38 3d
       0.114456944 -0.021410448 0.04513304 0.045010895
000260 fd 48 04 be 18 62 db ba 76 4a d0 3d b4 0b 25 3e
       -0.12918468 -0.0016737608 0.10170452 0.16117746
000270 5f b1 3a 3d 36 00 91 bc 7f 22 e6 bc 34 6c f3 bd
       0.04557931 -0.017700296 -0.02809262 -0.118858725
000280 a6 f2 ed 3c df 0d 61 bd ff 9b ab bd 14 1c bb bd
       0.029046368 -0.05494487 -0.08379363 -0.09136215
000290 12 bc e3 3d 0c 54 b7 3d 03 bc 0c bc 79 b6 33 bd
       0.11119856 0.089515775 -0.008589747 -0.04387519
0002a0 4e 27 d5 3c 1f db b7 bd bc fd 22 3d 37 91 65 bc
       0.026019718 -0.08977341 0.03979276 -0.014011673
0002b0 cd f1 6f 3d 7c 78 18 3d 4c 25 60 bc d5 c3 90 3d
       0.05858021 0.037224278 -0.013680767 0.07068602
0002c0 06 5d af bd 6c e6 25 bd 9c ed 24 3c 9b 2b 12 3e
       -0.08562665 -0.04050295 0.010066416 0.14274447
0002d0 e1 33 ff bd a1 1e ca 3d f8 35 21 3d 97 d3 fa bd
       -0.12461067 0.09869123 0.03935811 -0.12247389
0002e0 96 ff 74 3d de 5a 20 bd 9f f2 05 be bf 08 75 bd
       0.05981406 -0.039149158 -0.13080834 -0.059822794
0002f0 c8 01 09 be bb f1 66 3d f9 9f dc 3b 99 af 20 be
       -0.13379586 0.056382876 0.0067329374 -0.15691985
000300 ea 12 d8 3d 52 09 55 bd 4f a9 75 3d 70 1f 9e 3d
       0.105504826 -0.05201084 0.05997592 0.0772084
000310 c6 22 1b 3e b6 32 61 3d 9d 88 08 3e f9 08 4d bd
       0.15149984 0.054980002 0.13333364 -0.050057385
000320 20 07 43 bd b0 c1 c7 bd eb 50 d7 bd c0 56 3b 3c
       -0.047614217 -0.0975374 -0.10513481 0.011434257
000330 56 96 fc 3c e5 17 50 3c 9d 21 cd 3d 49 69 97 bc
       0.030833405 0.012701009 0.10016177 -0.018482821
000340 f6 41 2b bc c5 0a eb bd 2e 2f 6e bd fa 90 04 bd
       -0.010452738 -0.114766635 -0.058150463 -0.032364823
000350 06 53 2b 3c c7 a2 69 bd 36 92 27 be 0f 71 35 bd
       0.010456806 -0.057040002 -0.16364369 -0.044297274
000360 79 4d 73 bd f1 0f 16 3d 32 ab d9 bb 9f bd a5 bc
       -0.059400056 0.036636297 -0.0066427225 -0.02023202
000370 df e8 95 3c f2 d4 9d 3d 50 ba 6c bd ea 12 80 bc
       0.018299518 0.07706632 -0.05779487 -0.015634019
000380 11 02 c6 3d 87 7e a3 3c 6d c8 00 be 2b 02 11 be
       0.09668363 0.019957794 -0.12576456 -0.14160983
000390 9a 63 12 bd 30 43 17 be ea 6b 29 3d df 77 2d 3e
       -0.03573952 -0.14771724 0.04136268 0.16940258
0003a0 53 02 d5 3d 8e af a6 bc 75 b5 e9 ba 91 30 0f 3d
       0.10400834 -0.020347383 -0.0017830568 0.034958426
0003b0 b5 c9 e9 ba ca 1b 90 3d 89 f0 1b bd c1 e8 87 bc
       -0.0017836603 0.0703655 -0.03807119 -0.016590478
0003c0 76 d4 2f 3d 92 6c 9c bd a6 9f aa 3d 97 6b cc bd
       0.042927228 -0.07637896 0.08331232 -0.09981459
0003d0 e4 8c ce 3c 8a 19 ab bc 74 7c 40 3d 80 cd 00 3d
       0.025213666 -0.020886201 0.046993688 0.03144598
0003e0 b6 d3 07 3e 79 b0 0e 3d b0 cd 08 bd 67 6f 93 bc
       0.13264355 0.034836266 -0.033399284 -0.017997457
0003f0 8f 40 13 3e 2b 10 9c bd b3 7f 29 3c 75 e9 c9 bd
       0.14380096 -0.07620271 0.010345387 -0.098589815

actor.2.weight f4 [256, 512]
000000 91 16 8a 3d 39 f5 e1 3c cc b8 4a 3c 1a 28 bc 3d
       0.067425855 0.027582752 0.012373161 0.09187336
000010 65 df 22 3d e4 6a b3 bd c5 5f 95 3c 2f ef 00 3e
       0.039763827 -0.08760622 0.018234143 0.12591241
000020 ae b6 c2 3d 6a f4 cf 3d 17 ca 17 3d 20 93 a9 3b
       0.095075 0.1015404 0.037057962 0.0051750094
000030 29 e6 01 3c 82 3d 08 3d 5f b2 0f 3d 0d 43 8c 3d
       0.00792841 0.033261783 0.035082217 0.068487264
000040 f1 7c 91 bc 4c 00 92 3d 8d 4f a9 bc ee 97 96 bc
       -0.017759772 0.07128963 -0.020667816 -0.018382993
000050 09 33 9d 3c 7e 35 6a bd bb 78 c5 3d 5f 55 07 be
       0.019189375 -0.05717992 0.09642168 -0.1321616
000060 a5 27 8b bc 16 22 94 3c 49 4d 81 3d 4b 7d b3 bd
       -0.016986677 0.01808266 0.06313569 -0.08764132
000070 29 e2 6f bb 40 af c5 bd 34 17 8d 3c 4d 2d cf 3c
       -0.0036603308 -0.09652567 0.017222978 0.025290156
000080 3b ad 70 bc 5d f0 68 3d 3b 68 0c 3d b8 19 0a 3e
       -0.014689739 0.056869853 0.03427909 0.13486373
000090 47 44 c5 3d 2e 37 3c bd 84 7c 30 bd 90 b5 eb bd
       0.096321635 -0.04595106 -0.043087497 -0.1150924
0000a0 b2 d0 e8 3b fc 86 b7 3d 4a 8a 2d 3d c9 d7 a1 bd
       0.0071049565 0.08961293 0.04236821 -0.07902486
0000b0 66 98 0e be 58 e7 cd 3c f6 aa 59 3d 75 44 bf bc
       -0.13925323 0.025134727 0.053141557 -0.023348073
0000c0 eb 37 81 3d 61 08 aa 3d 34 14 62 3c be d3 d5 bc
       0.06309494 0.083023794 0.013798762 -0.026101943
0000d0 af 89 1b bd 44 10 15 bd fe 7d 34 3d 88 2a a9 3c
       -0.037973102 -0.036392465 0.044065468 0.020650163
0000e0 b8 dc 9c 3d 15 28 24 bc d7 63 5b bd 76 f4 d3 3a
       0.07659286 -0.010019322 -0.05356201 0.0016170877
0000f0 e4 d2 fb bc fe 9a a6 bd fa 1f be bc 97 67 1b bd
       -0.030740209 -0.08135031 -0.023208607 -0.037940588
000100 c4 71 07 3c 8b 1b 92 3d 54 cf 30 3d 57 68 4a bd
       0.00826687 0.0713416 0.043166474 -0.049415912
000110 db 9e 5f bc a2 f9 e0 bd aa 17 77 bd 7e 83 ef bd
       -0.013648714 -0.10985114 -0.060325302 -0.11695002
000120 6b de ed 3c d3 e1 e2 3a 35 2c 7c bd 88 5f 86 3c
       0.029036721 0.0017309733 -0.061565597 0.016402975
000130 0d e4 ef bd 88 64 c9 3c 76 8a 05 bc 1e 69 e8 bc
       -0.11713419 0.02458407 -0.008150687 -0.028370436
000140 48 6e 3f 3c 52 ff f0 bc 94 53 0a 3d 0b a2 86 3c
       0.011684008 -0.029418621 0.033771113 0.01643469
000150 97 05 12 3e 22 2a f6 bc b9 fb 91 3d ab 85 11 bc
       0.14259945 -0.030049387 0.071280904 -0.008881967
000160 4f 3f 07 3c 2c 7d 65 bc 32 60 66 3c f6 32 f5 3d
       0.00825484 -0.014006894 0.014061021 0.11972611
000170 8d c5 1a 3d c3 c5 88 3c e5 58 f1 bc 6f ec fa 3c
       0.037786055 0.016695863 -0.029461334 0.030630318
000180 0b 85 3c 3d a1 32 30 bd ad 5c e7 bd 84 c6 a4 3d
       0.046025317 -0.043017033 -0.112969734 0.08045676
000190 02 89 ae 3c b3 69 39 bc 70 59 72 3d 26 4d cd bc
       0.021305565 -0.011316705 0.059167325 -0.025061201
0001a0 fc e8 6c 3a 3c 5f dc 3d 56 d7 9e bd 71 29 d2 bc
       0.0009037403 0.10760352 -0.07755916 -0.025654526
0001b0 0f 67 ce 3d 8d e3 3b 3d 38 3b 7a bc 2b 68 2e bd
       0.100782506 0.045871306 -0.015272908 -0.04257981
0001c0 b0 f4 b9 bc 39 73 24 bd 7f 92 1d 3d 3b 93 21 bd
       -0.022699684 -0.040148947 0.038469788 -0.03944705
0001d0 c1 2e 2c 3d 13 8e 8b 3c be 4e 04 3d 34 20 84 3d
       0.042036775 0.01703552 0.032301657 0.06451455
0001e0 29 d5 93 bd d1 94 69 bd 9c 9e a4 bd 95 86 6e bd
       -0.072183914 -0.057026688 -0.08038065 -0.058233816
0001f0 68 46 6c 3c e7 93 01 3d 50 5e d1 bd 35 40 6d 3b
       0.014421083 0.03163519 -0.10223067 0.00362016
000200 61 a2 ac 3d 0e 45 ec bb 36 91 33 bb 0d b2 c5 bd
       0.08429409 -0.0072103804 -0.0027399785 -0.09653101
000210 0f 6f 73 3d 57 1e 31 3d a5 38 e1 bc 40 55 bd bd
       0.059432086 0.043241825 -0.02749283 -0.09244776
000220 d3 95 35 bd 45 a2 52 3c 22 6b 00 3e 09 ca 30 3e
       -0.044332337 0.012856071 0.12540868 0.1726457
000230 97 64 35 bc e9 1f 2d 3d 7a 34 0a 3d d0 94 49 bc
       -0.011071346 0.04226676 0.03374145 -0.012303546
000240 46 56 59 bd 7b ea 41 3d 19 da 50 bd f9 5d bb 3d
       -0.053060792 0.04734276 -0.050989244 0.09148783
000250 dd d1 70 bd 7e ba a7 3d 95 c4 86 3d 7c 4f 96 3c
       -0.05879389 0.081898674 0.06580464 0.018348448
000260 0f a4 9b bd 76 e6 66 3c ad 04 6b 3d b2 e0 5b 3e
       -0.07599651 0.014093032 0.057377506 0.21472433
000270 b8 71 f7 3c 2f c2 b4 3c bf af e6 bd c1 c6 91 3d
       0.030205593 0.02206525 -0.1126399 0.071179874
000280 ae 21 90 bd bc 72 8b 39 40 dc 3a 3c 37 3e d9 bc
       -0.07037674 0.0002659763 0.011405051 -0.026518924
000290 f8 92 23 3d 2e d2 5e 3d 22 10 7a 3d 83 87 0d 3e
       0.039935082 0.05439966 0.06105054 0.13821225
0002a0 27 cc 5b 3d a2 3e 89 bc 65 f1 54 bb 99 81 d4 bd
       0.05366149 -0.016753498 -0.0032492515 -0.10376281
0002b0 46 d5 ca 3c 0f 0c 84 bd 6d d4 13 3d a1 48 0e bd
       0.0247599 -0.064476125 0.036091257 -0.034737233
0002c0 3e bf e1 bc c7 d3 31 3d de fc 8a bc 1c 7b 18 3e
       -0.027557012 0.043414857 -0.01696628 0.14890712
0002d0 71 20 d7 3c 19 00 88 bd 26 af 15 bd 92 93 eb 3c
       0.026260586 -0.066406436 -0.036543988 0.02875689
0002e0 90 99 c3 bc 80 39 c0 bd e5 dc e1 bc ad c4 88 3d
       -0.023876935 -0.09385967 -0.027571151 0.06678138
0002f0 af 27 bb bd df 14 75 bd e4 36 61 3d fb e7 9b 3d
       -0.091384284 -0.059834357 0.05498399 0.07612606
000300 3d ba b0 3c 55 ee d2 bd d1 f1 3e be d4 56 52 3d
       0.02157318 -0.102993645 -0.18646933 0.051352337
000310 b3 36 92 bc 9e b6 bf 3d f8 4f 87 3b 8f 3e c0 bb
       -0.017848348 0.09361003 0.004129406 -0.0058668326
000320 c6 70 7b 3d 0b 77 d5 3d a6 55 bb bd 23 0b a1 3b
       0.061386846 0.10423096 -0.091471955 0.0049146577
000330 1f c2 df 3d 0a f3 a0 3d d7 78 c5 3d 2e 00 dc bd
       0.109256975 0.07858856 0.09642189 -0.10742222
000340 68 41 88 3d a1 8d b3 3d e2 f2 cc 3d 16 47 d9 3c
       0.066531 0.08767248 0.10007264 0.026523154
000350 ae 59 99 3c 5e 68 8c 3c c9 4b 3b 3d 2e e0 21 bd
       0.01871952 0.01713961 0.04572657 -0.039520435
000360 d0 ea d6 bc 98 da cb 3d 92 4b 48 3d 39 2e 1d 3e
       -0.026235014 0.09953803 0.048900194 0.15349664
000370 e0 48 8c 3d 5f dc e4 bc a8 e8 58 bc a8 37 2d bd
       0.06849837 -0.027937112 -0.013239063 -0.042289406
000380 f2 18 e7 bc a7 68 c4 3c 84 53 8a bd 75 d7 cb bd
       -0.028210137 0.023975683 -0.067542106 -0.099532045
000390 3b 77 ce 3c 5f 9b 42 bd 9d c3 05 3d 73 ec 30 bd
       0.025203338 -0.047511455 0.032657254 -0.043194246
0003a0 86 f2 54 3d 0d 78 9c 3d ed 8c 24 bd 60 ee f0 3d
       0.0519891 0.07640085 -0.04017346 0.117642164
0003b0 85 51 2a 3c c2 92 45 bc 77 27 ff bc 7a 4f d8 bc
       0.010395412 -0.012058916 -0.031146748 -0.026405085
0003c0 a0 72 92 3d 1d 68 4b be 84 1b c6 3d 44 36 60 3d
       0.07150769 -0.19863935 0.09673217 0.05473925
0003d0 9a b8 8a 3d 03 64 0d bd 7c d0 f1 bc 14 eb 9f bd
       0.06773491 -0.034519207 -0.029518358 -0.078085095
0003e0 74 f4 22 3c 04 eb 3d 3d 2a 81 9b bd 4d 24 ee bc
       0.0099459775 0.046366706 -0.075929955 -0.029070044
0003f0 b9 ae b7 3c f0 84 3e 3c 54 86 63 3d 46 32 4c 3d
       0.022422181 0.011628374 0.055548027 0.049852632

actor.2.bias f4 [256]
000000 ff e5 47 bd cb 8c 8e bd b3 08 0f be f5 15 ad bc
       -0.048803326 -0.06960448 -0.13968162 -0.021128634
000010 47 5b 5a bd b7 7e c7 bc 73 48 c4 bc 2a c4 b8 bc
       -0.053309705 -0.024352415 -0.023960328 -0.022554476
000020 32 3f 56 bd 38 7e 67 bd 75 e3 87 bd 33 8e aa bc
       -0.05230636 -0.056516856 -0.06635181 -0.020819759
000030 a7 8e 85 bd ac a4 7c bd 30 25 c9 bd 63 62 6d bd
       -0.065213494 -0.06168048 -0.09821546 -0.057955157
000040 9d 1d a9 bd 27 4e ba bd bb a1 a2 b9 9d 07 94 bd
       -0.082576014 -0.090969376 -0.00031019546 -0.072280146
000050 af db 24 bc 19 04 50 bd e7 af 75 bd b2 0f 87 bd
       -0.010062142 -0.050785158 -0.059982207 -0.065947905
000060 44 a4 b0 bd 40 76 38 bd 0f 3a d8 bd 78 9b 37 bd
       -0.08625081 -0.045034647 -0.10557949 -0.044826
000070 d9 98 5a bd 4b b2 00 bd d3 7b c4 bd af e4 1e bd
       -0.053368423 -0.031420033 -0.0959393 -0.03879231
000080 a3 02 26 bd 7a 36 2a bd 25 03 a9 bd 2d 82 36 bd
       -0.04052986 -0.04155586 -0.08252553 -0.04455774
000090 7d 93 dd bc a0 84 bc bc b1 bb 57 bd d1 b0 40 bc
       -0.027047867 -0.02301246 -0.05266923 -0.011760906
0000a0 11 72 95 bc 9e 92 15 be 39 47 8f bd 46 5f 87 bd
       -0.018242868 -0.14606711 -0.069960065 -0.06609969
0000b0 a5 62 9e 3b 72 17 c8 bd 5b d2 b1 bd 1b c8 00 be
       0.0048335367 -0.09770097 -0.086827 -0.12576334
0000c0 2a 45 4d 3c b7 dd 74 bd a1 8f 9a bd 2f c4 cf bc
       0.012528697 -0.059781756 -0.07546926 -0.025362102
0000d0 e9 09 4c bd b6 7f 37 bd 13 e4 f0 bb ae 90 7f bb
       -0.04981414 -0.04479953 -0.0073514073 -0.0038996148
0000e0 73 d5 66 3c 33 de dd bc 8f 97 b7 bc b1 14 77 bd
       0.014088976 -0.027083492 -0.022411136 -0.060322467
0000f0 02 bb 5f bd d8 a4 f1 bc 7e 05 e4 bd ce 3f 6d bd
       -0.054621704 -0.029497549 -0.1113386 -0.057922177
000100 6f 44 d9 bc ad 49 11 be 32 20 80 bd 6f cc 82 bd
       -0.02652189 -0.14188261 -0.06256141 -0.06386649
000110 29 09 97 bd c1 27 8c bd bd 44 1a bd e9 26 80 bd
       -0.07374794 -0.0684352 -0.03766321 -0.062574215
000120 2a 07 ed bc 66 0a f8 bd 2f 27 5e bd 14 85 4c bc
       -0.02893408 -0.12111358 -0.054236587 -0.0124829
000130 aa 02 3b bd 03 ee bf bb c2 ed f4 bd f7 56 f1 bc
       -0.045656838 -0.0058572306 -0.11959411 -0.029460413
000140 dd 9e c4 bd 64 1e 96 bd bf dc a2 bd 2d 23 8d bd
       -0.09600613 -0.07330015 -0.0795226 -0.06891475
000150 0a 14 40 ba e3 2a e1 ba 57 55 94 bd bd 2a b4 bd
       -0.0007327205 -0.0017178919 -0.0724284 -0.08797214
000160 39 81 2b bd 3d e2 07 bd 9e 94 c5 bc b2 6d 87 bd
       -0.041871283 -0.033174742 -0.024118718 -0.066127196
000170 4a 91 b6 bd 01 45 d1 bc 24 2d 00 bd 11 ef 96 bc
       -0.089144304 -0.025545599 -0.03129305 -0.018424543
000180 da 2d 00 bd 3a 74 08 bd 12 fa 1e bd 96 49 bc bd
       -0.031293727 -0.033313967 -0.038812704 -0.09193723
000190 6f fc 94 bd 52 43 cf bd 63 47 17 bd 06 5f 37 3c
       -0.072747104 -0.10120262 -0.036933314 0.011192089
0001a0 fa 27 61 bd e9 07 47 bd 3d 72 4c bd a5 2c 22 bd
       -0.054969765 -0.048591528 -0.049913634 -0.039593358
0001b0 f0 cd 8a bd d9 c3 40 bc 04 24 25 bd 92 21 9a bd
       -0.06777561 -0.011765444 -0.04031755 -0.07525934
0001c0 11 1a 85 bd 5d 39 20 bc 58 d1 65 bd 3d 33 82 bd
       -0.064991124 -0.0097793015 -0.05610785 -0.06357429
0001d0 10 7a e7 bd 10 39 2e bc 76 f8 d5 3c 6b a0 5c bc
       -0.113025784 -0.010633722 0.026119452 -0.013465981
0001e0 6e 2a ad bd 30 7c f2 bc d8 39 43 be f6 c3 0a 3b
       -0.084553584 -0.029600233 -0.19065034 0.002117393
0001f0 ff 3a a5 bd 56 bd ae bd fa 94 b4 bd 08 c6 d7 bc
       -0.08067893 -0.08532207 -0.088174775 -0.026339546
000200 e0 33 bc bc de a7 0a bd 97 51 a3 bd 4d e7 82 bc
       -0.022973955 -0.033851497 -0.079745464 -0.015979433
000210 da ac 88 bd 64 4c c1 bd 54 68 af bd 31 41 0f bd
       -0.06673594 -0.094383985 -0.08564821 -0.03497428
000220 a8 f1 e7 bd 2e 07 ee bd 96 ca 42 bd 8f e6 6b bd
       -0.11325389 -0.11622463 -0.047556482 -0.057592925
000230 02 92 b1 bc df bb 9a bd 76 d5 35 bd a2 5f a8 bc
       -0.021676067 -0.07555365 -0.044393025 -0.020553414
000240 8f 4a 48 bd b0 35 00 bd fc b6 d6 bc 1a 4a 2f 3d
       -0.04889923 -0.0313012 -0.0262103 0.042795278
000250 b7 f0 4e bd a1 c6 78 bd 85 85 1f bd 8e 7c 88 3b
       -0.050522532 -0.060736302 -0.038945694 0.0041652387
000260 9a c7 bb bd 4b f6 84 bd 72 2a c2 bc 60 5d fc ba
       -0.0916893 -0.06492289 -0.02370188 -0.0019253902
000270 40 9b 97 bd 42 17 e5 bc 8e d4 4d bd fb 93 07 bd
       -0.074026585 -0.027965192 -0.050251536 -0.03310011
000280 95 27 b0 bd 3a 4a 84 bd 11 0c ba bd 58 f6 3e bd
       -0.086013 -0.0645947 -0.09084333 -0.04662165
000290 1a c9 aa 3c e3 d9 a8 bd 4c 7c 3c 3a 17 9d ca bc
       0.020847846 -0.082446836 0.00071901525 -0.02473311
0002a0 02 5e 8f bd 22 4c 8b bd 6e ed 14 be 46 3a b7 bc
       -0.070003524 -0.068016306 -0.14543697 -0.022366654
0002b0 b2 68 8e bd b9 47 77 bd a1 9d 08 bd 7b 43 89 bd
       -0.06953563 -0.060371134 -0.03335345 -0.06702324
0002c0 cb 88 6a bd c1 35 99 bd 21 a2 3a bd c9 21 b1 bd
       -0.057259362 -0.07480956 -0.045564774 -0.08649022
0002d0 09 69 33 bd 82 7f f9 bd 58 b0 98 bd f6 fe 09 bd
       -0.04380134 -0.12182523 -0.0745551 -0.033690415
0002e0 11 d0 80 bd 53 f4 ae bd 24 a5 a1 bd 8b f1 ed bb
       -0.062896855 -0.08542695 -0.07892826 -0.00726146
0002f0 51 f3 17 bd 86 da 99 bc 12 6b 00 be d8 4c 5f bd
       -0.03709728 -0.018780958 -0.12540844 -0.054516643
000300 52 d0 28 bc b8 4e 09 bd 17 cf d2 bb 02 da be bc
       -0.010303574 -0.033522338 -0.0064333784 -0.023297314
000310 27 3a 00 bd 39 df 87 bd 4f 61 71 bd f9 e7 61 bc
       -0.03130546 -0.06634373 -0.05893069 -0.013788217
000320 42 6a de 3c 8f 04 0c bd b5 3b 98 bd 9d 27 b2 bd
       0.027150277 -0.034184035 -0.07433263 -0.08698962
000330 ed 68 db bc 40 d2 22 be 4a 22 1d bc af 10 79 bd
       -0.026783431 -0.15900517 -0.009590695 -0.060806926
000340 c0 c6 80 bc 88 24 98 bd 87 d2 8f 3d 9e f8 c8 bd
       -0.015719771 -0.07428843 0.07022577 -0.09813045
000350 ea db 12 bd 40 f0 3b bd 14 e3 0b bd 46 06 1a bd
       -0.035854258 -0.045883417 -0.034152105 -0.03760364
000360 2c 12 77 bd f3 70 38 bd 7b 61 08 be 28 99 4d bb
       -0.060320064 -0.04502959 -0.13318436 -0.0031371806
000370 dd 1c bf bd 66 89 0e 3d 4d 9e 63 bc eb 4b 27 bd
       -0.09331677 0.034799002 -0.013892722 -0.040843885
000380 9b 02 58 bd e1 e3 98 bc 52 03 19 be 99 14 86 bd
       -0.05273686 -0.018663349 -0.14942673 -0.065468974
000390 ff 13 e7 bd a5 79 93 bc ef ee ae bd e9 a7 ac bc
       -0.11283111 -0.01800234 -0.08541667 -0.02107616
0003a0 2d 76 2f bd 19 a9 06 3d 25 7a 42 ba b6 cf 9b bc
       -0.04283731 0.032876108 -0.00074187136 -0.019019943
0003b0 da 57 06 bd ee 02 89 bd 47 c0 79 bc 22 d9 ba bd
       -0.032798626 -0.06690012 -0.015243596 -0.09123446
0003c0 aa 7b a8 bd f5 ce a7 bc f0 52 1e 3a 6d f5 39 bd
       -0.08226712 -0.020484427 0.00060395803 -0.045400072
0003d0 f5 8f 4b bd c8 3e c5 bd ca f3 ae bd 04 8f 93 bc
       -0.049697835 -0.09631115 -0.08542593 -0.018012531
0003e0 ae 1b e5 bc e7 5a 5a bd 21 91 e2 bd dc 29 61 bd
       -0.0279673 -0.053309347 -0.110628374 -0.05497156
0003f0 8f b1 a7 bc 73 df 83 3c fe ed 86 bd 10 b3 29 bd
       -0.020470409 0.01609776 -0.06588362 -0.041430533

actor.4.weight f4 [128, 256]
000000 f7 fa 25 3b 26 15 e4 3d dd 3d 72 3d 0a c4 2b 3d
       0.0025326589 0.11136846 0.05914103 0.041935004
000010 54 ab 05 bd 2e 14 c1 bb 23 a0 d9 3c 59 0f ac 3d
       -0.032634094 -0.005892298 0.026565617 0.08401365
000020 c4 13 d3 bc 9b 45 e0 bd 55 85 ed bd c8 3b a4 bd
       -0.02576626 -0.10950776 -0.11597697 -0.08019215
000030 61 c5 a4 bd 63 f0 81 3c 00 2e 9b 3d 4f 9d 86 3c
       -0.080454595 0.015861696 0.07577133 0.016432432
000040 2d 67 36 bd 00 22 12 bd 01 14 44 bd ed 2a 6d bd
       -0.04453199 -0.035676956 -0.04787064 -0.057902265
000050 94 ba 2f bd b9 26 8f bd 03 ce 80 3d 74 60 f5 3b
       -0.042902544 -0.06989808 0.062892936 0.0074883047
000060 57 06 50 bd 79 eb 0c 3e fc b6 7b bc 80 92 21 3d
       -0.050787296 0.137617 -0.015363451 0.039446354
000070 e8 4a f1 3d 92 df 1e 3d 21 b0 ac 3d eb 05 38 bd
       0.11781865 0.038787432 0.084320314 -0.04492752
000080 48 d2 3d bd 2e d6 81 3c f6 95 9c 3b 2e 7e b2 3d
       -0.046343118 0.0158492 0.004778619 0.08715473
000090 3c 0b b1 3d 6c cc bb 3c ff 5e 94 3c 38 15 08 be
       0.08644721 0.022924624 0.018111704 -0.13289344
0000a0 ca c6 80 bd cc 02 c8 3c 76 4f 1c bd 4b 2a 30 bd
       -0.06287916 0.024415396 -0.038161717 -0.043009084
0000b0 22 76 bf bd 43 56 05 3e d7 dc 95 bc 3f c1 09 3e
       -0.09348704 0.13021187 -0.018293781 0.13452624
0000c0 d0 b5 81 bc 75 24 dd 3d eb 0f 8d bd 48 41 ae 3d
       -0.015833765 0.10797969 -0.06887802 0.08508545
0000d0 13 a3 bb bd 25 ef 86 bd ea 37 e8 3c e8 eb bd bc
       -0.09161963 -0.06588582 0.028346974 -0.023183778
0000e0 b1 0b f7 3c 68 cf 75 3c a0 3e 25 be 73 fc f1 3d
       0.030156942 0.015003063 -0.16137171 0.11815729
0000f0 91 14 cd bc 23 f2 c5 bd 62 29 09 bd 8c 4e e8 3c
       -0.02503422 -0.096653245 -0.03348673 0.028357767
000100 34 58 0c 3d ae ad f8 bd 32 f9 85 3d da ac a4 39
       0.034263805 -0.12142502 0.06541671 0.00031409302
000110 2a 97 8c 3d cd 61 64 3d a4 41 e5 bc f7 69 4f bd
       0.0686477 0.055757333 -0.027985401 -0.050638165
000120 54 7b 88 3c f5 49 3d bd 2b 4c d8 3c 0f a0 96 bd
       0.01666037 -0.04621311 0.026403507 -0.073547475
000130 58 04 50 bd d1 26 e7 bd fb f2 93 bd c6 bc 35 bc
       -0.050785393 -0.112867005 -0.07224079 -0.01109237
000140 98 62 b6 bc f8 89 7b bd 44 ff f8 3c b0 fb 8c 3d
       -0.02226381 -0.061410874 0.030395158 0.06883943
000150 cf a9 01 3d 23 3b ff bd df 5b b8 bd 58 cf fe bc
       0.031656083 -0.12462451 -0.09001898 -0.031104729
000160 62 ad bd 3d 8a 38 d2 3d 39 1f 2f 3d 87 2c b9 bd
       0.09261586 0.1026469 0.042754386 -0.09041696
000170 d3 07 22 3e 5c b7 ce bd cd b9 53 3d ed 1d d3 bd
       0.15823297 -0.10093567 0.051690865 -0.10308442
000180 42 5f 75 bd a6 8c a3 3d ff bd 79 bc 8a 6d 31 3d
       -0.059905298 0.07985811 -0.0152430525 0.043317355
000190 e6 ce 67 3d e4 3d 90 3d 4d 40 a1 3d 15 3e a9 bd
       0.056593798 0.07043055 0.078735925 -0.08263794
0001a0 0f 4b e8 bd 8d 17 59 bd 66 9d c2 bc 7e 59 51 3d
       -0.11342441 -0.053000975 -0.023756694 0.051110737
0001b0 81 66 69 bd 40 17 22 3c 6c d6 86 3d f7 fd cc 3d
       -0.05698252 0.009893239 0.065838665 0.100093774
0001c0 17 62 c1 bd c5 d0 bd 3c cc 35 0e be 3b bb aa 3c
       -0.09442537 0.023170838 -0.1388771 0.020841232
0001d0 cb d3 74 3c 1c 8e e2 3c e8 25 af bc a2 93 be 3c
       0.0149430735 0.027655654 -0.02138038 0.023263756
0001e0 7e 62 eb 3d fd 2d 33 3d b8 02 46 3d 39 4f d4 3d
       0.11493395 0.04374503 0.048342437 0.10366673
0001f0 13 10 de 3d 36 3f b6 3c 32 7c 67 be 25 20 02 be
       0.1084291 0.022246938 -0.2260597 -0.12707575
000200 e0 74 4c bd 84 ad 84 3d 70 d1 06 3b f2 8b ea 3c
       -0.04991615 0.06478408 0.0020571612 0.028631184
000210 81 cf 99 bd 86 c4 e0 3d 03 eb f2 3b 5f ca 47 bd
       -0.07510281 0.10974984 0.0074132695 -0.04877698
000220 1a 2f ad 3d fa 2c c6 bd e8 88 8c 3d fc 8f 00 bd
       0.084562495 -0.09676547 0.0686205 -0.031387314
000230 27 dd 9b 3d c6 08 71 3d 59 3b 21 be c1 89 61 3d
       0.07610541 0.058846258 -0.15745296 0.055063013
000240 32 64 9c bc 2f 3b 15 bd 95 3c 72 3c 49 c6 86 bd
       -0.019090746 -0.036433395 0.014784952 -0.06580789
000250 9c a0 57 3d ff 43 db 3d 63 cd 91 bc 68 eb a9 bd
       0.052643403 0.107063286 -0.017798131 -0.08296853
000260 e4 80 49 3d b5 69 e3 3c a7 c1 40 3d 55 ac d7 bd
       0.049195185 0.027760366 0.04705968 -0.105309166
000270 b0 8b ab 3c 26 84 59 3d 07 b6 95 3d e0 33 e2 3d
       0.020940632 0.053104542 0.073101096 0.110450506
000280 1d 03 6b bd 3f ad 4c bc e5 bc 78 bb c9 a3 c2 3c
       -0.057376016 -0.012492477 -0.0037954387 0.02375974
000290 92 f8 bd 3d c1 ac e1 bc 8f d6 8a 3d 23 9e 8a bd
       0.09275927 -0.027548196 0.06779205 -0.067684434
0002a0 a3 b3 d6 3c 26 0e 44 bd b5 f1 fb ba 79 33 03 be
       0.026208704 -0.047865056 -0.0019221815 -0.12812604
0002b0 93 bb 99 3a 5b 3d 1a 3d ad cc 0c bd 2f fb 00 be
       0.0011728875 0.03765617 -0.03437488 -0.12595819
0002c0 b9 3e 91 3c 2a 16 b0 bd a5 4b 15 be ab eb 9f bd
       0.017730104 -0.085979775 -0.14579637 -0.07808622
0002d0 b8 8e c9 bc 1c c6 8a 3d e0 cb a7 3d 2d 2b a8 3d
       -0.024604186 0.067760676 0.08193183 0.0821136
0002e0 fb 4d cf bc b6 f4 24 be 30 da 72 bd 0d 0f b8 bd
       -0.025305739 -0.16108975 -0.05929011 -0.08987246
0002f0 99 26 09 bd e3 e8 af bd da b4 97 3d d5 f1 d2 3d
       -0.033484075 -0.085893415 0.074075416 0.10300032
000300 d5 c1 60 bd b3 0a 5a bd fd f4 c8 bc 6c 3b 85 3c
       -0.054872353 -0.05323286 -0.024530882 0.016263686
000310 b2 e2 14 bd 31 a2 93 3b 24 26 52 bc ae 9c 71 3d
       -0.036349006 0.0045054187 -0.012826476 0.058987312
000320 ec 6b 86 bd 6b a0 1d bd 62 04 d8 bc de 90 41 bd
       -0.06563553 -0.038483065 -0.026369277 -0.047257297
000330 b1 a2 c7 3d 9e 4c c6 3c d0 fd 65 3c 25 04 35 3d
       0.09747828 0.024206456 0.014037564 0.044193406
000340 9c 68 d6 bd b2 57 35 bd 00 fd c6 bd b7 87 26 bd
       -0.104691714 -0.044273086 -0.09716225 -0.04065677
000350 15 71 74 3b 20 d1 f0 bc 54 65 91 bc 2f bd 5f 3c
       0.0037298847 -0.029396594 -0.017748512 0.013655945
000360 41 69 a8 3d 65 b9 d8 bc f8 00 f2 bb 5e 83 37 3a
       0.082232006 -0.02645559 -0.0073853694 0.0007000471
000370 59 af cc 3d 21 08 1f bd b7 83 3a bd a0 81 0c 3b
       0.099943824 -0.03882611 -0.04553577 0.0021439567
000380 c0 76 5e bc 1e eb 00 bd 52 75 4b 3d 9d ac 94 3c
       -0.013578117 -0.031474225 0.049672432 0.018148715
000390 b7 42 2c 3e 9c a6 47 bb 4a c0 3a bc f9 8e 58 bd
       0.16822325 -0.0030464297 -0.011398384 -0.052870724
0003a0 23 e7 83 3d 3e d9 50 bc e3 77 d2 3d cb 72 b2 bd
       0.0644057 -0.012747107 0.10276773 -0.08713301
0003b0 a0 d0 3b bd aa 98 50 bd da 61 17 3d d7 cf 16 bd
       -0.045853257 -0.05092684 0.036958553 -0.036819305
0003c0 9f 77 56 3d d4 e9 a0 3d 5b 09 1e 3c 20 22 a7 3d
       0.052360173 0.07857099 0.009645785 0.08160806
0003d0 74 8f 2e bc 74 f4 d3 bc 4d df d5 bb 21 9f 9d 3d
       -0.010654319 -0.0258734 -0.0065268637 0.07696367
0003e0 64 e2 0c 3e 09 c6 34 3d 58 e2 a6 3c ed 46 81 bd
       0.13758236 0.044134174 0.020371601 -0.06312356
0003f0 6c c9 9d 3c c5 cd 20 3c 0d 70 04 3d 6e 03 b5 bd
       0.019261084 0.009814684 0.032333422 -0.08838545

actor.4.bias f4 [128]
000000 76 f1 2a bc 1e 3f b2 bd 15 db 99 bd 90 80 64 be
       -0.010433545 -0.08703445 -0.0751249 -0.22314668
000010 47 ef 2f 3d e4 c1 b2 bd 9d ed 8e b9 ce 49 e9 3c
       0.042952802 -0.08728388 -0.00027261386 0.028477576
000020 0d 9d 92 bd c4 93 8a bd 7a 33 ad bc 76 16 9b bd
       -0.07158861 -0.06766465 -0.02114271 -0.075726435
000030 96 a7 be bc af be 8e bd c9 0c f6 bc 6b fd b3 bc
       -0.02327327 -0.06969964 -0.030035393 -0.021971425
000040 5d 00 45 bd 82 1e 38 bd 3f 7f 08 be 8f d7 51 bd
       -0.04809605 -0.04495097 -0.1332979 -0.051230963
000050 ba 9c 8d bd 25 f9 57 be c4 f1 54 3c d4 e8 12 bd
       -0.06914659 -0.21091135 0.012997095 -0.035866573
000060 84 cf 0d 3b d2 aa 96 bc d0 fd 9b bd 6c 1f 88 be
       0.0021638582 -0.018392 -0.0761677 -0.26586473
000070 6c 64 70 bd 86 c1 1e 3b f3 f3 3a bd 89 af 01 be
       -0.05868952 0.0024224236 -0.045642804 -0.12664618
000080 d5 d7 7a bd c6 e4 0b bc bb 22 01 bd e1 77 4f bd
       -0.06124099 -0.008538431 -0.031527262 -0.050651435
000090 4a dc 73 bd f7 ca 1d be a7 e9 00 be 31 b5 a9 bd
       -0.059536256 -0.15409456 -0.12589131 -0.08286513
0000a0 0b 30 98 3c 06 50 b1 bd 8b 57 70 be 3e 39 35 bd
       0.018577596 -0.086578414 -0.23470895 -0.044244044
0000b0 98 66 6d bd 6f 42 6d bb a2 ad c7 bd 90 a9 29 bd
       -0.05795917 -0.0036202928 -0.09749915 -0.041421473
0000c0 f5 dc 80 3d 1a 5c 2e be e5 00 23 be 0f df 48 bd
       0.06292144 -0.17027321 -0.1591831 -0.04904085
0000d0 b1 1c e5 3b a8 ce 12 bd 4f b1 60 3c 86 15 af bd
       0.0069919457 -0.035841614 0.013714149 -0.08549027
0000e0 93 f9 63 3c 3c 29 1a 3c 7b 59 7c 3c 7c 97 ab bd
       0.013914484 0.009409245 0.015402193 -0.08378503
0000f0 3e 91 1f bc 5c 4b 5f bd e7 db b4 bd cd da 70 bd
       -0.009739218 -0.054515228 -0.088310055 -0.058802415
000100 28 f0 b0 bd 22 8d fd bc c1 c1 21 3c 09 cd 05 bc
       -0.08639556 -0.030951086 0.009872855 -0.00816656
000110 ea 47 7e bc 02 5e 3b be 94 41 50 3c c1 8d 98 3c
       -0.015520075 -0.1829758 0.012710948 0.018622281
000120 07 6c a8 3d 35 ba a5 3c bc 48 8d bd 6e 3c 74 bb
       0.082237296 0.020230392 -0.068986386 -0.0037267464
000130 59 6f 17 bd 35 2f 60 bd 69 c6 8c bd 5f 41 26 ba
       -0.036971424 -0.05473252 -0.06873781 -0.00063421385
000140 ea 1a 5c bd fb 2a c6 3c 20 21 05 be ca 94 f3 3b
       -0.053736605 0.024190417 -0.13000917 0.0074335085
000150 1f 2d a0 bd d0 6f 83 bb 11 fc 00 be bc 22 39 bc
       -0.07821106 -0.004011132 -0.12596156 -0.011299785
000160 64 2f bd bd ec 37 5e bd 4b f0 8d 3b 5d 0e 7e bd
       -0.09237555 -0.05425255 0.0043316237 -0.062025417
000170 c1 c8 0f be 39 34 de bb 19 ff e0 bd da 7f 2b bc
       -0.14041425 -0.006781128 -0.10986156 -0.010467494
000180 65 ed 5f bd 9d 9d 2b bd f6 5c 54 be 24 f0 f6 bc
       -0.054669756 -0.04189836 -0.20738587 -0.030143805
000190 cf 88 bf bd 93 25 39 bd 13 20 a3 bc 78 9d 44 bd
       -0.09352266 -0.04520185 -0.019912755 -0.048001736
0001a0 4e bc e0 bd bb 69 20 be 89 74 5e bd c0 03 6a bc
       -0.10973416 -0.15665333 -0.054310355 -0.014283121
0001b0 19 3d 59 bd 92 00 51 bd 92 2a 76 bd f3 e6 cc 3c
       -0.053036783 -0.051025935 -0.060099192 0.025012469
0001c0 f3 e7 5f bd df 64 62 bd 04 f4 5d bd a9 c8 1b 3d
       -0.054664563 -0.05527198 -0.05418779 0.03803316
0001d0 f2 4e 8b bc 7e 8b 7c 3c 85 82 6b 3c 2f c6 d5 bd
       -0.017005417 0.015414117 0.01437438 -0.10438191
0001e0 72 ec 6d bc 7d 21 d0 bd fc b7 b6 bd 98 b3 91 bd
       -0.014521705 -0.101626374 -0.08921811 -0.07114333
0001f0 83 4c c8 3c ad fd 5a bc 96 4d 93 3b 96 7b 94 bd
       0.024450546 -0.013366145 0.004495333 -0.07250135

actor.6.weight f4 [12, 128]
000000 50 92 53 bd 04 84 27 bd 49 41 38 bc 45 55 9e bd
       -0.051653206 -0.040897384 -0.011246034 -0.077311076
000010 38 fd c5 3c 6f b6 86 3b 67 5d 55 bd 93 cc 35 bd
       0.024168596 0.0041111032 -0.05209103 -0.04438455
000020 25 b1 f3 bc a3 51 5f 3c d9 d8 17 3c 01 bf 93 bd
       -0.029747555 0.013630304 0.009268009 -0.072141655
000030 90 c6 fa 3c 8d 16 ba bc d3 33 22 3d 65 e0 04 ba
       0.03061226 -0.022715831 0.039600205 -0.0005068838
000040 18 32 7e 3c 9f f3 4f 3d 94 a0 a3 bc ae 01 81 3d
       0.015514873 0.050769445 -0.01997403 0.062991485
000050 8c a5 7d bc e7 7b d2 bd d4 62 92 3a 93 44 a7 3b
       -0.015481364 -0.10277539 0.0011168369 0.00510461
000060 7d f5 34 3c cd 47 29 3d 1e 14 61 bc 41 ea 48 3d
       0.011044857 0.04132824 -0.0137377065 0.049051527
000070 80 b2 67 3d 47 e0 61 bc 40 96 50 bd 85 b8 07 bc
       0.056566715 -0.013786382 -0.05092454 -0.008283739
000080 bd ee 42 bd 8f 5b c4 3b d0 68 4f 3d 9a 29 22 3d
       -0.04759096 0.00599236 0.050637066 0.039590456
000090 9c 16 b0 ba 99 74 80 3d 49 0c d5 ba 2a 35 43 3c
       -0.0013434472 0.06272239 -0.0016254272 0.011914531
0000a0 29 03 5e bc 48 e8 4c 3d 5f 41 58 3c 36 3e 4b 3d
       -0.013550558 0.05002621 0.013199179 0.049619876
0000b0 27 65 b7 bc 95 01 a2 bd 39 25 1d 3d 04 b2 ad 3d
       -0.0223871 -0.07910458 0.038365576 0.084812194
0000c0 1b 80 62 3a 88 b6 cc 3d 44 4d 52 3d 9f 34 0e bd
       0.0008640305 0.099957526 0.051343217 -0.034718152
0000d0 9e a4 b4 bc b7 3c ef bc 51 e0 84 bd f5 15 4f 3d
       -0.022051152 -0.029203756 -0.064880975 0.05055805
0000e0 3d a9 14 ba e4 9b f3 bc 55 24 e3 3b 50 0a 00 3d
       -0.00056709704 -0.02973742 0.0069318214 0.031259835
0000f0 08 1d ac bd 06 b1 48 bd 0c e0 b2 3d 89 61 b9 bc
       -0.08403975 -0.048996948 0.0873414 -0.022629516
000100 f2 48 40 bd e2 3f 04 bd 46 f0 eb 3c 60 61 10 bc
       -0.046944566 -0.032287486 0.028801095 -0.0088122785
000110 a0 18 4d bc 76 f5 8c bc f9 db ce bb 90 4d 88 3b
       -0.012518078 -0.017206889 -0.006312844 0.004159637
000120 01 77 8f bc 84 97 13 3b 01 d1 6a bc a9 50 76 3c
       -0.0175128 0.002252073 -0.014332057 0.015033879
000130 2d d9 5d 3d 51 2c e6 bb bd a5 b0 bc c4 55 06 bc
       0.054162193 -0.007024326 -0.021563405 -0.008199159
000140 c9 6b 8d 3b 66 fb 29 bc a9 d9 9d 3c 8b 6a 56 bd
       0.0043158275 -0.010374879 0.019268828 -0.0523477
000150 ba aa b8 3c ce 10 69 bc 5c 15 88 3c d9 7d 47 bc
       0.022542346 -0.014225198 0.016611747 -0.0121760005
000160 3b 64 64 3d 35 0c f0 3c f9 87 0a bd 59 9e fd bc
       0.05575965 0.029302696 -0.03382108 -0.030959295
000170 04 c2 99 3b b3 91 db bc fc a7 4a 3c 9a e0 1b 3d
       0.004692318 -0.026802873 0.012369152 0.038055994
000180 65 b9 40 3d 3a a4 81 bc 59 c5 a5 3d 32 7c 08 3c
       0.047051806 -0.01582538 0.08094282 0.008330392
000190 d4 0f d8 bc 9b c6 0f 3d a8 4f 11 bc f6 25 eb 3c
       -0.026374735 0.035101514 -0.008869089 0.028704625
0001a0 ea d6 be 3d cd a9 b4 3d 1a 1f db bc 3a 5a 99 3c
       0.09318335 0.088214494 -0.026748229 0.018719781
0001b0 11 ec ed 3c 0e 0a 27 3d 3e 9a bd bc 30 03 e8 bb
       0.02904323 0.040781073 -0.023144837 -0.007080458
0001c0 3f 4c cb bc 7d ed d3 bd f2 aa 81 bc ca 60 10 bc
       -0.02481663 -0.10348032 -0.015828583 -0.008812139
0001d0 09 1e af 3d da c1 27 3c 6c c3 87 3c cc 12 cb 3d
       0.085506506 0.010239089 0.016572677 0.099156946
0001e0 36 c6 41 3a 80 6f 57 3c 2a 8a c3 bc f7 a2 95 bd
       0.00073919015 0.013149142 -0.023869593 -0.07306474
0001f0 75 b1 1f bd 4e 4b 13 3c 89 c7 a3 bd b2 86 04 3d
       -0.038987596 0.008990122 -0.07997043 0.032355018
000200 c0 19 2f 3d 6c e5 8c bd 56 5f 3c bc e1 de 09 bd
       0.042749166 -0.06879696 -0.011497339 -0.03365982
000210 50 d5 b7 bc 87 c1 e0 3b c0 bc 24 3c 5b 98 b3 bc
       -0.022440583 0.0068590078 0.010054767 -0.021923235
000220 33 d5 63 3c 6c bf 1c bc 9b 6d 11 bd 97 0b cc bb
       0.013905811 -0.009567123 -0.03550492 -0.0062269676
000230 83 ac c5 3b 1a ba db 3a e5 43 93 3c 7f 20 7c 3c
       0.006032528 0.0016763837 0.01797671 0.015388607
000240 b8 84 5c 3d 04 ee 4b 3c ca 59 da bd d5 c4 7c bd
       0.053837508 0.012446884 -0.10661657 -0.06171115
000250 8a 48 04 3b 57 27 5c bd 8a c5 9b bb 01 94 87 bb
       0.0020184838 -0.053748455 -0.004753773 -0.0041375165
000260 fe 59 e0 3b 87 27 98 bc 54 5a 3c bc c0 0b cf bc
       0.0068466654 -0.018573536 -0.011496145 -0.025274158
000270 50 bb b4 3d 2e ce 6c bc c3 ef 34 3d fc 57 1f 3c
       0.088247895 -0.014453454 0.044173967 0.009725567
000280 e7 e5 35 3d 26 44 96 bd 3d 3a 43 3d 88 7e 94 3c
       0.044408705 -0.07337217 0.047662962 0.018126741
000290 2a c1 a0 3d cd 51 9e bc 64 18 cc bc d0 51 b7 bb
       0.07849343 -0.019326115 -0.024913974 -0.0055944696
0002a0 56 bf 0d 3d 7a 24 21 3c 3a de 7b 3d 12 a3 4b 3d
       0.0346063 0.009835357 0.06149123 0.049716063
0002b0 e7 82 17 bc 2e ea 6d 3d 45 8d ec 3b 1b d9 ad bd
       -0.009247518 0.05808466 0.007218989 -0.08488675
0002c0 66 51 f5 ba ed 6e 67 3c 39 d4 88 3c 44 62 b7 3c
       -0.0018716275 0.014125568 0.016702758 0.022385724
0002d0 38 17 5e bd fd 6a 4b bd 2b fd 62 bb a6 c0 89 3b
       -0.054221362 -0.04966258 -0.0034635763 0.0042038737
0002e0 ff 03 fa 3c e5 c2 43 3d 1b 55 6b 3d 72 0f eb 3c
       0.030519484 0.047793288 0.05745421 0.028693888
0002f0 cf a5 c7 3c 2c 60 78 3d 1b 6a 60 bd 48 55 e9 3c
       0.024371056 0.06063859 -0.05478869 0.028483048
000300 d2 f8 0f bd 7d 98 85 3d 24 9a cd 3b 23 c5 0c 3d
       -0.035149403 0.065232255 0.0062744785 0.03436769
000310 59 39 8b 3c 24 77 25 3e b8 82 b4 bc b7 35 ca 3c
       0.016995119 0.1615873 -0.022034988 0.024683816
000320 e2 3a 30 3c 5f 99 88 3d ae d4 a3 bc 6d 43 54 bb
       0.010756226 0.06669878 -0.019998875 -0.0032388822
000330 29 bb 82 bc 15 c4 fb 3c 18 a6 1c bd 75 58 d9 3b
       -0.015958386 0.030733148 -0.038244337 0.0066328594
000340 e8 10 31 3d 0f f1 61 3b 30 32 b1 bc 68 0e b2 bd
       0.043229014 0.0034475958 -0.021630377 -0.08694154
000350 be 28 e3 bc 7c b8 87 bc 9a 7b 40 bd 0d 3c 6a bd
       -0.027729388 -0.016567461 -0.046992876 -0.057186175
000360 de 3c 78 3c 73 60 6b 3c df cb 5b 3c b5 53 43 bd
       0.015151231 0.014366257 0.013415306 -0.04768725
000370 fc 35 1c bd d1 16 04 3d fb 96 3a 3d db 1b 24 bd
       -0.03813742 0.032248322 0.045554142 -0.040065628
000380 dd da 2f 3c 23 00 34 bd a1 3c 6c 3d 07 42 ee 3c
       0.010733333 -0.043945443 0.057675008 0.029084219
000390 74 88 2b bd d4 8a 5d bc bf 77 f0 ba bc 60 48 3c
       -0.04187818 -0.013521869 -0.0018346234 0.0122300945
0003a0 5c 6a d4 3b ef a2 4c bd bc b4 31 3c 1e 4d 77 bb
       0.0064824056 -0.049960073 0.010846313 -0.0037735174
0003b0 a7 36 13 3d ae 69 9e bd 84 52 9a 3a e8 1e 1c 3b
       0.035940792 -0.077350006 0.0011773859 0.0023822132
0003c0 ba 52 32 bb e3 4d eb bc c9 80 5d 3c b6 62 91 3d
       -0.0027209953 -0.028723663 0.013519474 0.07098906
0003d0 0f c2 6f 3c 97 c4 f9 38 14 96 cf bc 21 b7 b8 bd
       0.0146336695 0.00011909863 -0.025340118 -0.09019304
0003e0 bf 83 b2 bb fd ba 12 bc aa 9b de 3b 95 89 e7 3b
       -0.0054478343 -0.008955714 0.006793459 0.0070659616
0003f0 c1 3c 34 bd 3a 14 a0 bc 3a 60 8f bc 65 3e 17 3d
       -0.044003252 -0.019540895 -0.01750194 0.03692474

actor.6.bias f4 [12]
000000 0a 4e 4e be 41 97 aa 3d 30 12 1a 3d 49 3e d3 bd
       -0.20146957 0.08329631 0.037615 -0.10314614
000010 8e a9 67 3e 27 37 2a bd 02 96 3a 3d b1 19 0f be
       0.22623274 -0.041556504 0.045553215 -0.13974644
000020 b4 7c 09 3d 3a 7d 3b be fb 39 55 3e fa 0e 38 be
       0.03356619 -0.18309489 0.20822899 -0.17974463
