src/ga_quadruped/policy/param_action.onnx (onnx, 772885 bytes, 8 tensors)

actor.0.weight f4 [512, 52]
000000 cc 83 1a 3e 38 7d 35 be 28 74 04 3f 3b 31 0e 3d
       0.15089339 -0.17723548 0.5173974 0.03471492
000010 d9 3e 31 be 03 09 b8 3c ad e9 1a 3e 0c 52 25 bc
       -0.1730913 0.022465235 0.15128203 -0.010090362
000020 94 1f a9 bd f6 8d e7 3d 12 c4 ca 3c 3c 78 b8 bd
       -0.08257976 0.11306374 0.024751697 -0.09007308
000030 cb e7 3c 3e 4c d1 ee 3d a9 9a d1 3d 76 d6 d8 bd
       0.18447797 0.11661014 0.10234577 -0.1058778
000040 d8 e7 10 3e 05 73 eb be 73 1b 63 be 62 7e ca 3e
       0.14150941 -0.4598619 -0.2217844 0.39549547
000050 74 cd 52 be 74 1c 8b 3e 18 53 67 3e cf 59 a2 3d
       -0.20586187 0.27170146 0.22590292 0.07927286
000060 ca 6d 1e bf b6 db 6d 3e b3 e2 5d be 88 67 17 3b
       -0.61886275 0.23228344 -0.2166851 0.002310248
000070 4b 27 b9 bd 28 dc 26 3e a4 6b bf bd 62 b6 ab bd
       -0.09040698 0.1629492 -0.09346703 -0.08384396
000080 3d 58 af be 2c 1f 16 ba 02 31 28 be e8 67 fe 3d
       -0.34247008 -0.0005726691 -0.16424945 0.12422162
000090 ce 6a 1f bd 90 71 a7 3c d9 6c b4 3c a2 a9 91 3e
       -0.038920216 0.020439893 0.022024559 0.28449732
0000a0 b1 57 8e 3d 80 e3 97 3d e1 3a b7 3c c5 fc 85 bd
       0.069503196 0.07416439 0.022366943 -0.065423526
0000b0 bb 78 65 bd 0a e6 81 3c 9f 48 11 bd 54 98 4e bd
       -0.05602334 0.015856761 -0.035469647 -0.05043824
0000c0 7c ed cf bc 00 af 06 be 64 b4 45 3d 25 e7 c8 bd
       -0.025381796 -0.13152695 0.048267737 -0.09809712
0000d0 39 74 50 3e fd 22 52 3f af cd 68 be 11 7e 0c 3f
       0.20356835 0.8208464 -0.22734712 0.5487986
0000e0 b4 10 f8 bc 5e 21 26 bd fd 2f ce 3c d4 4d ad 3d
       -0.030281402 -0.040559165 0.025169367 0.0846211
0000f0 37 2f e9 3c b3 6d 3d 3d 9a 99 c3 bc 38 5c ac bd
       0.028464897 0.046247195 -0.023876954 -0.08416027
000100 c2 1b 25 bd 8e 54 00 3d 77 3e 4c bd 9b 48 77 3c
       -0.040309675 0.031330638 -0.04986426 0.015092994
000110 78 ae 9e bc ea a9 16 3e 86 c9 27 3c d0 a2 a4 3e
       -0.019370303 0.14713255 0.010240918 0.32155466
000120 01 bf 96 3e 72 b4 a8 be bb fd 28 3e 98 70 a9 be
       0.294426 -0.3295017 0.1650304 -0.33093715
000130 bc 7e 04 be e8 1e 04 3e 8d 64 63 3e 22 43 4f be
       -0.1293897 0.12902415 0.22206326 -0.20240453
000140 01 40 6a be d0 0a 54 3e 76 e8 24 bd b5 06 38 bc
       -0.22875978 0.2070725 -0.040260755 -0.011232068
000150 1a 74 10 3e d4 12 fd 3e 9b 33 ac bd 8b e8 db be
       0.14106789 0.49428427 -0.084082805 -0.42950854
000160 43 61 a1 be 58 a2 69 3e 32 80 56 be dc 27 3f 3d
       -0.31519517 0.22815835 -0.2094734 0.046668872
000170 d3 af 1c 3e 55 ea a0 3d 53 94 03 3d db 5d 43 bd
       0.15301447 0.07857195 0.032123875 -0.04769693
000180 6b 5b 12 bd 21 b2 45 3d a3 e4 c0 bc 78 2d 19 bd
       -0.035731714 0.04826558 -0.023546522 -0.037396878
000190 31 6d 39 3d 1a 99 23 be ee 8a 12 be d2 a6 00 bd
       0.04527015 -0.15976372 -0.1431081 -0.031409092
0001a0 5a d5 4e bd 43 35 6d 3e a1 02 59 3e 95 11 67 3e
       -0.050496437 0.23164849 0.21192409 0.22565301
0001b0 97 31 5e 3e 65 16 1b bd c6 cf b0 3d 0e 88 7f be
       0.21698605 -0.037863154 0.0863338 -0.24954244
0001c0 47 70 72 be 6a 06 83 be 18 cf 7c bd 2b 47 fc 3c
       -0.23675643 -0.2559083 -0.061720937 0.030795654
0001d0 b0 29 63 3d cd ca ca bd c4 f2 00 be 7d 22 ad 3c
       0.05545968 -0.099019624 -0.12592608 0.02113461
0001e0 8d 88 c9 bd 01 01 37 3d 09 b9 93 be 0f cc 1d bd
       -0.09840498 0.04467869 -0.28852108 -0.038524684
0001f0 bf 7a 9d 3d 11 40 f2 bd ec de 99 3e df 35 c8 3d
       0.076894276 -0.11828626 0.30052888 0.097759
000200 f1 7c 7b 3e 51 08 e8 bd fc 4a 3f 3d a0 d6 a0 be
       0.2455938 -0.11329711 0.04670237 -0.31413746
000210 9b b2 76 3d 2f d2 b0 be ef be 80 3c 2a 25 df 3c
       0.060228925 -0.34535357 0.015716044 0.0272394
000220 e3 ca 59 3e 3c 9a 6e 3e f4 38 22 be 99 ce a4 3d
       0.21268801 0.23301023 -0.15842038 0.08047218
000230 9b 56 3e 3e 6c 53 ac 3d 6b 71 31 bd b8 2b 68 be
       0.18587725 0.08414349 -0.043321054 -0.22672927
000240 18 7b a9 3d 2e 9f e1 3b e5 bc 2b 3d 0a 15 a8 3d
       0.082754314 0.006885431 0.04192819 0.08207138
000250 6c 26 6b 3b 00 d1 20 bc 02 95 a5 bd 52 91 83 3c
       0.0035881056 -0.0098154545 -0.080850616 0.016060505
000260 ea f5 fd 3c d3 ba 87 bc ea a8 9d bc 7d 31 01 3d
       0.03100105 -0.016568577 -0.019245584 0.031541336
000270 31 c1 a5 3d df 72 53 3d 20 7b ad 3e ee bc 23 3d
       0.08093489 0.05162322 0.33883 0.0399751
000280 a6 b5 0f bf 9f 96 18 bd 03 af 3b bc 2a fc 02 3d
       -0.5613655 -0.03725302 -0.0114553 0.031978764
000290 10 b4 5a bd 1b c1 e4 3c 81 a9 79 bd 8e c3 40 3d
       -0.053394377 0.027924111 -0.060952667 0.047061495
0002a0 f5 8b 0b be f5 5c f6 bd 37 8e 18 bd 7d 8e 9e bd
       -0.13627608 -0.12029449 -0.037245 -0.07742021
0002b0 32 a8 c1 bc 56 72 c0 bd fd 5d 7b 3e 67 ab ff 3d
       -0.023639772 -0.09396808 0.24547572 0.12483864
0002c0 4d 3b de 3c 09 6c 70 3e 02 0b 0e 3e a9 d2 92 be
       0.027127886 0.23478712 0.13871387 -0.28676346
0002d0 ad a5 92 3e 20 c2 af 3e 37 c2 e4 3e 8d 43 30 3e
       0.28642026 0.34327793 0.44679424 0.17213269
0002e0 35 48 9a 3e 33 6b e8 be 05 04 b9 3d 4c dc 81 be
       0.30133215 -0.45394287 0.0903397 -0.25363386
0002f0 29 df 8f ba 47 c1 eb 3d 7b 87 69 3d e3 fe 84 bc
       -0.0010976541 0.11511474 0.05701397 -0.01623482
000300 26 47 81 be c8 4a 1f be ec 0c 35 3d 7b 27 57 3e
       -0.25249594 -0.1555587 0.044201776 0.21011154
000310 f2 8a 01 bd d1 93 13 3d 05 a0 95 bc b9 ef 22 bd
       -0.03162665 0.03602964 -0.01826478 -0.0397794
000320 7d 09 d6 bc 31 a5 15 bd 38 79 f5 3c 3e 0f ad 3b
       -0.026127571 -0.036534492 0.029965028 0.005281358
000330 0f 7a f0 bd 24 c3 02 bc ad e9 68 bc dc e0 6d bd
       -0.11742031 -0.007981095 -0.014215869 -0.05807577
000340 82 a0 d0 3c 4a 4d ec be f5 70 c6 3e 23 ea c8 be
       0.025467161 -0.46152717 0.38758054 -0.39241132
000350 2e e2 63 3f f3 4f 35 3b a0 40 76 bd 4f 2d 40 3d
       0.89017 0.0027666062 -0.060120225 0.04691821
000360 5a 85 3f 3c db 79 d8 bd cf d5 9e be be 01 a9 bc
       0.011689508 -0.10570117 -0.31022498 -0.020630714
000370 7e 27 0b be b4 e5 d9 bd 75 a6 2d be 16 13 cc 3c
       -0.13589284 -0.106395155 -0.1695803 0.024911445
000380 21 f1 18 bf 2e 5b bf bc e6 db 80 bd 9a ca 03 be
       -0.59742934 -0.023358908 -0.06291942 -0.12870255
000390 11 0b a7 3d 78 63 b5 3e 7b 77 ba 3e 9a aa 6c 3e
       0.081564076 0.3542745 0.3641928 0.23111954
0003a0 00 0a 16 3e 8f d1 55 ba 99 84 b8 be 14 b5 7f bc
       0.14652252 -0.0008156532 -0.36038664 -0.015607137
0003b0 0c 50 09 be de 55 4e be 5e ac 9e 3e a3 eb cf bc
       -0.13409442 -0.20149943 0.3099088 -0.025380915
0003c0 76 0d d7 3d 3a 63 c1 bd 9e 3e be bb 90 2d 0b 3d
       0.10500614 -0.09442754 -0.0058058044 0.033979
0003d0 bd b3 6d be 9c b5 cb be a9 c1 cc be 93 71 8c 3e
       -0.23213096 -0.39786994 -0.399915 0.274304
0003e0 98 50 50 bd 79 aa 94 bc 71 b1 d7 3c 62 ff b7 3d
       -0.05085811 -0.018147694 0.026329728 0.08984257
0003f0 2e aa c7 3d b8 5d 8d bc 9d 48 81 bd cf f0 d6 3d
       0.09749256 -0.017256603 -0.06312678 0.10495149

actor.0.bias f4 [512]
000000 1b 36 c4 3a 70 e7 b5 3c 9e 14 73 bb a3 21 c8 bd
       0.0014969738 0.022205085 -0.0037091146 -0.09772041
000010 76 fc 21 be 32 cd da bc 8a 3c 75 3d 1d 4f b1 3c
       -0.15818962 -0.026709173 0.059872188 0.02164417
000020 e7 86 10 3e 2f 6d e2 3d da 0b 35 be 7f 4b e5 3d
       0.14113961 0.11055981 -0.17680302 0.1119604
000030 a5 a0 97 bd 0d d4 ca 3d 71 95 8e bc 01 f5 d0 bb
       -0.074036874 0.09903727 -0.017405244 -0.006376863
000040 82 39 8b bd aa b4 4c 3d 86 4a 90 3d c9 33 9e bd
       -0.06798078 0.049976982 0.07045464 -0.07724721
000050 b4 cb ad bd 33 9a 1e 3d 9b af e3 bd d2 48 ef bd
       -0.08486119 0.038721275 -0.111174785 -0.11683811
000060 38 0b b5 bd 9d 98 d7 bd 03 76 aa 3d b8 42 a6 bd
       -0.088400304 -0.105271555 0.0832329 -0.08118194
000070 5f db a9 3b bd 82 aa 3d 92 5d 16 3d d1 7b 89 bd
       0.005183622 0.083257176 0.03671033 -0.06713069
000080 a8 2c 06 be 07 18 9d 3c 5a 38 26 be f8 3d c7 bd
       -0.13102973 0.019176496 -0.16232434 -0.097286165
000090 42 45 0e 3e 24 b8 73 bd e1 e3 f1 3d 51 0f 73 3d
       0.13893607 -0.059501782 0.118110426 0.05934078
0000a0 c7 79 3f bd 23 fd 4b 3d 02 54 dc bd c2 f3 06 bc
       -0.046746995 0.049801957 -0.10758211 -0.008236827
0000b0 78 46 51 3d 97 ff 48 3d 4f f8 b8 3d 41 4d a7 bd
       0.051092595 0.049071874 0.09031736 -0.08169032
0000c0 18 bf 06 3e 44 44 a4 bd db 6e ff 3d 4b 49 d0 bc
       0.13158834 -0.08020833 0.12472316 -0.025425574
0000d0 ca c6 41 bd 19 bf ba bd 64 19 f5 bd 4f 84 25 3d
       -0.04730872 -0.0911848 -0.119677335 0.040409382
0000e0 7e ac b2 bc 26 21 12 be ae f6 2c 3d 0f bb 16 3d
       -0.021810766 -0.14270458 0.04222744 0.036799487
0000f0 af 53 39 3e ca df 8c bd 96 e1 20 3d 97 5e 8b 3d
       0.18098329 -0.06878622 0.039277636 0.06805151
000100 23 76 62 3d 3e 15 0e be e1 2a a5 3d 6f 56 04 3e
       0.055288445 -0.13875291 0.08064819 0.12923597
000110 5c d9 d0 3d e8 e7 67 3c be b6 2c be aa 3a 44 bd
       0.10197708 0.014154412 -0.16866586 -0.04790751
000120 d4 f6 de 3c 86 ad 87 bd f1 db 16 be 50 22 b4 bd
       0.027217306 -0.06624894 -0.14732338 -0.08795607
000130 ff ec 02 be fa 75 8f bc 0b dd 9c 3c 5c 45 b2 3d
       -0.1278572 -0.01751231 0.01914837 0.087046355
000140 51 99 01 3b 92 0a 3d be 0f 22 86 3d 92 c5 1d be
       0.0019775222 -0.18461064 0.06549465 -0.15407398
000150 c1 91 2c bc 3f 9b 0f 3d eb 67 e4 3d 2d 4b a0 3d
       -0.010532797 0.035060164 0.11152633 0.07826839
000160 61 5f 98 bd a6 86 bf bd df 2a 07 3e e1 b3 df bc
       -0.07440067 -0.09351854 0.13199948 -0.027307453
000170 df 1d 6b bb e1 be a9 3d 20 4f a0 3d 03 bb be 3c
       -0.003587596 0.082883604 0.07827592 0.023282534
000180 5c bb 9a 3d 5b 39 9e 3c 40 86 a0 bd 5c 58 9a 3d
       0.07555267 0.019314459 -0.07838106 0.075363845
000190 00 ea 02 3d 8c 4d 2a ba 19 3f eb bd 97 a4 86 3c
       0.03196144 -0.0006496541 -0.11486644 0.016435904
0001a0 03 bf 30 be 3c 61 81 bc b2 68 10 be 0b e1 ff 3c
       -0.17260365 -0.015793435 -0.14102438 0.031235239
0001b0 99 33 cc bd e1 e4 57 bd f1 fc fe 3d 13 69 b7 3d
       -0.09970779 -0.05270851 0.124505885 0.08955588
0001c0 13 c4 a7 bb 8f 33 92 3d 7e 66 8a bc fd 42 28 3d
       -0.0051198094 0.0713874 -0.016894575 0.04107951
0001d0 90 05 fd bd a5 f3 8d bd bf 11 a1 3d b0 64 e6 3d
       -0.123545766 -0.06931237 0.07864713 0.11249673
0001e0 be b7 13 3d 63 1a b0 bc 28 cc c3 bd fa 69 00 3e
       0.036063902 -0.021496957 -0.09560424 0.12540427
0001f0 12 74 03 be 8e 9a a0 bd 00 5b 29 bd 42 38 28 bd
       -0.12837246 -0.07841979 -0.04134655 -0.041069277
000200 e7 bf 81 3d 64 ec ed 3c d0 7a c6 bd 4c a8 26 bd
       0.063354306 0.029043384 -0.096913934 -0.040687844
000210 70 9b 16 3e 91 9f b4 3d 5c b2 d0 3d 0b 79 b2 3d
       0.14707732 0.088194974 0.10190269 0.08714493
000220 38 ee 5d bd 00 ba f9 bd d6 33 ac bc ba 20 08 be
       -0.05418226 -0.1219368 -0.021020811 -0.13293734
000230 da b3 ad 3d 3b ce 28 3e 01 0b 2e be fc 56 8d bc
       0.084815696 0.1648492 -0.16996385 -0.017253391
000240 f3 e6 93 bd 90 c2 55 bd 1e f7 60 be 50 a0 8f 3d
       -0.072217844 -0.052187502 -0.21969268 0.07012999
000250 31 7e ac 3d ef f3 20 bd 98 23 52 3d 3f 8c 5a bd
       0.084225066 -0.039295133 0.051303476 -0.053356405
000260 21 da 8e bd b2 24 2b bc b2 92 ae 3d 4e cd 1a 3e
       -0.069751985 -0.010445761 0.08524074 0.1511738
000270 a5 c8 ae 3d ca 48 2c 3c c3 0d 43 bd 26 d6 6c be
       0.08534364 0.010515401 -0.047620546 -0.23128566
000280 07 a9 7e 3d dc e6 64 bd 24 7b a9 bd 76 24 d8 bd
       0.062172916 -0.055884227 -0.0827544 -0.10553829
000290 38 85 ae 3d e3 7d 7a 3c 6a 8f 37 bc 1c 49 84 bd
       0.08521503 0.015288803 -0.011203626 -0.06459257
0002a0 16 bf 93 bd 09 50 8b bd d4 0e 0b 3c aa e1 cc 3c
       -0.07214181 -0.06802375 0.008487422 0.025009949
0002b0 fa 39 41 3c 35 28 4a 3d 89 e4 03 3c ae a1 4d 3d
       0.011793608 0.04935475 0.0080500925 0.050203018
0002c0 17 dd b2 bd cc ab a1 bd 9c a4 f4 3a 77 75 19 3e
       -0.08733576 -0.07894096 0.001866478 0.14986216
0002d0 d9 22 20 be de 55 0a 3e c8 bb 23 bc 22 fa 3e be
       -0.15638293 0.13509318 -0.009993501 -0.18650106
0002e0 c9 4c 79 3d d2 76 52 bd 88 c2 0a be f7 5b 6b bd
       0.060864244 -0.051382847 -0.1355077 -0.05746075
0002f0 c3 ac 15 be af ef 2f 3d 82 1d d9 3c d0 8d 3f be
       -0.14616685 0.04295319 0.026503328 -0.18706441
000300 f4 46 e4 3d bf 96 fb bd b8 b9 f3 3d d1 cc 9d 3d
       0.11146346 -0.12284612 0.119006574 0.07705081
000310 59 9e ee 3d 88 7e 97 3d d3 d6 a6 3d 78 40 35 bc
       0.11651296 0.07397181 0.08146443 -0.011062734
000320 50 23 cb bd cf b5 0a be 31 51 a9 bd 20 f3 5f 3d
       -0.09918845 -0.13545917 -0.08267439 0.05467522
000330 56 da 90 3d 71 33 32 bd a1 7f d5 3d 18 b0 b9 bb
       0.07072894 -0.04350609 0.10424734 -0.005666744
000340 ad 38 0a bc 13 19 c1 bd f5 ae 99 bd 5a 8e 54 bd
       -0.008436364 -0.09428611 -0.075040735 -0.05189357
000350 5c 23 1c 3d 13 97 8f bd 28 38 15 be 72 aa 88 bd
       0.03811966 -0.07011237 -0.14572203 -0.06673135
000360 d9 07 46 bd d6 a4 af 3c 4c 5e 0e bd ed aa b8 bc
       -0.048347328 0.021440905 -0.034757897 -0.022542441
000370 a7 cf 01 3d 86 dd 06 3e 18 50 c6 bd bb 48 27 3d
       0.031692173 0.13170442 -0.096832454 0.040840846
000380 89 bf f4 3d 93 a9 07 bb 56 29 df bd bc 94 0a be
       0.11950595 -0.002070044 -0.10896556 -0.135333
000390 08 7b 7d bd 8c f1 c5 bd 8a fd 93 3d 56 11 22 3e
       -0.06188491 -0.09665212 0.07226093 0.15826926
0003a0 0e 00 23 3e 77 5c 98 bd d3 b1 2b bd a3 8e 52 3c
       0.1591799 -0.07439511 -0.041917633 0.01285139
0003b0 fd c2 07 bc 19 87 b3 3d e5 a8 af bd dc 01 20 bd
       -0.008286235 0.08766002 -0.08577136 -0.039064273
0003c0 f2 a2 a8 3c 7a ca ab bd c5 2f b6 bc a5 18 61 bd
       0.02058551 -0.08388229 -0.022239575 -0.054955143
0003d0 14 8a 1c 3d 8b f5 b2 bc 09 84 1e 3d 23 08 90 3c
       0.03821762 -0.0218456 0.038700137 0.017582005
0003e0 d9 c7 d9 3d 73 8f 87 bc 10 58 71 bd 7d d8 0d bd
       0.10633821 -0.016547894 -0.058921874 -0.034630287
0003f0 ff 1b 29 3e 4b a9 8d bd 6f 27 7a 3d df 3c ff bd
       0.16514586 -0.06917056 0.061072763 -0.12462782

actor.2.weight f4 [256, 512]
000000 d7 28 62 3d 3d de 30 bc 73 8a 97 3d be cf fc 3d
       0.05521473 -0.010795173 0.07399454 0.12344311
000010 0e fc 93 3d 36 c8 3c bd 13 19 ac bd a7 c4 f4 bd
       0.0722581 -0.046089374 -0.0840322 -0.11951571
000020 0d 13 23 3e 2a 56 f7 bc 7c 95 03 3e 3e be 8d bd
       0.15925236 -0.030192453 0.12849993 -0.069210514
000030 9e e9 78 3d 2c 6a 87 3c 1f b5 16 be 07 e3 80 3d
       0.06076967 0.016530119 -0.1471753 0.06293302
000040 71 c4 ba bd fd 5c 9b bd 61 70 1c bd c5 09 20 bd
       -0.091194995 -0.075860955 -0.03819311 -0.039071817
000050 6c 11 9a bd d2 8f aa bd b6 62 ac bc df 2e 22 3c
       -0.07522854 -0.08328213 -0.021043163 0.00989887
000060 9e 3c 2e 39 de ab bd bc e1 b6 fb 3c 93 f3 a0 3d
       0.00016616515 -0.023153242 0.030726852 0.07858958
000070 fd e5 cb bc 5e b7 b6 bd 4e e7 9e 3d aa 0e 82 bb
       -0.02488994 -0.08921693 0.077589616 -0.0039690332
000080 5f 77 c8 bb 57 53 cb bd 16 7b 18 3e ea aa e1 3d
       -0.006117746 -0.09928005 0.14890704 0.110189274
000090 a2 f0 4b bd 77 b4 1b bc a8 95 91 3d 85 82 bd ba
       -0.049790032 -0.009503475 0.07108623 -0.0014458454
0000a0 fb 08 f5 3d b2 80 00 3e 64 70 eb bd 55 31 77 be
       0.119646035 0.12549093 -0.11496046 -0.24139912
0000b0 72 3e 2d bd c9 a0 67 3d e8 db c1 bd f8 da 23 bc
       -0.04229588 0.05654982 -0.09465772 -0.010000937
0000c0 22 d0 9b 3d 56 4b 78 3e cd da 00 3e 4a 2b b3 bc
       0.076080576 0.24247488 0.12583466 -0.021871228
0000d0 87 ea b2 bd fb 6c df bc ab 89 a0 3e 02 16 96 ba
       -0.08736139 -0.027273646 0.31355032 -0.0011450651
0000e0 df b4 ea bd 7f 9d a3 3d 9e 55 99 bd e0 08 63 bc
       -0.1146028 0.07989024 -0.07487033 -0.013857096
0000f0 1c 02 10 bc ee 00 b2 bb 62 af 58 be 3b 1d 93 3d
       -0.008789565 -0.0054322397 -0.21160653 0.0718331
000100 1e e5 ef bd 0b d8 f3 3d 8d 04 f2 bc c8 0d 05 be
       -0.117136225 0.11906441 -0.029543186 -0.12993538
000110 1f 74 24 bd ce d8 d5 bc 6b dd 90 3d cc 84 17 bc
       -0.040149804 -0.026104357 0.07073482 -0.00924797
000120 ab 52 c5 bd 88 89 c5 bd 17 b0 ce 3d 8f e8 a2 3c
       -0.09634908 -0.09645373 0.1009218 0.019886283
000130 43 55 4f 3d c7 43 7c 3e 05 55 84 3d b8 c4 ff bc
       0.05061842 0.2463523 0.06461529 -0.031221732
000140 40 8a 0a bc 1b 6e 27 bd 55 b5 e9 3b d8 c0 91 bc
       -0.008455813 -0.04087649 0.007132212 -0.01779215
000150 d9 21 49 3e 8d 84 a6 3b 51 eb 1b 3c be 41 48 bd
       0.19641818 0.0050817193 0.009516553 -0.04889082
000160 4b 15 bb bd cd 9d 8c bd 70 9f 4d bc 1d 5c 92 3d
       -0.09134921 -0.068660356 -0.01255022 0.071464755
000170 e1 78 8c 3d ac f9 98 bc c2 74 32 be 5a 1f 77 3c
       0.06858993 -0.01867374 -0.17427352 0.015083158
000180 28 73 ba 3d 99 05 ae bd b6 84 86 bc 2b 74 9a 3d
       0.091039956 -0.084971614 -0.016420703 0.075416885
000190 fb fb 0a be 93 86 31 3c d3 4a 3b 3d b5 fe d6 bc
       -0.13572685 0.010835308 0.045725655 -0.0262445
0001a0 a7 2e 5f 3c dd 2b 2e 3b 76 d1 36 3b b3 1b cb bc
       0.013621963 0.0026576438 0.0027895845 -0.024793481
0001b0 73 5f 03 bd 69 6e f0 3b d7 50 16 be 32 16 37 3d
       -0.03207345 0.0073373807 -0.14679275 0.0446989
0001c0 4c a6 dd bc 95 a4 2f bd 0e 9b 9f 3b 60 fb c5 3c
       -0.027056836 -0.042881567 0.004870779 0.024167717
0001d0 20 33 94 bd 17 bf a5 bd ea 26 b0 bd 3a 17 d5 3d
       -0.07236314 -0.08093088 -0.08601172 0.10404821
0001e0 33 8b c9 bd cb b9 54 bd c0 f4 45 3e 9f 97 31 3e
       -0.09841003 -0.051935 0.19331646 0.17342995
0001f0 7c 23 1e be de b0 f6 3d 57 8b 54 bc cd f2 a1 bd
       -0.15443224 0.120454535 -0.012972674 -0.07907639
000200 f5 43 f2 bd c4 50 1d 3d 69 5b 9f 3d 24 e5 15 3d
       -0.11829368 0.038407102 0.07781107 0.03659548
000210 59 52 b7 3e 58 56 c9 bd ab a6 80 3c a3 45 ca 3d
       0.35805014 -0.09830922 0.015704473 0.098765634
000220 9b 62 0c 3e 44 c6 a1 3b d2 67 0b 3c e1 55 22 3d
       0.1370949 0.004936965 0.008508639 0.03963268
000230 5d d6 c1 bc a9 77 aa 3d ca c8 9a bc e4 6f 09 bd
       -0.023661787 0.083236046 -0.018894572 -0.033553973
000240 a2 e0 11 3e fb bc 4a bd 02 6d 70 3d 46 18 2c be
       0.14245847 -0.049496632 0.058697708 -0.16806135
000250 f3 d8 34 be 4b 30 31 3e 54 4d 81 bd 73 59 5b 3e
       -0.17660885 0.17303579 -0.06313577 0.21420841
000260 8a 02 ac 3e bb 0e 12 be f5 91 b3 3c b2 6d 7b be
       0.33595687 -0.14263432 0.021920184 -0.24553564
000270 5b cd 7a 3c 93 ac d0 bd 39 7f d8 3d 08 dc 84 3d
       0.01530775 -0.10189166 0.10571141 0.0648728
000280 9d 6d 24 be 6b 06 2c bd c0 0b bf bd 7e 24 02 3b
       -0.16057439 -0.04199831 -0.09328413 0.0019858177
000290 05 df 31 3e db bf 54 3e d7 84 c8 bc da 50 da 3d
       0.17370231 0.20776312 -0.024477405 0.106599525
0002a0 fd 04 92 3d 1c c4 f0 3e 68 65 24 3d b8 ff c8 bd
       0.07129858 0.4702462 0.04013577 -0.098143995
0002b0 d8 80 5a bd dc d8 c2 bb a6 fb 1c 3d 73 f0 75 3d
       -0.05334553 -0.005946262 0.03832593 0.060043763
0002c0 06 0b 46 bc 72 5a 2c 3d d8 70 93 3d 45 ec 13 bd
       -0.012087589 0.042078443 0.071992576 -0.036113996
0002d0 cf cf d1 3d 17 3f 16 3e 50 15 6e 3d b2 4e d6 3d
       0.102447145 0.14672504 0.058125794 0.10464229
0002e0 a3 a0 34 3e 1a 66 77 bd 7e 99 7e 3c 87 fa b1 3d
       0.17639403 -0.060400106 0.015539525 0.086903624
0002f0 4c 83 2d be 38 bf cb 3d 8b 74 91 3d ef b5 3f bb
       -0.16944617 0.099485815 0.07102307 -0.0029252728
000300 56 75 0c 3e 0b f3 3c bd bb 7f f2 3d 15 06 32 3e
       0.13716635 -0.04613022 0.11840769 0.17385133
000310 94 b1 6c bc 8d 80 0c 3d 61 22 9a bd e8 33 5e ba
       -0.014446635 0.034302283 -0.075260885 -0.00084763626
000320 00 3f 15 bc ee 29 41 3e 81 e8 6a bd 33 71 ad bd
       -0.009109259 0.18863651 -0.05735064 -0.08468857
000330 64 07 43 bd bd 4b f0 3d 7e 44 0f 3d 55 be ce 3d
       -0.04761447 0.11733196 0.03497743 0.10094897
000340 95 91 8b bd ab b2 02 be c9 91 03 3d 76 ec 3b be
       -0.06814877 -0.12763469 0.032121453 -0.18351921
000350 f0 07 0d 3e c4 61 56 3d 80 51 8e 3d 67 d4 f3 bb
       0.13772559 0.05233933 0.06949139 -0.007441092
000360 8c 3a 37 3e fd d5 a5 3c 9d 05 8b bd 5c 34 e7 3d
       0.17893428 0.02024364 -0.0678818 0.11289284
000370 54 08 53 bd e5 d5 a1 bd 8c 1f 82 3c f4 58 19 3e
       -0.051521614 -0.07902125 0.015884183 0.14975339
000380 b2 57 1f bd 83 c2 59 bd d6 a4 0d 3e 4d bd 99 3d
       -0.038901992 -0.053164016 0.13832411 0.075068094
000390 d1 5f c7 bd c5 24 b7 3c 8e f6 e4 3d 8e 03 ff 3d
       -0.097350724 0.0223564 0.11179839 0.1245185
0003a0 db d1 4b 3d 48 1e d3 bd 46 0c a6 bd 2e f7 d8 bc
       0.04976068 -0.1030851 -0.0810781 -0.026485052
0003b0 72 b1 5f bd 47 3a a9 3d b9 c2 59 3d 79 55 d6 3d
       -0.054612584 0.08263069 0.053164218 0.10465521
0003c0 8c 6a 20 be 4a ef ac 3c 7c 64 9e bd 8f 00 84 3d
       -0.15665644 0.021110196 -0.077340096 0.06445419
0003d0 8b 94 e9 bd 76 27 7d 3d 56 f9 45 bd 4e 64 a5 bd
       -0.114052854 0.06180521 -0.04833349 -0.08075772
0003e0 fa b8 b7 3d 19 8e 4c 3c e1 6e 1f 3c c5 6b 80 bc
       0.08970828 0.012485051 0.009731025 -0.015676389
0003f0 26 54 34 be 61 2c 2b 3e ab 04 45 bc ae 50 d0 bd
       -0.17610225 0.16716148 -0.012025039 -0.101716384

actor.2.bias f4 [256]
000000 87 6e e8 bd 07 eb a9 bd e8 bb 64 be 0c af 14 be
       -0.113492064 -0.08296781 -0.22337306 -0.145199
000010 18 cc 48 bd a9 a9 b3 bd 0f 82 80 be fe 73 8e bd
       -0.049022764 -0.087725945 -0.25099227 -0.069557175
000020 a6 06 3b be 92 55 f3 bd 29 4e e9 bd 05 12 ec bd
       -0.18264255 -0.118815556 -0.11391861 -0.115268745
000030 99 5d 37 bd d5 e0 8f bd 36 15 68 be df da ef bd
       -0.044766996 -0.07025305 -0.22664341 -0.11711668
000040 1e 26 ed bd ed f5 00 bd ef 5e 70 bd 77 4b 02 be
       -0.11579536 -0.031484533 -0.058684286 -0.127241
000050 dd f4 f5 bd 94 30 d1 bd 43 d2 2f be 6b 82 bd bd
       -0.120095946 -0.10214344 -0.17170052 -0.09253391
000060 d1 89 57 be df 23 95 bd 38 91 bd bd 74 1e 11 be
       -0.21048667 -0.072822325 -0.09256214 -0.14171773
000070 88 0b 8c 3c ff c8 a1 bd 71 d0 e6 bc 00 db c0 bd
       0.017095342 -0.07899665 -0.028175564 -0.09416771
000080 52 d6 61 bd f2 00 df bd 39 a9 e9 bd 45 fd 15 be
       -0.055136032 -0.10888852 -0.1140923 -0.14647396
000090 ca 7a 88 bd d4 43 eb bd 6b 76 ac bc b3 38 11 bd
       -0.06664045 -0.114875466 -0.02105256 -0.035454463
0000a0 e0 c8 9e bd 72 e7 d7 bd 41 fa f1 bd b6 c1 9a bd
       -0.077531576 -0.105421916 -0.1181531 -0.07556479
0000b0 75 d6 67 3d 4f b2 25 be 4f bb d8 bd c5 e6 1e be
       0.056601007 -0.161813 -0.10582601 -0.15517719
0000c0 cd 60 86 3c 56 ee 16 be b8 75 4f bd 06 ff b3 bd
       0.01640358 -0.14739355 -0.050649375 -0.08788876
0000d0 95 54 f4 bd 09 55 65 bd 88 16 f3 bd d4 fb 54 bd
       -0.11930195 -0.0559893 -0.11869532 -0.051997975
0000e0 5b 80 1f bd 0d c4 2d be 12 26 23 bd 62 bf 12 be
       -0.03894077 -0.16969319 -0.03983123 -0.14330819
0000f0 ef f8 9d bd f2 21 54 3c 24 c0 18 be f1 93 6f be
       -0.07713496 0.012947546 -0.14917046 -0.23396279
000100 70 d3 6a bd 42 c5 ce bd 98 ac fb bd 39 a6 2a 3d
       -0.05733055 -0.10096218 -0.12288779 0.04166243
000110 7c 00 3b be da 8e 99 bd 60 ba 37 3d 12 f0 ab bd
       -0.18261904 -0.0749795 0.044855475 -0.08395399
000120 c6 60 1e bd 5d e1 0c be a0 6b 15 bd ea cd 05 be
       -0.03866651 -0.13757844 -0.036479592 -0.13066831
000130 e7 d8 b7 bd 43 ee c1 3d 85 ef 92 bc 28 c1 73 bd
       -0.08976918 0.09469273 -0.017936477 -0.05951038
000140 7e 07 ec bd 3f 32 28 be d2 e0 b8 bd fa c7 1d bc
       -0.115248665 -0.16425417 -0.09027256 -0.009630198
000150 d3 b3 41 bd 20 02 7a bd d1 38 df bd 7d 09 f7 bd
       -0.047290634 -0.061037183 -0.10899509 -0.120623566
000160 46 fa ed bd f7 57 ba bd c4 ba 71 bd 52 d6 a1 ba
       -0.116200015 -0.09098809 -0.059016004 -0.0012347198
000170 e0 6d d1 bd f1 98 d3 bc f9 ee 09 be 44 97 cc bd
       -0.10226035 -0.025829764 -0.13470067 -0.09989789
000180 aa f6 9f bd 49 4a 2c be 13 91 df bd 0f e5 a6 bd
       -0.07810719 -0.16825213 -0.109163426 -0.08149158
000190 19 d7 5a be 41 fc 4c be e1 85 ab bd 19 d6 9b 3c
       -0.21371116 -0.20018102 -0.08375145 0.019022988
0001a0 01 07 07 be dd 32 86 bd 5e 74 d4 be 57 12 35 be
       -0.13186266 -0.0655267 -0.4149503 -0.17682777
0001b0 1a 9b 8b 3a 4e cc 0b bc 83 f5 e2 bd f4 16 09 be
       0.0010651082 -0.008532597 -0.11081984 -0.13387662
0001c0 0b 34 d1 bd cd d0 76 bd fe 2a 7b be 31 d1 e0 bd
       -0.102150045 -0.06025772 -0.24528119 -0.109774
0001d0 16 6c a7 bd 66 2d ae bd 6a 14 41 bd a6 2f 5a bd
       -0.08174913 -0.08504753 -0.04713861 -0.053268097
0001e0 0f 0b 54 be b5 4a cf bd 14 2c 18 be a5 79 45 be
       -0.20707344 -0.10121671 -0.14860564 -0.19284685
0001f0 77 5d cc bd 4f c2 3c be 7e ff a9 bd f8 a6 e1 bc
       -0.099787645 -0.18433498 -0.083006844 -0.027545437
000200 f8 46 c7 bc 6f 01 24 be b8 19 50 bd 31 39 e3 bd
       -0.024325833 -0.16016172 -0.050805777 -0.11094893
000210 27 16 7b bd 26 df 4a be 08 5e f4 bd ee de 39 be
       -0.061300423 -0.19811687 -0.119319975 -0.18151447
000220 03 b0 09 be d5 52 82 bd b6 5a 59 be cc 26 88 bd
       -0.1344605 -0.06363455 -0.2122601 -0.06648025
000230 dd 88 56 be e3 d4 b1 bd 17 71 86 bd 5a 4f 7d bd
       -0.20950647 -0.08683183 -0.06564539 -0.061843254
000240 ca b3 2a 3c 91 e8 a0 bd fd e6 ea bd 1c cc 8e bd
       0.010418842 -0.078568585 -0.11469839 -0.069725245
000250 8b e3 e9 bd d8 c6 13 be b6 ee 08 be 0f 8e 27 be
       -0.114203535 -0.14431322 -0.13372311 -0.16362785
000260 6e 15 ec bd 71 53 2c be 67 47 bb bd d7 ff 16 3d
       -0.11527525 -0.16828705 -0.09144478 0.03686508
000270 38 1a 34 bd 77 26 3f bd a3 5a 2e 3d e0 63 6d bd
       -0.043970317 -0.046667542 0.042566907 -0.057956576
000280 c6 5a 9e bd 26 d6 d1 3c 71 17 0d bd f2 28 f9 bd
       -0.077321574 0.02561481 -0.034446184 -0.12166013
000290 7d e1 9a bd a1 0f 0e be d1 e6 31 3d 2c 63 bd 3c
       -0.0756254 -0.1387315 0.043433014 0.023118578
0002a0 82 94 2c be ba b5 07 be 7c c2 fc bd 5f ee 1c 3d
       -0.16853526 -0.13252917 -0.123417825 0.038313266
0002b0 3d 69 e5 bd 2c 8e ea bd 44 cf 84 bd 51 e0 43 bc
       -0.11201713 -0.114528984 -0.06484845 -0.011955337
0002c0 00 0d ff bd 16 a8 df bd 34 39 65 be dc 77 a6 bd
       -0.124536514 -0.10920732 -0.22385103 -0.0812833
0002d0 36 ed d1 bd d2 2a 13 be 49 9e b3 bd e8 3c ec bc
       -0.102503225 -0.14371803 -0.08770425 -0.028837636
0002e0 97 63 8d bd 71 09 9a bd 05 65 f4 bd 4e f9 08 bd
       -0.06903761 -0.07521332 -0.119333304 -0.03344088
0002f0 2b 65 f9 bd e0 2e 97 bd 21 5a d6 bd a9 a8 3e bd
       -0.121774994 -0.073819876 -0.104664095 -0.046547566
000300 72 7e 09 be 56 49 d1 bd a8 a3 32 bd 6c 49 0c be
       -0.13427141 -0.10219066 -0.043613106 -0.13699883
000310 08 d5 a1 bd fb b5 0c be d1 59 76 bd d3 f6 53 bd
       -0.079019606 -0.13741295 -0.06014425 -0.05174906
000320 dc 16 87 3d fd e1 f9 ba d2 0c da bd d0 63 99 bd
       0.06596157 -0.0019064542 -0.106469765 -0.07489741
000330 34 c8 05 be 0d 17 3f bd 8f a0 a7 bd f0 7e 86 bd
       -0.13064653 -0.046652842 -0.08184921 -0.0656718
000340 08 44 0f 3a 29 f8 fe bb d4 ad 34 be 26 d1 1d be
       0.00054651545 -0.007781048 -0.17644435 -0.15411815
000350 b0 19 a5 bd 14 0d 42 bd a8 08 4b bd 3f 61 6c be
       -0.0806154 -0.047375754 -0.049568802 -0.23083971
000360 d0 49 2b bd 92 80 11 3c e7 5a f6 bd 31 8d 96 bd
       -0.04181844 0.008880751 -0.12029057 -0.07351149
000370 08 f0 26 be 0d 01 32 3c 16 b6 2b bd 49 03 5f 3b
       -0.16302502 0.010864508 -0.041921698 0.0034029058
000380 7a 31 49 be 61 5e 5e bd 6b 19 d9 bd 69 30 0c bc
       -0.1964778 -0.054289225 -0.10600551 -0.008556464
000390 72 f9 1c be 99 01 a4 bd 09 e7 10 be 4e e5 a2 bd
       -0.15329531 -0.08008117 -0.14150633 -0.07953893
0003a0 69 86 ba bd f7 c7 89 bd b5 fb e8 bd e1 72 9c bc
       -0.09107668 -0.067275934 -0.11376134 -0.019097747
0003b0 66 f3 e9 bc 0c 26 2d be e5 a9 4d bd 5d 55 85 bd
       -0.028558444 -0.16909045 -0.050210852 -0.065104224
0003c0 ef 4b ef bd d6 69 e6 bb 94 2a b5 bd fa 3d a5 bd
       -0.11684405 -0.0070316596 -0.08846012 -0.08068462
0003d0 37 85 20 be ee 82 05 be 72 d1 27 be df a0 fc bd
       -0.15675817 -0.13038227 -0.16388491 -0.12335371
0003e0 48 de 83 bd 1d 3b 85 bd 18 e5 0e be 38 22 c3 bd
       -0.06438881 -0.065054156 -0.1395458 -0.09528011
0003f0 b0 9f 37 bd fc b4 f0 bd 6e 49 9c bd aa 0d 42 3d
       -0.044830024 -0.1175327 -0.07631193 0.047376312

actor.4.weight f4 [128, 256]
000000 a3 79 63 3c 69 98 19 3c f2 82 e4 3d e7 1e 52 3d
       0.013883981 0.009374716 0.11157788 0.051299002
000010 bc 80 80 3c d3 9b be 3d 1b d4 ea bd dc 05 a5 bd
       0.015686385 0.09307065 -0.11466237 -0.08057758
000020 82 65 05 3c 8c da ce bc c7 0c a7 3d 68 00 45 3d
       0.008141877 -0.025250696 0.08156734 0.04809609
000030 da 30 79 bb 96 04 83 be a9 70 52 3d b3 6e 08 bd
       -0.0038023503 -0.25589436 0.051376972 -0.033308696
000040 43 51 4e bd 0e 9d 1a bd 06 34 8f 3d 73 da 8e 3d
       -0.050370466 -0.037747435 0.069923446 0.0697526
000050 03 19 e0 bd 0d 92 11 bc c7 c9 46 be 39 c4 da 3b
       -0.109422706 -0.008884919 -0.1941291 0.0066762236
000060 00 17 e3 bc 30 87 b7 bc c9 ac 1e be 21 56 7b 3d
       -0.027720928 -0.02240333 -0.154956 0.061361436
000070 a8 9d b3 3d ef 53 55 3e c5 12 b0 3d b1 41 5e 3c
       0.08770305 0.208328 0.0859733 0.013565467
000080 09 b1 0c 3e 7c 76 e8 bc 5b 59 ac bd 35 2c 23 3e
       0.13739409 -0.02837681 -0.08415481 0.15934832
000090 fa 19 38 3d 4d 8b c1 3d 4e 77 34 3d ae 20 f8 bd
       0.04494665 0.09450398 0.04405909 -0.12115608
0000a0 82 9a 96 bb 30 e1 97 bd 3e aa 92 bd 2d fc 25 3d
       -0.0045960555 -0.07415998 -0.07161377 0.040523697
0000b0 d7 ac 4b 3b 17 3c aa 3d 49 7c 5f bd ca 64 c5 3c
       0.0031078362 0.083122425 -0.054561887 0.024095912
0000c0 a3 2d 72 3d 79 b8 1d bd d2 75 e3 3c 0c 32 f0 3d
       0.059125554 -0.038506005 0.027766142 0.11728296
0000d0 74 8a 05 be f2 a8 04 bd 05 84 ee 3d d6 e0 49 3d
       -0.13041097 -0.03238768 0.116462745 0.049286686
0000e0 6f 00 5a bc a9 9d 67 3d 3d b1 27 bd 08 db 6e 3d
       -0.013305767 0.05654684 -0.040940512 0.058314353
0000f0 66 80 62 bd e5 87 9f 3c 77 03 8f 3c e3 97 d9 3d
       -0.05529823 0.01947398 0.017457707 0.10624673
000100 e2 d4 a7 3c 05 45 9a bd 1a 85 02 3c 54 6a 9c 3d
       0.020487253 -0.07532696 0.007966304 0.07637468
000110 79 a9 bd bd 9d a6 37 bd b5 50 e3 bd 0d 4c ad 3d
       -0.0926084 -0.04483663 -0.11099378 0.08461771
000120 24 06 7c bd 92 17 d9 3d 11 a0 f8 3d 06 15 15 3c
       -0.061529294 0.10600199 0.12139905 0.009099251
000130 11 b2 24 3d 10 aa 92 bd e8 c2 8f bd 22 ec 1e be
       0.04020888 -0.07161343 -0.07019597 -0.15519765
000140 b4 78 40 3e 08 2e 01 3b ac ed e6 3b da 55 34 3c
       0.18796045 0.0019711275 0.0070473757 0.011006797
000150 15 00 b1 3d b3 50 78 bd 4d dd 5a 3c 91 60 43 bd
       0.08642594 -0.060623836 0.013358426 -0.047699515
000160 91 7b 3d 3d db 5f e5 3d 71 b8 ae 3c 26 1b 09 3e
       0.04626042 0.111999236 0.021328183 0.13389263
000170 07 d1 ca bd ed e3 f4 bc 4e cd b0 bd 5e 42 a7 bd
       -0.0990315 -0.02989384 -0.08632909 -0.081669554
000180 cd e6 b7 3c 61 4b 24 bd 0a 02 4f bd fd ff bf 3b
       0.022448922 -0.04011095 -0.050539054 0.0058593736
000190 81 c7 c2 3c cf c3 0b 3d 7b bf 06 bd d4 ed 17 3d
       0.023776772 0.034122285 -0.032897454 0.037092045
0001a0 8d d3 89 3c 10 0a 84 bd c9 23 2e bd ea 89 aa bc
       0.016824508 -0.06447232 -0.042514596 -0.020817716
0001b0 50 de db bc ee 5f 83 bd 12 e7 aa 3d d0 3c 19 3d
       -0.026839405 -0.064147815 0.083448544 0.03741151
0001c0 01 f2 67 bd 4a e6 01 bd ee 94 73 bd 4e c1 5d bd
       -0.056627277 -0.03171376 -0.059468202 -0.054139428
0001d0 d6 ee 19 3e b6 8e b2 3a f7 a9 91 bd 7e 9f 13 bd
       0.15032515 0.0013622853 -0.07112496 -0.036040775
0001e0 3e fd 28 bd 7a c2 89 bd a7 7c ac bd b1 c3 86 3d
       -0.041257136 -0.067265466 -0.08422213 0.06580294
0001f0 00 38 8d 3d 9c 6b 83 bc e0 a9 ea bc 33 dd 26 3e
       0.06895447 -0.016042523 -0.028645456 0.16295318
000200 29 73 35 3a f0 7a c9 3d 7c 53 2b 3d bf 3d 67 bd
       0.0006921762 0.098379016 0.041827664 -0.05645537
000210 b9 b7 62 3d 62 18 92 bb 16 13 53 bd 87 a6 fd bd
       0.055350993 -0.004458473 -0.051531874 -0.12385278
000220 25 a8 f8 3c 3b 43 20 be db 6b d5 bd d4 e7 9f bd
       0.030353615 -0.15650646 -0.104209624 -0.078078896
000230 18 be a6 3d e7 f9 98 3c a2 2a 78 bd 60 2c 76 bd
       0.08141726 0.01867385 -0.060587533 -0.060100913
000240 ed 53 97 bd af ca ca 3c 24 a8 4b 3e 57 95 07 3d
       -0.073890544 0.02475485 0.1988836 0.033101406
000250 fa bd e5 3d 3d 0e 55 bd 9c 9d 2e 3d bc 06 3f bd
       0.11217876 -0.05201553 0.042630777 -0.04663728
000260 00 b1 1d be a9 56 95 3c 43 e3 87 3d 0d 18 be 3b
       -0.15399551 0.0182298 0.066351436 0.005801207
000270 51 7e 8c 3c e9 26 03 bd 2f 4d 32 3d 33 f8 1b 3d
       0.017150076 -0.03201953 0.04353064 0.038078498
000280 9c a1 3e be e3 81 fe bd 80 ec 6b bd e8 a2 b3 3d
       -0.18616337 -0.12427118 -0.05759859 0.08771306
000290 84 8d b6 bd e5 fd e4 3d 2b 81 73 3c 3b 73 3c 3d
       -0.08913711 0.11181239 0.014862339 0.04600833
0002a0 ff b5 b0 bc 31 29 4c 3d 09 6a 9f 3c 2b 50 e1 bc
       -0.021571158 0.04984397 0.019459741 -0.027504047
0002b0 f8 4b ca bc 9c 6c 4a 3d dc 57 5d 3b 58 47 d4 bd
       -0.024694428 0.049419984 0.0033774292 -0.1036517
0002c0 98 b9 88 bd d9 fc df bd 5c c4 6f 3c 58 69 43 3d
       -0.06676024 -0.10936899 0.014634218 0.047707886
0002d0 cb 82 51 3d 31 38 73 bd 15 9a b0 bd 2d 2f a0 bd
       0.051150125 -0.05937976 -0.08623139 -0.07821498
0002e0 85 fb 1e bc e7 c4 66 bc a2 06 a5 bd 53 7b c7 bd
       -0.009703522 -0.014085031 -0.08057906 -0.09740319
0002f0 b7 c5 0c be 56 d6 06 3d 80 66 dd bd 58 cf 01 3e
       -0.13747297 0.03291925 -0.10810566 0.12676752
000300 67 34 5b be 89 8f fd bd 03 58 d3 3b 52 21 b9 bb
       -0.21406709 -0.12380893 0.006449701 -0.005649724
000310 1b 5a 9a bc ef 14 fd bc 27 f7 42 bc 5c 34 9a bc
       -0.018841794 -0.030893771 -0.011899746 -0.018823795
000320 62 0c 8e be 83 bb e0 3b 67 ba 61 3d 1e 48 b2 3c
       -0.27743822 0.0068582906 0.055109408 0.021762904
000330 c2 53 60 3e 86 ba b0 b9 44 6a 6c bd da f1 2c 3e
       0.21906951 -0.00033708307 -0.05771853 0.16889134
000340 f2 f0 81 ba 03 27 96 bd 6b 9f a4 bd cc f1 5d bd
       -0.0009913726 -0.0733166 -0.08038219 -0.054185674
000350 2a ea 9b bc b8 17 5f bd 8f fd ad 3d 12 df 0a 3d
       -0.019032557 -0.05446598 0.08495628 0.033904143
000360 2a a9 16 3c 89 fa 4c bd 1d b1 69 3d 2c d9 1e 3d
       0.009195605 -0.050043616 0.057053674 0.03878133
000370 5c ae 1f 3e d4 e3 6d 3c 92 6b b4 3d 5a c0 55 bc
       0.15593857 0.0145196505 0.0880958 -0.0130463485
000380 e2 38 f2 bd e7 26 18 bd 81 1a 56 3c bb a3 85 3d
       -0.11827256 -0.037146475 0.013067842 0.0652537
000390 47 b9 73 3d fe 74 af bd 0b f0 97 bd 96 ef b3 bc
       0.059502866 -0.08567236 -0.074188314 -0.02196483
0003a0 17 a5 29 3e eb ad 82 3a 01 6c e9 bc 60 eb 96 bd
       0.16566883 0.0009970044 -0.028493883 -0.07369113
0003b0 c0 8a e9 bc 40 a3 8c 3a 34 f4 3f bd 58 eb 87 bd
       -0.028508544 0.0010729805 -0.04686375 -0.06636685
0003c0 8c df 21 3d 46 2e 87 3b c6 25 47 3e 08 2e 7b 3d
       0.03951983 0.0041253893 0.19448003 0.061323196
0003d0 13 33 fc 3d e8 5f 8d 3d a3 9e c7 bc 39 7e 27 3d
       0.12314429 0.06903058 -0.024367636 0.04089186
0003e0 f2 4f c0 3d 76 0d e3 3d 7c 26 98 3a 20 ea 6a 3d
       0.09390248 0.11086552 0.0011608149 0.057352185
0003f0 9a 9e 9c bc 1e 25 5e bc 75 78 1d bd 45 85 72 bd
       -0.019118596 -0.013558654 -0.038444955 -0.059209127

actor.4.bias f4 [128]
000000 dd dd b4 3d 82 f4 82 bd 93 a0 58 bd d4 e5 08 be
       0.088313796 -0.063942924 -0.05288751 -0.13368922
000010 58 04 bf bc 7b 28 d8 bd 41 7b 38 bb 4c 3a c4 bd
       -0.023317501 -0.10554596 -0.0028149637 -0.09581432
000020 09 34 bc bd fa e9 fd bd c3 6d c3 bc 65 36 d3 bd
       -0.091896124 -0.12398143 -0.02385605 -0.10313109
000030 cc 36 82 bd c5 cc a4 be d2 9e 61 bd cc 7b ab bd
       -0.06358108 -0.32187477 -0.055083103 -0.08373222
000040 0e d4 94 bd db 76 97 bd f8 a1 13 be 8d da f7 bd
       -0.07267009 -0.07395717 -0.14417255 -0.12102232
000050 cd cc 81 be cf c4 d6 be 80 ae 52 bd f7 dd 3a bd
       -0.25351563 -0.41947028 -0.051435947 -0.04562184
000060 5a 55 cc bd 23 69 0f be 56 59 04 be ed ff 33 be
       -0.09977217 -0.1400495 -0.12924704 -0.17578097
000070 94 c1 70 bd 2c b2 85 bc 01 7a aa bd e8 94 e5 bd
       -0.05877836 -0.01632031 -0.08324052 -0.11210042
000080 eb 81 d9 bd 89 9f ee bd 04 dc fd bd f0 83 2f be
       -0.10620483 -0.11651523 -0.1239548 -0.17140174
000090 94 e1 74 bd b3 cc 9f be 22 e3 4d bd a6 45 ba bd
       -0.05978544 -0.3121086 -0.05026544 -0.09095316
0000a0 7c 9b 71 bd e8 3f 39 be 9e 61 0b bf 83 9f 12 be
       -0.058986172 -0.18090785 -0.54445827 -0.14318661
0000b0 a6 33 25 be a8 de 6d be d1 bc 14 be f4 bb 28 bd
       -0.16132984 -0.23229468 -0.14525153 -0.04119487
0000c0 98 32 a7 bd 5a 7b 1b be 79 c9 4f be ce a2 d5 bc
       -0.08163947 -0.15183774 -0.202917 -0.026078608
0000d0 f0 03 f0 3c f9 e0 b5 bd aa b0 e7 bc d4 40 bf bd
       0.029298753 -0.08880801 -0.028282482 -0.09338537
0000e0 ac a0 96 bd 42 8b 70 3d b5 f5 d2 3c 21 4f 00 be
       -0.073548645 0.058726557 0.025751928 -0.12530185
0000f0 30 ef 62 bd 17 fe 06 bd f4 e6 05 be fc a9 55 bd
       -0.05540389 -0.032957163 -0.13076383 -0.052164063
000100 c9 54 49 be 70 ee 04 be a2 e9 81 bd 32 7f 99 bd
       -0.19661249 -0.12981582 -0.0634339 -0.07494964
000110 b7 df 5a bd 6a 44 2c be fa 40 b2 bd fa 9c 2e bd
       -0.053436007 -0.16822973 -0.087037995 -0.042630173
000120 70 f7 00 bd 7c e8 6a bd e6 1b 08 be 97 3a ab bd
       -0.031485975 -0.05735062 -0.13291892 -0.083607845
000130 7b b9 4b bd 8a a2 2f be 82 ee 5c bd 2b 1a 26 3d
       -0.049737435 -0.17151847 -0.053938396 0.0405523
000140 4f 67 c7 bd 1f bd 7e bd b1 59 5b bd 89 0c 5d 3b
       -0.097365014 -0.06219208 -0.053552333 0.0033729395
000150 24 da 3f be 62 5b 7d bd 59 84 35 be 24 9e 15 3d
       -0.18735558 -0.061854728 -0.17726268 0.036527768
000160 43 e2 04 be d7 21 36 be e6 5a 64 bd 65 2f 85 bd
       -0.12976937 -0.17786346 -0.05575075 -0.065031804
000170 d0 4f 44 be 6f 2f 25 bb 29 80 35 be 7f ff cc bd
       -0.19171071 -0.0025205275 -0.1772467 -0.100096695
000180 69 d5 93 bd ec 23 d0 bb 0b d5 3e be d2 a0 30 be
       -0.07218439 -0.0063519385 -0.18635957 -0.17248848
000190 8e 3b f8 bd 29 ac 4d bd 1b de ac bd e8 c5 d9 bd
       -0.12120734 -0.050213013 -0.08440801 -0.10633451
0001a0 c5 5e 2b be 2e 03 0f be f2 dd 27 be b4 47 5c bd
       -0.1673537 -0.13966057 -0.16393259 -0.05377932
0001b0 63 05 be bd 0e 5b d5 bd 22 11 ff bd a7 10 da b9
       -0.09278371 -0.10417758 -0.1245444 -0.00041592607
0001c0 04 fe 14 be 9f 22 1d be 90 6c 3c bd d8 63 d7 3c
       -0.14550024 -0.15345238 -0.04600197 0.026292726
0001d0 e5 bb 2d be 35 f5 6c bd e2 a6 1b be 3c 72 16 be
       -0.16966207 -0.057851035 -0.1520038 -0.14692014
0001e0 ea 17 ea bd ad 43 15 be 6b ad 46 bd 53 6a a8 bd
       -0.114303425 -0.14576598 -0.048505228 -0.08223405
0001f0 b3 eb 2f bd 60 b7 d1 bd 1c e7 ac 3c 22 6e 42 be
       -0.04294939 -0.10240054 0.021106295 -0.18987325

actor.6.weight f4 [12, 128]
000000 38 01 bc bb 20 dc 6c 39 d6 da 53 bc dd b0 ab 3a
       -0.00573745 0.00022588717 -0.0129305925 0.0013098974
000010 cc 7d 55 bc cf a3 ab 3c b6 91 57 bc 6b d6 f1 bc
       -0.013030481 0.020952133 -0.013157299 -0.029521188
000020 61 e1 e0 bb 35 41 03 3d 0f e1 00 3d 38 22 a7 3c
       -0.0068628048 0.03204461 0.031464633 0.020402059
000030 34 f0 44 bc 76 71 fa bc 34 20 17 bd 2d fb 99 39
       -0.0120201595 -0.03057168 -0.036895946 0.00029369575
000040 d8 58 31 3d 5b 29 1c bd 82 35 c5 bb 60 32 5c 3b
       0.04329762 -0.038125377 -0.0060183415 0.0033599362
000050 df d3 f1 bb c8 3b b4 bc d3 bf 0e 3d 9f 90 a5 3d
       -0.0073799933 -0.022001162 0.034850907 0.08084225
000060 18 b5 99 3c e5 c4 a9 bc a8 58 e4 3b 45 ef 57 bc
       0.01876311 -0.02072377 0.0069685765 -0.013179605
000070 26 9d 7a bd 91 d7 89 3b 0c e6 1a bd 56 3c 0e bb
       -0.061185025 0.0042066057 -0.037817046 -0.0021703443
000080 d2 88 a8 bb 9f 96 fa 3b c0 f0 0e 3c 76 63 cf 3b
       -0.0051432634 0.00764735 0.008724391 0.0063289953
000090 ce 11 ca bc 0f db 5b 3d f3 2a 37 3c 52 07 a2 bc
       -0.024666693 0.053675707 0.0111796735 -0.019778881
0000a0 16 56 3b bb 79 53 17 3b df 75 31 3d 26 7b 41 3b
       -0.0028585247 0.0023090525 0.0433253 0.0029522865
0000b0 23 5d bf 3b 68 d9 59 bc 38 d1 7b bc be d6 06 3d
       0.00583996 -0.013296463 -0.015369706 0.032919638
0000c0 b1 26 99 3d fd d7 1c bc b7 84 13 3d fe 18 18 bc
       0.07478083 -0.00957298 0.03601524 -0.009283302
0000d0 78 dd 87 bc 7f b3 43 3c 42 00 db b9 d2 a2 b4 bb
       -0.016585097 0.011944651 -0.00041771127 -0.0055125738
0000e0 35 c7 cc 3c 57 24 17 3b f3 cc 7b 3a 0e 40 03 bc
       0.024997333 0.0023062432 0.000960543 -0.008010877
0000f0 fe 6d 78 bd 7d 95 35 3a 24 22 42 3b e5 1a f4 bc
       -0.06065177 0.00069268775 0.00296224 -0.02979798
000100 a1 56 2a 3b 3c 84 ca ba 29 60 46 3c ca 11 50 bd
       0.0025991576 -0.0015450786 0.012107887 -0.050798215
000110 bc e0 94 bc d3 63 26 3c 07 b7 cd bc d3 b4 9c 3c
       -0.018173568 0.010155636 -0.025111688 0.019129192
000120 1d 38 6b 3c e8 04 1a 3d 30 ce 00 3d 23 42 01 3d
       0.01435664 0.037602335 0.031446636 0.031557214
000130 e3 65 dc bc 88 7b b5 bb a5 e7 51 bd 03 71 35 bd
       -0.026904052 -0.0055384077 -0.051246304 -0.04429723
000140 86 10 c8 3b 49 fc c6 bc 03 d7 1c 3d c5 74 7d bc
       0.0061054854 -0.02429022 0.03829099 -0.015469735
000150 21 77 ee bb c6 65 05 3d c9 ac 05 3d 65 db 74 bc
       -0.007277385 0.03256776 0.032635484 -0.014944886
000160 83 77 a9 3c 0a ef 1b 3c dc 4d 27 bc 08 f2 13 3d
       0.02068687 0.009517441 -0.010211434 0.03611949
000170 a0 49 79 3c 55 ca 75 3b 13 86 8c 3d 5f fe 31 39
       0.0152153075 0.0037504632 0.0686151 0.00016974796
000180 2d f5 64 3c 7d 9e d2 3c 24 59 55 3d ed 5d 90 3c
       0.01397447 0.025710339 0.052086964 0.017622912
000190 26 94 2f bc 4b 18 50 3c 0d 5c 0f bc d2 7c 39 3c
       -0.010716474 0.012701104 -0.008749974 0.011321263
0001a0 ba 57 19 bb 37 57 87 b9 8b 9a d9 bb f8 f0 26 bc
       -0.0023398236 -0.00025814187 -0.0066407374 -0.010189287
0001b0 d4 84 16 3c 26 15 05 bd 1f 4e b1 3c 3b 6c 69 3c
       0.009186942 -0.03249087 0.021643696 0.014246996
0001c0 a8 ba 84 bd 07 17 de bb 69 50 07 3d f8 40 c5 3c
       -0.06480914 -0.0067776474 0.03303567 0.024078831
0001d0 ce 06 d4 3d dc d6 92 bc 0b 8c 07 bd 97 9f 25 3b
       0.103528604 -0.017924719 -0.03309254 0.0025272125
0001e0 a3 68 4b 3d 85 29 7c bb 4e 12 d0 bc 10 a3 3e 3c
       0.049660336 -0.0038476896 -0.025399353 0.011635557
0001f0 1c bf b2 bc 8e ec 4a 3d 07 65 98 bc f4 aa f2 ba
       -0.021819644 0.049542002 -0.018602861 -0.0018514083
000200 17 b0 0c 3d 7d 15 8e 3c 87 4e b3 ba 20 26 6b bc
       0.03434762 0.01734423 -0.0013680019 -0.014352351
000210 1f 90 33 bc ff f3 cc 3c 14 5b 8c 3d 72 a1 5b bc
       -0.010959654 0.02501869 0.06853309 -0.013405191
000220 82 85 cf 3c 45 39 6c 3a bf 04 f5 3c 6b b4 11 bb
       0.025332216 0.00090112194 0.02990949 -0.0022232782
000230 04 97 80 bb c3 22 ed 3c 47 95 0b bc 90 97 13 3a
       -0.0039242525 0.02894724 -0.008519477 0.00056301896
000240 ee 90 1c 3d 2c c9 89 3d 5a 5d 49 3c 17 9b ff bc
       0.038224153 0.067278236 0.012290323 -0.031201882
000250 fb e9 f7 bc 1e 58 ec bc fb fe 6c bb f8 9d 0e bc
       -0.030262938 -0.028850611 -0.0036162722 -0.008704655
000260 7c d9 1a bb 6d c8 f7 bc 56 ff 2a 3c e6 10 49 bc
       -0.0023628166 -0.030246938 0.010436853 -0.012272095
000270 56 3c b3 bb 82 5f 8f bc 55 6a ad bc 7d cf eb 3b
       -0.005469839 -0.017501596 -0.021168867 0.0071963654
000280 9d 3e 6b bb fd 09 67 bb a0 05 3e 3b 5d aa 10 bd
       -0.0035895475 -0.0035253756 0.0028995052 -0.03531872
000290 ad 01 6f bc 1d f4 92 3c 21 36 5e 3d bf d6 33 bb
       -0.014587802 0.017938668 0.05425084 -0.002744123
0002a0 4c a7 d3 3b 68 4e ef bc 8b 2c 93 bd 57 08 94 3c
       0.0064591523 -0.029212192 -0.0718623 0.018070383
0002b0 66 37 bd bc ab e2 2b bd a6 7b 11 3d ad 5e e6 bc
       -0.023097705 -0.041964214 0.03551831 -0.028121317
0002c0 c0 36 d4 bc 9f 89 6c 3c 71 4e e6 bc 22 1b 60 bd
       -0.025905013 0.014437108 -0.028113576 -0.054713376
0002d0 7e c4 ca bc 1e 28 95 3c 23 78 36 3d 72 e3 e5 bc
       -0.024751898 0.018207606 0.044548165 -0.028062556
0002e0 37 be 05 bd 28 d6 49 3d ec 78 f3 bb a6 12 81 3c
       -0.032652106 0.0492765 -0.0074301865 0.015755963
0002f0 ef 21 f4 3b 31 c5 11 3d 61 52 23 bd ba 77 a8 3c
       0.0074503343 0.035588447 -0.039873485 0.020564903
000300 d3 43 5c ba fb d2 e7 3b 98 3e 04 3c 3c f2 44 3c
       -0.00084024406 0.0070747114 0.008071564 0.012020644
000310 3b bc e1 bb b1 91 d0 3c c3 d4 98 3a 65 b5 9c 3c
       -0.006888894 0.025460096 0.0011660088 0.019129464
000320 eb 41 10 3a 2e 31 81 bd 97 14 bd 3b b3 d9 0a bd
       0.00055029866 -0.063082084 0.0057702768 -0.03389902
000330 df d9 a9 bb 02 7e a6 ba 2c 11 92 3d cb 4c 29 bd
       -0.005183443 -0.0012702348 0.071321815 -0.041333
000340 f3 43 c7 ba 9d e6 17 3b a4 95 89 3c 15 e3 36 bc
       -0.0015202746 0.0023178228 0.016794987 -0.011162539
000350 23 e1 3f bd 89 ec 8f 3b 55 57 4d bd 8d 2a c0 bc
       -0.046845566 0.004392211 -0.050132114 -0.02345779
000360 80 17 05 3d a4 a5 c5 3b f8 4a 17 3b f6 f8 29 3d
       0.032493114 0.006031709 0.0023085456 0.041497193
000370 3e 86 de bc 2d ae 26 3c 62 45 3a bc b7 88 22 39
       -0.027163621 0.010173363 -0.011369081 0.00015500454
000380 30 56 84 3b ca 5b 78 3c e8 33 d3 3a a8 3b da bc
       0.0040385947 0.015158603 0.0016113492 -0.026639774
000390 ca 28 89 bb 71 3f 56 3c 60 94 f2 3b bb cd 34 3c
       -0.0041857706 0.013076649 0.0074029416 0.011035378
0003a0 a1 c8 e5 bc e7 01 03 3d ee 92 16 bc cf b9 4b bc
       -0.028049769 0.031984236 -0.009190304 -0.012434437
0003b0 3a 85 ce bb 71 b8 28 bd 19 06 9e bd 5c f1 60 bc
       -0.006302503 -0.041191522 -0.07716007 -0.01372942
0003c0 76 dc d3 bc 61 e2 bc 3b 70 6a 8d 3d 8f 79 15 bc
       -0.02586196 0.005764291 0.06905067 -0.00912322
0003d0 f0 10 02 bc fc 97 21 3d f5 c3 73 3c 0b c2 08 bd
       -0.0079386085 0.039451584 0.014878263 -0.03338818
0003e0 83 91 16 bc d2 ff 3f bd 94 cb 83 3c d1 b8 d6 3c
       -0.009189966 -0.04687483 0.016088285 0.026211174
0003f0 ac 0c 4d 3c 82 3a 8b 3c 28 06 af bc da e3 99 bd
       0.012515228 0.016995672 -0.02136524 -0.07514162

actor.6.bias f4 [12]
000000 4a 99 f4 bd fe 2f b9 3d b0 f8 c8 bc c4 32 8a bd
       -0.119433 0.09042357 -0.024532646 -0.06747964
000010 20 26 16 3e 57 31 72 bd c4 b5 9d 3d a8 70 f8 bd
       0.14662981 -0.059129085 0.07700685 -0.121308625
000020 06 04 0c 3b 91 89 94 bd b3 73 3f 3e 7e 96 13 be
       0.0021364703 -0.07252801 0.1869648 -0.14412877
