src/ga_quadruped/policy/param_debug.onnx (onnx, 772885 bytes, 8 tensors)

actor.0.weight f4 [512, 52]
0	0xbe4b423c	-0.19849485
1	0xbf8b9fed	-1.090818
2	0x3cbc1f12	0.022964034
3	0xbfdf96c4	-1.7467885
4	0x3fc71b18	1.5555143
5	0x3e19094b	0.14944951
6	0x3e22a2e3	0.15882449
7	0xbe1b836d	-0.15186854
8	0xbdf0e51f	-0.117624514
9	0x3f4d3336	0.80156267
10	0x3d6f0e42	0.058363207
11	0xbe8d6031	-0.2761245
12	0x3cb163c3	0.021654015
13	0xbd3d45e9	-0.04620925
14	0xbd77b372	-0.060473867
15	0xbdd8d676	-0.1058778
16	0xbec8025a	-0.39064294
17	0xbebab7ef	-0.36468455
18	0xbf7be8ec	-0.98402286
19	0x3eaf0c53	0.3418909
20	0xbe8fcd20	-0.28086185
21	0x3eb565aa	0.35429126
22	0x3e583e71	0.2111757
23	0x3f3620bf	0.71143717
24	0xbe6b90b1	-0.23004414
25	0xbe271371	-0.1631601
26	0xbeff0289	-0.49806622
27	0x3e039f8e	0.12853834
28	0xbf7a768f	-0.97837156
29	0x3f2398f8	0.63905287
30	0x3f3b3865	0.73132926
31	0x3e8afd53	0.27146396
32	0xbf32bd40	-0.6982002
33	0x3e30905f	0.17242573
34	0xbe099119	-0.13434257
35	0x3f0b82f0	0.5449667
36	0xbea27688	-0.31731057
37	0xbfa09290	-1.2544727
38	0x3e563f53	0.20922594
39	0x3ecf79ac	0.40522516
40	0x3db109ec	0.086444706
41	0x3df58655	0.119885124
42	0x3d3f310e	0.04667764
43	0x3d09cd97	0.03364333
44	0x3e0a5b65	0.13511427
45	0x3dfd0521	0.12354494
46	0xbdd90bb7	-0.105979376
47	0xbcb454f3	-0.022013163
48	0xbca8ebb3	-0.020620203
49	0x3f4b6fda	0.79467547
50	0x3d7ac8da	0.061226703
51	0xbd944b24	-0.072408944
52	0x3ecd24d8	0.40067172
53	0x3f41d81e	0.75720394
54	0x3ea27a1f	0.31733796
55	0x3ec0bb00	0.3764267
56	0xbf5717d2	-0.8402072
57	0xbd994df0	-0.074855685
58	0xbdfb3bef	-0.12267291
59	0x3dd7149e	0.10501979
60	0xbe865c81	-0.2624245
61	0x3c5001f3	0.012695777
62	0xbe1b0f39	-0.15142526
63	0xbe052ddb	-0.13005774
64	0x3d6de08b	0.05807547
65	0x3e04d46e	0.1297166
66	0x3d46bdd0	0.048520863
67	0x3c77489b	0.015092994
68	0x3e316fce	0.17327806
69	0x3cd3a6b8	0.025836334
70	0xbd69a8f3	-0.05704589
71	0x3e7f371e	0.2492337
72	0x3e28aaa1	0.1647134
73	0x3e2b0053	0.16699342
74	0x3f1ed57e	0.62044513
75	0xbec860c0	-0.39136314
76	0x3edc1466	0.42984313
77	0xbef4852b	-0.4775785
78	0x3f68c466	0.9092468
79	0x3e8031d4	0.25038016
80	0xbe6f341b	-0.2335972
81	0x3f104162	0.56349766
82	0xbdf18fcf	-0.117950074
83	0xbf073d3e	-0.52827823
84	0xbe8154f2	-0.2526012
85	0x3eef8616	0.46781987
86	0xbcd3e6e6	-0.025866937
87	0xbec87bc4	-0.39156926
88	0xbec36aa1	-0.3816729
89	0x3e15aebd	0.14617439
90	0xbe098581	-0.13429834
91	0x3d6bcad5	0.057566483
92	0x3cecbf78	0.028899893
93	0x3d509238	0.050920695
94	0x3c47a41d	0.012185124
95	0xbcae9cf2	-0.021315072
96	0x3d3af5f7	0.045644727
97	0x3d4fd322	0.05073846
98	0xbb457bb7	-0.0030133554
99	0x3c3e08b3	0.011598754
100	0xbcfe09aa	-0.031010468
101	0x3c343224	0.010998283
102	0xbdc1b1a4	-0.094577104
103	0xbd3c1a88	-0.04592374
104	0x3dc2c740	0.0951066
105	0xbddabf9f	-0.1068108
106	0x3d80665d	0.06269524
107	0x3d8cc7cb	0.06874045
108	0x3d883c72	0.06652154
109	0xbd59aa97	-0.053141203
110	0xbcc10eb0	-0.023566574
111	0xbb17b0e1	-0.00231462
112	0x3c75e2fd	0.0150077315
113	0xbcccd82a	-0.025005419
114	0x3cd60934	0.026127435
115	0xbc03ae97	-0.008037231
116	0x3d813f05	0.06310848
117	0xbdbb2080	-0.09137058
118	0xbdf23a19	-0.118274875
119	0x3cad227d	0.02113461
120	0x3c330f9d	0.010929015
121	0x3d1c1ead	0.038115192
122	0x3d9b5098	0.075837314
123	0xbd909353	-0.0705935
124	0x3ae102e3	0.0017166998
125	0xbb47e3ed	-0.0030500845
126	0x3b00f89c	0.0019679433
127	0xbd35a223	-0.04434408
128	0x3d976902	0.073930755
129	0xbcbed2e7	-0.023293925
130	0xbce0ee6d	-0.02745744
131	0xbbe01855	-0.006838838
132	0xbd02c4d9	-0.03192601
133	0xbdb219ef	-0.08696353
134	0x3c9b34a6	0.018946003
135	0xbe05dc24	-0.13072258
136	0x3d3fed16	0.046856962
137	0xbd5b04ac	-0.053471252
138	0xbe07449b	-0.13209765
139	0xbc2d3a97	-0.010573051
140	0xbcde266f	-0.027117936
141	0x3d977c14	0.07396713
142	0xbcd5eebb	-0.026114812
143	0xbde17341	-0.11008311
144	0xbc7f68ae	-0.015588922
145	0x3d454b96	0.048167787
146	0xb9dfda97	-0.00042696737
147	0x3d19a216	0.037508093
148	0xbc85e2ee	-0.01634356
149	0xba7f8c8c	-0.0009748421
150	0xbc48fba6	-0.012267029
151	0x3ca5b153	0.020226156
152	0xbcbe96f1	-0.023265334
153	0x3c117d60	0.008879989
154	0xb9889d86	-0.00026057306
155	0x3ac342c9	0.0014897223
156	0xbd1b9400	-0.03798294
157	0xbeaa223a	-0.33229238
158	0x3f184ed0	0.5949526
159	0x3c379e09	0.011207112
160	0xbdb20599	-0.08692474
161	0xbcfb3a5b	-0.030667474
162	0x3b4b53cc	0.0031025289
163	0x3b447969	0.0029979593
164	0x3d0e52f8	0.034747094
165	0xbd1789a9	-0.036996517
166	0xbd27e465	-0.0409893
167	0x3d82d94c	0.06389102
168	0xbe07eec2	-0.13274673
169	0xbdef231c	-0.116766185
170	0xbd0a2090	-0.03372246
171	0xbd9e8e7d	-0.07742021
172	0xbe806ee3	-0.250846
173	0xbce862f7	-0.028367503
174	0x3f0b068e	0.54306877
175	0x3d2f1882	0.04274798
176	0x3efb0b9d	0.49032298
177	0x3c73c54d	0.014878583
178	0xbeb85b65	-0.36007228
179	0x3d9a48d8	0.07533425
180	0x3e307593	0.17232351
181	0x3e50ec6a	0.20402685
182	0x3eb5a3f3	0.35476646
183	0x3ed9eeb9	0.42564943
184	0xbe434e44	-0.19072825
185	0xbe909259	-0.28236654
186	0x3d1ff1d4	0.039048985
187	0xbe1cd0c3	-0.15314011
188	0x3e1081fe	0.14112088
189	0x3c6fbc24	0.014632259
190	0xbdc3d02f	-0.09561192
191	0x3e6d674c	0.23183936
192	0xbe39d967	-0.18149339
193	0x3dad3b88	0.0845862
194	0x3d92273a	0.07136388
195	0xbc82392c	-0.015896402
196	0x3d8f60b7	0.07000869
197	0x3d2b9513	0.041890215
198	0xbd295dd6	-0.041349255
199	0x3cc788bb	0.02435719
200	0xbd6b5a58	-0.057459205
201	0xbd4f97fd	-0.050682057
202	0x3df77013	0.12081923
203	0x3d2c6b42	0.042094477
204	0xbd211f45	-0.03933646
205	0xbc270f2d	-0.010196489
206	0xbd311e6a	-0.043241896
207	0xbd397c55	-0.045284588
208	0xbe656053	-0.22400026
209	0xbc81aa50	-0.015828282
210	0xbedadd9e	-0.42747205
211	0xbf11af05	-0.56907684
212	0x3f3de2ae	0.7417401
213	0xbdcc7f1c	-0.09985182
214	0xbc89c560	-0.016817749
215	0xbd8551c1	-0.06509734
216	0x3e0912a9	0.13386025
217	0xbdc8e8e1	-0.09810043
218	0xbda5bd3c	-0.08092734
219	0x3e171bc2	0.14756683
220	0xbe5b970b	-0.21444337
221	0xbe3d621b	-0.18494456
222	0xbe7e1710	-0.24813485
223	0x3ccc1316	0.024911445
224	0xbf041525	-0.51594764
225	0x3dbf94e2	0.09354569
226	0x3e9e243b	0.30887017
227	0x3e145a69	0.14487614
228	0xbbcf67f8	-0.0063295327
229	0xbe9fec9c	-0.31235206
230	0xbdba88b5	-0.09108106
231	0xbe294961	-0.16531898
232	0x3c6b7cc1	0.014373005
233	0xbd4c141a	-0.049823858
234	0xbec38964	-0.38190758
235	0x3c6e9803	0.01456261
236	0xbf06637d	-0.5249556
237	0x3c5113e8	0.012761094
238	0x3da39740	0.07987833
239	0xbe479a06	-0.19492349
240	0xbe37175c	-0.17880005
241	0xbed1f665	-0.41008297
242	0xbe347eaf	-0.17626451
243	0xbe604570	-0.21901488
244	0xbe83ea32	-0.25764614
245	0xbde7aefd	-0.11312673
246	0xbd652df6	-0.055952035
247	0xbd3ada32	-0.045618244
248	0x3dab112d	0.083528854
249	0xbd0485ee	-0.032354288
250	0xbc27c766	-0.010240411
251	0xbcf3c591	-0.029757293
252	0xbd151c9f	-0.03640425
253	0x3d856c68	0.065148175
254	0x3d6a2ba4	0.057170525
255	0x3d896f3b	0.06710669

actor.0.bias f4 [512]
0	0xbe2527cb	-0.16128461
1	0x3df714d9	0.12064523
2	0x3b808bc7	0.0039229128
3	0xbdc0f56f	-0.09421813
4	0xbe72825c	-0.2368254
5	0xbdb818ce	-0.08989106
6	0x3daafb98	0.08348769
7	0xbc815336	-0.015786748
8	0x3e6ae21a	0.22937813
9	0x3dc1bd81	0.09459973
10	0xbe9fdde8	-0.3122399
11	0x3e277c4c	0.16356009
12	0xbdba283f	-0.090897076
13	0x3dee224f	0.116276376
14	0x3b569a93	0.0032745942
15	0xbd55139c	-0.052020654
16	0xbd9649af	-0.07338273
17	0x3dc3bccd	0.09557495
18	0xbd5460b9	-0.051850054
19	0xbda0df49	-0.07855088
20	0xbe0d375c	-0.13790649
21	0x3d976e41	0.07394076
22	0xbe79e950	-0.24405408
23	0xbdb7ec65	-0.089806356
24	0xbd7caabf	-0.061686274
25	0xbf0368a0	-0.5133152
26	0xbd15f6f0	-0.03661245
27	0xbe02b142	-0.12762931
28	0x3c6fc0d7	0.014633379
29	0x3dcef64b	0.101055704
30	0xbda8e4c6	-0.0824676
31	0xbe233df3	-0.159416
32	0xbde0484e	-0.10951291
33	0xbe5cac6d	-0.2155015
34	0xbe7c8caa	-0.24663034
35	0xbdefc6a4	-0.117078096
36	0x3e0bf42d	0.13667364
37	0xbe2e3ff1	-0.17016579
38	0x3ddecd53	0.10879006
39	0x3cf36396	0.029710572
40	0xbd40553b	-0.046956282
41	0x3d513068	0.051071554
42	0xbe64ba18	-0.22336614
43	0xbd2b1037	-0.04176351
44	0xbdafd602	-0.085857406
45	0xbd16a128	-0.036774784
46	0x3dcc7077	0.099823885
47	0xbde74325	-0.11292104
48	0x3e0d408c	0.13794154
49	0x3c0ab9d4	0.008467156
50	0xbd662b57	-0.056193676
51	0xbdc62843	-0.09675648
52	0xbd484192	-0.048890658
53	0xbe852164	-0.26002038
54	0xbdc79f03	-0.09747126
55	0x3e10d566	0.14143905
56	0xbda5a04e	-0.08087216
57	0xbe440692	-0.19143131
58	0xbd4eb46e	-0.05046504
59	0x3d393050	0.04521209
60	0x3e6e4ea8	0.23272192
61	0xbdac45ba	-0.08411737
62	0x3cb9a650	0.022662312
63	0x3d4c2880	0.04984331
64	0xbe16133d	-0.14655776
65	0xbe80ac62	-0.25131518
66	0x3e0f92ce	0.14020845
67	0x3ddcd9ac	0.10783705
68	0x3dca809f	0.09887814
69	0xbdcb0b9f	-0.09914326
70	0xbe6ca74f	-0.23110698
71	0xbd94762e	-0.072491035
72	0xbd009b8c	-0.03139834
73	0xbde1138f	-0.10990059
74	0xbd273df5	-0.04083057
75	0xbd85b015	-0.065277256
76	0xbe8a4ed7	-0.27013275
77	0x3cfa2cba	0.030538905
78	0xbca943bc	-0.020662181
79	0x3d297255	0.0413688
80	0xbce0cd2d	-0.027441585
81	0xbe65d3ef	-0.22444128
82	0x3d3670cd	0.04454117
83	0xbe4c9957	-0.1998037
84	0xbd322563	-0.043492686
85	0x3d3186f4	0.043341592
86	0x3d72bcdc	0.05926214
87	0x39a8c3ea	0.00032189424
88	0xbe9ef000	-0.3104248
89	0xbe8c5700	-0.27410126
90	0x3e8332b2	0.25624615
91	0xbd3a5f75	-0.04550119
92	0xbd822695	-0.06355015
93	0x3e02ef15	0.12786515
94	0x3d9e6b82	0.07735349
95	0xbebc1da9	-0.3674138
96	0x3dcadef3	0.099058054
97	0x3d3aa69b	0.045569044
98	0xbe5ad6ff	-0.21371077
99	0x3d7cd86d	0.061729837
100	0x3d6165a6	0.05502858
101	0x3dd92a7b	0.10603806
102	0xbda33989	-0.07969958
103	0x3c8d3b15	0.017240087
104	0xbe35d0b5	-0.17755397
105	0xbbcc8b55	-0.0062421956
106	0xbd9ddce1	-0.07708145
107	0xbcc8d0bd	-0.024513597
108	0xbdcac9aa	-0.099017456
109	0x3c874646	0.016513001
110	0x3e266b94	0.16251975
111	0x3d251ca0	0.040310502
112	0xbdaafe70	-0.08349311
113	0x3cd4b5a4	0.02596552
114	0xbe0a76b2	-0.13521841
115	0x3d027253	0.03184731
116	0xbf65bbc8	-0.89739656
117	0xbd926a1b	-0.07149144
118	0x3d5af27d	0.05345391
119	0x3d92f21b	0.07175084
120	0xbe0a04cb	-0.13478391
121	0xbd884b8f	-0.06655037
122	0xbe117575	-0.14204963
123	0x3d706e0d	0.058698703
124	0xbe05bf79	-0.13061322
125	0xbe1d54c4	-0.15364367
126	0xbd4d1229	-0.050066147
127	0xbd63f8b6	-0.05565711
128	0x3d3a7d0e	0.045529418
129	0xbcd93934	-0.026516534
130	0xbe2b96cc	-0.16756743
131	0xbdb27bee	-0.08715044
132	0x3e55bdd8	0.20873201
133	0x3d094f68	0.033522993
134	0x3ddaeb46	0.10689406
135	0x3c8893a6	0.016671967
136	0xbd132df6	-0.035932504
137	0xbe1c9bb4	-0.15293771
138	0xbd104464	-0.035221472
139	0xbeb666ce	-0.3562531
140	0xbcb0d788	-0.021587148
141	0x3e6fa951	0.23404433
142	0xbe64c402	-0.22340396
143	0xbe2dffdd	-0.16992135
144	0xbd818522	-0.06324221
145	0xbc345c25	-0.011008297
146	0xbe64c339	-0.22340097
147	0x3ccef5c9	0.025263684
148	0x3e1d3d3a	0.15355387
149	0xbe64ed85	-0.22356232
150	0x3d850004	0.064941436
151	0xbe09c29b	-0.13453142
152	0xbcd88594	-0.026430883
153	0xbab37a8c	-0.0013693138
154	0x3e20ed3b	0.15715496
155	0x3e1a0a2a	0.1504294
156	0x3d0dee51	0.034651104
157	0xbd13c25f	-0.03607404
158	0xbda8f9ff	-0.08250808
159	0xbe468876	-0.19387993
160	0xbd207326	-0.039172314
161	0xbc1724d4	-0.009225089
162	0xbe0f252f	-0.13979028
163	0xbea04909	-0.3130572
164	0x3c476aff	0.012171506
165	0xbd5e05db	-0.054204803
166	0xbdbba86f	-0.091629855
167	0xbe8b76ae	-0.27238983
168	0xbd952182	-0.07281782
169	0xbe270702	-0.16311267
170	0xbd62010b	-0.055176776
171	0x3cf763e1	0.030198993
172	0x3d927b85	0.07152466
173	0x3cea4e6f	0.028601853
174	0x3c0dd95a	0.008657778
175	0x3e33102f	0.17486642
176	0xbe3a7a9d	-0.18210836
177	0xbd768556	-0.060185753
178	0x3d008ed9	0.03138623
179	0x3d92aa17	0.07161348
180	0xbe3d36c7	-0.18477927
181	0x3e22e3fd	0.15907283
182	0xbe25e6f1	-0.16201378
183	0xbe556b1d	-0.20841642
184	0x3b6fba2c	0.0036579473
185	0xbd14ad45	-0.036298055
186	0xbe5bd606	-0.21468362
187	0xbe880d77	-0.26572773
188	0xbe959242	-0.29213148
189	0x3d8d1d00	0.06890297
190	0xbbc4079e	-0.0059823534
191	0xbe23cc58	-0.1599592
192	0x3de2f0e2	0.11081101
193	0xbdecab9b	-0.11556169
194	0x3e258672	0.16164568
195	0x3df5d28d	0.1200305
196	0x3d58e780	0.05295515
197	0x3e3aa432	0.18226698
198	0x3df63b44	0.12023023
199	0x3dd773d7	0.105201416
200	0xbea8abb8	-0.3294351
201	0xbe0f34af	-0.13984941
202	0xbdded009	-0.10879523
203	0x3ce93c77	0.028471215
204	0xbe08b506	-0.13350305
205	0x3c44fabc	0.01202267
206	0x3e498147	0.19678222
207	0x3e07abf6	0.13249192
208	0x3cf9815d	0.030457193
209	0xbde5bfb5	-0.11218206
210	0xbe114273	-0.14185505
211	0xbc9a696e	-0.0188491
212	0x3e092aab	0.13395183
213	0xbe31c558	-0.17360437
214	0xbe2c6f22	-0.16839269
215	0xbd114e25	-0.035474915
216	0xbdca1231	-0.09866751
217	0xbd1c8ce3	-0.038220298
218	0x3d389378	0.045062512
219	0x3a8e49f9	0.0010855786
220	0x3d729914	0.059228018
221	0x3d2e30e4	0.042527094
222	0xbea535e3	-0.32267675
223	0xbc6dabf2	-0.014506327
224	0x3e051859	0.12997569
225	0x3d6019d8	0.054712147
226	0xbde63e55	-0.11242358
227	0xbe0fcaa9	-0.14042152
228	0xbcdcc61d	-0.026949937
229	0xbe4d4d74	-0.20049077
230	0x3debb2b6	0.11508696
231	0x3e10e9f6	0.14151749
232	0x3d31f869	0.043449793
233	0xbe42dc9c	-0.19029468
234	0x3c426617	0.01186516
235	0x3db47084	0.08810523
236	0x3ba04e51	0.0048921485
237	0x3e3522d2	0.17689064
238	0xbd7ebd35	-0.06219216
239	0xbdad3cf8	-0.084588945
240	0x3d383f58	0.044982284
241	0xbe11066b	-0.14162605
242	0xbd8a8449	-0.06763513
243	0xbdc124ed	-0.09430871
244	0x3d6e2ae1	0.05814636
245	0xbd7961a9	-0.06088415
246	0xbde898b8	-0.11357254
247	0x3c6fea03	0.014643195
248	0x3e15415a	0.14575711
249	0xbd33d55f	-0.04390466
250	0xbc488cc7	-0.012240595
251	0xbd454ace	-0.048167042
252	0x3dd3fee0	0.10351348
253	0xbb3ced1b	-0.002882785
254	0xbc48c558	-0.012254082
255	0xbe73b3c7	-0.23799048

actor.2.weight f4 [256, 512]
0	0xbd352ee6	-0.04423418
1	0xbe66fba0	-0.22556925
2	0xbd29c398	-0.0414463
3	0x3df9add0	0.12191355
4	0xbd9bd6e2	-0.07609345
5	0xbd35aba1	-0.04435313
6	0xbeea3fc9	-0.4575179
7	0x3d625c05	0.055263538
8	0x3bb9ba30	0.005667947
9	0x3cc18e42	0.023627404
10	0x3e1fa788	0.15591252
11	0xbdd07eb5	-0.101804174
12	0xbd4dd977	-0.05025622
13	0x3dc32f28	0.09530479
14	0x3da55086	0.08071999
15	0xbc9a0a24	-0.018803664
16	0x3f148456	0.5801443
17	0xbdb4c2cd	-0.08826218
18	0xbe63f0c7	-0.22259818
19	0xbd11484e	-0.035469346
20	0xbf088ddd	-0.53341466
21	0x3df4ec7f	0.119591706
22	0x3e610219	0.21973456
23	0x3e4fc6af	0.20290636
24	0xbcbe344f	-0.023218302
25	0x3d775473	0.06038327
26	0x3ef22aa6	0.47298163
27	0x3ec88861	0.3916655
28	0xbe03f7f0	-0.1288755
29	0xbdb7fd00	-0.08983803
30	0xbec6bb2b	-0.38814673
31	0x3e8dcd9a	0.27695924
32	0xbc8c6a13	-0.017140424
33	0x3d37d4ae	0.04488056
34	0xbd84cda6	-0.06484537
35	0xbcb8dce9	-0.022566276
36	0xbe82bb5d	-0.25533572
37	0x3e176005	0.14782722
38	0x3dccc9a8	0.099994004
39	0xbcde7980	-0.027157545
40	0xbd5c7068	-0.053818136
41	0xbd93e2fe	-0.0722103
42	0x3ea889bf	0.32917592
43	0xbdc308c8	-0.09523159
44	0x3ec1ebc7	0.37875196
45	0xbeb252a4	-0.34828675
46	0x3d47d740	0.048789263
47	0xbd80fbbf	-0.06298017
48	0xbc4a4014	-0.012344379
49	0x3d285786	0.041099094
50	0xbf0285ba	-0.509853
51	0xbe4dea23	-0.20108847
52	0xbe5bfeaa	-0.21483865
53	0x3cfbbc35	0.030729393
54	0x3d8fe5e8	0.07026273
55	0xbe59b957	-0.21262108
56	0x3cdd6004	0.027023323
57	0x3cb420bc	0.021988265
58	0x3d84c54a	0.064829424
59	0x3eb77d95	0.35838
60	0xbdb5985c	-0.08866951
61	0x3c8cde28	0.017195776
62	0x3e035a54	0.12827426
63	0x3d1b57b2	0.03792543
64	0x3d6e3ef3	0.0581655
65	0x3e6d3790	0.23165727
66	0xbd5a4a23	-0.05329336
67	0xbe068a5a	-0.13138714
68	0x3e889bde	0.26681417
69	0xbd7d54aa	-0.06184832
70	0x3e19466e	0.14968273
71	0x3e89a52f	0.26883838
72	0x3e6b4554	0.22975665
73	0xbea71927	-0.32636377
74	0x3e16caf6	0.14725861
75	0xbd1ad394	-0.037799433
76	0x3edb172d	0.4279112
77	0x3d7259cc	0.05916767
78	0xbe5fa506	-0.21840295
79	0x3c0aa764	0.008462761
80	0x3e208b36	0.15678105
81	0x3da59028	0.08084136
82	0xbd1077d4	-0.035270527
83	0xbe729d16	-0.23692736
84	0x3da2ac0b	0.07942971
85	0x3b1d836a	0.0024034628
86	0x3e83d1e1	0.25746062
87	0x3ee2cde6	0.44297713
88	0xbda71059	-0.08157415
89	0xbe4c4f48	-0.19952118
90	0xbec7bfd9	-0.39013556
91	0xbe4c8d21	-0.19975711
92	0xbda6664e	-0.08124982
93	0xbe82252f	-0.25418994
94	0x3e179ee6	0.14806709
95	0x3e543fd5	0.20727475
96	0xb9f15298	-0.0004602864
97	0x3e5b63a4	0.21424729
98	0x3d0315d2	0.03200323
99	0x3e541176	0.20709786
100	0xbd2380e3	-0.039917838
101	0x3dfe1841	0.1240697
102	0xbd7fc7a8	-0.062446266
103	0xbbc8282f	-0.006108306
104	0xbd58847d	-0.052860726
105	0x3d2841a9	0.041078243
106	0x3e08a46e	0.13343975
107	0x3ccc7a3e	0.024960633
108	0xbc05d742	-0.008168997
109	0xbd9d74d6	-0.076883
110	0xbe15b47f	-0.14619635
111	0xbd897da8	-0.0671342
112	0xbeb86bba	-0.3601969
113	0xbe8bfe9e	-0.27342695
114	0xbdec59a1	-0.11540533
115	0xbd4f62c3	-0.050631296
116	0x3d999528	0.074991524
117	0x3d0c26f1	0.034216825
118	0xbe8c272c	-0.27373636
119	0xbefe1271	-0.49623445
120	0x3e973909	0.29535702
121	0xbe3cb95b	-0.18430082
122	0xbdc9a8cc	-0.098466486
123	0x3f262ac2	0.64908993
124	0x3dbd8080	0.09253025
125	0x3ead90a9	0.3389943
126	0x3d7c4ab0	0.061594665
127	0x3d80c6cc	0.062879175
128	0xbd6df7f4	-0.058097795
129	0xbecafeb1	-0.3964744
130	0x3e129392	0.14314106
131	0x3e1d20fc	0.15344614
132	0x3d3232e8	0.04350558
133	0x3cf3e572	0.029772494
134	0x3e7c3fa0	0.24633646
135	0xbdc46777	-0.09590047
136	0x3bb1da8a	0.005427663
137	0x3e03d350	0.12873578
138	0xbcb3e21f	-0.021958409
139	0xbe8fc442	-0.2807942
140	0xbe7290ef	-0.236881
141	0xbe196a8b	-0.14982049
142	0x3e1e8226	0.15479335
143	0x3dd2c296	0.102910206
144	0x3d07a3bb	0.03311513
145	0x3f00d204	0.5032046
146	0xbd630b5f	-0.055430766
147	0xbd08f37e	-0.033435337
148	0x3d47e189	0.04879907
149	0x3efc9bab	0.49337515
150	0xbe6250fa	-0.22101203
151	0xbe86f5bb	-0.26359352
152	0xbdf7ab1d	-0.12093184
153	0x3d2666be	0.040625326
154	0xbe4367c0	-0.19082546
155	0xbe0bdf2c	-0.13659352
156	0xbed3a0b9	-0.4133356
157	0x3e10eff6	0.14154038
158	0x3d46be1e	0.048521154
159	0x3e64df2c	0.22350758
160	0x3e86b4ea	0.263099
161	0xbe6ede2f	-0.23326944
162	0x3e8942b7	0.26808712
163	0xbe52e7bc	-0.20596212
164	0x3ecd2ab1	0.40071633
165	0xbc860152	-0.016358051
166	0x3da05060	0.0782783
167	0x3ea03d83	0.3129693
168	0x3e470311	0.19434763
169	0x3d7af496	0.06126841
170	0xbde6e039	-0.11273236
171	0x3e398fe9	0.18121304
172	0xbde248a3	-0.110490106
173	0xbc2d5407	-0.010579116
174	0xbe890059	-0.26758078
175	0x3e384a11	0.17997004
176	0x3d8b32cd	0.06796799
177	0xbca4c50a	-0.020113487
178	0x3d87be79	0.06628127
179	0xbd6098e9	-0.054833326
180	0x3d8d39b8	0.068957746
181	0xbd8d7db7	-0.06908744
182	0x3db89cc9	0.090142794
183	0xbeb75089	-0.3580363
184	0x3abf0032	0.0014572202
185	0xbd3c178b	-0.04592089
186	0x3d9f27d7	0.07771271
187	0xbd46a82a	-0.048500217
188	0xbf207c1b	-0.6268937
189	0xbd65e948	-0.056130677
190	0x3c7a3f94	0.015273947
191	0xbd61af5f	-0.055098888
192	0x3dd1a646	0.10236792
193	0x3e1b54ce	0.15169069
194	0xba680af7	-0.00088517315
195	0x3e6ce65c	0.2313475
196	0xbd6adda7	-0.05734029
197	0x3e4b8083	0.19873242
198	0x3c193075	0.009349932
199	0xbf32cf4f	-0.6984758
200	0x3de59cdc	0.11211559
201	0x3e1db9e5	0.15402944
202	0xbe6abce5	-0.2292362
203	0x3c339536	0.010960868
204	0x3e3d2b81	0.18473627
205	0x3d4eb439	0.050464842
206	0x3eb716f8	0.3575971
207	0x3eb990b2	0.36243206
208	0x3cedc83b	0.029026141
209	0xbec8799f	-0.3915529
210	0x3dcf5023	0.10122707
211	0x3da33679	0.07969374
212	0xbe1e9139	-0.15485086
213	0x3e9397b4	0.28826678
214	0x3ddec224	0.10876873
215	0x3bdf4347	0.00681344
216	0x3cfc4c17	0.030798001
217	0xbd6b9a55	-0.05752023
218	0x3ccc561a	0.0249434
219	0xbcc82ec4	-0.024436362
220	0xbe548f3f	-0.20757769
221	0xbeae5510	-0.34049273
222	0x3bc512c6	0.006014201
223	0xbd5b6228	-0.053560406
224	0xbd26af0d	-0.040694285
225	0x3eed69d6	0.4636981
226	0x3d3d6ca3	0.046246182
227	0x3d60b409	0.054859195
228	0xbc5a73a9	-0.01333324
229	0xbd2e0140	-0.04248166
230	0x3eb7d64d	0.35905686
231	0x3df5a18f	0.119937055
232	0xbe453104	-0.19256979
233	0xbd97a926	-0.074053094
234	0xbd6091b9	-0.054826472
235	0x3d07d096	0.033157907
236	0x3d9410d9	0.07229776
237	0x3e66c6a2	0.2253671
238	0xbd65a77e	-0.056067936
239	0x3cd83981	0.026394607
240	0xbd0c320e	-0.034227423
241	0xbe2134f9	-0.15742864
242	0xbe0543cd	-0.13014145
243	0xbc91aaed	-0.0177817
244	0xbd3ffc27	-0.04687133
245	0x3df60749	0.12013108
246	0x3e6ceac8	0.23136437
247	0x3d9bc684	0.07606223
248	0xbaf537b6	-0.001870862
249	0xbe85a3f1	-0.2610164
250	0x3d604b81	0.054759506
251	0x3da53c7a	0.080681756
252	0xbd63f493	-0.055653166
253	0xbe81ae79	-0.25328425
254	0xbe1ec9b7	-0.15506636
255	0x3e5967e2	0.21231034

actor.2.bias f4 [256]
0	0xbd9cb9aa	-0.076526
1	0xbdf60b52	-0.12013878
2	0xbeafbc1f	-0.34323213
3	0xbea20318	-0.31642985
4	0xbeec5566	-0.46158904
5	0xbedc48c5	-0.4302427
6	0xbdcfd72c	-0.10148463
7	0x3da83ee6	0.08215122
8	0xbefa16ce	-0.48845524
9	0xbe8fdfe7	-0.2810051
10	0xbe803f93	-0.25048503
11	0xbe5ef15b	-0.21771757
12	0xbeb6faa6	-0.35738105
13	0xbdb91f4a	-0.09039171
14	0xbf5173c6	-0.8181728
15	0xbde98475	-0.11402217
16	0xbe662d9c	-0.22478336
17	0x3d796587	0.06088784
18	0xbe2404e8	-0.16017497
19	0xbea496dd	-0.3214635
20	0xbe4013d5	-0.18757565
21	0xbecf8352	-0.40529877
22	0xbe6c0016	-0.23046908
23	0xbe9fac3c	-0.31186092
24	0xbea41ffe	-0.32055658
25	0xbdeb7267	-0.1149643
26	0xbddd8303	-0.10816004
27	0xbe1129e4	-0.14176136
28	0x3decd997	0.115649395
29	0xbe5a540b	-0.21321122
30	0xbea12114	-0.3147055
31	0xbe89bf70	-0.26903868
32	0xbddcafcc	-0.10775718
33	0xbcbf32a1	-0.023339571
34	0xbea3d3c1	-0.31997493
35	0xbe84b1ed	-0.25916997
36	0xbe672fe8	-0.22576869
37	0xbe39849f	-0.18116997
38	0x3c4d7ba3	0.012541684
39	0xbeda2a27	-0.42610285
40	0xbd4a7e93	-0.049437117
41	0xbf121d8e	-0.57076347
42	0xbd97439a	-0.07385941
43	0xbd084ea6	-0.03327813
44	0xbf15daad	-0.585368
45	0xbe3cf085	-0.18451126
46	0xbf2b5f97	-0.66942734
47	0xbeb2655a	-0.3484295
48	0xbd5bbd47	-0.053647306
49	0xbeeb179c	-0.4591645
50	0xbecadea4	-0.39622986
51	0xbe878a75	-0.26472822
52	0xbf03742c	-0.5134914
53	0xbe4217a1	-0.18954326
54	0xbe020bcb	-0.12699811
55	0xbe6fc603	-0.23415379
56	0xbe0be135	-0.13660128
57	0xbf153c69	-0.58295304
58	0xbdddc844	-0.10829213
59	0xbf1d57fa	-0.61462367
60	0xbe4a4057	-0.19751106
61	0xbe2c2f5c	-0.16814941
62	0xbd6d7584	-0.0579734
63	0xbeb1aec0	-0.34703636
64	0x3d823721	0.06358171
65	0xbe9380b1	-0.2880912
66	0xbebe1819	-0.3712776
67	0x3ed2eda9	0.41196945
68	0xbee9d40d	-0.45669594
69	0xbe84b7ff	-0.25921628
70	0xbe7f6265	-0.24939878
71	0xbe21808c	-0.15771693
72	0xbedbd0f1	-0.42932847
73	0xbee3cc13	-0.44491634
74	0xbecfc5ee	-0.40580696
75	0xbe802a4a	-0.25032264
76	0x3cbd46ec	0.023105107
77	0xbdda3b8e	-0.106558904
78	0xbe97a386	-0.29616946
79	0x3d48de28	0.04903999
80	0xbf0bf3ec	-0.5466907
81	0xbdf82e4f	-0.12118208
82	0xbef24189	-0.47315624
83	0xbf03e1f7	-0.5151667
84	0xbd7ecf1b	-0.06220923
85	0xbea0a850	-0.31378412
86	0xbd32ded4	-0.043669537
87	0xbe94a55f	-0.29032418
88	0xbe931f43	-0.28734788
89	0xbea445b1	-0.3208442
90	0xbe0b7ba4	-0.13621384
91	0xbed0fab9	-0.40816286
92	0xbee6095d	-0.4492902
93	0xbe859f57	-0.2609813
94	0xbe877d48	-0.2646277
95	0xbea16414	-0.31521666
96	0xbd88957a	-0.066691354
97	0xbe2850af	-0.16437028
98	0xbe0e499b	-0.13895266
99	0xbec5fedb	-0.38671002
100	0xbd61b63b	-0.05510543
101	0xbe854b25	-0.26033893
102	0xbf9d179e	-1.2272832
103	0xbe479946	-0.19492063
104	0xbe1c7909	-0.15280546
105	0xbe0d4aab	-0.13798015
106	0xbe590b28	-0.21195662
107	0xbe55076a	-0.2080361
108	0xbe1056d7	-0.14095627
109	0xbd8dfcac	-0.06932959
110	0xbe98442f	-0.2973952
111	0xbe7640a0	-0.2404809
112	0xbe5b281f	-0.21402024
113	0xbe605fab	-0.21911494
114	0xbeca436d	-0.39504567
115	0xbe992700	-0.29912567
116	0xbe48677b	-0.19570725
117	0xbe3f68a2	-0.18692258
118	0xbd9c0d04	-0.0761967
119	0xbe813b98	-0.2524078
120	0xbe2c81cf	-0.16846393
121	0xbe8b3ac4	-0.27193272
122	0xbe7f5f11	-0.24938609
123	0xbecf4ef7	-0.40489933
124	0xbe6771e3	-0.22602038
125	0xbeec1b7f	-0.46114728
126	0xbf7f95c7	-0.9983792
127	0x3d403b2f	0.046931442
128	0xbd1a1a5f	-0.037622806
129	0xbe755683	-0.23958783
130	0xbe300e16	-0.17192873
131	0xbd8b373c	-0.067976445
132	0x3e1d7587	0.15376864
133	0xbe9ad7dd	-0.30242816
134	0xbe27721b	-0.16352122
135	0xbec8382d	-0.3910536
136	0xbe42d554	-0.1902669
137	0xbe81cefc	-0.2535323
138	0xbf821066	-1.0161254
139	0xbe25f736	-0.16207585
140	0xbe9c07a2	-0.30474573
141	0xbe1513b3	-0.14558296
142	0xbec03039	-0.3753679
143	0xbe541e52	-0.20714691
144	0xbe8d264a	-0.27568275
145	0xbeafd400	-0.3434143
146	0xbec1ce96	-0.37852925
147	0xbe3cafc6	-0.18426427
148	0xbde50b43	-0.111837886
149	0xbf036c2e	-0.51336944
150	0xbe5227a3	-0.20522933
151	0xbe3409ed	-0.17581911
152	0xbe343f5d	-0.17602296
153	0xbed51429	-0.41616943
154	0xbe7bb728	-0.24581587
155	0x3ddaf93c	0.10692069
156	0xbe69407e	-0.22778508
157	0xbeb6a13e	-0.35669893
158	0xbeab5e0b	-0.33470187
159	0xbae04821	-0.001711134
160	0xbe1ef142	-0.1552172
161	0xbf133175	-0.5749734
162	0xbe9889a0	-0.297925
163	0xbe923ea0	-0.28563404
164	0xbd70ff48	-0.058837205
165	0xbebacc17	-0.36483833
166	0xbcd5bad0	-0.026090056
167	0xbf3e2e6b	-0.7428958
168	0xbe603ac0	-0.21897411
169	0xbe100d81	-0.14067651
170	0xbf087527	-0.5330376
171	0xbe1d86fc	-0.15383524
172	0xbe80cc4c	-0.25155866
173	0xbe5b299d	-0.21402593
174	0xbe8dbe04	-0.27684033
175	0xbf284a83	-0.65738696
176	0xbce755fa	-0.028239239
177	0xbea22c81	-0.3167458
178	0xbefa4465	-0.48880306
179	0x3e2e5c6d	0.17027445
180	0xbec5ddcc	-0.3864578
181	0xbf031861	-0.51209074
182	0xbe3b4fb5	-0.18292125
183	0xbe8d425d	-0.27589694
184	0xbe76e9cb	-0.24112622
185	0xbe1cf6f2	-0.15328577
186	0xbea2116b	-0.31653914
187	0xbe6828d5	-0.22671826
188	0xbdf2e5c9	-0.11860234
189	0xbdbf6355	-0.09345118
190	0xbe432fe4	-0.19061238
191	0xbe6c6306	-0.2308465
192	0xbdcc7cdb	-0.09984752
193	0xbead23e5	-0.33816448
194	0xbdcd17ef	-0.100143306
195	0xbece1bdb	-0.40255627
196	0xbe40b266	-0.18818054
197	0xbe096ce6	-0.13420448
198	0xbea25220	-0.3170328
199	0xbd99fb74	-0.07518664
200	0xbd9bec7d	-0.07613466
201	0xbe5eb874	-0.21750051
202	0xbe4adcb5	-0.19810756
203	0xbf00a148	-0.50246096
204	0xbdcd6cda	-0.100305274
205	0xbe8cdbc3	-0.27511415
206	0xbeb15351	-0.34633878
207	0xbe948fa2	-0.29015833
208	0xbe24219f	-0.1602845
209	0xbf040789	-0.51574
210	0xbe78af7e	-0.24285695
211	0xbe3d1f3d	-0.18468948
212	0xbf0074be	-0.50178134
213	0xbe72d1f0	-0.23712897
214	0xbe72435e	-0.23658511
215	0xbe88d6fc	-0.2672652
216	0xbe624971	-0.22098328
217	0xbbf2d92e	-0.0074111437
218	0xbe4545d0	-0.19264913
219	0xbf3c76c2	-0.7361871
220	0xbeae5658	-0.3405025
221	0xbe8b43cc	-0.27200162
222	0x3c2778e9	0.010221698
223	0xbe7210c2	-0.23639205
224	0xbe159446	-0.14607343
225	0xbef27cc7	-0.47360823
226	0xbe17c6e5	-0.14821966
227	0x3d21b9e6	0.039483927
228	0xbe80e76a	-0.25176555
229	0xbf0afebd	-0.5429495
230	0xbe178198	-0.1479553
231	0xbde97a1c	-0.11400244
232	0xbe18cc1f	-0.14921616
233	0xbec835fd	-0.3910369
234	0xbec73b05	-0.38912216
235	0xbe8ff529	-0.2811673
236	0xbe8a3353	-0.26992282
237	0xbe0a9a67	-0.13535462
238	0xbda3dc9c	-0.08001062
239	0xbe699061	-0.22808982
240	0xbeb9d844	-0.3629781
241	0xbed63b31	-0.41842034
242	0xbd674e2d	-0.05647104
243	0xbcd9c71f	-0.026584206
244	0xbe343525	-0.17598398
245	0xbe46d5eb	-0.1941754
246	0xbe8885ae	-0.2666449
247	0xbeb26d25	-0.34848896
248	0xbe6c88cc	-0.23099059
249	0xbef41c7a	-0.47677976
250	0xbe96846d	-0.29397908
251	0xbebdf2c6	-0.37099284
252	0xbd8424e1	-0.064523466
253	0xbea6cefd	-0.32579795
254	0xbe651a2a	-0.22373262
255	0xbd2dc021	-0.042419557

actor.4.weight f4 [128, 256]
0	0xbc89ac59	-0.016805815
1	0x3d2d6e48	0.0423415
2	0x3d6d1632	0.057882495
3	0x3dc80376	0.09766285
4	0x3e35c1e2	0.17749742
5	0x3cc3ea8b	0.02391555
6	0x3e5f9585	0.21834381
7	0xbe50b862	-0.20382836
8	0x3e00e805	0.12588508
9	0x3da658d2	0.0812241
10	0xbdc1f259	-0.09470052
11	0xbe41c6d1	-0.18923499
12	0x3d67694d	0.056496907
13	0xbd80d365	-0.0629032
14	0x3e4e45cb	0.20143811
15	0x3df15ff3	0.11785879
16	0x3e28ba60	0.16477346
17	0x3e8f9763	0.28045186
18	0x3dfd8eb1	0.12380732
19	0x3d877460	0.06613994
20	0xbda16ab7	-0.07881682
21	0x3da3ed82	0.080042854
22	0x3e1ed326	0.15510234
23	0x3e17b1ad	0.14813872
24	0xbd57cb55	-0.052684147
25	0x3da061a1	0.07831121
26	0xbe21005f	-0.15722798
27	0x3e2c239e	0.16810462
28	0x3cfdfc77	0.031004174
29	0xbd96a13d	-0.073549725
30	0x3e4624e6	0.19350013
31	0x3e2d4f99	0.16924895
32	0xbd382db2	-0.044965453
33	0xbe4509d7	-0.19242035
34	0xbdd743fb	-0.10511013
35	0x3d6f3522	0.05840028
36	0xbd4a51b6	-0.049394332
37	0xbf019929	-0.5062433
38	0x3c8589cf	0.016301064
39	0xbdce6513	-0.10077872
40	0x3e171cab	0.1475703
41	0xbd32fb03	-0.043696415
42	0x3dc56a6f	0.09639441
43	0x3d530079	0.051514123
44	0x3dc3b6f1	0.09556378
45	0x3c28ee9d	0.010310796
46	0x3e48aab0	0.19596362
47	0xbd45647d	-0.048191536
48	0xbe7e315c	-0.24823517
49	0x3d197566	0.037465475
50	0xbd49a154	-0.04922612
51	0x3d8da794	0.069167286
52	0x3d526316	0.051364027
53	0x3da0eb46	0.07857375
54	0x3da75b94	0.08171764
55	0xbce88bb7	-0.028386934
56	0x3daab56b	0.08335384
57	0x3ea5aaf5	0.32356992
58	0x3d6bc3de	0.05755984
59	0x3de02a37	0.10945552
60	0x3dc95941	0.09831477
61	0x3e33b136	0.1754807
62	0x3d0ec164	0.0348524
63	0x3d7df1ec	0.061998293
64	0x3e3f6b8c	0.1869337
65	0xbc029671	-0.007970438
66	0xbe1ffdcd	-0.15624161
67	0x3ea1cce6	0.31601638
68	0x3d00f03d	0.03147911
69	0x3d06f07f	0.0329442
70	0x3e2dc21a	0.16968575
71	0x3db89f56	0.09014766
72	0xbe02bed0	-0.12768102
73	0xbd8c75a4	-0.06858376
74	0xbc4c4c70	-0.012469396
75	0x3d8257be	0.06364392
76	0xbda61b58	-0.08110684
77	0x3dea5a54	0.1144301
78	0xbd4da744	-0.050208345
79	0xbe8db1ed	-0.2767481
80	0xbda6fed9	-0.08154077
81	0xbd904629	-0.07044632
82	0xbdd2b367	-0.102881245
83	0x3cd71f11	0.02625993
84	0xbdbcbd33	-0.092157744
85	0x3d9cef18	0.07662791
86	0xbe635951	-0.2220204
87	0x3d13c720	0.036078572
88	0xbd500e01	-0.050794605
89	0xbe3e1e2e	-0.185662
90	0x3dd7905a	0.1052558
91	0x3e110b2f	0.14164422
92	0x3e752094	0.23938209
93	0xbe240db3	-0.16020851
94	0xbc8bd49c	-0.017069153
95	0x3dc6296b	0.096758686
96	0x3d458f54	0.04823239
97	0xbe054b23	-0.13016944
98	0x3e7911da	0.24323216
99	0x3e406b44	0.18790919
100	0x3e2b572b	0.1673247
101	0xbd858a55	-0.06520525
102	0x3e6695a3	0.2251802
103	0xbdc930cf	-0.098237626
104	0xbd315a41	-0.043298963
105	0xbe2f787d	-0.17135806
106	0x3d442d29	0.04789463
107	0xbd262c69	-0.040569697
108	0x3dcced5b	0.100062095
109	0x3d65dff5	0.056121785
110	0xbd7dffb3	-0.062011432
111	0xbe6c0d98	-0.2305206
112	0x3e273e7f	0.16332434
113	0x3cac6069	0.021042066
114	0xbe867748	-0.2626288
115	0x3d404324	0.04693903
116	0xbdf325e9	-0.11872465
117	0xbe14df7f	-0.14538382
118	0xba53643b	-0.0008063947
119	0xbe01b2d1	-0.1266587
120	0x3d691cb0	0.056912124
121	0x3c146473	0.009057152
122	0x3c4f69eb	0.01265953
123	0xbe780309	-0.24219908
124	0xbd596560	-0.053075194
125	0x3d01f686	0.031729244
126	0x3e000791	0.12502886
127	0x3dc906c9	0.09815747
128	0xbdd04b9d	-0.10170672
129	0x3d9b27c4	0.07575944
130	0xbc930706	-0.017947685
131	0xbc0e366e	-0.008679969
132	0x3d06d725	0.03292002
133	0x3d5600da	0.052246906
134	0xbc9e28f7	-0.019306643
135	0xbe134e3f	-0.14385317
136	0xb9c83898	-0.00038189138
137	0x3d444e91	0.04792649
138	0x3e950012	0.29101616
139	0xbec4e71b	-0.3845757
140	0x3dcb42ab	0.09924825
141	0x3cdcd6c4	0.026957877
142	0x3c19c2dd	0.009384838
143	0xbdec5908	-0.11540419
144	0x3de41a95	0.111378826
145	0xbcdbc3fc	-0.026826851
146	0x3d0a7c5e	0.033810012
147	0xbda9c79c	-0.082900256
148	0x3e29349d	0.16523977
149	0x3b727a65	0.0036999222
150	0x3e09e3c3	0.1346579
151	0x3dcc7005	0.099823035
152	0x3baf7e0c	0.005355602
153	0xbdd7795e	-0.10521196
154	0x3dcbea74	0.09956828
155	0xbdb8f045	-0.09030203
156	0xbdb1caaf	-0.08681237
157	0x3c2d86ca	0.010591218
158	0x3e26c190	0.16284776
159	0xbe3abf82	-0.18237117
160	0x3db593a4	0.08866051
161	0x3e2d292a	0.16910234
162	0x3ca6fd37	0.020384414
163	0x3dec8983	0.11549666
164	0xbd777a44	-0.060419336
165	0xbc8b1a9f	-0.016980467
166	0x378e2a21	1.6947337e-05
167	0x3d531f8c	0.051543757
168	0xbd1830c8	-0.037155896
169	0xbe67d7f4	-0.22640973
170	0xbbc66375	-0.0060543367
171	0xbe41f2cf	-0.1894028
172	0x3e4e6beb	0.20158355
173	0xbddf5981	-0.109057434
174	0xbd914a12	-0.07094206
175	0x3dedc5fb	0.116100274
176	0xbf047c78	-0.51752424
177	0xbe5e25cc	-0.21694106
178	0x3da1cc8c	0.07900342
179	0xbdab5338	-0.08365482
180	0xbb5e1dc3	-0.003389225
181	0xbe072ba5	-0.13200243
182	0xbd20a922	-0.039223798
183	0xbd26fb59	-0.040767048
184	0x3e552637	0.20815359
185	0xbe39209d	-0.18078847
186	0x3e187311	0.14887644
187	0xbe07fae7	-0.13279305
188	0xb9d23166	-0.00040091126
189	0xbda9889d	-0.0827801
190	0xbda28328	-0.07935172
191	0x3d0fdaf6	0.035120927
192	0x3db20896	0.08693044
193	0x3c00d78c	0.00786389
194	0xba2ceec7	-0.000659686
195	0xbda7005d	-0.08154366
196	0x3d06eb02	0.032938965
197	0xbd2001ce	-0.03906422
198	0x3e35fdf5	0.17772658
199	0xbd1fe2db	-0.039034706
200	0x3da36ce0	0.07979751
201	0x3c3db1bc	0.01157802
202	0xbcbfcd4b	-0.023413321
203	0x3d92c8cc	0.07167205
204	0xbd232a20	-0.039835095
205	0xbe218517	-0.15773426
206	0xbd2f7f9c	-0.042846307
207	0x3bf6741c	0.0075211655
208	0x3e324d73	0.17412357
209	0x3d8fc7a4	0.070205
210	0x3db5cf00	0.08877373
211	0x3daee43a	0.085396245
212	0x3d98aab5	0.07454435
213	0x3d894ece	0.06704484
214	0x3c03f18c	0.008053195
215	0xbdf47569	-0.11936457
216	0xbe233507	-0.15938197
217	0xbdd38f08	-0.103300154
218	0x3c786528	0.015160836
219	0xbcfd701c	-0.030937247
220	0xbd6f7317	-0.058459368
221	0xbcd41333	-0.025888061
222	0x3d4193b9	0.04726002
223	0x3da8e96b	0.08247646
224	0xbe069101	-0.13141252
225	0x3c960c26	0.01831634
226	0x3dc90dd2	0.09817089
227	0xbda486e5	-0.080335416
228	0x3ce1547c	0.027506106
229	0xbe0992ab	-0.13434856
230	0x3e5adba2	0.21372846
231	0x3e5b17af	0.21395753
232	0x3d8f67a5	0.070021905
233	0xbe84c611	-0.25932363
234	0x3b9c27c3	0.004765482
235	0x3cacf25b	0.021111658
236	0x3c814927	0.015781952
237	0x3e3357a7	0.17513905
238	0x3d054d4e	0.032544427
239	0xbd8bdb82	-0.06828977
240	0x3e42a8d2	0.19009712
241	0xbd380f30	-0.04493636
242	0x3d91e40f	0.07123577
243	0xbd31b0d6	-0.043381535
244	0xbe18bfe5	-0.14916952
245	0x3cf6898e	0.030094888
246	0xbded8d26	-0.115991876
247	0x3e0c5f82	0.13708308
248	0x3e5c707b	0.21527283
249	0x3d05bf34	0.03265305
250	0x3d7f6f23	0.062361848
251	0x3d0a2052	0.03372223
252	0xbe3460c6	-0.17615041
253	0xbdd59f49	-0.10430772
254	0x3d384391	0.04498631
255	0xbe4cd9b8	-0.20004928

actor.4.bias f4 [128]
0	0xbea34021	-0.31884864
1	0xbee300ca	-0.4433654
2	0xbebb6d02	-0.36606604
3	0xbe69c009	-0.22827162
4	0xbd66d44b	-0.056354802
5	0xbe887d92	-0.26658303
6	0xbe635231	-0.22199322
7	0xbeb03e59	-0.34422567
8	0xbeaba1c4	-0.33521855
9	0xbe811d64	-0.25217736
10	0xbce9da6b	-0.028546533
11	0xbec056c2	-0.3756619
12	0xbee0db2a	-0.4391721
13	0xbeb13948	-0.34614015
14	0xbee1679f	-0.4402437
15	0xbe890c0c	-0.26767004
16	0xbe524820	-0.20535326
17	0xbf9b6ba2	-1.2142222
18	0xbf436a5c	-0.76334167
19	0xbeeeacf6	-0.46616334
20	0xbed60d0e	-0.41806835
21	0xbeed737f	-0.4637718
22	0xbe13c4a9	-0.14430489
23	0xbf2674f6	-0.6502222
24	0xbe872437	-0.26394817
25	0xbe70d61f	-0.2351918
26	0xbe5fa1db	-0.21839087
27	0xbf1eade1	-0.6198407
28	0xbf099f3b	-0.5375859
29	0xbd13138d	-0.035907317
30	0xbea8bfd5	-0.32958856
31	0xbf0c4aa1	-0.54801375
32	0xbeb73642	-0.35783583
33	0xbf1ad1c1	-0.6047631
34	0xbe767aaf	-0.24070238
35	0xbeb1c225	-0.34718433
36	0xbedb8837	-0.4287736
37	0xbeadee60	-0.33970928
38	0xbef17c97	-0.47165367
39	0xbe8dc830	-0.27691793
40	0xbecc2544	-0.3987218
41	0xbec46b0d	-0.38362923
42	0xbeb939d9	-0.36176947
43	0xbf4e2708	-0.80528307
44	0xbf92c2ea	-1.1465733
45	0xbebb6168	-0.36597753
46	0xbe1d267b	-0.1534671
47	0xbdf3fd54	-0.11913553
48	0xbe0ce829	-0.13760437
49	0xbf01981c	-0.50622725
50	0xbeb2747d	-0.34854499
51	0xbe42bebe	-0.19018075
52	0xbeb4cdbe	-0.3531322
53	0xbe9cc8ea	-0.30622035
54	0xbeaacfc0	-0.33361626
55	0xbe9151e1	-0.2838278
56	0xbe0e8da3	-0.13921218
57	0xbec07c07	-0.37594625
58	0xbf1e84e0	-0.619215
59	0xbf22a71d	-0.63536245
60	0xbf24cff7	-0.6437983
61	0xbf3298ac	-0.6976421
62	0xbea9d1fc	-0.33168018
63	0xbeae7058	-0.34070086
64	0xbeb3b671	-0.3510013
65	0xbe9ba1f8	-0.3039701
66	0xbe8980b9	-0.2685602
67	0xbe29a05c	-0.16565078
68	0xbe2e2867	-0.170076
69	0xbeb0eda1	-0.34556296
70	0xbed3c9d2	-0.41364914
71	0xbe938148	-0.2880957
72	0xbe13e574	-0.14442998
73	0xbf09e10b	-0.53859013
74	0xbe4d85a8	-0.20070517
75	0xbea6ae72	-0.32554966
76	0xbeffab0a	-0.4993518
77	0xbebaf7f0	-0.36517286
78	0xbebc51f5	-0.36781278
79	0xbe6ddcfb	-0.23228829
80	0xbea69caa	-0.325414
81	0xbe198edf	-0.14995907
82	0xbe24fef5	-0.16112883
83	0xbe9c2417	-0.30496284
84	0xbe57d894	-0.21078712
85	0xbe6220f6	-0.22082886
86	0xbf02665a	-0.50937426
87	0xbe89c3cd	-0.26907197
88	0xbfa36380	-1.276474
89	0xbee867b3	-0.45391616
90	0xbee93e36	-0.45555276
91	0xbe52fc26	-0.20604
92	0xbec1ce48	-0.37852693
93	0xbe962863	-0.29327688
94	0xbed05dc7	-0.40696546
95	0xbe19eda1	-0.15032054
96	0xbd551fe6	-0.052032374
97	0xbeb190af	-0.34680697
98	0xbecbe7ac	-0.3982519
99	0xbe00bc0d	-0.12571736
100	0xbebdf150	-0.3709817
101	0xbebcda6b	-0.3688539
102	0xbe197fac	-0.14990109
103	0xbf1797fd	-0.5921629
104	0xbec64ae8	-0.38729024
105	0xbf9118b2	-1.1335661
106	0xbe94602c	-0.28979623
107	0xbf0df441	-0.55450827
108	0xbeba33d6	-0.36367673
109	0xbf293eb1	-0.66111284
110	0xbef27c39	-0.473604
111	0xbe0b4afc	-0.13602823
112	0xbea1f900	-0.31635284
113	0xbea90674	-0.33012736
114	0xbf1737d1	-0.59069544
115	0xbdca559f	-0.09879612
116	0xbed5ddcf	-0.4177079
117	0xbe8b93b4	-0.27261126
118	0xbe761e4a	-0.24034992
119	0xbed813db	-0.4220265
120	0xbe5fda74	-0.21860677
121	0xbdfeb2f9	-0.1243648
122	0xbee20227	-0.44142267
123	0xbe6a0bf9	-0.2285613
124	0xbde47b4c	-0.111563295
125	0xbeb052ae	-0.3443808
126	0xbe93b92e	-0.28852218
127	0xbe9646f4	-0.29351008

actor.6.weight f4 [12, 128]
0	0xbd8644f0	-0.065561175
1	0x3c7e2b5f	0.01551327
2	0x3a5eb07a	0.0008494925
3	0xbcd17c40	-0.025571942
4	0x3ae0dc3c	0.0017155479
5	0xbbc4e45a	-0.006008667
6	0x3ba157c0	0.0049237907
7	0xbc9710dc	-0.018440656
8	0x3baffe13	0.005370864
9	0xbb05c396	-0.0020410768
10	0xbce8959d	-0.028391654
11	0xbb9b8c6f	-0.0047469656
12	0x3d050a17	0.032480326
13	0x3bef2311	0.0072978814
14	0xbcb9ce01	-0.022681238
15	0x3a7ba8c2	0.0009600037
16	0x3c8c0a1c	0.017094664
17	0x3d04f268	0.03245774
18	0x3c666297	0.014061592
19	0x3bad77eb	0.0052938364
20	0x3c99e808	0.018787399
21	0x3c329cc9	0.010901638
22	0xbbaeeaa2	-0.005338029
23	0xbcfbb9a5	-0.03072817
24	0xbadcc630	-0.0016843732
25	0xbc8e8ea0	-0.017401993
26	0x3a06f5b5	0.00051483075
27	0x3be5da83	0.007014574
28	0x3cd6284f	0.026142268
29	0xbcd241b8	-0.025666103
30	0x3d032e68	0.03202668
31	0xbcbbcc22	-0.022924487
32	0xbc149b47	-0.009070224
33	0xbc49aeda	-0.012309754
34	0xbb3b8801	-0.0028615
35	0xbb830801	-0.003998757
36	0x3bdeb37f	0.0067963
37	0x3cabf9a7	0.020993067
38	0xbb383898	-0.0028109904
39	0xbc8712b5	-0.016488412
40	0x3c09734f	0.008389308
41	0xbc8096e5	-0.015696952
42	0xb9f337d9	-0.00046390182
43	0x3d0da4d2	0.034581013
44	0x3d37b8e1	0.04485405
45	0x3a1ed30d	0.00060586707
46	0x3c9cafb8	0.019126758
47	0xbc83efde	-0.016105589
48	0xbbc67f51	-0.0060576578
49	0x3cdf66d0	0.027270705
50	0x3ccf9de1	0.025343837
51	0x3d68a8f0	0.056801736
52	0x3ac16df4	0.00147575
53	0x3c46e408	0.012139328
54	0x3c3b79d0	0.011442617
55	0x3c479257	0.012180886
56	0x3c979c68	0.018507197
57	0xbd0cdc4b	-0.034389775
58	0x3cc5c5c5	0.024142155
59	0x3c3f77fb	0.01168632
60	0x3cc77929	0.024349766
61	0x3b1018b8	0.002198739
62	0x3a9ee291	0.0012121965
63	0xbbfd3a80	-0.007727921
64	0x3caa45e2	0.020785276
65	0x3cd2a63a	0.025714029
66	0x3d029dec	0.031888887
67	0xbdadb973	-0.08482637
68	0x3d7a5bdc	0.06112276
69	0xbb726750	-0.0036987849
70	0x3c942ad8	0.018086836
71	0x3baf7bd7	0.005355339
72	0x3c52fe19	0.012877964
73	0x3d46104a	0.04835538
74	0xbd626dcc	-0.05528049
75	0xbc064262	-0.008194538
76	0xbb2550ee	-0.002522524
77	0xbd6ec35d	-0.05829178
78	0x3c91faa8	0.017819718
79	0xbc2047e3	-0.009782764
80	0x3c164e07	0.009173877
81	0xbd0e89cf	-0.034799393
82	0xbb26df63	-0.0025462739
83	0x3bb91733	0.0056485175
84	0xbba0fddc	-0.004913075
85	0x3c350ed6	0.0110509
86	0xbb7d9ead	-0.0038699314
87	0x3c7bde69	0.015372851
88	0x3cfb252a	0.03065737
89	0xbaa9d858	-0.0012958152
90	0xbc4b0e02	-0.012393476
91	0xbcf1d5c5	-0.029520879
92	0xb999d84c	-0.00029343588
93	0x3ce4fdb8	0.027953014
94	0x3bd8f203	0.006620647
95	0x3c65f2bb	0.014034922
96	0x3d812d8e	0.06307517
97	0xbc29ad51	-0.010356263
98	0x3bb0c62b	0.005394717
99	0xbbbb8e02	-0.0057237158
100	0x3c52840d	0.012848866
101	0xbc99400b	-0.018707296
102	0xbc8da7d5	-0.017291943
103	0x3cf6cec8	0.030127898
104	0xbbbfb89b	-0.005850864
105	0x3d4a54ee	0.0493974
106	0xbbe3f9fa	-0.0069572898
107	0x3cdc1625	0.026866028
108	0xbc5daddc	-0.013530221
109	0xbc3fdcbe	-0.011710344
110	0x39ccb59b	0.0003904522
111	0xbc2d5138	-0.010578446
112	0xbd25542b	-0.040363472
113	0xbcb1f103	-0.021721369
114	0x3c7b5b4b	0.01534159
115	0x3d84cd3e	0.06484459
116	0x3c0dec25	0.008662258
117	0xbbc95bdf	-0.006144985
118	0x3a8b8f38	0.0010647541
119	0x3d11c76b	0.03559057
120	0xbc2d8f96	-0.010593316
121	0x3c84a19c	0.016190343
122	0xb8a059df	-7.646134e-05
123	0x3c436808	0.011926658
124	0x3c8564aa	0.016283352
125	0x3cf327e9	0.029682117
126	0xbb2c94ec	-0.0026333882
127	0x3ccba865	0.02486057
128	0xbcabbc2f	-0.020963756
129	0xbd467842	-0.04845453
130	0xba14df94	-0.00056790677
131	0x3d50618c	0.050874278
132	0xbc98b8ae	-0.01864275
133	0x3ca48ea8	0.020087555
134	0x3cba1801	0.022716524
135	0x3c765fe7	0.015037513
136	0xbb80a6dc	-0.003926141
137	0x3bf2708c	0.0073986705
138	0x3d9fce1d	0.07802985
139	0xbc8d87a2	-0.017276589
140	0xbc7a47a7	-0.015275872
141	0x3ca11ab9	0.019666063
142	0xbbefb340	-0.0073150694
143	0x3d1367a3	0.035987508
144	0xbd597334	-0.053088382
145	0xbc9ac6ad	-0.018893564
146	0xbc4994cc	-0.012303542
147	0xbc745860	-0.014913648
148	0x3c5828f5	0.013193359
149	0x3bbbebcf	0.0057348977
150	0xbc04a3e2	-0.008095713
151	0x3ac9240b	0.0015345825
152	0xbc310197	-0.010803602
153	0xbc90de47	-0.017684115
154	0x3d06d531	0.03291816
155	0xbc427d97	-0.011870763
156	0xbb2f8d0a	-0.0026786947
157	0xbcecb288	-0.028893724
158	0x3b7fd612	0.0039037508
159	0xbaad7f3e	-0.0013236774
160	0xbcfd0c11	-0.030889543
161	0x3b894734	0.0041893963
162	0x3c18dbd4	0.009329755
163	0xbcc22f65	-0.02370424
164	0x3b358ac5	0.0027701121
165	0x3c513a82	0.012770297
166	0x39ec34d6	0.00045052794
167	0x3d0aa1e4	0.033845797
168	0xbc035865	-0.00801668
169	0xbcd52c2b	-0.026022037
170	0xbc7e3d3e	-0.015517531
171	0x3d470608	0.048589736
172	0xbd93af56	-0.07211177
173	0xbc0f8d23	-0.008761677
174	0x3c8e46e5	0.01736779
175	0xbd92f482	-0.071755424
176	0x3c0e379e	0.008680252
177	0x3c7ed54e	0.0155537855
178	0xbc997b0e	-0.018735435
179	0xbb560b7a	-0.003266065
180	0x3d05ff08	0.03271392
181	0xbc5e5f7d	-0.013572571
182	0xbc89bef6	-0.01681469
183	0x3b367477	0.0027840415
184	0x3cc55999	0.024090575
185	0x3c44ff6c	0.012023788
186	0x3c2ab832	0.010419892
187	0xbc7d0246	-0.015442437
188	0xbd104437	-0.035221305
189	0xbc9c74a8	-0.019098595
190	0x3cb685fd	0.022280687
191	0xbd02ae77	-0.031904664
192	0xbd7850cc	-0.06062393
193	0x3ba49e0a	0.0050237225
194	0xbbf7c6fb	-0.007561562
195	0x3c08ad17	0.008342049
196	0xbd157871	-0.036491815
197	0xbb99248c	-0.004673546
198	0xbd412285	-0.04715206
199	0x3c233e77	0.009963623
200	0x3c962a40	0.018330693
201	0xbce80bfc	-0.028326027
202	0x3caec764	0.021335311
203	0xbc270d69	-0.010196068
204	0xbb4947f8	-0.0030713063
205	0x3c848dbb	0.016180864
206	0x3b30550d	0.0026906163
207	0xbbaf8a1b	-0.0053570396
208	0xbc7d4734	-0.015458871
209	0x3d0aead0	0.03391534
210	0x3d131aec	0.035914347
211	0x3cbac40d	0.022798562
212	0xbbfc2c1f	-0.0076956893
213	0x3cf98ef7	0.030463679
214	0xbbc6f248	-0.0060713626
215	0x3c07c3c8	0.008286424
216	0xbc3029da	-0.010752166
217	0x3d0a90a0	0.03382933
218	0xbcf25889	-0.029583232
219	0x3d420fb6	0.047378264
220	0xbbe910ba	-0.0071125897
221	0xbc509977	-0.012731901
222	0x3ca009a4	0.019535847
223	0xba67a70f	-0.00088368444
224	0x3d0dcf67	0.034621622
225	0xbca741a6	-0.020417046
226	0x3a448748	0.0007496965
227	0xbcd1b87b	-0.025600662
228	0xba3e6516	-0.0007262988
229	0xbcd7c411	-0.026338609
230	0xbca50890	-0.020145684
231	0xbd185b85	-0.037196655
232	0x3c4e51c7	0.012592739
233	0xbd4fbd41	-0.050717596
234	0xbc0d3f8b	-0.008621107
235	0xbd0154bf	-0.03157496
236	0xbb84c0ea	-0.0040513175
237	0xbce15985	-0.027508507
238	0xbce2207b	-0.027603379
239	0x3ad003cb	0.0015870271
240	0xbc2c2fba	-0.010509426
241	0x3b4c864d	0.003120798
242	0x39025e8e	0.0001243299
243	0xbc0aebb1	-0.008479045
244	0xbb96939b	-0.0045952327
245	0x3c867e8c	0.016417764
246	0x3b30d8f4	0.0026984783
247	0xbd865f66	-0.065611646
248	0x3ca4d02a	0.020118792
249	0xbc2f7d99	-0.010711097
250	0x3b8eae17	0.004354249
251	0x39ce3a60	0.00039334875
252	0x3d3618d7	0.044457283
253	0xbd3c5e2d	-0.04598825
254	0x3c05a25d	0.008156386
255	0x3d1e638e	0.03866916

actor.6.bias f4 [12]
0	0xbe8a779b	-0.27044377
1	0x3e767ece	0.2407181
2	0x3e3875ce	0.18013689
3	0xbdf01af4	-0.11723891
4	0x3ea42bbc	0.32064617
5	0xbe445f45	-0.19176967
6	0x3e03d534	0.128743
7	0xbe8c9691	-0.27458623
8	0xbdb21e2b	-0.0869716
9	0xbd14559d	-0.03621446
10	0x3ea181c7	0.31544325
11	0xbdf1517a	-0.117831185
