src/ga_quadruped/policy/param_debug.onnx (onnx, 772885 bytes, 8 tensors)

actor.0.weight f4 [512, 52]
000000 4e 19 d0 bc b6 1f 95 be f5 86 15 3f 56 ed 0a be
       -0.025402691 -0.29125756 0.58409053 -0.13567099
000010 e0 35 26 be d9 88 f4 3c b4 22 60 3e 79 48 b5 bd
       -0.16231489 0.02985041 0.21888238 -0.08851714
000020 76 bf ac bd 22 df 7b 3e 23 db 2e 3e 81 a6 9e bd
       -0.08434956 0.24596837 0.17075782 -0.07746602
000030 c1 80 1f 3e 15 04 b4 3d 69 cd 96 3d 76 d6 d8 bd
       0.1557646 0.08789841 0.07363398 -0.1058778
000040 69 6f 4f bd 11 30 72 be a3 e5 b3 bd 7d ea 64 3e
       -0.05064336 -0.23651148 -0.08784034 0.22355075
000050 f1 07 3a bd 6d b1 ac 3e d9 23 e4 3d ba b5 a8 3e
       -0.04541773 0.33729115 0.1113965 0.32951146
000060 ee 4c 43 be 2b 6a b3 be e3 d7 9f 3d 8b f9 52 3e
       -0.19072315 -0.35041937 0.07804849 0.20603006
000070 14 7e 29 3e 0d 60 5d 3c 3b 49 88 3e 0e aa 99 bd
       0.16552001 0.01351167 0.2661837 -0.075031385
000080 64 84 29 be be 70 04 3e 35 fe 99 be dd 0c 07 3c
       -0.1655441 0.12933633 -0.30076757 0.008242813
000090 21 ad 81 3e 0c e3 2d bd 82 a2 a2 3d 7c d8 c8 3c
       0.253274 -0.042452857 0.07941152 0.02451729
0000a0 5c 59 ff 3d 7d 0c da 3b 58 2a d7 bd ac 1d 2d bd
       0.12468216 0.0066543208 -0.10506123 -0.042264625
0000b0 05 11 83 3d bc bb af 3d 96 c8 8c 3c 8c 3d 5d bd
       0.063997306 0.08580729 0.01718549 -0.054013774
0000c0 d4 52 0b be 65 57 fc bd 19 b2 a5 3c d1 e6 ed bd
       -0.13605815 -0.12321357 0.020226525 -0.1161629
0000d0 5e 12 e8 3e 87 86 41 3e 5a 53 92 be ea b3 79 3e
       0.45326513 0.18898974 -0.28579217 0.24385038
0000e0 98 d2 f7 be 54 fa 0c bd 34 b9 72 bc 7d f8 3b 3e
       -0.48402858 -0.03441842 -0.014814664 0.1835651
0000f0 2b ab 65 be bb 73 f4 3c 0b 1e e2 bd 4d c5 df bd
       -0.22428577 0.02984034 -0.110408865 -0.10926304
000100 3c 63 a8 bc 7a 3e 51 3d 1a aa f6 bc 9b 48 77 3c
       -0.020555131 0.051084973 -0.030110408 0.015092994
000110 a5 2a a2 bd a9 55 7e 3e ff d9 70 be c3 9b a4 bc
       -0.0791829 0.24837364 -0.23520659 -0.020093804
000120 66 db a0 bc bf 4c be 3c 21 ad a4 3e c1 22 43 bd
       -0.019635867 0.023229955 0.32163337 -0.047640566
000130 33 e0 a7 3e ba dd 90 bd 23 ec 03 3e 27 ad 53 bc
       0.32788238 -0.07073541 0.12883048 -0.012919701
000140 bb fc 32 bc d8 18 bf 3d 95 6c 0d 3c 33 dd 23 be
       -0.010924513 0.093309104 0.008631845 -0.1600235
000150 dd 49 db bd 32 87 0d 3e a3 92 d0 bd 7b 5d 42 bd
       -0.10707448 0.13821104 -0.10184219 -0.04745243
000160 3a be d5 3c e6 4b 80 3d 37 15 41 be 84 ed f6 bd
       0.026091684 0.062644765 -0.18855749 -0.12057021
000170 09 b0 f7 3d 29 b6 30 3e d2 df 25 bd 4e 65 5b 3d
       0.12094123 0.17256989 -0.040496655 0.05356341
000180 78 e1 6d bc 00 8d 22 3d 96 d0 67 3c ec 1a 6a bd
       -0.014519088 0.03968525 0.014148852 -0.05715458
000190 ce 37 ce 3d 21 f8 0c be 4b 5c 22 be 3b 15 cf bd
       0.10069238 -0.13766529 -0.1585552 -0.10111471
0001a0 01 45 4e 3e e8 88 2f be 7e 4b 8e 3e 29 25 24 3e
       0.2014351 -0.1714207 0.2779197 0.160298
0001b0 07 35 c1 bd 7b 2f 32 bd ed 50 2f bd 60 ab e4 bd
       -0.09433942 -0.043502312 -0.042801786 -0.111655
0001c0 58 75 95 bd ef c3 4f be c4 21 b0 bc f4 03 58 3d
       -0.07297772 -0.20289586 -0.021500476 0.052738145
0001d0 50 15 7a 3d b3 54 bf bd 2f 6f f6 bd 7d 22 ad 3c
       0.06105548 -0.09342327 -0.12032925 0.02113461
0001e0 12 a8 b0 bd 68 be 17 3e 6b d9 21 be 20 c8 95 bc
       -0.08625807 0.14818728 -0.15805595 -0.018283904
0001f0 d3 67 e0 bd 56 b9 d8 bd 72 c3 86 3d ee bd 00 3e
       -0.10957303 -0.10582225 0.06580247 0.12572452
000200 3b 2f 4e 3e de 18 68 bd 65 2a 43 3e fe f5 23 bb
       0.20135204 -0.05666434 0.19059141 -0.002501845
000210 6d bf 51 3b 04 a5 99 bd ef cf 07 be 77 c4 ee bb
       0.0032004968 -0.07502177 -0.13262914 -0.007286604
000220 c0 c9 4e bd 0b c7 1f 3e 09 9b 63 3e a4 61 5b 3e
       -0.050485373 0.15603273 0.2222711 0.21423966
000230 3d b5 0b bd 75 c6 5e bd c8 bf ab 3d 33 26 8e bd
       -0.03410839 -0.054388482 0.08386189 -0.0694088
000240 57 0c 8b 3d b7 6d ed 3c 67 ae 6d 3d c9 13 4b 3d
       0.06789463 0.02898298 0.05802765 0.049579415
000250 58 db 3c 3d dd 38 be bb 10 be 92 bd 97 13 f7 bc
       0.04610762 -0.0058051185 -0.07165158 -0.030160708
000260 0f 0a 99 bd d9 77 92 bd c5 6f 61 bd 1b 7d 0a 3e
       -0.07472622 -0.071517654 -0.055038232 0.13524286
000270 78 a4 a6 bd 47 0a a2 be ea 6a 14 be b1 cf cf bd
       -0.08136839 -0.31648466 -0.1449391 -0.10147036
000280 3f 60 60 3d 1e 87 cc bc 67 0f 55 bd 90 c2 2d 3e
       0.054779287 -0.024966773 -0.052016642 0.16968751
000290 ad ec b3 3d c8 58 77 bd 32 9e 37 bd a5 a9 6c 3d
       0.08785377 -0.060387403 -0.0448286 0.057778973
0002a0 c2 20 f3 bd 34 66 d2 bd 4e 3f a1 bc 7d 8e 9e bd
       -0.118714824 -0.102734 -0.019683506 -0.07742021
0002b0 92 69 7c be 0b a0 20 be d6 e7 ea 3e 56 ca 3d 3d
       -0.24649647 -0.15686052 0.45880002 0.04633554
0002c0 18 1e 84 3d 2f 9d f7 3e 09 3e f4 bd 6f 67 7f bd
       0.064510524 0.4836211 -0.11925895 -0.0623545
0002d0 eb 23 d9 3d e5 06 9e 3e b0 3b a4 3e 1d 43 2c be
       0.10602554 0.30864635 0.32076788 -0.16822477
0002e0 28 00 37 bd 5f b1 03 bd 2c a8 ce bd 02 df 80 be
       -0.044677883 -0.032151576 -0.1009067 -0.2517014
0002f0 19 7c 6e bd 78 c9 8f bc e2 e2 83 bd 41 40 eb bc
       -0.058223817 -0.017552122 -0.06439759 -0.028717162
000300 a6 ff 21 bd e8 8b 94 3e 29 9c e9 bc 49 a9 e9 ba
       -0.039550446 0.2901299 -0.028516846 -0.001782694
000310 29 ed 25 bc b2 e1 34 3b c8 b6 c8 3d 4e 20 45 bd
       -0.010127344 0.0027600345 0.09800488 -0.04812651
000320 15 1b 89 bb 66 49 0f bd cf 49 85 3d 67 b7 24 bd
       -0.0041841366 -0.034982108 0.065082185 -0.04021397
000330 d9 dc a7 bc 4c a5 98 3c 2e 97 e6 3c 12 cb d6 bd
       -0.02049105 0.018633507 0.02814826 -0.10487951
000340 b3 2f cd 3a 39 63 ec be 64 09 9c 3d 04 c6 be be
       0.0015654474 -0.4616945 0.076189786 -0.3726045
000350 2d 92 29 3e 1c 69 89 bd 90 48 d0 3d 61 f4 3c 3e
       0.16559668 -0.06709501 0.1017009 0.18452598
000360 e2 9d b9 3d 2a f4 49 be ff 72 83 be 5a ae be bc
       0.09063317 -0.19722047 -0.25673673 -0.023276497
000370 2a 0e 4b bd ca 76 a4 bc a1 85 aa bd 16 13 cc 3c
       -0.049574055 -0.020076174 -0.08326269 0.024911445
000380 ec eb 76 be b8 02 1f be 9f 68 8d bd ec c7 e8 bc
       -0.24113435 -0.15528381 -0.069047205 -0.028415643
000390 e7 55 74 be 79 3a d5 3e 53 b0 6f bd 22 84 f5 3b
       -0.23860894 0.41646174 -0.058517765 0.007492558
0003a0 40 c5 03 3e 88 6f 39 3c a8 81 7d be 31 25 f0 bc
       0.12868214 0.011318095 -0.24756491 -0.02931461
0003b0 13 60 59 3d 56 54 27 be 60 44 01 3e 72 f0 10 be
       0.05307014 -0.16340765 0.12623739 -0.14154223
0003c0 a6 19 5b 3e 6e 24 01 be c1 7b c5 bd b4 90 0a 3d
       0.21396503 -0.12611553 -0.09642745 0.033829406
0003d0 a2 c9 fd 3d f6 b9 83 be ed 79 31 be 40 d9 c2 3d
       0.12391974 -0.25727814 -0.17331667 0.095140934
0003e0 75 41 70 bd 95 db 00 be 09 09 b7 3c 76 6c d0 3d
       -0.058656175 -0.12583764 0.022343175 0.10176937
0003f0 f6 58 da 3d 95 c8 dd bc 66 ea 10 3b 0c 62 72 3d
       0.10661499 -0.027073184 0.0022112369 0.059175536

actor.0.bias f4 [512]
000000 41 3c df bc ef f2 2b 3d cb 57 f2 3a a8 29 a4 bd
       -0.027250411 0.041979726 0.0018489299 -0.08015758
000010 a7 38 93 bd e7 ed e5 bc a6 54 a8 3d 6f 8c bf 3d
       -0.0718854 -0.028067542 0.082192704 0.093529575
000020 ed 16 36 3e 92 05 9e 3d 96 f7 32 be e6 e5 e3 3d
       0.17782183 0.07715906 -0.17477259 0.11127834
000030 4e d9 86 bd d7 39 25 3e 76 c3 0f bd dd f1 99 bd
       -0.06584416 0.16135345 -0.035098515 -0.07516835
000040 f1 6a 80 bd 6c c5 82 3d 29 fe cc 3d e6 af 3a bd
       -0.062703975 0.063853115 0.10009415 -0.045577906
000050 7d 70 04 be 6d fd 3e 3d 62 a2 e8 bd 0d 73 cb bd
       -0.12933536 0.046628404 -0.11359097 -0.099340536
000060 b0 b0 95 bd ca 29 d3 bd 0a 14 d2 3d a5 4e f2 bb
       -0.07309091 -0.10310705 0.102577284 -0.007394629
000070 98 6e 08 3d a9 02 93 3d 76 b3 0e 3e 37 73 b4 3c
       0.033308595 0.07178242 0.13935646 0.022027595
000080 c9 66 fe bd 9a 14 14 3b fb 70 d5 bd 1b 75 9c bd
       -0.124219485 0.0022595287 -0.1042194 -0.076395236
000090 2b 25 2a 3e a5 eb 8f bd 16 1d cf 3d 6f 2a 82 3d
       0.16615741 -0.070273675 0.101129696 0.0635575
0000a0 a4 9f 40 bd 7e a0 c0 3c 20 61 fe bc 0f 51 8c bd
       -0.047027245 0.023514029 -0.031052172 -0.06851398
0000b0 be e5 93 3d 0f 4a e8 3c d8 b1 99 3d de 23 fa bd
       0.07221554 0.028355626 0.07504624 -0.122138724
0000c0 ed 09 dd 3d 0c 7c 85 3c d3 8f 97 3c ad 3a 3b bd
       0.10792909 0.016294502 0.018501198 -0.045710254
0000d0 d0 26 cc bc 40 ad ad bd 71 f7 cc bd de 2f 0d 3d
       -0.024920851 -0.084803104 -0.10008133 0.034469478
0000e0 54 84 7f bc 92 97 15 be af 6d a0 3d a8 44 9b 3d
       -0.015595514 -0.146086 0.078334205 0.075814545
0000f0 a3 7f f3 3d cb 73 05 be 6d 6d 5c 3c 9b 3c ae 3d
       0.11889579 -0.13032453 0.0134538235 0.08507653
000100 36 8f 3a 3d c2 d3 1b be 3f 03 84 3d 34 52 07 3e
       0.045546733 -0.15217498 0.06445932 0.13214952
000110 16 8f c8 3d 03 47 4d 3d e6 65 ff bd c5 2f f2 bc
       0.097929165 0.05011655 -0.124706075 -0.029563794
000120 b3 55 f4 3c ee 91 0c bd d3 b6 8d bd 15 1f b9 bd
       0.02982602 -0.034318857 -0.069196366 -0.090391316
000130 b0 da aa bd b1 cb c9 3b b5 41 25 3a 20 2f 4a 3d
       -0.083424926 0.006158315 0.00063040416 0.04936135
000140 b0 14 36 bc 49 3f 2d be e8 43 80 3d 33 6e d9 bc
       -0.011113331 -0.16918673 0.06262952 -0.026541805
000150 17 74 e2 3c a7 62 6d 3c 88 24 95 3d 05 a9 57 3d
       0.027643247 0.014488853 0.072823584 0.052651424
000160 22 73 b6 bd 20 a4 c6 bc e5 81 ac 3d 9a 33 43 3d
       -0.089086786 -0.024248183 0.08423213 0.047656633
000170 75 55 d4 bc 56 70 96 3d f3 14 31 3d cd 9b 96 3d
       -0.025919655 0.07345645 0.04323287 0.073539354
000180 16 a5 9d 3d 11 6a 5e 3c 89 55 e8 bd 54 aa c7 3d
       0.07697503 0.013575093 -0.113444395 0.097492844
000190 0f 0c db 3c 0a 8b 22 bd fa 0b ca bd cc d8 fc bb
       0.026739148 -0.03968338 -0.098655656 -0.007716274
0001a0 5c ea 10 be 6c 9b 11 3c 3b b5 1c be 08 42 0c 3d
       -0.14151901 0.008887153 -0.15303509 0.03424266
0001b0 34 f4 b4 bd 1e c4 37 bd e3 0e 41 3d 9a c7 16 3e
       -0.088356405 -0.044864766 0.047133338 0.1472458
0001c0 dd 52 0a bd d4 19 4c 3d fb d1 cd 3c f0 64 8e 3d
       -0.03377043 0.04982932 0.02512454 0.06952846
0001d0 6f 53 dd bd c5 b8 53 bd 8b ba 53 3d 8e b0 5a 3d
       -0.10806929 -0.05168988 0.051691573 0.053391032
0001e0 52 0c 83 3c 6d 61 9e bc 93 c2 e5 bd 3d 86 c0 3d
       0.015997086 -0.019333566 -0.11218753 0.09400604
0001f0 7d b3 14 be 42 0b 48 bd dc 55 fa bc af 88 17 bd
       -0.14521594 -0.04883886 -0.030558519 -0.036995586
000200 81 d6 8f 3d 0d 70 92 3c 91 3d bf bd b7 a9 93 bc
       0.07023335 0.017875696 -0.09337915 -0.018025262
000210 d8 cc e0 3d 23 62 33 3d ba 7e 6e 3d 12 86 e8 3d
       0.10976571 0.043794762 0.058226325 0.11353697
000220 01 42 b8 bc a3 18 f2 bd be 22 fb bc 01 5f c5 bd
       -0.02249241 -0.11821105 -0.030656215 -0.09637261
000230 85 c9 b8 3d 8c 62 f7 3d fc cf f2 bd 94 06 15 3b
       0.09022812 0.12079343 -0.11856076 0.0022739517
000240 b3 90 8d bd 2d d2 4c bd 1d 50 c5 bd 3f 12 1f 3d
       -0.06912365 -0.050005127 -0.09634421 0.03883576
000250 04 c2 9c 3d d8 f8 49 bd b1 60 a2 3c 38 44 de 3b
       0.07654193 -0.04930958 0.019821497 0.0067830347
000260 9f 78 eb bd 2f a1 bc bc 13 c9 c9 3d ec 29 17 3e
       -0.11497616 -0.023026077 0.09852805 0.14762086
000270 c5 3d 88 3d 21 16 f4 3c 1d 68 4c bd 3d a6 1a be
       0.066524066 0.029795708 -0.049903978 -0.15102477
000280 b2 18 60 3d fc 8b 9c bc 0c 27 88 bd af 6d d9 bd
       0.05471105 -0.019109719 -0.066480726 -0.106166236
000290 d2 38 13 3e 21 99 15 3d a6 ba 1a bc 65 f7 13 bd
       0.14377144 0.03652299 -0.0094439145 -0.036124606
0002a0 7a 60 ab 3c 51 fb c4 bd ac 04 30 3d 38 ec 33 bc
       0.020920027 -0.09618247 0.042973205 -0.010981612
0002b0 78 89 05 3d 78 30 e9 3c 58 b2 63 bb 79 e7 ee 3c
       0.032601804 0.028465495 -0.0034743752 0.02916311
0002c0 53 91 d7 bd 12 7d eb bc 90 8f bf 3c 6b 01 06 3e
       -0.10525765 -0.028746162 0.023383886 0.13086478
0002d0 42 e5 f1 bd f6 ed e3 3d 0f 0c e3 bb 0a f4 01 be
       -0.118113056 0.11129372 -0.0069289277 -0.1269075
0002e0 e3 34 64 3d f1 78 57 bd a2 6a 2c be dc 12 ed bc
       0.0557145 -0.052605573 -0.16837552 -0.028939657
0002f0 9f 17 e3 bd 35 a6 28 3d e9 55 ce bc 5f 2c 3d be
       -0.1108849 0.041174132 -0.02518745 -0.18473957
000300 31 fc d4 3d 14 9d 5a bd 25 d4 e1 3d e3 fc ae 3d
       0.10399664 -0.053372458 0.110267915 0.08544328
000310 ca 28 c3 3d e0 cc c1 3d ca b0 f5 3d ca 0d ca bb
       0.09529264 0.09462905 0.119966105 -0.0061661946
000320 c9 69 3a bd 45 c6 c5 bd ac 2e bc bd 49 cf 99 3b
       -0.04551104 -0.096569575 -0.091885895 0.0046939
000330 a3 81 95 3d 7b 7b cc 3c 1c 78 84 3d b8 27 9e bb
       0.07300117 0.024961224 0.064682215 -0.004826512
000340 33 6a 50 3c aa 68 a4 bd 42 d8 79 bd c4 7e 3b bd
       0.012720632 -0.080277756 -0.060997255 -0.04577519
000350 4b 42 47 3b af a1 f9 bc 25 7f 0a be dc b9 8e bd
       0.0030404504 -0.030472605 -0.13525064 -0.069690436
000360 ea 0b 63 bd 19 42 33 3d 62 b9 66 bc 98 b6 75 ba
       -0.055431284 0.043764208 -0.014082285 -0.0009373217
000370 ca 24 d1 3c d3 4a de 3d b5 cd 72 bd 59 6f 3d 3c
       0.025530238 0.10854115 -0.05927821 0.011562192
000380 7b 13 ec 3d ab 56 8e bb fb d7 de bd aa 3a 1e be
       0.11527153 -0.0043438277 -0.10881039 -0.15452066
000390 9b a2 78 bd ae f3 0e be 75 af 13 3d 12 3e 27 3e
       -0.060701948 -0.13960144 0.036056 0.16332272
0003a0 bb 75 05 3e 93 e9 b8 bd a5 ec 09 3d ac f5 5d 3d
       0.13033192 -0.09028926 0.033672947 0.05418937
0003b0 f4 57 6e bb c1 4e f6 3d 25 eb b7 bc 44 88 01 bd
       -0.0036368342 0.1202674 -0.022450993 -0.031624094
0003c0 80 44 55 3d d5 27 0d bd b2 ce c3 3d dd 11 c4 bd
       0.05206728 -0.034461815 0.095609084 -0.0957372
0003d0 f5 f3 b0 3c b4 46 b0 3b d7 2d 59 3d 01 36 02 bc
       0.021600703 0.005379522 0.053022232 -0.007947446
0003e0 21 a9 ef 3d 21 31 0e bc ed 23 ce bc 32 4f cd bc
       0.11702181 -0.008678705 -0.025163615 -0.025062177
0003f0 62 61 2c 3e 39 b5 27 bd 4b ce ff 3c cb 88 62 bd
       0.16834024 -0.04094431 0.031226298 -0.055306237

actor.2.weight f4 [256, 512]
000000 f5 d3 95 3c 56 4e ac 3c 6c 51 8c 3d 33 c6 ae ba
       0.018289546 0.021033447 0.068514675 -0.0013334214
000010 31 3e 9e 3c a7 3d 28 bd 8c bf 5b bd a4 25 3f 3d
       0.019316765 -0.04107442 -0.05364947 0.046666756
000020 6c 68 b4 bc 1c 2f 22 bd f5 45 85 3d d9 2a 6c bd
       -0.022022448 -0.03959571 0.06507484 -0.05765805
000030 b9 c0 c5 bc 5e 04 29 3d 6e 5e 7e bd f4 e6 11 ba
       -0.024139749 0.04126393 -0.062101774 -0.0005565726
000040 0e a6 7a bd 8e 76 82 bc 66 4e a0 3c 3e c8 17 bd
       -0.06119352 -0.015925672 0.019568633 -0.0370562
000050 d9 8b 46 bd 6b 5d 64 bd 36 83 e0 3d b6 c0 9b bb
       -0.048473213 -0.055753153 0.109625265 -0.0047531975
000060 79 c1 0b bd e5 ad c1 bb cf 06 96 bc 92 d2 e2 bd
       -0.034120057 -0.0059106224 -0.018313793 -0.11075319
000070 ba 47 82 bc 8c c4 bc 3d 86 ed e7 39 65 53 1a 3d
       -0.015903343 0.09217176 0.00044236722 0.037677187
000080 ed 98 e6 bd 1e 82 24 be 8a ea c6 3d 25 70 aa bb
       -0.11259637 -0.16065261 0.097127035 -0.005201357
000090 8a f6 8c 3d c4 0d c0 bc 90 2b ea ba 6d e1 76 3d
       0.06882961 -0.023444064 -0.0017865766 0.060273577
0000a0 c2 91 22 3d 2e 89 50 bc 33 ab 7d bd 51 38 1c bd
       0.039689787 -0.012728019 -0.061930846 -0.038139645
0000b0 5f b5 97 3c 48 2d 05 3d 69 d9 89 bd 48 cc 42 3c
       0.018519102 0.032513887 -0.06730921 0.011889525
0000c0 b5 29 18 bd 12 1e 5e 3d b0 38 bc bc 08 fa ac bc
       -0.03714915 0.054227896 -0.02297625 -0.021115318
0000d0 9e 3f 65 bd 23 4a 23 bd 1a 2e 5c bc 8f 9b 86 3c
       -0.055968873 -0.039865624 -0.013438726 0.016431598
0000e0 b9 59 68 3c 27 80 a8 bd 71 bf fd bd dc 77 87 3c
       0.014181548 -0.08227568 -0.1239003 0.016536646
0000f0 d7 ba 2c 3d 98 9b c8 bc ec 46 f7 3c 72 d1 dd 3c
       0.04217037 -0.024488255 0.030185185 0.02707741
000100 99 08 2e bc 01 66 e7 bc 4c 9a 77 bb 8c 43 b8 bd
       -0.010622167 -0.028246881 -0.0037781177 -0.089972585
000110 93 34 74 bc eb a4 ce 3c 13 55 0b 3c f4 b7 8d bc
       -0.014905113 0.025225123 0.00850417 -0.01729963
000120 28 e8 9d 3d 93 a6 69 3d 8e 44 d5 3c 44 f4 2d 3d
       0.07710296 0.057043623 0.026033666 0.042469278
000130 5c 07 46 bd b7 f0 59 3d 3e 7e 9e bd ac 83 37 bd
       -0.048346862 0.05320808 -0.077389225 -0.044803306
000140 7b 0e 63 bd a1 45 c1 bc f5 22 fb 3c aa 38 82 3c
       -0.05543373 -0.023592772 0.030656317 0.01589616
000150 3e a0 33 3d b4 00 8a bd 32 48 bb bd 9a 8d 18 bd
       0.04385399 -0.06738415 -0.091446295 -0.037244417
000160 a1 5c 22 bd cd cc d5 bd 3c 6a 32 3c 8a 8b 91 bc
       -0.03963912 -0.10439453 0.010889586 -0.017766733
000170 3b 8c 4c bd 0c a8 ae 3a 5e 85 b5 3c 10 48 a2 bd
       -0.04993842 0.0013325228 0.022158321 -0.07923901
000180 61 53 55 3c 28 22 ac bd 25 20 65 ba d8 2f 03 bd
       0.013020367 -0.08404952 -0.00087404466 -0.03202805
000190 bb c0 df bc 7a 2c 1e 3d 0c 5e a2 bd ac 77 43 3d
       -0.02731358 0.038616635 -0.07928094 0.04772155
0001a0 05 7b 18 bd d4 ca 8f 3d e2 db c8 bc cb 3b ee 3c
       -0.037226696 0.07021108 -0.02451891 0.029081246
0001b0 4c 08 24 bd cb 8c 84 3c 72 d8 ee 3c e8 e2 15 3e
       -0.040046975 0.016180417 0.029155944 0.14637339
0001c0 74 1f 6b 3c ef 07 29 bd 48 b5 04 3e 35 33 c6 bd
       0.014350761 -0.04126733 0.12959778 -0.09677736
0001d0 7f b3 62 bd 60 fd 92 bb 6f 54 a1 bd 6d 24 90 3d
       -0.055346962 -0.004485771 -0.078774326 0.07038198
0001e0 7c 9d d6 bd 63 a0 e3 bd 94 a8 7a 3c 61 86 92 bd
       -0.104792565 -0.11114576 0.015298981 -0.07154537
0001f0 93 bd 88 bd c0 cb 66 3d 6f 0b a7 3b 81 6d 65 3c
       -0.066767834 0.056346655 0.0050977985 0.014003159
000200 a4 de df bc 5c e6 1b 3c 12 da a1 bc b6 0a 84 3b
       -0.027327843 0.009515371 -0.019757304 0.004029597
000210 b9 f4 d8 3c 53 5c 21 3d d9 98 17 3d ae 59 e5 3c
       0.02648388 0.039394688 0.037011 0.027996864
000220 ec d7 6a bd ea 0a e9 bc b7 39 32 3d e5 36 9e 3d
       -0.057334825 -0.028447587 0.043512072 0.07725314
000230 71 72 3a bd ff 79 e1 bc 77 2d c8 bc 41 e8 60 3d
       -0.045519296 -0.027523993 -0.024435742 0.054908995
000240 6f a5 94 3d 31 4d 3f bd f2 5b 25 3d 31 2f b0 bc
       0.072581165 -0.046704475 0.04037089 -0.021506878
000250 bd 2e 1a 3d 66 83 7e 3d 05 9b 48 bd 7d e9 8c 3d
       0.03764223 0.06213703 -0.048975963 0.06880472
000260 1d 73 68 bd 23 54 be bd 76 eb b1 3c 12 6c 5b bd
       -0.056750406 -0.092933916 0.021718722 -0.05356986
000270 fd 73 00 bd 3b cc 64 3a 71 49 44 3d ca 8f b8 bc
       -0.031360615 0.00087279425 0.0479216 -0.022529501
000280 a7 f0 74 3d 0d a8 86 bd 2c a4 54 3d 80 f8 ab bc
       0.059799816 -0.06575022 0.05191438 -0.020992517
000290 b5 d0 78 3d f0 4f 87 3d 1e 8a 08 3c 99 d3 d8 3d
       0.060745914 0.06607044 0.008333711 0.10587234
0002a0 a9 8c 67 3d 4e a2 a2 bd a8 71 c0 bc 97 4f 20 bd
       0.05653063 -0.079411134 -0.023491696 -0.039138403
0002b0 35 13 4c 3d 77 fc 2f 3d a1 92 88 3d 73 ab 89 bc
       0.049823005 0.04296538 0.06668592 -0.016805386
0002c0 45 09 41 3e 49 de 7a 3c f3 6b cf bc ea 0a 93 39
       0.18851192 0.015311786 -0.025320029 0.00028046157
0002d0 c9 c3 3c bc 83 7e 99 3d c8 6d 81 bc 16 45 de 3a
       -0.011521288 0.07494833 -0.015799418 0.0016957845
0002e0 6c b0 46 bc a0 d0 0e bd 85 d1 05 3c 09 1f 30 bc
       -0.012127023 -0.03486693 0.008167629 -0.010749587
0002f0 1f 13 41 bc f5 8e 64 bd a7 80 86 3d 64 18 e7 3c
       -0.011784344 -0.055800397 0.06567507 0.028209873
000300 34 f4 2a 3d 8e 92 90 bc 75 2e ac bc 3a 9f a1 3d
       0.041736796 -0.017648008 -0.021018246 0.07891698
000310 12 80 59 bd 60 ea 92 3d 70 25 95 bc 1c 54 33 bd
       -0.053100653 0.0717361 -0.018206328 -0.043781385
000320 91 9d 15 3d 1e 05 26 3d d5 4d ba bd 97 86 8d bc
       0.03652722 0.040532224 -0.090968765 -0.017276092
000330 ab 3e e6 bc 2f b1 cf 3d 60 7d 45 3c aa db 5d bc
       -0.028106054 0.10141217 0.0120538175 -0.0135411415
000340 73 bd 0c 3d a1 8f bc bd f7 2e 06 bc 01 14 1b 3a
       0.03436036 -0.092070825 -0.008189908 0.00059157616
000350 bd 4a b8 bd 60 3f ea bc ba c3 eb 3c a0 3e 34 3d
       -0.0899863 -0.028594673 0.028779853 0.044005036
000360 7c cf 8d 3d 3c 8c d6 3d 92 83 d1 bc de 62 dc 3b
       0.0692434 0.10475966 -0.025575433 0.006725653
000370 54 1b 2a 3d 23 18 33 bd f4 6e 30 3b 8c 84 19 3d
       0.04152997 -0.04372419 0.0026921602 0.037479922
000380 2d b0 04 bd 76 16 06 bd ac 5e 04 bd 71 a2 f5 3d
       -0.032394577 -0.032736264 -0.03231685 0.11993874
000390 0f 09 89 bd c9 4e 21 ba d3 0c c2 3b 08 bf c5 3d
       -0.06691181 -0.00061534025 0.005921939 0.09655577
0003a0 b2 6d 02 bd 2e bb 21 3d 60 73 88 3d 0c e7 89 3c
       -0.031842895 0.03948515 0.06662631 0.016833805
0003b0 ce 96 81 bc 17 66 62 3c 41 63 00 3e 5e e2 5d bd
       -0.01581898 0.013818285 0.12537862 -0.05417096
0003c0 bc d6 3c 3d 93 36 54 bd 6b 73 de 3c 44 8b 5a 3d
       0.046103224 -0.05180986 0.027154645 0.05335547
0003d0 46 c0 a0 bd fb e9 ae bc 24 2c 8a 3c 8c 64 9b ba
       -0.07849173 -0.021351805 0.016866751 -0.0011855527
0003e0 43 6a 10 3d a0 c0 6f 3d 5e d0 20 bd f3 57 87 3d
       0.03525759 0.05853331 -0.039261214 0.06608572
0003f0 84 1f 54 3c 65 c3 97 3b 54 ed 2b bd bc ea c9 3c
       0.012946967 0.004631447 -0.04197438 0.024648063

actor.2.bias f4 [256]
000000 77 8e 25 bd 41 3b 09 bd 93 a8 86 bd 6a cd da bc
       -0.04041907 -0.033503775 -0.06575122 -0.026709277
000010 b8 23 df bb c4 a8 e6 3b 1a 3a ca bd f7 f6 07 bd
       -0.006809678 0.0070391614 -0.09874363 -0.03319451
000020 49 73 a9 bd cf 7f 0e be bb 1e 8a bd a0 8c fb b8
       -0.08273942 -0.13915943 -0.067441426 -0.00011994806
000030 ae f0 c9 bd ee 03 69 bd 0a 47 ba bd 23 bf 22 bd
       -0.09860359 -0.056888513 -0.09095581 -0.039733063
000040 93 28 12 bc b5 04 e6 3c 7c d6 f6 bc 0b 73 b5 bd
       -0.008920806 0.028078416 -0.030131571 -0.08859833
000050 eb 7e 1d bd d5 f1 85 bd 20 3b b2 bd 5f df fd bd
       -0.038451117 -0.065402664 -0.087026834 -0.1239612
000060 b0 54 d8 bd b9 21 85 3c 0a f5 d5 bd e1 7b af bc
       -0.10563028 0.016251432 -0.10447128 -0.021421375
000070 9f 72 47 bc a7 86 a5 bd 5f 74 ab bd 5f a7 63 bd
       -0.012173324 -0.080823235 -0.083718054 -0.05557954
000080 5b fb a4 3c a5 b9 64 bd 3b ea e9 bd 46 86 46 bd
       0.020139387 -0.055841107 -0.11421629 -0.048467897
000090 d2 b8 05 bd 2f 24 4f bd c2 53 33 3c 84 3a 4a bc
       -0.03264696 -0.050571617 0.010945262 -0.012343053
0000a0 ee cb 19 bd ce e1 a3 bd ad 3d e4 bd 95 33 46 bd
       -0.037547998 -0.08002053 -0.11144576 -0.048389036
0000b0 b8 b9 df bb 25 07 37 bd 63 ab aa bd 86 4b 9c bd
       -0.0068275593 -0.044684548 -0.08333471 -0.076315925
0000c0 8e 5c a2 3c 35 40 e9 bc 2f 60 17 be cd cc 72 bd
       0.019819524 -0.028473 -0.14782785 -0.059277344
0000d0 b1 fe 84 bc f0 56 03 bc 37 2e 90 bd 90 8f 8d bd
       -0.016234728 -0.008016333 -0.07040065 -0.06912148
0000e0 32 a3 24 3d 74 2d 0a bd 60 38 82 bc 19 5f d9 bd
       0.040194698 -0.033734754 -0.015896022 -0.106138416
0000f0 9a 4c 87 bd 66 0c a5 bd c0 55 ff bd 80 36 04 bd
       -0.066064075 -0.080590054 -0.124675274 -0.032278538
000100 10 a3 af 3c c7 1f 00 be 91 c9 5f bd bb 8e 5a 3d
       0.021440059 -0.12512122 -0.054635588 0.053358775
000110 dc b9 89 bd 3d 2a b2 bd 26 2a 02 3d 8a 53 ad bc
       -0.06724903 -0.086994626 0.031778477 -0.021157999
000120 3b 08 6c bc d4 2f e8 bd 36 03 b3 bc 95 b1 d9 3c
       -0.014406259 -0.113372475 -0.021852117 0.026573936
000130 48 9f 5f bd 9e 85 50 3d b8 8e ab bd b0 87 bd bc
       -0.05459526 0.050908677 -0.08376831 -0.02313599
000140 09 32 ba bd 33 e6 5f bd fe 9e 05 3d 3a 0e e1 bc
       -0.09091575 -0.054662894 0.03262233 -0.027472604
000150 f0 c3 44 bc 60 0d 76 bc 70 4c 83 bd 26 2e b1 bd
       -0.012009606 -0.015017837 -0.06411064 -0.0865138
000160 16 26 05 bd 4d b9 26 bb 4b 68 06 3d da a8 ba 3a
       -0.032507025 -0.0025440038 0.032814305 0.0014240996
000170 d4 e1 31 bd 3e 54 dc bc 9d 39 5e bd a1 56 9b bc
       -0.043428257 -0.026895639 -0.054254163 -0.018962206
000180 8d b7 66 3d d1 5d 94 bd 94 19 44 bd c6 c9 6c bd
       0.05632739 -0.072444566 -0.047875956 -0.057809614
000190 2d c5 b8 bc dc 82 5c bd 13 f4 8a bd 90 66 f7 3c
       -0.022554958 -0.053835735 -0.06784835 0.030200273
0001a0 87 2a 88 bd 2c d1 a1 bd 8f 72 c5 bd 48 d0 5f bd
       -0.066487364 -0.079012245 -0.09640991 -0.05464199
0001b0 8d db 3e bc fb 64 33 ba 4a 87 34 bd c0 1a 59 bd
       -0.011649025 -0.00068433554 -0.044074334 -0.053004026
0001c0 d1 94 93 bd f8 bb fa bd be 64 92 bd 3b b8 84 bd
       -0.07206119 -0.122428834 -0.07148121 -0.06480452
0001d0 2d d3 84 bd 0b a8 1a bd 2d dc 8f b8 c5 49 1e bc
       -0.06485591 -0.037757915 -6.859782e-05 -0.009661143
0001e0 c6 5c 94 bc 5c d6 82 bd 3d 35 c9 bd 06 c1 47 3d
       -0.018110644 -0.06388542 -0.098246075 0.048768066
0001f0 80 03 82 bd 68 9c 66 bd 11 79 1c be 03 4e 4d bd
       -0.06348324 -0.056301504 -0.15280558 -0.050123226
000200 57 7b fa 3c 85 98 1d bd 5c ba bc bd 94 ba 8a bc
       0.030576391 -0.038475532 -0.09215233 -0.01693467
000210 0f fa 85 bd 64 c7 89 bd 10 e7 11 be 51 bf db bc
       -0.065418355 -0.06727484 -0.142483 -0.026824625
000220 a5 4b a2 bd 77 5f 62 bc 8d d4 07 be a3 64 83 3b
       -0.07924584 -0.013816706 -0.13264675 0.0040097996
000230 4f 6b 3b bd c4 39 5e bd b4 09 54 bd 50 48 25 bd
       -0.045756634 -0.05425431 -0.051767066 -0.040352166
000240 6d c7 40 bc 80 47 d4 bc 40 13 5d 3c 54 69 ef 39
       -0.011766297 -0.025913 0.013493359 0.00045664108
000250 7b cc 96 bd ea 48 80 bd 23 8e ba bb 0b 17 bf ba
       -0.0736322 -0.06263907 -0.0056932135 -0.0014579011
000260 74 6f d2 bd 2e e9 91 bc c8 87 e6 bc ff 35 11 3d
       -0.10275164 -0.017811384 -0.028140917 0.035451885
000270 3f fb 25 bb df f9 50 bc 91 d2 c6 3b fe 43 a1 bd
       -0.0025326756 -0.012754886 0.006067582 -0.078742966
000280 80 d3 a1 bd 68 c4 0d bd 3e ba 7d bd d5 08 31 bd
       -0.079016685 -0.034611136 -0.061945193 -0.043221314
000290 1b 25 65 bc 3d fa c6 bd f4 bb e8 3c 9c 88 84 bd
       -0.013985897 -0.09715698 0.028409936 -0.06471369
0002a0 e2 5b 7f bd d0 e7 f0 bc 76 6d c9 bd 96 47 16 bd
       -0.062343486 -0.029407412 -0.09835331 -0.036689363
0002b0 ba a3 9f bd e6 50 04 bd 15 d4 3a bd 5b 02 18 3c
       -0.077949 -0.032303713 -0.045612413 0.009277905
0002c0 0b e3 b0 bc 8a b0 71 bd 76 93 21 bd 6e bc c2 bc
       -0.021592638 -0.05900625 -0.03944727 -0.02377149
0002d0 65 d0 70 bd 5c 0a bb bd 9f 98 30 bd 44 2c 37 bc
       -0.05879249 -0.09132835 -0.0431143 -0.011179987
0002e0 b1 8e 3e bd f6 22 8d bd f3 6f 30 be 4b 1e ef bc
       -0.0465228 -0.06891434 -0.17230205 -0.02918925
0002f0 e7 05 30 bd 97 df 7f bc 3c 2a 91 bd 3e 7c 19 bd
       -0.04297438 -0.015617273 -0.07088134 -0.037472002
000300 5d 3d 93 bd d2 3e 29 bd b1 8c 2e bc 35 05 b1 bd
       -0.071894385 -0.041319676 -0.010653661 -0.08643571
000310 b9 fd 7c 3b 5a 93 0a be ea 1a 27 bd 74 ec eb bb
       0.003860338 -0.13532773 -0.04079715 -0.0071998183
000320 02 63 30 3d 97 0f b9 3b 10 5f 95 bd 15 6e c5 bd
       0.04306317 0.0056476104 -0.07293522 -0.09640137
000330 27 f2 18 bc 5f 9b 9d bd b5 da 3b bd 6e 12 33 bd
       -0.009335077 -0.0769565 -0.045862872 -0.043718748
000340 57 a5 07 bd 79 05 c5 bc 57 6b 02 3d 3c a9 0e be
       -0.033116665 -0.024050461 0.03184065 -0.13931745
000350 09 ed f8 bd 52 dd c0 bb d1 1d 82 3c 71 67 70 bd
       -0.12154586 -0.0058857584 0.015883358 -0.0586924
000360 e7 62 d2 bc 07 26 b7 3c a0 c1 5c bd 21 04 9b 3c
       -0.025681926 0.022357 -0.053895593 0.018922867
000370 eb 75 93 bd 3e 9e 0b bd 2e 2f 48 3d e1 c9 90 bb
       -0.072002254 -0.03408646 0.04887312 -0.004418597
000380 ca 7c 9a bd 04 96 35 bd 49 19 a1 3c 0a fd 9f bc
       -0.07543333 -0.04433252 0.019665377 -0.019529838
000390 25 3e 5d bd 9a 47 cc bd 06 59 8d bd a6 7d 58 3b
       -0.054014344 -0.099745944 -0.069017455 0.0033033877
0003a0 87 f4 34 bd 42 53 10 3d 2b c9 04 bd ea 25 97 bc
       -0.044178512 0.03523565 -0.03241841 -0.018450696
0003b0 dd 59 ef bc 73 33 a6 bd 52 ef b2 bc 4f 7e a1 bd
       -0.029217655 -0.08115282 -0.021842632 -0.078854196
0003c0 06 1c e1 bd b0 38 74 bc 47 af 3a 3c f8 2b 78 bc
       -0.10991673 -0.0149060935 0.011394328 -0.015147202
0003d0 f6 9e a3 bd c0 78 d3 bd ce 0a 86 bd 04 43 87 bd
       -0.07989304 -0.103257656 -0.065450296 -0.06604579
0003e0 4e 75 2b bd 53 d8 79 bd 3f 5b 1b bd a2 51 9e bd
       -0.041859917 -0.06099732 -0.037928816 -0.07730414
0003f0 96 d1 22 3b e0 2e a4 3c 1b 40 6d bd 01 4d 0e bc
       0.0024844161 0.020041883 -0.057922464 -0.008685351

actor.4.weight f4 [128, 256]
000000 03 eb ee bb 9c aa 93 3d 9f 45 21 3e ab f7 b5 3d
       -0.007291199 0.072102755 0.15749215 0.088851295
000010 1d 5d d3 3c 3d 53 81 bc 7a b8 b4 bd 19 3f ae 3d
       0.025801236 -0.015786761 -0.088242486 0.08508129
000020 01 72 a2 3c 43 0d 47 bb 45 d1 15 bb 3e 01 11 3e
       0.019829752 -0.0030372895 -0.002286033 0.1416063
000030 32 12 c9 3c f1 c8 67 3d 80 4e 1d bd 8a 9d a4 3d
       0.024544809 0.056588117 -0.03840494 0.08037861
000040 6d 6c 68 bd 50 18 12 bd 23 ff 0c 3e 2f fa 2c bc
       -0.056744028 -0.035667717 0.13769202 -0.010557695
000050 83 c5 bb bd 34 d9 4a ba 1d 65 61 3d 31 54 bc 3d
       -0.09168532 -0.0007738054 0.05502807 0.09195746
000060 2b a2 d1 3c 33 6f be 3d 3c 51 88 3c a0 c2 25 be
       0.025590023 0.09298553 0.016640298 -0.16187525
000070 12 d5 34 be 0b 52 8e 3d c8 1e 1c 3e ef c9 cd 3d
       -0.17659405 0.06949242 0.15246117 0.100482814
000080 9a 9a 02 be 34 ec 60 bd 67 55 40 3d 59 96 29 3e
       -0.12754288 -0.05491276 0.046956446 0.1656126
000090 c1 31 2e bd e9 11 d9 3d 61 43 7d be 93 cc 65 be
       -0.042527918 0.10599119 -0.24732734 -0.2244132
0000a0 ef a9 84 3d b3 3a 34 bd 68 9c 19 3e 12 a3 89 3d
       0.06477725 -0.044001292 0.1500107 0.06720556
0000b0 b0 19 e5 3d 56 e3 95 3c d8 48 8e bd 52 ed 60 bb
       0.1118654 0.018296879 -0.069474876 -0.0034321141
0000c0 8c 3a a8 3c 9d 97 00 be 3d d0 f6 3d 6c 68 b1 3c
       0.02053573 -0.12557836 0.12051437 0.021656238
0000d0 be e2 3b bc a3 3c 5d bd 0d d4 c4 bc c4 72 89 3d
       -0.011467634 -0.054012906 -0.024026895 0.06711343
0000e0 bb e4 e2 3c af 49 70 3d 67 78 cd bc ca 1c dc 3d
       0.027696958 0.05866402 -0.025081826 0.107476786
0000f0 7c f0 11 3d 3b 5a 8b 3c fc 74 21 bc 51 b2 0f bd
       0.035629734 0.017010799 -0.009854551 -0.035082165
000100 c4 37 f1 bd 6c 17 69 bd 29 fa 69 3d 1b ed 27 bc
       -0.117782146 -0.056907102 0.057123337 -0.010249401
000110 6d 14 f5 3d f0 50 89 bd 65 a5 db bd 3d e0 ce 3d
       0.119667865 -0.06704891 -0.10724906 0.10101364
000120 e3 ab f6 bd a2 73 cb 3d 85 51 ac 3d 80 39 b1 bd
       -0.120445035 0.099341646 0.08413986 -0.086535454
000130 57 c2 c2 bd 6b f6 8a bd bb 7f 17 bd 33 2e 11 3d
       -0.09509724 -0.06785282 -0.036987048 0.03544445
000140 be 25 a5 3c 16 94 9f 3b 11 53 64 bc 03 82 67 3c
       0.020159598 0.004869948 -0.01393582 0.014130118
000150 3b 99 8b 3d 6e 2e 51 bd 47 7b 4f 3d 87 db c0 3d
       0.06816336 -0.05106967 0.050654676 0.094168715
000160 90 77 46 3c bd 02 4c 3d 2a 63 cd 3d 79 0a 88 bd
       0.012113467 0.0498073 0.1002868 -0.066426225
000170 3d fb 1d 3d 18 9f aa bd 6c 4d f7 3d e2 39 a4 bc
       0.038569678 -0.08331126 0.12075314 -0.020047132
000180 38 ea b8 bd 1a 95 aa 3d 10 3d 0f be 26 33 0d be
       -0.09029049 0.0832922 -0.13988137 -0.13789043
000190 8b c5 9a 3d 65 43 11 be 27 ea db 3d 1c 10 d6 bc
       0.075572096 -0.14185865 0.107380204 -0.026130728
0001a0 d2 b9 ab bd 18 d9 f8 bc ce 0b 34 bc 30 79 52 3e
       -0.08385052 -0.030376956 -0.010989143 0.20554042
0001b0 ee 8f 08 3e a0 c0 98 3c 2d 1e ee bc 3e 4b 27 3d
       0.13336155 0.018646538 -0.029067123 0.04084324
0001c0 0f 98 42 bd 56 ae 85 3d c8 98 ac bd 43 82 e2 3d
       -0.047508296 0.065273926 -0.08427578 0.11060002
0001d0 6e e4 55 3d b6 2f 81 bd aa a6 95 3b b3 02 3d be
       0.0522198 -0.06307928 0.004566987 -0.18458061
0001e0 0d 1d 01 3e fe 39 1a 3d b3 9a 26 3d 3d 3f bf 3d
       0.12608738 0.037652962 0.040674876 0.093382336
0001f0 25 26 36 3c 89 cd 98 bd 22 45 06 3e 51 ae 5c bb
       0.011117493 -0.07461078 0.1311231 -0.0033673237
000200 35 b2 0d 3d a8 42 05 3d db fc 93 3d 4f 24 35 bc
       0.03459378 0.03253427 0.07225963 -0.01105602
000210 af 06 a2 bc e7 00 e5 ba 4a d9 20 3c 7d e6 b7 bc
       -0.019778578 -0.0017471582 0.009817431 -0.022448773
000220 23 68 7a bd b4 c4 74 bd d1 3b fe 3d e4 78 05 3b
       -0.06113447 -0.059757903 0.12413753 0.0020366246
000230 88 12 ac 3d 37 16 e1 3c e4 8a 20 3d f4 73 1a 3b
       0.08401972 0.027476413 0.039194956 0.0023567649
000240 0f 4e 36 bd 78 e7 b5 bc 7f 27 1b bc 85 c1 90 bd
       -0.044508036 -0.0222051 -0.009469866 -0.07068161
000250 c4 f5 b7 3d b9 b4 25 bd 69 a4 c8 bd 69 25 83 bc
       0.08982423 -0.040455554 -0.09796984 -0.01600905
000260 d9 53 9f 3d c0 a3 0c 3e 0f 6a 65 3d ce 7c fc bd
       0.077796645 0.1373434 0.05600935 -0.12328492
000270 fe a0 c1 3c 11 2a a6 3c 22 d8 09 3d cd 0c 94 3d
       0.023636337 0.02028373 0.033653386 0.07229004
000280 e6 09 e2 bd 2e 62 b3 3d e5 86 dc bb 53 1d ce 3d
       -0.11037044 0.08758961 -0.006729948 0.10064187
000290 dc ae 55 bd c7 14 03 3e cc 8b 3e 3d eb 50 d2 bd
       -0.052168712 0.12800895 0.04652004 -0.1026934
0002a0 5b f0 5a bd 47 68 b5 3d 8c ff 7f 3d cf d8 b2 bd
       -0.053451877 0.0885778 0.062499568 -0.08732759
0002b0 02 79 0c 3e e0 4b 85 bd a1 49 de bd 1c fd 3a 3d
       0.13718036 -0.06508613 -0.10853887 0.04565154
0002c0 b1 ca 0d 3c c8 a9 03 be cf fe cf bc 4e 8e aa bd
       0.008654282 -0.12857735 -0.025390057 -0.08327924
0002d0 02 82 20 3e dd c9 0d 3d 67 ee 1d bd 67 73 e6 bd
       0.15674594 0.03461634 -0.038557436 -0.1125248
0002e0 02 7f ff bd f4 52 ed bd 50 80 12 3d 0c 94 b9 bd
       -0.12475397 -0.11588088 0.0357669 -0.09061441
0002f0 31 86 ff 3d eb 36 03 be 1d f1 95 3d 87 18 11 3e
       0.12476767 -0.12813918 0.07321379 0.14169513
000300 aa 77 2f bd 47 2e 00 bd c3 ea db bb 3c f5 e5 3c
       -0.04283873 -0.031294134 -0.0067113354 0.028071038
000310 6d 28 09 3e fe 1f 07 3e 84 22 45 be 35 01 8b 3d
       0.13394327 0.13195798 -0.19251448 0.067873396
000320 d1 14 83 bd 21 49 5e bc a0 f1 1c 3d 97 f5 a2 3c
       -0.06400455 -0.01356724 0.03831637 0.019892497
000330 9e f9 e4 bc 9b 77 d2 bc 5c f3 2d be 97 46 54 bd
       -0.027951058 -0.025691798 -0.16987365 -0.051825132
000340 5f fe 4f bd 14 ff 72 bd 9f 10 de bd 56 5b 8d 3c
       -0.050779697 -0.059325293 -0.10843014 0.017255466
000350 bf 10 81 3d 8f 61 85 3d 85 53 df bd 14 d7 05 bd
       0.06302022 0.065127485 -0.10904602 -0.032675818
000360 9c ea c3 3d d1 a2 d4 bd ec 35 cd 3d 28 79 8d 3d
       0.095662326 -0.10382617 0.100200504 0.06907874
000370 a8 21 d8 3d df 94 0f 3d 5c b3 d2 bd 33 15 4b bd
       0.105532944 0.035054084 -0.10288116 -0.049580764
000380 a0 ef 60 3d 7f 61 23 bd 4a 05 09 be cb a5 b8 3c
       0.054916024 -0.0398879 -0.13380924 0.022539994
000390 bb f7 79 3e f2 80 d6 3d 7f 0d e0 bd c8 36 e7 bb
       0.24410908 0.10473813 -0.10940074 -0.007056091
0003a0 4e 34 3c bc 6a f4 81 bb 6c bf 56 bd 39 6d 0a 3e
       -0.01148708 -0.003965904 -0.052428648 0.13518228
0003b0 e7 41 ea 3b 32 e5 52 3c e5 2d 8a 3d 27 27 40 3a
       0.0071489695 0.012872027 0.06747035 0.0007330053
0003c0 f5 e5 1d 3e a6 35 eb bc 71 1b 13 bc 32 af 39 3d
       0.15419753 -0.028712105 -0.0089787105 0.045333095
0003d0 aa 27 96 bd 93 00 cf 3d 54 07 0f be 57 0e b1 3c
       -0.07331784 0.101075314 -0.13967639 0.021613283
0003e0 44 6c d0 3d b5 fe a9 3d db a5 c0 bd 86 45 88 bd
       0.101769 0.08300535 -0.094066344 -0.066538855
0003f0 c5 62 18 bd 74 4c e5 3c 11 99 f0 bc 7a 22 da bc
       -0.03720357 0.027990557 -0.029369863 -0.026627768

actor.4.bias f4 [128]
000000 a9 2c 18 3c e7 bf 86 bc 66 f5 2c bd c2 5c cd bd
       0.009287992 -0.016448928 -0.042226218 -0.10027458
000010 60 67 30 3d 99 65 01 be 83 b1 93 bb c7 7c d3 bb
       0.043067336 -0.12636413 -0.004507245 -0.0064540836
000020 e1 56 0a be 42 de 75 bd 88 0b 25 bd 93 49 60 bd
       -0.13509704 -0.060026415 -0.0402942 -0.054757666
000030 f7 b2 b6 3c f3 14 be bd 1e 31 07 bd 52 15 b4 bd
       0.022302134 -0.092813395 -0.033005826 -0.08793129
000040 42 79 93 bd 68 56 48 bd a1 ea 41 be fe 25 a6 bd
       -0.072008625 -0.04891053 -0.1893716 -0.08112715
000050 f6 97 d7 bd ad 7c 42 be 93 d3 5b bc bf a2 86 bc
       -0.10527031 -0.18992873 -0.013417142 -0.016435025
000060 ad ef 4a 3c db 38 2a bd b2 f9 5f bd dc d5 8a be
       0.012386245 -0.041558128 -0.054681487 -0.27116287
000070 63 63 1f bd de 34 aa bb 57 66 c5 bd 9f 52 15 be
       -0.038913142 -0.0051942905 -0.096386604 -0.14582299
000080 0f 36 d3 bd 37 fd 27 3d e4 b3 66 bd 77 7c a6 bd
       -0.10313045 0.04101297 -0.0563239 -0.081292085
000090 ab a2 af bd 03 f7 b4 bd f0 23 74 bd 7e 9b 54 bd
       -0.08575948 -0.08836176 -0.059604585 -0.0519061
0000a0 2f f9 29 bc b8 a0 78 bd b7 0a 51 bd 53 13 02 bd
       -0.010374351 -0.06070015 -0.05103561 -0.03175671
0000b0 3e fb 08 bd 26 b2 56 3b 6f 9b ee bd 96 84 c5 ba
       -0.03344273 0.0032759993 -0.1165074 -0.0015069421
0000c0 11 1b 82 3d 37 d4 17 be b7 27 bd bd 00 9a a5 bd
       0.06352819 -0.14827047 -0.09236091 -0.08086014
0000d0 b5 89 6c 3d 74 6f 1e bd ea ad ca 3b 73 51 b0 bd
       0.057748515 -0.03868051 0.006185283 -0.08609285
0000e0 36 cf 2b b9 bf 61 71 3c e7 c7 40 3d cf 6f a1 bd
       -0.00016385023 0.014732777 0.04706564 -0.07882654
0000f0 f1 d1 18 bc b8 94 2f bd dc 25 a5 bd 5d 71 47 bd
       -0.009327398 -0.04286644 -0.08063862 -0.048692096
000100 86 ae 99 bd 10 80 05 bd 4a 7d fc bc 44 69 f3 bc
       -0.07503991 -0.032592833 -0.030821461 -0.02971328
000110 0f 69 83 bc 74 31 81 be 13 d8 9b 3c cb ea 14 3d
       -0.016041307 -0.25233042 0.01902393 0.03635673
000120 2d ea 95 3d 52 e6 87 3b 96 ba cc bd cf ba 6d 3c
       0.07320056 0.0041473294 -0.09996526 0.014509871
000130 af 46 e2 ba 99 4c 15 bd 77 46 78 bd cc 11 3d 3d
       -0.0017263497 -0.036450002 -0.060614076 0.04615955
000140 54 d0 31 38 9a 69 8e 3b 6e 73 ca bd 62 61 33 3d
       4.239411e-05 0.004346085 -0.09885298 0.043794043
000150 b9 6b 0e bd f2 aa 80 3b 98 60 ee bd a0 21 b0 3d
       -0.0347707 0.0039266283 -0.116395175 0.086001635
000160 e0 ab 4a be c8 72 66 bd 94 a7 47 bc 8e ef ad bd
       -0.19792128 -0.056261808 -0.01218595 -0.08492957
000170 39 1f 84 bd 9b a5 3d 3d e1 d6 b8 bd 41 23 bf bc
       -0.06451268 0.04630051 -0.0902536 -0.02333224
000180 4b 3c e8 bc 6e b4 2f bd 54 50 64 be 82 46 0d bd
       -0.028349062 -0.04289668 -0.22296268 -0.03449107
000190 44 93 a2 bd dd 1b f4 3b 68 3b 7b bb 21 04 9a bc
       -0.07938245 0.0074496106 -0.003833497 -0.018800797
0001a0 6a 01 b2 bd 3a 47 8b bd 27 8e 99 bd 38 3f 4e 39
       -0.08691676 -0.06800695 -0.074978165 0.00019669242
0001b0 b4 6d 46 bd 28 ed d8 bc 4b 2a 95 bd 78 46 20 3d
       -0.048444465 -0.026480272 -0.07283457 0.039129704
0001c0 87 13 b4 bd ba 14 16 bd 6b c0 22 bd 0b fd 2e 3c
       -0.08792787 -0.03664086 -0.039734285 0.010680447
0001d0 eb 29 02 3d 2d 00 a3 3c ef cd 9e bb b3 36 0c be
       0.031778257 0.019897545 -0.0048463265 -0.13692741
0001e0 71 09 77 bb 0a 6b 0e bd ea aa 37 bc cc 17 9b bd
       -0.0037694837 -0.03477005 -0.011210183 -0.07572898
0001f0 93 df f1 bb fe 74 e9 3b e7 b0 ae bd 23 b1 c3 bd
       -0.0073813885 0.0071245423 -0.08529835 -0.095552705

actor.6.weight f4 [12, 128]
000000 98 ec 9e bd 8c 38 dd 3c c1 ba 81 3c 64 77 ab bd
       -0.077599704 0.027004503 0.015836122 -0.08372381
000010 b0 fc ef bd 59 f2 c9 3d 8f b9 2b 3d ff 4b 82 3c
       -0.11718118 0.09860677 0.04192501 0.015905378
000020 ed 5c 00 3c f3 3d 07 bb 90 06 19 bd 1a 85 0b 3d
       0.007834655 -0.002063629 -0.037359774 0.034062482
000030 f9 22 bb bc 4f e2 bc bc eb 96 a4 bd f9 b0 b6 3c
       -0.022843825 -0.023057131 -0.08036598 0.022301184
000040 34 bf 66 3c 70 a9 36 3d 2d 40 61 bc 2a 3c 81 bd
       0.014083672 0.044595182 -0.013748211 -0.063103035
000050 dd 7c 56 3d b3 e4 ff bd c7 1e 3c bd 3b 41 77 bd
       0.052365173 -0.12494793 -0.04592779 -0.060364943
000060 d8 83 b2 bb 19 99 bc 3c bc 7c 64 3c 11 48 d8 3c
       -0.005447846 0.023022221 0.013945755 0.026401551
000070 e8 9d 16 3d 15 34 f7 bb e1 a0 c7 bb c1 73 af 3c
       0.036771685 -0.0075440505 -0.0060921763 0.0214175
000080 f2 82 10 3b 8c 88 45 3d 10 2d 0f 3d fe f5 bf 39
       0.0022050706 0.048225924 0.034955084 0.00036613637
000090 8a 67 51 3c 25 71 96 3d ae e3 15 bd c0 e7 4c bc
       0.012781033 0.07345799 -0.036594085 -0.012506425
0000a0 aa 20 51 bd 3c 71 4b bd 75 1d 43 bb d7 8d 1a bd
       -0.05105654 -0.049668536 -0.0029772196 -0.037732925
0000b0 da c7 94 3c 08 21 2e 3d b6 c2 f6 ba 02 b0 8a 3c
       0.018161703 0.04251197 -0.0018826339 0.01692963
0000c0 a0 d8 a3 3c 2b 6e 2c 3d bc 87 2c 3e af 1c a2 3c
       0.020000756 0.04209725 0.16848654 0.019789068
0000d0 9b f1 4e bc 14 ee a9 3a 74 c0 4b bd 42 cb 8d bc
       -0.012630845 0.001296463 -0.049744084 -0.017308835
0000e0 76 1a 4c bc 72 e3 dc 3b 0c 90 ce bc 0a d2 28 3d
       -0.012457481 0.006740981 -0.025215171 0.041215934
0000f0 b2 b8 50 bd e7 04 47 3c 7f 5c 86 3d b0 e1 80 bd
       -0.05095739 0.012147165 0.06560611 -0.062930465
000100 61 09 57 bc 1a 13 ae 3c 25 95 2b bd 19 4f 0a 3b
       -0.013124795 0.021249343 -0.041890282 0.0021104275
000110 1f d6 a4 bb c4 e6 b8 3c 33 fe a0 3b 54 74 a3 bb
       -0.005030408 0.022570975 0.0049131154 -0.0049882326
000120 73 2c 7a bd e9 28 ac bc 43 e4 7e 3a c0 d9 d2 bc
       -0.061077546 -0.021015601 0.00097233447 -0.025738597
000130 c0 90 27 3d 0a 9e 31 3d 0c df e7 3d 76 95 f6 bc
       0.04090953 0.04336361 0.1132184 -0.030100565
000140 d3 39 71 bd 2f 1f 2c 3d 83 a7 2c bd ca c2 0c 3d
       -0.058893036 0.042021926 -0.04215194 0.034365453
000150 4b 66 5d bd e2 37 3e 3d bc 5f 07 3d c5 c0 0c bd
       -0.054052632 0.046440013 0.033050284 -0.034363527
000160 7f f6 31 3c 41 ff 7b 3d 50 86 bb 3c a3 4e de bc
       0.010861992 0.061522726 0.022891194 -0.027137106
000170 e4 a0 75 bc 56 2a 8c 3c d0 5a 71 bd e0 52 ea 3b
       -0.014991973 0.017110031 -0.058924496 0.0071509928
000180 da ea 5d 3d 2d ec 34 3b c7 59 f3 3c ce ba 22 bd
       0.05417905 0.0027606592 0.029705895 -0.039728932
000190 9d 3e 9a bc 21 97 85 3d 0c 3f 58 bd 47 8f 5e 3d
       -0.018828684 0.06522966 -0.0527945 0.05433586
0001a0 64 7a 10 3d 1d 36 e6 3c ec 44 20 bc 8a d5 25 bc
       0.03527297 0.028101975 -0.009782057 -0.010121712
0001b0 8a de 35 bd ff 5d 97 bc 11 98 41 3d 77 32 2e 3c
       -0.044401683 -0.018477438 0.047264162 0.010632149
0001c0 5e 76 0a be e1 fa ca bb 22 7e ff bc 35 ba 76 3d
       -0.13521716 -0.006194458 -0.031188074 0.060236175
0001d0 5e 95 7a 3d b1 1c 72 3b 89 77 30 3d 1c 0a 80 bb
       0.061177604 0.003694337 0.043082748 -0.003907455
0001e0 16 79 74 bb c8 44 a6 bd 89 c0 09 bc 2e 44 9d bd
       -0.0037303618 -0.08118588 -0.00840772 -0.0767902
0001f0 f0 65 53 3b 6c 29 94 3d 27 de 11 3d ef 8f 94 bd
       0.0032256804 0.07234463 0.03561225 -0.07254016
000200 16 af 30 3d 40 99 27 bd cb 7a ae bc 0c 18 44 bc
       0.043135725 -0.040917635 -0.021298787 -0.011968624
000210 3f 64 04 3b 0d 3c 32 bb c1 0f 3e 3d 31 9f 8c 3c
       0.0020201353 -0.0027196438 0.046401743 0.017165752
000220 a0 cf c9 3c 92 4f b2 3c 8e e6 93 bb 53 e6 c1 3b
       0.024635136 0.021766458 -0.0045135682 0.0059173494
000230 ef fe 10 bd a6 f0 25 bd 7c 7f c9 3c 8e 12 94 bd
       -0.035399374 -0.040512703 0.024596922 -0.072301015
000240 84 6a bd 3c 3e 1c b7 3d f8 17 9a bb c2 33 8d 3c
       0.02312208 0.08940934 -0.0047025643 0.017236594
000250 5c 34 a0 3c 03 fe a1 3c f9 63 49 3d c0 28 b7 bc
       0.019556217 0.019774443 0.049167607 -0.022358298
000260 24 20 2a 3d 73 7f d9 bc 79 ad de 3c e0 e1 4b bd
       0.041534558 -0.02655003 0.027182328 -0.049775958
000270 43 45 34 bd 46 bd 43 bd 6e 3d 98 bd 09 b8 8d 3d
       -0.044011366 -0.047787927 -0.07433592 0.069198675
000280 3b 6f 86 3c e2 3a e3 3c 3d f6 16 3b d1 4c 34 3d
       0.01641046 0.027738038 0.0023034953 0.04401857
000290 c2 c0 0c 3b 0f 7b 82 3b c7 1a 8b 3c 49 7f b5 3c
       0.0021477197 0.003981955 0.016980542 0.02215542
0002a0 66 60 4d 3d 70 97 0c 3c 19 d5 9f 3d 80 53 fa 3c
       0.05014076 0.008581027 0.07804317 0.030557394
0002b0 91 f0 48 bc 5e 45 75 3c 17 e9 5f 3d 36 93 80 bc
       -0.012264387 0.014970152 0.05466565 -0.015695196
0002c0 3b eb 36 3c 01 c4 d7 3c 46 6c 8f bd 1c 30 6f bd
       0.011164482 0.02633858 -0.070030734 -0.05839549
0002d0 36 6a 3a bb a1 7c 8b 3c 13 f9 d2 bc c8 b6 4c bc
       -0.0028444654 0.017027201 -0.025753533 -0.01249475
0002e0 c7 74 3a bc 03 21 10 3b ff 99 82 3c b2 28 4e 3d
       -0.011380381 0.0021992333 0.015942572 0.05033178
0002f0 4d 7f c0 3d 46 b1 9a 3c d1 bb f6 3c ca 57 46 bd
       0.09399281 0.018883359 0.030118855 -0.048423566
000300 1c 40 a8 3d bb 5a a0 3c 7b d7 df 3c 74 7b 7f bd
       0.08215353 0.019574514 0.027324429 -0.062373593
000310 b9 5a 22 3d fa fa e1 3d b8 93 fa bc 8a ad 64 bd
       0.0396373 0.11034198 -0.030588016 -0.055829562
000320 f6 ff 59 bc 7e 1b b2 3c 89 38 8a bc 66 ac d6 bc
       -0.013305655 0.021741625 -0.016872661 -0.026205253
000330 ee ec b5 3b 80 d2 03 bd a7 3c 9f 3d 67 bf 64 3d
       0.005551926 -0.03218317 0.077752404 0.055846598
000340 a8 91 90 3c 52 37 e4 bd 74 8d ca 3c f6 d5 c5 bc
       0.01764758 -0.11143364 0.024725653 -0.024149876
000350 f3 e2 3d bc 16 34 32 bd 82 83 ef bc 0a 6a cf bd
       -0.011589753 -0.043506704 -0.029237512 -0.10127647
000360 94 63 f4 3d 62 03 bb 3c a1 07 42 bd a3 e7 d3 bc
       0.119330555 0.022828761 -0.047370557 -0.025867289
000370 47 0d 8a 3c 6b 17 19 3c 84 b5 8d 3c 82 6b f5 ba
       0.016852034 0.009343962 0.017298467 -0.0018724056
000380 a6 5d 8d 3d 33 9f e9 ba 73 35 bd 3c 98 44 48 bb
       0.06902628 -0.0017823934 0.023096776 -0.0030558463
000390 de 8f b2 3c a3 bd d3 bc 67 f7 0f 3d 41 02 63 39
       0.021797117 -0.025847262 0.03514805 0.00021649247
0003a0 3a 2e a4 3c a8 37 63 3a 71 8d f3 bc 70 51 bc bb
       0.020041574 0.0008667656 -0.02973053 -0.005747013
0003b0 40 69 83 3d bd f3 90 3c 52 eb 7a bd ab 32 e2 3c
       0.06416559 0.017694348 -0.061259575 0.027612051
0003c0 c2 93 bb 3d c0 e0 dd bd 4d c0 4c bb 24 b2 3f 3c
       0.09159042 -0.10833883 -0.003124255 0.011700187
0003d0 87 2c 06 3c 84 a4 be 37 a9 98 80 bd 4c 8d 9e bd
       0.008189327 2.2726374e-05 -0.062791176 -0.07741794
0003e0 f6 00 06 3d f2 c1 7d bd 3c ea 5c bc 90 04 81 3d
       0.03271576 -0.06195254 -0.01348358 0.06299698
0003f0 b6 82 a2 bc fe 0e 1c bd 9a 35 5b bd ae 6f 7c bd
       -0.019837718 -0.038100235 -0.053517915 -0.061629944

actor.6.bias f4 [12]
000000 62 d4 15 be 79 ed 1a bd 71 21 bb bd e5 4a c3 bd
       -0.14631799 -0.037824128 -0.09137238 -0.095357694
000010 cb ae 44 3e d9 d6 d4 bd f6 fb c8 3d 9a a8 06 be
       0.19207303 -0.103925414 0.09813683 -0.13150254
000020 08 cf 92 bb 70 67 1f be 88 fa 54 3e e8 cc d4 bd
       -0.0044802465 -0.15566802 0.20798695 -0.10390645
