src/ga_quadruped/policy/policy.onnx (onnx, 758549 bytes, 8 tensors)

actor.0.weight f4 [512, 45]
0	0xbe02b407	-0.12763987
1	0xbcf0e993	-0.029408252
2	0x3f06df44	0.52684426
3	0x3dd1cfa5	0.10244683
4	0xbe70cd12	-0.23515728
5	0x3e0a87cd	0.13528366
6	0xbddffba6	-0.1093667
7	0xbeaa7abd	-0.33296767
8	0xbe4651d4	-0.19367152
9	0xbd064091	-0.03277642
10	0x3eb6abe3	0.35678014
11	0x3efbf552	0.49210602
12	0xbdcf9fac	-0.10137877
13	0x3e972d8f	0.29526946
14	0xbc99be4e	-0.018767502
15	0x3e2ad8dc	0.16684288
16	0x3e854ac6	0.2603361
17	0x3ead0413	0.3379217
18	0xbdd2894b	-0.10280093
19	0x3e958797	0.2920501
20	0x3cae1b37	0.021253211
21	0xbe487325	-0.19575174
22	0x3d8e5fd8	0.069518745
23	0xbe204dd6	-0.15654692
24	0xbdbe7c03	-0.09300997
25	0x3bb46069	0.005504657
26	0x3eaccf22	0.3375178
27	0xbe9e2174	-0.30884898
28	0xbc61da06	-0.013784891
29	0x3e2b782d	0.16745062
30	0x3d181092	0.037125178
31	0xbd48f5d3	-0.04906256
32	0xbe4bf96b	-0.19919364
33	0x3ca6917a	0.02033304
34	0xbd37deaf	-0.044890102
35	0xbad773b0	-0.0016437676
36	0x3cf1bfa6	0.02951033
37	0xbd7c91c6	-0.061662458
38	0xbc361b98	-0.011114977
39	0x3ceb6b6b	0.028737744
40	0xbce762b3	-0.028245306
41	0xbd4a8f86	-0.04945328
42	0xbc93c764	-0.018039413
43	0x3c5e35a0	0.01356259
44	0xbbdbda52	-0.0067093754
45	0xbd7b72ec	-0.061388895
46	0xbec66b85	-0.38753906
47	0x3f954756	1.1662395
48	0xbdee780d	-0.116439916
49	0xbe44d39a	-0.19221345
50	0xbdae3085	-0.08505348
51	0xbd214c45	-0.039379377
52	0xbdb6c512	-0.08924307
53	0xbe55cf2f	-0.20879816
54	0xbe59d988	-0.21274388
55	0xbe02e155	-0.1278127
56	0x3e3d0f6f	0.18462919
57	0x3d241d6c	0.04006712
58	0xbe6d7b4d	-0.23191567
59	0x3eafbe94	0.34325087
60	0xbd79c0b8	-0.060974807
61	0xbdcd683e	-0.10029648
62	0x3e69349e	0.22773978
63	0x3db704d3	0.08936467
64	0x3eb5c389	0.35500744
65	0x3e7687c6	0.24075231
66	0x3e3528f1	0.17691399
67	0x3e4da596	0.20082697
68	0xbe802fe4	-0.25036538
69	0x3dde6155	0.10858408
70	0xbdf390ec	-0.11892876
71	0xbe89e4ea	-0.2693246
72	0x3da9332d	0.08261714
73	0xbdcda67f	-0.10041522
74	0x3e8d36ed	0.27580968
75	0x3c097e19	0.00839188
76	0x3da49796	0.08036725
77	0xbd808f1e	-0.062772974
78	0x3c7391d4	0.014866311
79	0x3ca0c573	0.019625401
80	0xbc01a921	-0.007913859
81	0x3c146a6f	0.009058579
82	0x3c4e693a	0.01259833
83	0xbd009b2f	-0.031397995
84	0x3c1d098d	0.009584797
85	0x3ca07193	0.019585406
86	0x3b8cc602	0.0042960653
87	0xbc1d6217	-0.009605906
88	0xbca214d7	-0.019785328
89	0x3d887631	0.06663168
90	0xbe2cb959	-0.1686758
91	0xbd0fbaf8	-0.035090417
92	0xbeb107e9	-0.34576347
93	0xbe2f0521	-0.170918
94	0xbd68110c	-0.056656882
95	0x3d3823bb	0.04495595
96	0x3db417cb	0.08793601
97	0x3da4dfd3	0.080505036
98	0x3b6c4d4c	0.0036056815
99	0xbdc0ed9d	-0.09420321
100	0xbec13569	-0.3773606
101	0xbd4c29a4	-0.0498444
102	0x3d51676f	0.051124033
103	0xbd975478	-0.07389158
104	0x3d15a384	0.036532894
105	0x3f045a13	0.5169994
106	0xbe1e691f	-0.15469788
107	0x3f16f21c	0.5896318
108	0x3f03254e	0.512288
109	0x3e0ee8d9	0.13956012
110	0xbda6d3c3	-0.08145859
111	0x3d38cb21	0.045115594
112	0xbe39ebd1	-0.18156363
113	0xbe9a6db3	-0.3016182
114	0x3cf4e2fc	0.02989339
115	0x3efe68d3	0.4968935
116	0xbe36e814	-0.17861968
117	0x3ed69208	0.41908288
118	0x3db22b0b	0.08699616
119	0xbe07706f	-0.13226484
120	0xbcb2cc9d	-0.021826083
121	0xbdc1804d	-0.094482996
122	0x3d6ae20b	0.057344478
123	0xba70bf94	-0.0009183821
124	0x3d5dfdb1	0.054197017
125	0x3aeace62	0.001791429
126	0x3b88c1a4	0.0041734744
127	0x3d1b48e9	0.03791133
128	0x3d27a23e	0.04092621
129	0x3ce7b19d	0.028282935
130	0xbd35db6b	-0.044398706
131	0xbcdfe203	-0.02732945
132	0x3c98aefe	0.01863813
133	0x3d3952dc	0.045245036
134	0xbd8a65f4	-0.06757727
135	0xbe3d1c7a	-0.18467894
136	0xbeb3942e	-0.3507399
137	0x3f1d59c5	0.614651
138	0xbe313ddf	-0.17308758
139	0xbe8a7d65	-0.27048793
140	0x3d95e718	0.07319468
141	0xbd4c021d	-0.049806703
142	0xbed701ed	-0.41993657
143	0xbbdcbfdf	-0.00673674
144	0xbf14da3b	-0.58145493
145	0xbf42543a	-0.7590977
146	0xbded7d80	-0.11596203
147	0xbdf5cf88	-0.12002474
148	0x3de4e30d	0.11176119
149	0x3c10ea00	0.008844852
150	0xbd38a894	-0.045082644
151	0x3e0548f7	0.13016115
152	0x3daa9e02	0.08330919
153	0x3e3578e6	0.177219
154	0x3e18a358	0.1490606
155	0x3e21c8bf	0.15799235
156	0xbdbe1d4f	-0.09282934
157	0xbdfd54a6	-0.12369661
158	0x3de4fab8	0.11180633
159	0x3e1f2589	0.15541662
160	0x3def8776	0.11695759
161	0x3e656275	0.2240084
162	0xbedea57a	-0.43485624
163	0x3c67cada	0.014147485
164	0x3da6fbac	0.08153471
165	0xbd8c0e9c	-0.06838724
166	0x3cc2beca	0.023772616
167	0xbe0d98ef	-0.13827871
168	0xbe0eca4b	-0.13944356
169	0xbdafed19	-0.08590145
170	0x3d3deb50	0.04636699
171	0x3d2328e6	0.039833926
172	0x3dc25a8f	0.09489929
173	0xbc8ed305	-0.017434606
174	0xbdbf4cff	-0.09340858
175	0xbdb1f6a0	-0.08689618
176	0x3e1fc1db	0.15601294
177	0x3cebde7c	0.028792612
178	0xbdee2a76	-0.116291925
179	0x3c01eda4	0.007930193
180	0x3e89c4da	0.26907998
181	0xbe249ba8	-0.16075003
182	0x3f0e5f0b	0.55613774
183	0x3ebf716f	0.3739123
184	0xbdb1f07c	-0.08688447
185	0x3c4bb198	0.012432478
186	0xbde60d11	-0.11232961
187	0xba4ee223	-0.00078919734
188	0xbd173336	-0.036914073
189	0xbd8ddc76	-0.06926815
190	0xbe16a84a	-0.14712635
191	0x3f04785c	0.51746154
192	0x3d76909a	0.060196497
193	0x3e0b1666	0.13582763
194	0x3eb92e0a	0.36167938
195	0xbe43afb8	-0.1911
196	0xbe702132	-0.23450163
197	0x3ea0983f	0.31366155
198	0x3e668bea	0.2251431
199	0x3f06aa56	0.5260366
200	0x3d8b07fd	0.06788633
201	0xbdcf6125	-0.10125951
202	0xbe5041b9	-0.20337571
203	0x3de05b68	0.10954934
204	0x3dfade9e	0.12249492
205	0x3e9fbc76	0.31198472
206	0xbe288e25	-0.16460474
207	0x3e67f65d	0.22652574
208	0x3d661ac7	0.05617788
209	0x3e2f4543	0.17116265
210	0x3de355ce	0.1110035
211	0x3e872266	0.2639343
212	0x3ca0165a	0.019541908
213	0x3d2c034d	0.041995335
214	0xbd72b5d6	-0.059255444
215	0x3b3e9abc	0.0029083928
216	0xbd375d35	-0.044766624
217	0x3daabc14	0.08336654
218	0xbd2275a1	-0.03966296
219	0x3c6d5f86	0.014488107
220	0xbc946a77	-0.018117173
221	0xbdf576b7	-0.11985534
222	0xbd7c038f	-0.06152683
223	0x3d9c5fb0	0.076354384
224	0x3d113583	0.035451423
225	0xbd9d83e9	-0.076911755
226	0x3d70dd28	0.05880466
227	0xbc82504b	-0.015907427
228	0xbe754db1	-0.23955418
229	0x3efc5134	0.49280703
230	0x3da7c97e	0.081927285
231	0x3d2ea1d7	0.04263481
232	0x3e213365	0.15742262
233	0x3e12e74a	0.14346042
234	0xbe08429a	-0.13306656
235	0x3e8229c2	0.25422484
236	0x3e2a4b05	0.1663018
237	0xbedb1cd1	-0.42795423
238	0xbc3cfa58	-0.011534296
239	0x3f0c8fbc	0.5490682
240	0x3e1af1a1	0.15131237
241	0xbf06e173	-0.5268776
242	0x3d8a2126	0.06744604
243	0x3dacccb1	0.08437479
244	0xbea37093	-0.31921825
245	0xbf07676d	-0.5289219
246	0xbe1b3101	-0.15155412
247	0x3db02a4d	0.08601818
248	0xba996577	-0.0011703213
249	0xbe7a35bb	-0.24434559
250	0xbd354c2c	-0.044262096
251	0x3e03c2b3	0.1286724
252	0xbe4e024e	-0.20118067
253	0x3db54701	0.088514335
254	0x3d4bb5c7	0.049733903
255	0xbe26794b	-0.16257207

actor.0.bias f4 [512]
0	0xbe2da158	-0.16956079
1	0xbe2e40cd	-0.17016907
2	0xbbdc792a	-0.006728311
3	0xbda75f04	-0.0817242
4	0xbc082090	-0.008308545
5	0xbddb8b4c	-0.10719928
6	0xbdcbd265	-0.09952239
7	0xbc8e668d	-0.017382884
8	0x3d5df597	0.05418929
9	0xbd96c3d7	-0.07361572
10	0xbe55961d	-0.20858045
11	0xbd65db5f	-0.05611741
12	0xbe648a6c	-0.22318429
13	0xbe3b0b75	-0.1826609
14	0xbe2bd255	-0.16779454
15	0xbe1aacd6	-0.15104994
16	0x39cb188a	0.0003873746
17	0xbe28aeae	-0.16472885
18	0xbdccd4be	-0.10001515
19	0x3e1cf1af	0.1532657
20	0xbd4c281a	-0.04984293
21	0x395bcf77	0.00020962754
22	0x3d10ca3b	0.035349112
23	0xbe0d3730	-0.13790584
24	0xbe100d60	-0.14067602
25	0x3c632f6d	0.013866288
26	0xbce26c1e	-0.027639445
27	0xbc477870	-0.012174711
28	0x3d35c397	0.044375982
29	0x3e003226	0.1251913
30	0x3d1cc955	0.038277943
31	0xbe850430	-0.25979757
32	0x3ba6be44	0.0050885994
33	0x3d65542a	0.05598847
34	0xbe40b40b	-0.18818681
35	0xbd0dea8d	-0.034647513
36	0x3e0614b2	0.13093832
37	0x3b1b172d	0.0023664937
38	0x3d4e8c27	0.05042663
39	0xbd10ef2a	-0.035384335
40	0x3d88ea66	0.06685333
41	0xbe87eb42	-0.26546675
42	0xbd972dc6	-0.073817775
43	0x3e7e2559	0.24818935
44	0xbdb80ddc	-0.089870185
45	0xbd818536	-0.06324236
46	0xbd9b9fe8	-0.07598859
47	0xbbe0e3fe	-0.0068631163
48	0xbd5c4b58	-0.05378279
49	0x3d78f1bf	0.060777422
50	0xbd27d01c	-0.040969953
51	0xbc1ad4cc	-0.009450149
52	0xbdc47bae	-0.095939025
53	0xbd87f874	-0.066391855
54	0xbd360ffc	-0.044448838
55	0xbe12c7e9	-0.14334072
56	0xbb0cd239	-0.0021487607
57	0xbdc40076	-0.095704004
58	0x3e10e7e5	0.1415096
59	0xbccd9611	-0.025095971
60	0xbdccb05f	-0.099945776
61	0xbd57c25f	-0.0526756
62	0xbd5d462e	-0.054022007
63	0xbdabea5c	-0.0839431
64	0x3cfd0121	0.030884327
65	0x3d97652f	0.07392346
66	0xbe0d230f	-0.13782905
67	0xbb6ec54c	-0.0036433516
68	0x3d17312a	0.03691212
69	0xbd539540	-0.051656008
70	0xbdd71a57	-0.10503071
71	0xbdf8d170	-0.12149322
72	0x3e09b009	0.13446058
73	0xbd958a34	-0.07301751
74	0x3d448389	0.047977004
75	0xbe187cf1	-0.14891411
76	0xbe27f465	-0.16401823
77	0xbdaf353f	-0.08555078
78	0xbe32d526	-0.17464122
79	0x3d984a9e	0.07436107
80	0x3d90300c	0.07040414
81	0x3d382a88	0.044962436
82	0x3d4faf10	0.050704062
83	0xbc9a46b3	-0.01883254
84	0xbc6f39d2	-0.014601188
85	0xbd44a03a	-0.048004366
86	0xbdb44923	-0.08803012
87	0x3e2ae068	0.16687167
88	0xbe56cee5	-0.20977362
89	0x3a9c8f82	0.0011944624
90	0x3dc89c0a	0.09795387
91	0xbe44e82d	-0.19229193
92	0xbd923e51	-0.07140792
93	0xbd8c94f7	-0.0686435
94	0xbe9028bf	-0.28156087
95	0xbe22558f	-0.1585295
96	0xbdf202f4	-0.118169695
97	0x3ce30d79	0.027716385
98	0xbce534ae	-0.027979221
99	0x3dad8ca6	0.08474092
100	0x3c0f3315	0.008740206
101	0x3d16714b	0.03672914
102	0x3d17859c	0.036992654
103	0x3dc932ae	0.098241195
104	0xbbfbda1b	-0.0076859123
105	0xbe10e4eb	-0.14149825
106	0x3e1bf6e4	0.152309
107	0xbdc2492d	-0.094866134
108	0xbe2b26b0	-0.16713977
109	0xbbe2e6d4	-0.0069244895
110	0x3e1cac01	0.1529999
111	0xbd89fda2	-0.0673783
112	0x3b221164	0.0024729604
113	0x3db6a627	0.0891841
114	0xbe0d901e	-0.13824508
115	0x3e188a0c	0.1489641
116	0x3dcb8fd3	0.09939542
117	0x3dfec2cf	0.124395005
118	0xbd013e01	-0.031553272
119	0x3e2f3f30	0.17113948
120	0xbe4a05f9	-0.19728841
121	0xbd87fc5c	-0.066399306
122	0xbc98000c	-0.01855471
123	0xbce681b3	-0.028138017
124	0xbe3c6957	-0.18399559
125	0x3d6086a5	0.054815907
126	0xbe0e8199	-0.13916625
127	0xbba0f559	-0.00491206
128	0x3dc42a81	0.095784195
129	0xbd69b40c	-0.05705647
130	0xbd891a6a	-0.06694491
131	0xbe1dfce4	-0.15428501
132	0x3d9297e2	0.071578756
133	0xbda5be66	-0.08092956
134	0xbd758cdc	-0.059948787
135	0x3e075488	0.1321584
136	0xbe828f80	-0.25500107
137	0x3e67bd1f	0.22630738
138	0x3c79a8e5	0.0152380215
139	0xbe1a085f	-0.15042256
140	0xbcb2f72d	-0.021846378
141	0xbe181605	-0.1485215
142	0xbe4a735e	-0.19770572
143	0x3de4e4ca	0.111764506
144	0x3c122b02	0.008921387
145	0x3c4cc4da	0.012498105
146	0x3db8156d	0.08988462
147	0xbccf6643	-0.025317317
148	0xbd766b14	-0.06016071
149	0xbe73ec4a	-0.23820606
150	0x3de271e8	0.11056882
151	0x3e00b0a6	0.12567386
152	0x3c43cf3d	0.011951265
153	0xbd72f5ca	-0.059316434
154	0xbc8c5050	-0.01712814
155	0x3cd2f005	0.025749216
156	0xbce2f698	-0.027705476
157	0x3cdbad5a	0.026816059
158	0x3d346ff2	0.044052072
159	0x3cdb6f35	0.026786426
160	0xbd24af8a	-0.04020647
161	0x3d2241b6	0.039613448
162	0x3de1fcb1	0.11034525
163	0x3c1a7af7	0.009428731
164	0xbe4cd957	-0.20004784
165	0xbc9bf7b4	-0.019039012
166	0x3e382f1e	0.17986724
167	0xbe0acc69	-0.13554539
168	0x3e0fc68b	0.14040582
169	0xbd97becc	-0.074094385
170	0xbdea5343	-0.11441662
171	0x3dd44a76	0.10365765
172	0x3d4a7782	0.049430378
173	0x3c6e9b81	0.014563442
174	0x3e3aef98	0.1825546
175	0xbcd00305	-0.025392065
176	0x3d6d5929	0.057946358
177	0x3b2d1941	0.0026412758
178	0xbd82a52d	-0.06379161
179	0xbd1cd83b	-0.03829215
180	0x3d22d04a	0.03974942
181	0xbd8976bf	-0.06712102
182	0x3e5541c5	0.2082587
183	0xbd70f5f5	-0.058828313
184	0xbdcc9baf	-0.09990632
185	0x3bfbb7a4	0.007681804
186	0xbe07ee34	-0.13274461
187	0xbe37af53	-0.17937975
188	0xbd9e7216	-0.07736604
189	0xbc87a1ce	-0.016556647
190	0x3dab45ee	0.083629474
191	0xbde5d517	-0.11222284
192	0xbd3506dd	-0.044196
193	0xbd9d3cac	-0.07677588
194	0xbd73b83b	-0.059501868
195	0x3d33ef69	0.04392949
196	0xbe954d80	-0.2916069
197	0xbdcbe039	-0.099548765
198	0x3d61354e	0.054982476
199	0xbe2cfe09	-0.16893782
200	0xbd38909e	-0.045059793
201	0xbc3eae66	-0.0116382595
202	0xbdefed26	-0.11715154
203	0xbe456c2c	-0.19279546
204	0xbd4de496	-0.050266825
205	0xbdcbed77	-0.09957402
206	0xbd754f50	-0.05989009
207	0xbc86b637	-0.016444309
208	0xbe03ee98	-0.12883985
209	0x3db79e2d	0.089657165
210	0x3dd04f3b	0.10171362
211	0xbe69f25f	-0.22846363
212	0xbd8aa473	-0.067696474
213	0xbe4bb3dd	-0.19892831
214	0x3c768478	0.015046231
215	0xbd0a92fa	-0.033831574
216	0xbd1de84d	-0.038551617
217	0x3da8fc9c	0.082513064
218	0xbe21a1f8	-0.15784442
219	0x3d588635	0.052862365
220	0xbe4769c1	-0.19473936
221	0xbe651c14	-0.22373992
222	0xbe1cc55f	-0.15309666
223	0xbe463365	-0.19355543
224	0x3e21547b	0.15754883
225	0xbdb4d335	-0.08829347
226	0x3d187444	0.037220255
227	0xbd91374e	-0.07090627
228	0xbd6eb1d4	-0.05827506
229	0xbd82ba5c	-0.063832015
230	0xbd06558c	-0.032796428
231	0x3d59b637	0.05315229
232	0xbe13bb7f	-0.14426993
233	0xbc2cd536	-0.01054888
234	0xbe40e8c3	-0.18838792
235	0xbe78d944	-0.2430163
236	0xbcdbad97	-0.026816173
237	0xbe2d1576	-0.16902718
238	0xbe49a7ac	-0.19692868
239	0xbe4a2de2	-0.19744065
240	0xbd4885e1	-0.048955802
241	0x388e7526	6.792908e-05
242	0x3de37209	0.11105735
243	0xbddd6e11	-0.10812009
244	0x3dbf1bd8	0.09331483
245	0x3da9ffc8	0.083007395
246	0x3d438913	0.047738146
247	0xbea0e423	-0.31424055
248	0x3df359ff	0.118824
249	0xbddd17ce	-0.10795556
250	0xbc133e7f	-0.008987068
251	0xbd8baef5	-0.0682048
252	0x3e116a4d	0.14200707
253	0xbda740c2	-0.081666484
254	0xbdbda78d	-0.092604734
255	0x3e45a405	0.1930085

actor.2.weight f4 [256, 512]
0	0xbdfb26ec	-0.12263283
1	0x3e3bd585	0.1834317
2	0x3db53987	0.08848863
3	0x3e5fdd51	0.2186177
4	0xbd5a6950	-0.05332309
5	0xbe28989d	-0.16464467
6	0x3e0199af	0.12656282
7	0xbdb6b4ec	-0.08921227
8	0xbe811b0a	-0.25215942
9	0x3e5257e6	0.20541343
10	0x3df2fda9	0.11864788
11	0x3d983543	0.07432034
12	0x3d717635	0.05895062
13	0xbdb33cf1	-0.08751858
14	0x3dd15ad3	0.102224015
15	0x3e2f870e	0.17141363
16	0xbd2dd690	-0.04244095
17	0xbd2b8338	-0.041873187
18	0xbdfe2e42	-0.12411167
19	0x3e06ea42	0.131753
20	0xbdb28301	-0.08716393
21	0x3e6c6fac	0.23089474
22	0x3dfc257c	0.12311837
23	0xbea30fd8	-0.31848025
24	0xbdd42999	-0.103594966
25	0x3c920fce	0.017829802
26	0x3cd03520	0.025415957
27	0x3cca056d	0.02466079
28	0xbdbf0508	-0.093271315
29	0xbe42773a	-0.18990794
30	0xbe7be8df	-0.24600552
31	0xbd4e7085	-0.050400276
32	0xbe45863e	-0.1928949
33	0x3e0d7141	0.13812734
34	0x3da09f6f	0.078429095
35	0xbd811108	-0.063020766
36	0x3e4a4b24	0.19755226
37	0xbcaee1a2	-0.021347824
38	0x3c655c87	0.013999111
39	0x3e62c5fc	0.22145838
40	0x3dfb0b5c	0.12258026
41	0x3e789ddd	0.2427897
42	0xbdba908e	-0.09109603
43	0x3eafe31c	0.34352958
44	0xbd89d4fa	-0.06730075
45	0x3e756286	0.23963365
46	0x3df52500	0.11969948
47	0xbdbcb34a	-0.09213884
48	0x3e38589c	0.18002552
49	0x3dca574f	0.09879934
50	0xbe2defa6	-0.1698595
51	0xbcf71826	-0.030162882
52	0x3de4e955	0.11177317
53	0xbe0c1d36	-0.13683018
54	0x3e1deb0d	0.15421696
55	0x3d4ea595	0.05045088
56	0x3da50f24	0.080595285
57	0xbc2f6b28	-0.0107067
58	0x3e30cdd5	0.17266019
59	0xbb331839	-0.002732767
60	0x3e529a04	0.20566565
61	0x3d429a0c	0.04751019
62	0x3ce3f435	0.027826408
63	0xbd9539fa	-0.07286449
64	0x3cf38751	0.02972761
65	0xbe11b5d7	-0.14229523
66	0xbc5c9374	-0.01346289
67	0xbcce578e	-0.025188234
68	0xbe93347e	-0.28750986
69	0xbe31b930	-0.173558
70	0x3e5b5a5f	0.21421193
71	0xbda6681c	-0.08125326
72	0xbdd9ca83	-0.10634329
73	0xbda5c66c	-0.080944866
74	0x3d0495e7	0.03236952
75	0x3d0fc560	0.03510034
76	0x3b2e8ad9	0.0026633053
77	0x3e1f3e75	0.15551169
78	0xbdbce23a	-0.09222837
79	0x3b7ec90e	0.0038877162
80	0xbda30aaf	-0.07961022
81	0xbd9cc98a	-0.07655628
82	0x3d4e2faa	0.050338425
83	0x3b8dda2d	0.004328987
84	0x3e024057	0.12719856
85	0xbc6ef0fe	-0.014583824
86	0xbd730eba	-0.059340216
87	0x3d9d25bf	0.07673215
88	0x3d16aef2	0.036787935
89	0x3e9db6a2	0.308034
90	0x3e74f41c	0.23921245
91	0x3dc4fb75	0.09618274
92	0x3e698398	0.22804105
93	0x3dc28696	0.094983265
94	0xbd8c0b33	-0.068380736
95	0x3d643243	0.055711996
96	0xbdb7fe2f	-0.089840285
97	0x3e17980e	0.14804098
98	0x3e19e012	0.15026882
99	0xbe0b8ffb	-0.13629143
100	0xbe66d83d	-0.22543426
101	0xbd178ab0	-0.036997497
102	0x3d0e4ed0	0.03474313
103	0x3c93fdae	0.0180653
104	0x3d553c0f	0.05205923
105	0xbcd80d1f	-0.026373444
106	0xbe3ea0b8	-0.18615997
107	0xbd16d919	-0.036828134
108	0xbbd43be7	-0.0064768675
109	0xbbb1cde6	-0.0054261563
110	0xbd74677d	-0.059669007
111	0x3e4dc31e	0.20093963
112	0x3c099dee	0.00839947
113	0x3ba22469	0.004948188
114	0x3e3fd2cc	0.18732756
115	0x3eb00474	0.34378397
116	0xbe4c47bd	-0.19949241
117	0x3e451328	0.19245589
118	0xbd0b819f	-0.034059163
119	0x3e5cbe3c	0.21556944
120	0x3e2a75a4	0.16646439
121	0x3e386ec6	0.18011007
122	0x3babbefb	0.0052412725
123	0xbdc47c5b	-0.095940314
124	0x3dbd6b5a	0.09248991
125	0x3e0a0837	0.13479696
126	0xbe135d50	-0.14391065
127	0xbd0fbb16	-0.03509053
128	0x3d484a2a	0.048898853
129	0x3dfbf2a4	0.123021394
130	0xbe3368f5	-0.17520507
131	0xbc82d13c	-0.015968911
132	0x3a9ac59e	0.0011808162
133	0xbd3cb9b4	-0.046075538
134	0xbdf1593a	-0.11784597
135	0xbe89acfc	-0.2688979
136	0x3e39a1ac	0.18128079
137	0x3d83c43f	0.06433915
138	0x3ddcde89	0.10784633
139	0x3d2684d6	0.040654026
140	0xbe849116	-0.25891942
141	0xbe109bb0	-0.1412189
142	0x3c560737	0.013063244
143	0x3d8ba40d	0.068183996
144	0x3d8b44d4	0.06800237
145	0x3c67a37c	0.014138099
146	0xbd0faba7	-0.03507581
147	0xbd2fd855	-0.04293092
148	0x3d11e301	0.03561688
149	0x3d6cbdb2	0.057798095
150	0x3eb124a9	0.34598282
151	0x3e8a28f0	0.26984358
152	0xbd528b0f	-0.051402148
153	0x3d39a65a	0.04532466
154	0xbdbef1a8	-0.09323436
155	0xbe286795	-0.16445763
156	0x3e1135db	0.141807
157	0x3d2dc319	0.042422388
158	0xbca78838	-0.020450696
159	0x3d49ae64	0.049238577
160	0x3e4425fa	0.19155112
161	0xbe0e02f2	-0.13868311
162	0x3dbceb86	0.0922461
163	0x3d99c8d3	0.07509007
164	0x3dcadde2	0.09905602
165	0x3d95ceec	0.07314858
166	0x3e01e00a	0.1268312
167	0xbda3eeec	-0.08004555
168	0x3e73e459	0.23817576
169	0xbd3b23fb	-0.04568861
170	0xbd1059da	-0.03524194
171	0x3d883d39	0.06652302
172	0xbd39166d	-0.045187403
173	0xbccb8703	-0.024844652
174	0x3e836967	0.25666353
175	0x3e4128e0	0.18863249
176	0xbd8ab9ab	-0.067736946
177	0xbd9083cf	-0.070563905
178	0x3d4669a0	0.048440576
179	0x3d7e5ba0	0.0620991
180	0xbd2e1a66	-0.042505644
181	0x3d7c6010	0.06161505
182	0x3d124d90	0.0357185
183	0x3d7db5b1	0.061940853
184	0x3cb44a9d	0.022008235
185	0x3d3b921f	0.04579365
186	0xbe7c46f7	-0.24636446
187	0x3dee8859	0.116471
188	0xbc7e64d2	-0.015526967
189	0x3e67aff4	0.22625715
190	0x3d9d596c	0.076830715
191	0x3da21ac1	0.07915259
192	0xbb5d830f	-0.003380004
193	0x3df93fdc	0.12170383
194	0xbda81c0c	-0.082084745
195	0x3d1fcd2b	0.039014023
196	0xbe07f3db	-0.13276617
197	0xbdf9ebfb	-0.12203213
198	0xbd2add18	-0.041714758
199	0x3d758c35	0.059948165
200	0xbe7afd8f	-0.24510787
201	0x3dd48521	0.10376955
202	0xbe31a543	-0.17348199
203	0x3ea18375	0.31545606
204	0x3e17705d	0.14788957
205	0x3e65e510	0.22450662
206	0x3dfea1d9	0.12433214
207	0x3d98895f	0.074480765
208	0x3dd5b8ae	0.104356155
209	0xbdf2dc07	-0.11858373
210	0x3d24fc97	0.04027995
211	0x3b981ea3	0.004642324
212	0x3dfd49b3	0.12367573
213	0x3d17a817	0.037025537
214	0x3c8c4087	0.017120613
215	0x3e8cdb2b	0.27510962
216	0x3e20be4f	0.15697597
217	0x3c3df8ff	0.01159501
218	0xbcb06c10	-0.021535903
219	0xbe167fe6	-0.14697227
220	0xbd0742bd	-0.03302263
221	0xbdd66afc	-0.104696244
222	0xbb71713a	-0.003684117
223	0xbdeb78f6	-0.11497681
224	0x3d6d947e	0.05800294
225	0xbd324d3c	-0.043530688
226	0xbe8f8e8d	-0.28038445
227	0x3c87226d	0.016495908
228	0xbc645c1f	-0.013937979
229	0xbccb0c35	-0.024786094
230	0xbe66285e	-0.22476336
231	0xbe38f841	-0.18063451
232	0x3e262efd	0.16228862
233	0xbe2f9bc7	-0.17149268
234	0xbddbfcdd	-0.10741589
235	0x3e587806	0.21139535
236	0xbe607937	-0.2192124
237	0xbe3c1316	-0.18366656
238	0x3e85c1bc	0.2612437
239	0xbb4f75bc	-0.0031655869
240	0x3a30a881	0.0006738976
241	0xbdd7abf7	-0.105308466
242	0x3e1d70a0	0.15374994
243	0xbde849fc	-0.113422364
244	0x3e02c20f	0.1276934
245	0x3c05f04a	0.008174965
246	0xbc4647ee	-0.01210211
247	0x3c81d89e	0.015850361
248	0xbe0391fe	-0.1284866
249	0x3dfacf39	0.12246556
250	0xbe6098b3	-0.2193325
251	0xbd35a236	-0.04434415
252	0xbe199c67	-0.15001069
253	0x3e84b5de	0.25920004
254	0xbd6db55b	-0.058034282
255	0x3d7aeff0	0.06126398

actor.2.bias f4 [256]
0	0xbc8b7d6a	-0.017027576
1	0xbe916351	-0.28396085
2	0xbcf466d1	-0.029834183
3	0xbe5027b6	-0.20327649
4	0xbe066413	-0.13124113
5	0xbe31d9fa	-0.17368308
6	0xbe11e5b1	-0.14247777
7	0xbdaed474	-0.08536616
8	0x3d814750	0.0631243
9	0xbe82a223	-0.25514325
10	0xbe29f04b	-0.1659557
11	0xbe0181e7	-0.1264721
12	0xbe58240b	-0.211075
13	0x3dd72f82	0.10507108
14	0xbdd565a3	-0.10419776
15	0xbe7c93f0	-0.24665809
16	0xbe896e0e	-0.26841778
17	0x3c1e15ce	0.009648753
18	0xbe1b3dbf	-0.15160273
19	0xbe1dd82a	-0.15414491
20	0x3cfe9be8	0.031080201
21	0xbe8015eb	-0.25016722
22	0xbdfd1601	-0.123577125
23	0xbe15a826	-0.14614925
24	0xbc7e81be	-0.015533863
25	0xbe96c49e	-0.29446882
26	0x3d146ddc	0.036237583
27	0xbd08db1e	-0.03341209
28	0xbd70e3fe	-0.05881118
29	0xbbe78322	-0.007065193
30	0xbd593694	-0.053030565
31	0xbd8dd818	-0.06925982
32	0xbdb61509	-0.08890731
33	0xbe57f948	-0.21091187
34	0xbb83b141	-0.004018933
35	0xbd94d067	-0.07266312
36	0xbe51158c	-0.20418376
37	0xbe27ee65	-0.16399534
38	0xbe23d069	-0.15997471
39	0xbe7797fd	-0.24179073
40	0xbe37d5aa	-0.179526
41	0xbd9bb114	-0.07602134
42	0xbea72649	-0.32646397
43	0xbd7a0735	-0.06104203
44	0xbe52d6cc	-0.20589751
45	0xbd873bd7	-0.066032104
46	0xbdeeb7f1	-0.11656178
47	0xbdd6e95e	-0.1049373
48	0xbde48c95	-0.111596264
49	0x3d348656	0.044073425
50	0x3d1fb332	0.038989253
51	0xbe03b10b	-0.12860505
52	0xbd893331	-0.06699217
53	0xbe42efac	-0.1903674
54	0x3d285dd2	0.0411051
55	0xbe021e65	-0.12706907
56	0xbe0e5821	-0.13900806
57	0xbca29cec	-0.019850217
58	0xbd74e534	-0.059788898
59	0xbe97ffa0	-0.29687214
60	0xbe1a3b3f	-0.15061663
61	0xbc624d32	-0.01381235
62	0xbd872213	-0.06598296
63	0xbe1bf5a8	-0.15230429
64	0xbde2009f	-0.11035275
65	0x3c0030b3	0.007824111
66	0xbc1e4753	-0.00966056
67	0xbe3bbf2a	-0.18334642
68	0xbe151706	-0.14559564
69	0xbbb115f2	-0.0054042274
70	0xbdb2340a	-0.08701332
71	0xbe632333	-0.22181396
72	0xbceaca6c	-0.028660975
73	0xbe373e6a	-0.17894903
74	0xbef67fdd	-0.48144427
75	0xbd85dce7	-0.065362744
76	0xbe10416c	-0.14087456
77	0xbeb887b8	-0.36041045
78	0xbe214974	-0.15750676
79	0xbde0f20c	-0.10983667
80	0xbe33a1ec	-0.17542237
81	0xbe0a720a	-0.13520065
82	0xbe6ce12a	-0.23132768
83	0xbead7844	-0.33880818
84	0xbea2db43	-0.31807908
85	0xbde919d5	-0.1138188
86	0xbd56f2ec	-0.052477762
87	0xbb4333f7	-0.0029785612
88	0xbd6460e9	-0.055756483
89	0xbddfc9fd	-0.10927198
90	0xbe22ee33	-0.15911178
91	0xbdfa3845	-0.12217764
92	0xbe0e58cb	-0.1390106
93	0xbe1123dd	-0.14173837
94	0xbd5423c4	-0.05179192
95	0xbe21963f	-0.1577997
96	0xbd863770	-0.065535426
97	0xbdfe93ab	-0.12430509
98	0xbdfcaddd	-0.12337849
99	0xbee2b846	-0.44281214
100	0x3d70a1a5	0.058747906
101	0xb977cb3b	-0.00023631465
102	0xbe1aeadc	-0.15128654
103	0xbe94cc63	-0.29062185
104	0xbd1fe721	-0.03903878
105	0x3d5bba28	0.05364433
106	0x3d12ce8b	0.035841506
107	0xbe38bf5b	-0.18041746
108	0xbdee29ee	-0.11629091
109	0x3d819383	0.06326964
110	0xbda7a063	-0.08184888
111	0xbd8924f8	-0.06696504
112	0xbdd59697	-0.10429113
113	0xbe44e420	-0.19227648
114	0xbe474558	-0.19460046
115	0xbe092cda	-0.13396016
116	0xbe3c99be	-0.18418023
117	0xbe7fb80c	-0.24972552
118	0xbe79c838	-0.24392784
119	0x3c807978	0.01568292
120	0xbdebd5b3	-0.11515369
121	0xbdae64e0	-0.08515334
122	0xbe38a257	-0.18030678
123	0xbd88fac0	-0.06688452
124	0xbe6d8e07	-0.2319871
125	0xbd37b07f	-0.044846054
126	0x3d9b1cc9	0.0757385
127	0xbc422f3d	-0.011852083
128	0xbdeb739b	-0.11496659
129	0xbdec7d3f	-0.11547326
130	0xbe26133b	-0.16218273
131	0xbe45ba07	-0.19309245
132	0xbdccaa58	-0.09993428
133	0xbd7a50ae	-0.0611121
134	0xbc2a085d	-0.0103779705
135	0xbe7b3225	-0.24530847
136	0x3d764422	0.06012357
137	0xbe25beac	-0.16186017
138	0xbdd93242	-0.10605289
139	0xbe1e9838	-0.15487754
140	0xbe2ef33f	-0.17084979
141	0xbe1fff62	-0.15624765
142	0xbb2d1bfd	-0.0026414387
143	0xbe8b3cf6	-0.27194947
144	0xbd42e9c6	-0.047586225
145	0xbe05f5ec	-0.13082093
146	0xbd69f870	-0.057121694
147	0xbdc8417f	-0.097781174
148	0xbc7adc73	-0.015311348
149	0xbdb1868b	-0.0866824
150	0xbcd050f4	-0.025429226
151	0x3db0696c	0.086138576
152	0xbe671cb8	-0.22569549
153	0x3c6a4dbc	0.01430076
154	0xbecd5696	-0.40105122
155	0x3cf18994	0.029484548
156	0xbd1a5aea	-0.03768436
157	0x3c01a494	0.007912774
158	0xbe22835d	-0.15870424
159	0xbe8a0485	-0.26956573
160	0xbd931db3	-0.07183399
161	0xbe35f51a	-0.1776928
162	0xbd4a6db4	-0.049421027
163	0xbdd722aa	-0.105046585
164	0xbe3e2c87	-0.18571673
165	0xbe1eed07	-0.15520106
166	0xbe852aa0	-0.26009083
167	0xbee2bc2a	-0.44284183
168	0x3cd31795	0.02576808
169	0xbe729bf1	-0.236923
170	0xbd8028bd	-0.0625777
171	0xbc9517e8	-0.018199876
172	0x3d75b29c	0.05998479
173	0x3cd4b654	0.025965847
174	0xbe9a1242	-0.30092055
175	0x3be54667	0.006996918
176	0xbcd8e616	-0.026476901
177	0xbe930375	-0.28713575
178	0xbca5600b	-0.020187398
179	0xbdf3733c	-0.118872136
180	0xbe8199ca	-0.25312644
181	0xbd8239c2	-0.06358673
182	0x3c8d049a	0.017214108
183	0xbe434797	-0.19070278
184	0x3cd3e8bb	0.02586781
185	0xbc6b392d	-0.0143568935
186	0xbe28b26a	-0.1647431
187	0xbe2e6d16	-0.170338
188	0xbe08a0e5	-0.13342626
189	0xbe20326a	-0.15644231
190	0xbdff0702	-0.124525085
191	0xbe336c41	-0.17521764
192	0xbdaee3c4	-0.085395366
193	0xbd35b907	-0.04436591
194	0x3c99018c	0.018677495
195	0xbe4c03c6	-0.19923314
196	0xbd72733c	-0.059191927
197	0xbdd937c1	-0.10606337
198	0x3d872f95	0.066008724
199	0x3d299c87	0.04140904
200	0xbe102143	-0.14075188
201	0xbe397c43	-0.18113808
202	0xbe16ca80	-0.14725685
203	0xbe905631	-0.2819076
204	0x3d26ac76	0.040691815
205	0xbc08590e	-0.008322014
206	0xbc85b70b	-0.016322633
207	0x3d32cef4	0.043654397
208	0x3b511ad6	0.0031906865
209	0x3d98f76e	0.074690685
210	0xbe1d8e94	-0.1538642
211	0xbe04b99f	-0.12961434
212	0x3c775cfe	0.015097855
213	0x3c1e1a31	0.009649799
214	0xbe1e9f79	-0.15490521
215	0xbe3b8df2	-0.18315867
216	0xbe7edd2a	-0.24889055
217	0xbe4f758d	-0.20259686
218	0xbcb3d4c6	-0.021952044
219	0xbbf66197	-0.007518958
220	0xbd523216	-0.051317297
221	0xbd54d160	-0.051957488
222	0xbe0388b1	-0.12845112
223	0xbe8aa10d	-0.27075997
224	0xbe3bee65	-0.18352659
225	0x3d7e30a4	0.062058106
226	0xbdb43372	-0.08798875
227	0xbc1692bd	-0.009190259
228	0x3daf448a	0.08557995
229	0xbe77e0b4	-0.24206811
230	0xbdc4482b	-0.095840774
231	0x3d36af40	0.044600725
232	0xbd977da0	-0.07397008
233	0xbda24725	-0.07923726
234	0xbb4c0367	-0.0031129958
235	0xbd8be2ca	-0.06830366
236	0xbd9cee60	-0.07662654
237	0xbe1be974	-0.15225774
238	0xbdbcdc9e	-0.09221767
239	0xbe5efe54	-0.21776706
240	0xbe81959b	-0.25309452
241	0x3db39b47	0.08769851
242	0xbe28c99c	-0.16483158
243	0xbe2d32a7	-0.16913854
244	0xbdb19d05	-0.08672527
245	0xbe9819fc	-0.29707325
246	0xbe3f527f	-0.18683814
247	0xbd8c3d08	-0.06847578
248	0xbea1ce1c	-0.3160256
249	0xbe312b60	-0.17301702
250	0xbdda49bb	-0.10658594
251	0x3d54c33c	0.051944003
252	0xbe7286a0	-0.23684168
253	0xbc52d850	-0.012868956
254	0xbd7883a4	-0.060672417
255	0xbdefa9aa	-0.11702283

actor.4.weight f4 [128, 256]
0	0xbeabff24	-0.33593094
1	0xbde262c9	-0.11053998
2	0xbd5bbf61	-0.05364931
3	0xbd683a6a	-0.056696333
4	0xbc06e822	-0.008234056
5	0x3dc19209	0.09451682
6	0x3d969313	0.07352271
7	0xbdb5cf51	-0.08877433
8	0xbe7829d6	-0.24234709
9	0xbe2e6dcd	-0.17034073
10	0x3de77b80	0.11302853
11	0xbe093544	-0.13399225
12	0xbdb265a4	-0.08710793
13	0xbc3f2292	-0.011665957
14	0xbcc116e7	-0.023570491
15	0x3d311236	0.043230258
16	0x3cdce9b8	0.026966915
17	0xbc9b3cf1	-0.018949958
18	0xbdbc160b	-0.09183892
19	0xbe4db5a4	-0.20088822
20	0xbe3641ce	-0.1779854
21	0x3d329bac	0.04360549
22	0x3dc8b4ef	0.09800135
23	0xbe94649f	-0.28983018
24	0xbcfecd9c	-0.031103902
25	0x3c3add16	0.01140525
26	0xbecc990f	-0.39960524
27	0x3ca54a12	0.020176921
28	0xbe7d1cc7	-0.24718009
29	0xbdf18ca9	-0.11794407
30	0xbe063cfd	-0.13109203
31	0x3dcbad4a	0.09945162
32	0xbeb59333	-0.35463867
33	0x3d32f13b	0.043687087
34	0x3d760ee4	0.060072795
35	0x3d37b852	0.044853516
36	0x3b7af470	0.0038292669
37	0x3c4de7d3	0.012567478
38	0xbd9f3b6f	-0.07775008
39	0xbdaa5cea	-0.08318503
40	0x3cdadea6	0.026717495
41	0x3d3f95ef	0.046773847
42	0x39c8dd45	0.0003831183
43	0xbe012b85	-0.12614258
44	0x3db08033	0.08618202
45	0xbd494357	-0.049136486
46	0x3ea5cbf5	0.3238217
47	0xbde9730c	-0.113988966
48	0xbcb63171	-0.022240372
49	0xbe1a2859	-0.15054454
50	0xbe12b0df	-0.14325283
51	0xbe86b153	-0.26307163
52	0x3d1f37b1	0.03887147
53	0xbc33146e	-0.010930164
54	0xbe3d72df	-0.18500851
55	0xbcc3e733	-0.023913955
56	0x3df3f20c	0.11911401
57	0x3cffc20a	0.031220455
58	0x3ca850b5	0.020546297
59	0x3e32276e	0.17397854
60	0x3b86ca10	0.004113443
61	0xbde8494c	-0.11342105
62	0xbe5f7e30	-0.2182548
63	0xbdced237	-0.10098689
64	0xbdfc1c89	-0.1231013
65	0x3dc9ddc1	0.09856749
66	0xbd864bd7	-0.06557434
67	0x3db86b09	0.0900479
68	0x3d18915b	0.037247997
69	0xbd9cced5	-0.076566376
70	0xbdaa4779	-0.083144136
71	0xbe7e24fa	-0.24818793
72	0xbe7223b2	-0.23646429
73	0xbd207311	-0.039172236
74	0x3d1c3886	0.038139842
75	0xbe5a9982	-0.21347621
76	0xbdbb8b9a	-0.09157486
77	0x3cfbc42e	0.030733194
78	0x3e01964e	0.12654993
79	0x3d29d3c5	0.041461725
80	0x3e4e8d38	0.20171058
81	0xbdf60692	-0.12012972
82	0x3e9270e1	0.28601745
83	0x3e06da92	0.13169315
84	0x3e07f4f3	0.13277034
85	0x3c883fe2	0.016632024
86	0xbddd2159	-0.10797376
87	0xbe87e091	-0.26538518
88	0x3d413056	0.047165237
89	0x3ce3fd91	0.02783087
90	0x3e3fbc66	0.18724212
91	0xbd569cad	-0.05239551
92	0x3d96a0b4	0.073548704
93	0xbc38348e	-0.011242999
94	0xbdaae11a	-0.08343716
95	0xbc921ad8	-0.017835066
96	0x3e212706	0.15737543
97	0xbb53004b	-0.003219622
98	0xbe078946	-0.1323596
99	0x3e292a14	0.16519958
100	0xbd887bdc	-0.06664249
101	0xbcd16334	-0.025559999
102	0x3dab3918	0.08360499
103	0x3dde8578	0.10865301
104	0xbe6802d0	-0.22657323
105	0xbddb482c	-0.10707125
106	0x3dc1038f	0.09424507
107	0x3d87a600	0.06623459
108	0xbd913fda	-0.07092257
109	0xbe2ea68f	-0.17055725
110	0xbdee72dd	-0.11643002
111	0x3cb7bcc2	0.022428874
112	0xbd91345d	-0.07090066
113	0xbcdd4aab	-0.027013144
114	0x3e36a15d	0.17834993
115	0xbcdd200e	-0.026992824
116	0xbe40a413	-0.1881259
117	0x3e09b01b	0.13446085
118	0x3dd04958	0.10170239
119	0x3e4365c8	0.19081795
120	0x3dde4dd2	0.10854687
121	0xbd976dfe	-0.07394026
122	0xbdd10e7e	-0.10207842
123	0xbe050100	-0.12988663
124	0xbe4a3a87	-0.19748889
125	0xbd8bcf5b	-0.06826659
126	0xbdaa1e65	-0.083065785
127	0xbdca8a1c	-0.098896235
128	0xbdebb6ad	-0.11509452
129	0xbe4fb937	-0.20285498
130	0x3cafcfc8	0.021461383
131	0xbec20d6a	-0.3790086
132	0xbd7bdf47	-0.06149223
133	0x399faf0e	0.0003045727
134	0xbdeabe8e	-0.11462127
135	0x3cf1b3fa	0.029504765
136	0xbe4f0291	-0.20215823
137	0x3d3892f3	0.045062017
138	0x3d4e48ef	0.050362524
139	0x3e9ad58d	0.3024105
140	0xbd2dac21	-0.042400483
141	0xbd753352	-0.059863396
142	0xbe03f307	-0.12885676
143	0x3e1e9ae1	0.15488769
144	0xbdfd2dc8	-0.12362248
145	0xbea7d4b1	-0.32779458
146	0xbb7f7ddf	-0.0038984937
147	0x3d8b4b69	0.06801493
148	0x3d702a35	0.058634
149	0x3cc354c4	0.02384413
150	0xbe1693ca	-0.14704815
151	0x3da33ad6	0.079702064
152	0x3ca1e5ff	0.019762991
153	0xbd2cc91b	-0.042183977
154	0xbdbab52a	-0.091165856
155	0x3cfe6220	0.031052649
156	0x3d3a72e4	0.045519724
157	0xbd26c48f	-0.040714797
158	0xbdd5886c	-0.10426411
159	0x3da4b24c	0.0804182
160	0xbc099bc2	-0.008398952
161	0x3df268d2	0.11836399
162	0xbd959853	-0.07304444
163	0xbe8a934c	-0.27065504
164	0xbd441a08	-0.047876388
165	0xbd3a2329	-0.045443688
166	0x3d1dbe54	0.03851159
167	0xbd2bd07c	-0.041946873
168	0xbd846c2d	-0.064659454
169	0x3e67a8fa	0.22623053
170	0xbd4ee965	-0.05051555
171	0xbc61526f	-0.013752564
172	0x3b06ceda	0.002057007
173	0xbd007055	-0.03135713
174	0x3d90c6fb	0.070692025
175	0xbe0fcc8e	-0.14042875
176	0xbe26d00c	-0.16290301
177	0xbd17fdb9	-0.037107203
178	0x3ca805a8	0.02051051
179	0xbcef6130	-0.029221147
180	0x3e0da082	0.1383076
181	0xbe225091	-0.15851046
182	0xbe543342	-0.20722678
183	0xbe747cff	-0.23875807
184	0xbd9134bf	-0.07090139
185	0xbe115866	-0.14193878
186	0xbd94d2fd	-0.07266805
187	0x3e5a1c65	0.21299894
188	0xbde5b9f2	-0.11217107
189	0xbe0653e9	-0.13117947
190	0x3e6d210f	0.23157142
191	0xbdbcfa49	-0.092274256
192	0xbe503477	-0.20332514
193	0xbdc55c55	-0.096367516
194	0xbd8ebd92	-0.069697514
195	0xbe61a637	-0.22036062
196	0x3e794234	0.2434166
197	0xbd9c0693	-0.076184414
198	0xbd708e07	-0.058729198
199	0xbcaa37da	-0.020778585
200	0xbcf6b80d	-0.03011706
201	0x3dfa742c	0.12229189
202	0xbe0a1aa5	-0.13486727
203	0x3d0f1533	0.034932327
204	0xbdf40645	-0.11915258
205	0xbe128fa3	-0.14312606
206	0xbe3e1eb0	-0.18566394
207	0xbe10bcc5	-0.1413451
208	0x3d08bca5	0.03338303
209	0x3d2b34cb	0.041798394
210	0xbde5620d	-0.11200342
211	0x3ca58008	0.020202652
212	0xbdf68f3a	-0.12039037
213	0x3bf89776	0.007586415
214	0xbe4d23c6	-0.20033178
215	0x3e030f6d	0.12798853
216	0xbdaaaa5a	-0.08333273
217	0xbe332aa8	-0.17496741
218	0xbe132de2	-0.14372972
219	0xbe869f5b	-0.26293454
220	0xbd91eb76	-0.07124989
221	0xbea4deb3	-0.32201156
222	0x3c8a7e0d	0.016905809
223	0xbc37065e	-0.011170952
224	0x3d95a2d2	0.07306446
225	0xbdd7d837	-0.105392866
226	0x3daffa10	0.085926175
227	0xbe06c785	-0.13162048
228	0xbdd1f193	-0.10251155
229	0xbdbd5454	-0.092446
230	0xbdb149cf	-0.08656656
231	0x3d184a92	0.03718049
232	0xbdab2212	-0.08356108
233	0xbd4a0610	-0.049322188
234	0xbde79340	-0.113073826
235	0xbddbae57	-0.10726612
236	0x3df46a82	0.11934377
237	0xbe119f3a	-0.14220896
238	0xbe05c7cc	-0.13064498
239	0xbe0794f4	-0.13240415
240	0x3b6c5df2	0.0036066738
241	0xbdd8a1b1	-0.10577715
242	0x3dbe11f6	0.092807695
243	0x3e3cbd45	0.18431576
244	0x3dc0d9a5	0.094165124
245	0x3d76bcfd	0.060238827
246	0x3d7f98cb	0.062401574
247	0xbe7433b9	-0.23847856
248	0x3d806c18	0.06270617
249	0xbdcb7af5	-0.099355616
250	0x3d97a990	0.07405388
251	0xbc78dfb3	-0.015190053
252	0xbceb27a0	-0.028705418
253	0xbbb576cb	-0.005537843
254	0xbe0adc01	-0.13560487
255	0xbf086420	-0.5327778

actor.4.bias f4 [128]
0	0xbe63280d	-0.22183247
1	0xbd45784b	-0.048210423
2	0xbd7bf0a0	-0.061508775
3	0xbd7989c1	-0.060922388
4	0xbdf58a3c	-0.11989257
5	0xbd0faf88	-0.03507951
6	0xbecae8c3	-0.39630708
7	0xbe4a6034	-0.19763261
8	0xbe2de5b6	-0.16982159
9	0xbca44f99	-0.020057486
10	0xbe71b1c4	-0.23602968
11	0xbe038f46	-0.12847623
12	0xbe2dec70	-0.16984725
13	0xbdf61fd1	-0.12017787
14	0xbdea4eed	-0.11440835
15	0xbde8c791	-0.11366189
16	0xbdf6a005	-0.1204224
17	0xbdacc5e3	-0.084361814
18	0xbde23d92	-0.110469
19	0xbdd97692	-0.106183186
20	0xbde09d40	-0.10967493
21	0xbe2bda9d	-0.16782613
22	0xbe1f97e2	-0.15585282
23	0xbda282ed	-0.07935128
24	0xbe9cfcf0	-0.30661726
25	0xbd9cffb6	-0.076659605
26	0xbdb27dd1	-0.08715404
27	0xbd8e546a	-0.069496945
28	0xbd9a53ce	-0.07535516
29	0xbdd40031	-0.10351599
30	0xbddec8a5	-0.10878114
31	0xbd8e91b7	-0.06961387
32	0xbe7b1b19	-0.24522056
33	0xbe0caa00	-0.13736725
34	0xbdf78788	-0.120863974
35	0xbee4d749	-0.446955
36	0xbdfd38ec	-0.123643726
37	0xbe868b7e	-0.262783
38	0xbd909337	-0.07059329
39	0xbde2f94e	-0.11082707
40	0xbde8a0e1	-0.1135881
41	0xbd6a121a	-0.05714617
42	0xbd2fa93c	-0.042886004
43	0xbd8f8896	-0.070084736
44	0xbdb37249	-0.087620325
45	0xbd87b75c	-0.0662677
46	0xbded617d	-0.1159086
47	0xbe10c5dd	-0.14137979
48	0xbcc43eb4	-0.02395568
49	0xbde8da04	-0.11369708
50	0xbe17e7e0	-0.14834547
51	0xbe3566e8	-0.17715037
52	0xbdbdd7fa	-0.0926971
53	0xbe2b1a81	-0.16709329
54	0xbe1be36e	-0.15223476
55	0xbd803463	-0.06259992
56	0xbd29a243	-0.04141451
57	0xbdb5246e	-0.08844839
58	0xbd85c65d	-0.065319754
59	0xbe08a948	-0.13345826
60	0xbddf6252	-0.10907425
61	0xbdec66f6	-0.11543076
62	0xbdd62bd8	-0.10457581
63	0xbd48b1be	-0.048997633
64	0xbdcd36f5	-0.10020248
65	0xbe1f1839	-0.15536584
66	0xbdbcd948	-0.092211306
67	0xbe2b5403	-0.16731267
68	0xbf010acd	-0.50407106
69	0xbd3b7873	-0.045769166
70	0xbe99415c	-0.29932678
71	0xbe364d76	-0.17802987
72	0xbe6e92e5	-0.23298223
73	0xbdfcc35f	-0.123419516
74	0xbe4958b1	-0.1966274
75	0xbdb29692	-0.08720125
76	0xbeaad85c	-0.33368194
77	0xbdd93fd0	-0.106078744
78	0xbe053f60	-0.13012457
79	0xbe97a7e8	-0.2962029
80	0xbe0a7470	-0.1352098
81	0xbe200584	-0.15627104
82	0xbd785e36	-0.06063672
83	0xbe089565	-0.1333824
84	0xbda57650	-0.08079207
85	0x3d5e0799	0.054206464
86	0x3d3563a6	0.044284485
87	0x3b044483	0.0020182438
88	0xbea0ebf9	-0.31430033
89	0xbc9d4fa1	-0.01920301
90	0xbdefb92a	-0.11705239
91	0xbdd5c016	-0.10437028
92	0xbe103ccb	-0.1408569
93	0xbdafb1ae	-0.085788116
94	0x3b9fcaec	0.004876485
95	0xbd703997	-0.058648672
96	0xbdff0edb	-0.12454005
97	0xbca7ff91	-0.020507606
98	0xbe8510ec	-0.25989473
99	0xbc9ba0ea	-0.018997628
100	0xbe176bb5	-0.1478718
101	0xbd0b4fad	-0.03401153
102	0xbe89b9c2	-0.26899534
103	0xbdd53d62	-0.104120985
104	0xbe3d1a41	-0.18467046
105	0xbe445114	-0.19171554
106	0xbdcfb3cd	-0.10141716
107	0xbdd06899	-0.101762004
108	0xbc90ada3	-0.017660921
109	0xbd476f50	-0.04869014
110	0xbedcb2eb	-0.43105254
111	0xbdbd0fa9	-0.092315026
112	0xbe0e1bb7	-0.1387776
113	0x3dc31276	0.095250055
114	0xbc795e2e	-0.015220208
115	0xbe4796f8	-0.19491184
116	0xbe875d14	-0.264382
117	0xbd85bcc8	-0.06530148
118	0xbdceda76	-0.10100262
119	0xbe1f7d9b	-0.15575258
120	0xbe0802a7	-0.13282262
121	0xbe892781	-0.26787952
122	0xbe0076b7	-0.12545286
123	0xbef8c285	-0.48585907
124	0xbe30f75d	-0.17281862
125	0xbe03ce58	-0.12871683
126	0xbd892208	-0.06695944
127	0xbdd9f19b	-0.10641786

actor.6.weight f4 [12, 128]
0	0xbc2693c8	-0.01016707
1	0xbc964463	-0.018343156
2	0x3c48713a	0.012234027
3	0xbb259bc0	-0.0025269836
4	0x3c9cb743	0.019130355
5	0x3ca4f771	0.02013752
6	0xbcde3111	-0.027123006
7	0x3d87d5fc	0.06632611
8	0x3b88805e	0.004165693
9	0xbd27bea7	-0.040953305
10	0xbd8958c7	-0.06706386
11	0x3cf9d60c	0.030497573
12	0x3cb58f1c	0.022162966
13	0xbc280a5e	-0.010256378
14	0xbcb7db41	-0.022443416
15	0xbce8fdfd	-0.028441424
16	0x3ce3e805	0.027820596
17	0xbc89f64b	-0.016841074
18	0x3c6504ab	0.013978164
19	0x3c8c37c8	0.017116442
20	0x3cf9ece6	0.03050847
21	0x3de0715f	0.10959124
22	0xbdd541c7	-0.10412937
23	0xba928320	-0.0011177994
24	0x3d9a47fb	0.075332604
25	0xbcb6d736	-0.022319417
26	0x3aa0390e	0.0012224035
27	0x3cd51d15	0.026014844
28	0x3b37cb0c	0.002804461
29	0xbc083c34	-0.008315135
30	0xbd0339cf	-0.032037552
31	0xbca74f5c	-0.020423584
32	0x3d0635ba	0.03276608
33	0xbdcc9610	-0.0998956
34	0x3e2c21d4	0.1680978
35	0x3ca25a27	0.019818379
36	0xbc5d6412	-0.013512628
37	0x3d3f3b15	0.046687204
38	0xbcd8750a	-0.026422996
39	0xbc865e9c	-0.016402535
40	0x3b0043c1	0.0019571634
41	0xbcb33fef	-0.021881072
42	0xbca9a729	-0.020709591
43	0x3d201a19	0.03908739
44	0xbc768868	-0.01504717
45	0x3c9d5e5e	0.019210037
46	0xbc5b7a35	-0.013395836
47	0xbcc17c7b	-0.023618927
48	0x3c5999bb	0.013281281
49	0xbc8d8762	-0.01727647
50	0x3c80b6b5	0.015712122
51	0xbc8a8bd3	-0.016912377
52	0x3b24cb2b	0.0025145512
53	0x3c8e9073	0.017402863
54	0x3d508f3a	0.05091784
55	0xbd505145	-0.050858755
56	0x3c4b1ed4	0.012397487
57	0xbd3376e8	-0.04381457
58	0x3d3ba6a1	0.045813207
59	0xbd901f2f	-0.07037198
60	0xbd8c5f64	-0.06854132
61	0x3c3b0892	0.011415618
62	0xbdbea0ed	-0.09308038
63	0x3c4a7620	0.012357265
64	0x3c543d56	0.012954077
65	0xbd0cc3fa	-0.034366585
66	0xbb25ea86	-0.0025316789
67	0x3d09e055	0.033661205
68	0x3d71f332	0.05906982
69	0x3c7b8cb2	0.015353369
70	0xbcd49fc1	-0.025955083
71	0x3cc1631e	0.023606833
72	0x3c1f4fb6	0.009723594
73	0xbd8bda47	-0.068287425
74	0x3b1bc740	0.0023769885
75	0xbbc7f1a0	-0.006101802
76	0xbb75a701	-0.0037483575
77	0xbbfc5886	-0.0077009825
78	0x3c106478	0.008813016
79	0x3a8b4956	0.0010626714
80	0x3c7f0ac6	0.015566533
81	0x3d67c674	0.056585744
82	0x3d6a45b3	0.057195377
83	0x3d082879	0.033241723
84	0x3c80e9bc	0.015736453
85	0xbc8cf218	-0.017205283
86	0x3d4d4250	0.05011207
87	0x3ca36c8a	0.019949216
88	0x3c6616a3	0.014043483
89	0x3c6d0382	0.014466168
90	0xbd165b2f	-0.036708053
91	0x3c9d80e4	0.019226499
92	0xbc2b9e36	-0.010474732
93	0xbc6e0ea5	-0.014529859
94	0x3c2f6813	0.010705966
95	0x3c99ce86	0.018775236
96	0x3d7a8e6e	0.061170988
97	0x3baf4971	0.005349331
98	0x3cb73e17	0.022368474
99	0xb9ab146d	-0.0003263088
100	0xbc0b75ca	-0.00851197
101	0xbb7a48ba	-0.003819032
102	0xbbbfd5b1	-0.0058543314
103	0x3a13295f	0.000561377
104	0x3bfb4fb6	0.0076694144
105	0xbb413e0c	-0.0029486446
106	0xbc09f127	-0.008419312
107	0xba94ff87	-0.0011367657
108	0xbc3400b1	-0.010986493
109	0x3c458ac8	0.012057014
110	0xbd02fbf4	-0.031978562
111	0x3c246f07	0.010036237
112	0x3d5ba2d0	0.053622067
113	0xbda8eab2	-0.082478896
114	0xbd442b59	-0.047892902
115	0xbc6f9c54	-0.014624674
116	0xbd0c8905	-0.03431036
117	0xbd1eab28	-0.038737446
118	0x3c7e17a8	0.01550857
119	0x3c73a689	0.014871248
120	0xbc1e0272	-0.009644138
121	0x3d2d0352	0.042239495
122	0xbc6d6665	-0.014489745
123	0xbd52d009	-0.05146793
124	0x3d42b31a	0.047534086
125	0x3c0c0666	0.008546447
126	0xbc583380	-0.013195872
127	0xbd2988da	-0.041390277
128	0x3baada33	0.0052139997
129	0x3a596df9	0.000829428
130	0x3d479a64	0.048731223
131	0xbc5b2b1b	-0.013376976
132	0xbd24f875	-0.04027601
133	0xb9bb8788	-0.00035768398
134	0xbc9aa215	-0.018876115
135	0x3c271350	0.010197476
136	0x3c703b71	0.014662609
137	0xbc94dc0f	-0.018171338
138	0xbd3485c9	-0.0440729
139	0xbbdb8f5c	-0.0067004394
140	0xbcf2de80	-0.029647112
141	0x3c5182e1	0.012787552
142	0x3cda8aa8	0.026677445
143	0xbc837ed5	-0.01605169
144	0x3c91f1d3	0.017815506
145	0xbc0783b6	-0.008271148
146	0xbc8e122e	-0.017342653
147	0xbd08c6f8	-0.033392876
148	0x3d69e48c	0.057102725
149	0xbd9b867c	-0.0759401
150	0x3e836f46	0.25670832
151	0x3d59c6f8	0.053168267
152	0xbd004f3d	-0.031325568
153	0xbd4697c1	-0.048484568
154	0x3cc19050	0.023628384
155	0x3b91d7ba	0.0044507654
156	0x3c6fcafa	0.014635796
157	0xbc93d4ee	-0.018045869
158	0xbc8be39e	-0.01707631
159	0xbc0694bb	-0.008214171
160	0x3d64d027	0.055862572
161	0x3cf0b16c	0.029381476
162	0xbd201d7d	-0.039090622
163	0x3de2b4dc	0.110696524
164	0xbc548d07	-0.012973077
165	0xbd96b291	-0.073582776
166	0xbc3dff2a	-0.01159648
167	0xbbab9a43	-0.0052368953
168	0x398bdd0e	0.00026676845
169	0x3b8a293b	0.004216341
170	0x3bf88d1f	0.0075851823
171	0xbbf15720	-0.0073651224
172	0x3bbc9897	0.005755495
173	0xbcbc0ab9	-0.022954332
174	0xbcf0f22d	-0.029412353
175	0xbd21075a	-0.03931365
176	0xbd07b6d0	-0.033133328
177	0x3babf81d	0.0052480833
178	0xbd481679	-0.048849557
179	0xbcc8434f	-0.024446158
180	0xbc22d5e4	-0.009938691
181	0x3babfad1	0.0052484055
182	0x3c970cf6	0.018438797
183	0x3d855ee0	0.065122366
184	0x3c7826b3	0.015145945
185	0xbd65ef83	-0.05613662
186	0xbd21b632	-0.039480396
187	0xbd6a826f	-0.057253297
188	0x3d511ecf	0.051054772
189	0x3c891086	0.016731512
190	0x3d4f07bc	0.050544485
191	0xbd1c2ac2	-0.038126715
192	0xbc5a159b	-0.013310815
193	0xbd28edbf	-0.041242357
194	0x3c2aa1d4	0.010414559
195	0xbce3c7b3	-0.027805185
196	0xbafde6dd	-0.0019371171
197	0xbce73c9a	-0.02822714
198	0xbcc13cf9	-0.023588644
199	0xbcb4f96e	-0.022091594
200	0xbde15b77	-0.11003774
201	0x3bf632d2	0.0075133825
202	0x3c11491f	0.008867531
203	0x3cb2ee34	0.0218421
204	0xbd058d90	-0.032605708
205	0xbd00d591	-0.031453673
206	0x3c1b17bf	0.009466111
207	0xbb74b842	-0.0037341272
208	0x3bfb702b	0.0076732836
209	0xbd0f8c43	-0.035045873
210	0xbc404661	-0.01173553
211	0xbc981661	-0.018565359
212	0xbcfd72ff	-0.030938623
213	0xbadb4a64	-0.0016730544
214	0x3cadd2ce	0.021218684
215	0x3c3a7d35	0.011382391
216	0x3bad68a7	0.0052920165
217	0x3d18f6cb	0.037344735
218	0x3bd559c9	0.0065109474
219	0xbb21e0ce	-0.0024700644
220	0xbc964584	-0.018343695
221	0xbc05712d	-0.008144659
222	0x3cd1c196	0.025605004
223	0xbcbfa1c8	-0.023392573
224	0x3d2b2587	0.041783836
225	0x3cf0977f	0.029369114
226	0x392211e0	0.00015456183
227	0x3d4239d1	0.04741842
228	0xbb9d61a0	-0.0048028976
229	0x3bba7b22	0.005690948
230	0x3ca6466f	0.020297257
231	0x3c9df35f	0.019281087
232	0xbbb6f133	-0.0055829524
233	0xbc678487	-0.014130718
234	0xbcc054e1	-0.023477973
235	0xbdaad6a6	-0.08341722
236	0x3beb11ec	0.0071737673
237	0x3bb98187	0.005661193
238	0xbd1984a0	-0.037479997
239	0x3ce61395	0.02808551
240	0xbc988039	-0.018615829
241	0xbd8a1016	-0.067413494
242	0x3cd45196	0.02591781
243	0xbb2b37a0	-0.0026125684
244	0x3cfeea0f	0.031117467
245	0xbdb99085	-0.09060768
246	0x3d38254a	0.044957437
247	0x3cb8f926	0.02257974
248	0x3c30b54f	0.010785415
249	0x3dc2836b	0.09497722
250	0xbc528cb9	-0.012850934
251	0xbde42591	-0.11139978
252	0x3d5b9f43	0.05361868
253	0xbc1986fd	-0.009370563
254	0xbc9aa4cc	-0.01887741
255	0x3b4b5b48	0.003102975

actor.6.bias f4 [12]
0	0xbcb0ef8b	-0.021598598
1	0x3cba8893	0.022770202
2	0x3d9f2bd8	0.077720344
3	0x3d7a001e	0.061035268
4	0x3d56772a	0.052359737
5	0x3d1bc382	0.038028248
6	0xbe514da8	-0.2043978
7	0x3dc415ef	0.09574496
8	0x3e0ad8b1	0.13559224
9	0xbe4c3e65	-0.19945677
10	0xbcc1324e	-0.023583557
11	0x3d5f3f12	0.054503508
