src/ga_quadruped/policy/tilt_ss_2k.onnx (onnx, 753433 bytes, 10 tensors)

normalizer._mean f4 [1, 42]
00000000: e770 d33d ea2b 5b3a fbda 57bd b6b8 2dbd
00000010: d1d5 fdbb a4b3 1c3d 7bff acbd 22f7 673d
00000020: ec68 6abd c166 3e3d 6463 a83c 876d 333d
00000030: 7f39 73bc dc94 043c e15f 76bd 01d6 5a3b
00000040: c7d3 313c 43d7 e13c 8eca 2c3d 5d1b f6bb
00000050: ed1e 75bd cb23 dfbb 3190 953c 4b05 683c
00000060: b2b6 2cbd c7f0 863e 5d34 bebe 107b 2a3b
00000070: ec96 fdbe b328 59bf fd9c 013f f077 25bd
00000080: 4577 e73e 040d ecbd 0613 d5bc a967 673d
00000090: dab5 e1be ccb8 213d b306 c33e 7d44 043e
000000a0: f8c0 b33c ba9c 923d
0.10324269 0.0008360731 -0.05269907 -0.042412482 -0.007746436 0.038257256 -0.084471665 0.05663217
-0.057228968 0.046484713 0.020555206 0.043805625 -0.014845251 0.0080921315 -0.06015003 0.0033391716
0.010853714 0.027568465 0.04218536 -0.007510586 -0.059843946 -0.006809687 0.018257232 0.014161418
-0.04216642 0.26355574 -0.37149325 0.0026013292 -0.49529207 -0.8482773 0.5063017 -0.040397584
0.45208183 -0.1152592 -0.026010048 0.056495342 -0.44084054 0.039482877 0.3809105 0.12916751
0.0219426 0.071587995

actor.actor.0.weight f4 [512, 42]
00000000: c60a 9fbd 768a b73d e724 20be a8bf 363e
00000010: 2a7a a9bd be8e 4d3c eefa 8c3e 737f ba3d
00000020: 549e debc ef9e 69ba e2a9 523d df13 bf3d
00000030: b792 d03d 9b51 3c3e a6a5 3e3d 8b3c d5bd
00000040: 14b7 903d 7b94 b13a 0765 38be 1e1c 94bd
00000050: e02d ba3d 2497 c33b c649 06bd 1a36 5abd
00000060: d58a 5fbd 9e65 7b3e 7e55 febd cedc 9ebd
00000070: 1034 98bc 000c 243e 0714 40be d668 38be
00000080: 7488 2d3e 2b9c 9dbc 23a1 14bd 5fa5 153e
00000090: 8fa9 22bd 8351 cc3d f194 0d3c 89fa 12be
000000a0: 06da 123e dc0f 783d d8c5 30be d3a3 9dbd
000000b0: 980f 163e a931 f6bd 8701 13be 3a4d 28be
000000c0: 3a93 0ebe 9414 b7bc cc5b 163e fe36 c8bd
000000d0: 2f30 b93d 06e1 ff3d b4ec 0e3e d068 db3c
000000e0: 2852 f83c c9e1 c6bd ac00 913a 8b55 1fbd
000000f0: 7b84 19bd 3ae4 c0bd d8bb e3bc 0f23 3a3e
00000100: a10a 4bbd 8c83 713d 8724 9ebd 72f7 103e
00000110: 82ec 79bc 8506 d13c 6b47 ed3d 01c5 99bd
00000120: 8ec9 73bd 2bcb 8cbd b7c7 eebc 8e0f 273e
00000130: 1b04 393b 73f1 273e 21a7 6ebd 64f2 e73d
00000140: cee5 ebbd 3837 1cbd e03b 1c3e 70c0 913c
00000150: 14de 933d 9bdd 05bc a4b3 a7bd 1fdb 97bd
00000160: 2a3d af3d 7708 a1b9 812e 493e 1ca0 053d
00000170: 1d92 2a3e 0434 403e 5e57 433d 0788 0d3d
00000180: 4a3c febc 480f b1bd 09d9 16be 544c aa39
00000190: 810c 3cbe 3af2 1fbd 3300 eebd b939 283e
000001a0: f929 a53c f865 783d 1cd6 b9bd c5e5 9c3d
000001b0: 7e65 a43e 9770 543e 7222 02be b0e7 bcbc
000001c0: a5c9 b8bd 7450 1ebe 5bd6 fd3d a015 2abc
000001d0: 0750 c83d 55e8 643d 9c34 323c c539 6e3d
000001e0: b943 593d 8476 f53d 22e2 0abd 3399 3d3e
000001f0: 7e96 403c 5425 22bc 781a be3d 9756 a73e
00000200: f9f5 f73d f12f 49bd 4cd7 43bd c768 1dbb
00000210: 04e7 1bbe 4712 933e 636c 0cbe 388a 8c3d
00000220: 6198 f0bd 311a bebd 7266 38be 2f8c ac3e
00000230: d682 66bd 153b d6bd 5618 d9bc 796b bb3d
00000240: 8a6b ab3c 6b5d d2bd 0afe 4bbc 0f9e 92bd
00000250: 0901 8e3c d3b6 c63d e44c 693e 0476 083e
00000260: 0f29 f6bc 7b05 0cbe ecae 27be 6fbb c2bb
00000270: e9b1 adbd 9756 603d bf6f 7c3e e251 c43c
00000280: ccc5 98bd c398 d7bd 8e2d 1ebd b7a3 f8bd
00000290: c6ee e7bd e1f5 323e 7121 d0bd cdf1 edbd
000002a0: ac07 d63d da50 1d3d ffeb d5bd 4e41 b33d
000002b0: 71c9 26be ef16 a53d f7b4 423e f23e 813d
000002c0: 6ebe 8c3d c9db 0d3e b549 c9bd 1c5f 1fbd
000002d0: 0507 0b3c 5ab1 f1bd 7c5e b03c dc80 3abd
000002e0: 1f49 a0bd 9a8c e33c 3826 89bb 4272 32bc
000002f0: da91 10bc 341f f93d e0bf c0bd c18e ea3c
00000300: f67c c5be 732a 61be 5814 373e 2f2b 8b3d
00000310: 9fae 49bc 2e73 f43d d2cd 9b3b e592 053d
00000320: cec3 33bd a5cb cc3d d51d d2bd 03e8 b1bd
00000330: e379 e3bd fe98 09bd 3b14 a63d c765 e43d
00000340: 30b2 47bc c622 b5bc 71c3 d63d 0fa1 ea3c
00000350: eae9 963d d244 34bd ff47 d4bc 49aa f0bd
00000360: 8e2d 323b 9e05 d1bd 2876 acbd ee9a f43d
00000370: ea62 173e 1593 963d 0fdf b13d b48e 09be
00000380: 4118 253d 987c bc3d 733c 7d3d a32b 95bb
00000390: de52 54bc 7da6 453e 1024 e7bd 0166 79bc
000003a0: b0f5 1fbe 368f 153d c1d8 513e 613a 183d
000003b0: 027c 803d 0d0b 0fbe edc1 393e c9d3 99bd
000003c0: a5d7 dbbd ea08 6b3c df3f e5bc 4541 0dbe
000003d0: 96b6 dc3d 7614 093e ae48 2a3d 415d 27bd
000003e0: 9bf2 ea3d 8c1f 3d3c 2765 15bd f66f 1c3b
000003f0: 8139 5f3e 8e34 26be ccc9 8dbd be32 dabc
-0.07765727 0.08961956 -0.15639077 0.17846549 -0.08275254 0.012546239 0.27535194 0.0910634
-0.027175106 -0.00089119276 0.051431544 0.09329962 0.10184234 0.18390505 0.046544693 -0.10411938
0.070661694 0.0013548279 -0.18007289 -0.072319254 0.09090781 0.005968945 -0.0327852 -0.05327425
-0.05457576 0.24550483 -0.1241865 -0.07756959 -0.018579513 0.16020203 -0.1875764 -0.18008742
0.16946584 -0.019239506 -0.036286484 0.14613865 -0.039712485 0.099764846 0.008641467 -0.14353384
0.14340982 0.060562 -0.17262971 -0.076972626 0.14654386 -0.12021191 -0.14356051 -0.1643571
-0.1392335 -0.02234868 0.14683455 -0.09776114 0.090423934 0.12494092 0.13957483 0.026783377
0.030312613 -0.09711034 0.0011062822 -0.03889994 -0.03747986 -0.09418531 -0.027799532 0.18177436
-0.049570683 0.058963344 -0.07721811 0.14156893 -0.015254142 0.025515804 0.115858875 -0.07508279
-0.05951839 -0.06874689 -0.029147966 0.16314527 0.0028231207 0.164007 -0.058264855 0.11325529
-0.11518441 -0.0381386 0.15257215 0.017791957 0.072200924 -0.008170511 -0.081885606 -0.07414841
0.08556588 -0.0003071462 0.19646646 0.032623395 0.166573 0.18769842 0.04769074 0.034553554
-0.031034607 -0.08645493 -0.1473123 0.00032481796 -0.18364145 -0.039049365 -0.11621132 0.1642827
0.020161616 0.06064412 -0.09074041 0.076610126 0.32108682 0.20746075 -0.12708452 -0.023059696
-0.09022836 -0.15460378 0.12394401 -0.010381132 0.09780889 0.05588563 0.010876801 0.058160562
0.0530431 0.11985496 -0.033907063 0.18515472 0.01175463 -0.009896595 0.09282392 0.3268325
0.121074624 -0.049117986 -0.047812745 -0.002401875 -0.15224844 0.28724882 -0.13713221 0.06862301
-0.11747814 -0.09282339 -0.1800783 0.33700702 -0.05627712 -0.10460488 -0.026500862 0.09151358
0.020925302 -0.10271724 -0.012450704 -0.071590535 0.017334478 0.0970284 0.22783238 0.1332627
-0.030048875 -0.13673966 -0.16375321 -0.005942754 -0.08481199 0.05477008 0.24652003 0.023964826
-0.07459602 -0.10527184 -0.038617663 -0.12140601 -0.11324839 0.17476608 -0.101626284 -0.116183855
0.10450682 0.038407184 -0.10445403 0.0875269 -0.16287781 0.08061015 0.19014345 0.06310834
0.06872259 0.13853373 -0.098285116 -0.038909063 0.00848556 -0.11801405 0.021529429 -0.045533046
-0.07826447 0.027777005 -0.0041854642 -0.010891499 -0.008823836 0.12164155 -0.09411597 0.028632523
-0.385719 -0.2198885 0.17878854 0.06795346 -0.012309699 0.11936031 0.0047547603 0.032610793
-0.043887906 0.099997796 -0.10259596 -0.08686831 -0.111072324 -0.03359317 0.081093274 0.11152225
-0.012188479 -0.022111308 0.10486496 0.028641252 0.07368834 -0.044010945 -0.025913237 -0.11751229
0.0027187797 -0.102061495 -0.08420974 0.11943613 0.14783826 0.073522724 0.08685123 -0.13433343
0.040306333 0.09203452 0.061825227 -0.004552321 -0.01295921 0.19301791 -0.11286175 -0.0152220735
-0.15621066 0.03651353 0.20492841 0.03716505 0.062736526 -0.1396906 0.18140383 -0.07511098
-0.1073449 0.014345387 -0.027984558 -0.1379443 0.10777013 0.13386711 0.04157322 -0.04086042
0.114720546 0.011543166 -0.03647342 0.0023870445 0.2179928 -0.16230986 -0.06923255 -0.026635524

actor.actor.0.bias f4 [512]
00000000: 675a ef3d e895 223c 04cf 0abc b2d2 6abd
00000010: e597 883c 1f73 42be 9db6 123e ed44 e5bd
00000020: 51e3 e2bc 6bb2 23be b2cf 23be f52a 0d3e
00000030: c7c2 05be 9b29 85bd 7a0c 213d 6214 51bd
00000040: c66c 683d 03b7 193e a1f6 ca3d 6dba 123e
00000050: b29b 99bc a565 9c3d 9796 0d3d 6079 c6bd
00000060: 41f1 353e f33b b7bc d7cb 2d3e 9925 aebc
00000070: 1014 58be a361 4a3c 6212 bf3d 5928 ff3d
00000080: a29c e13d 8022 1a3c c19c 16be 23e1 21bd
00000090: e536 843c b91c a23c 7c2c b0bd bfdb febd
000000a0: 6114 47be 5a89 873d a9b6 cebd f442 60bc
000000b0: 41be 453e e5c6 aabd adcc 993c 9424 24be
000000c0: 6796 c5bc 9f8c ab3d 9ff6 a3bd e57c f83d
000000d0: 7814 ff3d 5b4c 76bd 1167 21be 71a9 38bd
000000e0: 3ee4 e3bd 61d5 283d c066 223e 37e9 8cbd
000000f0: be8f 8e3d 5374 32be a6ef 44be 822c 21bd
00000100: 371e 953c 6bf3 89bd a0a4 aebd 0599 27be
00000110: 3506 f1bd 7f6c 67bb c956 703e 5d52 973d
00000120: aa69 d03d 4f43 033d 666d 233d fef0 1d3e
00000130: b906 17be 431d 39be 2043 163e 3bdb 72bd
00000140: ff67 6ebc 182a bd3d 69e4 2ebd d271 653d
00000150: 0792 0d3c a34b 9dbd 378a 5dbd 75eb 093e
00000160: c0f2 6b3e babc 5e3e e8a0 a63d 4839 1c3e
00000170: 2090 cbbd 4cf2 933d 7d56 1dbe 17c3 d53c
00000180: ffbd 6ebd 2bad 12be c1d1 1c3e 7dd5 133d
00000190: b144 133d ce45 8abc 7835 6d3c 14de efbd
000001a0: 3e4d f13c b159 80bd 425a 03be 3e50 ab3d
000001b0: 1ec2 dbbd 3ae2 c1bd 08ed 343d a0fb a23d
000001c0: 0d88 b9bd ac2d e2bd 482c 093e 7d08 50bc
000001d0: bf59 efbd ba23 373e 40b4 f4bd 707f fd3d
000001e0: 6157 fa3d abbc 44be 16f0 eebd 652f 76bd
000001f0: c6d8 fdbd 665d a9bd 1831 c63d ce60 013e
00000200: b2b5 133e 6668 3b3e 9f2b 59bd f849 22be
00000210: 924b 18be 0623 0bbe a794 263e f934 c5bd
00000220: aea1 473e 690e 7c3c dfd2 99bc cdde 233e
00000230: 541a 3e3e 63f8 fcbd 925d 00be 7ec0 afbd
00000240: 1d93 d03c 33a9 223e e8ba 493e ae95 093c
00000250: 52a1 623e 3185 143e aa47 ac3d 2ed2 08be
00000260: a477 96bd 3a0f 413e d55c 7b3c f5aa 023d
00000270: 4cb1 453e 1569 bcbd 33c4 88bd c434 b3bc
00000280: 315c 893c 6410 083e 2fd5 d2bd 0b90 adbd
00000290: bd47 553e 3e73 cf3d 8ec3 c5bc 8196 0a3e
000002a0: 3584 1fbd 7916 cc3d 2659 d9bd 355c 403b
000002b0: 38c3 f2bd ab18 de3c 893e cebd a45e ad3d
000002c0: 8544 69bb 395b 22be 9cb8 b23d e7ae acbd
000002d0: c8c4 b53d 0dc1 a33c 2b7b 253e 7b38 54bd
000002e0: 9495 2b3e a8d1 223e d81c 90bd af9e 543e
000002f0: 3242 3c3e 064e 943d 01f3 b53d 2716 05be
00000300: 11f4 5a3d 1c6c 45bd e465 8a3c 85e5 523e
00000310: 0613 ed3c 6698 603e f58c 23be 0634 3b3e
00000320: 000c 0dbe e372 aa3d 897d 8abd 00c0 f7bd
00000330: 6a8f a5bd ad47 603e 12a4 bebd 4cfb 11be
00000340: 9775 ebbd a6a3 0fbe 5a15 0f3e fe37 88bd
00000350: ff40 02be 83b0 183e 18dc 28be cb69 78bd
00000360: 621f 893d f0bb 943d 10f3 2dbe c96c 973c
00000370: ce76 393e 5a8b aabd fed9 f23b 7e1f bdbd
00000380: 4339 4fbd 3d83 3bbd 0c66 c53d d0b4 df3c
00000390: 8b73 ff3d 05f6 0c3d c925 183d 5422 1ebe
000003a0: e638 0ebe 6f30 233e 37ef 563e 8adf 153d
000003b0: 0379 61bc f500 563e b4a8 033d 822c 883e
000003c0: 54c2 e1bd 5fe0 e3bd 8951 823e da86 59bc
000003d0: 75e9 273e e718 853d 263d d6bd 60f3 b1bd
000003e0: fd3c 583e 1642 973d 1713 cebd 6715 c43d
000003f0: 39d6 12bd 1bc2 d83d 6339 0a3e 9a45 0e3e
0.11687165 0.009923436 -0.008472208 -0.05732984 0.016673991 -0.18989228 0.14327474 -0.11194787
-0.027696284 -0.1598603 -0.15997198 0.13785918 -0.13062583 -0.06502076 0.03931854 -0.05104483
0.05674436 0.1501122 0.09910322 0.14328928 -0.018751 0.07636575 0.03456744 -0.09691119
0.17767812 -0.022367453 0.1697229 -0.021258162 -0.21101403 0.01235238 0.09329678 0.124588676
0.110162035 0.0094076395 -0.14708234 -0.039521348 0.016139457 0.019789087 -0.08602235 -0.12444257
-0.19441368 0.066179946 -0.100934334 -0.013687838 0.19310857 -0.08338717 0.018774355 -0.16029578
-0.024119569 0.08376431 -0.080060236 0.12133197 0.12455076 -0.060131412 -0.15761973 -0.045083467
-0.11127518 0.04121912 0.15859509 -0.0688042 0.069610104 -0.17427187 -0.19232044 -0.039349087
0.018202884 -0.067358814 -0.085274935 -0.16366966 -0.11768762 -0.0035312471 0.23470606 0.073887564
0.10176404 0.032046612 0.039899252 0.15423962 -0.14748658 -0.18077569 0.14674044 -0.059291106
-0.014551162 0.09236544 -0.042698298 0.05601675 0.008640773 -0.07680442 -0.05408689 0.13468726
0.2304182 0.21751681 0.08136159 0.15256226 -0.09939599 0.07223949 -0.15365024 0.026094003
-0.058286663 -0.14323871 0.1531439 0.03609227 0.03595418 -0.016878989 0.01447808 -0.1171228
0.029455777 -0.06267107 -0.128274 0.08364914 -0.10730384 -0.094669774 0.044171363 0.0795815
-0.09059153 -0.110438675 0.13395798 -0.012697336 -0.116870396 0.17884722 -0.119484425 0.123778224
0.122236975 -0.19212596 -0.116668865 -0.060103793 -0.12394862 -0.082697675 0.09677333 0.12634584
0.1442478 0.18301544 -0.053020116 -0.1584853 -0.14872578 -0.13587579 0.16267644 -0.09629244
0.1949527 0.015384295 -0.018777309 0.1600296 0.18564731 -0.123520635 -0.12535694 -0.08581637
0.025460774 0.15884857 0.19700205 0.008397503 0.22131851 0.14503933 0.08412106 -0.13361427
-0.073470384 0.18853465 0.015341957 0.03190132 0.19305915 -0.0919973 -0.06678047 -0.021875747
0.016767593 0.13287503 -0.10294568 -0.0847474 0.20828147 0.101294026 -0.0241411 0.13533975
-0.03894444 0.09965224 -0.10612707 0.0029351835 -0.11853641 0.027111372 -0.100705214 0.08465317
-0.003559382 -0.15855111 0.08726618 -0.084317975 0.08875424 0.019989515 0.16160266 -0.051811676
0.16756278 0.1590029 -0.070367515 0.20763658 0.18384627 0.07241444 0.0888424 -0.12996732
0.053455416 -0.048198804 0.016894288 0.20595367 0.028939735 0.21933135 -0.1597174 0.18281564
-0.13774109 0.08322694 -0.06762225 -0.12097168 -0.08083995 0.21902342 -0.09308638 -0.14256018
-0.11497038 -0.1402727 0.13972989 -0.06651305 -0.12720107 0.14911084 -0.16490209 -0.060647767
0.06695439 0.07262409 -0.16987252 0.01848449 0.18111727 -0.083273605 0.0074112406 -0.09234522
-0.05059172 -0.045779455 0.096386045 0.027307898 0.1247321 0.03441431 0.03714541 -0.15442783
-0.13888893 0.15936445 0.2098969 0.036590137 -0.013761762 0.20898803 0.03214331 0.26596457
-0.11023393 -0.1112678 0.2545283 -0.01327678 0.1639765 0.0649889 -0.10460882 -0.08688998
0.21117015 0.07385652 -0.10062235 0.09574395 -0.03584883 0.10583898 0.13498454 0.13893738

actor.actor.2.weight f4 [256, 512]
00000000: b8fb b83c a26f 5abd 3380 6e3c 27b3 cd3c
00000010: 7c7a d3bc bf4e 0f3d 0129 ac3d 4f6f e9bc
00000020: ecda 61bc 3112 b1bc 6de9 e93c 4a39 ff3c
00000030: 8d76 0c3d aea8 143d 5806 123d 62c3 59bd
00000040: 43b8 5abd 5a40 c53c bc26 2cba 4082 17bd
00000050: 4e30 70bb 9c1a 72bd 7963 87bb 0a35 0f3d
00000060: 3831 e03c ba1d 6939 d1c8 b33d 494f efbd
00000070: 7ead 69bd a919 f6bb 0c56 61bd 6c7e 3d3a
00000080: ff6a 28bd 4305 333d 198e cbbb c0ec eabc
00000090: b5b5 2dbc 0630 9a3d e3b8 0dbe 4261 79bd
000000a0: 80de 8cbd c03e 44bd 3c39 7fbc 6b93 7a3d
000000b0: 786f 99bc 30cf e937 92ab d33c 2426 f2bc
000000c0: 1105 a8bc 042f a63d 8aeb 1cbd 4c3d 15bd
000000d0: 2226 a43d efa0 ffbc 3077 623d ad8d a93c
000000e0: 2823 4abd ea82 453d 6f9e 1b3d 0396 08bd
000000f0: 9f86 f13d 03ae 1b3d b09a dc3c 171b 8cbb
00000100: a3f1 b5bd c27e 1cbe 6324 ad3c 2fa5 cb3a
00000110: 64d3 8a3c 3670 b2bc 00b5 313c ece2 b1bd
00000120: 6bda b8bd 0a21 e03c 04e6 35bd 8d93 283d
00000130: 85b1 d9bd f3f9 b6bd a3df a6b9 6cf4 b63d
00000140: b857 b1bb d193 e0bc f3e6 b33c 84d2 49be
00000150: b7bb 3fbd 1fc8 3c3d 384b cf3c 037b 2fbd
00000160: 3c0a 5b3d a1e5 9a3c 0573 91ba 8922 65bd
00000170: 7344 d1bc f0b3 6b3c b32d 17bd 4975 87ba
00000180: ecd1 eebc 423c 99bd dfbd b0bc 4ae2 dcbc
00000190: ee17 13be ef4b 5fbc f7e3 1d3b 2cf3 533c
000001a0: 53eb 263b 1a89 c6ba c1ad 713c b64e 01b9
000001b0: 8b27 a23c d061 1a3d 36e8 a2bd a0bf 783d
000001c0: 77fb d73b 58dd b93c 2e19 4c3c 2a35 8c3d
000001d0: 4d7a 8a3c 367a cebc 1816 163d 6b73 9ebd
000001e0: cc4f ab3d 8d73 adbc 4d45 43bd 0457 0fbd
000001f0: eb3e 12bd cc6a d2bc 7766 26bd b3eb 223d
00000200: b97e 0e3d bd08 803d c3cf b43c db54 813d
00000210: f050 fc3c 6fbe d93d 1b9b 4f3d 3ea9 60bd
00000220: 470e 10bd 6c58 5cbd aa7d a0bd b242 32bd
00000230: 0d74 373d fa24 93bb a8fc acbd 22e0 5ebd
00000240: 109a aebb f811 adbd 95b6 8f3b b0fe de3c
00000250: 632e 513d 9afb e0bc 65f3 5c3d 84fc dd3c
00000260: 360f 8fbc 9d7e 2ebd e492 523d 83df 13be
00000270: cff0 d63d f8b9 81bd c314 a9bb 62c2 473b
00000280: d84d 42bd 984c 00be 3a82 043c 2236 e2bc
00000290: 4c20 593d 906a c33d 3044 2bbd 6334 3cbe
000002a0: 395a 833d e2a0 01bd ff9a c0bd 0c7b c9bc
000002b0: 0096 a3bd 5425 553c ba0a b0bc 54a0 063d
000002c0: c0bf bcbd b76f e6bc 52d2 afbb db81 7d3c
000002d0: 0df2 e1bc 1a8e 6ebd 4059 f83c 1103 c8bd
000002e0: f311 d6bd 1744 36bc ceb3 25bc d74d 72bd
000002f0: e571 143c 67c6 c93b 7a8e 613c de17 68bd
00000300: e400 a8bd 9658 213d b248 963d 7a06 e33c
00000310: 7928 6ebc 43f8 813c 5135 023c 9464 093d
00000320: 2b31 c1bc fcda 4cbc faba e63c 15e4 aabc
00000330: e2dd dabc c78a 8b3d 07a1 cd3d f017 08be
00000340: 09b5 bb3d f9e8 063b 2624 19bd 0b40 663d
00000350: 2a89 18bd cc8e 2bbd cc7b 7d3c d577 f3bc
00000360: adee 92bd f990 3cbd 66c4 ffbc b04b 25be
00000370: 8799 43bd 1c38 86bc b8e1 593d 93b2 a4bc
00000380: 49d6 1a3c 6482 193d de5e 95bc 6946 25bd
00000390: 4be9 60bc 66e5 acb9 93ea a1bd 5784 83bd
000003a0: 4076 01bd 596d 60bd 2e1e a9bb a22e 7abc
000003b0: 1fa0 2b3d d23b c43d f3c8 ff3c 0dbe 793d
000003c0: 0ff9 68bb d8bd 2ebd 0a0e 7b3c 72e4 043e
000003d0: 7ddb 403c 6b26 83bc 0b72 7c3d dcf9 b13c
000003e0: dda5 1cbd 25dc 7abd 25b8 0bbc 0c52 2bbd
000003f0: 09f0 80bc 37e7 2f3d 3d25 8c3c 5329 eabb
0.022580966 -0.053329118 0.014556932 0.02510984 -0.025815241 0.034987208 0.084062584 -0.028495459
-0.013785105 -0.02161512 0.028553689 0.031155247 0.034292746 0.036293678 0.03565058 -0.053164847
-0.053398382 0.024078537 -0.0006567051 -0.03698945 -0.0036649886 -0.059107408 -0.004131731 0.03496269
0.02736722 0.00022231686 0.08778537 -0.11685044 -0.05705022 -0.007510383 -0.0550137 0.0007228616
-0.041117664 0.04370619 -0.0062120077 -0.028677344 -0.010602404 0.07528691 -0.1384006 -0.060883768
-0.06878376 -0.047911406 -0.015577611 0.061175745 -0.01872991 2.7872244e-05 0.025838647 -0.029559202
-0.020510228 0.08114436 -0.038310565 -0.03643541 0.08015086 -0.031204669 0.055289447 0.02069744
-0.049349934 0.048220553 0.03799289 -0.033346187 0.11793255 0.038007747 0.02692923 -0.0042756903
-0.08883979 -0.1528273 0.021135515 0.00155369 0.016946502 -0.021782022 0.010846376 -0.0868586
-0.09026035 0.027359504 -0.044408813 0.04115634 -0.10629562 -0.08934393 -0.0003182861 0.089333385
-0.005412068 -0.027414234 0.021960711 -0.19709212 -0.04680988 0.046089288 0.025304422 -0.042841922
0.053476557 0.018908324 -0.00110969 -0.05594114 -0.025545334 0.014386162 -0.036908817 -0.0010334636
-0.029152833 -0.074821964 -0.021574913 -0.026963372 -0.14364597 -0.013628944 0.0024092176 0.012936395
0.0025469854 -0.0015147061 0.014750899 -0.00012331721 0.019794246 0.037690938 -0.07954447 0.060729623
0.0065912562 0.022688553 0.012457175 0.06846078 0.01690402 -0.02520476 0.036642164 -0.07736858
0.083648294 -0.021173263 -0.047673512 -0.034995094 -0.035704535 -0.02568569 -0.04062506 0.03977556
0.03478882 0.06251667 0.022071725 0.06315013 0.030800313 0.106320255 0.05068503 -0.054848902
-0.035169866 -0.053795263 -0.078364685 -0.043520637 0.04478841 -0.004490492 -0.08446628 -0.05441297
-0.0053284243 -0.08450693 0.004385779 0.027221054 0.05106963 -0.027463723 0.053943057 0.027097948
-0.017463308 -0.042601217 0.051409617 -0.14440732 0.10495149 -0.06334299 -0.0051599457 0.0030480851
-0.04743752 -0.12529218 0.008087689 -0.027613703 0.053009316 0.095418096 -0.041813076 -0.18379359
0.06413693 -0.03164757 -0.09404563 -0.024594806 -0.079875946 0.013009388 -0.02148949 0.032867745
-0.09216261 -0.028129442 -0.0053656483 0.0154728545 -0.02758124 -0.058240987 0.030315995 -0.0976621
-0.10452642 -0.011124632 -0.01011367 -0.059156265 0.009060358 0.0061576846 0.013766879 -0.056663387
-0.08203295 0.039391123 0.07338084 0.02771305 -0.014536017 0.01586545 0.007947282 0.033543184
-0.023583015 -0.012503382 0.02816533 -0.020860711 -0.02671713 0.06813579 0.10040479 -0.13290381
0.09165389 0.002058564 -0.03738799 0.05621342 -0.037240185 -0.04188423 0.01547141 -0.029720226
-0.0717443 -0.046036694 -0.03122158 -0.16142154 -0.047753837 -0.016384177 0.053193778 -0.020104682
0.009450504 0.037477866 -0.018233713 -0.04035035 -0.013727496 -0.00032977312 -0.079060696 -0.06421726
-0.031606913 -0.054791782 -0.0051610684 -0.015269907 0.04190075 0.09581722 0.03122375 0.060972262
-0.003554884 -0.042661518 0.015323171 0.1297777 0.01177108 -0.01600953 0.061632197 0.021725588
-0.038244117 -0.061245102 -0.00852779 -0.041826293 -0.015739458 0.042945113 0.0171076 -0.0071460395

actor.actor.2.bias f4 [256]
00000000: a7d9 b7bc 6223 873d 0dfe 47bc 1da1 d33a
00000010: 8fae c7bc 4bb7 9bbd 35f5 22bd cf91 b0bc
00000020: c2de 003c 21bb 62bd 05a5 253d a0a4 9cbd
00000030: 25e3 f03b 99c3 87bd a135 9cbc efcd ddbc
00000040: 4094 703c efab 2b3d d20c 7fbd 85e8 febb
00000050: c57c dfbc 4239 6bbd 8434 f8bb 94a8 0cbd
00000060: a0af b9bc 9ea1 0b3d 5205 cb3c dab8 ad39
00000070: 67fd 32bd b9cc d7bd 3815 80bd 41c2 913c
00000080: 7f1c 95bb fae6 80bd daa0 67bd 1cb8 32bc
00000090: dbd5 c5bc a5a7 e4bc 01fa 993c d790 c539
000000a0: 2a95 12bd 77d9 cfbc e210 3abd b1ee 12bc
000000b0: 18eb b63c 960d 0a3d 116a 0b3d f249 a3bc
000000c0: 6200 bebc 0717 063d 91dd 8ebd 4b47 80bd
000000d0: 89e2 f93c ecd0 a93c 29aa 0abc a0ef 50bd
000000e0: 617b 75bd b13b c6bd 99e7 86bd d9b8 d1bd
000000f0: 0cc4 5c3d 6fd3 9a3c 6611 88bd 36a6 6bbd
00000100: 5ba7 703b ee6f 043c e142 8ebc 0a96 8fbd
00000110: f785 a33d 5283 313d a72f 5dbd 0ac0 7ebd
00000120: 7bd5 103d 0116 ea3c 7be6 ac3d 80c2 fc3d
00000130: ee3a 8c3d aa06 d6bd 0e2e fcbd 58cf 033b
00000140: 3829 8bbb f1fa 7c3d 625b 263d 5e18 10be
00000150: 6575 a0bd da9c 503d 5abd 5e3c a611 9ebd
00000160: c0b5 debd 40c6 1ab9 3a5a 33bb 4798 82bd
00000170: e851 1c3c e30e 10bc 3796 30bd 9865 d33c
00000180: d530 09bd c655 6a3d 403d 0ebe bb02 90bd
00000190: 0c94 8f3c ca79 1cbc e4aa 923c 101f bcbd
000001a0: 97a1 7cba 3384 f0bd 699f 91bc 5ecc 623c
000001b0: 150e 8ebd 8f7e 663c 871b aebc d461 e63b
000001c0: aed5 0c3d c642 bfbd 42d1 63bd d426 93bc
000001d0: 6bdd 69bd 9b7d 7fbc 755a 403d f0c0 d7bc
000001e0: 7629 96bd 4fb9 7ebd 4e0d c8bd 3e7d 66bc
000001f0: 3e9d f6bd bcef 27be 5fef be3b 74ef c0bd
00000200: ebee 673a e884 d1bd 67c1 503a 4294 f4bd
00000210: 0666 603c 6f47 f2bc 89d5 80bd 2e70 8e3c
00000220: ab37 41bd 54e7 c7bd 0dcd 79bd fbfe 95bd
00000230: 3355 d53c 6789 a2bd f33a 5abc 1e42 18bd
00000240: ac3e 3c3c 8d1e de3c 8ad4 8ebd 8f37 0e3a
00000250: bb42 643d 893d 3e3d 8882 883c 7bbe 8bbc
00000260: ab1a 9fbd f36f 5ebd edc6 a63d 55c7 623d
00000270: 9271 76bc 4399 3abd a3a4 923d e2d3 77bc
00000280: 1d9d 19be e225 f0bc 8052 c1bd 3e3e efbc
00000290: 4625 7dbc 4d63 78bb 6178 803d 0278 99bc
000002a0: 2c54 abbd 899f 3abd 34bf cdbc 7a0e 3ebd
000002b0: fbf9 58bb 2b8b 8bbd 6d75 913c 0d97 17bd
000002c0: dbdd b2bd 538e a2bc 74ad 843d c30d f1bc
000002d0: 9e68 ddbd 1979 52bd dddd 5d3d a5b9 b4bb
000002e0: cf0f 10bd 3f31 ef3c fc7e 16be a9d9 6b3c
000002f0: bb13 8dbd 55b6 00bc 1321 18bd 0ac9 bbbc
00000300: 096a 14bd 272a 89bd ab54 48bd 3c79 123d
00000310: 428c 44bd ad07 be3d 56f5 85bd 53c1 5ebd
00000320: 6386 8d3d 778a 173c 8e27 41bd 5fee cbbd
00000330: eef6 92bd 1d33 34bb 0a04 bd3c c05c 2ebd
00000340: 8144 2e3d fabc 333d 6186 9c3c c8dc 8abd
00000350: 3dec c93c 01ea 6dbd 0be2 423d ef61 d2bd
00000360: 1920 92bc 0910 863c c0c9 08be d908 913c
00000370: 4bfa 19bd 21ed afbc 5ecd 743c e246 13bd
00000380: 3462 3a3d ef2c 10bc 2c05 f1bc abdd d8bd
00000390: db19 32bd 5759 58bd c279 54bd 19e2 873c
000003a0: 39ca fbba a96d 763c 3c62 6fbd 2833 543d
000003b0: 0125 143d 204d 543d 739d e6ba 4ccb b7bd
000003c0: 2876 3bbd 86d1 54bb cd9e 8abc 2c65 35bd
000003d0: 469f 553d 6a37 f7bc 3d1b 91bb a17a 473d
000003e0: 920d b0bd 3f9c c93d 19cd 1bbe 59fb a5bd
000003f0: 8d94 043d 7354 1b3d 66ec b9bd b2c9 39bd
-0.022442652 0.065985456 -0.0122065665 0.0016146038 -0.024375228 -0.0760332 -0.03978463 -0.021553902
0.00786561 -0.05535424 0.040440578 -0.07648587 0.0073512965 -0.06629104 -0.019068541 -0.027075736
0.014683783 0.041912016 -0.062268086 -0.0077791833 -0.027281174 -0.057427652 -0.0075746197 -0.034340456
-0.022666752 0.034089677 0.02478281 0.00033134856 -0.043698695 -0.105370946 -0.06254047 0.017792823
-0.004550516 -0.06294055 -0.056549884 -0.010908153 -0.024149826 -0.02791197 0.018795969 0.00037682682
-0.035786785 -0.02537225 -0.045426257 -0.008968041 0.022328898 0.033704363 0.0340367 -0.01993272
-0.023193542 0.032736804 -0.06975854 -0.06263598 0.030503528 0.020729505 -0.008463421 -0.051009774
-0.059932116 -0.09679354 -0.065871425 -0.10240335 0.053897902 0.018899648 -0.066439435 -0.057531558
0.0036720845 0.008083327 -0.017365875 -0.070110396 0.07984536 0.043338127 -0.054000523 -0.06219486
0.03535984 0.028574945 0.08442398 0.123417854 0.068471774 -0.1045049 -0.12313472 0.00201126
-0.004246857 0.061762754 0.040614493 -0.14071795 -0.07834891 0.050930835 0.01359495 -0.0771821
-0.1087451 -0.00014760438 -0.0027367012 -0.06376701 0.009541012 -0.008792612 -0.043112006 0.02580528
-0.033493835 0.057210706 -0.13890553 -0.07031771 0.017526649 -0.009550521 0.017903753 -0.09185612
-0.0009637116 -0.11743965 -0.017776208 0.01384267 -0.0693628 0.01406826 -0.02125336 0.007030705
0.03438347 -0.09338908 -0.055619486 -0.01796285 -0.057095926 -0.0155939115 0.046961267 -0.026337117
-0.07332127 -0.062188443 -0.09768163 -0.014067946 -0.1204171 -0.16400045 0.005826875 -0.09420672
0.0008847552 -0.10230428 0.00079633895 -0.119423404 0.013696199 -0.029575078 -0.062907286 0.017387476
-0.04717223 -0.09760919 -0.060986567 -0.07324024 0.026041603 -0.07936364 -0.013319719 -0.03717243
0.0114895515 0.027114177 -0.06974132 0.0005425149 0.0557277 0.046445403 0.016663805 -0.017058602
-0.077687584 -0.05430598 0.08143411 0.05536588 -0.015041726 -0.045556318 0.07160308 -0.0151262
-0.1500134 -0.029314939 -0.09439564 -0.029204484 -0.015450781 -0.0037900985 0.062729605 -0.018733982
-0.08365664 -0.0455623 -0.025115587 -0.046400525 -0.0033107984 -0.068136536 0.017756188 -0.037009288
-0.08733722 -0.019843256 0.06478396 -0.029425507 -0.1081097 -0.05138502 0.054166663 -0.0055152946
-0.035171326 0.029198287 -0.14696878 0.014395156 -0.06888529 -0.007855971 -0.037140917 -0.022923011
-0.036233936 -0.06697493 -0.04890887 0.03576015 -0.047985323 0.09278808 -0.06540935 -0.054383587
0.06910398 0.009249321 -0.047156863 -0.09957575 -0.07176004 -0.0027496286 0.023073215 -0.042568922
0.0425458 0.043881394 0.019107046 -0.06780392 0.02464878 -0.05808449 0.047578853 -0.102725856
-0.017837571 0.016365068 -0.13358212 0.017704414 -0.037592214 -0.021475377 0.0149415415 -0.03595627
0.04550381 -0.0087997755 -0.029421411 -0.10589155 -0.04348169 -0.052819576 -0.05187393 0.016587304
-0.0019210047 0.015040793 -0.058443293 0.0518066 0.036168102 0.051831365 -0.0017594531 -0.08974323
-0.04576698 -0.0032473519 -0.016921425 -0.04428594 0.052153848 -0.03017779 -0.004428296 0.048700932
-0.08596338 0.09844255 -0.15214957 -0.081045814 0.03236823 0.037922334 -0.090782925 -0.045358367

actor.actor.4.weight f4 [128, 256]
00000000: b247 2fbd 118f acbd d218 d33c df1e 913c
00000010: c125 77bd 5cf2 b2bd 96cf 0fbd 5f5f 55ba
00000020: 01ed 723d b99b b9bd 1dfa 91bc 81ae 0d3c
00000030: df26 6f3b ffc4 26bd a036 dcbd 7e03 033e
00000040: 1db5 a23d 0242 313d 0e22 1bbd e7ab 55bd
00000050: 538d d5bc 3443 fbbc 88fb 9abd 26b6 c8bc
00000060: 3502 5e3d 515a 8d3c 8046 fb3c 1bf2 3ebd
00000070: 2a97 f23c 7d0e af3b 3e36 073b 412c 2dbd
00000080: 2bb9 05bd f1bc 033d 5654 bbbd 623d 83bc
00000090: ed33 2c3d f30a 97bc 27f4 bf3c 6bc5 5d3c
000000a0: 1cd7 913d 0be5 333b 68cc ed3c 46d6 85bd
000000b0: 0b20 11bb d8de 7dbc a126 17bd 18fa 313d
000000c0: ceca 093d 6c78 8f3a 1e2d 0f3c 01e6 013d
000000d0: 5195 b23d a0ab 96bc 84d2 56bc b552 6e3d
000000e0: de74 ce3d 7175 a13c fa83 36bd 240b 84bd
000000f0: 42d8 61bd 2903 553d 048f c63d bed7 833d
00000100: f02b 0b38 ff02 8b3d 436d 14bc 834c 4fbd
00000110: d752 d3bd 800c 2bbd 9264 20bd 7e07 14bd
00000120: e2f3 743d ddd7 78bd e67c 6cbd 148b fcbb
00000130: d1fb 213d 27b9 213c 9c24 5abd 9e7c 3bbc
00000140: 0a93 db3c 52e9 f83a 1d0a 62bd af61 50bd
00000150: dca1 263d 28d2 1b3d e238 2e3d 4433 08bc
00000160: 0ff3 f8bb 6b53 7a3c 99df 513d 14bb 92bd
00000170: 6042 6fbd 8b58 5fbd 3f6f 333c 644d 31bc
00000180: 575d 83bd 347c 843c 7e8f d4bd d970 1fbc
00000190: 13b2 77bd 4245 9fbc 3b0a 30bc 09d3 f3bc
000001a0: ec1d 85bc 592b da3b db2a 07bd 7bcf 22bd
000001b0: 8bbe 2ebd dd6f 4f3d c78d f5bc 155e fa3b
000001c0: 1604 aabd 8964 9abb d717 21bd 5074 6d3b
000001d0: 927d 06bd 31ce 293d 1f47 9abd f0ad a93d
000001e0: ca09 573d dc65 413c d600 69bb 4d86 973d
000001f0: 6c9b 2f3a 8f04 f33c 782b 24bd ec26 06bd
00000200: 0b29 8d3d 5249 1dbd 293d 463d b8d8 9dbb
00000210: 60aa 043d 0975 2ebc bcb9 77bd c965 913c
00000220: 41fc 3ebd ffe9 8a3c f0b1 8ebd 8388 c7bc
00000230: 51f4 163d 6528 11bd 84ea a4bb bf20 813c
00000240: abb3 6fbd 91c2 303d e542 9d3d c49c b43a
00000250: 03ae 64bd 93ee d03c 2000 8e3c f221 4bbb
00000260: f47f 543d df2e 3fbc f669 cf3c dedb 4fbd
00000270: d33f 343d 77b9 063d 1cc8 963c 4762 323d
00000280: 2c23 4bbd dc09 a1bc d9b2 ea3b e4dd b6bc
00000290: 14ce 1bbc 111f cc3d 7f43 213c 9037 813d
000002a0: 59d6 333c 56fc 77bc d6c3 4fba 919e 03bd
000002b0: 94b2 10bb fa73 6ebd 9cb3 07bc 5050 5fbd
000002c0: c4a5 8fbd 97c3 953d 634c 6abd b203 27bd
000002d0: c3da a83d 16c5 963d 6835 623d 8739 c7bd
000002e0: 6c3c 2ebc 5262 303d 34fb 2ebd ce98 52bd
000002f0: 08b2 b03d d10b 6e3d 1f91 c73c 8b08 65bd
00000300: b403 023d e836 943d b4e0 cc3a c0af 09bd
00000310: bab5 af3c 8857 103c 4a6b eebb e96e 783d
00000320: 784f 41bd cfd0 7bbd 0280 cbbb 588b 323b
00000330: 88cf 11bd b368 e03a 7aa8 033d f64e 8cbb
00000340: 1d01 6d3c 6c60 e9bc 48e8 303d 475c f73c
00000350: 0665 3b3d c566 f33b 9150 c43b 3602 03bb
00000360: d943 95bc 7033 76bd 3222 323d 8093 98bd
00000370: ae93 a0bc 307b 83bc 303a a9bc 4006 7d3d
00000380: 785b 443d 06cd febc 7897 823c 2dcd aebd
00000390: 11d1 303c 2343 873c b4ce 163c 2d48 50bd
000003a0: e3f1 5dbd 2720 703d 3f5b ddbc 1557 8abc
000003b0: 01f9 23bd 329e 2f3c b889 30bc 6510 2cbd
000003c0: 8b90 e23b 5ec1 103d 78b3 c6bc 7b6b d0b9
000003d0: 6b85 48bd 0ae6 30bd 5ff2 d23c cf37 30bd
000003e0: ea3a bcbd 1a99 bfba cc2e 59bd 4458 a43d
000003f0: 89bf 74bc 4271 c23c a818 03bd a5de b83c
-0.042792983 -0.08425725 0.025768671 0.017714916 -0.06033874 -0.08737633 -0.03511008 -0.00081395166
0.059308056 -0.09062905 -0.017819459 0.008647562 0.0036491675 -0.040715214 -0.107526064 0.12794301
0.07944701 0.04327584 -0.037874274 -0.052165892 -0.026068365 -0.030671693 -0.07567507 -0.024500918
0.054201324 0.01725498 0.030673265 -0.04661761 0.029613096 0.0053423033 0.0020631696 -0.042278532
-0.032647293 0.03216261 -0.09146945 -0.01602048 0.042041708 -0.018437838 0.02343185 0.013535838
0.07121107 0.0027449753 0.029028133 -0.0653501 -0.0022144343 -0.015495025 -0.036902074 0.0434514
0.033640675 0.0010945923 0.008738784 0.03171349 0.08719886 -0.018392384 -0.013111714 0.058184344
0.100808844 0.01970932 -0.044559456 -0.064474374 -0.05513788 0.052004967 0.09695247 0.06437634
3.3181102e-05 0.06787681 -0.009059253 -0.050610077 -0.10318535 -0.041759968 -0.03915841 -0.036139958
0.059802897 -0.06075274 -0.0577363 -0.007707009 0.03954679 0.009870804 -0.05325757 -0.011443285
0.026803512 0.0018990433 -0.055185426 -0.05087441 0.040681705 0.038042217 0.042534716 -0.008313004
-0.007597334 0.015278677 0.05123863 -0.071645886 -0.05841291 -0.0545278 0.010951816 -0.010821674
-0.064142875 0.016172506 -0.103789315 -0.009731495 -0.06047256 -0.019442204 -0.010744627 -0.029763715
-0.01624962 0.0066579995 -0.032999855 -0.03974865 -0.042662185 0.05064379 -0.029974831 0.00764061
-0.083015606 -0.0047116918 -0.039329376 0.0036232658 -0.032834597 0.041456405 -0.075330965 0.08285129
0.05249957 0.01180407 -0.0035553477 0.07398663 0.000669888 0.02966526 -0.040080518 -0.032751963
0.06892594 -0.0384 0.04839817 -0.0048170947 0.032389045 -0.010648021 -0.060479864 0.01774873
-0.046627287 0.016957281 -0.06967533 -0.024357086 0.036854092 -0.035438914 -0.0050328393 0.015762685
-0.058520954 0.043154303 0.07678775 0.001377963 -0.055830013 0.025504386 0.017334044 -0.0030995575
0.051879838 -0.01166889 0.02531908 -0.05074679 0.04400618 0.032891717 0.018405966 0.043550756
-0.04959409 -0.019658022 0.0071624336 -0.022322603 -0.009509582 0.09966863 0.0098427525 0.06309426
0.010976397 -0.015135845 -0.0007925605 -0.032133643 -0.0022079097 -0.058216073 -0.008282568 -0.05451995
-0.07014039 0.073126964 -0.057201754 -0.04077501 0.082448505 0.0736181 0.055226713 -0.09727769
-0.010634523 0.043062516 -0.042720035 -0.051415257 0.08627707 0.058116738 0.024361191 -0.05591635
0.031741813 0.07237035 0.0015630932 -0.033614874 0.021448959 0.008809932 -0.0072759734 0.060652647
-0.047194928 -0.061478432 -0.006210328 0.00272437 -0.035598308 0.0017121047 0.032143094 -0.004281874
0.014465597 -0.02848836 0.04319027 0.030195368 0.04575064 0.0074280226 0.0059910496 -0.0019990331
-0.018220829 -0.06010765 0.043489642 -0.074500084 -0.01960167 -0.016049951 -0.020657629 0.06177354
0.047938794 -0.031103622 0.015941367 -0.08535228 0.010792033 0.016511505 0.009204555 -0.050850082
-0.05418576 0.058624413 -0.027021049 -0.016887227 -0.04003239 0.010718869 -0.010775022 -0.042007823
0.0069142035 0.03534066 -0.0242555 -0.0003975293 -0.048955362 -0.043188132 0.025750337 -0.043021973
-0.091909245 -0.0014617771 -0.053023145 0.08024648 -0.014938244 0.023735646 -0.032005936 0.022567103

actor.actor.4.bias f4 [128]
00000000: abcc aebc 4afd 303d 60b7 45bd 5934 babd
00000010: 1db3 33bd e9e1 553c b311 94bd 4b63 79bd
00000020: f442 94bd 5037 e93c 1459 883d 2111 a73c
00000030: 09d8 8d3d a9c2 09be 0bd4 bebd 19e2 d2bd
00000040: e5f1 62bd 6069 7cbd 961d 8cbd ff39 e0bd
00000050: eef7 71bb 819c ee3b aa6e 0d3d 8edb 6bbd
00000060: 8488 28bd 80e6 59bc 661d 06bd f61e 083c
00000070: 78df c8bd 1370 17bd 8c24 653d 3ce3 c4bd
00000080: 74f2 013d 32f2 3abd 63bf 00bd 3227 75bb
00000090: 8c36 4abc 1ac1 543d 6f17 49be 01ee e7bc
000000a0: 1b48 b4bd 8fb6 25bd bd22 f0bc fb16 09be
000000b0: 11a3 31bc b828 d3bb 3c8d 6cbd 510d b63c
000000c0: 911b 233d 7548 07bd b191 d2bc 2e2e f83c
000000d0: 80bd 6abd feb9 fcbc 91e8 c9bd 3f69 98bd
000000e0: db77 5f3d 29ce b43c 0b31 f7bc a767 06bd
000000f0: 8547 183d 4d46 1ebd 0dc7 653d c2f8 8f3d
00000100: c65b 3cbd 3539 b3bd 9f0e 643c f95a cebb
00000110: e06a 533c 032f 913d 7410 e93c 72c2 adbd
00000120: 59a7 23bc a741 853d c492 7fbd 9cdd beba
00000130: 90cb 873c 62e8 113c f815 4e3d 9a3a 4bbd
00000140: db0d 9ebd 30f9 ac3b b385 a73c 5b65 8abd
00000150: 651f d6bd 5d82 17bd 6842 f7bb e2b7 96bc
00000160: 524e a7bd c82e b3bd d8f1 8dbd bb34 18bd
00000170: a73c 883d e547 83bd 0435 6d3c e263 b9bd
00000180: cc91 3ebd d304 c5bc e8d7 5dbd c2c0 a6bc
00000190: 48f9 49bc 5349 13bc 74ba 38bd e320 82bd
000001a0: a564 10bd cae9 cabd a9dc 65bd 0abc c3bc
000001b0: 0339 20bd c38c 583d 84c7 2abc 86a2 f9bc
000001c0: da26 063d 6ff0 803c e6d9 8dbd 829c 5f3d
000001d0: 7247 37bd 997f eebd dc47 1f3d 345c f7bd
000001e0: dbff 88bd d60a 05bd b90d d03c 4063 ae3d
000001f0: 2865 8d3b c37e 74bd a833 afbd 9b59 37bd
-0.021337828 0.043210305 -0.048270583 -0.09092016 -0.043871988 0.013054349 -0.07229938 -0.06088571
-0.07239333 0.028468758 0.06657615 0.02039391 0.06925971 -0.13453163 -0.09317788 -0.10297031
-0.05540647 -0.06162393 -0.068415806 -0.10948562 -0.003692146 0.0072818403 0.034529366 -0.05758243
-0.041145816 -0.013299584 -0.03274288 0.008308163 -0.09808248 -0.036972117 0.055943057 -0.09613654
0.031725362 -0.04564113 -0.03143252 -0.0037407395 -0.012342107 0.05194197 -0.19637845 -0.028311731
-0.088028155 -0.040457305 -0.02931344 -0.13387673 -0.010842101 -0.006444063 -0.05775188 0.022223147
0.03982121 -0.033028085 -0.025704237 0.030295458 -0.057309628 -0.030850407 -0.09858812 -0.07441949
0.054557662 0.022070961 -0.030174753 -0.032813694 0.03717758 -0.038641263 0.056098033 0.07029869
-0.04598596 -0.08751146 0.013919502 -0.006297466 0.012903899 0.07089045 0.028450228 -0.08484353
-0.009988629 0.06506663 -0.062395826 -0.0014561894 0.016576558 0.008905502 0.05031392 -0.049616434
-0.077174865 0.005278729 0.020449495 -0.06757613 -0.10455207 -0.03698956 -0.007545758 -0.018398229
-0.08169235 -0.08749157 -0.06930894 -0.037159663 0.066521935 -0.06410197 0.014477972 -0.09052254
-0.04652576 -0.024050152 -0.054160982 -0.020355586 -0.0123275 -0.00898965 -0.04509969 -0.06353929
-0.035252232 -0.09907873 -0.05611864 -0.023893375 -0.03911687 0.052868616 -0.010423545 -0.030473005
0.032751895 0.015739648 -0.069263265 0.054592617 -0.04474587 -0.11645431 0.03888689 -0.12078133
-0.066894256 -0.032481037 0.025397168 0.08515024 0.0043150373 -0.059691202 -0.085547745 -0.04476319

actor.actor.6.weight f4 [12, 128]
00000000: 866b 6f3c 69ee 0abd 55cd fcbb 6548 e9bd
00000010: b1e5 8bbd 3d5a 9abb ea02 e23b cfee 37bd
00000020: 8127 d5bd a244 d33c 2a8e 90bc ebb3 e03c
00000030: aa8e 583b 2cfb 2cbd dba1 71bd 4f7d 67bd
00000040: 343d a8bd bc31 91bc 15e4 95bd 0a44 8d3c
00000050: 41f1 dcbd 4b94 b13c 73a4 7a3d 6ef4 8b3c
00000060: 736c 043d 843c 383d 2606 333d 0ebd 60bd
00000070: 69b7 3cbd 181f 563d db37 863d 6f51 8dbd
00000080: d32f 80bc 4ced 20bc 981c 933b c9e9 683d
00000090: 3d9e 523d 02cb 9abc 5cad 95bd e5fc 553d
000000a0: 12c6 f0bd bf57 d13c 92f8 84bd 6570 11be
000000b0: b930 d0bc 44ab 1d3d 29d3 ec3c 6e5d 88bd
000000c0: 05c1 1c3d 04c9 8abc 0bb9 023d 404c debc
000000d0: bee2 873d 1039 cd3d 21d3 4ebd 66d5 3b3d
000000e0: f112 50bc 7825 333d bcf8 96bd 563c 6dbc
000000f0: f478 93bd 3f07 453d 3118 093c e55a 9e3c
00000100: 1547 a1bd 0106 bbbd ff47 98bd e74e 9abc
00000110: ecb7 3b3d 755c 763d cdf1 b7bb dbac a1bc
00000120: 28ff bc3d dde1 233c 28cb cfbb 07eb f23c
00000130: c98f af3d 8f67 993d 1757 403d c5a4 08be
00000140: 8b65 243c 4a61 a9bd 60e6 e9bc fe0b 57bd
00000150: 3ab6 d3bd 5bcc ea3c 2238 6b3d 7a96 193d
00000160: c486 dbbd 899c 1ebe cee1 9fbc bd80 823c
00000170: 3635 43bb f5fe d73d b037 2ebc 208c bf3d
00000180: b31a d33d f42d 953d fa3c a5bd da05 4cbd
00000190: 2597 c23d c79c 843d 7486 c8bd cb36 d1bd
000001a0: d4cf 763c a494 b7bd eca6 81bd 5648 a83d
000001b0: 80d2 c9bd 2f51 b7bc 5e67 6bbd 1b84 0d3c
000001c0: ed16 a33d 18f6 73ba 1801 b33c 7f16 4bbd
000001d0: 324f 293c 65e4 93bd b7c4 adbc 3105 26be
000001e0: faeb 75bd 41d5 e6bd e643 113d c360 c73d
000001f0: 3add e23c 5db5 ebbc 7098 26bd da30 6ebb
00000200: 0390 e53c 912e 1ebd 3195 57bc d3d4 67bd
00000210: d415 bcbd 0e87 983c 39f1 14bd 5560 453d
00000220: 9e85 e13c 0592 4dbc f829 a8bc 4ba0 0f3d
00000230: 526e 0f3d 6136 b83d af10 aa3d 5baa fabc
00000240: 83e3 0f3d d4a5 043e 585a 923d 2200 203d
00000250: fba9 2ebc 886f 9b3b d159 4c3d 5813 10be
00000260: 0219 c1bb d045 b23c 0da0 d13d ddfd d93b
00000270: c2f8 663d 9105 133c baf8 573c 93d3 8dbc
00000280: 86ae 24bd 921b 913d 41fd bd3d fae5 5a3a
00000290: 2733 edbc 2924 97bc 012b 463d 4d0a c93b
000002a0: cd96 6f3b 3d55 43bc 6194 36bd dcb8 923d
000002b0: 243b 703c 634f 803d 205d d43d 0158 e7bb
000002c0: d466 41bd 6710 2ebd ec34 2abe 5621 4d3d
000002d0: 3fb0 89bb 047c afbc 8eff 84bc 0c00 3b3c
000002e0: eb16 3cbd 6f42 913d c672 843d 5ee3 6a3d
000002f0: 9b0e 653d 3c66 95bc 474a 4dbc b291 84bb
00000300: 24b7 77bd e53f 4f3d 3857 53b9 e370 8d3d
00000310: 23cc b33d 7cde fabd 75d4 81bc 4c0e 723d
00000320: 5ec8 f2bc e088 f9bd 2aeb debd f2ae 6d3d
00000330: 3223 b1bd 5559 f43c 95c8 053d 6343 8e3d
00000340: 5e2d 8b3d ec7c 8ebc cc43 c53c 089f c03d
00000350: fa3b 4bbd 2688 063c ca42 5bbd 7b91 033d
00000360: f6bf c33d ceae 913c 2031 b43d 5074 11bd
00000370: b28f 93bd 280c f2bc 8e80 e73c db21 04bd
00000380: 9b75 a13b 97fe 0bbd cccd 0bbd 57d2 3ebd
00000390: bced 1fbd a0e3 c2bc 68e0 d6bd cdc7 ebbc
000003a0: b81c a93d cf95 afbd ab3b 6dbd 9b18 7bbd
000003b0: fc72 24bd 0ea7 04bd 1aad a43c e53d 12bd
000003c0: e39c 9ebd dbfe 1f3d e6d8 2c3d b776 4ebc
000003d0: 8c63 3abd bde6 a43d 5899 52bd 885a 8d3d
000003e0: acec f3bc 7ecc dc3c f706 b1ba 7abc df3c
000003f0: e39f afbc ee81 c8bd 5ddc 473d 8e8f 443c
0.014613038 -0.033918772 -0.007714907 -0.11390761 -0.068309195 -0.0047104643 0.00689732 -0.04490548
-0.104079254 0.025789563 -0.017645914 0.027429542 0.0033044019 -0.042231724 -0.058992248 -0.056515988
-0.082147986 -0.01772391 -0.07318894 0.017244358 -0.10788203 0.021677157 0.061191987 0.017084327
0.032329988 0.044979587 0.043707035 -0.054867797 -0.04607335 0.052275747 0.06553622 -0.06900298
-0.015647804 -0.009822201 0.0044894926 0.05686358 0.05142044 -0.01889563 -0.07308456 0.052243132
-0.11756529 0.025554536 -0.064927235 -0.14203031 -0.025413858 0.03849341 0.028909283 -0.06658445
0.038270015 -0.016941555 0.031914752 -0.027135968 0.066350445 0.100206494 -0.050494317 0.04585781
-0.0126998285 0.043736905 -0.07371661 -0.014479717 -0.07200804 0.048102614 0.008367584 0.019330451
-0.07874886 -0.091320045 -0.07435607 -0.018836452 0.0458297 0.060146768 -0.0056135417 -0.019735744
0.09228355 0.0100025805 -0.006341357 0.029653085 0.08572347 0.07490455 0.046958055 -0.13344105
0.010033975 -0.082705095 -0.028552234 -0.05250167 -0.10337491 0.028661897 0.05742658 0.03749702
-0.10719064 -0.15489401 -0.019516852 0.015930528 -0.0029786355 0.10546676 -0.010633394 0.093528986
0.10307827 0.072841555 -0.08068271 -0.049810268 0.09501485 0.064752154 -0.0979127 -0.10215529
0.0150641985 -0.08963898 -0.06330666 0.08216922 -0.09854603 -0.022377579 -0.057471626 0.008637453
0.07963357 -0.0009306385 0.021851107 -0.049582 0.010333823 -0.07221297 -0.021211965 -0.16212918
-0.060039498 -0.11271144 0.035465144 0.09735253 0.02769338 -0.028773004 -0.04067272 -0.0036345036
0.028022772 -0.038618628 -0.013158129 -0.05659945 -0.09183851 0.018619087 -0.03636286 0.048187573
0.027529534 -0.012547021 -0.020527825 0.035064977 0.03501732 0.08994747 0.083039634 -0.03059881
0.03512908 0.12953883 0.07146138 0.039062627 -0.010660644 0.00474352 0.049890343 -0.14069879
-0.0058928737 0.021761805 0.102356054 0.0066525773 0.056389578 0.008973495 0.01318186 -0.0173128
-0.0402055 0.07085337 0.0927682 0.0008350309 -0.028955055 -0.01844986 0.048380855 0.006135261
0.003655839 -0.011922178 -0.0445751 0.071641654 0.014662538 0.06265142 0.10369325 -0.0070600514
-0.047217205 -0.04249611 -0.1662175 0.05008062 -0.0042019184 -0.02142144 -0.01623514 0.011413585
-0.045920294 0.07092749 0.06467204 0.05734574 0.055922132 -0.018237226 -0.012529916 -0.0040456885
-0.06047739 0.050598044 -0.0002015502 0.06906297 0.0877917 -0.12249467 -0.015848378 0.059095666
-0.029636558 -0.1218431 -0.10884698 0.05802817 -0.08649291 0.029827753 0.032661993 0.06946447
0.067957625 -0.017393552 0.02408018 0.09405333 -0.049617745 0.008211171 -0.053530492 0.032121163
0.09558098 0.017783549 0.08798432 -0.035511315 -0.07205142 -0.029546812 0.028259542 -0.03225885
0.0049273497 -0.034178343 -0.03413181 -0.046587314 -0.03904508 -0.02379018 -0.10492021 -0.028781796
0.08257431 -0.085734956 -0.057918232 -0.061302762 -0.04014872 -0.03238588 0.020102073 -0.03570356
-0.077447675 0.03906141 0.042199038 -0.012601546 -0.04550509 0.08051822 -0.05141577 0.06902033
-0.02977594 0.026952978 -0.0013506104 0.027311552 -0.021438545 -0.09790407 0.04879414 0.011997117

actor.actor.6.bias f4 [12]
00000000: 011b c8bc d760 9abc 9f0c 353d 3787 ff3c
00000010: dab1 b03d d9ec 73bd 3ac0 1eba ceff 93bc
00000020: 71db 62ba 853d 0bbd f2de 773d 0e34 a9bb
-0.024426939 -0.018845005 0.04420149 0.031192405 0.086276725 -0.059552047 -0.00060558657 -0.018066313
-0.0008653915 -0.033994216 0.06051535 -0.005163676

onnx::Div_36 f4 [1, 42]
00000000: dc7d f73d c277 f33d ee9a d33d 21e4 ff3d
00000010: e06e d03d afe2 0b3e 6e26 173e 0ede f73d
00000020: 19d9 e73d 0070 f53d bb62 da3d 1b0a 0b3e
00000030: cb9d 4740 274d 1340 4aa9 2340 d405 5b40
00000040: 0469 3240 de8e 6c40 7be4 6c40 f32f 4140
00000050: 1b15 5a40 6704 6840 b6b4 4040 d257 6d40
00000060: 41ed df3f cc57 573f 71a0 143f 022d 9b3d
00000070: cc8d 353e 1087 a93d 9a32 dd3e daf8 bc3e
00000080: caa5 cc3e 6dca bc3e 4956 a53e f55f eb3e
00000090: 437b e73e 4d44 af3e c8cd 133f bcc4 b43e
000000a0: e9ad a23e 78f9 e83e
0.12084553 0.11888076 0.10332285 0.12494684 0.10177398 0.13660692 0.14760754 0.121029004
0.11320705 0.11984253 0.106633626 0.13578074 3.119006 2.301584 2.5572076 3.4222307
2.7876596 3.69622 3.7014453 3.0185516 3.4075382 3.6252687 3.0110297 3.7084851
1.7494279 0.8411834 0.58057314 0.07576944 0.17729872 0.08277714 0.43202668 0.3690861
0.39970237 0.3687319 0.32292393 0.45971647 0.4521123 0.34231797 0.5773587 0.35306346
0.31773308 0.4550283
